results/FoodTarget_imitation_4/My Behavior/My Behavior-8319.onnx (onnx, 92591 bytes, 13 tensors)

action_model._discrete_distribution.branches.0.bias f4 [4]
0.0 0.0 0.0 0.0
00000000: 0000 0000 0000 0000 0000 0000 0000 0000

action_model._discrete_distribution.branches.0.weight f4 [4, 128]
-0.0048735966 -0.012183784 -0.01577772 -0.0059141163 -0.0012505616 0.01435887 0.023255667 0.011121879
-0.0017871844 -0.00095069886 -0.0097306715 -0.010027106 0.0014325328 0.0077161114 -0.013822881 -0.0062857405
-0.0068213786 0.006639879 -0.007984503 -0.01182734 -0.01243389 0.00604062 -0.0015590584 -0.0026754788
-0.0084817195 -0.0010817591 -0.014288053 -0.021388015 -0.010459559 -0.016380703 -0.0034621675 -0.018000914
-0.016308231 -0.007421481 0.017458854 0.0145114735 0.007405759 0.0049823024 -0.0032520313 0.0028239905
-0.010328306 0.0024112284 -0.00056887994 -0.010076729 0.004289589 0.0014334125 -0.0037560933 0.005144076
0.019259518 0.00535481 -0.00738134 -0.0028335184 -0.0028084267 -0.00339651 -0.00868271 -0.0020880844
-0.009930511 0.01609801 0.00057035533 0.0022996764 0.0036495202 0.007307676 -0.01323472 -0.012528159
0.013600281 0.0032643673 0.0016587786 0.0018456649 0.0097625945 -0.00461013 0.004737496 -0.0038986958
0.008243623 -0.0022563688 -0.0026713945 -0.004779633 0.0087636905 -0.0048772986 -0.010681188 0.0041094297
-0.011598155 -0.000103014165 -0.010843741 0.004177376 -0.004703904 -0.00053266867 0.005683377 -0.006326464
-0.010692364 0.0048145023 -0.017297935 0.01721392 0.0043690363 0.0035402942 -0.009060898 -0.012757266
0.013048413 -0.003306098 -0.0014551838 -0.0015467006 0.0022985882 -0.0052148993 0.001240191 0.0129970405
-0.0037567434 0.011892929 -0.014304647 -0.008250362 -0.011136084 0.0016499971 -0.006576732 -0.0068614385
-0.0008082615 -0.008232532 0.004968451 -0.0018255819 0.008305257 0.018007694 -0.005880685 0.0050655124
-0.008135054 0.007088564 -0.004142491 -0.012249695 -0.007977984 0.014209094 -0.010080964 -0.0023120677
-0.031415325 -0.012586291 0.0010135014 0.0056581334 -0.0031386854 0.023525665 0.0063657896 -0.0017323863
-0.00017109531 0.019131439 0.009847912 0.019646777 -0.0028213826 0.0062355413 0.014843702 -0.0016261594
-0.0030728974 -0.01643293 0.016644781 0.009050653 0.0066789663 -0.011203977 -0.006193938 0.011602209
0.0034129885 -0.0056642075 -0.004854386 0.019611582 -0.010159695 -0.0044479067 -0.005604309 -0.0043477765
0.010322488 0.0077710273 -0.00214535 -0.0014599012 -0.0050996454 0.016919652 0.009319338 -0.0068546073
0.012476153 -0.0027477879 0.001660847 0.004553671 -0.012182785 0.0067345486 0.004147058 0.0028302232
0.004559635 -0.0109474175 -0.006719287 -0.0025111174 -0.0037093721 0.0017715658 -0.015242976 -0.011586941
-0.0061588953 -0.00900609 -0.0050740596 0.018309673 0.022625124 -0.003237987 -0.008479122 0.003807705
0.0015401898 0.009398396 -0.015799446 -0.0055888575 -0.00963006 0.0032619198 0.005198756 -0.005553223
0.0076930034 -0.004461323 0.004353194 0.009758743 0.01158981 0.00019568163 0.007833547 -0.0036901627
-0.0082686525 0.018648714 0.010521865 0.0003145662 -0.013991348 0.00046541632 -0.012214596 0.0062676803
0.005594633 -0.004877299 -0.0028470343 0.0045229127 -0.012744441 0.003020625 -0.006648919 -4.140218e-05
-0.00020146955 -0.004032524 -0.003994592 -0.0019633542 0.0029766632 0.016894553 0.0008063988 0.006117195
0.012758694 -0.0036127355 -0.0047389288 -0.0073063835 -0.012217363 0.0064430432 -0.009712605 0.015512826
0.0017662781 0.014416355 -0.002557549 -0.006481347 -0.0028776021 0.0055069225 0.0060478854 0.0006762101
-0.0013024668 -0.008314209 0.020284837 0.012846646 -0.0025710321 0.009537876 -0.0067530475 0.0014881999
00000000: b1b2 9fbb 7e9e 47bc 4740 81bc 34cb c1bb
00000010: e2e9 a3ba 7741 6b3c ab82 be3c 8b38 363c
00000020: f53f eaba 5238 79ba 656d 1fbc bb48 24bc
00000030: d3c3 bb3a 6fd7 fc3b 5d79 62bc 9df8 cdbb
00000040: df85 dfbb 5893 d93b 6fd1 02bc 76c7 41bc
00000050: 84b7 4bbc 65f0 c53b 5259 ccba 1657 2fbb
00000060: e9f6 0abc d0c9 8dba 7018 6abc eb35 afbc
00000070: 925e 2bbc d330 86bc 88e5 62bb a776 93bc
00000080: d798 85bc e52f f3bb df05 8f3c 88c1 6d3c
00000090: 02ac f23b 9542 a33b 0820 55bb b312 393b
000000a0: 0e38 29bc b305 1e3b e320 15ba dd18 25bc
000000b0: ae8f 8c3b 58e1 bb3a ca28 76bb a38f a83b
000000c0: 23c6 9d3c 6777 af3b 2bdf f1bb 8db2 39bb
000000d0: 950d 38bb fb97 5ebb ed41 0ebc 3ed8 08bb
000000e0: 95b3 22bc f9df 833c e683 153a 2bb6 163b
000000f0: ca2c 6f3b 3b75 ef3b 70d6 58bc e842 4dbc
00000100: b7d3 5e3c ffee 553b 606b d93a 3dea f13a
00000110: 4af3 1f3c 9310 97bb ff3c 9b3b 4381 7fbb
00000120: 4310 073c 96df 13bb 9012 2fbb 789e 9cbb
00000130: 9595 0f3c bfd1 9fbb 2600 2fbc 65a8 863b
00000140: 3006 3ebc 4f09 d8b8 f2a9 31bc 5fe2 883b
00000150: 3523 9abb caa2 0bba 9f3b ba3b 3a4e cfbb
00000160: 062f 2fbc f9c2 9d3b 66b4 8dbc 3504 8d3c
00000170: 222a 8f3b 4804 683b 2974 14bc da03 51bc
00000180: 03c9 553c 1fab 58bb debb beba a9ba caba
00000190: e9a3 163b bfe1 aabb e88d a23a 8af1 543c
000001a0: b233 76bb 8fda 423c 0a5e 6abc 872c 07bc
000001b0: 1f74 36bc b744 d83a a081 d7bb ebd5 e0bb
000001c0: 83e1 53ba bee1 06bc 63ce a23b 5d48 efba
000001d0: c612 083c df84 933c c3b2 c0bb 99fc a53b
000001e0: e448 05bc 2f47 e83b bcbd 87bb f2b2 48bc
000001f0: 17b6 02bc 43cd 683c a12a 25bc 0f86 17bb
00000200: 5bad 00bd bb36 4ebc 77d7 843a dd67 b93b
00000210: 67b2 4dbb e5b8 c03c 1d98 d03b 3d11 e3ba
00000220: 0c68 33b9 89b9 9c3c 2359 213c 47f2 a03c
00000230: f2e6 38bb 8353 cc3b 0033 733c db24 d5ba
00000240: aa62 49bb 5a9e 86bc a35a 883c 3149 143c
00000250: 3bdb da3b e390 37bc 85f6 cabb 3117 3e3c
00000260: 72ac 5f3b d19a b9bb 8b11 9fbb 78a8 a03c
00000270: d974 26bc bfbf 91bb 5aa4 b7bb cb77 8ebb
00000280: a71f 293c 1aa4 fe3b 0099 0cbb 285a bfba
00000290: ed1a a7bb 159b 8a3c 23b0 183c 9d9c e0bb
000002a0: c768 4c3c 3b14 34bb c7b0 d93a f636 953b
000002b0: 4e9a 47bc 7dad dc3b 0be4 873b 447b 393b
000002c0: fe68 953b cc5c 33bc 772d dcbb 8f91 24bb
000002d0: f018 73bb e233 e83a adbd 79bc 27d7 3dbc
000002e0: 8fd0 c9bb 488e 13bc 4c44 a6bb 2bfe 953c
000002f0: 5358 b93c 6834 54bb 04ec 0abc b08a 793b
00000300: 32e0 c93a bbfb 193c d76d 81bc bc22 b7bb
00000310: 66c7 1dbc efc5 553b 535a aa3b d0f7 b5bb
00000320: 9715 fc3b 4a30 92bb 3da5 8e3b 23e3 1f3c
00000330: 30e3 3d3c e32f 4d39 4758 003c a8d6 71bb
00000340: 3e79 07bc 30c5 983c e763 2c3c 5cec a439
00000350: f83b 65bc 1f03 f439 bb1f 48bc 1d61 cd3b
00000360: 2f53 b73b c0d1 9fbb 4f95 3abb f134 943b
00000370: 0fce 50bc aef5 453b 2ddf d9bb 41a7 2db8
00000380: 9241 53b9 4323 84bb 11e5 82bb 9eab 00bb
00000390: 1f14 433b 7266 8a3c 8264 533a c072 c83b
000003a0: d709 513c a5c3 6cbb 0449 9bbb 636a efbb
000003b0: 562b 48bc 2a20 d33b 9e21 1fbc 8229 7e3c
000003c0: 7582 e73a 9332 6c3c 8d9c 27bb 7b61 d4bb
000003d0: 2796 3cbb 6a73 b43b 572d c63b b143 313a
000003e0: 89b7 aaba 5238 08bc 632c a63c bd7a 523c
000003f0: c37e 28bb c044 1c3c ab48 ddbb b40f c33a

action_model._discrete_distribution.branches.1.bias f4 [4]
0.0 0.0 0.0 0.0
00000000: 0000 0000 0000 0000 0000 0000 0000 0000

action_model._discrete_distribution.branches.1.weight f4 [4, 128]
-0.005775836 -0.0023623423 0.007022808 0.01956304 -0.0038571549 -0.01017091 -0.008428796 0.00029341792
0.0035387445 -0.0094239805 -0.0056155976 0.0024414388 0.0047744187 -0.007669009 0.0015688258 0.0046423883
-0.0050231474 0.004961667 -0.0030829676 0.0037593201 0.013959519 0.0025123197 -0.017585201 0.0042638727
-0.0010300357 0.00587635 0.0070527606 -0.0013961078 -0.0043989248 0.0006249294 0.010638216 -0.004913554
0.0004691042 -0.023077942 -0.003667842 1.5810312e-05 0.0064094774 -0.0095856665 -0.0046544983 0.0052541103
0.017232401 -0.012277039 -0.0010858605 -0.009871307 0.0019342958 -0.008119688 -0.008959574 -0.0004958075
-0.017989991 0.0031797613 -0.001146152 -0.0036949837 -0.0036043238 0.008876888 0.006520644 -0.0131005
-0.008214055 -0.011139308 0.005010764 -0.008876831 0.0003720643 -0.011533069 -0.0019116754 -0.007647224
-0.017883873 -0.0028163148 -0.0068122298 -0.011622312 -0.010169688 -0.0032253135 0.0030236568 0.007758867
-0.006067175 0.013112417 0.0071306424 -0.009366105 0.0030509708 -0.013084404 0.0024109369 0.007898422
0.01911367 0.00509368 0.00017115579 -0.005082636 -0.004378834 -0.0083291 0.0020490184 -0.0031897184
-0.013559473 -0.0001857081 0.0043813856 -0.009073103 -0.006177341 0.007083032 -0.010895703 0.004893581
-0.0009626653 -0.007458843 -0.008278566 0.0041985055 0.010685513 0.016742706 0.0005597083 0.0015556731
0.00065725984 0.0041860635 -0.0043798108 0.009618595 -0.0033590563 -0.005908706 0.0007561706 -0.01053902
0.0130514875 -0.011325126 0.005137845 -0.007113999 -0.022774668 -0.010701484 -0.013919863 -0.003314145
-0.010639955 -0.002417877 0.0026428578 0.0028577389 -0.008143514 0.011409927 -0.00540282 -0.011754262
0.021219237 0.0055186576 0.011402845 0.011200133 -0.0026239543 -0.015488607 0.010619945 0.0012357326
0.005551909 0.002194749 -0.008716185 0.01779974 0.00025387312 0.0023735582 0.012011641 -0.0153467795
0.0062934794 -0.003934727 0.0017889763 0.0053384895 -0.01799861 0.0073374785 0.003998063 0.0051969285
0.0047793444 -0.010718272 -0.0074247657 0.011173266 0.0051253275 -0.015960386 0.0057339165 0.0042195185
0.009581797 0.007936481 -0.0063390844 -0.018637681 -6.772e-05 0.00012561075 0.0076955864 -0.015054876
-0.0013562179 -0.0030144148 -0.023025265 0.0052451356 0.007193224 5.4762328e-05 -0.0025667953 0.006150916
-0.011462715 -0.002527829 0.007676862 0.014811759 -0.010533541 0.012971476 0.005147241 0.01466268
-0.012173759 0.0030037295 0.0012844837 0.0018220211 0.013674575 0.010036374 -0.0022479112 -0.006299098
-0.013673983 0.015920054 -0.0073373215 -0.009888592 0.017951773 -0.005212635 -0.004771495 -0.0050504953
0.009303285 0.0033736888 0.00627921 -0.015543821 -0.015302337 -0.01097362 -0.0074683935 -0.0051854993
0.0091564115 -0.0014406365 -0.0073398724 -0.010889904 -7.3548195e-05 0.0063160197 0.0020450812 -0.0058628055
0.009879483 -0.013429283 0.0014699937 -0.01076244 -0.0074339523 -0.0062792203 0.002473236 0.0123352865
0.0015678759 -0.0013707419 -0.015892254 -0.0130247595 0.0054062875 -0.0023832486 0.012030057 -0.011909063
0.008364605 0.004939637 -0.0106463125 0.000920852 0.018634913 0.0013153118 0.0009920782 -0.0180687
-0.0019945614 -0.008067166 -0.004268558 0.0029697204 -0.00056836125 -0.012046042 0.0037574514 0.0027378108
-0.0074010775 -0.0034269292 -0.0031350073 -0.0011870619 -0.001065322 0.0005115219 -0.008428634 -0.004811766
00000000: 3943 bdbb 87d1 1abb 951f e63b ab42 a03c
00000010: 52c8 7cbb e3a3 26bc ef18 0abc e3d5 9939
00000020: 48ea 673b 0a67 1abc 0c03 b8bb 8c00 203b
00000030: ba72 9c3b 4f4c fbbb 0fa1 cd3a 2d1f 983b
00000040: 3799 a4bb 7b95 a23b 9d0b 4abb ed5e 763b
00000050: 77b6 643c bba5 243b d70e 90bc f5b7 8b3b
00000060: 4302 87ba 668e c03b d81a e73b 9bfd b6ba
00000070: db24 90bb 4dd2 233a e94b 2e3c e101 a1bb
00000080: 1af2 f539 f40d bdbc 2d60 70bb 63a0 8437
00000090: 9806 d23b 330d 1dbc c384 98bb ac2a ac3b
000000a0: f72a 8d3c a225 49bc 6f53 8eba 43bb 21bc
000000b0: 3288 fd3a 7108 05bc 2dcb 12bc 14f9 01ba
000000c0: bf5f 93bc 8b63 503b 7b3a 96ba 8a27 72bb
000000d0: 8536 6cbb 5e70 113c 20ab d53b 7ba3 56bc
000000e0: 3e94 06bc a581 36bc 5631 a43b 2170 11bc
000000f0: a011 c339 33f5 3cbc 2f91 faba 9095 fabb
00000100: 3381 92bc ec91 38bb 2039 dfbb 826b 3ebc
00000110: c39e 26bc c85f 53bb 8b28 463b 183e fe3b
00000120: 27cf c6bb 77d5 563c 2aa8 e93b 4b74 19bc
00000130: ccf2 473b f85f 56bc cf00 1e3b 6268 013c
00000140: 4594 9c3c e3e8 a63b 4878 3339 3e8c a6bb
00000150: 527c 8fbb c776 08bc d348 063b 980a 51bb
00000160: 8d28 5ebc a3ba 42b9 ba91 8f3b 5aa7 14bc
00000170: 4b6b cabb c718 e83b e483 32bc 555a a03b
00000180: 605b 7cba 4f69 f4bb d3a2 07bc 9e93 893b
00000190: 4a12 2f3c 0028 893c 63b9 123a bae7 cb3a
000001a0: f64b 2c3a 3f2b 893b 8484 8fbb 5097 1d3c
000001b0: 9d23 5cbb d29d c1bb c039 463a dbab 2cbc
000001c0: e8d5 553c 058d 39bc 5e5b a83b 8d1c e9bb
000001d0: f191 babc 4755 2fbc 2310 64bc 2032 59bb
000001e0: 3553 2ebc 3f75 1ebb cc33 2d3b e748 3b3b
000001f0: 606c 05bc b4f0 3a3c 240a b1bb f394 40bc
00000200: f7d3 ad3c dbd5 b43b 00d3 3a3c c380 373c
00000210: a6f6 2bbb edc3 7dbc 47ff 2d3c 4ef8 a13a
00000220: caec b53b c7d5 0f3b 54ce 0ebc c3d0 913c
00000230: 461a 8539 b38d 1b3b 79cc 443c 0f71 7bbc
00000240: 8839 ce3b e2ee 80bb 157c ea3a 7fee ae3b
00000250: d271 93bc 3b6f f03b 2f02 833b ff4a aa3b
00000260: 0c9c 9c3b b19b 2fbc 734b f3bb 1310 373c
00000270: 5df2 a73b 5bbf 82bc 94e3 bb3b e343 8a3b
00000280: f8fc 1c3c 0408 023c 18b8 cfbb 0dae 98bc
00000290: e604 8eb8 61b6 0339 422b fc3b baa8 76bc
000002a0: 1fc3 b1ba 7d8d 45bb 7b9f bcbc 63df ab3b
000002b0: 23b5 eb3b 9ab0 6538 ae37 28bb a08d c93b
000002c0: 1dce 3bbc efa9 25bb 308e fb3b 05ad 723c
000002d0: e094 2cbc 5086 543c 30aa a83b bd3b 703c
000002e0: 7274 47bc 38da 443b 1f5c a83a e2d0 ee3a
000002f0: 530b 603c 9b6f 243c b151 13bb aa68 cebb
00000300: d708 60bc c66a 823c ea6d f0bb c303 22bc
00000310: 990f 933c c0ce aabb 335a 9cbb a07e a5bb
00000320: ce6c 183c 1b19 5d3b d5c1 cd3b 83ab 7ebc
00000330: a7b6 7abc b3ca 33bc 6db9 f4bb 1feb a9bb
00000340: c604 163c bdd3 bcba 5083 f0bb 916b 32bc
00000350: e33d 9ab8 9df6 ce3b c506 063b c71c c0bb
00000360: 8edd 213c 7f06 5cbc ceac c03a f254 30bc
00000370: 8398 f3bb ebc1 cdbb 0416 223b f119 4a3c
00000380: 2f81 cd3a 77aa b3ba 7930 82bc cd65 55bc
00000390: 3a27 b13b 4730 1cbb b719 453c 3b1e 43bc
000003a0: b20b 093c aedc a13b df6d 2ebc 5565 713a
000003b0: 3fa8 983c 8a66 ac3a 9f08 823a cf04 94bc
000003c0: 30b7 02bb 262c 04bc 43df 8bbb a49f 423b
000003d0: 14fe 14ba c35c 45bc 933f 763b d86c 333b
000003e0: bd84 f2bb 5596 60bb b274 4dbb 3097 9bba
000003f0: 46a2 8bba a717 063a 4118 0abc 05ac 9dbb

action_model._discrete_distribution.branches.2.bias f4 [4]
0.0 0.0 0.0 0.0
00000000: 0000 0000 0000 0000 0000 0000 0000 0000

action_model._discrete_distribution.branches.2.weight f4 [4, 128]
-0.006519971 -0.012096322 -0.016158838 -0.0010892217 0.0021614805 0.0018233577 0.013382742 0.0072027813
-0.011750385 -0.0071064653 -0.0048265555 0.0034476835 -0.0077019813 0.008916879 -0.0020248154 -0.0004606652
0.0042353887 -0.010600104 -0.006098415 0.008976652 -0.0012424986 0.007146643 0.0012826564 0.0034113084
0.0020430167 0.010536371 0.005378471 -0.0036891967 -0.011403933 -0.013780321 0.008186958 0.007827513
0.0028171774 0.010211246 0.012205607 0.0048865136 -0.0027088425 -0.016560892 0.010673023 0.006469102
-0.007942825 0.0066168527 -0.0029655257 0.0063168593 -0.0023771552 -0.0050228843 0.00619191 0.00939921
-0.0066929036 0.004817487 0.0010791419 -0.007732427 0.008293496 0.0023017607 -0.0040619564 0.016876742
-0.016903847 0.012738106 -0.0151101975 -0.016921284 0.0027666872 0.013091611 0.004616062 -0.0038940297
1.0726413e-05 -0.0011439689 0.013690657 0.0030877248 0.026139969 0.0056415168 0.006683764 -0.0073516197
0.007121697 -0.004193439 0.0024987708 0.0038513993 0.0030922838 -0.0050741285 0.016702054 0.0067849853
-0.009277963 0.0015440504 0.0004064336 -0.008367438 -0.004152498 -0.0021749057 -0.0057057724 -0.010219477
-0.0032680952 0.009902698 0.0069041066 0.00634516 0.0075975726 0.006280837 0.0039955545 -0.005754293
-0.0145594245 -0.0077272714 -0.0065123104 0.018608352 0.008935269 0.007485551 -0.007275799 -0.006507825
0.015819421 0.007888391 0.003160178 0.0034181343 -0.0050884765 0.026135731 0.016492903 0.012400671
0.0062773204 0.013297096 0.00969595 -0.0053183767 0.014025313 0.014220121 0.009309506 0.0063116066
-0.0023413778 0.020144196 0.0066399607 -0.0063171363 -0.0039267014 -0.008941905 0.003489413 -0.0038468079
-0.0072367177 0.00062019116 0.0011293412 0.002962534 -0.008682917 -0.003462401 -0.0018818214 0.006936019
-0.0025707823 0.005127577 -0.0054189977 0.027664632 0.008681978 -0.00090640265 -0.009405094 -0.0040439386
0.009020349 -0.009488183 0.0038645684 0.004399981 -0.006412314 -0.008202974 0.0013976087 0.0041803606
0.010250657 0.006958364 0.0055208798 -0.0011282534 -0.01463234 -0.011373861 0.0054551545 -0.0012536221
0.004755673 -0.0023559348 0.0011178136 0.014533396 -0.0027429725 -0.004612915 -2.9949733e-05 0.014678259
0.0142016485 0.00060786837 -0.00079566083 -0.008048999 -0.009901693 0.007801836 0.011451389 0.0023554917
0.00037522733 0.00074125966 0.012055206 -0.0015458188 0.0030479573 0.0016579115 -0.0021118035 0.019398686
0.0074682496 -0.0075874873 0.01308748 -0.005961872 -0.014213477 0.0027016706 0.011894799 0.011201959
-0.009059414 0.01162695 0.004088122 0.0072327517 0.011683116 0.009748842 0.0065788366 0.0048763747
0.010706908 -0.0032437537 -0.002173915 0.0054105143 -0.0047665285 -0.009808288 0.0071518184 -0.001874485
-0.0013320114 -0.014920239 0.025603686 -0.014813647 -0.009207807 0.003155933 -0.0004172701 -0.006268047
-0.005138445 -0.005025433 -0.00043200166 -0.0035453138 0.008642311 -0.016058877 -0.004664317 -0.014192852
0.01439762 -0.0046526077 0.0023090069 0.002313716 -0.007550771 -0.0018218242 0.0039503216 0.0069955364
-0.00017271483 -7.616669e-05 -0.010723743 -0.0066978857 0.008315503 0.018713968 -0.0038060744 -0.009607792
0.007788127 -0.0015227796 -0.007968347 0.0066988626 0.0034283602 0.009492929 -0.0065699057 0.014051311
-0.0020938641 -0.00026173113 0.008999928 0.0037805461 -0.008837014 -0.0032598104 0.012806571 0.006771999
00000000: 7ba5 d5bb a72f 46bc 8a5f 84bc 37c4 8eba
00000010: a0a7 0d3b bbfd ee3a 4a43 5b3c 4f05 ec3b
00000020: b084 40bc 5add e8bb 1528 9ebb 88f2 613b
00000030: e760 fcbb 1a18 123c c4b2 04bb 7085 f1b9
00000040: 04c9 8a3b 0fac 2dbc 36d5 c7bb cf12 133c
00000050: 56db a2ba 632e ea3b cf1e a83a 4290 5f3b
00000060: 22e4 053b bea0 2c3c e33d b03b 73c6 71bb
00000070: 90d7 3abc dbc6 61bc 9722 063c f83e 003c
00000080: 65a0 383b 124d 273c 07fa 473c 0c1f a03b
00000090: d686 31bb b5aa 87bc e7dd 2e3c c3fa d33b
000000a0: 9f22 02bc 2fd2 d83b 4459 42bb a8fd ce3b
000000b0: 0cca 1bbb 0297 a4bb 81e5 ca3b 25ff 193c
000000c0: 2550 dbbb 03dc 9d3b fe71 8d3a 4d60 fdbb
000000d0: 72e1 073c 23d9 163b 291a 85bb 1841 8a3c
000000e0: f079 8abc 7db3 503c c390 77bc 819e 8abc
000000f0: 4f51 353b 327e 563c 5642 973b fa32 7fbb
00000100: 98f5 3337 3af1 95ba c74e 603c 6d5b 4a3b
00000110: 7d23 d63c 79dc b83b 7a03 db3b dbe5 f0bb
00000120: 205d e93b 1e69 89bb 6bc2 233b c267 7c3b
00000130: eaa7 4a3b e044 a6bb bfd2 883c 9554 de3b
00000140: 9902 18bc bc61 ca3a 9816 d539 9417 09bc
00000150: ae11 88bb dd88 0ebb 7df7 babb 986f 27bc
00000160: 8a2d 56bb ed3e 223c d83b e23b 0feb cf3b
00000170: 0ff5 f83b 7bcf cd3b 24ed 823b 828e bcbb
00000180: a78a 6ebc 0d35 fdbb 3865 d5bb 8b70 983c
00000190: 3c65 123c 5a49 f53b d369 eebb 983f d5bb
000001a0: bb97 813c 4f3e 013c fd1a 4f3b c702 603b
000001b0: 3cbd a6bb 9a1a d63c 201c 873c 2f2c 4b3c
000001c0: fbb1 cd3b 10dc 593c c3db 1e3c c745 aebb
000001d0: 6dca 653c 83fb 683c e686 183c 98d1 ce3b
000001e0: cd71 19bb 7105 a53c 0794 d93b fbff cebb
000001f0: 8fab 80bb 1181 12bc a3ae 643b ba1a 7cbb
00000200: fd21 edbb 5394 223a 6706 943a 1327 423b
00000210: cb42 0ebc 73e9 62bb 73a7 f6ba 8b47 e33b
00000220: 927a 28bb 3c05 a83b d991 b1bb f0a0 e23c
00000230: db3e 0e3c a79b 6dba d317 1abc 0483 84bb
00000240: 16ca 133c 5374 1bbc b344 7d3b b72d 903b
00000250: 631e d2bb c465 06bc f72f b73a 68fb 883b
00000260: 5ff2 273c fd02 e43b 7fe8 b43b e7e1 93ba
00000270: 7bbc 6fbc 6e59 3abc 27c1 b23b 9450 a4ba
00000280: 7ad5 9b3b 0766 1abb 9a83 923a 7b1d 6e3c
00000290: 71c3 33bb f027 97bb 903c fbb7 157d 703c
000002a0: 08ae 683c 5b59 1f3a e593 50ba f3df 03bc
000002b0: b63a 22bc 8ba6 ff3b 9b9e 3b3c 985e 1a3b
000002c0: 29ba c439 1851 423a 3383 453c 129d caba
000002d0: 3dc0 473b 474e d93a 2f66 0abb fee9 9e3c
000002e0: 38b8 f43b 75a0 f8bb df6c 563c cf5b c3bb
000002f0: a5df 68bc 830e 313b 67e2 423c 6c88 373c
00000300: f06d 14bc f77e 3e3c a7f5 853b b800 ed3b
00000310: 8a6a 3f3c 9bb9 1f3c 4893 d73b ffc9 9f3b
00000320: 076c 2f3c 2895 54bb 3e78 0ebb af4a b13b
00000330: 8a30 9cbb f1b2 20bc cd59 ea3b 48b1 f5ba
00000340: e396 aeba 0574 74bc d2be d13c f0b4 72bc
00000350: 57dc 16bc c5d3 4e3b 0bc5 dab9 3064 cdbb
00000360: 6760 a8bb 63ac a4bb 487e e2b9 7f58 68bb
00000370: 7b98 0d3c e88d 83bc 20d7 98bb 2389 68bc
00000380: ffe3 6b3c e774 98bb b552 173b b7a1 173b
00000390: 756c f7bb 47ca eeba b371 813b d03a e53b
000003a0: c91a 35b9 aebb 9fb8 a3b2 2fbc f079 dbbb
000003b0: bf3d 083c 094e 993c 556f 79bb 006a 1dbc
000003c0: 8b33 ff3b 0198 c7ba ab8d 02bc 2282 db3b
000003d0: 57ae 603b 3b88 1b3c 5d48 d7bb 7837 663c
000003e0: 3639 09bb f538 89b9 6f74 133c 0ac3 773b
000003f0: 20c9 10bc 8ba2 55bb a7d2 513c a5e7 dd3b

action_model._discrete_distribution.branches.3.bias f4 [4]
0.0 0.0 0.0 0.0
00000000: 0000 0000 0000 0000 0000 0000 0000 0000

action_model._discrete_distribution.branches.3.weight f4 [4, 128]
0.008160291 -0.0052288785 0.011445482 0.009581634 0.005843078 -0.0064643025 0.010475807 0.0055744485
0.009631633 -0.010119382 -0.00040936712 0.0053299167 -0.0054821447 0.011548619 0.002052984 -0.010060748
-0.011546003 -0.012789157 0.0011187274 0.016670926 -0.007705143 0.0039091464 -0.0041663605 0.0035576168
-0.0028230192 0.016774325 0.0114437705 -0.0076286243 -0.0013508181 0.006188813 -0.0026011483 -0.0076261484
0.023567496 -0.0015935919 0.003260467 0.0034496083 -0.007022599 0.0017351735 -0.0026648857 -4.317441e-05
-0.0069556274 0.0044643735 0.0066520744 -0.01763553 0.0060583847 0.0085636545 -0.0007070653 0.0007242024
0.001456898 0.010486718 0.009095783 0.008952755 0.013818211 -0.010962369 -0.0047149966 0.0032840911
-0.012516672 0.01490765 -0.013670081 0.0024439048 -0.0040516905 -0.0007752468 -0.001716554 0.005366439
0.020006916 0.0009415387 -0.00071502425 -0.010263054 -0.010816767 0.00445138 0.0039022283 0.00932839
-0.004730188 -0.0026763235 -0.015555915 0.0059332675 -0.0014207837 -0.007915612 -0.0055117984 0.008241208
-0.0027114083 0.01449032 -0.0039563677 0.010516593 -0.005378082 0.0094869435 0.0018869995 -0.0011281781
0.0026675728 -0.0017490778 -0.0012080965 -0.0025277992 0.017376263 0.01066166 -0.0072463364 -0.0019999756
-0.0072224513 0.0011101932 -7.459164e-05 -0.0007418766 0.0071338722 -0.017368577 -0.0029728138 0.017773788
-0.002724729 0.002114014 0.004766712 0.009661648 0.0052589183 0.01426401 -0.0071093678 -0.0071753412
0.009946055 0.0005533991 0.0013537392 0.0061053135 0.0059073563 0.0034963011 -0.011970776 -0.0050609787
-0.014641622 -0.014399207 -0.0038320788 -0.008863007 -0.0048766145 0.013770799 -0.005320787 -0.0022329164
-0.0011575863 -0.014088891 -0.009069582 -0.018026372 -0.010364061 -0.00978727 0.008294239 0.01714695
-0.00087438145 -0.013480166 -0.010545953 -0.01756983 0.0093148565 0.0024180321 -0.010330608 -0.008595112
0.0070605106 0.017371142 0.0029385348 0.0074716466 -0.002662799 0.00080309587 -0.022518553 -0.0050298604
0.0033142772 0.00682465 0.004213327 -0.007884308 0.0028939222 -0.012423061 -0.0109582525 -0.01247092
0.0035981503 0.012280168 -0.0033658203 -0.0028545551 0.015359736 0.0046647754 0.0033399798 -0.007551697
0.0109447 0.01140659 -0.0048834127 -0.005194552 -0.017302794 0.012500606 0.0041642953 0.00012053289
-0.005957125 0.009988873 -0.0002132551 -0.00803125 -0.010973637 0.0028048342 -0.0003463652 0.0005697758
0.0049746907 -0.0013502955 -0.0005229072 -0.0069924006 0.0072390507 0.0004959 0.0010897825 -0.02002914
-0.018433677 0.008409056 0.004947973 -0.00543374 -0.006739571 0.009052484 -0.016204225 0.011416203
0.0051988936 0.015674926 -0.006661334 -0.0029025523 -0.00079557905 0.0057285368 -0.007439591 -0.006996091
0.007962366 0.0026892843 -0.008294769 -0.016244909 -0.011830331 -0.014647129 -0.0034098967 0.0052181077
-0.0048096036 -0.0013061458 -0.004832461 -0.008564462 -0.017489674 -0.0043914025 0.013440268 -0.00023187895
-0.011125346 -0.0041516568 0.017345496 0.0012709167 -0.003256264 -0.010383769 -0.009626325 0.008215007
0.013254793 0.012451161 0.012389237 -0.01067963 0.02665895 6.510397e-05 -0.012023109 -0.0075931884
0.009780334 0.00653954 -0.0028136417 0.0016596804 0.0026033854 -0.012589167 -0.0009394418 -0.007379158
0.005782941 -0.0036376063 0.0014960059 -0.00742599 0.005180642 0.008887148 -0.0065415087 -0.005077925
00000000: beb2 053c 0357 abbb d585 3b3c 49fc 1c3c
00000010: 4a77 bf3b 80d2 d3bb b8a2 2b3c dda9 b63b
00000020: ffcd 1d3c c4cb 25bc 53a0 d6b9 95a6 ae3b
00000030: 90a3 b3bb 6b36 3d3c 5b8b 063b d6d5 24bc
00000040: 722b 3dbc 9d89 51bc 43a2 923a 7791 883c
00000050: 6d7b fcbb 4c18 803b f785 88bb e826 693b
00000060: 6702 39bb 4f6a 893c a77e 3b3c 8af9 f9bb
00000070: ef0d b1ba 87cb ca3b 0778 2abb c5e4 f9bb
00000080: 9f10 c13c 12e0 d0ba 8fad 553b d312 623b
00000090: d51d e6bb c36e e33a 5da5 2ebb 2b16 35b8
000000a0: 08ec e3bb e149 923b a5f9 d93b 6378 90bc
000000b0: 6a85 c63b 924e 0c3c 595a 39ba 66d8 3d3a
000000c0: 63f5 be3a 7cd0 2b3c 7b06 153c 93ae 123c
000000d0: c765 623c 829b 33bc 4280 9abb e839 573b
000000e0: ba12 4dbc 373f 743c 7af8 5fbc eb29 203b
000000f0: 0bc4 84bb ef39 4bba fffd e0ba f4d8 af3b
00000100: 8be5 a33c 98d1 763a 7770 3bba 5e26 28bc
00000110: cf38 31bc e2dc 913b 87bc 7f3b 1ad6 183c
00000120: b1ff 9abb 4265 2fbb 3dde 7ebc db6b c23b
00000130: 9739 baba 7cb0 01bc 519c b4bb 2206 073c
00000140: e2b1 31bb cf68 6d3c 6ba4 81bb ca4d 2c3c
00000150: 9f3a b0bb 206f 1b3c 3255 f73a 60df 93ba
00000160: 72d2 2e3b 5041 e5ba fe58 9eba 6fa9 25bb
00000170: aa58 8e3c 3eae 2e3c ad72 edbb 0612 03bb
00000180: 50aa ecbb e783 913a 156e 9cb8 7f7a 42ba
00000190: 42c3 e93b 8c48 8ebc 8ad3 42bb 569a 913c
000001a0: 5e91 32bb 458b 0a3b 1432 9c3b e44b 1e3c
000001b0: 0153 ac3b 98b3 693c b3f5 e8bb 201f ebbb
000001c0: c7f4 223c fc11 113a f36f b13a 150f c83b
000001d0: 7f92 c13b 3322 653b 1321 44bc 91d6 a5bb
000001e0: 6ae3 6fbc a7ea 6bbc 9d23 7bbb 2536 11bc
000001f0: 02cc 9fbb eb9e 613c ff59 aebb 1f56 12bb
00000200: 27ba 97ba 18d5 66bc 9698 14bc 0bac 93bc
00000210: 06ce 29bc c95a 20bc 8fe4 073c c377 8c3c
00000220: bf36 65ba eadb 5cbc efc8 2cbc 9bee 8fbc
00000230: 579d 183c d977 1e3b b641 29bc 83d2 0cbc
00000240: db5b e73b ed4d 8e3c 6f94 403b b7d4 f43b
00000250: 5b82 2ebb da86 523a d478 b8bc 87d1 a4bb
00000260: 5834 593b 50a1 df3b f30f 8a3b 2f2d 01bc
00000270: f5a7 3d3b 188a 4bbc 3e8a 33bc d452 4cbc
00000280: f2ce 6b3b c232 493c 1895 5cbb 7d13 3bbb
00000290: 67a7 7b3c f9da 983b 90e3 5a3b 3a74 f7bb
000002a0: 6651 333c b5e2 3a3c 0905 a0bb 0f37 aabb
000002b0: 97be 8dbc 57cf 4c3c a474 883b 9ac6 fc38
000002c0: fd33 c3bb 5fa8 233c 3b9d 5fb9 8195 03bc
000002d0: c5ca 33bc 4fd1 373b 5a98 b5b9 025d 153a
000002e0: bb02 a33b 66fc b0ba b513 09ba 8220 e5bb
000002f0: 8f35 ed3b 49ff 013a 08d7 8e3a 2714 a4bc
00000300: 3902 97bc 23c6 093c 9b22 a23b 840d b2bb
00000310: 9fd7 dcbb df50 143c b9be 84bc 070b 3b3c
00000320: 7b5b aa3b b468 803c 5247 dabb bf38 3ebb
00000330: 688e 50ba 73b6 bb3b d0c7 f3bb 773f e5bb
00000340: 9574 023c b43e 303b c8e6 07bc 0b14 85bc
00000350: 01d4 41bc 83fa 6fbc 9378 5fbb a9fc aa3b
00000360: e199 9dbb fb32 abba 9f59 9ebb f551 0cbc
00000370: 8146 8fbc c1e5 8fbb 9234 5c3c 8824 73b9
00000380: 1547 36bc 9f0a 88bb 2418 8e3c e394 a63a
00000390: 0b67 55bb af20 2abc bcb7 1dbc 3d98 063c
000003a0: a22a 593c f4ff 4b3c 3afc 4a3c 9df9 2ebc
000003b0: df63 da3c 6e88 8838 93fc 44bc 48d0 f8bb
000003c0: b23d 203c a349 d63b 1365 38bb a289 d93a
000003d0: 8f9d 2a3b cb42 4ebc df44 76ba ddcc f1bb
000003e0: d37e bd3b e864 6ebb a115 c43a b855 f3bb
000003f0: 60c2 a93b 679b 113c 275a d6bb b964 a6bb

discrete_action_output_shape f4 [1, 4]
4.0 4.0 4.0 4.0
00000000: 0000 8040 0000 8040 0000 8040 0000 8040

network_body._body_endoder.seq_layers.0.bias f4 [128]
0.0 0.0 0.0 0.0 0.0 0.0 0.0 0.0
0.0 0.0 0.0 0.0 0.0 0.0 0.0 0.0
0.0 0.0 0.0 0.0 0.0 0.0 0.0 0.0
0.0 0.0 0.0 0.0 0.0 0.0 0.0 0.0
0.0 0.0 0.0 0.0 0.0 0.0 0.0 0.0
0.0 0.0 0.0 0.0 0.0 0.0 0.0 0.0
0.0 0.0 0.0 0.0 0.0 0.0 0.0 0.0
0.0 0.0 0.0 0.0 0.0 0.0 0.0 0.0
0.0 0.0 0.0 0.0 0.0 0.0 0.0 0.0
0.0 0.0 0.0 0.0 0.0 0.0 0.0 0.0
0.0 0.0 0.0 0.0 0.0 0.0 0.0 0.0
0.0 0.0 0.0 0.0 0.0 0.0 0.0 0.0
0.0 0.0 0.0 0.0 0.0 0.0 0.0 0.0
0.0 0.0 0.0 0.0 0.0 0.0 0.0 0.0
0.0 0.0 0.0 0.0 0.0 0.0 0.0 0.0
0.0 0.0 0.0 0.0 0.0 0.0 0.0 0.0
00000000: 0000 0000 0000 0000 0000 0000 0000 0000
00000010: 0000 0000 0000 0000 0000 0000 0000 0000
00000020: 0000 0000 0000 0000 0000 0000 0000 0000
00000030: 0000 0000 0000 0000 0000 0000 0000 0000
00000040: 0000 0000 0000 0000 0000 0000 0000 0000
00000050: 0000 0000 0000 0000 0000 0000 0000 0000
00000060: 0000 0000 0000 0000 0000 0000 0000 0000
00000070: 0000 0000 0000 0000 0000 0000 0000 0000
00000080: 0000 0000 0000 0000 0000 0000 0000 0000
00000090: 0000 0000 0000 0000 0000 0000 0000 0000
000000a0: 0000 0000 0000 0000 0000 0000 0000 0000
000000b0: 0000 0000 0000 0000 0000 0000 0000 0000
000000c0: 0000 0000 0000 0000 0000 0000 0000 0000
000000d0: 0000 0000 0000 0000 0000 0000 0000 0000
000000e0: 0000 0000 0000 0000 0000 0000 0000 0000
000000f0: 0000 0000 0000 0000 0000 0000 0000 0000
00000100: 0000 0000 0000 0000 0000 0000 0000 0000
00000110: 0000 0000 0000 0000 0000 0000 0000 0000
00000120: 0000 0000 0000 0000 0000 0000 0000 0000
00000130: 0000 0000 0000 0000 0000 0000 0000 0000
00000140: 0000 0000 0000 0000 0000 0000 0000 0000
00000150: 0000 0000 0000 0000 0000 0000 0000 0000
00000160: 0000 0000 0000 0000 0000 0000 0000 0000
00000170: 0000 0000 0000 0000 0000 0000 0000 0000
00000180: 0000 0000 0000 0000 0000 0000 0000 0000
00000190: 0000 0000 0000 0000 0000 0000 0000 0000
000001a0: 0000 0000 0000 0000 0000 0000 0000 0000
000001b0: 0000 0000 0000 0000 0000 0000 0000 0000
000001c0: 0000 0000 0000 0000 0000 0000 0000 0000
000001d0: 0000 0000 0000 0000 0000 0000 0000 0000
000001e0: 0000 0000 0000 0000 0000 0000 0000 0000
000001f0: 0000 0000 0000 0000 0000 0000 0000 0000

network_body._body_endoder.seq_layers.0.weight f4 [128, 26]
-0.15281841 -0.096106805 0.0048017977 0.12287014 -0.1869576 -0.01761664 -0.1794102 0.10306842
-0.22751679 0.04222774 0.1759789 0.07174492 0.04847712 -0.2070926 -0.20173328 0.08667465
-0.11156065 0.38676986 0.22624174 -0.123334795 0.32035065 0.022584656 -0.21881327 0.10618725
0.20769557 0.07730907 0.0014883801 0.40827855 0.166436 0.14571165 -0.11356963 -0.24970093
-0.123481415 0.070641264 -0.14034244 -0.09561782 0.17581408 0.13743906 -0.11681638 -0.14249061
0.26632342 -0.26349524 0.322463 0.18971229 0.12608173 -0.53445876 -0.013959346 -0.018363636
0.007842106 -0.20057169 0.075028375 -0.09578349 0.17994927 0.18569 0.11361447 -0.07793848
-0.3151131 0.21501875 0.0055067283 -0.278827 0.092085764 0.12769347 0.20282528 -0.06655011
-0.28937313 -0.050360695 -0.18511315 0.03305431 0.07024177 -0.14943783 0.15235284 0.031767562
-0.016071856 0.02073255 0.20636804 -0.12617579 -0.18026166 0.30682245 -0.0557145 -0.22404844
0.11201305 -0.27525008 0.099252105 0.11156453 0.20725015 -0.16843113 -0.45435858 0.109291434
-0.093292 -0.12835361 0.04060825 0.16715072 0.33448946 -0.14179496 -0.30111006 -0.07814224
0.14319502 -0.110082574 0.21332003 0.17105931 0.10666716 0.15358886 0.0883639 0.09304068
-0.17485867 -0.10134156 0.09107072 -0.08191152 -0.09141277 -0.13341948 -0.17624217 0.024463607
0.3070151 -0.26813293 -0.031148693 0.078469485 0.13006407 0.18533327 0.08261704 0.16880988
-0.06562539 -0.009442899 -0.022815792 0.15574227 -0.030180827 -0.041721284 -0.26366383 0.20592587
0.28451914 -0.041859224 0.06537321 -0.16404884 0.1599878 0.20261714 -0.087120585 0.05082977
0.3854573 -0.12943675 0.035962798 -0.037944887 0.17040114 0.20123325 0.20207565 -0.38962734
0.414449 0.003337507 -0.13542631 -0.13136365 -0.19252482 -0.13524793 -0.0226412 -0.12166105
-0.28262797 -0.009993204 -0.38793394 -0.00516114 0.38475844 -0.16204536 0.38214752 -0.09084333
-0.29851973 -0.11974249 -0.031082923 -0.32867378 0.3548211 -0.039892193 0.13489357 0.055912632
0.18411309 -0.18697368 -0.031171506 0.08689161 -0.40210828 0.0574246 -0.07944498 -0.41902697
0.15010458 -0.08454301 0.27328622 -0.116487116 0.30859858 0.30473188 0.078895986 0.095717
-0.0782353 -0.16107067 -0.019428818 0.18880422 -0.100331075 -0.0055191414 0.1412097 -0.22652736
0.057767082 -0.19859745 -0.31255952 0.19036786 0.3120561 -0.26601774 -0.22449775 -0.0749031
0.089441806 -0.072996445 -0.04898817 0.06446281 0.23141634 0.07920871 0.1747142 -7.572636e-06
-0.022036279 -0.15260807 -0.09095288 0.29345292 0.1300897 0.29967478 0.21826303 0.31093493
-0.026061876 0.34620342 -0.071287386 -0.074138224 0.17264405 -0.18618007 -0.32981008 0.17548671
0.065610826 0.45985544 0.1267325 -0.09401214 -0.106550194 -0.07831288 0.033049054 -0.00892074
0.47388786 -0.03992543 0.0729757 0.08652972 0.20544846 -0.25084123 0.020449182 -0.042549975
-0.30973163 -0.27495888 -0.208873 0.14093596 -0.26204282 0.0025511053 -0.012608593 -0.15162295
0.41034183 0.16508043 -0.19098489 0.24062929 -0.12865955 -0.0076085897 -0.17466535 0.166064
00000000: 6e7c 1cbe a5d3 c4bd 6658 9d3b 57a3 fb3d
00000010: d071 3fbe c650 90bc 4fb7 37be 8915 d33d
00000020: 29fa 68be fff6 2c3d d033 343e 00ef 923d
00000030: f28f 463d 1510 54be 2b93 4ebe 7b82 b13d
00000040: e979 e4bd b306 c63e eaab 673e f496 fcbd
00000050: 0005 a43e 7503 b93c 9610 60be b378 d93d
00000060: 26ae 543e 3854 9e3d c015 c33a e309 d13e
00000070: 336e 2a3e 6f35 153e 3297 e8bd 9ab1 7fbe
00000080: d3e3 fcbd 5eac 903d eeb5 0fbe 47d3 c3bd
00000090: 9b08 343e d3bc 0c3e 6d3d efbd 0fe9 11be
000000a0: 8b5b 883e d9e8 86be df19 a53e f043 423e
000000b0: 921b 013e 4ad2 08bf beb5 64bc 566f 96bc
000000c0: 2d7c 003c aa62 4dbe 7aa8 993d 222a c4bd
000000d0: 9f44 383e 8525 3e3e b4ae e83d 369e 9fbd
000000e0: 8156 a1be e02d 5c3e c971 b43b 6ac2 8ebe
000000f0: 7697 bc3d 14c2 023e 6eb1 4f3e 6d4b 88bd
00000100: b728 94be 0447 4ebd 4d8e 3dbe f563 073d
00000110: ebda 8f3d 3b06 19be 6202 1c3e b41e 023d
00000120: 20a9 83bc 4fd7 a93c 2552 533e 3a34 01be
00000130: 8396 38be d517 9d3e e334 64bd f46c 65be
00000140: 1967 e53d 94ed 8cbe b044 cb3d f27b e43d
00000150: 6239 543e 3679 2cbe b0a1 e8be 30d4 df3d
00000160: e00f bfbd 216f 03be d654 263d 8f29 2b3e
00000170: 3442 ab3e b332 11be 192b 9abe 0a09 a0bd
00000180: b7a1 123e f972 e1bd 9170 5a3e 2c2a 2f3e
00000190: 5074 da3d 6646 1d3e 22f8 b43d 1d8c be3d
000001a0: 270e 33be 2a8c cfbd 4983 ba3d 3ac1 a7bd
000001b0: 9e36 bbbd 1e9f 08be d478 34be e767 c83c
000001c0: 1531 9d3e b848 89be 8b2b ffbc 9cb4 a03d
000001d0: 842f 053e 01c8 3d3e 1f33 a93d 7fdc 2c3e
000001e0: 9b66 86bd 64b6 1abc 2fe8 babc e77a 1f3e
000001f0: c83d f7bc f0e3 2abd f2fe 86be 3bde 523e
00000200: 7eac 913e 9474 2bbd 64e2 853d 6bfc 27be
00000210: d8d3 233e de7a 4f3e 476c b2bd e032 503d
00000220: a95a c53e 118b 04be ba4d 133d 196c 1bbd
00000230: a37d 2e3e 1710 4e3e ebec 4e3e 3c7d c7be
00000240: a932 d43e 13ba 5a3b 32ad 0abe 3184 06be
00000250: 3a25 45be 6f7e 0abe 0a7a b9bc 6e29 f9bd
00000260: 9db4 90be 89ba 23bc 479f c6be c81e a9bb
00000270: 0fff c43e 38ef 25be d7a8 c33e 110c babd
00000280: 94d7 98be 8d3b f5bd 9da1 febc ee47 a8be
00000290: 1cab b53e ff65 23bd 8a21 0a3e a504 653d
000002a0: 2488 3c3e 0776 3fbe 635b ffbc 3af4 b13d
000002b0: 23e1 cdbe 0f36 6b3d 0db4 a2bd b48a d6be
000002c0: 04b5 193e e324 adbd 2cec 8b3e cc90 eebd
000002d0: a200 9e3e d105 9c3e 3894 a13d 4607 c43d
000002e0: d439 a0bd b6ef 24be 2f29 9fbc e555 413e
000002f0: 617a cdbd ead9 b4bb 4799 103e caf6 67be
00000300: 2d9d 6c3d 215d 4bbe cd07 a0be cbef 423e
00000310: d1c5 9f3e 7a33 88be bde2 65be cc66 99bd
00000320: 442d b73d 297f 95bd d2a7 48bd 1405 843d
00000330: 68f8 6c3e 2d38 a23d 47e8 323e 7318 feb6
00000340: 6d85 b4bc 4a45 1cbe 8145 babd 763f 963e
00000350: 3c36 053e f96e 993e 5880 5f3e dd32 9f3e
00000360: b77f d5bc 9341 b13e 1fff 91bd c8d5 97bd
00000370: 9ac9 303e fda5 3ebe dedc a8be cab2 333e
00000380: f85e 863d 2c72 eb3e 2ac6 013e 7089 c0bd
00000390: fd36 dabd 8162 a0bd 725e 073d 4c28 12bc
000003a0: 6ea1 f23e d988 23bd 4974 953d 7e36 b13d
000003b0: 1561 523e 436e 80be 0b85 a73c e248 2ebd
000003c0: 2595 9ebe 69c7 8cbe cee2 55be 8451 103e
000003d0: 7a2a 86be 7230 273b 4694 4ebc 0c43 1bbe
000003e0: 5318 d23e d80a 293e 8b91 43be 8667 763e
000003f0: 54bf 03be 7a51 f9bb 79db 32be ae0c 2a3e

network_body._body_endoder.seq_layers.2.bias f4 [128]
0.0 0.0 0.0 0.0 0.0 0.0 0.0 0.0
0.0 0.0 0.0 0.0 0.0 0.0 0.0 0.0
0.0 0.0 0.0 0.0 0.0 0.0 0.0 0.0
0.0 0.0 0.0 0.0 0.0 0.0 0.0 0.0
0.0 0.0 0.0 0.0 0.0 0.0 0.0 0.0
0.0 0.0 0.0 0.0 0.0 0.0 0.0 0.0
0.0 0.0 0.0 0.0 0.0 0.0 0.0 0.0
0.0 0.0 0.0 0.0 0.0 0.0 0.0 0.0
0.0 0.0 0.0 0.0 0.0 0.0 0.0 0.0
0.0 0.0 0.0 0.0 0.0 0.0 0.0 0.0
0.0 0.0 0.0 0.0 0.0 0.0 0.0 0.0
0.0 0.0 0.0 0.0 0.0 0.0 0.0 0.0
0.0 0.0 0.0 0.0 0.0 0.0 0.0 0.0
0.0 0.0 0.0 0.0 0.0 0.0 0.0 0.0
0.0 0.0 0.0 0.0 0.0 0.0 0.0 0.0
0.0 0.0 0.0 0.0 0.0 0.0 0.0 0.0
00000000: 0000 0000 0000 0000 0000 0000 0000 0000
00000010: 0000 0000 0000 0000 0000 0000 0000 0000
00000020: 0000 0000 0000 0000 0000 0000 0000 0000
00000030: 0000 0000 0000 0000 0000 0000 0000 0000
00000040: 0000 0000 0000 0000 0000 0000 0000 0000
00000050: 0000 0000 0000 0000 0000 0000 0000 0000
00000060: 0000 0000 0000 0000 0000 0000 0000 0000
00000070: 0000 0000 0000 0000 0000 0000 0000 0000
00000080: 0000 0000 0000 0000 0000 0000 0000 0000
00000090: 0000 0000 0000 0000 0000 0000 0000 0000
000000a0: 0000 0000 0000 0000 0000 0000 0000 0000
000000b0: 0000 0000 0000 0000 0000 0000 0000 0000
000000c0: 0000 0000 0000 0000 0000 0000 0000 0000
000000d0: 0000 0000 0000 0000 0000 0000 0000 0000
000000e0: 0000 0000 0000 0000 0000 0000 0000 0000
000000f0: 0000 0000 0000 0000 0000 0000 0000 0000
00000100: 0000 0000 0000 0000 0000 0000 0000 0000
00000110: 0000 0000 0000 0000 0000 0000 0000 0000
00000120: 0000 0000 0000 0000 0000 0000 0000 0000
00000130: 0000 0000 0000 0000 0000 0000 0000 0000
00000140: 0000 0000 0000 0000 0000 0000 0000 0000
00000150: 0000 0000 0000 0000 0000 0000 0000 0000
00000160: 0000 0000 0000 0000 0000 0000 0000 0000
00000170: 0000 0000 0000 0000 0000 0000 0000 0000
00000180: 0000 0000 0000 0000 0000 0000 0000 0000
00000190: 0000 0000 0000 0000 0000 0000 0000 0000
000001a0: 0000 0000 0000 0000 0000 0000 0000 0000
000001b0: 0000 0000 0000 0000 0000 0000 0000 0000
000001c0: 0000 0000 0000 0000 0000 0000 0000 0000
000001d0: 0000 0000 0000 0000 0000 0000 0000 0000
000001e0: 0000 0000 0000 0000 0000 0000 0000 0000
000001f0: 0000 0000 0000 0000 0000 0000 0000 0000

network_body._body_endoder.seq_layers.2.weight f4 [128, 128]
-0.13190567 -0.17750049 -0.085582644 -0.048228644 -0.15511002 -0.11617877 -0.06389989 -0.09820393
0.06638722 0.013399209 -0.017944753 -0.097874545 -0.05534655 -0.06822802 0.034046814 0.016976418
-0.049757157 -0.10720322 -0.045689806 0.062093966 -0.17455636 0.024239069 -0.008150189 0.070921585
0.058650658 -0.024122437 0.07765364 0.024759684 -0.20646998 0.004740655 0.09137601 0.005323609
-0.14247271 -0.12295089 -0.138495 0.057262503 0.020955158 0.059251428 0.15009879 -0.100067176
-0.0054072523 0.030344442 0.10319319 0.097399436 0.04385437 0.024363015 0.079468876 0.12682873
0.010990313 -0.007073333 0.0345016 -0.024373965 -0.035483465 0.00029331545 -0.12151377 0.030070232
-0.08180708 0.14887732 -0.018486641 0.20669419 -0.057570938 -0.023665924 0.03749347 0.015502526
0.060409192 0.012699991 -0.11451658 -0.036253255 0.0026584743 -0.1595515 0.080024704 0.03617568
-0.00976871 -0.02679938 0.10966917 -0.04771116 0.013310533 -0.086559534 0.027351284 -0.08177504
-0.12328562 0.033302613 0.036404673 0.024962828 -0.06262538 -0.04295971 0.1443961 -0.027029987
0.03785684 0.028572971 -0.017217036 0.10413454 -0.019009585 0.03320549 0.03754326 0.0025696696
0.01357109 0.057929505 -0.06445654 0.0041635227 -0.05465514 0.047405757 0.00918162 -0.077317685
0.077386394 0.09013969 -0.100932576 0.023882156 -0.038006414 0.0668849 0.032717224 -0.07314147
-0.06354434 -0.088680975 -0.016692033 0.043594293 -0.013049806 0.11162286 -0.1521979 -0.05144214
-0.04551709 -0.0363083 0.08670367 -0.042220652 0.08252984 -0.039259356 0.10062561 0.11812197
-0.020196723 0.10140378 0.07149456 -0.0023599274 0.06318158 -0.07497355 0.038415372 0.015257717
-0.08913934 -0.13251634 0.003762749 0.01697073 -0.049008 -0.14096604 0.05163049 -0.076062456
0.16339256 -0.02689822 0.01247408 -0.058989376 0.05922272 0.11334555 0.055674326 0.077127665
-0.08132854 0.09894263 -0.010665211 -0.10007504 -0.033852577 0.011937518 0.044737797 -0.11222854
0.01507196 0.06378253 -0.02645803 -0.0061640856 -0.046921752 -0.013236198 0.08594244 -0.021710364
-0.07304978 0.01615419 0.18920773 -0.08519965 -0.10682084 0.023154287 -0.028717069 0.12841204
0.042742226 -0.034572992 0.048057623 0.07376838 -0.0200033 -0.14550216 0.0561282 -0.055235162
-0.08058182 0.06596421 -0.03452584 0.008171044 0.03747373 0.06894219 0.024500493 -0.15927158
0.064679235 0.046412773 0.030194853 0.015028194 0.0014184513 -0.18224406 0.20912725 0.024093382
0.0056233397 -0.0770206 -0.124353655 0.1583913 -0.051011816 -0.10086025 -0.037715893 -0.123790815
-0.0075982767 -0.1273651 0.021142952 -0.053266503 0.10362201 0.09019146 0.055287704 -0.054517742
0.015191002 -0.019014074 0.11209472 -0.05494959 -0.06463392 0.031267215 -0.017990245 0.077587724
0.008623543 -0.028687557 0.11636325 0.06561284 0.043454934 -0.059825826 -0.1353876 -0.013217904
0.06188412 -0.024693238 0.041809298 0.04840479 -0.06374768 -0.12062569 -0.009836057 -0.046160307
-0.0012797893 0.09459536 0.12120102 -0.14794934 0.1139019 -0.047153287 0.08161425 0.06682155
0.2074475 -0.076359734 0.05998889 -0.0634014 0.041156054 -0.14528579 -0.041677337 -0.040417116
00000000: 4812 07be b0c2 35be f445 afbd 668b 45bd
00000010: 29d5 1ebe 23ef edbd f2dd 82bd 241f c9bd
00000020: 06f6 873d 5b88 5b3c e000 93bc 7372 c8bd
00000030: 10b3 62bd 22bb 8bbd ac74 0b3d 2112 8b3c
00000040: 29ce 4bbd 5d8d dbbd 3c25 3bbd 3e56 7e3d
00000050: e7be 32be 0391 c63c 5f88 05bc 563f 913d
00000060: ac3b 703d 6b9c c5bc df08 9f3d d2d4 ca3c
00000070: de6c 53be 7f57 9b3b 5823 bb3d ab71 ae3b
00000080: 5ee4 11be adcd fbbd a2d1 0dbe 168c 6a3d
00000090: 27aa ab3c a0b1 723d 7fb3 193e 05f0 ccbd
000000a0: 522f b1bb e894 f83c f456 d33d 5b79 c73d
000000b0: a4a0 333d f294 c73c 94c0 a23d 64df 013e
000000c0: b710 343c 6bc7 e7bb 8d51 0d3d e9ab c7bc
000000d0: 1c57 11bd 22c8 9939 36dc f8bd d955 f63c
000000e0: 788a a7bd 4c73 183e 4c71 97bc a4a7 533e
000000f0: 81cf 6bbd 0adf c1bc c192 193d 4ffe 7d3c
00000100: a16f 773d a013 503c ab87 eabd 4b7e 14bd
00000110: cc39 2e3b 7861 23be fee3 a33d f32c 143d
00000120: f00c 20bc 608a dbbc 3b9a e03d c76c 43bd
00000130: 6c14 5a3c 2046 b1bd cd0f e03c ac79 a7bd
00000140: 2c7d fcbd 5268 083d 111d 153d d87e cc3c
00000150: bc41 80bd 85f6 2fbd 92dc 133e fe6d ddbc
00000160: c60f 1b3d dd11 ea3c be0a 8dbc 7d44 d53d
00000170: fdb9 9bbc 7b02 083d f6c6 193d e767 283b
00000180: 4759 5e3c 7d47 6d3d ca01 84bd 296e 883b
00000190: 11de 5fbd 8a2c 423d 816e 163c bc58 9ebd
000001a0: c27c 9e3d 289b b83d bdb5 cebd 83a4 c33c
000001b0: 9dac 1bbd f3fa 883d 7f02 063d 32cb 95bd
000001c0: 8923 82bd 5f9e b5bd bbbd 88bc ee8f 323d
000001d0: dace 55bc 879a e43d c4d9 1bbe feb4 52bd
000001e0: 2170 3abd 03b8 14bd b291 b13d 90ef 2cbd
000001f0: 6805 a93d 6bce 20bd cd14 ce3d eee9 f13d
00000200: 9973 a5bc c9ac cf3d bd6b 923d 03a9 1abb
00000210: 5865 813d bc8b 99bd 7059 1d3d 81fb 793c
00000220: b08e b6bd 5db2 07be 7498 763b 3306 8b3c
00000230: 9dbc 48bd 6759 10be 7e7a 533d a2c6 9bbd
00000240: 6150 273e a859 dcbc 1560 4c3c d89e 71bd
00000250: 8693 723d b621 e83d c30a 643d 1cf5 9d3d
00000260: 948f a6bd 6fa2 ca3d 23bd 2ebc 24f4 ccbd
00000270: 00a9 0abd 9495 433c fb3e 373d 14d8 e5bd
00000280: 62f0 763c 6aa0 823d 83be d8bc 19fc c9bb
00000290: 0631 40bd a3dc 58bc 9702 b03d efd9 b1bc
000002a0: 209b 95bd cb55 843c acbf 413e 277d aebd
000002b0: e2c4 dabd 0fae bd3c 0f40 ebbc 727e 033e
000002c0: 7912 2f3d 699c 0dbd 12d8 443d e013 973d
000002d0: f6dd a3bc 85fe 14be afe6 653d 443e 62bd
000002e0: 1508 a5bd 3e18 873d f86a 0dbd d8df 053c
000002f0: 0e7e 193d 9031 8d3d 42b5 c83c 1718 23be
00000300: 8c76 843d 521b 3e3d 325b f73c d038 763c
00000310: 54eb b93a 309e 3abe 7425 563e 7c5f c53c
00000320: fe43 b83b fabc 9dbd 21ad febd 5431 223e
00000330: c4f1 50bd d28f cebd fb7b 1abd 0a86 fdbd
00000340: f7fa f8bb ff6b 02be fc33 ad3c fa2d 5abd
00000350: c737 d43d 4db6 b83d 5c75 623d ff4d 5fbd
00000360: aee3 783c 67c3 9bbc eb91 e53d d212 61bd
00000370: ca5e 84bd 0d12 003d 4760 93bc 50e6 9e3d
00000380: c349 0d3c 2b02 ebbc db4f ee3d 0660 863d
00000390: cdfd 313d ed0b 75bd 0ca3 0abe e88f 58bc
000003a0: 347a 7d3d 7949 cabc 3a40 2b3d 1a44 463d
000003b0: 258e 82bd 9a0a f7bd 6a27 21bc 9712 3dbd
000003c0: 9abe a7ba 36bb c13d 3e38 f83d 0880 17be
000003d0: 6645 e93d ce23 41bd 5f25 a73d bdd9 883d
000003e0: 1e6d 543e 7e62 9cbd e9b6 753d 98d8 81bd
000003f0: 4093 283d ccc5 14be dbb5 2abd 6b8c 25bd
