results/FoodTarget_imitation_7/AgentPlayer/AgentPlayer-278789.pt (torch, 970495 bytes, 44 tensors)

network_body._body_endoder.seq_layers.0.weight f4 [128, 125]
0.027471457 0.11132381 0.13769121 0.14415929 -0.106958374 0.022087088 0.09184575 0.1957313
0.045349035 -0.10449112 -0.14880781 0.07195542 0.04613376 0.077423625 0.0029285552 0.09577926
0.068648726 -0.15443881 -0.073660225 0.09952295 -0.14251271 -0.027418703 -0.07345552 -0.12400578
0.049686775 -0.048215672 0.23217404 0.11627632 0.04462924 0.055017944 -0.09870559 0.01470084
0.0053691976 0.014491971 0.15306881 0.04497497 -0.026217164 0.097287364 -0.018123208 0.04361668
-0.1070121 -0.022139572 0.041718427 -0.103193216 0.06949147 0.054073073 0.029323464 -0.03592157
-0.0888445 0.021853367 0.030396324 -0.023152802 -0.029001538 0.0854826 -0.034475487 0.03772418
-0.039243314 -0.018831555 -0.085786186 0.07824997 0.05588076 -0.09712212 0.09478341 0.034915872
0.096860036 -0.012091026 0.08808798 0.072301395 -0.13925739 -0.033092882 -0.07713939 -0.10055311
-0.0033189936 -0.022990493 0.061831187 0.103842854 0.08245275 0.0107157985 -0.042908736 -0.025045061
-0.023775445 -0.075402185 -0.046308417 -0.08447447 -0.0703933 0.050154332 0.035641436 0.0020602443
-0.16154972 -0.010418994 0.048672836 -0.0027490652 0.011294438 0.09075031 -0.09147546 -0.05701637
0.004692887 0.054293256 0.02177143 -0.028270267 -0.07579055 -0.023494337 -0.018591123 -0.047433116
-0.12242858 0.20540276 0.019831264 0.061030015 0.0020157914 0.12990205 -0.05239769 0.06254305
0.01728472 0.120283306 0.18909603 -0.17795375 0.10562544 0.04126632 -0.11248826 -0.08898124
-0.17043565 -0.06846116 -0.05776255 -0.16627914 0.28532684 0.10699147 0.119135775 -0.032076366
0.15206085 0.027060784 -0.028434891 -0.013816345 -0.042101696 0.10112124 -0.004876463 0.016374627
0.07601598 -0.0070305783 -0.09528667 0.088118725 0.12391777 -0.010091454 0.06371151 0.037654534
0.16364834 -0.032630723 -0.040785104 0.0010857395 0.034581885 -0.111833274 -0.09993562 0.23349546
0.09735329 0.03369869 -0.12772578 0.11113226 0.13058186 0.15919487 0.23524126 0.13839951
0.13325669 -0.11812571 0.026741091 -0.24783835 0.0033333518 0.09535224 -0.14054793 0.04542571
-0.06869213 -0.03433514 -0.0067194845 -0.084150486 0.09421207 -0.041950323 0.1325559 -0.1858569
-0.10374701 -0.0634883 0.104104266 -0.19480176 0.10349389 0.10754631 0.15265974 -0.08015897
-0.050011866 -0.17513153 0.034966674 0.12018364 -0.072813384 -0.1274131 0.0160201 0.049425855
0.004832827 0.014468403 -0.10754388 0.04373641 0.08838472 -0.03609323 0.08300035 -0.14779098
0.035657395 0.0281113 -0.09139831 0.013655195 0.049402718 0.0055320244 0.110572405 0.13826852
0.06470028 -0.026199205 -0.102438115 -0.24384898 -0.14937685 -0.08068448 -0.1107901 -0.07670202
0.049844436 0.16835323 0.19530271 -0.019916153 -0.036733545 -0.16591778 -0.08751713 -0.017446833
-0.015341857 0.0063360315 -0.10695983 0.041974295 0.04288705 -0.26639307 -0.029566068 -0.0059554907
0.12555435 -0.037265502 -0.14841537 -0.06630777 0.0040999968 -0.039439373 -0.03919683 -0.0072187334
-0.07380805 -0.016017059 -0.07427757 -0.17128728 -0.053764656 -0.010792876 -0.14022957 0.08419469
-0.029294377 -0.13473107 0.069149576 -0.15020406 -0.04796106 0.058002613 0.07874861 -0.075417265
00000000: d20b e13c bdfd e33d edfe 0c3e 7e9e 133e
00000010: fe0c dbbd fbef b43c a019 bc3d c96d 483e
00000020: e9bf 393d 71ff d5bd 1361 18be 5d5d 933d
00000030: c1f6 3c3d 4790 9e3d 01ed 3f3b eb27 c43d
00000040: b497 8c3d 3525 1ebe 2cdb 96bd b0d2 cb3d
00000050: daee 11be 309d e0bc d96f 96bd bef6 fdbd
00000060: 5c84 4b3d cc7d 45bd 08bf 6d3e 4722 ee3d
00000070: 26cd 363d 7f5a 613d 2826 cabd cbdb 703c
00000080: 18f0 af3b bb6f 6d3c 12be 1c3e ad37 383d
00000090: 61c5 d6bc 993e c73d 1f77 94bc 67a7 323d
000000a0: 2929 dbbd 0c5e b5bc f1e0 2a3d f756 d3bd
000000b0: 8b51 8e3d ba7b 5d3d c337 f03c 7f22 13bd
000000c0: 1bf4 b5bd d505 b33c b601 f93c f2aa bdbc
000000d0: a294 edbc 8011 af3d 2b36 0dbd ab84 1a3d
000000e0: 99bd 20bd a244 9abc abb0 afbd 8541 a03d
000000f0: 39e3 643d f6e7 c6bd ce1d c23d f203 0f3d
00000100: 8e5e c63d 7019 46bc 7967 b43d c112 943d
00000110: 7d99 0ebe 678c 07bd 42fb 9dbd caee cdbd
00000120: 7983 59bb 8f56 bcbc b342 7d3d 90ab d43d
00000130: fddc a83d 5191 2f3c 12c1 2fbd 4d2b cdbc
00000140: b9c4 c2bc 766c 9abd e5ad 3dbd f300 adbd
00000150: 5d2a 90bd a16e 4d3d c1fc 113d 2a05 073b
00000160: 4a6d 25be 6eb4 2abc 2b5d 473d a929 34bb
00000170: 4e0c 393c 4cdb b93d 7c57 bbbd ff89 69bd
00000180: cac6 993b 9b62 5e3d ff59 b23c 0c97 e7bc
00000190: 1338 9bbd 3277 c0bc 694c 98bc 3a49 42bd
000001a0: d6bb fabd 1a55 523e 2d75 a23c 9cfa 793d
000001b0: 5e1b 043b 0b05 053e f69e 56bd 9216 803d
000001c0: af98 8d3c 1857 f63d 64a2 413e 8239 36be
000001d0: 2752 d83d df06 293d 3f60 e6bd cc3b b6bd
000001e0: af86 2ebe 5d35 8cbd 6c98 6cbd 1445 2abe
000001f0: 5c16 923e 581e db3d 75fd f33d 8262 03bd
00000200: d7b5 1b3e 94ae dd3c 4af0 e8bc f35d 62bc
00000210: d472 2cbd a718 cf3d bdca 9fbb 1524 863c
00000220: 44ae 9b3d c460 e6bb a825 c3bd 9777 b43d
00000230: 9ac8 fd3d a056 25bc 2e7b 823d a43b 1a3d
00000240: 6e93 273e cba7 05bd 480e 27bd 5f4f 8e3a
00000250: bca5 0d3d d808 e5bd 0cab ccbd 6f19 6f3e
00000260: 2961 c73d a307 0a3d 8cca 02be 4f99 e33d
00000270: 40b7 053e fb03 233e 16e3 703e 9ab8 0d3e
00000280: 7174 083e e4eb f1bd 2210 db3c 56c9 7dbe
00000290: 5d74 5a3b 0948 c33d cceb 0fbe 4f10 3a3d
000002a0: 76ae 8cbd 01a3 0cbd 1f2f dcbb 1757 acbd
000002b0: 42f2 c03d 1ad4 2bbd bcbc 073e 4551 3ebe
000002c0: 5079 d4bd 2706 82bd 9e34 d53d 1d7a 47be
000002d0: 9bf4 d33d 3d41 dc3d d652 1c3e 632a a4bd
000002e0: 3ed9 4cbd ae55 33be 3739 0f3d d722 f63d
000002f0: 2f1f 95bd 9478 02be 963c 833c c472 4a3d
00000300: b15c 9e3b e10c 6d3c f73f dcbd f324 333d
00000310: 0c03 b53d 7fd6 13bd 16fc a93d 8556 17be
00000320: 7d0d 123d ab49 e63c 0a2f bbbd 0aba 5f3c
00000330: 815a 4a3d fc45 b53b c973 e23d 4396 0d3e
00000340: 9581 843d b79f d6bc 13cb d1bd 8cb3 79be
00000350: 3ff6 18be e83d a5bd ece5 e2bd f315 9dbd
00000360: ae29 4c3d ca64 2c3e 6ffd 473e 3327 a3bc
00000370: ea75 16bd 5ae6 29be 2e3c b3bd a9ec 8ebc
00000380: 6a5c 7bbc 7c9e cf3b c10d dbbd 3ded 2b3d
00000390: 55aa 2f3d ac64 88be 8a34 f2bc 4726 c3bb
000003a0: 5291 003e b6a3 18bd 33fa 17be 5ecc 87bd
000003b0: 4459 863b 2e8b 21bd db8c 20bd 208b ecbb
000003c0: ad28 97bd 3536 83bc d71e 98bd ef65 2fbe
000003d0: 5438 5cbd 9ad4 30bc 5798 0fbe 446e ac3d
000003e0: c3fa efbc f1f6 09be 4b9e 8d3d 18cf 19be
000003f0: d172 44bd 2694 6d3d f446 a13d 5e74 9abd

network_body._body_endoder.seq_layers.0.bias f4 [128]
0.024593286 0.02464484 -0.0026636226 -0.005523962 -0.0021270062 0.010427471 0.017554726 0.0025263217
0.0010113299 0.006208612 0.008175915 0.010562409 0.007968092 0.023226323 0.007867596 -0.016335176
0.005055828 0.015879272 0.015157358 0.024091383 0.01358342 -0.0066270255 0.0036819412 0.012324183
-0.008131719 0.0052992003 0.0074628377 0.01556569 0.0044762366 0.014016935 -0.0045725456 -0.004249992
0.017608954 0.016092049 -0.0051312833 0.014544425 0.018254552 0.013047846 -0.006605229 0.014368077
0.009973338 0.0043129004 0.01101809 0.019915013 0.0070858025 -0.008599551 0.008607708 0.005159285
0.0044288402 -0.0035659897 0.017510729 0.0014459023 0.014674235 0.0077151842 0.019754712 0.009254011
0.016696082 0.008078342 -0.0009031954 0.009190609 0.016168576 0.0021016472 -0.0045313183 0.01006806
0.0028511432 0.014884406 -0.0058314735 0.004195153 0.008004578 -0.00714279 -0.013777898 0.004361833
-0.012117341 0.000113836846 0.0011084862 0.016651753 -0.008135744 0.0025629876 -0.010369847 0.0028364668
0.025705434 0.022050355 0.014766329 0.020338677 0.00918126 0.009166089 0.003774572 0.008047286
-0.0024855167 -0.0026845797 -0.004911281 -0.015033656 0.009029815 0.022269407 0.03326338 -0.0004450094
0.0017702689 -0.006734558 0.017622417 0.007580311 0.01425956 0.01278656 0.010576073 0.0045216265
-0.010761144 0.003730658 0.009705012 0.00024898048 0.0005209749 0.011727012 -8.439918e-05 0.0029912621
0.0038925998 0.011740829 -0.0047605103 -0.0067234314 -0.0010832443 0.01782548 0.0057373294 0.0029848793
-0.0060177855 0.00046361407 0.009483635 -0.010167332 -0.0064250724 -0.002506442 0.005109793 0.0132474555
00000000: dc77 c93c fae3 c93c 2c90 2ebb 5a02 b5bb
00000010: 3e65 0bbb fcd7 2a3c eece 8f3c a590 253b
00000020: 9a8e 843a 9d71 cb3b 46f4 053c f40d 2d3c
00000030: 9a8c 023c 2145 be3c 17e7 003c 59d1 85bc
00000040: 5cab a53b 3f15 823c 9156 783c 4b5b c53c
00000050: fe8c 5e3c 8527 d9bb b94c 713b 5feb 493c
00000060: e73a 05bc eaa4 ad3b d28a f43b 3c07 7f3c
00000070: 65ad 923b 49a7 653c 4bd5 95bb 8443 8bbb
00000080: a740 903c 79d3 833c 5324 a8bb bd4b 6e3c
00000090: 928a 953c a2c6 553c ad70 d8bb 1568 6b3c
000000a0: 3667 233c 3b53 8d3b 3885 343c cf24 a33c
000000b0: 0530 e83b 22e5 0cbc 5807 0d3c 380f a93b
000000c0: ce1f 913b 61b3 69bb a972 8f3c 6e84 bd3a
000000d0: 346c 703c a8cf fc3b a2d4 a13c 239e 173c
000000e0: 39c6 883c 065b 043c 6bc4 6cba 3594 163c
000000f0: f673 843c cabb 093b 747b 94bb 81f4 243c
00000100: 3fda 3a3b b9dd 733c f215 bfbb 7e77 893b
00000110: a225 033c 110e eabb b1bc 61bc b5ed 8e3b
00000120: d087 46bc b1bb ee38 a04a 913a 4269 883c
00000130: c94b 05bc ccf7 273b 4ae6 29bc 04e4 393b
00000140: 3494 d23c f2a2 b43c 79ee 713c 4c9d a63c
00000150: ff6c 163c 5d2d 163c cf5e 773b c4d8 033c
00000160: 0de4 22bb c6ef 2fbb d0ee a0bb b94f 76bc
00000170: caf1 133c 556e b63c 2f3f 083d 2750 e9b9
00000180: 5e08 e83a 91ad dcbb e35c 903c 4264 f83b
00000190: eea0 693c b87e 513c 4447 2d3c 272a 943b
000001a0: 824f 30bc 0e7e 743b c501 1f3c 9889 8239
000001b0: 0992 083a a722 403c 77ff b0b8 0d09 443b
000001c0: fd1a 7f3b 9b5c 403c 0efe 9bbb 3b50 dcbb
000001d0: a6fb 8dba be06 923c 3500 bc3b f79d 433b
000001e0: d830 c5bb 3a11 f339 4061 1b3c e294 26bc
000001f0: 6a89 d2bb 1e43 24bb 0d70 a73b db0b 593c

network_body._body_endoder.seq_layers.2.weight f4 [128, 128]
-0.0021461553 0.10024183 0.09712439 0.091181375 0.11022838 0.021376977 -0.051108085 -0.05383413
-0.14902242 0.07030074 -0.011329771 -0.03427014 0.019055702 0.049918283 0.041552514 0.03834406
-0.019917531 -0.11445506 0.08007515 0.029221477 0.01653481 -0.062537976 0.15249169 -0.007928118
-0.009861147 -0.029568281 -0.042676874 0.14107686 -0.13793133 0.22030914 0.09925133 -0.17895469
-0.03550676 0.055148143 -0.07600103 0.0913072 -0.003912362 -0.022354389 0.03648037 0.0023984998
-0.060475104 0.0045466563 -0.16745311 -0.09745821 0.1688903 0.052290555 -0.050857097 -0.020089302
0.027585162 0.035641726 0.11515429 -0.06474112 0.03981688 0.034367137 0.02204015 -0.00841087
-0.06537983 0.017518656 0.047302745 -0.13704187 -0.016820185 0.16076975 -0.17300525 0.026215231
-0.00233809 -0.047704425 -0.06526519 0.13794473 0.0009452016 -0.0070832996 -0.13854402 -0.14902304
-0.008003304 -0.031917244 0.12596941 -0.008931259 -0.041482672 -0.030303635 -0.06916336 -0.05148159
-0.070740536 0.16661897 -0.033736836 0.036786534 -0.07209127 0.0917741 0.13558534 -0.025564415
-0.013030379 0.015252002 -0.051279306 -0.0659167 -0.06543351 -0.018333985 0.17302567 0.1596526
-0.15283142 -0.05127775 -0.11528238 0.028800648 0.023551919 0.14467786 0.0056015374 0.09083808
0.13289118 0.21699119 -0.022961643 0.15741846 -0.11160101 0.29776067 -0.06692517 -0.021193838
0.010765051 -0.09076584 -0.04231589 0.009746978 0.06299746 0.0153024 0.028809326 -0.036386944
-0.026305601 -0.13449048 0.12854949 -0.12023221 0.1442063 -0.19338593 0.15432175 0.04822132
0.0766988 -0.09909276 0.1308979 0.20522238 -0.030896448 -0.25497127 -0.041332047 -0.048451878
0.00014374872 0.02732435 -0.07561587 0.17477424 0.031652395 -0.025947371 -0.018869825 -0.019592825
0.021284996 0.014407153 -0.14132583 0.05812581 -0.0034896047 -0.15236244 0.07314331 0.05407114
-0.064544745 -0.020416819 -0.10161268 -0.020312307 0.045380067 -0.0944443 -0.15870075 -0.0490649
0.08118356 -0.013203215 0.08956826 0.02305429 0.05574826 0.09345277 -0.07000164 -0.0948786
-0.065460235 -0.07476993 -0.0048302077 -0.062989354 0.08841675 0.008989445 0.018504728 0.05600821
0.12626861 0.18880615 0.039621558 0.04772171 -0.0579672 0.1264386 -0.019991063 0.050359603
0.013116095 -0.04954628 0.14402841 -0.014102917 0.07189022 -0.070321135 -0.070973225 -0.039570976
0.05137194 -0.07415676 -0.039833996 0.008744709 0.11894082 -0.027461741 -0.098821424 0.020759014
-0.056846596 0.053989735 0.12938294 -0.065126315 -0.029703064 0.117595814 0.05885175 0.021926913
-0.045629904 0.087987706 0.039107196 0.006853454 0.22627538 0.061305597 -0.073060386 -0.11968209
-0.24589613 -0.08645232 -0.08109295 0.047370054 -0.057200775 -0.13432688 -0.002473639 -0.06756862
0.021801649 0.16072284 -0.08445707 -0.044369835 0.072885714 -0.06641912 -0.043463953 -0.08594328
0.014016734 0.09802826 0.052788958 -0.005366172 0.018946951 -0.007884044 -0.008004439 -0.019287402
-0.047798622 0.02955317 0.11613608 -0.1137171 0.051533353 -0.077071376 0.032282677 0.07026263
0.2572732 0.19840191 0.18066652 0.13464838 -0.047163732 -0.050158598 0.0052846833 -0.0052696224
00000000: 83a6 0cbb 974b cd3d 27e9 c63d 4dbd ba3d
00000010: 6bbf e13d c51e af3c b656 51bd 2d81 5cbd
00000020: 5599 18be d6f9 8f3d 81a0 39bc d95e 0cbd
00000030: b41a 9c3c 1d77 4c3d f832 2a3d a90e 1d3d
00000040: 172a a3bc 6a67 eabd 71fe a33d e161 ef3c
00000050: 0374 873c e913 80bd c826 1c3e f0e4 01bc
00000060: a690 21bc 2e39 f2bc f2cd 2ebd 7476 103e
00000070: df3d 0dbe b898 613e 4844 cb3d e63f 37be
00000080: 896f 11bd 05e3 613d 6ea6 9bbd 45ff ba3d
00000090: 4533 80bb 8d20 b7bc 716c 153d 2630 1d3b
000000a0: beb4 77bd 1efc 943b d478 2bbe 2c98 c7bd
000000b0: 94f1 2c3e 9f2e 563d 884f 50bd 5292 a4bc
000000c0: 47fa e13c 0ffd 113d 03d6 eb3d fe96 84bd
000000d0: 0617 233d 8ec4 0c3d 8b8d b43c bfcd 09bc
000000e0: dce5 85bd 4983 8f3c 86c0 413d b454 0cbe
000000f0: 7cca 89bc d3a0 243e 4a28 31be 53c1 d63c
00000100: a43a 19bb b765 43bd c2a9 85bd 6241 0d3e
00000110: 68c7 773a 061b e8bb 7cde 0dbe 7f99 18be
00000120: 4a20 03bc a8bb 02bd 20fe 003e 6a54 12bc
00000130: bce9 29bd 543f f8bc 85a5 8dbd 5cde 52bd
00000140: 6ae0 90bd 2a9e 2a3e a32f 0abd 7aad 163d
00000150: 96a4 93bd 0ff4 bb3d e2d6 0a3e 776c d1bc
00000160: 5f7d 55bc 88e3 793c 400a 52bd 56ff 86bd
00000170: 0102 86bd 2731 96bc a42d 313e f97b 233e
00000180: d77f 1cbe 9e08 52bd 2b19 ecbd 56ef eb3c
00000190: f4ef c03c 6f26 143e 1a8d b73b 5109 ba3d
000001a0: a014 083e f032 5e3e 0e1a bcbc 4e32 213e
000001b0: 128f e4bd 1674 983e 1010 89bd b39e adbc
000001c0: e55f 303c 71e3 b9bd 6d53 2dbd cab1 1f3c
000001d0: d004 813d ebb6 7a3c 8901 ec3c 7a0a 15bd
000001e0: d87e d7bc dfb7 09be 7aa2 033e 4e3c f6bd
000001f0: d1aa 133e f606 46be 8506 1e3e b883 453d
00000200: 4314 9d3d 25f1 cabd 190a 063e d125 523e
00000210: 8c1a fdbc 988b 82be cb4b 29bd 7a75 46bd
00000220: 41bb 1639 51d7 df3c 7edc 9abd 05f8 323e
00000230: f1a5 013d 958f d4bc e494 9abc 2281 a0bc
00000240: df5d ae3c fb0b 6c3c b8b7 10be 5415 6e3d
00000250: dab1 64bb e604 1cbe 29cc 953d b379 5d3d
00000260: 0930 84bd 2c41 a7bc 4f1a d0bd ff65 a6bc
00000270: 73e0 393d 036c c1bd 7382 22be 47f8 48bd
00000280: 9143 a63d 4c52 58bc 906f b73d 5adc bc3c
00000290: 4a58 643d 2a64 bf3d 055d 8fbd b64f c2bd
000002a0: 0410 86bd fa20 99bd b846 9ebb 9000 81bd
000002b0: d713 b53d 7748 133c 3a97 973c dd68 653d
000002c0: 8f4c 013e 6656 413e 374a 223d d777 433d
000002d0: 046f 6dbd 1f79 013e 4cc4 a3bc df45 4e3d
000002e0: e4e4 563c 0af1 4abd 2f7c 133e ec0f 67bc
000002f0: 2e3b 933d 8704 90bd 695a 91bd 2d15 22bd
00000300: 626b 523d 80df 97bd f928 23bd f845 0f3c
00000310: 3f97 f33d 72f7 e0bc e362 cabd cf0e aa3c
00000320: fad7 68bd 5724 5d3d f67c 043e f260 85bd
00000330: d753 f3bc 13d6 f03d 880e 713d 12a0 b33c
00000340: 6ce6 3abd e632 b43d de2e 203d f092 e03b
00000350: bcb4 673e 941b 7b3d afa0 95bd e21b f5bd
00000360: 32cc 7bbe ea0d b1bd 1014 a6bd 1a07 423d
00000370: 5c4b 6abd fc8c 09be c71c 22bb 6b61 8abd
00000380: 5f99 b23c 8794 243e d4f7 acbd 25bd 35bd
00000390: 1b45 953d bf06 88bd 4207 32bd 0803 b0bd
000003a0: 72a6 653c 0ac3 c83d 3c39 583d b7d6 afbb
000003b0: a336 9b3c 142c 01bc 0d25 03bc 9d00 9ebc
000003c0: 7dc8 43bd 7d19 f23c c1d8 ed3d 83e4 e8bd
000003d0: a314 533d 99d7 9dbd d73a 043d dbe5 8f3d
000003e0: 50b9 833e df29 4b3e a500 393e 44e1 093e
000003f0: c22e 41bd 1a73 4dbd 232b ad3b ccac acbb

network_body._body_endoder.seq_layers.2.bias f4 [128]
0.022066966 -0.0013170815 0.0031357284 -0.0018839273 -0.006158164 -0.0042533036 0.01840411 -0.0024977445
0.00030241016 0.004751637 0.0077809053 -0.0056737685 0.010559484 0.01842786 0.0024338572 -0.00036206073
0.004621388 0.004671784 0.010093978 -0.00219556 -0.0024301314 0.0050219567 0.0044410354 0.0020648867
0.0025601995 -8.046371e-06 0.00028602045 -0.0071499855 0.008066317 -0.0015817411 0.007874005 0.013200347
0.0060410365 0.0056768805 0.0070078457 0.004764264 -0.0032481553 0.019990027 0.0033783345 0.011017037
0.018994255 0.0076796 0.0073111434 0.014426535 0.0045287805 -0.0049358974 0.00021015995 0.008300803
0.020265503 0.012405744 -0.0020663557 0.013112229 0.007082342 0.00045454522 0.007131376 0.0020196126
0.008881932 0.010361837 0.0017472929 0.010078717 0.002325298 0.013254089 0.004001392 0.017233241
0.0014622393 0.00334663 0.0061472515 -0.00016419661 -0.005394745 -0.003485435 0.008932121 -0.00484523
0.016401673 -0.0056032655 0.0074119 0.004416072 0.0011266359 -0.0024365303 0.0070793526 0.0003569453
-9.515356e-05 -0.0009422797 0.0034912636 0.006820139 0.010416748 0.0101481285 0.012529859 0.004127107
0.009064636 0.002114922 0.007735003 0.0054477276 -0.0033498097 0.0007797301 0.019894557 0.001961197
0.008051623 0.0021145695 -0.008481371 0.00640622 0.001120976 -0.0033331746 9.992553e-05 0.0015928366
0.006587151 -0.0022217769 0.00056297774 0.003032924 -0.0012560919 0.0046664695 0.00908624 0.0046726074
0.0028132 0.004120646 0.0016581785 -0.003358055 0.003566514 0.0026470476 0.0017270645 -0.0020418705
0.015738843 0.009140654 0.0066404333 -0.0025468657 0.008945544 0.016162768 -0.00249787 0.0032645345
00000000: c8c5 b43c eca1 acba cb80 4d3b 1cee f6ba
00000010: 6cca c9bb 4c5f 8bbb 37c4 963c 33b1 23bb
00000020: ce8c 9e39 9fb3 9b3b f7f6 fe3b 05eb b9bb
00000030: b001 2d3c 06f6 963c 5981 1f3b f8d2 bdb9
00000040: 036f 973b c415 993b 3661 253c 62e3 0fbb
00000050: d742 1fbb 3a8f a43b 1b86 913b 0d53 073b
00000060: 05c9 273b e6fe 06b7 04f5 9539 6d4a eabb
00000070: 9628 043c 6d52 cfba f801 013c 4546 583c
00000080: e3f3 c53b 2005 ba3b 12a2 e53b 8b1d 9c3b
00000090: 01df 54bb 20c2 a33c 0c67 5d3b cd80 343c
000000a0: d799 9b3c 27a5 fb3b 5192 ef3b 465d 6c3c
000000b0: 2a66 943b 4fbd a1bb 625e 5c39 1700 083c
000000c0: d703 a63c 7641 4b3c b26b 07bb add4 563c
000000d0: fe12 e83b 0750 ee39 51ae e93b 7a5b 043b
000000e0: 8685 113c b2c4 293c 6c05 e53a 3421 253c
000000f0: 0764 183b ae27 593c 1c1e 833b ba2c 8d3c
00000100: 9ca8 bf3a 2253 5b3b e26e c93b 312c 2cb9
00000110: 67c6 b0bb e56b 64bb 0858 123c bcc4 9ebb
00000120: cd5c 863c 999b b7bb 86df f23b b2b4 903b
00000130: a1ab 933a 32ae 1fbb eaf9 e73b 6324 bb39
00000140: 2e8d c7b8 5203 77ba afcd 643b 797b df3b
00000150: 02ab 2a3c 5644 263c 0a4a 4d3c af3c 873b
00000160: d783 143c 819a 0a3b e875 fd3b da82 b23b
00000170: 7b88 5bbb cd66 4c3a e9f9 a23c 6d87 003b
00000180: f4ea 033c 9794 0a3b 73f5 0abc 45eb d13b
00000190: b7ed 923a 6471 5abb 1c8f d138 bac6 d03a
000001a0: 07d9 d73b 3b9b 11bb cc94 133a 05c4 463b
000001b0: 73a3 a4ba 2fe9 983b 74de 143c ac1c 993b
000001c0: aa5d 383b 7c06 873b 3d57 d93a d012 5cbb
000001d0: 2dbc 693b 177a 2d3b ab5e e23a e7d0 05bb
000001e0: bfee 803c aec2 153c fe97 d93b 51e9 26bb
000001f0: 5590 123c c867 843c 4eb3 23bb cdf1 553b

action_model._continuous_distribution.log_sigma f4 [1, 20]
-0.08657695 -0.06964626 -0.078212194 -0.082451984 -0.07978868 -0.07034564 -0.051869925 -0.059733104
-0.09282517 -0.06794541 -0.08774354 -0.08217426 -0.07573193 -0.06951395 -0.08819137 -0.073939376
-0.07084757 -0.07286206 -0.056128148 -0.05843529
00000000: 424f b1bd b3a2 8ebd b72d a0bd 96dc a8bd
00000010: 3f68 a3bd 6011 90bd 8f75 54bd b3aa 74bd
00000020: 1f1b bebd f726 8bbd e3b2 b3bd fa4a a8bd
00000030: 5819 9bbd 545d 8ebd ad9d b4bd 876d 97bd
00000040: 8818 91bd b438 95bd a1e6 65bd d859 6fbd

action_model._continuous_distribution.mu.weight f4 [20, 128]
0.030588169 -0.01735667 0.021148773 0.0018790179 -0.0093594 -0.011795922 0.052958068 0.041998353
0.0023853201 0.02508094 0.038164556 0.0025923182 0.03184389 0.039106548 0.004638823 -0.0749924
-0.033771098 0.034462396 0.0392728 -0.0073769214 -0.02408065 0.047043934 0.006245168 -0.029907899
0.030377857 0.033292823 -0.0015525876 0.028314939 -0.014853225 0.044132527 -0.043708343 0.0038668173
-0.058024682 -0.013507707 0.02487823 -0.03303349 -0.0611961 0.029444048 -8.9297326e-05 0.056850437
-0.088640116 0.047020797 -0.022860445 0.041063927 0.005483448 0.0077020614 0.01721443 0.013862589
-0.002001649 0.022977643 -0.048873533 0.05559565 0.023910506 -0.059881993 0.027853088 -0.009605922
0.054853436 -0.05845898 0.013944665 0.10125822 -0.003930086 0.067130014 -0.0378499 0.026670234
-0.0499754 0.041866135 -0.041740812 -0.032859437 -0.10335229 -0.02536924 0.02789025 -0.023502503
-0.020781992 0.056780525 -0.07901707 0.04819378 -0.04687736 -0.025034856 -0.00083463546 -0.0099210935
-0.0117820855 0.037765797 -0.04940555 0.032517914 0.021623094 -0.04068767 0.035945684 0.016545646
0.06040823 -0.06434554 -0.0117776925 0.033760667 -0.069060035 -0.0558165 -0.03835021 -0.017563635
-0.040959332 -0.04439831 0.014904239 0.046167847 -0.010499189 -0.04156803 -0.041386787 -0.03981334
-0.06187386 -0.031568427 0.025227696 0.012602057 0.0010443737 -0.017139263 -0.042583417 0.02604768
0.007338206 0.02222089 0.026259435 0.0071484176 -0.020861011 -0.042630218 -0.00473823 -0.077600665
0.054805446 0.013740425 0.04158961 0.008182642 0.019341664 0.0148712685 -0.0007029593 -0.047155537
0.07145416 0.064857736 0.060398288 -0.02824616 0.0006006199 0.017497623 0.023488913 0.014226516
0.051567707 0.0113744205 -0.06122016 0.039907657 -0.0525013 -0.086332746 0.035812344 0.034112595
-0.03531314 -0.012032342 -0.042169455 -0.04374417 0.020323629 -0.028979558 0.043139968 -0.08105885
0.064402215 0.017195074 0.0028935533 -0.01584873 0.034319304 0.006197568 -0.06639158 0.057040382
0.08421822 0.019548075 0.05038331 0.0737142 0.033318367 0.04039027 -0.046765465 -0.040671855
0.071386725 0.012960666 0.05177829 -0.020595377 0.08561488 0.0179184 0.01156879 -0.043127287
-0.064177915 -0.07508522 0.025472326 -0.055828743 0.04980645 -0.016467277 -0.037649505 0.041209996
0.012284459 0.046479575 -0.06492391 -0.0024821637 0.035221715 0.022958621 0.033841513 0.050539788
-0.030578665 0.0009483441 0.04933386 -0.037761953 -0.022591336 -0.0266129 -0.0363347 -0.033916876
0.054853115 0.05346323 0.028836824 0.04168154 0.042993397 0.048439085 -0.07059498 0.05420993
-0.034672152 0.011827409 0.07270292 0.06785853 0.04762432 -0.060049687 0.076124966 -0.068708144
-0.03515621 0.028608043 -0.066819094 0.04065575 -0.03877161 -0.016217614 0.09430514 0.021938741
-0.008145568 -0.029291108 -0.0005776795 -0.034771577 -0.064532414 0.015093101 0.026309507 0.04854373
-0.06221246 -0.038787995 0.026648436 0.05409892 -0.032442432 0.060243446 -0.07435875 0.03629792
0.023003941 -0.048962396 -0.046295673 -0.021901846 -0.0009742258 -0.04203762 0.0470068 -0.004823059
0.053057864 -0.10027099 -0.047408387 0.068270065 -0.03766641 -0.07201048 0.08020698 -0.06410836
00000000: 0a94 fa3c 932f 8ebc 3140 ad3c 6149 f63a
00000010: 2b58 19bc af43 41bc 8fea 583d 7706 2c3d
00000020: 0853 1c3b 8b76 cd3c 7052 1c3d e2e3 293b
00000030: bd6e 023d 302e 203d 4501 983b 9e95 99bd
00000040: 9053 0abd 7128 0d3d 84dc 203d 1aba f1bb
00000050: c944 c5bc 24b1 403d 44a4 cc3b 6901 f5bc
00000060: fcda f83c 0e5e 083d 3280 cbba bbf4 e73c
00000070: f15a 73bc 4fc4 343d 8507 33bd 6e6a 7d3b
00000080: 4aab 6dbd 6e4f 5dbc 6ecd cb3c 204e 07bd
00000090: c3a8 7abd a534 f13c 2345 bbb8 01dc 683d
000000a0: f388 b5bd e198 403d d445 bbbc a632 283d
000000b0: 7fae b33b 9361 fc3b 4705 8d3c ea1f 633c
000000c0: 192e 03bb 9c3b bc3c 9d2f 48bd 44b8 633d
000000d0: f7df c33c d246 75bd 292c e43c 2862 1dbc
000000e0: ffad 603d af72 6fbd 2a78 643c 7860 cf3d
000000f0: f3c7 80bb 767b 893d 7f08 1bbd 897b da3c
00000100: 01b3 4cbd d37b 2b3d 6af8 2abd 9e97 06bd
00000110: 5eaa d3bd 27d3 cfbc 187a e43c 5288 c0bc
00000120: ff3e aabc b292 683d b4d3 a1bd d766 453d
00000130: 7a02 40bd e615 cdbc 70cb 5aba 158c 22bc
00000140: a609 41bc 4fb0 1a3d 795d 4abd 8131 053d
00000150: ea22 b13c 1da8 26bd c83b 133d bc8a 873c
00000160: 9f6e 773d 98c7 83bd 39f7 40bc a048 0a3d
00000170: 596f 8dbd d89f 64bd 1c15 1dbd 9de1 8fbc
00000180: f9c4 27bd 01db 35bd e930 743c 7f1a 3d3d
00000190: ca04 2cbc 3d43 2abd 3185 29bd 5013 23bd
000001a0: 726f 7dbd e54d 01bd 50aa ce3c dc78 4e3c
000001b0: 5ee3 883a a467 8cbc f36b 2ebd f261 d53c
000001c0: 5575 f03b 9508 b63c 071e d73c 463d ea3b
000001d0: b6e4 aabc 069d 2ebd 2743 9bbb 19ed 9ebd
000001e0: ad7b 603d 851f 613c de59 2a3d 7d10 063c
000001f0: 6972 9e3c 9fa6 733c cd46 38ba 2a26 41bd
00000200: 8f56 923d 22d4 843d 3264 773d 7e64 e7bc
00000210: eb72 1d3a 2d57 8f3c d26b c03c 5516 693c
00000220: a938 533d c75b 3a3c fec1 7abd 3676 233d
00000230: 9a0b 57bd 39cf b0bd f7af 123d a6b9 0b3d
00000240: 83a4 10bd 4d23 45bc e1b9 2cbd 162d 33bd
00000250: bd7d a63c 8a66 edbc 89b3 303d 2f02 a6bd
00000260: 4fe5 833d afdc 8c3c c5a1 3d3b 32d5 81bc
00000270: 6692 0c3d f814 cb3b 4ff8 87bd 2da3 693d
00000280: 9a7a ac3d 4923 a03c bb5e 4e3d 78f7 963d
00000290: d778 083d 4570 253d 258d 3fbd 8897 26bd
000002a0: 3433 923d f958 543c 7915 543d a3b7 a8bc
000002b0: db56 af3d 9cc9 923c 068b 3d3c 3da6 30bd
000002c0: b66f 83bd 48c6 99bd 57ab d03c aeac 64bd
000002d0: d901 4c3d 62e6 86bc 5e36 1abd d0cb 283d
000002e0: c144 493c 5e61 3e3d d4f6 84bd ccab 22bb
000002f0: a544 103d b813 bc3c 669d 0a3d cf02 4f3d
00000300: 1c80 fabc 4c9a 783a 4d12 4a3d 47ac 1abd
00000310: 7711 b9bc 4c03 dabc b2d3 14bd 6cec 0abd
00000320: a9ad 603d 43fc 5a3d 343b ec3c 43ba 2a3d
00000330: d819 303d 1068 463d 1a94 90bd 3b0b 5e3d
00000340: 6304 0ebd c0c7 413c 45e5 943d 6af9 8a3d
00000350: b811 433d a9f6 75bd 68e7 9b3d dbb6 8cbd
00000360: f5ff 0fbd 6a5b ea3c 73d8 88bd a586 263d
00000370: fbce 1ebd cdda 84bc 0e23 c13d e0b8 b33c
00000380: fd74 05bc e8f3 efbc 6a6f 17ba a46c 0ebd
00000390: 9229 84bd 0e49 773c 0987 d73c cad5 463d
000003a0: 7ed2 7ebd 29e0 1ebd d24d da3c d496 5d3d
000003b0: 5be2 04bd d5c1 763d 6649 98bd 21ad 143d
000003c0: c372 bc3c cb8c 48bd 88a0 3dbd 806b b3bc
000003d0: 3063 7fba a42f 2cbd 348a 403d c00a 9ebb
000003e0: 3453 593d e05a cdbd 4c2f 42bd 2dd1 8b3d
000003f0: 1848 1abd 3b7a 93bd 8f43 a43d 3e4b 83bd

action_model._continuous_distribution.mu.bias f4 [20]
0.0107052345 0.00038943437 -0.003739902 0.0038196777 0.0011659198 -0.00078281574 0.002123972 -0.003208686
-0.0005168552 -0.0031661873 0.000914368 -0.003177392 0.0037025153 -0.0038700576 -0.0024984223 -0.0002978084
-0.00038431835 0.0011095877 -0.0006010967 4.2529027e-05
00000000: 0265 2f3c ff2c cc39 2519 75bb 8f53 7a3b
00000010: c7d1 983a e035 4dba 5632 0b3b d148 52bb
00000020: 917d 07ba cf7f 4fbb 33b2 6f3a cb3b 50bb
00000030: e6a5 723b cba0 7dbb 92bc 23bb 2b23 9cb9
00000040: 567e c9b9 966f 913a eb92 1dba 3261 3238

exp_avg f4 [128, 125]
0.0 0.0 -1.5585465e-05 1.1733267e-06 -5.8482347e-06 0.0 0.0 5.7918746e-06
-2.0204017e-05 -2.0157877e-05 0.0 0.0 -6.008982e-07 -1.3811238e-05 -1.3593949e-05 0.0
0.0 4.2268522e-07 -1.48348245e-05 -1.4507324e-05 0.0 0.0 4.2268522e-07 -1.48348245e-05
-1.4507324e-05 4.0390692e-05 -2.174939e-05 0.0 -5.67541e-05 -5.3440606e-05 0.0 0.0
0.0 0.0 0.0 0.0 0.0 0.0 0.0 0.0
0.0 0.0 0.0 0.0 0.0 0.0 0.0 0.0
0.0 0.0 0.0 0.0 0.0 0.0 0.0 0.0
0.0 0.0 0.0 0.0 0.0 0.0 0.0 0.0
0.0 0.0 0.0 0.0 0.0 0.0 0.0 0.0
0.0 0.0 0.0 0.0 0.0 0.0 0.0 0.0
0.0 0.0 0.0 0.0 0.0 0.0 0.0 0.0
0.0 0.0 0.0 0.0 0.0 0.0 0.0 0.0
0.0 0.0 0.0 0.0 0.0 0.0 0.0 0.0
0.0 0.0 0.0 0.0 0.0 0.0 0.0 0.0
0.0 0.0 0.0 0.0 0.0 0.0 0.0 0.0
0.0 0.0 0.0 0.0 0.0 0.0 0.0 -1.3668312e-05
1.2680326e-05 5.038177e-06 0.0 0.0 3.276899e-06 -4.2648926e-06 -5.2746373e-06 0.0
0.0 5.240282e-06 -6.228277e-06 -5.830804e-06 0.0 0.0 2.1981523e-07 -1.2078054e-06
-9.852328e-07 0.0 0.0 2.1981523e-07 -1.2078054e-06 -9.852328e-07 -2.2738443e-05 -3.387311e-05
0.0 -9.569838e-05 -1.71604e-05 0.0 0.0 0.0 0.0 0.0
0.0 0.0 0.0 0.0 0.0 0.0 0.0 0.0
0.0 0.0 0.0 0.0 0.0 0.0 0.0 0.0
0.0 0.0 0.0 0.0 0.0 0.0 0.0 0.0
0.0 0.0 0.0 0.0 0.0 0.0 0.0 0.0
0.0 0.0 0.0 0.0 0.0 0.0 0.0 0.0
0.0 0.0 0.0 0.0 0.0 0.0 0.0 0.0
0.0 0.0 0.0 0.0 0.0 0.0 0.0 0.0
0.0 0.0 0.0 0.0 0.0 0.0 0.0 0.0
0.0 0.0 0.0 0.0 0.0 0.0 0.0 0.0
0.0 0.0 0.0 0.0 0.0 0.0 0.0 0.0
0.0 0.0 0.0 0.0 0.0 0.0 0.0 0.0
0.0 0.0 0.0 0.0 4.4225536e-07 -2.108549e-06 -1.3058824e-06 0.0
00000000: 0000 0000 0000 0000 88bd 82b7 337b 9d35
00000010: f43b c4b6 0000 0000 0000 0000 d357 c236
00000020: cc7b a9b7 b618 a9b7 0000 0000 0000 0000
00000030: 694d 21b5 d1b6 67b7 9111 64b7 0000 0000
00000040: 0000 0000 6aed e234 16e3 78b7 7b64 73b7
00000050: 0000 0000 0000 0000 6aed e234 16e3 78b7
00000060: 7b64 73b7 2d69 2938 7672 b6b7 0000 0000
00000070: 400b 6eb8 6a25 60b8 0000 0000 0000 0000
00000080: 0000 0000 0000 0000 0000 0000 0000 0000
00000090: 0000 0000 0000 0000 0000 0000 0000 0000
000000a0: 0000 0000 0000 0000 0000 0000 0000 0000
000000b0: 0000 0000 0000 0000 0000 0000 0000 0000
000000c0: 0000 0000 0000 0000 0000 0000 0000 0000
000000d0: 0000 0000 0000 0000 0000 0000 0000 0000
000000e0: 0000 0000 0000 0000 0000 0000 0000 0000
000000f0: 0000 0000 0000 0000 0000 0000 0000 0000
00000100: 0000 0000 0000 0000 0000 0000 0000 0000
00000110: 0000 0000 0000 0000 0000 0000 0000 0000
00000120: 0000 0000 0000 0000 0000 0000 0000 0000
00000130: 0000 0000 0000 0000 0000 0000 0000 0000
00000140: 0000 0000 0000 0000 0000 0000 0000 0000
00000150: 0000 0000 0000 0000 0000 0000 0000 0000
00000160: 0000 0000 0000 0000 0000 0000 0000 0000
00000170: 0000 0000 0000 0000 0000 0000 0000 0000
00000180: 0000 0000 0000 0000 0000 0000 0000 0000
00000190: 0000 0000 0000 0000 0000 0000 0000 0000
000001a0: 0000 0000 0000 0000 0000 0000 0000 0000
000001b0: 0000 0000 0000 0000 0000 0000 0000 0000
000001c0: 0000 0000 0000 0000 0000 0000 0000 0000
000001d0: 0000 0000 0000 0000 0000 0000 0000 0000
000001e0: 0000 0000 0000 0000 0000 0000 0000 0000
000001f0: 0000 0000 0000 0000 0000 0000 f450 65b7
00000200: 96bd 5437 9c0d a936 0000 0000 0000 0000
00000210: b2e8 5b36 261b 8fb6 cafc b0b6 0000 0000
00000220: 0000 0000 aed5 af36 7efc d0b6 3aa6 c3b6
00000230: 0000 0000 0000 0000 5a06 6c34 e11b a2b5
00000240: 573c 84b5 0000 0000 0000 0000 5a06 6c34
00000250: e11b a2b5 573c 84b5 6fbe beb7 fa12 0eb8
00000260: 0000 0000 adb1 c8b8 aef3 8fb7 0000 0000
00000270: 0000 0000 0000 0000 0000 0000 0000 0000
00000280: 0000 0000 0000 0000 0000 0000 0000 0000
00000290: 0000 0000 0000 0000 0000 0000 0000 0000
000002a0: 0000 0000 0000 0000 0000 0000 0000 0000
000002b0: 0000 0000 0000 0000 0000 0000 0000 0000
000002c0: 0000 0000 0000 0000 0000 0000 0000 0000
000002d0: 0000 0000 0000 0000 0000 0000 0000 0000
000002e0: 0000 0000 0000 0000 0000 0000 0000 0000
000002f0: 0000 0000 0000 0000 0000 0000 0000 0000
00000300: 0000 0000 0000 0000 0000 0000 0000 0000
00000310: 0000 0000 0000 0000 0000 0000 0000 0000
00000320: 0000 0000 0000 0000 0000 0000 0000 0000
00000330: 0000 0000 0000 0000 0000 0000 0000 0000
00000340: 0000 0000 0000 0000 0000 0000 0000 0000
00000350: 0000 0000 0000 0000 0000 0000 0000 0000
00000360: 0000 0000 0000 0000 0000 0000 0000 0000
00000370: 0000 0000 0000 0000 0000 0000 0000 0000
00000380: 0000 0000 0000 0000 0000 0000 0000 0000
00000390: 0000 0000 0000 0000 0000 0000 0000 0000
000003a0: 0000 0000 0000 0000 0000 0000 0000 0000
000003b0: 0000 0000 0000 0000 0000 0000 0000 0000
000003c0: 0000 0000 0000 0000 0000 0000 0000 0000
000003d0: 0000 0000 0000 0000 0000 0000 0000 0000
000003e0: 0000 0000 0000 0000 0000 0000 0000 0000
000003f0: 1d6f ed34 9980 0db6 c745 afb5 0000 0000

exp_avg_sq f4 [128, 125]
0.0 0.0 1.1676762e-09 7.48296e-09 7.8154425e-09 0.0 0.0 8.548977e-10
8.083392e-09 8.136695e-09 0.0 0.0 5.8192146e-10 8.732326e-09 8.776044e-09 0.0
0.0 3.2770186e-11 9.221176e-09 9.23574e-09 0.0 0.0 3.2770186e-11 9.221176e-09
9.23574e-09 2.5654208e-08 2.1017373e-08 0.0 1.9092491e-08 3.7990343e-08 0.0 0.0
0.0 0.0 0.0 0.0 0.0 0.0 0.0 0.0
0.0 0.0 0.0 0.0 0.0 0.0 0.0 0.0
0.0 0.0 0.0 0.0 0.0 0.0 0.0 0.0
0.0 0.0 0.0 0.0 0.0 0.0 0.0 0.0
0.0 0.0 0.0 0.0 0.0 0.0 0.0 0.0
0.0 0.0 0.0 0.0 0.0 0.0 0.0 0.0
0.0 0.0 0.0 0.0 0.0 0.0 0.0 0.0
0.0 0.0 0.0 0.0 0.0 0.0 0.0 0.0
0.0 0.0 0.0 0.0 0.0 0.0 0.0 0.0
0.0 0.0 0.0 0.0 0.0 0.0 0.0 0.0
0.0 0.0 0.0 0.0 0.0 0.0 0.0 0.0
0.0 0.0 0.0 0.0 0.0 0.0 0.0 8.572447e-10
7.735709e-09 8.080765e-09 0.0 0.0 3.658656e-10 8.885086e-09 8.8972625e-09 0.0
0.0 7.597461e-10 8.649972e-09 8.708883e-09 0.0 0.0 6.625109e-11 9.358341e-09
9.311056e-09 0.0 0.0 6.625109e-11 9.358341e-09 9.311056e-09 2.4182985e-08 1.696825e-08
0.0 1.9732923e-08 2.9213341e-08 0.0 0.0 0.0 0.0 0.0
0.0 0.0 0.0 0.0 0.0 0.0 0.0 0.0
0.0 0.0 0.0 0.0 0.0 0.0 0.0 0.0
0.0 0.0 0.0 0.0 0.0 0.0 0.0 0.0
0.0 0.0 0.0 0.0 0.0 0.0 0.0 0.0
0.0 0.0 0.0 0.0 0.0 0.0 0.0 0.0
0.0 0.0 0.0 0.0 0.0 0.0 0.0 0.0
0.0 0.0 0.0 0.0 0.0 0.0 0.0 0.0
0.0 0.0 0.0 0.0 0.0 0.0 0.0 0.0
0.0 0.0 0.0 0.0 0.0 0.0 0.0 0.0
0.0 0.0 0.0 0.0 0.0 0.0 0.0 0.0
0.0 0.0 0.0 0.0 0.0 0.0 0.0 0.0
0.0 0.0 0.0 0.0 1.07258605e-10 1.0966459e-09 1.1372837e-09 0.0
00000000: 0000 0000 0000 0000 f47b a030 688e 0032
00000010: ae44 0632 0000 0000 0000 0000 14fe 6a30
00000020: 22df 0a32 90c9 0b32 0000 0000 0000 0000
00000030: 15f5 1f30 2d05 1632 73c5 1632 0000 0000
00000040: 0000 0000 f31f 102e 296b 1e32 37ab 1e32
00000050: 0000 0000 0000 0000 f31f 102e 296b 1e32
00000060: 37ab 1e32 335e dc32 b189 b432 0000 0000
00000070: d500 a432 d32a 2333 0000 0000 0000 0000
00000080: 0000 0000 0000 0000 0000 0000 0000 0000
00000090: 0000 0000 0000 0000 0000 0000 0000 0000
000000a0: 0000 0000 0000 0000 0000 0000 0000 0000
000000b0: 0000 0000 0000 0000 0000 0000 0000 0000
000000c0: 0000 0000 0000 0000 0000 0000 0000 0000
000000d0: 0000 0000 0000 0000 0000 0000 0000 0000
000000e0: 0000 0000 0000 0000 0000 0000 0000 0000
000000f0: 0000 0000 0000 0000 0000 0000 0000 0000
00000100: 0000 0000 0000 0000 0000 0000 0000 0000
00000110: 0000 0000 0000 0000 0000 0000 0000 0000
00000120: 0000 0000 0000 0000 0000 0000 0000 0000
00000130: 0000 0000 0000 0000 0000 0000 0000 0000
00000140: 0000 0000 0000 0000 0000 0000 0000 0000
00000150: 0000 0000 0000 0000 0000 0000 0000 0000
00000160: 0000 0000 0000 0000 0000 0000 0000 0000
00000170: 0000 0000 0000 0000 0000 0000 0000 0000
00000180: 0000 0000 0000 0000 0000 0000 0000 0000
00000190: 0000 0000 0000 0000 0000 0000 0000 0000
000001a0: 0000 0000 0000 0000 0000 0000 0000 0000
000001b0: 0000 0000 0000 0000 0000 0000 0000 0000
000001c0: 0000 0000 0000 0000 0000 0000 0000 0000
000001d0: 0000 0000 0000 0000 0000 0000 0000 0000
000001e0: 0000 0000 0000 0000 0000 0000 0000 0000
000001f0: 0000 0000 0000 0000 0000 0000 3ca3 6b30
00000200: 02e6 0432 95d3 0a32 0000 0000 0000 0000
00000210: 0123 c92f 05a5 1832 93da 1832 0000 0000
00000220: 0000 0000 61d6 5030 fb9a 1432 139e 1532
00000230: 0000 0000 0000 0000 0cb0 912e 6bc6 2032
00000240: 75f6 1f32 0000 0000 0000 0000 0cb0 912e
00000250: 6bc6 2032 75f6 1f32 f2ba cf32 94c1 9132
00000260: 0000 0000 2881 a932 d1f0 fa32 0000 0000
00000270: 0000 0000 0000 0000 0000 0000 0000 0000
00000280: 0000 0000 0000 0000 0000 0000 0000 0000
00000290: 0000 0000 0000 0000 0000 0000 0000 0000
000002a0: 0000 0000 0000 0000 0000 0000 0000 0000
000002b0: 0000 0000 0000 0000 0000 0000 0000 0000
000002c0: 0000 0000 0000 0000 0000 0000 0000 0000
000002d0: 0000 0000 0000 0000 0000 0000 0000 0000
000002e0: 0000 0000 0000 0000 0000 0000 0000 0000
000002f0: 0000 0000 0000 0000 0000 0000 0000 0000
00000300: 0000 0000 0000 0000 0000 0000 0000 0000
00000310: 0000 0000 0000 0000 0000 0000 0000 0000
00000320: 0000 0000 0000 0000 0000 0000 0000 0000
00000330: 0000 0000 0000 0000 0000 0000 0000 0000
00000340: 0000 0000 0000 0000 0000 0000 0000 0000
00000350: 0000 0000 0000 0000 0000 0000 0000 0000
00000360: 0000 0000 0000 0000 0000 0000 0000 0000
00000370: 0000 0000 0000 0000 0000 0000 0000 0000
00000380: 0000 0000 0000 0000 0000 0000 0000 0000
00000390: 0000 0000 0000 0000 0000 0000 0000 0000
000003a0: 0000 0000 0000 0000 0000 0000 0000 0000
000003b0: 0000 0000 0000 0000 0000 0000 0000 0000
000003c0: 0000 0000 0000 0000 0000 0000 0000 0000
000003d0: 0000 0000 0000 0000 0000 0000 0000 0000
000003e0: 0000 0000 0000 0000 0000 0000 0000 0000
000003f0: 3add eb2e ccb8 9630 9d4e 9c30 0000 0000

exp_avg f4 [128]
-1.441214e-05 -9.880046e-07 -1.6662967e-06 -7.557651e-06 1.6666074e-06 -5.4611414e-06 -1.4217026e-05 1.7592707e-05
-8.6294e-06 -3.1583255e-07 -2.4346959e-05 -3.223762e-06 2.0239693e-06 -1.0461786e-05 2.1497315e-05 -3.8772537e-06
-1.2653031e-06 7.1010127e-06 -2.4860826e-06 7.3989654e-06 -5.397335e-06 -1.0034313e-05 3.4860786e-06 -8.884013e-06
-2.0202704e-05 -1.6611311e-05 1.6125212e-05 -1.1445561e-05 -1.8221502e-06 9.790012e-06 -1.1521543e-05 -5.180318e-06
3.106849e-06 8.2080605e-06 -1.3286693e-05 2.513683e-05 1.4031202e-05 -1.3902047e-05 9.061279e-06 -2.4789972e-05
-4.421842e-06 -1.06795105e-05 6.616599e-06 3.8276366e-06 1.0090861e-05 1.891699e-05 1.6263848e-05 4.5521247e-06
-1.0559094e-05 -2.0318812e-05 1.5715881e-05 -3.044095e-06 -2.6483573e-05 -1.1071625e-06 -1.2403085e-05 -6.4742613e-07
1.5971473e-05 -1.2222887e-05 9.212151e-06 8.807173e-07 1.3630324e-05 1.1451108e-05 1.3934103e-06 -5.94928e-06
-1.4542871e-05 -6.1216565e-06 4.057582e-06 2.7655262e-05 -3.331759e-06 1.825108e-06 -7.2824846e-06 1.950117e-06
-1.2182444e-06 2.2043564e-06 -1.4276558e-05 -1.2377315e-05 3.5691662e-06 -1.9549602e-06 -1.4106637e-05 5.107756e-06
-5.698736e-07 4.310757e-06 -1.0607922e-05 -1.15291205e-05 1.2439725e-05 1.4571541e-05 -3.2023331e-06 1.0344354e-05
-1.8029701e-05 -1.2141498e-05 -2.946914e-06 1.7316806e-06 1.1121326e-06 -2.486455e-05 8.665754e-06 -3.0550727e-06
-6.054251e-06 -1.0543924e-05 -1.9155084e-05 1.656712e-06 4.194727e-06 -5.148114e-06 -4.1373794e-05 -1.9613459e-05
3.0646638e-06 4.6017135e-06 -1.2375217e-06 -1.4974735e-05 5.3417866e-06 1.1934085e-05 -4.5964307e-06 -6.112275e-06
-6.169068e-07 -8.499272e-06 -6.10639e-06 -2.1614516e-05 -5.6070103e-06 -7.691021e-06 -2.4464012e-05 1.02424865e-05
7.611859e-06 3.3533395e-06 -1.132243e-05 8.186427e-06 1.7092992e-05 -4.0348e-05 -7.387726e-08 -1.0821663e-05
00000000: accb 71b7 949b 84b5 85a5 dfb5 ba97 fdb6
00000010: 32b0 df35 d93e b7b6 a985 6eb7 0d94 9337
00000020: fec6 10b7 b28f a9b4 b23c ccb7 cf57 58b6
00000030: 87d3 0736 0785 2fb7 2255 b437 5b19 82b6
00000040: 7cd3 a9b5 3c45 ee36 93d6 26b6 a144 f836
00000050: c11a b5b6 0c59 28b7 60f2 6936 8c0c 15b7
00000060: fa78 a9b7 8558 8bb7 a144 8737 4f06 40b7
00000070: 9b90 f4b5 c83f 2437 a64c 41b7 98d2 adb6
00000080: 427f 5036 5ab5 0937 e9e9 5eb7 eedc d237
00000090: 8e67 6b37 d63c 69b7 e605 1837 0ff4 cfb7
000000a0: 555f 94b6 262c 33b7 2704 de36 266f 8036
000000b0: eb4b 2937 edaf 9e37 596e 8837 74be 9836
000000c0: f726 31b7 5172 aab7 99d5 8337 2749 4cb6
000000d0: 0a29 deb7 d099 94b5 d816 50b7 c9ca 2db5
000000e0: 7afa 8537 e610 4db7 e38d 1a37 6f6a 6c35
000000f0: ccad 6437 221e 4037 3705 bb35 ed9f c7b6
00000100: 28fd 73b7 a168 cdb6 5d26 8836 39fd e737
00000110: 2f97 5fb6 3cf6 f435 115c f4b6 c1de 0236
00000120: 8f82 a3b5 8eee 1336 5a85 6fb7 2aa8 4fb7
00000130: cf85 6f36 f631 03b6 8bab 6cb7 4a63 ab36
00000140: 6af9 18b5 1fa5 9036 aef8 31b7 326d 41b7
00000150: 36b4 5037 4b78 7437 aae7 56b6 aa8c 2d37
00000160: 7d3e 97b7 56b3 4bb7 99c3 45b6 186c e835
00000170: 9644 9535 3794 d0b7 2163 1137 c005 4db6
00000180: 9f25 cbb6 cfe5 30b7 3baf a0b7 315c de35
00000190: 6ec0 8c36 f6bd acb6 c688 2db8 9587 a4b7
000001a0: 86aa 4d36 6b68 9a36 ec18 a6b5 ff3b 7bb7
000001b0: 993d b336 8138 4837 0a3b 9ab6 0b18 cdb6
000001c0: 8399 25b5 1898 0eb7 7ee5 ccb6 d250 b5b7
000001d0: da23 bcb6 af08 01b7 1138 cdb7 25d7 2b37
000001e0: 5f69 ff36 ef09 6136 77f5 3db7 7058 0937
000001f0: ec62 8f37 563b 29b8 74a6 9eb3 b08e 35b7

exp_avg_sq f4 [128]
9.259629e-09 9.333403e-09 1.1996859e-09 4.2782182e-09 1.5563711e-09 7.048053e-10 4.4149036e-09 3.5810683e-09
1.3180499e-09 1.8802355e-09 4.744591e-09 1.5756055e-09 8.758719e-10 2.018935e-09 1.462662e-09 1.0202955e-09
1.2259614e-09 6.2066023e-09 3.2167053e-09 4.2123163e-09 2.474243e-09 2.693259e-09 2.5766276e-09 4.3567105e-09
3.553561e-09 5.062586e-09 5.2268203e-09 5.892443e-10 6.0232813e-10 4.3675943e-09 1.8804442e-09 1.5782962e-09
1.0061491e-08 6.4835795e-09 1.2829919e-08 1.119429e-08 3.4944807e-09 8.6528873e-10 1.8792186e-09 4.3140886e-09
4.0627595e-09 1.5520725e-09 3.2233582e-09 3.6553576e-09 4.6585256e-09 1.0131754e-09 3.7632866e-09 2.7907687e-09
2.3517714e-09 3.2922967e-09 5.110451e-09 1.3858021e-09 2.264164e-09 8.243312e-09 6.7496067e-09 2.8819422e-09
6.391907e-09 4.5315134e-09 1.5280149e-09 3.482524e-09 4.5806257e-09 1.1801535e-09 5.9640487e-10 2.387406e-09
4.250323e-09 3.4584584e-09 5.764612e-10 2.8293166e-09 1.0194362e-09 1.374739e-09 1.5951127e-09 1.9686194e-10
2.2442789e-10 1.9076434e-09 7.4516615e-09 1.78055e-09 8.380975e-11 1.2557044e-09 1.4581804e-09 5.848288e-09
8.392225e-09 6.8776846e-09 7.3649518e-09 3.676393e-09 4.241466e-09 4.181678e-09 2.1237252e-09 4.7623594e-10
2.4800804e-09 6.940958e-10 1.8199872e-09 6.3862006e-11 4.853267e-09 8.140259e-09 1.30675035e-08 2.6284062e-09
2.326334e-09 1.1758597e-09 4.3435384e-09 2.790451e-09 3.5039205e-10 3.2942424e-09 1.05338e-08 1.4668946e-09
4.693666e-10 6.120612e-09 4.268328e-09 3.6524546e-09 8.84525e-10 8.220663e-09 9.878269e-10 3.2869527e-10
1.1701993e-09 1.0097766e-08 5.5664535e-09 2.1117572e-09 2.7691964e-09 5.156651e-09 5.3668363e-09 4.917936e-09
5.521583e-10 1.035311e-10 4.991671e-09 5.426027e-10 2.2389168e-09 6.0863385e-09 1.721252e-09 4.877176e-09
00000000: 4714 1f32 be58 2032 32e2 a430 9bff 9231
00000010: f1e7 d530 44bc 4130 e7b1 9731 d216 7631
00000020: c226 b530 7435 0131 dd05 a331 b18c d830
00000030: 01c2 7030 7bbd 0a31 d806 c930 753a 8c30
00000040: af7e a830 da41 d531 e10c 5d31 edbb 9031
00000050: 5807 2a31 5014 3931 8310 3131 08b2 9531
00000060: e832 7431 faf2 ad31 9997 b331 62f8 2130
00000070: 1391 2530 c411 9631 2039 0131 5ceb d830
00000080: e8da 2c32 2bc6 de31 956a 5c32 0251 4032
00000090: 8e23 7031 48d9 6d30 9023 0131 203b 9431
000000a0: 6998 8b31 b250 d530 eb81 5d31 bb31 7b31
000000b0: d310 a031 f13f 8b30 384e 8131 b9c7 3f31
000000c0: cd9c 2131 b23e 6231 0198 af31 9476 be30
000000d0: 9897 1b31 789e 0d32 2bea e731 aa0b 4631
000000e0: cf9f db31 9db3 9b31 3f02 d230 3651 6f31
000000f0: 9c63 9d31 f632 a230 43f0 2330 b10f 2431
00000100: 3d0a 9231 d8a9 6d31 da74 1e30 dd6d 4231
00000110: 391c 8c30 54f1 bc30 0a3b db30 b673 582f
00000120: d6c2 762f 9e17 0331 c104 0032 89b7 f430
00000130: b24c b82e 2c95 ac30 2969 c830 16f2 c831
00000140: 652d 1032 c150 ec31 cd0e fd31 caa3 7c31
00000150: 54bc 9131 6eae 8f31 f8f0 1131 20e8 0230
00000160: 096e 2a31 a6ca 3e30 1b23 fa30 1d6f 8c2e
00000170: cac1 a631 3dd9 0b32 7d7f 6032 699f 3431
00000180: 4ddd 1f31 e39b a130 2b3e 9531 22c2 3f31
00000190: 4ca1 c02f ed60 6231 24f8 3432 c49b c930
000001a0: bd04 0130 794d d231 9ca8 9231 a9fe 7a31
000001b0: ea22 7330 dc3a 0d32 12c4 8730 bfb3 b42f
000001c0: bad4 a030 727a 2d32 0b43 bf31 6d1e 1131
000001d0: 384c 3e31 622e b131 3167 b831 9ffa a831
000001e0: b0c6 1730 d4aa e32e 3483 ab31 4526 1530
000001f0: 71db 1931 0020 d131 2c91 ec30 1894 a731

exp_avg f4 [128, 128]
-6.4778574e-06 -2.1294043e-05 -1.44378555e-05 -1.4723441e-05 2.0641348e-06 1.3746267e-06 1.3735612e-06 1.8984674e-06
-3.329085e-06 -3.1489114e-07 -1.8852183e-05 -8.937326e-06 -3.5543292e-06 -4.61939e-06 2.3942305e-06 1.6722191e-07
-2.4014248e-06 5.4787074e-06 8.006864e-06 1.3048446e-05 1.1310867e-05 -1.6431293e-05 5.6917534e-06 -1.8543743e-06
2.008479e-05 -1.334687e-05 -2.6289767e-05 4.34212e-06 6.49879e-06 7.059666e-06 -4.4415465e-06 -2.0321934e-06
-1.737276e-06 1.0513455e-05 -1.4936751e-05 1.6771302e-05 4.472788e-06 -6.4561013e-06 6.222314e-07 -1.6081713e-05
-8.5162055e-06 9.724215e-07 1.0976425e-05 -6.631581e-06 5.0651156e-06 5.9768427e-06 1.2488367e-05 -1.1957788e-05
-1.21912535e-05 1.4980538e-06 1.7330976e-05 3.3674503e-06 -1.1629443e-05 1.0155849e-05 4.4315093e-06 -6.5071176e-06
-1.5387897e-05 -7.5595826e-06 1.44821115e-05 -1.0336591e-05 -9.534909e-06 -4.3764658e-06 -2.6235057e-06 -2.7497492e-06
-6.3305197e-06 -9.401545e-06 -2.2984182e-06 5.039903e-06 1.6703132e-05 -3.773126e-06 -1.34354295e-05 3.3506296e-07
1.6546114e-06 -9.324722e-06 7.5245543e-06 1.2433941e-05 7.048775e-07 1.8613788e-05 -6.6706394e-07 2.8994054e-06
1.7859943e-06 2.2320175e-05 1.365951e-05 7.1408294e-07 1.18980736e-07 1.9845675e-05 2.8033621e-06 -3.8658982e-07
-1.7783435e-05 -1.5002348e-06 -5.291006e-06 -6.5727386e-07 1.5594469e-06 6.923133e-06 7.081894e-06 1.0391656e-05
5.9320865e-07 9.877218e-07 -1.3105458e-05 -3.6270078e-06 -1.6960765e-06 2.6036857e-06 6.554508e-07 2.2539373e-06
-4.0553487e-06 4.3886985e-06 -1.5681002e-05 -1.526764e-06 1.1868534e-05 1.0995894e-06 -1.6820542e-06 -7.689205e-07
7.9569566e-07 -6.370716e-06 1.5096163e-05 8.961974e-07 6.8622594e-06 -3.0107315e-06 1.9437775e-06 -9.4362385e-06
4.238358e-06 2.1561793e-06 3.233815e-06 -9.263086e-06 1.0048257e-05 -8.844137e-06 8.553242e-06 -1.5111505e-06
-2.7392189e-06 -1.4251303e-06 -3.9363176e-06 -2.0224634e-06 2.843133e-06 -2.4117592e-06 -3.005882e-06 3.6716406e-06
-1.6537633e-06 3.5011014e-06 7.0796737e-06 -2.1236876e-06 1.4455047e-06 -4.9621563e-06 -9.292491e-07 1.9079766e-06
-5.224161e-07 5.321443e-06 3.8076278e-06 1.1219306e-05 2.8639604e-06 7.2409125e-06 2.9479702e-06 3.2119985e-06
1.36618655e-05 2.9588116e-06 7.656263e-07 -1.8706357e-06 1.0480383e-06 4.477765e-06 2.6055968e-06 -1.7511871e-06
7.4945046e-07 7.739979e-06 6.1336286e-06 2.1011323e-05 9.841082e-06 -2.5870743e-06 2.5673744e-06 2.6640423e-06
-3.727449e-06 -1.3861902e-06 3.9689075e-06 -4.501397e-06 6.210818e-06 1.7571098e-06 1.1455373e-05 4.537517e-06
1.905201e-06 1.7871142e-06 1.0100672e-05 7.1441373e-06 -3.603177e-06 1.5610685e-05 7.867637e-06 -2.1040078e-06
-1.9092872e-06 1.2422919e-07 1.02111835e-05 -2.9030543e-06 -3.6627068e-06 -1.5249205e-06 -2.3206485e-06 -5.1213437e-06
-9.672014e-08 -9.2745773e-07 -3.0090148e-06 6.664993e-06 5.1394727e-06 1.8986461e-06 -1.0193464e-06 -2.9148239e-06
-5.6304207e-06 -4.6878686e-06 4.2428064e-06 4.2634597e-06 -7.1957597e-06 8.28098e-06 -9.219841e-07 8.028422e-06
-7.6730174e-08 2.2589233e-05 5.160954e-06 4.171601e-08 8.2128406e-07 1.6753174e-05 8.93943e-06 -2.2193785e-06
-6.1557444e-07 -4.9611485e-06 -3.242912e-06 -6.5397776e-06 -8.779984e-07 8.041005e-06 1.1075907e-05 3.4080385e-06
-1.4078481e-06 6.486967e-06 -6.5101235e-06 1.5578972e-06 -4.9531295e-06 4.946353e-06 1.1247324e-05 1.1095913e-06
-4.375821e-06 6.311222e-06 -1.7981678e-06 -2.0298918e-07 6.3497255e-06 1.0056873e-05 -5.729125e-06 -1.5514604e-06
-2.0273253e-06 -1.4504084e-07 1.8382414e-05 8.0089085e-06 1.0012133e-06 3.829657e-07 6.530261e-06 1.6264199e-06
-4.4608605e-06 -6.173426e-06 6.0839943e-06 -3.1508334e-06 3.5575097e-06 4.0995947e-06 -1.9390009e-06 -2.2460632e-08
00000000: 5f5c d9b6 9ca0 b2b7 1e3a 72b7 b304 77b7
00000010: 9185 0a36 d07f b835 345b b835 d8ce fe35
00000020: 3f69 5fb6 4f0e a9b4 c124 9eb7 86f1 15b7
00000030: e986 6eb6 4200 9bb6 91ac 2036 9c8d 3334
00000040: 2a28 21b6 bdd5 b736 3855 0637 a6ea 5a37
00000050: cec3 3d37 efd5 89b7 cafb be36 d1e3 f8b5
00000060: c27b a837 5fec 5fb7 d888 dcb7 87b2 9136
00000070: 2e10 da36 12e2 ec36 9808 95b6 d160 08b6
00000080: 592c e9b5 f262 3037 db98 7ab7 19b0 8c37
00000090: f514 9636 7da1 d8b6 6b07 2735 37e7 86b7
000000a0: d3e0 0eb7 2684 8235 6327 3837 d984 deb6
000000b0: 03f5 a936 b08c c836 2185 5137 4f9e 48b7
000000c0: 0989 4cb7 bd10 c935 fd61 9137 5bfc 6136
000000d0: 141c 43b7 0a63 2a37 60b2 9436 b757 dab6
000000e0: 4215 81b7 52a8 fdb6 32f8 7237 526b 2db7
000000f0: 1ff8 1fb7 8ed9 92b6 7c0f 30b6 5588 38b6
00000100: c06a d4b6 54bb 1db7 863e 1ab6 701c a936
00000110: b41d 8c37 d035 7db6 bb68 61b7 b4e2 b334
00000120: 0414 de35 6071 1cb7 6e7b fc36 5f9b 5037
00000130: d036 3d35 ce24 9c37 4910 33b5 6893 4236
00000140: 4cb6 ef35 363c bb37 262b 6537 68af 3f35
00000150: 5a82 ff33 437a a637 6521 3c36 808c cfb4
00000160: a32d 95b7 ad5b c9b5 6589 b1b6 846f 30b5
00000170: 304e d135 424d e836 02a1 ed36 d357 2e37
00000180: fd3c 1f35 dd91 8435 83df 5bb7 8567 73b6
00000190: bfa4 e3b5 fbba 2e36 3cf2 2f35 5942 1736
000001a0: 2e13 88b6 a242 9336 b28a 83b7 36eb ccb5
000001b0: f71e 4737 9b95 9335 f1c2 e1b5 d067 4eb5
000001c0: ca97 5535 09c4 d5b6 8745 7d37 3792 7035
000001d0: 5c42 e636 f90b 4ab6 d871 0236 5650 1eb7
000001e0: 3837 8e36 e1b2 1036 8504 5936 a768 1bb7
000001f0: ef94 2837 4761 14b7 e57f 0f37 bcd2 cab5
00000200: 6cd3 37b6 1b47 bfb5 b614 84b6 a8b9 07b6
00000210: a7cc 3e36 b5d9 21b6 a9b8 49b6 4e66 7636
00000220: e0f6 ddb5 77f4 6a36 ef8d ed36 ad84 0eb6
00000230: 2a03 c235 9980 a6b6 8371 79b5 ca0a 0036
00000240: 293c 0cb5 d98e b236 8c86 7f36 8d3a 3c37
00000250: 7732 4036 f7f6 f236 bed5 4536 b78d 5736
00000260: 4435 6537 ff8f 4636 7085 4d35 8e12 fbb5
00000270: 52aa 8c35 b53f 9636 d0db 2e36 550a ebb5
00000280: d82d 4935 f5da 0137 78cf cd36 7941 b037
00000290: 201b 2537 999d 2db6 284b 2c36 e6c7 3236
000002a0: 1625 7ab6 220d bab5 a82c 8536 b50a 97b6
000002b0: 8566 d036 d5d5 eb35 7430 4037 f940 9836
000002c0: 35b6 ff35 c7dc ef35 0e76 2937 acb7 ef36
000002d0: 1cce 71b6 b1f3 8237 3eff 0337 9432 0db6
000002e0: 4e21 00b6 dc63 0534 b350 2b37 18d2 42b6
000002f0: d3cc 75b6 dfab ccb5 70bc 1bb6 02d8 abb6
00000300: 76b4 cfb3 69f6 78b5 7bee 49b6 dba3 df36
00000310: bc73 ac36 fcd4 fe35 7ad0 88b5 4b9c 43b6
00000320: f2ec bcb6 7c4c 9db6 6e5d 8e36 d70e 8f36
00000330: 1b73 f1b6 8aee 0a37 447e 77b5 cfb1 0637
00000340: dcc6 a4b3 027e bd37 422c ad36 3d2b 3333
00000350: 3676 5c35 2b89 8c37 8ffa 1537 a2f0 14b6
00000360: f43d 25b5 f177 a6b6 cea0 59b6 4370 dbb6
00000370: 97af 6bb5 dae7 0637 a9d2 3937 a8b5 6436
00000380: 4bf5 bcb5 9faa d936 8971 dab6 f118 d135
00000390: 0f33 a6b6 d9f8 a536 e4b2 3c37 44ed 9435
000003a0: 04d4 92b6 fcc4 d336 9358 f1b5 3ef5 59b4
000003b0: ba0f d536 f1b9 2837 cf3c c0b6 c63b d0b5
000003c0: 2f0d 08b6 86bc 1bb4 ef33 9a37 005e 0637
000003d0: 6d61 8635 689a cd34 841e db36 5d4b da35
000003e0: 80ae 95b6 5325 cfb6 1d25 cc36 e872 53b6
000003f0: 8dbd 6e36 408f 8936 c81f 02b6 74ef c0b2
