results/FoodTarget_imitation_7/AgentPlayer/AgentPlayer-1699.pt (torch, 416143 bytes, 18 tensors)

network_body._body_endoder.seq_layers.0.weight f4 [128, 125]
-0.052367385 -0.022503747 -0.095490724 -0.06991162 -0.1507781 -0.24111713 -0.17324461 0.03482832
-0.024843842 0.011117949 0.1550746 -0.13771793 0.086249866 -0.06454641 0.088050865 0.13541792
0.0738651 -0.052504286 -0.0054826313 -0.032790784 -0.005889801 0.12779124 -0.08115811 0.08732881
0.09494094 0.164712 0.025947252 0.11229582 -0.08124928 0.21490556 -0.08060296 0.061456222
-0.04854719 -0.032172717 -0.0008876355 0.052607164 0.043047704 -0.003574799 -0.03406058 0.025171937
0.07386658 0.12541902 -0.038713876 -0.01358544 -0.10191512 -0.07575324 -0.008609672 -0.09248129
-0.076436214 0.034571674 -0.06058416 0.08679829 0.07819455 -0.09960789 -0.0010258312 0.06728329
-0.089604266 0.008003957 0.18908794 0.074982256 -0.106756225 -0.02987918 0.1528956 -0.07572159
-0.14874269 0.026072387 -0.054793254 0.004804499 0.054011002 -0.14007379 0.09219578 0.09122466
-0.11111443 0.08303981 0.05214345 -0.047400862 -0.024927001 0.039705284 -0.021335382 0.08342037
-0.082327455 0.05969549 0.1291388 -0.0002459748 -0.027541615 0.0014337468 0.010082554 0.093657956
0.09583516 0.11143324 0.057423957 0.07653592 0.03162937 0.0006095895 -0.01535045 0.011911473
0.124840975 0.052215174 0.044525214 -0.108244285 -0.12077271 -0.012139248 0.01594024 -0.15908629
-0.13092561 0.114106 0.13371567 -0.17438534 -0.014708247 0.11024828 -0.07433228 -0.03723555
-0.10113247 -0.007239141 0.029446663 0.22218738 0.093362816 0.07813401 0.03539321 0.05365983
0.03573418 -0.13356693 -0.022125846 0.0030754714 -0.06284171 -0.040045563 -0.12211912 0.017456425
0.052158453 -0.03366955 0.0038079517 0.069049075 -0.03412752 0.09199238 0.02208337 -0.03128616
0.017792938 -0.14736801 -0.16388732 -0.06978397 0.030791447 -0.106367014 -0.1254399 0.074987836
-0.11882588 0.028917633 -0.02069367 -0.07772647 0.09486839 -0.06076888 -0.10962962 0.025144888
0.011246624 0.15196218 -0.03514737 0.16401827 -0.0849301 0.0052827043 0.024390299 0.15836477
-0.033561055 -0.04500244 -0.08022393 -0.13595366 -0.13589843 0.009172571 -0.16210689 -0.040535137
-0.08118506 0.12258306 -0.034223597 -0.21602279 -0.07433566 0.0833092 -0.12211087 -0.10528346
-0.040255226 -0.23553655 -0.07250427 0.11611969 0.00059720746 -0.02062181 0.13390237 -0.06334875
-0.05189071 -0.18410268 -0.10897326 0.032450162 -0.013567114 -0.02281162 0.09132173 -0.014972434
0.008193206 -0.13453929 -0.01815636 0.044805873 -0.062068176 0.04620792 0.012397316 0.003521891
-0.054329738 -0.0038142076 -0.038382966 -0.12527597 -0.020240167 0.016671168 -0.12831494 0.014398782
-0.15960816 0.11676832 0.14592977 0.025941025 0.035055395 0.111959085 -0.13569126 0.0077004395
0.033681378 -0.16483432 0.090944685 -0.21785651 -0.07163925 -0.073875554 0.046984404 0.11332353
0.10813405 -0.03784239 0.058393393 -0.011501538 -0.012693259 -0.13640119 0.18224163 0.027225837
0.06968688 0.111858055 -0.008056986 0.103265524 0.20805489 0.062366385 0.080912426 -0.23395191
-0.14540003 -0.1723176 0.10925547 -0.15005417 -0.045139514 0.067092605 0.027453104 0.04019811
-0.12854733 -0.16171199 -0.036731668 0.11938335 -0.036090575 0.0036128978 -0.08442071 -0.06770004
00000000: 2f7f 56bd c759 b8bc a490 c3bd d32d 8fbd
00000010: 9365 1abe 69e7 76be 0967 31be 24a8 0e3d
00000020: 5085 cbbc 0f28 363c e0cb 1e3e ee05 0dbe
00000030: c5a3 b03d e930 84bd 0354 b43d ffaa 0a3e
00000040: 9646 973d bc0e 57bd a5a7 b3bb a14f 06bd
00000050: 3bff c0bb b5db 023e 3936 a6bd 72d9 b23d
00000060: 6570 c23d 43aa 283e 558f d43c 5afb e53d
00000070: 0666 a6bd 3410 5c3e 2a13 a5bd 85b9 7b3d
00000080: 6bd9 46bd 8ac7 03bd 36b0 68ba 9c7a 573d
00000090: ca52 303d 2d47 6abb 1b83 0bbd 6135 ce3c
000000a0: 5d47 973d d86d 003e 7192 1ebd 7795 5ebc
000000b0: e0b8 d0bd 8424 9bbd 950f 0dbc d566 bdbd
000000c0: 978a 9cbd 079b 0d3d 1927 78bd 4dc3 b13d
000000d0: 7724 a03d 39ff cbbd 2f75 86ba d2cb 893d
000000e0: 7182 b7bd 0723 033c 45a0 413e 4c90 993d
000000f0: 02a3 dabd 2fc5 f4bc aa90 1c3e ec13 9bbd
00000100: 0150 18be c295 d53c e46e 60bd 0f6f 9d3b
00000110: a43a 5d3d 816f 0fbe 24d1 bc3d ffd3 ba3d
00000120: f68f e3bd c710 aa3d 5f94 553d 6827 42bd
00000130: b633 ccbc 02a2 223d 8ac7 aebc 4dd8 aa3d
00000140: 4c9b a8bd 4283 743d f63c 043e 2ef6 80b9
00000150: f49e e1bc 8fec bb3a 4c31 253c becf bf3d
00000160: 3945 c43d 1c37 e43d 6235 6b3d ddbe 9c3d
00000170: cc8d 013d dccc 1f3a 7480 7bbc 5728 433c
00000180: a0ac ff3d 94df 553d 1260 363d 2eaf ddbd
00000190: af57 f7bd b2e3 46bc 1b95 823c 84e7 22be
000001a0: 5d11 06be 68b0 e93d c3ec 083e 1292 32be
000001b0: dcfa 70bc dac9 e13d 863b 98bd 4e84 18bd
000001c0: 8a1e cfbd 5136 edbb 213a f13c 1785 633e
000001d0: 0135 bf3d b904 a03d 78f8 103d 69ca 5b3d
000001e0: 015e 123d c5c5 08be 4341 b5bc d98d 493b
000001f0: 28b3 80bd d106 24bd 9719 fabd c700 8f3c
00000200: 1aa4 553d 15e9 09bd d48e 793b 9a69 8d3d
00000210: 4cc9 0bbd 8066 bc3d 2fe8 b43c eb25 00bd
00000220: 7fc2 913c a4e7 16be 14d2 27be e6ea 8ebd
00000230: 583e fc3c f3d6 d9bd 5173 00be 3993 993d
00000240: fc5a f3bd ace4 ec3c c585 a9bc 0e2f 9fbd
00000250: 5c4a c23d cae8 78bd 7f85 e0bd a7fc cd3c
00000260: c343 383c f99b 1b3e b0f6 0fbd 68f4 273e
00000270: d5ef adbd 891a ad3b 2ace c73c 602a 223e
00000280: 5177 09bd 7b54 38bd 724c a4bd 7037 0bbe
00000290: f528 0bbe 8d48 163c 59ff 25be 2c08 26bd
000002a0: 5a44 a6bd d40c fb3d 0b2e 0cbd 1435 5dbe
000002b0: 4b3d 98bd 049e aa3d 4415 fabd db9e d7bd
000002c0: aae2 24bd 7e30 71be 1e7d 94bd 29d0 ed3d
000002d0: ea8d 1c3a 12ef a8bc b41d 093e fdbc 81bd
000002e0: 5a8b 54bd 6a85 3cbe 5f2d dfbd 76ea 043d
000002f0: 9a48 5ebc 6fdf babc e306 bb3d f14e 75bc
00000300: cc3c 063c abc4 09be a6bc 94bc 5d86 373d
00000310: 333b 7ebd 8444 3d3d 1d1e 4b3c 87cf 663b
00000320: dc88 5ebd c9f7 79bb 7537 1dbd 5848 00be
00000330: b5ce a5bc f991 883c fe64 03be dee8 6b3c
00000340: 5270 23be 3b24 ef3d 9d6e 153e 4682 d43c
00000350: 3f96 0f3d ce4a e53d a6f2 0abe f853 fc3b
00000360: 7cf5 093d 54ca 28be 3541 ba3d c715 5fbe
00000370: 99b7 92bd 114c 97bd b872 403d 2b16 e83d
00000380: 6375 dd3d 9f00 1bbd e92d 6f3d f270 3cbc
00000390: 63f7 4fbc c1ac 0bbe 8d9d 3a3e b808 df3c
000003a0: ffb7 8e3d d615 e53d 7301 04bc e07c d33d
000003b0: 570c 553e e573 7f3d 6ab5 a53d 1791 6fbe
000003c0: bfe3 14be 0674 30be 55c1 df3d cda7 19be
000003d0: 36e4 38bd d967 893d 55e5 e03c c6a6 243d
000003e0: e9a1 03be d497 25be f273 16bd 427f f43d
000003f0: b6d3 13bd 5ec6 6c3b c4e4 acbd 52a6 8abd

network_body._body_endoder.seq_layers.0.bias f4 [128]
0.0 0.0 0.0 0.0 0.0 0.0 0.0 0.0
0.0 0.0 0.0 0.0 0.0 0.0 0.0 0.0
0.0 0.0 0.0 0.0 0.0 0.0 0.0 0.0
0.0 0.0 0.0 0.0 0.0 0.0 0.0 0.0
0.0 0.0 0.0 0.0 0.0 0.0 0.0 0.0
0.0 0.0 0.0 0.0 0.0 0.0 0.0 0.0
0.0 0.0 0.0 0.0 0.0 0.0 0.0 0.0
0.0 0.0 0.0 0.0 0.0 0.0 0.0 0.0
0.0 0.0 0.0 0.0 0.0 0.0 0.0 0.0
0.0 0.0 0.0 0.0 0.0 0.0 0.0 0.0
0.0 0.0 0.0 0.0 0.0 0.0 0.0 0.0
0.0 0.0 0.0 0.0 0.0 0.0 0.0 0.0
0.0 0.0 0.0 0.0 0.0 0.0 0.0 0.0
0.0 0.0 0.0 0.0 0.0 0.0 0.0 0.0
0.0 0.0 0.0 0.0 0.0 0.0 0.0 0.0
0.0 0.0 0.0 0.0 0.0 0.0 0.0 0.0
00000000: 0000 0000 0000 0000 0000 0000 0000 0000
00000010: 0000 0000 0000 0000 0000 0000 0000 0000
00000020: 0000 0000 0000 0000 0000 0000 0000 0000
00000030: 0000 0000 0000 0000 0000 0000 0000 0000
00000040: 0000 0000 0000 0000 0000 0000 0000 0000
00000050: 0000 0000 0000 0000 0000 0000 0000 0000
00000060: 0000 0000 0000 0000 0000 0000 0000 0000
00000070: 0000 0000 0000 0000 0000 0000 0000 0000
00000080: 0000 0000 0000 0000 0000 0000 0000 0000
00000090: 0000 0000 0000 0000 0000 0000 0000 0000
000000a0: 0000 0000 0000 0000 0000 0000 0000 0000
000000b0: 0000 0000 0000 0000 0000 0000 0000 0000
000000c0: 0000 0000 0000 0000 0000 0000 0000 0000
000000d0: 0000 0000 0000 0000 0000 0000 0000 0000
000000e0: 0000 0000 0000 0000 0000 0000 0000 0000
000000f0: 0000 0000 0000 0000 0000 0000 0000 0000
00000100: 0000 0000 0000 0000 0000 0000 0000 0000
00000110: 0000 0000 0000 0000 0000 0000 0000 0000
00000120: 0000 0000 0000 0000 0000 0000 0000 0000
00000130: 0000 0000 0000 0000 0000 0000 0000 0000
00000140: 0000 0000 0000 0000 0000 0000 0000 0000
00000150: 0000 0000 0000 0000 0000 0000 0000 0000
00000160: 0000 0000 0000 0000 0000 0000 0000 0000
00000170: 0000 0000 0000 0000 0000 0000 0000 0000
00000180: 0000 0000 0000 0000 0000 0000 0000 0000
00000190: 0000 0000 0000 0000 0000 0000 0000 0000
000001a0: 0000 0000 0000 0000 0000 0000 0000 0000
000001b0: 0000 0000 0000 0000 0000 0000 0000 0000
000001c0: 0000 0000 0000 0000 0000 0000 0000 0000
000001d0: 0000 0000 0000 0000 0000 0000 0000 0000
000001e0: 0000 0000 0000 0000 0000 0000 0000 0000
000001f0: 0000 0000 0000 0000 0000 0000 0000 0000

network_body._body_endoder.seq_layers.2.weight f4 [128, 128]
-0.051111825 -0.08054458 -0.044659648 0.14004385 -0.0695533 0.10343586 -0.15114608 -0.007970574
-0.035648886 -0.022911377 -0.08067463 0.025278639 0.13357253 -0.15063092 -0.091419645 -0.09211797
0.07583152 -0.08444445 0.1987018 0.035335958 -0.13005738 0.08790172 0.026343051 -0.016339563
-0.02346204 -0.099541016 0.015131436 -0.033278592 0.05595948 0.09224314 0.0952128 -0.035021674
-0.042900123 -0.058467392 0.1266313 -0.0049661887 -0.11287797 -0.033149082 -0.017677393 6.6800574e-05
0.10352642 0.0054174266 -0.051631715 -0.04252491 0.044633713 0.067270584 0.009622897 0.024556974
0.13252866 -0.0009707038 -0.05382379 -0.043755878 0.05558327 0.016062167 0.03196254 0.022172451
-0.08802641 -0.0028853593 0.064271376 -0.09046662 0.023942323 0.05470471 0.0349378 0.08592828
0.0070468667 -0.17352183 -0.15149392 0.17444342 0.067298576 -0.02339976 -0.014856564 0.07830094
-0.12801911 0.0108927665 0.1423194 -0.02799706 -0.13927487 0.045428637 0.04650513 -0.19054987
0.07636269 -0.05636168 -0.03706898 -0.009813836 -0.040795587 -0.1508252 -0.010140629 -0.039494406
0.073737 0.006376479 0.09701021 -0.0257657 0.06119334 -0.17290695 0.0377003 -0.05636798
-0.024083246 -0.057350338 0.074206494 0.024511795 0.021722555 0.10199112 0.08385758 0.099731885
0.011034749 0.11065923 0.013381449 0.120242186 -0.05418846 0.20104182 -0.11726407 -0.004754325
-0.0104187215 0.048899177 0.07417516 -0.095748894 -0.09201223 0.009847627 0.11620703 -0.05832459
0.00016578226 0.040878687 0.1743119 -0.10867976 -0.054597143 0.1160746 -0.11475465 0.034545943
-0.1578956 0.054567683 -0.04782645 0.060032178 0.05630127 0.09206185 -0.14824355 0.020997215
-0.076804824 -0.044669967 0.06509716 -0.06101782 0.11566983 -0.18902051 -0.06518661 0.06923132
-0.023261767 0.0945195 0.11652129 0.06001088 0.031779356 0.0047185556 -0.05175211 0.21331206
-0.1914518 -0.11412901 0.093934014 0.09637408 -0.09110363 0.10054296 0.092115775 -0.031946447
0.0076068896 0.111636765 -0.07775674 0.18486509 0.07665002 0.01660472 -0.15058254 0.052995197
-0.072364606 -0.022112697 0.06650381 -0.042075265 -0.05786329 0.07532097 0.013962945 0.11589084
-0.042469565 0.10925134 0.02050135 -0.0021334735 -0.07423747 0.06640073 -0.13174838 -0.17538556
0.08091869 -0.008038859 0.15748586 -0.03893538 0.08337855 -0.04171242 -0.008720544 0.07907689
0.023491433 0.038463566 0.10294036 0.12567471 0.053955626 0.11725845 -0.034985084 0.060662817
0.046374857 0.058768984 -0.07388719 -0.055167243 0.0033017597 0.034970175 -0.05211446 0.1733289
-0.17655955 -0.07909091 0.033105366 -0.07460429 0.062203784 -0.038231544 0.05088288 0.050766457
0.08849361 0.044329196 -0.069849916 -0.0805768 -0.12943457 0.02835981 0.13776612 -0.17514558
0.07760388 -0.04956094 0.15927605 0.045960937 -0.031805303 -0.16491675 -0.045771908 -0.11900411
0.015695527 0.03844391 -0.10156026 -0.20112145 -0.0773734 -0.028046187 0.074010134 0.09496568
0.1334905 0.08525213 -0.046781335 0.058883794 -0.1142286 0.08902631 -0.18812087 0.041938756
0.12572205 -0.10358751 0.15611337 0.06630312 -0.009434759 0.12517023 -0.072281934 0.05999605
00000000: a25a 51bd 8ff4 a4bd 09ed 36bd a867 0f3e
00000010: f671 8ebd 2ed6 d33d 0ac6 1abe 0397 02bc
00000020: 9104 12bd a4b0 bbbc be38 a5bd 2615 cf3c
00000030: 3dc7 083e fe3e 1abe 393a bbbd 59a8 bcbd
00000040: 8e4d 9b3d 36f1 acbd 7c78 4b3e 70bc 103d
00000050: c32d 05be d105 b43d 62cd d73c 8cda 85bc
00000060: 7733 c0bc 29dc cbbd d8e9 773c 224f 08bd
00000070: c535 653d f9e9 bc3d eefe c23d e372 0fbd
00000080: 0ab8 2fbd 817b 6fbd a3ab 013e 69bb a2bb
00000090: 912c e7bd 55c7 07bd 2ed0 90bc 4917 8c38
000000a0: a905 d43d ab84 b13b c77b 53bd 9a2e 2ebd
000000b0: d7d1 363d 29c5 893d 5ba9 1d3c b52b c93c
000000c0: 98b5 073e d476 7eba 5676 5cbd 5d39 33bd
000000d0: 48ab 633d ce94 833c 27eb 023d 00a3 b53c
000000e0: 3147 b4bd 4c18 3dbb b6a0 833d 9046 b9bd
000000f0: b122 c43c 0c12 603d f01a 0f3d 2bfb af3d
00000100: 67e9 e63b b5af 31be 3921 1bbe 4ca1 323e
00000110: d6d3 893d dab0 bfbc f268 73bc 3e5c a03d
00000120: 7117 03be 9377 323c 2dbc 113e 175a e5bc
00000130: 129e 0ebe 6113 3a3d 2a7c 3e3d 811f 43be
00000140: 0b64 9c3d 81db 66bd a5d5 17bd 36ca 20bc
00000150: 4619 27bd ec71 1abe e124 26bc e3c4 21bd
00000160: 6d03 973d c8f1 d03b 4aad c63d 9712 d3bc
00000170: dea5 7a3d 850e 31be a16b 1a3d 1ce2 66bd
00000180: 3a4a c5bc 30e8 6abd 93f9 973d f6cc c83c
00000190: 80f3 b13c b8e0 d03d 86bd ab3d 3b40 cc3d
000001a0: 18cb 343c 4ea1 e23d dd3d 5b3c 8941 f63d
000001b0: b8f4 5dbd e8dd 4d3e 2528 f0bd 2bca 9bbb
000001c0: 49b3 2abc 814a 483d 25e9 973d ff17 c4bd
000001d0: e870 bcbd f157 213c f4fd ed3d c4e5 6ebd
000001e0: d6d5 2d39 6970 273d d27e 323e 7e93 debd
000001f0: 41a1 5fbd 85b8 ed3d 7c04 ebbd 0c80 0d3d
00000200: 62af 21be 5d82 5f3d abe5 43bd 4de4 753d
00000210: 299c 663d ec8a bc3d 28cd 17be 5a02 ac3c
00000220: d94b 9dbd dbf7 36bd a951 853d d2ed 79bd
00000230: 4ee4 ec3d 988e 41be 8f80 85bd 26c9 8d3d
00000240: 768f bebc 7193 c13d b7a2 ee3d f8cd 753d
00000250: 122b 023d 1d9e 9a3b 05fa 53bd 7a6e 5a3e
00000260: f10b 44be 78bc e9bd 7a60 c03d c65f c53d
00000270: 8a94 babd 78e9 cd3d 32a7 bc3d 47da 02bd
00000280: 3743 f93b d1a1 e43d ed3e 9fbd 464d 3d3e
00000290: b0fa 9c3d 9f06 883c 4f32 1abe 7e11 593d
000002a0: e533 94bd b025 b5bc 2633 883d 1d57 2cbd
000002b0: 0f02 6dbd e141 9a3d d6c4 643c 2d58 ed3d
000002c0: 91f4 2dbd 2bbf df3d 72f2 a73c bfd1 0bbb
000002d0: d109 98bd 1bfd 873d 0ce9 06be 4698 33be
000002e0: b3b8 a53d 6bb5 03bc f943 213e b47a 1fbd
000002f0: 60c2 aa3d a4da 2abd 9de0 0ebc 11f3 a13d
00000300: 1b71 c03c f98b 1d3d 65d2 d23d dfb0 003e
00000310: 9300 5d3d 3325 f03d 854c 0fbd 9379 783d
00000320: 90f3 3d3d bfb7 703d 2b52 97bd 0cf7 61bd
00000330: 5662 583b e33c 0f3d f975 55bd 227d 313e
00000340: 07cc 34be 6afa a1bd 7e99 073d 22ca 98bd
00000350: 65c9 7e3d ae98 1cbd 916a 503d 7df0 4f3d
00000360: 233c b53d 8892 353d 790d 8fbd 7305 a5bd
00000370: 7f8a 04be d552 e83c 9012 0d3e 5d59 33be
00000380: c8ee 9e3d 6a00 4bbd 4319 233e 8941 3c3d
00000390: 4746 02bd f0df 28be 537b 3bbd 6db8 f3bd
000003a0: e893 803c 5d77 1d3d d3fe cfbd c8f2 4dbe
000003b0: f275 9ebd 1ec1 e5bc a092 973d 5e7d c23d
000003c0: bcb1 083e ab98 ae3d c99d 3fbd 2230 713d
000003d0: aff0 e9bd 6d53 b63d c2a2 40be f9c7 2b3d
000003e0: 48bd 003e b025 d4bd 2fdc 1f3e eec9 873d
000003f0: 3f94 1abc a02c 003e 8d08 94bd 6bbe 753d

network_body._body_endoder.seq_layers.2.bias f4 [128]
0.0 0.0 0.0 0.0 0.0 0.0 0.0 0.0
0.0 0.0 0.0 0.0 0.0 0.0 0.0 0.0
0.0 0.0 0.0 0.0 0.0 0.0 0.0 0.0
0.0 0.0 0.0 0.0 0.0 0.0 0.0 0.0
0.0 0.0 0.0 0.0 0.0 0.0 0.0 0.0
0.0 0.0 0.0 0.0 0.0 0.0 0.0 0.0
0.0 0.0 0.0 0.0 0.0 0.0 0.0 0.0
0.0 0.0 0.0 0.0 0.0 0.0 0.0 0.0
0.0 0.0 0.0 0.0 0.0 0.0 0.0 0.0
0.0 0.0 0.0 0.0 0.0 0.0 0.0 0.0
0.0 0.0 0.0 0.0 0.0 0.0 0.0 0.0
0.0 0.0 0.0 0.0 0.0 0.0 0.0 0.0
0.0 0.0 0.0 0.0 0.0 0.0 0.0 0.0
0.0 0.0 0.0 0.0 0.0 0.0 0.0 0.0
0.0 0.0 0.0 0.0 0.0 0.0 0.0 0.0
0.0 0.0 0.0 0.0 0.0 0.0 0.0 0.0
00000000: 0000 0000 0000 0000 0000 0000 0000 0000
00000010: 0000 0000 0000 0000 0000 0000 0000 0000
00000020: 0000 0000 0000 0000 0000 0000 0000 0000
00000030: 0000 0000 0000 0000 0000 0000 0000 0000
00000040: 0000 0000 0000 0000 0000 0000 0000 0000
00000050: 0000 0000 0000 0000 0000 0000 0000 0000
00000060: 0000 0000 0000 0000 0000 0000 0000 0000
00000070: 0000 0000 0000 0000 0000 0000 0000 0000
00000080: 0000 0000 0000 0000 0000 0000 0000 0000
00000090: 0000 0000 0000 0000 0000 0000 0000 0000
000000a0: 0000 0000 0000 0000 0000 0000 0000 0000
000000b0: 0000 0000 0000 0000 0000 0000 0000 0000
000000c0: 0000 0000 0000 0000 0000 0000 0000 0000
000000d0: 0000 0000 0000 0000 0000 0000 0000 0000
000000e0: 0000 0000 0000 0000 0000 0000 0000 0000
000000f0: 0000 0000 0000 0000 0000 0000 0000 0000
00000100: 0000 0000 0000 0000 0000 0000 0000 0000
00000110: 0000 0000 0000 0000 0000 0000 0000 0000
00000120: 0000 0000 0000 0000 0000 0000 0000 0000
00000130: 0000 0000 0000 0000 0000 0000 0000 0000
00000140: 0000 0000 0000 0000 0000 0000 0000 0000
00000150: 0000 0000 0000 0000 0000 0000 0000 0000
00000160: 0000 0000 0000 0000 0000 0000 0000 0000
00000170: 0000 0000 0000 0000 0000 0000 0000 0000
00000180: 0000 0000 0000 0000 0000 0000 0000 0000
00000190: 0000 0000 0000 0000 0000 0000 0000 0000
000001a0: 0000 0000 0000 0000 0000 0000 0000 0000
000001b0: 0000 0000 0000 0000 0000 0000 0000 0000
000001c0: 0000 0000 0000 0000 0000 0000 0000 0000
000001d0: 0000 0000 0000 0000 0000 0000 0000 0000
000001e0: 0000 0000 0000 0000 0000 0000 0000 0000
000001f0: 0000 0000 0000 0000 0000 0000 0000 0000

action_model._continuous_distribution.log_sigma f4 [1, 20]
0.0 0.0 0.0 0.0 0.0 0.0 0.0 0.0
0.0 0.0 0.0 0.0 0.0 0.0 0.0 0.0
0.0 0.0 0.0 0.0
00000000: 0000 0000 0000 0000 0000 0000 0000 0000
00000010: 0000 0000 0000 0000 0000 0000 0000 0000
00000020: 0000 0000 0000 0000 0000 0000 0000 0000
00000030: 0000 0000 0000 0000 0000 0000 0000 0000
00000040: 0000 0000 0000 0000 0000 0000 0000 0000

action_model._continuous_distribution.mu.weight f4 [20, 128]
-0.007952585 -0.0013134272 -0.0048357393 -0.0058008716 -0.021537855 0.0032605156 -0.018736603 0.021589598
-0.016340302 0.0164295 0.012988353 0.013992096 -0.0004850522 0.0047453432 -0.010727683 -0.015299304
0.014252501 -0.020173365 0.0008842635 0.023311028 0.015596511 -0.010975845 0.013917278 -0.012585498
0.0031816158 0.0011330997 -0.0043603107 0.027389476 0.024932334 -0.024809008 -0.003964423 -0.02678403
0.0053729243 0.0006490019 0.016578853 -0.02575987 0.034288418 -0.034116317 -0.014417584 -0.0049381442
-0.01330709 -0.016799252 -0.018328873 -0.026112705 0.021601731 0.009917172 0.0065544094 0.0017784791
0.031702925 0.016430538 -0.017806526 -0.006485416 -0.007519008 -0.0033969877 0.012111881 0.015671788
-0.0058884 0.009314971 0.0098299505 -5.817575e-06 -0.00945839 -0.006228564 0.014650245 0.00361329
-0.009456354 -0.013343166 0.021347156 -0.03232803 -0.01650946 0.004964514 0.003758875 0.01986293
0.010041629 0.0024727227 0.0046274066 0.010703614 -0.009960084 0.0034098735 -0.018216996 0.04512714
0.005717456 0.037572056 -0.0044989027 0.009280833 -0.0147354575 0.0024829365 -0.007748359 -0.014716178
-0.019239051 0.0034121328 0.0188473 -0.014141204 -0.026845908 0.0058093746 -0.021432457 -0.019181842
0.032934245 -0.0024264199 0.0143574225 0.012465604 0.0059529445 0.013252466 -0.0037922096 0.02346554
0.023849865 -0.005975725 -0.023521753 -0.014425315 0.0004218462 -0.00032133944 0.011436769 0.027828956
0.003885708 0.0068524443 0.006795785 0.022086 -0.019420085 0.01310934 -0.016770907 0.0049797264
0.02701122 0.00056518236 -0.028834289 -0.019028204 0.032533657 0.006002976 -0.011522263 -0.023455039
0.0052576563 -0.0017316834 -0.012133899 -0.0050811796 0.042579036 0.031341046 -0.0057862587 0.029799256
-0.009921986 0.0046543274 -0.0122349765 -0.0051454273 0.003987673 -0.0003787883 -0.012830828 -0.0032787898
0.009802454 0.003192867 0.022695912 0.0025622738 -0.020302916 -0.0050266273 -0.0007254607 -0.02577447
0.0004919388 0.0028447534 -0.009867779 0.00519062 0.024842313 -0.020339973 0.009799351 -0.0039200704
-0.00033109405 -0.012415112 0.022244077 -0.0078007034 0.006059097 0.010068874 0.01817933 -0.00466734
0.018907597 -0.009024955 0.0026201431 0.017932525 -0.0016931882 0.010042119 0.0059700045 0.005774361
-0.017159969 0.012130093 0.0101963775 0.017543647 0.019487215 0.014618285 -0.010747438 -0.025434632
0.016261531 -0.0046617473 -0.011115377 0.017135585 -0.010005726 -0.0061765746 -0.015881753 -0.016949078
-0.030263383 0.020325914 -0.00059947296 0.019817887 0.008761996 0.0034813795 -0.033787154 -0.0094301505
0.009999174 0.033783298 0.026955554 -0.024279581 0.016951963 0.026734753 -0.0028692295 -0.0054298304
-0.0029583422 -0.023894066 -0.017954513 -0.005744657 0.02178911 0.009128475 0.01830711 -0.0020149844
-0.023270588 -0.002076235 0.003814257 0.006305003 -0.001268974 0.01633311 0.009443085 0.02003141
0.004318097 -0.006825313 -0.007930941 2.9522414e-05 0.0046102493 0.026982704 -0.013356137 0.018135918
0.012701742 0.0031649868 0.0046492885 0.028656987 0.00575499 0.0028995925 -0.019762268 0.013993151
0.0039533884 0.015082669 -0.015369679 -0.04421799 0.008153215 -0.00798233 0.00015652878 0.007665285
-0.001845654 0.034523267 -0.009868217 0.012045231 0.007293173 0.013831097 -0.0042176004 0.017957745
00000000: 8f4b 02bc 4e27 acba 1f75 9ebb 3d15 bebb
00000010: 2870 b0bc 60ae 553b 817d 99bc abdc b03c
00000020: 19dc 85bc 2997 863c 1acd 543c 1b3f 653c
00000030: 9b4e feb9 d37e 9b3b 2ac3 2fbc efa9 7abc
00000040: 5283 693c 9d42 a5bc ebcd 673a c5f6 be3c
00000050: 8288 7f3c 08d4 33bc 4b05 643c 6833 4ebc
00000060: a882 503b 8484 943a f0e0 8ebb e55f e03c
00000070: e53e cc3c 433c cbbc fee7 81bb 2f6a dbbc
00000080: 5b0f b03b c821 2a3a 60d0 873c 5d06 d3bc
00000090: 0372 0c3d 8dbd 0bbd bb37 6cbc 28d0 a1bb
000000a0: fb05 5abc 969e 89bc 6f26 96bc 50ea d5bc
000000b0: 1df6 b03c a27b 223c 5fc6 d63b db1b e93a
000000c0: edda 013d 5699 863c fede 91bc 9d83 d4bb
000000d0: 0362 f6bb ff9f 5ebb e970 463c 1f62 803c
000000e0: 7bf3 c0bb d29d 183c cd0d 213c 9734 c3b6
000000f0: 5df7 1abc fb18 ccbb 9507 703c f2cc 6c3b
00000100: d3ee 1abc 4b9d 5abc 3be0 ae3c 656a 04bd
00000110: d93e 87bc 5dad a23b 7557 763b 95b7 a23c
00000120: a585 243c 670d 223b 80a1 973b 365e 2f3c
00000130: 9f2f 23bc 2f78 5f3b cf3b 95bc 3cd7 383d
00000140: 7f59 bb3b 28e5 193d 886b 93bb a30e 183c
00000150: fd6c 71bc c3b8 223b f2e5 fdbb 201c 71bc
00000160: 379b 9dbc 179e 5f3b a765 9a3c 82b0 67bc
00000170: f3eb dbbc 915c be3b 1f93 afbc 3d23 9dbc
00000180: 0fe6 063d 9204 1fbb 653b 6b3c 883c 4c3c
00000190: eb10 c33b df20 593c b886 78bb ce3a c03c
000001a0: cb60 c33c 04d0 c3bb b1b0 c0bc 2858 6cbc
000001b0: 3d2b dd39 7379 a8b9 4961 3b3c 8df9 e33c
000001c0: 5da7 7e3b 788a e03b 2daf de3b b3ed b43c
000001d0: df16 9fbc 8fc8 563c 2463 89bc f92c a33b
000001e0: a246 dd3c bf28 143a e335 ecbc 09e1 9bbc
000001f0: 0342 053d 9db4 c43b e0c7 3cbc c824 c0bc
00000200: 6b48 ac3b a7f9 e2ba 43cd 46bc 0680 a6bb
00000210: 5b67 2e3d 785f 003d a89a bdbb 921d f43c
00000220: d38f 22bc 5483 983b 3675 48bc f99a a8bb
00000230: 07ab 823b 1b98 c6b9 6538 52bc f7e0 56bb
00000240: 799a 203c 6b3f 513b c7ec b93c d2eb 273b
00000250: 4d52 a6bc 68b6 a4bb d82c 3eba fb24 d3bc
00000260: 74f5 003a 0b6f 3a3b 77ac 21bc 1416 aa3b
00000270: 1b82 cb3c 04a0 a6bc 758d 203c ef73 80bb
00000280: b196 adb9 c168 4bbc 3639 b63c 0b9d ffbb
00000290: 648b c63b ebf7 243c d1ec 943c 7cf0 98bb
000002a0: 1be4 9a3c 68dd 13bc b5b6 2b3b 3be7 923c
000002b0: f8ed ddba b387 243c 07a0 c33b da36 bd3b
000002c0: 1093 8cbc 4cbd 463c b50e 273c b2b7 8f3c
000002d0: a7a3 9f3c 8881 6f3c 0616 30bc 4a5c d0bc
000002e0: e736 853c 92c1 98bb 451d 36bc ed5f 8c3c
000002f0: 0eef 23bc dd64 cabb 731a 82bc cbd8 8abc
00000300: eaea f7bc 8882 a63c f325 1dba 1f59 a23c
00000310: 7a8e 0f3c db27 643b 6664 0abd eb80 1abc
00000320: 93d3 233c 5b60 0a3d e5d1 dc3c f9e5 c6bc
00000330: d8de 8a3c d702 db3c af09 3cbb b8ec b1bb
00000340: bfe0 41bb 7dbd c3bc 5815 93bc ad3d bcbb
00000350: 137f b23c 998f 153c cbf8 953c d40d 04bb
00000360: f6a1 bebc 7111 08bb 9df8 793b 339a ce3b
00000370: b453 a6ba 04cd 853c 2bb7 1a3c e918 a43c
00000380: d37e 8d3b e0a6 dfbb c7f0 01bc e7a6 f737
00000390: 9311 973b d50a dd3c b3d3 5abc c791 943c
000003a0: f81a 503c ab6b 4f3b 0f59 983b 0fc2 ea3c
000003b0: 5b94 bc3b 1707 3e3b 7be4 a1bc 8743 653c
000003c0: 6d8b 813b 4d1d 773c 1bd1 7bbc ec1d 35bd
000003d0: 1095 053c 52c8 02bc e021 2439 122d fb3b
000003e0: dfe9 f1ba 4568 0d3d 4dae 21bc 5c59 453c
000003f0: 92fb ee3b d39b 623c cc33 8abb 1f1c 933c

action_model._continuous_distribution.mu.bias f4 [20]
0.0 0.0 0.0 0.0 0.0 0.0 0.0 0.0
0.0 0.0 0.0 0.0 0.0 0.0 0.0 0.0
0.0 0.0 0.0 0.0
00000000: 0000 0000 0000 0000 0000 0000 0000 0000
00000010: 0000 0000 0000 0000 0000 0000 0000 0000
00000020: 0000 0000 0000 0000 0000 0000 0000 0000
00000030: 0000 0000 0000 0000 0000 0000 0000 0000
00000040: 0000 0000 0000 0000 0000 0000 0000 0000

network_body._body_endoder.seq_layers.0.weight f4 [128, 125]
0.079006724 -0.1491311 -0.008908915 0.012704684 -0.11750728 0.072736114 0.07165662 0.11080635
0.030793479 -0.08359893 -0.16523464 -0.02653149 0.047542594 -0.038672045 -0.028593205 -0.012679586
0.06006217 -0.08512826 -0.07073773 -0.10369429 0.21112032 0.14441794 -0.024729148 0.061387945
-0.022843752 0.03432124 -0.09205975 -0.02041023 -0.012947547 0.015750024 0.02850418 0.028593794
-0.044840608 0.17831378 -0.05905171 -0.16988605 0.07730789 -0.15842064 -0.08634087 -0.114537396
0.16028689 0.016792348 0.16358733 -0.024163265 -0.004151374 -0.19883804 0.0046008006 0.08497461
-0.09107163 -0.07401683 -0.06982362 -0.07861317 -0.14217933 -0.16794665 -0.07894614 -0.18441889
-0.028677538 -0.1741571 0.07301808 0.029914783 -0.12260416 -0.2174874 -0.12588632 -0.035930056
0.02317314 0.0012620965 0.03143974 -0.11326373 -0.1042777 -0.07082859 -0.025010975 -0.08192015
-0.04921401 -0.07430366 -0.039002948 -0.019502409 0.008844498 -0.03155946 -0.021607583 0.057498403
0.04102164 0.20314062 0.20815709 0.120293275 0.09105865 0.07159914 -0.043782454 0.06948795
-0.08732393 0.00013702683 0.0908458 0.06707379 0.09360392 -0.05885452 -0.041391283 0.00032737802
-0.09750454 -0.13342227 -0.018022237 0.05545596 0.059367176 0.05868807 0.011557392 0.03731003
0.051497485 -0.018718723 0.13351107 0.042384364 0.1625427 0.0075675882 0.10291862 0.06837897
0.03826531 0.0022743386 0.037220206 0.11355442 -0.1361529 -0.17549212 -0.13899507 0.055484936
-0.09623827 0.10828478 0.024367569 -0.014919771 -0.03835462 -0.020877397 0.05467939 0.05502798
0.04594371 0.06497614 -0.16935785 -0.0845919 0.034249924 0.025117991 -0.034803092 0.130947
-0.114233725 0.1558518 -0.04774797 -0.0012577993 -0.04774866 -0.06774362 -0.01333298 0.035042528
0.034281384 0.11158921 0.17122461 -0.033929095 -0.09004793 -0.018606698 0.11053822 0.05819003
0.11845506 0.042540528 0.08768509 -0.05747763 -0.087145925 0.05966119 -0.14479215 -0.05071062
0.14550933 0.010315183 0.066505335 -0.07725709 -0.080287546 0.03596159 -0.04459097 -0.076457016
-0.19807847 -0.09447379 -0.03255589 -0.026633644 0.058558006 0.0063991128 0.112950966 -0.09854977
0.013556539 -0.011111375 0.11656284 -0.030825142 0.08382044 0.04593638 -0.020653615 0.11167091
-0.07353423 0.076950185 0.10520095 -0.010564139 -0.12822673 -0.09476849 -0.1614757 -0.06644698
0.01912421 0.0046087424 0.0051175253 0.049559433 -0.004059815 -0.12412172 0.0507803 0.042778023
0.11669908 0.016691973 0.01566655 0.028218184 -0.05868598 0.030014407 0.19205616 -0.0032638495
0.01702035 0.01855975 -0.10081846 0.09064341 0.040608622 -0.03464573 0.1026747 0.045721024
-0.121321425 0.07450698 0.15538691 0.01364436 0.08518186 0.17765012 0.00708851 0.120399654
-0.08075108 0.03751914 -0.016875533 -0.13812354 0.09900178 0.13375334 0.1794559 -0.13066998
-0.06600225 0.092253596 -0.029080965 0.047916926 0.07698347 0.02045593 -0.12665278 0.06901736
-0.1166188 -0.09788705 -0.037305202 0.116052255 0.03251186 0.113592535 0.06285951 0.07198029
-0.027558627 -0.03415471 -0.0649883 -0.104538254 0.015270278 -0.15031725 -0.08597398 -0.039217934
00000000: 47ce a13d d3b5 18be b3f6 11bc 4f27 503c
00000010: a8a7 f0bd acf6 943d b5c0 923d 71ee e23d
00000020: 9b42 fc3c ea35 abbd 4533 29be 9158 d9bc
00000030: 06bc 423d 9466 1ebd 4c3c eabc 0abe 4fbc
00000040: c003 763d ba57 aebd f1de 90bd ac5d d4bd
00000050: ed2f 583e 4ce2 133e c894 cabc ed71 7b3d
00000060: d222 bbbc 6e94 0c3d d289 bcbd 5b33 a7bc
00000070: f321 54bc 3206 813c 9981 e93c 883d ea3c
00000080: c9aa 37bd e397 363e 35e0 71bd 9cf6 2dbe
00000090: 9953 9e3d 0539 22be 7bd3 b0bd 9592 eabd
000000a0: 3f22 243e 1b90 893c 7083 273e 0af2 c5bc
000000b0: 4008 88bb 339c 4bbe 50c2 963b 2b07 ae3d
000000c0: c383 babd 2396 97bd b0ff 8ebd f1ff a0bd
000000d0: 7597 11be 35fa 2bbe 84ae a1bd 4ed8 3cbe
000000e0: 28ed eabc 3d56 32be 818a 953d d90f f53c
000000f0: e417 fbbd 04b5 5ebe 58e8 00be 652b 13bd
00000100: 99d5 bd3c ee6c a53a f5c6 003d d1f6 e7bd
00000110: 8c8f d5bd 940e 91bd d1e3 ccbc c0c5 a7bd
00000120: a194 49bd 842c 98bd 8ec1 1fbd 84c3 9fbc
00000130: 83e8 103c 7e44 01bd 6302 b1bc 7283 6b3d
00000140: 4f06 283d 1804 503e 2227 553e 525c f63d
00000150: f57c ba3d 92a2 923d 3b55 33bd b34f 8e3d
00000160: e3d6 b2bd dcae 0f39 5d0d ba3d fc5d 893d
00000170: 69b3 bf3d 7011 71bd e889 29bd efa3 ab39
00000180: 76b0 c7bd d99f 08be 5fa3 93bc ca25 633d
00000190: ff2a 733d e762 703d 375b 3d3c 67d2 183d
000001a0: 07ef 523d 0258 99bc 20b7 083e 3a9b 2d3d
000001b0: 9871 263e 88f9 f73b ffc6 d23d 460a 8c3d
000001c0: 16bc 1c3d 120d 153b 3774 183d 388f e83d
000001d0: aa6b 0bbe 35b4 33be b954 0ebe 2c44 633d
000001e0: 9218 c5bd 69c4 dd3d 7f9e c73c 0e72 74bc
000001f0: bc19 1dbd 1307 abbc 7ff7 5f3d 0565 613d
00000200: 792f 3c3d 3612 853d 256c 2dbe 853e adbd
00000210: a649 0c3d 3fc4 cd3c b08d 0ebd f816 063e
00000220: 5ff3 e9bd 9d97 1f3e 6093 43bd bedc a4ba
00000230: 1994 43bd 2bbd 8abd 9272 5abc c188 0f3d
00000240: a36a 0c3d e288 e43d 8155 2f3e 3cf9 0abd
00000250: 0d6b b8bd 136d 98bc dd61 e23d ab58 6e3d
00000260: 9198 f23d fa3e 2e3d 3e94 b33d aa6d 6bbd
00000270: 9079 b2bd 4b5f 743d 6544 14be f0b5 4fbd
00000280: 6600 153e 0301 293c f333 883d f738 9ebd
00000290: cc6d a4bd 764c 133d 05a5 36bd 7f95 9cbd
000002a0: 15d5 4abe 797b c1bd 5359 05bd cd2e dabc
000002b0: 85da 6f3d a6af d13b d652 e73d 76d4 c9bd
000002c0: 3f1c 5e3c 7c0c 36bc 80b8 ee3d 0285 fcbc
000002d0: 0daa ab3d c927 3c3d c531 a9bc b8b3 e43d
000002e0: 1d99 96bd 0f98 9d3d 9873 d73d 3615 2dbc
000002f0: de4d 03be fb15 c2bd e359 25be 5b15 88bd
00000300: 60aa 9c3c ef04 973b eab0 a73b d5fe 4a3d
00000310: 3208 85bb 8733 febd 01ff 4f3d 0238 2f3d
00000320: edff ee3d 9bbd 883c 2357 803c d229 e73c
00000330: b660 70bd c6e0 f53c 5faa 443e 4fe6 55bb
00000340: 436e 8b3c 9e0a 983c e979 cebd 41a3 b93d
00000350: 3a55 263d aee8 0dbd 1d47 d23d f845 3b3d
00000360: 5e77 f8bd 1e97 983d bf1d 1f3e 988c 5f3c
00000370: d473 ae3d eae9 353e bb46 e83b 1894 f63d
00000380: d260 a5bd abad 193d 8f3e 8abc 4270 0dbe
00000390: 72c1 ca3d a3f6 083e 4ac3 373e 5ace 05be
000003a0: 302c 87bd 74ef bc3d 343b eebc 8a44 443d
000003b0: 82a9 9d3d 3293 a73c 44b1 01be f958 8d3d
000003c0: d6d5 eebd 0179 c8bd 57cd 18bd ceac ed3d
000003d0: 282b 053d 34a3 e83d 7dbc 803d 676a 933d
000003e0: a1c2 e1bc cfe5 0bbd 9618 85bd 2718 d6bd
000003f0: 3030 7a3c c4ec 19be 2013 b0bd fca2 20bd

network_body._body_endoder.seq_layers.0.bias f4 [128]
0.0 0.0 0.0 0.0 0.0 0.0 0.0 0.0
0.0 0.0 0.0 0.0 0.0 0.0 0.0 0.0
0.0 0.0 0.0 0.0 0.0 0.0 0.0 0.0
0.0 0.0 0.0 0.0 0.0 0.0 0.0 0.0
0.0 0.0 0.0 0.0 0.0 0.0 0.0 0.0
0.0 0.0 0.0 0.0 0.0 0.0 0.0 0.0
0.0 0.0 0.0 0.0 0.0 0.0 0.0 0.0
0.0 0.0 0.0 0.0 0.0 0.0 0.0 0.0
0.0 0.0 0.0 0.0 0.0 0.0 0.0 0.0
0.0 0.0 0.0 0.0 0.0 0.0 0.0 0.0
0.0 0.0 0.0 0.0 0.0 0.0 0.0 0.0
0.0 0.0 0.0 0.0 0.0 0.0 0.0 0.0
0.0 0.0 0.0 0.0 0.0 0.0 0.0 0.0
0.0 0.0 0.0 0.0 0.0 0.0 0.0 0.0
0.0 0.0 0.0 0.0 0.0 0.0 0.0 0.0
0.0 0.0 0.0 0.0 0.0 0.0 0.0 0.0
00000000: 0000 0000 0000 0000 0000 0000 0000 0000
00000010: 0000 0000 0000 0000 0000 0000 0000 0000
00000020: 0000 0000 0000 0000 0000 0000 0000 0000
00000030: 0000 0000 0000 0000 0000 0000 0000 0000
00000040: 0000 0000 0000 0000 0000 0000 0000 0000
00000050: 0000 0000 0000 0000 0000 0000 0000 0000
00000060: 0000 0000 0000 0000 0000 0000 0000 0000
00000070: 0000 0000 0000 0000 0000 0000 0000 0000
00000080: 0000 0000 0000 0000 0000 0000 0000 0000
00000090: 0000 0000 0000 0000 0000 0000 0000 0000
000000a0: 0000 0000 0000 0000 0000 0000 0000 0000
000000b0: 0000 0000 0000 0000 0000 0000 0000 0000
000000c0: 0000 0000 0000 0000 0000 0000 0000 0000
000000d0: 0000 0000 0000 0000 0000 0000 0000 0000
000000e0: 0000 0000 0000 0000 0000 0000 0000 0000
000000f0: 0000 0000 0000 0000 0000 0000 0000 0000
00000100: 0000 0000 0000 0000 0000 0000 0000 0000
00000110: 0000 0000 0000 0000 0000 0000 0000 0000
00000120: 0000 0000 0000 0000 0000 0000 0000 0000
00000130: 0000 0000 0000 0000 0000 0000 0000 0000
00000140: 0000 0000 0000 0000 0000 0000 0000 0000
00000150: 0000 0000 0000 0000 0000 0000 0000 0000
00000160: 0000 0000 0000 0000 0000 0000 0000 0000
00000170: 0000 0000 0000 0000 0000 0000 0000 0000
00000180: 0000 0000 0000 0000 0000 0000 0000 0000
00000190: 0000 0000 0000 0000 0000 0000 0000 0000
000001a0: 0000 0000 0000 0000 0000 0000 0000 0000
000001b0: 0000 0000 0000 0000 0000 0000 0000 0000
000001c0: 0000 0000 0000 0000 0000 0000 0000 0000
000001d0: 0000 0000 0000 0000 0000 0000 0000 0000
000001e0: 0000 0000 0000 0000 0000 0000 0000 0000
000001f0: 0000 0000 0000 0000 0000 0000 0000 0000

network_body._body_endoder.seq_layers.2.weight f4 [128, 128]
0.0011064918 -0.09435229 0.08804242 -0.015545738 0.11702534 -0.040601317 0.04388946 0.009785543
-0.1069747 -0.0031884871 0.122065954 0.07142427 -0.0907702 0.017309662 -0.042263933 -0.024308478
-0.06529411 0.010721529 0.14839669 -0.027724149 -0.079786256 -0.06767889 -0.13405928 -0.0015990514
-0.06775993 -0.065855235 0.04363196 0.021415563 0.114593096 0.050268408 -0.3372856 -0.12970129
-0.032347504 -0.18942013 -0.03241624 0.012138258 0.06519729 -0.122341886 0.06552156 0.030914046
0.035402186 -0.04872734 0.035496254 0.017428618 0.12456492 0.08307878 -0.13816185 0.034023423
0.06180461 -0.04784507 -0.06830563 0.025227796 0.03454383 0.025273744 -0.067697465 -0.040555537
-0.04061426 -0.10572258 0.012096481 -0.048399422 0.044883195 0.10593956 0.001054271 0.07470864
0.070663616 0.021500578 -0.09805836 -0.06520766 -0.09879551 0.061807614 0.00828441 -0.051612865
-0.073663734 -0.0576326 0.013409623 0.09302323 0.002724086 0.08821528 -0.052456178 0.14304364
-0.087041125 0.056591105 0.0100666545 0.106321976 0.03585692 -0.0001714919 0.07538128 -0.02567423
0.005797617 0.15129271 -0.1697792 0.117735974 -0.052327175 -0.016468676 0.05032412 0.06611137
0.09295192 0.031268883 -0.046934187 0.1297993 -0.06465979 0.050008483 0.020320617 -0.021550037
-0.12087104 -0.06699641 0.04287277 -0.040226523 -0.005384586 0.058579154 -0.09427104 0.016686972
-0.029024195 -0.19683506 -0.101740256 -0.02974759 -0.03935435 -0.042119857 -0.017582465 -0.10247278
0.096456654 -0.07029169 -0.0034083533 0.12104465 -0.024412625 0.033638418 0.07200784 -0.10431133
-0.11704155 -0.1881371 0.058459796 0.037537992 -0.08766685 0.043711524 0.039633058 -0.05349562
0.0353828 0.034785166 -0.11781522 -0.07212626 0.06271061 0.03292419 0.16310456 0.09932417
0.04831184 0.053467166 -0.051858645 -0.00053597795 -0.041477297 0.064003974 -0.11868935 -0.050764155
0.09030688 0.0113708135 -0.03247195 -0.10342925 -0.005264656 0.018228916 0.085073695 0.04609817
-0.070523925 -0.10516681 0.071104154 0.05812859 -0.10441637 -0.043647368 0.22862317 0.08381538
0.12506369 0.018459475 0.034078103 0.045616154 0.06099478 0.027613511 0.14262916 0.07195961
-0.09962656 0.0076989257 0.055213857 -0.071891345 0.14886937 -0.0016231793 0.101546474 -0.010470015
0.16673571 0.13906278 -0.16236995 -0.06736359 -0.032477766 -0.009417963 -0.14752643 -0.09297027
0.0749128 -0.022038449 -0.07291119 0.05036808 -0.04229264 -0.012702919 -0.12573455 0.026977958
-0.014624746 0.029714769 0.009996765 0.060065832 -0.009053641 -0.03896044 0.026709614 -0.10143418
-0.010355494 0.057717096 -0.00026876203 0.09451582 0.041743774 0.066564605 -0.14092733 -0.07363275
-0.1393274 0.03576331 0.13222313 0.24125321 -0.022409068 0.0075197048 -0.017601581 0.024946524
-0.031545714 -0.08012506 0.07771536 0.06043074 0.12766434 -0.14220646 0.0030726066 0.030969275
0.09637928 0.0032987057 0.016567305 0.02110931 0.067968465 -0.026115531 0.034890898 -0.18974721
0.1261311 -0.122636266 0.13065332 0.013744882 -0.0044549927 0.005622252 -0.104823634 -0.010908028
-0.035649657 0.13631418 -0.039593402 -0.0139876725 0.05733964 -0.0072707245 -0.089360885 -0.015756367
00000000: b407 913a c63b c1bd 964f b43d 8db3 7ebc
00000010: fbaa ef3d 914d 26bd 6fc5 333d 8b53 203c
00000020: 8d15 dbbd f0f5 50bb b7fd f93d e346 923d
00000030: bae5 b9bd fecc 8d3c f21c 2dbd 9322 c7bc
00000040: ebb8 85bd 5aa9 2f3c 4df5 173e c11d e3bc
00000050: fa66 a3bd 3b9b 8abd d646 09be 4397 d1ba
00000060: b8c5 8abd 1cdf 86bd 6db7 323d b16f af3c
00000070: c9af ea3d 3fe6 4d3d b3b0 acbe 6ad0 04be
00000080: d17e 04bd 5af7 41be e4c6 04bd 8bdf 463c
00000090: 2886 853d 628e fabd 2b30 863d 743f fd3c
000000a0: e201 113d 5296 47bd 8564 113d 76c6 8e3c
000000b0: e51b ff3d 3525 aa3d 4d7a 0dbe 255c 0b3d
000000c0: d526 7d3d 31f9 43bd d2e3 8bbd 86aa ce3c
000000d0: d57d 0d3d e20a cf3c f8a4 8abd 901d 26bd
000000e0: 235b 26bd 1485 d8bd 5230 463c 793e 46bd
000000f0: 71d7 373d d7f6 d83d 772f 8a3a d800 993d
00000100: 16b8 903d fb21 b03c d2d2 c8bd 988b 85bd
00000110: 4d55 cabd fb29 7d3d 56bb 073c 0368 53bd
00000120: 03dd 96bd 2910 6cbd 09b4 5b3c f782 be3d
00000130: 9486 323b 36aa b43d 4adc 56bd 087a 123e
00000140: 9e42 b2bd 13cc 673d 9cee 243c 56bf d93d
00000150: b5de 123d 82d2 33b9 8061 9a3d c352 d2bc
00000160: f0f9 bd3b 7aec 1a3e 99da 2dbe 8f1f f13d
00000170: 0555 56bd 51e9 86bc aa20 4e3d 6665 873d
00000180: 945d be3d cd13 003d 103e 40bd 1cea 043e
00000190: 5a6c 84bd b2d5 4c3d 6c77 a63c b489 b0bc
000001a0: 3c8b f7bd 6a35 89bd 5c9b 2f3d 91c4 24bd
000001b0: 2e71 b0bb b2f0 6f3d 2d11 c1bd 1eb3 883c
000001c0: 26c4 edbc 218f 49be 325d d0bd 38b1 f3bc
000001d0: 0732 21bd df85 2cbd 1a09 90bc 40dd d1bd
000001e0: 118b c53d 17f5 8fbd ae5e 5fbb 42e6 f73d
000001f0: fcfc c7bc 70c8 093d d978 933d 2ea1 d5bd
00000200: 7bb3 efbd 03a7 40be 8a73 6f3d 70c1 193d
00000210: ad8a b3bd db0a 333d 4656 223d 391e 5bbd
00000220: 8eed 103d e47a 0e3d 1b49 f1bd efb6 93bd
00000230: 6c6e 803d 84db 063d e204 273e 786a cb3d
00000240: a3e2 453d 6300 5b3d bb69 54bd df80 0cba
00000250: 19e4 29bd 8414 833d 6713 f3bd 13ee 4fbd
00000260: d0f2 b83d a64c 3a3c 4f01 05bd b7d2 d3bd
00000270: 2383 acbb cf54 953c 1e3b ae3d 6fd1 3c3d
00000280: d96e 90bd b261 d7bd 0e9f 913d 3f18 6e3d
00000290: 40d8 d5bd 95c7 32bd 311c 6a3e 66a7 ab3d
000002a0: b210 003e 5338 973c 7b95 0b3d 01d8 3a3d
000002b0: aad5 793d bb35 e23c 610d 123e 8f5f 933d
000002c0: 0309 ccbd 4547 fc3b ed27 623d c53b 93bd
000002d0: 3671 183e dcc0 d4ba 99f7 cf3d 6d8a 2bbc
000002e0: c4bc 2a3e 7966 0e3e 4f44 26be ecf5 89bd
000002f0: 6807 05bd cd4d 1abc 2b11 17be 3267 bebd
00000300: e26b 993d fa89 b4bc 7652 95bd c34e 4e3d
00000310: 0c3b 2dbd e71f 50bc 8fc0 00be e100 dd3c
00000320: a19c 6fbc 636c f33c 79c9 233c 9707 763d
00000330: b955 14bc fb94 1fbd 1fce da3c b9bc cfbd
00000340: 17aa 29bc c368 6c3d a1e8 8cb9 8391 c13d
00000350: 85fb 2a3d 0653 883d 414f 10be c4cc 96bd
00000360: d8ab 0ebe 8c7c 123d 8065 073e 150b 773e
00000370: 3993 b7bc db67 f63b 3131 90bc a75c cc3c
00000380: 1436 01bd 9c18 a4bd 3b29 9f3d 3986 773d
00000390: 71ba 023e 929e 11be c95d 493b 47b3 fd3c
000003a0: 8062 c53d 192f 583b 28b8 873c 6fed ac3c
000003b0: 0d33 8b3d 3df0 d5bc c2e9 0e3d 184d 42be
000003c0: 8328 013e b928 fbbd fcc9 053e 3732 613c
000003d0: 30fb 91bb de3a b83b c6ad d6bd 96b7 32bc
000003e0: 6005 12bd f295 0b3e b12c 22bd 8d2c 65bc
000003f0: f8dc 6a3d 423f eebb d702 b7bd 7f13 81bc

network_body._body_endoder.seq_layers.2.bias f4 [128]
0.0 0.0 0.0 0.0 0.0 0.0 0.0 0.0
0.0 0.0 0.0 0.0 0.0 0.0 0.0 0.0
0.0 0.0 0.0 0.0 0.0 0.0 0.0 0.0
0.0 0.0 0.0 0.0 0.0 0.0 0.0 0.0
0.0 0.0 0.0 0.0 0.0 0.0 0.0 0.0
0.0 0.0 0.0 0.0 0.0 0.0 0.0 0.0
0.0 0.0 0.0 0.0 0.0 0.0 0.0 0.0
0.0 0.0 0.0 0.0 0.0 0.0 0.0 0.0
0.0 0.0 0.0 0.0 0.0 0.0 0.0 0.0
0.0 0.0 0.0 0.0 0.0 0.0 0.0 0.0
0.0 0.0 0.0 0.0 0.0 0.0 0.0 0.0
0.0 0.0 0.0 0.0 0.0 0.0 0.0 0.0
0.0 0.0 0.0 0.0 0.0 0.0 0.0 0.0
0.0 0.0 0.0 0.0 0.0 0.0 0.0 0.0
0.0 0.0 0.0 0.0 0.0 0.0 0.0 0.0
0.0 0.0 0.0 0.0 0.0 0.0 0.0 0.0
00000000: 0000 0000 0000 0000 0000 0000 0000 0000
00000010: 0000 0000 0000 0000 0000 0000 0000 0000
00000020: 0000 0000 0000 0000 0000 0000 0000 0000
00000030: 0000 0000 0000 0000 0000 0000 0000 0000
00000040: 0000 0000 0000 0000 0000 0000 0000 0000
00000050: 0000 0000 0000 0000 0000 0000 0000 0000
00000060: 0000 0000 0000 0000 0000 0000 0000 0000
00000070: 0000 0000 0000 0000 0000 0000 0000 0000
00000080: 0000 0000 0000 0000 0000 0000 0000 0000
00000090: 0000 0000 0000 0000 0000 0000 0000 0000
000000a0: 0000 0000 0000 0000 0000 0000 0000 0000
000000b0: 0000 0000 0000 0000 0000 0000 0000 0000
000000c0: 0000 0000 0000 0000 0000 0000 0000 0000
000000d0: 0000 0000 0000 0000 0000 0000 0000 0000
000000e0: 0000 0000 0000 0000 0000 0000 0000 0000
000000f0: 0000 0000 0000 0000 0000 0000 0000 0000
00000100: 0000 0000 0000 0000 0000 0000 0000 0000
00000110: 0000 0000 0000 0000 0000 0000 0000 0000
00000120: 0000 0000 0000 0000 0000 0000 0000 0000
00000130: 0000 0000 0000 0000 0000 0000 0000 0000
00000140: 0000 0000 0000 0000 0000 0000 0000 0000
00000150: 0000 0000 0000 0000 0000 0000 0000 0000
00000160: 0000 0000 0000 0000 0000 0000 0000 0000
00000170: 0000 0000 0000 0000 0000 0000 0000 0000
00000180: 0000 0000 0000 0000 0000 0000 0000 0000
00000190: 0000 0000 0000 0000 0000 0000 0000 0000
000001a0: 0000 0000 0000 0000 0000 0000 0000 0000
000001b0: 0000 0000 0000 0000 0000 0000 0000 0000
000001c0: 0000 0000 0000 0000 0000 0000 0000 0000
000001d0: 0000 0000 0000 0000 0000 0000 0000 0000
000001e0: 0000 0000 0000 0000 0000 0000 0000 0000
000001f0: 0000 0000 0000 0000 0000 0000 0000 0000

value_heads.value_heads.extrinsic.weight f4 [1, 128]
-0.1896636 0.0064577996 0.11102521 0.10692608 0.042318005 0.11599639 -0.084558986 0.15375952
0.06457401 -0.10404596 -0.20444098 -0.20260789 -0.1451276 -0.17462327 0.20553727 0.0015694265
-0.055848494 -0.1459746 0.19786917 -0.002023839 -0.0075710653 -0.1104869 -0.21260063 0.038695894
-0.19618572 -0.085029006 0.17370997 -0.09171773 -0.20938365 -0.040114958 0.11995409 -0.049540505
0.18540679 -0.16239429 0.03144522 0.12613684 0.18607657 0.10269404 -0.1006796 -0.1843671
0.031642668 0.1540528 -0.13728625 0.16079779 0.16059409 0.15203416 -0.04343819 -0.16122462
-0.0305792 0.024882833 -0.12082813 0.19628012 -0.13108821 0.09107293 -0.107126705 0.12258158
0.21403024 0.088726446 -0.042098075 0.020516308 -0.09369202 -0.17090538 0.16521499 0.0012779341
0.20033363 0.13669153 -0.13751952 0.11373032 0.20448604 0.07154698 -0.091105394 -0.16631295
-0.15587838 -0.08709318 0.1622313 -0.040104803 0.18747385 -0.16083808 -0.04697884 -0.088552594
-0.13071254 0.019882368 -0.20305619 0.10856919 -0.21404302 -0.10179701 -0.21023838 0.16585037
-0.016464286 0.13714933 0.035966538 0.030690083 -0.058932807 0.05890405 -0.09671148 0.1952412
0.11853485 0.13602445 0.0091990065 -0.2053754 0.053405363 -0.1944383 0.1355613 0.006483355
0.1613411 0.085950166 0.070671625 -0.07086946 0.0046241325 0.060754813 -0.09437931 -0.04830671
0.15915824 0.15898821 -0.176729 -0.07313926 -0.21197031 -0.20166668 -0.0031343023 0.05586009
0.101434775 0.1889981 -0.1000075 0.055504326 0.012045545 0.005910988 0.15172136 -0.16876161
00000000: 2d37 42be f39b d33b 2f61 e33d 10fc da3d
00000010: a555 2d3d 848f ed3d 432d adbd 2373 1d3e
00000020: 613f 843d 0c16 d5bd fa58 51be 7178 4fbe
00000030: 549c 14be 71d0 32be 5d78 523e 37b5 cd3a
00000040: 64c1 64bd 5e7a 15be 379e 4a3e 62a2 04bb
00000050: b316 f8bb f546 e2bd fbb3 59be 967f 1e3d
00000060: e9e4 48be b023 aebd 07e1 313e 81d6 bbbd
00000070: ab68 56be 954f 24bd 7daa f53d fcea 4abd
00000080: 47db 3d3e b04a 26be b4cc 003d 042a 013e
00000090: db8a 3e3e 4151 d23d 1b31 cebd bbca 3cbe
000000a0: be9b 013d 04c0 1d3e c494 0cbe 2da8 243e
000000b0: c772 243e d8ae 1b3e 3eec 31bd 1118 25be
000000c0: 3b81 fabc 15d7 cb3c bd74 f7bd a8fd 483e
000000d0: fd3b 06be 7284 ba3d 3f65 dbbd 0d0c fb3d
000000e0: be2a 5b3e 36b6 b53d 086f 2cbd d111 a83c
000000f0: 9ae1 bfbd d201 2fbe 1e2e 293e 5a80 a73a
00000100: 4224 4d3e ddf8 0b3e ebd1 0cbe 71eb e83d
00000110: ca64 513e 3987 923d 7795 babd f14d 2abe
00000120: 959e 1fbe e95d b2bd f61f 263e ef44 24bd
00000130: 25f9 3f3e bdb2 24be e26c 40bd 105b b5bd
00000140: 82d9 05be 59e0 a23c f6ed 4fbe 8659 de3d
00000150: 182e 5bbe f37a d0bd bb48 57be aed4 293e
00000160: 1ce0 86bc e070 0c3e a651 133d c569 fb3c
00000170: 8763 71bd 6045 713d ab10 c6bd 4fed 473e
00000180: 66c2 f23d fe49 0b3e 6eb7 163c ee4d 52be
00000190: 95bf 5a3d d51a 47be 95d0 0a3e 5372 d43b
000001a0: 9a36 253e a406 b03d 49bc 903d 0224 91bd
000001b0: 0986 973b 0ada 783d f149 c1bd 42dd 45bd
000001c0: 61fa 223e cecd 223e 72f8 34be 09ca 95bd
000001d0: bf0e 59be b681 4ebe de68 4dbb 8dcd 643d
000001e0: 09bd cf3d b888 413e bbd0 ccbd 8158 633d
000001f0: ad5a 453c f6b0 c13b d85c 1b3e d8cf 2cbe

value_heads.value_heads.gail.weight f4 [1, 128]
0.00044978486 -0.063601635 -0.17819728 -0.025083289 -0.08468597 0.09136491 0.1800474 0.1257538
0.11340047 0.06978285 -0.13482095 0.20780534 0.114359684 -0.1331667 0.17189915 0.19106048
-0.2000544 0.053428553 0.085259795 0.16185719 -0.12830558 0.08866173 -0.19031003 -0.14972353
0.06901499 0.042689685 0.001811377 0.21489514 -0.026861371 -0.14502056 0.15138626 0.17481379
-0.15270784 -0.2074193 -0.090300225 -0.008382671 -0.15136355 0.12213146 -0.084012456 -0.005916554
0.06143521 -0.14645742 -0.1877219 0.049027834 -0.15488434 0.12761112 0.1405915 0.036444426
-0.20659551 0.03134755 0.21533743 -0.1219846 0.00665715 -0.06591964 -0.007511034 0.014245364
0.14106333 -0.10510802 -0.14249124 0.10825767 0.0036889042 0.020635445 0.02711461 -0.07541631
0.20296851 -0.056600135 -0.10895535 0.06607747 -0.10665355 -0.08315783 0.10424627 -0.112676024
0.04203078 -0.035587765 -0.009291483 0.14123051 -0.09478292 -0.045479625 -0.123147644 -0.11643279
0.18640968 -0.21271072 0.10312149 -0.06756054 0.030413888 -0.11330171 -0.21204646 0.121699415
-0.06578184 -0.002079384 -0.19735382 0.16576006 -0.16397265 -0.20371293 -0.07463554 0.088357
0.065790474 0.17846118 -0.19294187 0.19176221 0.20528023 0.12714545 0.062452454 -0.014711744
0.18772721 0.06642763 -0.069096245 0.10218366 0.14019206 -0.10143354 0.20802432 -0.10485517
0.08916746 0.10244865 -0.1883933 0.13198808 -0.19715543 0.062474616 0.011486469 -0.08493347
0.011372962 0.12547535 -0.13820784 0.048012007 -0.05855529 0.046473302 0.09187052 -0.040032625
00000000: 1ad1 eb39 9341 82bd 5979 36be 787b cdbc
00000010: d66f adbd 871d bb3d 585e 383e 9bc5 003e
00000020: 813e e83d 50ea 8e3d 810e 0abe ecca 543e
00000030: 6935 ea3d da5c 08be 5506 303e 5ca5 433e
00000040: 10db 4cbe e6d7 5a3d b09c ae3d e4bd 253e
00000050: 8a62 03be 4894 b53d a2e0 42be 2051 19be
00000060: bb57 8d3d 61db 2e3d ba6b ed3a 790d 5c3e
00000070: 610c dcbc 4580 14be 0005 1b3e 6302 333e
00000080: 725f 1cbe ba65 54be 53ef b8bd 7857 09bc
00000090: 0cff 1abe 0f20 fa3d b90e acbd a7df c1bb
000000a0: 7da3 7b3d eff8 15be 2b3a 40be 69d1 483d
000000b0: 009a 1ebe 7dac 023e 38f7 0f3e c046 153d
000000c0: c68d 53be 4a66 003d 6a81 5c3e 10d3 f9bd
000000d0: 3924 da3b e000 87bd 1f1f f6bb 6365 693c
000000e0: e872 103e e042 d7bd 39e9 11be 33b6 dd3d
000000f0: 8bc1 713b aa0b a93c 751f de3c de73 9abd
00000100: fad6 4f3e 8bd5 67bd fc23 dfbd a053 873d
00000110: 2d6d dabd a74e aabd 127f d53d b0c2 e6bd
00000120: 7828 2c3d 7ac4 11bd 4e3b 18bc bb9e 103e
00000130: 8c1d c2bd d848 3abd d534 fcbd 5174 eebd
00000140: 2ee2 3e3e d7d0 59be 5c31 d33d 2e5d 8abd
00000150: 8c26 f93c ba0a e8bd b522 59be 8b3d f93d
00000160: a1b8 86bd 4646 08bb 1f17 4abe 01bd 293e
00000170: 72e8 27be 1f9a 50be 85da 98bd 84f4 b43d
00000180: 28bd 863d 87be 363e 8e92 45be 505d 443e
00000190: fb34 523e 6b32 023e 25ce 7f3d 8709 71bc
000001a0: 903b 403e 360b 883d 5582 8dbd ab45 d13d
000001b0: 828e 0f3e 63bc cfbd 5404 553e 4fbe d6bd
000001c0: 6e9d b63d 99d0 d13d 2cea 40be e227 073e
000001d0: 1de3 49be 62e5 7f3d be31 3c3c 99f1 adbd
000001e0: a955 3a3c 9c7c 003e 5b86 0dbe 3da8 443d
000001f0: acd7 6fbd ca5a 3e3d 9c26 bc3d 40f9 23bd
