results/FoodTarget_imitation_7/AgentPlayer/AgentPlayer-5404.onnx (onnx, 142790 bytes, 7 tensors)

action_model._continuous_distribution.log_sigma f4 [1, 20]
0.0 0.0 0.0 0.0 0.0 0.0 0.0 0.0
0.0 0.0 0.0 0.0 0.0 0.0 0.0 0.0
0.0 0.0 0.0 0.0
00000000: 0000 0000 0000 0000 0000 0000 0000 0000
00000010: 0000 0000 0000 0000 0000 0000 0000 0000
00000020: 0000 0000 0000 0000 0000 0000 0000 0000
00000030: 0000 0000 0000 0000 0000 0000 0000 0000
00000040: 0000 0000 0000 0000 0000 0000 0000 0000

action_model._continuous_distribution.mu.bias f4 [20]
0.0 0.0 0.0 0.0 0.0 0.0 0.0 0.0
0.0 0.0 0.0 0.0 0.0 0.0 0.0 0.0
0.0 0.0 0.0 0.0
00000000: 0000 0000 0000 0000 0000 0000 0000 0000
00000010: 0000 0000 0000 0000 0000 0000 0000 0000
00000020: 0000 0000 0000 0000 0000 0000 0000 0000
00000030: 0000 0000 0000 0000 0000 0000 0000 0000
00000040: 0000 0000 0000 0000 0000 0000 0000 0000

action_model._continuous_distribution.mu.weight f4 [20, 128]
0.020952316 -0.0030231231 -0.021397922 -0.027595079 0.0022821347 -0.0064257206 -0.009467011 0.004335585
-0.036504816 -0.017495217 0.007317897 0.016448732 -0.02027571 -0.016421266 -0.012220836 0.009170169
0.03231603 0.0054703928 0.01316407 0.015337805 0.011549304 0.009581897 0.049823143 -0.023980368
0.029532542 0.010519399 0.024248973 -0.0005600771 -0.015835814 -0.0077045443 -0.00495495 -0.0003100801
0.01561991 0.004200891 -0.0061723758 -0.0065889223 0.020141182 0.0014162468 -0.008545519 0.019250352
-0.0073692934 -0.0105210105 0.016349936 0.005415368 0.022209866 0.04122017 -0.0089390045 -0.014457046
-0.0037398569 0.021770483 -0.0073364573 0.039839722 -0.020120755 0.06385523 0.036688473 0.004540672
-0.027232844 0.00027859205 0.009953282 0.022960745 0.0071736104 -0.011740884 -0.0014025521 -0.027757121
-0.008653559 -0.017105483 -0.01344147 0.0254639 -0.004566854 0.006201581 -0.02349977 0.0047016814
-0.034221217 0.009544633 -0.004115592 0.010122517 -0.012625517 -0.01323303 0.005512162 -0.0042941207
0.00038080767 0.010824496 -0.030613834 0.007687626 -0.011932912 0.0065002874 0.01717621 -0.010971601
-0.027999757 0.006563283 0.001223591 0.004483307 0.027971242 -0.0066088624 -0.00773536 -0.00067167287
0.012259646 -0.03309807 0.014783337 -0.031284396 0.008229173 -0.00044058598 0.028267467 -0.008669235
0.0011793259 0.024999782 -0.0015986756 0.0056630345 0.017673139 -0.029954253 0.024634983 0.013803019
-0.03259642 -0.019053893 -0.04647576 0.0106718065 -0.0024215113 0.0033969355 0.0024826922 -0.029149104
0.018325767 0.01189838 0.024460882 0.010672509 -0.023479244 -0.03408627 0.020737354 0.015129383
-0.014730953 -0.008952016 -0.0021240574 0.01759237 -0.009196743 0.0036546865 0.02260117 0.0071065845
-0.014679787 0.0017674636 0.001746314 0.0018869499 -0.014375205 -0.0045418716 -0.0009786099 0.0014439308
-0.0037992958 0.009029963 0.00793959 -0.00065538683 -0.014238911 0.0057394747 0.032661404 -0.0026696182
0.018902006 0.014639935 -0.0003205278 -0.0055026496 -0.027218385 0.012632486 0.0054054293 0.0036806227
-0.02383808 0.010598054 -0.015532023 0.023380322 -0.016726805 0.04106919 0.007069113 0.017529843
-0.0004228299 -0.01497812 -0.0026254405 -0.010207078 0.003031193 0.010106042 -0.014931428 -4.4411332e-05
9.1465896e-05 0.028450493 0.021934902 0.007887761 0.009676196 -0.023457399 -0.019114356 -0.026375487
0.00708586 -0.013140527 0.034284595 0.008274322 -0.0023919882 0.019892214 -0.003526544 -0.005539004
0.03016916 -0.009596991 0.0073158154 -0.027232304 -0.018248288 -0.016964266 0.031127006 0.0048666685
0.00013233202 -0.022039913 -0.02220922 -0.016448667 -0.0053412453 -0.030768353 0.0020156545 0.041678023
0.017959796 -0.0041673626 0.0141874915 -0.0063453526 0.00047037244 -0.010203312 -0.0023659081 -0.014596574
-0.005303949 0.023163244 0.03227393 0.00507271 -0.002282296 0.016681062 -0.005117576 0.028033221
-0.0117133865 0.0020458847 -0.0020233977 0.009107834 -0.018640151 -0.013148409 0.008435116 -0.022292305
-0.008723928 -0.025387267 0.0060999608 0.0033343409 -0.035357673 0.006636621 -0.005462759 0.0093328655
-0.027897669 0.02045094 -0.0027763245 0.0005436792 -0.021849273 -0.009828894 0.0016627454 -0.024908936
0.0076903217 -0.009964481 -0.018879121 -0.006121648 -0.012225476 0.017967587 0.004383411 -0.031725228
00000000: 31a4 ab3c 971f 46bb b24a afbc 130f e2bc
00000010: de8f 153b da8e d2bb 861b 1bbc 8611 8e3b
00000020: 1386 15bd 2152 8fbc f8ca ef3b 7ebf 863c
00000030: 3f19 a6bc e485 86bc e739 48bc 7a3e 163c
00000040: d05d 043d fb40 b33b 1dae 573c 6b4b 7b3c
00000050: 4b39 3d3c 64fd 1c3c 5a13 4c3d 7a72 c4bc
00000060: 3bee f13c 8f59 2c3c c8a5 c63c 23d2 12ba
00000070: 1cba 81bc 6776 fcbb 225d a2bb 3f92 a2b9
00000080: a7ea 7f3c a1a7 893b a441 cabb e3e7 d7bb
00000090: 1fff a43c 5ba1 b93a 8102 0cbc eab2 9d3c
000000a0: 1d7a f1bb 5160 2cbc 4df0 853c 6673 b13b
000000b0: 77f1 b53c 7bd6 283d e774 12bc 3fdd 6cbc
000000c0: 6318 75bb 0358 b23c aa66 f0bb fa2e 233d
000000d0: 48d4 a4bc 88c6 823d a746 163d ebc9 943b
000000e0: 6a17 dfbc fe0f 9239 1713 233c 2c18 bc3c
000000f0: 9b10 eb3b d65c 40bc d7d5 b7ba e762 e3bc
00000100: a8c7 0dbc cc20 8cbc 9d39 5cbc ab99 d03c
00000110: 8ca5 95bb a236 cb3b 9782 c0bc 9010 9a3b
00000120: 8c2b 0cbd 1861 1c3c 17dc 86bb ead8 253c
00000130: 42db 4ebc 5acf 58bc 5e9f b43b b2b5 8cbb
00000140: 24a7 c739 3a59 313c ddc9 fabc 7be8 fb3b
00000150: 4382 43bc 5d00 d53b 20b5 8c3c 3bc2 33bc
00000160: bf5f e5bc cf10 d73b e760 a03a b4e8 923b
00000170: f223 e53c 288f d8bb e778 fdbb 3413 30ba
00000180: afdc 483c d891 07bd cf35 723c 1124 00bd
00000190: a7d3 063c 73fe e6b9 2d91 e73c 6809 0ebc
000001a0: 9c93 9a3a 58cc cc3c a78a d1ba fa90 b93b
000001b0: 42c7 903c 9f62 f5bc 4ecf c93c 0f26 623c
000001c0: d383 05bd e916 9cbc 5e5d 3ebd cdd8 2e3c
000001d0: 38b2 1ebb 1f9f 5e3b aab4 223b 1aca eebc
000001e0: eb1f 963c 6cf1 423c 3062 c83c bfdb 2e3c
000001f0: 8b57 c0bc 0b9e 0bbd 62e1 a93c 3be1 773c
00000200: 185a 71bc 7aab 12bc c533 0bbb e01d 903c
00000210: f0ad 16bc 7783 6f3b 1726 b93c 5ade e83b
00000220: 7d83 70bc 3daa e73a 93e4 e43a 8853 f73a
00000230: fb85 6bbc fbd3 94bb b344 80ba 4742 bd3a
00000240: 9bfd 78bb 69f2 133c 0e15 023c 44ce 2bba
00000250: 524a 69bc 3412 bc3b f7c7 053d c3f4 2ebb
00000260: 61d8 9a3c 57dc 6f3c 830c a8b9 924f b4bb
00000270: 17f9 debc 7df8 4e3c 0720 b13b 9a36 713b
00000280: 1448 c3bc 76a3 2d3c 077a 7ebc 1788 bf3c
00000290: a706 89bc 2b38 283d 05a4 e73b bf9a 8f3c
000002a0: 45af ddb9 ca66 75bc 950f 2cbb 973b 27bc
000002b0: fba6 463b d093 253c f3a2 74bc 4e46 3ab8
000002c0: 61d1 bf38 0211 e93c d3b0 b33c ab3b 013c
000002d0: e888 1e3c bb29 c0bc b695 9cbc 6811 d8bc
000002e0: 8030 e83b 5d4b 57bc 016e 0c3d 0691 073c
000002f0: e7c2 1cbb fff4 a23c 971d 67bb 8980 b5bb
00000300: 5025 f73c b33c 1dbc 82b9 ef3b 4816 dfbc
00000310: 6f7d 95bc a5f8 8abc 10fe fe3c 9378 9f3b
00000320: 9bc2 0a39 0c8d b4bc 1cf0 b5bc 5bbf 86bc
00000330: 9d05 afbb ea0d fcbc 1219 043b 93b6 2a3d
00000340: 6c20 933c 5f8e 88bb a772 683c adec cfbb
00000350: 529c f639 cb2b 27bc 5a0d 1bbb 7826 6fbc
00000360: c0cc adbb d8c0 bd3c ab31 043d fa38 a63b
00000370: 9392 15bb b9a6 883c 57b1 a7bb eda5 e53c
00000380: 81e9 3fbc 4014 063b fb9a 04bb 0639 153c
00000390: 3bb3 98bc 6d6c 57bc 7133 0a3c 5a9e b6bc
000003a0: ceee 0ebc f5f8 cfbc 2ee2 c73b f584 5a3b
000003b0: 35d3 10bd 0378 d93b f200 b3bb e0e8 183c
000003c0: a789 e4bc bb88 a73c fff2 35bb b285 0e3a
000003d0: 3ffd b2bc 5f09 21bc 7af0 d93a d30d ccbc
000003e0: 18ff fb3b 1042 23bc 63a8 9abc 1b98 c8bb
000003f0: 5d4d 48bc c330 933c b7a2 8f3b 50f2 01bd

network_body._body_endoder.seq_layers.0.bias f4 [128]
0.0 0.0 0.0 0.0 0.0 0.0 0.0 0.0
0.0 0.0 0.0 0.0 0.0 0.0 0.0 0.0
0.0 0.0 0.0 0.0 0.0 0.0 0.0 0.0
0.0 0.0 0.0 0.0 0.0 0.0 0.0 0.0
0.0 0.0 0.0 0.0 0.0 0.0 0.0 0.0
0.0 0.0 0.0 0.0 0.0 0.0 0.0 0.0
0.0 0.0 0.0 0.0 0.0 0.0 0.0 0.0
0.0 0.0 0.0 0.0 0.0 0.0 0.0 0.0
0.0 0.0 0.0 0.0 0.0 0.0 0.0 0.0
0.0 0.0 0.0 0.0 0.0 0.0 0.0 0.0
0.0 0.0 0.0 0.0 0.0 0.0 0.0 0.0
0.0 0.0 0.0 0.0 0.0 0.0 0.0 0.0
0.0 0.0 0.0 0.0 0.0 0.0 0.0 0.0
0.0 0.0 0.0 0.0 0.0 0.0 0.0 0.0
0.0 0.0 0.0 0.0 0.0 0.0 0.0 0.0
0.0 0.0 0.0 0.0 0.0 0.0 0.0 0.0
00000000: 0000 0000 0000 0000 0000 0000 0000 0000
00000010: 0000 0000 0000 0000 0000 0000 0000 0000
00000020: 0000 0000 0000 0000 0000 0000 0000 0000
00000030: 0000 0000 0000 0000 0000 0000 0000 0000
00000040: 0000 0000 0000 0000 0000 0000 0000 0000
00000050: 0000 0000 0000 0000 0000 0000 0000 0000
00000060: 0000 0000 0000 0000 0000 0000 0000 0000
00000070: 0000 0000 0000 0000 0000 0000 0000 0000
00000080: 0000 0000 0000 0000 0000 0000 0000 0000
00000090: 0000 0000 0000 0000 0000 0000 0000 0000
000000a0: 0000 0000 0000 0000 0000 0000 0000 0000
000000b0: 0000 0000 0000 0000 0000 0000 0000 0000
000000c0: 0000 0000 0000 0000 0000 0000 0000 0000
000000d0: 0000 0000 0000 0000 0000 0000 0000 0000
000000e0: 0000 0000 0000 0000 0000 0000 0000 0000
000000f0: 0000 0000 0000 0000 0000 0000 0000 0000
00000100: 0000 0000 0000 0000 0000 0000 0000 0000
00000110: 0000 0000 0000 0000 0000 0000 0000 0000
00000120: 0000 0000 0000 0000 0000 0000 0000 0000
00000130: 0000 0000 0000 0000 0000 0000 0000 0000
00000140: 0000 0000 0000 0000 0000 0000 0000 0000
00000150: 0000 0000 0000 0000 0000 0000 0000 0000
00000160: 0000 0000 0000 0000 0000 0000 0000 0000
00000170: 0000 0000 0000 0000 0000 0000 0000 0000
00000180: 0000 0000 0000 0000 0000 0000 0000 0000
00000190: 0000 0000 0000 0000 0000 0000 0000 0000
000001a0: 0000 0000 0000 0000 0000 0000 0000 0000
000001b0: 0000 0000 0000 0000 0000 0000 0000 0000
000001c0: 0000 0000 0000 0000 0000 0000 0000 0000
000001d0: 0000 0000 0000 0000 0000 0000 0000 0000
000001e0: 0000 0000 0000 0000 0000 0000 0000 0000
000001f0: 0000 0000 0000 0000 0000 0000 0000 0000

network_body._body_endoder.seq_layers.0.weight f4 [128, 125]
-0.03498398 0.12850729 0.011924366 0.10419589 0.038616173 0.06035113 -0.036316536 -0.10387917
-0.02365875 -0.0005913997 0.037079196 -0.17803572 0.031254858 0.108872436 0.116531156 0.024409605
-0.06447776 -0.13394 -0.078814216 -0.061748702 -0.15127741 -0.050410308 0.036528453 -0.033733904
-0.015381395 0.019698247 0.19994211 -0.068739325 0.04685776 -0.024345914 0.13553248 0.006006375
0.030329207 0.058692697 -0.032795183 -0.018832749 0.05874825 -0.042380475 -0.06509976 -0.12854841
-0.24013825 0.0054788785 -0.084571026 0.04380922 -0.11141852 0.056962952 -0.03654318 -0.11581966
-0.024047006 0.008218682 -0.084524244 -0.15752925 -0.062233277 0.119963296 0.0037018314 0.043433584
-0.03156771 0.122790776 -0.12885486 -0.08617798 0.18633872 0.028957674 -0.15716061 0.024822215
0.060310036 0.010126555 -0.032916125 -0.0061627757 -0.023338135 0.002322267 -0.07733935 -0.0038749434
0.031153113 0.115296535 0.0439128 -0.13934274 0.0045495494 0.030438805 0.072314635 0.019063154
-0.12219043 0.062994756 -0.22933738 0.09209987 0.06285232 0.2096821 -0.16844435 -0.07605458
0.00793958 0.09009347 -0.046353385 -0.024981981 0.012649589 -0.14065269 0.07143506 -0.02366429
-0.022315435 -0.098485306 0.06674642 0.06812628 0.0501891 -0.15342496 0.05670845 0.03979691
-0.102327436 0.06577333 0.01020222 0.042354874 0.080126695 0.051481128 -0.12921362 0.14702894
0.21017453 -0.026694546 0.13967943 -0.007777427 0.022205036 0.015043308 -0.09384465 0.17760167
-0.03483112 -0.12450716 0.14018749 -0.015667388 -0.076398835 -0.06617183 -0.15226638 0.04003189
0.12340785 -0.08448829 0.06761986 0.023173463 0.019216545 -0.08941695 -0.039938346 0.056784164
-0.08253471 -0.034402013 0.17886776 0.04296136 0.10450084 0.058982503 0.040042404 0.027139343
-0.081747994 0.08810132 0.025783544 -0.0001540842 -0.0065430044 0.048458267 0.07427772 -0.13544703
0.020394253 -0.0071300985 -0.0051378696 0.12570448 0.11338133 0.08542592 0.12416824 0.067696445
-0.0043499116 0.12334739 0.00714491 0.03671632 -0.07181268 0.06731366 0.052023407 -0.23117512
-0.020386802 0.0013768332 -0.04608954 0.024601033 0.096160516 -0.030817863 0.08080788 -0.0051240204
0.14976111 -0.04336952 -0.049913563 0.08444427 -0.0795064 -0.061481845 -0.03144196 -0.16733314
0.07364057 0.10226411 -0.060475834 -0.04783171 -0.06109966 0.012877037 -0.036314532 0.082782574
-0.17427649 0.0017114512 0.051923554 -0.017961543 -0.11066387 -0.11279656 0.14020598 0.07263449
0.09988993 -0.05906439 0.093677945 -0.0742912 -0.12144538 0.04181792 0.027506141 0.044471223
-0.08564775 -0.13447942 -0.09652366 0.09532159 -0.06914682 0.09067566 -0.023199977 -0.045072407
-0.0033690413 0.13676381 0.011846639 -0.035721537 -0.016129002 -0.05344429 0.10426807 0.0342156
-0.15702544 -0.014557845 0.056587487 -0.033135556 -0.0011978459 -0.00020418307 0.04642745 0.16487336
-0.13885899 -0.0061499043 0.03924052 -0.037586965 0.06877043 -0.029617144 -0.017455164 -0.026204685
0.09624511 0.023506226 -0.012539984 -0.13269979 -0.18696728 -0.04109828 -0.011190398 0.0006609865
0.12528375 0.0168795 -0.016914029 -0.09827535 -0.039963067 0.14400621 -0.017675396 -0.116066284
00000000: 5d4b 0fbd 6a97 033e 6a5e 433c a864 d53d
00000010: fe2b 1e3d bf32 773d a6c0 14bd 9abe d4bd
00000020: ffcf c1bc 2908 1bba 5be0 173d ff4e 36be
00000030: 1805 003d 83f8 de3d e3a7 ee3d a7f6 c73c
00000040: ea0c 84bd 9127 09be 5969 a1bd 35ec 7cbd
00000050: 77e8 1abe 0a7b 4ebd dc9e 153d 902c 0abd
00000060: 3f02 7cbc 385e a13c a0bd 4c3e 34c7 8cbd
00000070: eced 3f3d 1571 c7bc 07c9 0a3e 20d1 c43b
00000080: f574 f83c c167 703d 3e54 06bd 2347 9abc
00000090: 01a2 703d 2697 2dbd 0653 85bd 32a2 03be
000000a0: cde6 75be 2a88 b33b 9333 adbd 4c71 333d
000000b0: 652f e4bd fc51 693d 4dae 15bd dc32 edbd
000000c0: 3afe c4bc a7a7 063c 0c1b adbd 594f 21be
000000d0: 52e8 7ebd 51af f53d 6d9a 723b 6ae7 313d
000000e0: 254d 01bd bb79 fb3d 87f2 03be 157e b0bd
000000f0: 94cf 3e3e a538 ed3c b6ee 20be f557 cb3c
00000100: a807 773d dae9 253c 0fd3 06bd 1cf1 c9bb
00000110: 9e2f bfbc 2d31 183b 1864 9ebd c3f2 7dbb
00000120: d034 ff3c 9720 ec3d e8dd 333d ddaf 0ebe
00000130: 6314 953b cd5a f93c b219 943d 552a 9c3c
00000140: fa3e fabd 6503 813d 6bd7 6abe db9e bc3d
00000150: b8b8 803d e8b6 563e ad7c 2cbe 81c2 9bbd
00000160: 0315 023c ed82 b83d 0cdd 3dbd 03a7 ccbc
00000170: 3940 4f3c 4207 10be 8b4c 923d 9ddb c1bc
00000180: dcce b6bc aab2 c9bd 59b2 883d cb85 8b3d
00000190: 1693 4d3d 6f1b 1dbe 1f47 683d 1602 233d
000001a0: 0c91 d1bd 2bb4 863d 3627 273c 4e7c 2d3d
000001b0: 7719 a43d e0dd 523d 9350 04be c18e 163e
000001c0: fe37 573e 85ae dabc 2008 0f3e c9d9 febb
000001d0: 56e7 b53c 3578 763c a031 c0bd 36dd 353e
000001e0: 14ab 0ebd 9cfd febd 4f8d 0f3e e558 80bc
000001f0: fe76 9cbd 1985 87bd b8eb 1bbe 7bf8 233d
00000200: 41bd fc3d 3208 adbd 487c 8a3d 46d6 bd3c
00000210: 046c 9d3c 3c20 b7bd 6496 23bd 8396 683d
00000220: f507 a9bd 20e9 0cbd 1c29 373e 40f8 2f3d
00000230: 8904 d63d a397 713d 8103 243d 5453 de3c
00000240: 7e6b a7bd 776e b43d 0338 d33c aa91 21b9
00000250: b366 d6bb 2d7c 463d eb1e 983d a0b2 0abe
00000260: d911 a73c 9aa3 e9bb 935b a8bb adb8 003e
00000270: 7934 e83d c9f3 ae3d eb4b fe3d 6fa4 8a3d
00000280: b489 8ebb 8e9d fc3d d91f ea3b da63 163d
00000290: 8712 93bd bfdb 893d 7f16 553d 2cb9 6cbe
000002a0: 3902 a7bc db76 b43a 63c8 3cbd 1b88 c93c
000002b0: ceef c43d be75 fcbc 9a7e a53d 66e7 a7bb
000002c0: fa5a 193e 3da4 31bd 2a72 4cbd 1ef1 ac3d
000002d0: 40d4 a2bd 63d4 7bbd 49c9 00bd 6159 2bbe
000002e0: ded0 963d d96f d13d 82b5 77bd 2feb 43bd
000002f0: a343 7abd 35fa 523c 8cbe 14bd e989 a93d
00000300: 8975 32be c652 e03a cbad 543d 1624 93bc
00000310: bda3 e2bd e201 e7bd 2892 0f3e 64c1 943d
00000320: 1793 cc3d 80ed 71bd 39da bf3d fc25 98bd
00000330: 5bb8 f8bd 4449 2b3d 8f54 e13c 7527 363d
00000340: 1668 afbd f9b4 09be 32ae c5bd f737 c33d
00000350: d99c 8dbd 29b4 b93d e10d bebc d89d 38bd
00000360: 22cb 5cbb d00b 0c3e 6818 423c bf50 12bd
00000370: f820 84bc 66e8 5abd 7f8a d53d a825 0c3d
00000380: 47cb 20be 0784 6ebc 48c8 673d 26b9 07bd
00000390: 0a01 9dba fa19 56b9 b62a 3e3d 90d4 283e
000003a0: 0d31 0ebe 2385 c9bb abba 203d caf4 19bd
000003b0: 83d7 8c3d a79f f2bc 22fe 8ebc 35ab d6bc
000003c0: 281c c53d 2190 c03c 8174 4dbc 74e2 07be
000003d0: 5a74 3fbe ac56 28bd ee57 37bc 0e46 2d3a
000003e0: 624a 003e e146 8a3c 4a8f 8abc 9644 c9bd
000003f0: 50b0 23bd 5d76 133e fecb 90bc 29b4 edbd

network_body._body_endoder.seq_layers.2.bias f4 [128]
0.0 0.0 0.0 0.0 0.0 0.0 0.0 0.0
0.0 0.0 0.0 0.0 0.0 0.0 0.0 0.0
0.0 0.0 0.0 0.0 0.0 0.0 0.0 0.0
0.0 0.0 0.0 0.0 0.0 0.0 0.0 0.0
0.0 0.0 0.0 0.0 0.0 0.0 0.0 0.0
0.0 0.0 0.0 0.0 0.0 0.0 0.0 0.0
0.0 0.0 0.0 0.0 0.0 0.0 0.0 0.0
0.0 0.0 0.0 0.0 0.0 0.0 0.0 0.0
0.0 0.0 0.0 0.0 0.0 0.0 0.0 0.0
0.0 0.0 0.0 0.0 0.0 0.0 0.0 0.0
0.0 0.0 0.0 0.0 0.0 0.0 0.0 0.0
0.0 0.0 0.0 0.0 0.0 0.0 0.0 0.0
0.0 0.0 0.0 0.0 0.0 0.0 0.0 0.0
0.0 0.0 0.0 0.0 0.0 0.0 0.0 0.0
0.0 0.0 0.0 0.0 0.0 0.0 0.0 0.0
0.0 0.0 0.0 0.0 0.0 0.0 0.0 0.0
00000000: 0000 0000 0000 0000 0000 0000 0000 0000
00000010: 0000 0000 0000 0000 0000 0000 0000 0000
00000020: 0000 0000 0000 0000 0000 0000 0000 0000
00000030: 0000 0000 0000 0000 0000 0000 0000 0000
00000040: 0000 0000 0000 0000 0000 0000 0000 0000
00000050: 0000 0000 0000 0000 0000 0000 0000 0000
00000060: 0000 0000 0000 0000 0000 0000 0000 0000
00000070: 0000 0000 0000 0000 0000 0000 0000 0000
00000080: 0000 0000 0000 0000 0000 0000 0000 0000
00000090: 0000 0000 0000 0000 0000 0000 0000 0000
000000a0: 0000 0000 0000 0000 0000 0000 0000 0000
000000b0: 0000 0000 0000 0000 0000 0000 0000 0000
000000c0: 0000 0000 0000 0000 0000 0000 0000 0000
000000d0: 0000 0000 0000 0000 0000 0000 0000 0000
000000e0: 0000 0000 0000 0000 0000 0000 0000 0000
000000f0: 0000 0000 0000 0000 0000 0000 0000 0000
00000100: 0000 0000 0000 0000 0000 0000 0000 0000
00000110: 0000 0000 0000 0000 0000 0000 0000 0000
00000120: 0000 0000 0000 0000 0000 0000 0000 0000
00000130: 0000 0000 0000 0000 0000 0000 0000 0000
00000140: 0000 0000 0000 0000 0000 0000 0000 0000
00000150: 0000 0000 0000 0000 0000 0000 0000 0000
00000160: 0000 0000 0000 0000 0000 0000 0000 0000
00000170: 0000 0000 0000 0000 0000 0000 0000 0000
00000180: 0000 0000 0000 0000 0000 0000 0000 0000
00000190: 0000 0000 0000 0000 0000 0000 0000 0000
000001a0: 0000 0000 0000 0000 0000 0000 0000 0000
000001b0: 0000 0000 0000 0000 0000 0000 0000 0000
000001c0: 0000 0000 0000 0000 0000 0000 0000 0000
000001d0: 0000 0000 0000 0000 0000 0000 0000 0000
000001e0: 0000 0000 0000 0000 0000 0000 0000 0000
000001f0: 0000 0000 0000 0000 0000 0000 0000 0000

network_body._body_endoder.seq_layers.2.weight f4 [128, 128]
0.15493345 -0.043172833 -0.07038047 -0.1419704 0.050877377 -0.030465404 -0.1357699 0.07044154
0.111288235 -0.11737574 -0.050376534 -0.017995158 -0.2237144 -0.16870119 0.028586099 0.04509766
0.008547771 0.007853711 0.025201373 -0.0953235 -0.1332905 -0.026158204 -0.058458 -0.021147769
-0.021861376 0.12440865 0.09029321 -0.09868201 0.0662142 0.07224095 0.10182417 0.05421041
-0.098076925 0.002483409 -0.07453689 0.018538607 -0.039961234 0.08142546 0.013006427 0.033388086
0.1289637 -0.12286504 0.012400671 -0.19412401 0.101509936 0.06227318 0.010098166 -0.047228325
-0.12229874 0.020538688 0.033061765 0.01739999 0.13119107 -0.20300312 0.103776045 0.08155477
-0.027090497 0.09840229 -0.073857814 -0.050353114 0.03444011 0.06327886 0.13038734 -0.04745194
-0.04636264 0.028483754 -0.03938008 -0.05226658 0.13778228 0.14084914 0.058089044 -0.0022400937
-0.077867106 0.078861065 -0.047487993 0.035870034 0.002323869 -0.12527184 -0.01479042 0.03873276
-0.09356661 0.15753187 0.055958465 -0.050664835 -0.06828416 -0.035239737 -0.09489675 -0.020023279
-0.03523893 -0.06422378 -0.09253004 -0.12415648 -0.11100962 0.049906798 -0.14037575 -0.17221262
-0.19474743 0.13217624 0.124832965 0.056642108 0.030483356 0.11593421 0.04436005 -0.05778562
0.032665614 -0.03997 0.029151052 0.031640366 0.0038287959 -0.06616187 0.07815031 0.1234527
0.0063518225 0.054806266 -0.037299562 -0.037390906 0.09285859 0.054153956 0.052014288 0.04043338
0.007683523 0.06482251 -0.029589782 0.028142411 0.04443512 -0.035681162 0.01468037 0.033531338
-0.032570746 -0.024095666 0.17684583 -0.06939901 0.08678533 0.03122332 0.123587824 0.0042993096
0.00058069517 -0.035137855 0.20254235 -0.13799298 -0.0139321005 -0.055770475 -0.082752295 0.07746735
0.10145207 -0.023268156 -0.025941405 0.0056234105 0.17232278 -0.10720714 0.055686917 0.057593003
0.14503832 0.070459634 -0.12606935 0.26774514 0.08678977 0.0781144 -0.1602792 -0.028138632
0.023907283 -0.06719435 0.050170653 0.020507632 0.033051435 -0.0740557 -0.043525644 0.085530266
-0.051185798 0.009142405 0.058189534 0.09764433 0.09555285 -0.016143687 -0.01530193 0.16692692
0.10243114 -0.21260779 0.15251876 0.03846122 -0.02948362 -0.10192208 0.054699823 -0.0336048
-0.09112061 -0.00868231 0.004109297 -0.020675283 0.14864919 0.031177606 -0.0007077664 0.070349455
-0.06591452 0.09212664 -0.10127526 0.056196842 -0.21488236 0.003895525 -0.1108683 0.020601746
-0.109656364 -0.02126829 -0.0008332178 -0.052570153 0.025820076 -0.050473895 0.16718535 0.0058835465
0.035225336 -0.16012503 -0.0376148 -0.050297804 -0.037513554 0.06079303 -0.04785752 -0.1106511
-0.016263757 0.097141236 0.16143858 -0.01118357 -0.10701198 0.032178584 0.12456513 -0.016042609
0.012700316 -0.027932998 0.04625069 0.04199602 -0.14670488 -0.09020212 0.0031416547 0.052110083
-0.014336235 0.15415028 -0.13178982 -0.056607105 0.062708445 -0.071399935 -0.07573178 -0.035974238
-0.025978759 -0.07564118 0.1006133 0.028954078 -0.12830909 0.004929997 0.018243015 -0.0149197485
0.049104765 -0.029863296 0.08180081 -0.1524252 0.11816806 0.012122271 0.06446274 0.13656805
00000000: e0a6 1e3e ffd5 30bd a323 90bd b060 11be
00000010: cc64 503d 9592 f9bc 4407 0bbe a743 903d
00000020: 16eb e33d b162 f0bd a057 4ebd 956a 93bc
00000030: 6315 65be 01c0 2cbe 652d ea3c 53b8 383d
00000040: f30b 0c3c daac 003c 1c73 ce3c f838 c3bd
00000050: 4e7d 08be bb49 d6bc a871 6fbd 163e adbc
00000060: a116 b3bc f6c9 fe3d a6eb b83d cb19 cabd
00000070: 4f9b 873d 10f3 933d 3189 d03d bc0b 5e3d
00000080: 8edc c8bd b0c0 223b cca6 98bd 47de 973c
00000090: 64ae 23bd 64c2 a63d e918 553c f2c1 083d
000000a0: 0f0f 043e aba0 fbbd 2f2c 4b3c 72c8 46be
000000b0: 71e4 cf3d 2912 7f3d c772 253c 7d72 41bd
000000c0: c377 fabd c040 a83c c66b 073d 6d8a 8e3c
000000d0: f456 063e 0de0 4fbe 8988 d43d 3006 a73d
000000e0: e4ec ddbc 2487 c93d c442 97bd 113f 4ebd
000000f0: 1311 0d3d 5998 813d 4284 053e f75c 42bd
00000100: c0e6 3dbd c356 e93c 024d 21bd 7b15 56bd
00000110: cc16 0d3e c23a 103e c7ee 6d3d 89ce 12bb
00000120: ca78 9fbd e981 a13d c582 42bd 75ec 123d
00000130: 0d4c 183b 4347 00be 8553 72bc 3ea6 1e3d
00000140: da9f bfbd 0950 213e b434 653d ee85 4fbd
00000150: 91d8 8bbd 8b57 10bd 3a59 c2bd dc07 a4bc
00000160: b256 10bd c287 83bd 6480 bdbd c145 febd
00000170: 0359 e3bd 126b 4c3d a9be 0fbe 8158 30be
00000180: df6b 47be 3559 073e 6da8 ff3d 8e01 683d
00000190: 3bb8 f93c ea6e ed3d e2b2 353d 9db0 6cbd
000001a0: 61cc 053d 95b7 23bd 30ce ee3c 5499 013d
000001b0: 89ec 7a3b e07f 87bd 450d a03d c5d4 fc3d
000001c0: f322 d03b 897c 603d 6dc7 18bd 3527 19bd
000001d0: a52c be3d 8ad0 5d3d ef0c 553d 799d 253d
000001e0: 10c6 fb3b aac1 843d 4566 f2bc ea8a e63c
000001f0: 9a01 363d 6926 12bd ef85 703c 2858 093d
00000200: e768 05bd 4664 c5bc 1317 353e 1121 8ebd
00000210: 82bc b13d 0cc8 ff3c 9d1b fd3d 39e1 8c3b
00000220: cb39 183a b6ec 0fbd 4367 4f3e 084e 0dbe
00000230: 7743 64bc 956f 64bd 097a a9bd 34a7 9e3d
00000240: 1ac6 cf3d dc9c bebc 1283 d4bc 9644 b83b
00000250: 6275 303e 6b8f dbbd f717 643d a4e6 6b3d
00000260: ed84 143e 244d 903d 5318 01be e415 893e
00000270: d6be b13d 71fa 9f3d 3b20 24be fd82 e6bc
00000280: 35d9 c33c 319d 89bd be7f 4d3d 9fff a73c
00000290: f160 073d 84aa 97bd f247 32bd 7e2a af3d
000002a0: 33a8 51bd 07ca 153c 2658 6e3d c0f9 c73d
000002b0: 36b1 c33d c43f 84bc f2b4 7abc e4ee 2a3e
000002c0: 6bc7 d13d dbb5 59be e12d 1c3e 8389 1d3d
000002d0: a287 f1bc 86bc d0bd ec0c 603d 30a5 09bd
000002e0: 719d babd 3f40 0ebc 48a7 863b 365f a9bc
000002f0: 7e37 183e 2e68 ff3c 6689 39ba 6013 903d
00000300: 31fe 86bd e4ac bc3d 6769 cfbd a92e 663d
00000310: 1f0a 5cbe 104c 7f3b eb0e e3bd fec4 a83c
00000320: 8493 e0bd d63a aebc 4d6c 5aba cd53 57bd
00000330: a084 d33c b7bd 4ebd a332 2b3e c4ca c03b
00000340: 7148 103d d1f7 23be fa11 1abd 1205 4ebd
00000350: d0a7 19bd 1d02 793d 3f06 44bd 0b9d e2bd
00000360: 923b 85bc fcf1 c63d 2850 253e 4b3b 37bc
00000370: 1929 dbbd b1cd 033d 011c ff3d ca6b 83bc
00000380: fc14 503c bed3 e4bc 5d71 3d3d 0504 2c3d
00000390: ce39 16be e4bb b8bd 38e4 4d3b 6271 553d
000003a0: 87e2 6abc 92d9 1d3e e9f3 06be dadc 67bd
000003b0: 496d 803d 213a 92bd 4319 9bbd b959 13bd
000003c0: 68d1 d4bc c3e9 9abd 590e ce3d 1a31 ed3c
000003d0: 7563 03be d08b a13b 6072 953c f671 74bc
000003e0: 1422 493d dfa3 f4bc 2f87 a73d 5a15 1cbe
000003f0: 1902 f23d 7d9c 463c 0b05 843d 7fd8 0b3e
