results/FoodTarget_imitation_4/AgentPlayer/AgentPlayer-26870.onnx (onnx, 136525 bytes, 7 tensors)

action_model._continuous_distribution.log_sigma f4 [1, 5]
000000 f7 35 fc ba 12 7e a1 bb 89 c5 9e 3b 47 8b 5c 3a
       -0.0019242157 -0.004928359 0.0048453254 0.0008413088
000010 04 16 68 3a
       0.0008853378

action_model._continuous_distribution.mu.bias f4 [5]
000000 b6 4e b2 3b 51 7c 0d 3b 30 2d db bb 63 1f 65 bb
       0.005441512 0.002158899 -0.0066887364 -0.0034961335
000010 f1 eb 08 3b
       0.0020892585

action_model._continuous_distribution.mu.weight f4 [5, 128]
000000 3c d6 a4 ba c8 0b 2b 3c ad 14 f1 bb 39 5b 4b 3b
       -0.0012576054 0.010439821 -0.007357201 0.0031029715
000010 63 f4 cf bc 19 ac 68 bc 00 e9 ab bc 84 7d f3 3b
       -0.025385087 -0.0142011875 -0.020985126 0.007430734
000020 c2 bf 59 3c d3 0a c8 bc 61 95 95 3c d9 23 ae bc
       0.0132903475 -0.024419224 0.018259706 -0.021257328
000030 41 26 de bc 25 b3 f7 3c 49 70 63 bb 6b d2 c3 3b
       -0.02711785 0.03023679 -0.0034704378 0.0059760115
000040 03 04 8e 3b fe 78 45 3c 3c 40 e9 bc a9 77 53 3c
       0.0043339743 0.012052773 -0.028473012 0.012906947
000050 9f c4 b4 bc 6a 3d e6 bc 1a d3 bc 3c 7d 39 74 bc
       -0.022066412 -0.028105456 0.02304988 -0.014906284
000060 86 6b 5d 3c 59 9a 3c 3c 0f fe cb 3c fc fa 1d 3c
       0.013514405 0.011511409 0.024901418 0.009642359
000070 44 c4 05 3c cb 73 27 3a 9f 6d 7e bc 86 9c fb bb
       0.008164469 0.0006387799 -0.015529065 -0.007678571
000080 65 51 db bc 8d 35 c7 bc f4 6f 59 bc 07 f2 02 3d
       -0.02677221 -0.024317527 -0.013271321 0.031969097
000090 74 f5 ea 3a a9 9f 72 bc 58 b1 55 bb 90 32 ec 3c
       0.0017925934 -0.014808574 -0.0032606926 0.028832704
0000a0 08 22 ca bb ed 3c e4 3c 99 f2 73 bc 7b f5 97 bc
       -0.0061686076 0.027861083 -0.014889383 -0.018549671
0000b0 9f 0a 05 3c 59 9e 05 bb f0 18 23 bd dd 45 a4 bc
       0.008120208 -0.0020388572 -0.039818704 -0.020052845
0000c0 49 81 90 bc 89 6d 66 bc ab 08 b9 bc 79 b3 e5 3c
       -0.017639773 -0.014064201 -0.022587141 0.02803968
0000d0 fa bd 98 bc f6 7f 38 bb 24 af 50 3d d0 f3 23 3b
       -0.018645275 -0.0028152443 0.050948277 0.002501715
0000e0 eb 75 92 bb ab 21 46 bc eb b7 43 bc dc b8 29 bc
       -0.0044696233 -0.012092988 -0.011945705 -0.010359015
0000f0 32 20 47 3c 85 67 a1 bc 70 0a 2c 3c 16 34 39 bc
       0.012153672 -0.019702682 0.010500535 -0.011303922
000100 cf d6 ca 3c f3 eb fe 3c e8 8c a5 bb 52 8b 57 bb
       0.024760632 0.031118369 -0.0050521977 -0.0032889438
000110 0c a7 3f 3b 1e 7e 3c bc e9 ca 2b 3c 17 94 0c bd
       0.0029243855 -0.011504678 0.010485389 -0.034320917
000120 29 af 69 bb a8 ce 23 bd 30 67 eb bc 1e ec b2 bc
       -0.0035657382 -0.039992005 -0.028735727 -0.021841105
000130 05 59 b7 bc 94 0c 31 bd f8 f8 03 bb 97 64 0e 3d
       -0.022381315 -0.043224886 -0.002013741 0.0347639
000140 38 b2 1b bb 34 e0 d9 bc 2f 3b 03 bd 6c 51 13 bc
       -0.002375735 -0.026596166 -0.032038864 -0.00899158
000150 81 2c 9f bc 0f f9 8f bc e2 be 18 bd 85 13 68 bc
       -0.0194304 -0.017574815 -0.037291415 -0.01416481
000160 b5 41 c1 3c 8d 48 6a 3a e0 5c 91 3c 74 29 31 bd
       0.023590902 0.00089372025 0.017744482 -0.043252423
000170 00 3a 09 3a 60 5c 73 bc fe 87 d7 bc 94 83 cc 3c
       0.0005234778 -0.014853567 -0.026309963 0.024965085
000180 31 8f a9 bb 32 47 d2 bc 08 0c 28 bc ab 8c 12 bd
       -0.0051745404 -0.025668714 -0.010256775 -0.035778683
000190 0a f4 2d bc c7 2f 41 3c fb f3 f3 bc 8a b8 59 bc
       -0.0106172655 0.011791176 -0.029779425 -0.013288626
0001a0 7b f6 66 bc f7 03 51 bd c5 73 be 3c de cd 12 bc
       -0.014096851 -0.05102917 0.023248563 -0.008960215
0001b0 55 f0 1a 3c 8d 5c c8 bc 31 a9 84 bc 33 79 7c 3b
       0.009456714 -0.024458194 -0.016193958 0.0038524389
0001c0 87 2d 11 3d e6 cc 29 3d de 2e 90 3c 97 f0 1a bc
       0.03544381 0.041455172 0.017600473 -0.009456775
0001d0 07 59 66 bc 33 a8 ac bb 83 f1 8c 3a 6a e8 51 bc
       -0.014059312 -0.0052690743 0.0010753128 -0.0128117595
0001e0 12 9c 46 bd 54 45 75 bc d7 6e 58 bc 9a 48 e1 bb
       -0.048488684 -0.014970142 -0.01321002 -0.00687511
0001f0 01 77 8b bc 32 ec ac bc 09 7a ee 3c a1 da 9d 3c
       -0.017024519 -0.02110872 0.029110925 0.01926929
000200 32 54 12 bd 25 b0 06 3d 40 fd fb bc b0 d4 a0 3c
       -0.035724826 0.03288283 -0.030760407 0.019632667
000210 68 4f 5a 3c 7c 23 08 bd 24 7d e0 3c 16 33 14 bc
       0.013324596 -0.033236966 0.027403422 -0.009045383
000220 ea 18 5c 3c 24 4e a8 3c c9 e2 55 3c 3c 2c 4d 3c
       0.013433674 0.020545073 0.013054558 0.012522753
000230 7b 26 4f 3d 8b 7d b1 bc c7 30 b9 bc 41 e2 33 bd
       0.050573807 -0.021666309 -0.022606267 -0.043916944
000240 e0 56 0d bc 53 7d cb bc 07 d0 8a 3c be 74 00 3d
       -0.00862667 -0.024840033 0.016944898 0.031361334
000250 78 0c ff bc f9 5e 9e 3c 03 68 33 3d ab 85 91 3c
       -0.031133875 0.019332396 0.043800365 0.017763933
000260 e3 00 a8 3c 42 6c 2d bd 92 f4 0f 3c f6 1f d3 3c
       0.020508235 -0.04233957 0.008786337 0.025772076
000270 50 61 e1 3c a6 b7 0b 3d 7c 02 a4 bc c0 b3 bb bb
       0.027512223 0.034110688 -0.020020716 -0.005728215
000280 aa 2f 02 ba 9c dc f9 bc e5 61 49 3c ad 87 a0 bc
       -0.0004966209 -0.030500703 0.012291406 -0.019595945
000290 bb 10 50 bc 58 be 2e 3b 41 0d c2 3c 91 8a b1 bc
       -0.012699301 0.0026663747 0.02368796 -0.021672519
0002a0 0e 69 4d 3c 11 43 ac 3c 4a ec 3b 3d 7d 80 61 3c
       0.012537254 0.021028074 0.04587964 0.013763544
0002b0 eb 00 2d 3c bc c7 42 bc 27 d9 69 3c 67 c2 75 3d
       0.010559301 -0.011888441 0.014272965 0.05999985
0002c0 94 fc 87 bc b2 2c 26 3c 87 da cc 3c bd 21 99 3d
       -0.01659993 0.010142492 0.025006546 0.07477138
0002d0 16 f7 c1 3b 83 74 37 bc d3 45 7d 3c f2 07 30 bd
       0.0059193475 -0.011197212 0.015458542 -0.042976327
0002e0 ab 35 2f bc 4a 38 aa bc ee 02 93 3c 63 1e 9b 3b
       -0.010693948 -0.020778794 0.017945733 0.004733847
0002f0 b3 a3 2f bc 41 9d 44 bd c3 da 8b 3c bb 58 2b 3d
       -0.010720181 -0.04800153 0.017072087 0.041832667
000300 0c b6 40 bc 30 92 b9 3b f4 4a 83 bc b0 06 33 bd
       -0.011762153 0.005663179 -0.016026951 -0.04370755
000310 50 df 8a 3c ef 3b 48 39 a1 2e 6e 3b 4c 14 1f 3c
       0.016952187 0.00019095813 0.003634371 0.009709429
000320 92 94 08 3d d4 50 bc bc 85 c0 2c 3d 53 58 32 3b
       0.033344813 -0.02298776 0.04217579 0.002721329
000330 7e a9 14 3c f9 d3 38 3d b4 2d 20 3c 88 bb ca bb
       0.009073613 0.045124028 0.0097765215 -0.0061869062
000340 6c b4 f8 bb 7d 7f d4 3c 2a 77 bf 3c c7 25 03 3d
       -0.0075898673 0.025939697 0.023372252 0.03201845
000350 86 e0 7a bc 11 a2 f2 3c a4 09 e5 bc c2 0b aa bb
       -0.01531232 0.029618295 -0.027958699 -0.00518939
000360 f7 2d 97 3c 00 44 ae bb a5 ff 2f 39 eb 70 2b 3d
       0.018454535 -0.005318165 0.00016784536 0.041855734
000370 f1 36 cc 3c 80 05 47 bc 93 7a b2 3c df e0 1b 3d
       0.024928542 -0.012147307 0.021786964 0.03805625
000380 2b 60 60 bc 7a f8 d1 bc 46 30 ab 3b c9 2b 94 3b
       -0.013694803 -0.025631178 0.0052242605 0.004521821
000390 81 1c 36 39 48 0c e0 bc 6e c3 31 bd c8 4d c3 bc
       0.00017367491 -0.027349606 -0.043399267 -0.0238408
0003a0 62 66 3f bb 31 74 1d ba 03 f5 ea bb 49 ce da bc
       -0.0029205312 -0.00060063886 -0.007170321 -0.026709693
0003b0 9b 4c b3 bc 26 16 81 3c b9 38 da bc 15 0f 99 bb
       -0.021887114 0.015757632 -0.026638376 -0.0046709874
0003c0 f2 98 3b bc ba 04 a3 ba 70 8d 26 bc ec 64 14 3c
       -0.011450039 -0.0012437322 -0.010165557 0.009057265
0003d0 c6 59 46 3c 62 7a 74 bb 06 0d 1f 3c 58 76 b5 3c
       0.012106365 -0.003730439 0.009707695 0.022151157
0003e0 f3 4f 79 3c c7 95 67 bc 3b c3 03 bd 43 68 c1 bb
       0.015216815 -0.014134831 -0.03216861 -0.0059023215
0003f0 d4 05 2f 3d cf 79 74 3c d5 ca 04 3c df c7 ed bc
       0.042730168 0.01492162 0.008105 -0.02902597

network_body._body_endoder.seq_layers.0.bias f4 [128]
000000 29 6d 8b bb e9 a2 61 b8 28 5f f4 3b 6d 92 2e 3c
       -0.0042549563 -5.3795902e-05 0.0074576326 0.010655028
000010 f9 87 4c ba 23 2c 24 bb 9d f8 83 ba 31 e4 f3 3b
       -0.0007802244 -0.0025050722 -0.0010068599 0.007442974
000020 74 08 2b bc 4f 82 01 3c 60 c6 d9 3a 7b e3 1b 3c
       -0.010439027 0.007904603 0.0016614906 0.009514685
000030 58 d0 46 3c 63 11 8c 3b 09 57 88 3a a3 14 33 3c
       0.012134634 0.0042745336 0.0010401915 0.010930213
000040 eb 28 d2 3b 05 b3 0a bc 4a 35 0a 3c e1 6e c3 3b
       0.006413569 -0.008465533 0.008435557 0.0059641455
000050 78 67 97 3b b9 65 f2 bb 1d b1 1d b9 da da 18 bc
       0.0046204887 -0.00739738 -0.00015038667 -0.009329522
000060 94 f9 e1 3b 07 4b d1 bb 92 f1 72 3b 13 3f dc bb
       0.006896207 -0.006387118 0.0037070257 -0.006721386
000070 2b 89 27 3c 87 7e a6 bb 7b c7 c8 37 79 d1 2b 3b
       0.0102255745 -0.005081001 2.3934748e-05 0.0026217385
000080 1c 49 bd bb 30 1e 3a bb e6 b3 8c bb 62 b7 17 3b
       -0.0057765376 -0.002839934 -0.0042939065 0.0023150076
000090 9e ae 30 3b b0 4e 39 ba 7b e3 eb 3b ba f0 74 39
       0.0026959549 -0.00070689153 0.0071987486 0.00023359331
0000a0 98 62 8c 3b f4 b6 24 3c b7 9b 2e 3c 53 cd dd 3b
       0.004284214 0.010053385 0.0106572425 0.0067688613
0000b0 f2 0f 85 3b cf e7 37 3c f1 d0 26 bb d3 9d 3d bb
       0.0040607387 0.011224701 -0.0025454129 -0.0028933182
0000c0 be ef 18 3c b7 c5 ba 3b 51 e2 de 3a 45 91 38 3c
       0.009334503 0.005699839 0.0017004703 0.011265104
0000d0 b7 61 f6 3b 95 b5 fb 39 27 cb b4 3b c6 50 14 bc
       0.0075189727 0.0004800974 0.0055173817 -0.009052461
0000e0 69 dc 0d bc 8d 4b 99 3b 24 07 9b bb 24 c7 40 3b
       -0.008658507 0.004678196 -0.004731076 0.0029415572
0000f0 f3 88 94 bb 26 e7 fe b9 eb ec 7e bb d6 08 81 bb
       -0.004532927 -0.00048618874 -0.0038898538 -0.003937821
000100 3d 8c 10 bb 97 2b fe 3b d1 3f ea 39 0c 73 9b 3b
       -0.0022056245 0.007756661 0.00044679505 0.0047439393
000110 99 e2 ea 3b 8d e6 f1 bb fe 64 0f b9 9e 9e 60 3b
       0.007168126 -0.00738222 -0.00013675165 0.003427423
000120 b7 09 c0 3b c2 5a 93 3b e5 c9 b8 3b d3 cd 5d 3b
       0.005860533 0.004496903 0.005639302 0.0033844605
000130 d0 ec 20 b9 1d 9d 2c 3b 49 dd 95 b8 93 57 de 3b
       -0.00015347009 0.0026338764 -7.146091e-05 0.006785342
000140 5d 32 c2 3a b0 ee e6 3b 13 a4 8c 3b 6c 71 b1 37
       0.0014816035 0.0070474967 0.00429202 2.115286e-05
000150 58 a7 94 39 a7 c6 36 bb b3 69 91 3b 3d b8 30 3c
       0.0002835344 -0.0027889402 0.004437649 0.010786113
000160 81 b0 3e 3b 83 7f e2 ba 9a ef bc 3b d2 bd fe 3b
       0.0029096904 -0.0017280433 0.0057658674 0.007774093
000170 b8 14 43 bc f8 4d 16 3c 00 a2 c3 bb df 8b de 3a
       -0.011906795 0.009173863 -0.0059702396 0.0016978941
000180 15 12 be ba c8 54 f1 3b 38 9b 3c 3b 5d 2f a1 3b
       -0.0014501238 0.007364843 0.002877904 0.004918976
000190 87 90 97 bb c1 0b c5 b8 4b 20 ce 3b 84 4d 82 3b
       -0.0046253833 -9.395881e-05 0.0062904707 0.0039765257
0001a0 55 e0 e7 3b 59 11 9c bb 14 af 25 bc 72 86 6f b9
       0.007076303 -0.00476281 -0.010112543 -0.00022842901
0001b0 7a 07 df 3b 9c 55 d1 3a 9c 45 c8 bb 5c f5 c4 bb
       0.006806311 0.0015970948 -0.0061118137 -0.0060106944
0001c0 d6 ab 18 3c c5 4b 0b 3a 67 6a 80 3b 6c 6d ad bb
       0.009318313 0.000531372 0.003918934 -0.005292585
0001d0 eb f0 5c 3c e4 5a 03 bc 78 40 b1 3b 74 8b a7 bb
       0.013485174 -0.0080172755 0.0054092966 -0.0051130597
0001e0 4e 90 20 3c ea c9 ec 3b f7 72 5c 3b 2b ca 93 bb
       0.00980003 0.0072262185 0.003363786 -0.0045101843
0001f0 b3 7c 47 bb 4f b4 fc 3b c3 01 da ba f1 78 22 3c
       -0.0030439317 0.007711924 -0.0016632605 0.00991653

network_body._body_endoder.seq_layers.0.weight f4 [128, 128]
000000 9d 19 12 bd 2f be b5 3d 4f 71 6f 3c 0d ff 6a bd
       -0.035668958 0.08874165 0.014614417 -0.05737214
000010 cd 21 1f be 03 12 00 3e b8 b7 a6 3d 74 4d 87 bd
       -0.15540238 0.12506871 0.0814051 -0.0660657
000020 ce 57 02 be bb 07 65 3d 0c 68 35 3d 77 66 75 bd
       -0.12728807 0.055915575 0.04428868 -0.05991217
000030 e7 95 18 bd f5 28 a4 3d 3e 3c 2e bc 50 51 87 3d
       -0.037252333 0.080156244 -0.01063448 0.06607306
000040 e3 0c a3 bd 92 d9 e3 bc 88 98 de 3d 43 e5 ac bd
       -0.07961442 -0.027813707 0.10868937 -0.08442166
000050 d0 31 a0 3a bc 5d a5 3d e9 e0 49 3b 12 a9 21 3e
       0.0012221877 0.08074519 0.0030804223 0.15787151
000060 75 76 4c 3c 02 ce fe bd b4 cb 04 3e c6 f5 b9 bd
       0.012479414 -0.124416366 0.12968332 -0.09080081
000070 ef c9 56 bd 49 69 b3 3d dd ce 33 bc d8 c6 0b 3d
       -0.052438673 0.08760316 -0.010974613 0.03412518
000080 64 e1 de 3b 3f 3d 84 bd 96 fa a7 bd 60 ac 82 bd
       0.006801771 -0.06456994 -0.08202092 -0.06380534
000090 82 38 71 bd e3 ca 5a bd e2 73 15 bd c8 cf fc 3a
       -0.05889178 -0.053416144 -0.036487468 0.0019287998
0000a0 ca f4 07 3d e7 4f 89 3d 62 0c 53 3d 17 43 96 3c
       0.033192433 0.06704693 0.05152548 0.018342538
0000b0 5a 3f f7 bc f1 02 44 3d 65 11 58 3d 5f 3f a5 bd
       -0.030181576 0.047854368 0.052750964 -0.08068728
0000c0 6b 84 63 bd 2e a3 cb 3b 00 29 b7 bc 04 07 a2 3b
       -0.055546205 0.006214521 -0.022358418 0.004944684
0000d0 53 46 24 3d 7b 57 2c 3d 3b 4d b5 3d a8 a6 00 3d
       0.04010613 0.042075615 0.08852621 0.031408936
0000e0 64 6a b5 3d 1e a3 51 3a a0 69 30 be 7c 3e ca bc
       0.08858183 0.00079970236 -0.17227793 -0.024687998
0000f0 89 80 74 bd 31 50 35 3d 7d 38 b2 bd bf 4a 59 be
       -0.059692893 0.04426593 -0.087021805 -0.2121992
000100 95 03 26 3d 38 ce 3c 3d b3 57 18 3b 88 23 04 3e
       0.04053076 0.046095103 0.0023245632 0.12904179
000110 bf 20 05 3d 9c 9b 0f bd 7f 8d b3 bc 3b 11 3d 3e
       0.032501932 -0.03506051 -0.021918057 0.18463604
000120 c2 90 9a bd b3 67 9f bb 83 df f7 3d cc 53 f5 bc
       -0.075471416 -0.004864657 0.12103178 -0.029947184
000130 b5 06 b4 bd 6e 43 db bc 4e 11 e4 bd fc 67 5f 3a
       -0.08790342 -0.026765551 -0.11136113 0.000852227
000140 5d 7d 1a be bb cb 16 3d 49 16 47 3d d1 4e 84 bd
       -0.15086885 0.036815386 0.048605237 -0.064603455
000150 2b 26 be bd 9c ee 07 bc b5 68 13 3d c3 67 6c bd
       -0.09284624 -0.008296635 0.03598853 -0.057716142
000160 0e d9 9e bd 30 97 04 3e 2a dd ce bc 6f 27 3f bd
       -0.07756244 0.12948298 -0.025251944 -0.046668466
000170 b5 9a 03 be c1 05 e6 3d 10 d4 c5 bc d7 61 3a 3e
       -0.12851985 0.11231566 -0.02414897 0.18201385
000180 f2 21 c5 3c e7 38 46 3d 3b 10 9f bb e2 11 04 bc
       0.024064038 0.04839411 -0.0048542297 -0.008060904
000190 f2 a7 1b bd a9 49 89 3d f4 5a 81 3d 7f 1e 44 3c
       -0.038001962 0.06703503 0.06316176 0.011970161
0001a0 0b fc 2a bd 3e 57 4f bd a5 97 99 bd d3 2e 00 3e
       -0.041744273 -0.05062031 -0.07499627 0.12517862
0001b0 d9 ad 6b 3d 38 59 7d bd 4f 7f 25 bd 90 1c f9 3d
       0.05753884 -0.061852664 -0.040404614 0.12163651
0001c0 ac 8a c3 3d 6d 56 28 bd 3b c8 e6 bc 25 01 02 3d
       0.09547934 -0.041098047 -0.02817165 0.031739373
0001d0 e0 d8 85 bc d3 91 99 3d cb e4 ed bd b7 dc 4b 3e
       -0.016338766 0.07498517 -0.116159044 0.19908415
0001e0 b6 05 05 be 7f 2b 8b bd cb 0b c3 bd fc fb 29 3d
       -0.1299046 -0.067954056 -0.09523734 0.041500077
0001f0 a9 04 a3 3d 78 d5 c5 bd d6 8a 0b be 60 57 3e 3c
       0.07959873 -0.096598566 -0.1362718 0.0116175115
000200 99 34 61 bd f2 ef 40 ba 7e 3a 83 3d a4 59 00 3e
       -0.0549818 -0.00073599734 0.06407641 0.12534195
000210 29 ea 18 bd 42 3f af bd d3 07 74 3d fe f0 44 bd
       -0.037332688 -0.08556987 0.059577774 -0.04808139
000220 b9 aa f5 bc 93 4b 9b 3d c9 51 5c bb 7c 0b d7 bc
       -0.029988633 0.07582774 -0.0033618084 -0.026250593
000230 e3 13 8e 3d c9 6c 4e bd 57 0b eb bd f0 d9 45 3d
       0.06937387 -0.050396714 -0.11476772 0.048303545
000240 1f a5 97 3b f4 5d 68 bd 01 59 d1 3d 1f 64 58 3d
       0.0046278383 -0.056730226 0.10222054 0.052829858
000250 3d 24 08 bd 1a 56 11 3e 90 d0 cb 3b 9d a7 67 3c
       -0.033237685 0.14193001 0.006219931 0.014139083
000260 6b 26 97 3d ff bd 15 bd ff f3 90 bc ca a1 57 3c
       0.073803745 -0.036558148 -0.017694471 0.013161132
000270 bb c9 c2 bc 23 07 31 3d 9e 8e 11 3e ca 15 04 be
       -0.023777833 0.043219697 0.1421456 -0.12898937
000280 91 c0 65 3d 8e ac 82 bb 66 5b 3b bd f5 5d 84 bd
       0.05609185 -0.0039878553 -0.04574146 -0.064632334
000290 2b 74 ff bc b8 f5 b2 3d 36 1c 36 bd 92 b6 0d be
       -0.031183323 0.087382734 -0.044460498 -0.13839176
0002a0 5e 59 ea 3d 06 1f 07 be 0b 85 e0 bd 66 24 c7 3c
       0.11442827 -0.13195428 -0.10962876 0.024309348
0002b0 2c d5 73 bd 4f 6d cf 3d ea d3 71 bd 54 9b 61 bd
       -0.05952947 0.10128271 -0.059039988 -0.055079773
0002c0 c8 b1 9e bd 1e 26 bc bd bf 7b 51 be 48 e1 aa bd
       -0.07748753 -0.09186958 -0.20457362 -0.0834375
0002d0 a4 47 81 3d 10 71 0a be 91 31 45 3d 8f 41 8d 3d
       0.063124925 -0.13519692 0.048142973 0.0689727
0002e0 0d 16 87 3d 0a ed dc 3d 25 29 6d bd ba de 1d bc
       0.06596003 0.10787399 -0.057900567 -0.009635622
0002f0 ed 57 a3 bc 4f 82 bf 3d 0d 65 97 bc c8 62 c0 3c
       -0.019939387 0.09351026 -0.018480802 0.023484603
000300 d0 82 40 bd 13 81 38 be ac 28 f6 3b 62 2f 7e 3c
       -0.046999753 -0.18017988 0.0075121727 0.015514227
000310 d7 12 c0 3d a7 71 e2 3d 25 be 17 3d c1 a8 44 3b
       0.093785934 0.11056834 0.03704657 0.0030007812
000320 d5 d8 6c bd 04 f6 0d 3c 0c 68 8b 3d a1 0a 61 3e
       -0.057823975 0.008664612 0.06806955 0.21976711
000330 4b 21 8f 3d 49 c9 b3 bc 07 57 5f bd 68 0e 5a be
       0.06988772 -0.021946566 -0.054526355 -0.21294558
000340 5e f8 42 be b8 53 47 3d 52 e0 85 be d1 4b 77 bc
       -0.19040057 0.048663825 -0.26147705 -0.01509376
000350 3e 1c c2 bb 3b 7f 9c 3d f6 a4 b9 bc 59 cb 85 3c
       -0.005923777 0.07641455 -0.022661667 0.016332315
000360 12 b8 e4 bc 00 7c c5 3d ad 89 c4 3d b9 85 52 3d
       -0.027919803 0.09642792 0.09596572 0.05139706
000370 0a 0a 52 bd 63 b2 12 3e 50 39 28 3e 28 46 f3 bd
       -0.051279105 0.14325862 0.16428113 -0.118786156
000380 2f 89 dc bc 4f ec 07 bd fe a6 4c bd 6f 13 87 3d
       -0.026920883 -0.033184346 -0.049963944 0.065955035
000390 e1 5b 9b bd 83 83 21 bd 77 5b f5 3d a1 2d a2 3d
       -0.07585884 -0.03943206 0.11980336 0.07918859
0003a0 48 cf d8 bd 80 21 a9 bc 25 8e 25 bd d3 1a 03 bd
       -0.10586411 -0.020645857 -0.040418763 -0.032008003
0003b0 97 f7 ff 3d b4 e7 37 3d 82 b8 06 be 1a f0 0c bd
       0.12498396 0.044898704 -0.13156322 -0.034408666
0003c0 7b d9 7e bd 59 ca af 3e cc 27 f0 bd be b9 f3 3d
       -0.062219124 0.34334067 -0.11726341 0.11900662
0003d0 d3 ed 15 bd 3b c6 19 be f1 c2 19 3c d8 c5 59 3d
       -0.03660376 -0.15017025 0.009384857 0.053167194
0003e0 86 6f ee 3d 1a de 87 3d 52 8b 6c bd bb ef 16 3e
       0.11642365 0.066341594 -0.057750054 0.14739887
0003f0 da ad be bd 18 1f 1c bd bf ba 8c bd 71 db 3e 3d
       -0.09310503 -0.03811559 -0.068715565 0.046595994

network_body._body_endoder.seq_layers.2.bias f4 [128]
000000 9e 2a f6 3a a7 11 8c 3b 29 60 93 bb 22 37 0a 3b
       0.0018781011 0.0042745653 -0.004497547 0.002108999
000010 87 bf 36 3b da 5e e5 ba a0 a8 4d 3b 3d a7 2f bb
       0.0027885155 -0.0017499581 0.0031381026 -0.0026802563
000020 e6 c5 2e 3c f6 b7 a8 ba 2e 31 05 3b 83 fd 37 bb
       0.0106673 -0.0012872207 0.0020323503 -0.0028074689
000030 d2 7a 29 bb b1 35 99 3b e0 1d a8 bb eb 13 be ba
       -0.002586056 0.00467559 -0.0051305145 -0.0014501786
000040 c1 a3 be 3b 62 83 fd 3a e4 4a bd 3a cf b7 97 3b
       0.005817861 0.0019341523 0.0014441875 0.004630066
000050 5c 8d ba 3a f5 4c 8f 3b e2 47 eb 3b 32 88 a3 bb
       0.0014232802 0.0043731877 0.0071802 -0.004990601
000060 ed 1b 86 ba b6 a6 1b bb 9d 4e d6 3b 1e 88 13 3b
       -0.0010231711 -0.002375049 0.006540133 0.0022511552
000070 3b 84 dd 3b e0 a1 0d 3c fe 9a 1a 3b a4 5a 14 bb
       0.006760148 0.008644551 0.0023590918 -0.0022637034
000080 ba 19 dc bb a6 40 29 3b 22 96 ac bb a1 2e 88 3b
       -0.006716934 0.0025825887 -0.0052669207 0.004155949
000090 31 4f a6 3b de 24 aa bb c9 fb aa 3b 23 ae dd 3b
       0.0050753583 -0.005192383 0.0052180034 0.0067651435
0000a0 c0 37 79 bb 42 03 9d 3a 55 53 2b 3b 15 8c 9c bb
       -0.0038027614 0.001197912 0.00261422 -0.0047774413
0000b0 be 6b d0 3a c0 bb 08 bb ee 1f 0c bb 6d 81 f3 3b
       0.001590125 -0.002086386 -0.0021381336 0.0074312002
0000c0 77 13 89 bb 46 96 a8 bb 73 5a a7 3b 60 45 c8 3b
       -0.0041832286 -0.005144867 0.005107218 0.006111786
0000d0 2a 9d b1 bb bf 0b a8 bb 7b 1e 35 3c 26 13 a7 3b
       -0.0054203467 -0.0051283534 0.01105463 0.005098718
0000e0 b4 f2 87 3b 32 0c ef bb e7 48 43 bb 98 40 87 3b
       0.0041488055 -0.007295155 -0.0029798092 0.004127573
0000f0 4e e7 dc 39 72 b4 3e 3b c5 36 f0 39 74 01 cf 3b
       0.00042134005 0.0029099253 0.00045817174 0.006317312
000100 be 16 ab 3b 6b 11 a0 ba ea 40 40 bb fd 7d d2 bb
       0.005221217 -0.0012212222 -0.0029335567 -0.0064237104
000110 2c c6 83 ba 8c 4c 11 bc a7 d1 90 3b 18 0c 1a b9
       -0.0010053567 -0.008868348 0.0044195238 -0.0001469109
000120 62 77 d2 3b e1 27 0f bb cb 38 1c 3b 0f 53 a0 bb
       0.006422923 -0.0021843838 0.0023837562 -0.004892714
000130 bf 2d ab bb b5 af ba 3b 71 89 6e 3b 1c 7f 5b ba
       -0.005223959 0.0056972154 0.003639784 -0.0008373128
000140 1f f1 d2 ba 96 8a 7e ba 12 71 bc 3b dc be 94 3b
       -0.0016093588 -0.0009709982 0.0057507837 0.004539354
000150 bf 0d 86 bb 32 9c ac bb 87 10 91 bb 35 5b e1 bb
       -0.004090994 -0.0052676434 -0.004427019 -0.006877328
000160 64 42 3c 3c 7d 03 2a 3b 2b 9a f7 3b ba b3 b6 3b
       0.011490438 0.002594202 0.00755622 0.0055756243
000170 d4 b4 75 3b 82 42 be b9 81 26 53 bb 0a 85 bc 3b
       0.0037491815 -0.00036289176 -0.0032218995 0.005753164
000180 06 cc 03 bb 0a bf b4 bb ed 11 f9 bb 0c 1e af 3a
       -0.002011062 -0.0055159377 -0.007601014 0.0013360395
000190 06 20 43 3b 40 a3 a7 3b 0f bb 60 bb af 1e 75 3b
       0.0029773726 0.0051158965 -0.0034291183 0.0037402322
0001a0 74 b2 7c 3a 14 9d 82 bb 9e 49 8c ba 89 bd fb 3b
       0.00096396287 -0.0039860103 -0.0010703092 0.0076825065
0001b0 dc 83 58 3a a0 1a 3e bb d7 f4 56 3a 28 31 1a 3b
       0.00082593947 -0.002900757 0.0008199936 0.0023527835
0001c0 fd 28 3b 3c 20 db 06 3c c9 71 05 3c a5 d0 d3 bb
       0.011423347 0.008230954 0.008144804 -0.0064640814
0001d0 54 ef db bb d4 aa 8b bb 55 2d 40 3b 90 c3 88 3b
       -0.0067118797 -0.0042623077 0.0029323895 0.0041737035
0001e0 0f 4f 3c bb 25 66 c9 ba e4 0a a4 bb 9b ec 0a bc
       -0.0028733646 -0.0015365524 -0.005006181 -0.008479263
0001f0 e6 f5 5d 3b 6d c0 0b bc 99 9c 8f b8 81 eb c6 ba
       0.003386849 -0.008529765 -6.84794e-05 -0.0015176387

network_body._body_endoder.seq_layers.2.weight f4 [128, 128]
000000 65 22 15 bd 79 2b f9 bd c7 9d 20 be d6 a8 04 be
       -0.036409754 -0.12166495 -0.15685187 -0.12955031
000010 ca a5 2e be 02 02 8f 3d a7 fa c7 bd 84 19 c4 bd
       -0.17055431 0.06982805 -0.09764605 -0.09575179
000020 ff a5 45 3b 60 85 bb 3d ac e0 80 3d e5 42 75 bd
       0.0030158756 0.09156299 0.06292853 -0.05987825
000030 35 54 54 3c 2b 4d f9 bd 71 6c fe bd 31 00 a8 3c
       0.01295953 -0.12172922 -0.12423027 0.020507904
000040 b1 1a f2 bd 7d a7 b0 3c 2b 38 09 3e ef 54 a0 3d
       -0.11821497 0.02156424 0.13400333 0.078287
000050 bb 43 08 3e 48 db de 3c e4 55 74 bd bd d9 98 bd
       0.13307087 0.02720417 -0.059652224 -0.07463405
000060 e3 13 e0 bb 2d 87 ce bd 8e ad 41 3e 73 07 da 3d
       -0.006838308 -0.100843765 0.18913862 0.10645952
000070 f5 fc 02 be d1 73 4f 3d 77 e5 c6 bc dc ab cf bd
       -0.12791808 0.05064756 -0.02427934 -0.101402014
000080 cb 47 95 3d 27 1c 78 bb f7 4b b1 3d e8 4b a3 3d
       0.07289084 -0.0037858577 0.08657067 0.07973462
000090 e8 ba ce 3d 37 81 b2 3d 7b 35 25 3c e5 41 9a bd
       0.10094243 0.08716052 0.0100835515 -0.075321
0000a0 52 1b 00 3d b1 03 8c bb d0 77 ee bc 47 e2 2e be
       0.031276055 -0.004272901 -0.029109865 -0.17078505
0000b0 08 9b cf bd 79 1c ff bd 46 89 fc 3d 24 ab a3 bd
       -0.10136992 -0.124566026 0.1233087 -0.07991627
0000c0 a4 5e 2f 3b 22 fa 06 bd 9f ed 10 bd 9b 12 4c bc
       0.002675929 -0.03295339 -0.035382863 -0.012455608
0000d0 00 8c c4 3d 7a 8e b9 bd ef bf 4b be c7 19 d0 bc
       0.095970154 -0.090603784 -0.19897436 -0.025402917
0000e0 04 85 56 3c b7 71 48 3d 9b cc 53 3d 59 4e a7 bb
       0.013093237 0.048936572 0.0517088 -0.0051057753
0000f0 4c a7 a9 3d 5d 3c 1b 3c 32 15 e1 bd d2 6f 23 3e
       0.082838625 0.009474841 -0.10990371 0.15960625
000100 21 de 05 3d 30 d3 e3 bd 35 e6 cd 3c 0a 47 56 3e
       0.03268254 -0.11124265 0.025134185 0.20925537
000110 e3 6a e9 bd c6 44 89 bd b1 a7 4c 3c e6 de 80 bd
       -0.1139734 -0.067025706 0.012491153 -0.062925145
000120 98 45 26 be 43 81 71 bd 4a 61 9b 3d 28 9e 53 3d
       -0.16237485 -0.058961164 0.07586916 0.0516645
000130 c1 93 6f bd a1 ce 1d ba 32 e4 73 3d fc b9 5a be
       -0.05849052 -0.0006019865 0.059543796 -0.2136001
000140 8d 9b d6 bc 84 d9 46 bd ef ea a1 bd 93 38 34 bd
       -0.02619722 -0.048547283 -0.07906138 -0.043999266
000150 82 1b e6 bd 7c 6a fe bc cc 70 a1 bc 01 3d e7 3c
       -0.112357154 -0.031056635 -0.019707106 0.028227331
000160 74 ed 34 3e b4 74 10 bd 70 03 9a 3d ec ee a0 bd
       0.17668706 -0.035267547 0.07520187 -0.07858071
000170 f9 db 13 3b 78 43 a3 bd 3a e5 97 3d 7b 95 82 bc
       0.0022561534 -0.07971853 0.07416768 -0.015940418
000180 c0 1c 82 3d 86 a2 96 bd 4b 5d 0f be 83 4f b0 bd
       0.0635314 -0.07355218 -0.14000432 -0.08608916
000190 38 4d af bd 39 2b 25 3d 95 f0 18 3d 69 a8 70 bd
       -0.0855965 0.040324423 0.037338812 -0.05875436
0001a0 e1 b1 52 bd 2e 13 06 3d b2 04 c2 bb f5 82 d4 3d
       -0.05143917 0.032733135 -0.00592097 0.103765406
0001b0 60 73 8c bc 81 4f 18 bd 37 69 ca bd 6f 74 9d 3d
       -0.017144859 -0.037185196 -0.098833494 0.076882236
0001c0 f6 f0 9d bd 6d e3 fe 3c 04 ef 60 bd ed 5f c1 3d
       -0.07711975 0.031114304 -0.054915443 0.094421245
0001d0 c9 58 15 be 1a 40 ab bd e9 0d f4 3d db 17 3b 3d
       -0.1458465 -0.08361836 0.11916716 0.045677047
0001e0 c6 df 40 bc dd 0c 1a bd 50 85 5c 3c 0d a0 79 bc
       -0.011772102 -0.037609924 0.013459519 -0.015235913
0001f0 bb 3b d9 3d 3f c5 eb bd 23 15 85 3a e9 03 7d bc
       0.10607096 -0.11512231 0.0010153394 -0.015442827
000200 16 e7 0b bd 93 b1 93 3d 55 9c 1f bd a1 8d 02 bd
       -0.034155928 0.07211604 -0.03896745 -0.03187335
000210 fc 6a d1 bd f2 8e e4 bd fd b0 60 bd b3 29 3c be
       -0.10225484 -0.11160077 -0.05485629 -0.18375282
000220 8f b7 01 be da 76 5a bd 5b 6c 38 3d 89 64 c8 bd
       -0.12667678 -0.053336002 0.04502521 -0.097848006
000230 9a dd 06 3c 91 14 9e 3d 17 53 3e be 04 6c 10 be
       0.008231545 0.077187665 -0.18586384 -0.14103705
000240 42 8a 28 bc ba 4d 14 bd bf 89 2d 3d 1c 89 0c 3e
       -0.0102868695 -0.03620694 0.042367693 0.13724178
000250 4d ec a9 bd cc c7 4a be 57 f3 67 bd 61 34 70 3d
       -0.08297024 -0.19802779 -0.05662855 0.058643702
000260 bb 42 da bd aa 23 22 bd 38 52 c0 bd c0 d4 8c 3d
       -0.10657259 -0.039584793 -0.09390682 0.06876516
000270 12 0e cb 3d 63 65 41 bb 72 df cd 3d df d2 2c 3d
       0.09914793 -0.0029509894 0.100523844 0.04219329
000280 33 08 1d bd d3 04 73 bc 62 73 36 be 8c a6 af 3d
       -0.038337898 -0.014832693 -0.17817453 0.08576688
000290 58 1b bf 3b 24 0b 8f 3d 6b d8 35 bc d3 6d 45 be
       0.005832117 0.06984547 -0.011098961 -0.19280176
0002a0 d8 dd c7 3d d1 16 29 3d 56 db db 3c 93 49 f2 3c
       0.0975911 0.041281525 0.026837986 0.029576099
0002b0 38 56 b0 3d 17 93 70 3d 60 82 b6 3d be 9f 93 bc
       0.08610195 0.058734026 0.08911586 -0.018020507
0002c0 11 19 04 be 49 19 bd 3c a0 45 40 bd 96 ba 98 bd
       -0.12900187 0.023083346 -0.0469414 -0.074574634
0002d0 4c 49 ef 3d db 7a 81 3c 55 10 0c 3e c9 44 af 3c
       0.11683902 0.015805652 0.13678105 0.021395104
0002e0 70 c6 21 3e 06 68 dd bc 4e f0 15 3d ba c7 67 3d
       0.15798354 -0.027027141 0.036606126 0.05658696
0002f0 4b 1a 81 3d 00 08 62 bd 14 7a 8a bd 6a e2 17 3e
       0.06303843 -0.05518341 -0.06761566 0.14832464
000300 3f a6 9b bd 44 4b 91 3b 4d 1b d1 bc d5 41 e4 3d
       -0.07600068 0.004434021 -0.025525713 0.11145369
000310 99 28 0f 3e 5f ab f6 3d bf c7 6d 3d 8c 0c 28 3e
       0.1398033 0.12044405 0.05805182 0.16411036
000320 86 a7 55 3b 0b 07 ce ba 44 e5 46 bd 3e de 9b 3d
       0.0032601072 -0.0015718652 -0.04855849 0.07610749
000330 c5 fb 44 3d 5f 3a 7e 3d 69 3e cf bd 74 43 54 bd
       0.04809167 0.062067386 -0.10119326 -0.05182214
000340 1a f0 99 bc fe 43 9d 3c 0f ba e3 3b 55 52 b8 bd
       -0.018791247 0.01919746 0.00694967 -0.090000786
000350 17 9d ae bd af 10 43 bd 11 aa 01 3d a8 0c 0c 3c
       -0.08526056 -0.047623333 0.03165633 0.008547939
000360 7c 58 3d bd 05 21 5d 3d b0 f6 29 be 53 71 0b 3d
       -0.046226963 0.053986568 -0.1659801 0.03404362
000370 65 ab 17 3e 7a 05 c9 3d 5d 3b 36 3e f8 26 09 bd
       0.14811476 0.09815498 0.17796083 -0.03348443
000380 12 ef 0a 3d 5d 3d 4a be 66 7c a6 bd dd 76 77 bd
       0.0339194 -0.1974997 -0.08129196 -0.06041609
000390 9f 0c ea 3c 09 e3 83 bd ac 50 86 bd 77 cd 50 3d
       0.028570471 -0.06439788 -0.06558356 0.050977197
0003a0 ef 67 09 bd 4d 52 af bd 3b bc 18 3b c0 42 5f bd
       -0.033546384 -0.085606195 0.0023305553 -0.054507017
0003b0 53 00 87 bc 4e 46 48 be 9e b4 4f 3d f4 7c c7 bd
       -0.016479647 -0.19558069 0.05070936 -0.0974063
0003c0 b2 7e 0d 3e 12 28 98 3a e8 13 97 3d 4f 44 fe 3d
       0.13817862 0.0011608622 0.07376844 0.124153726
0003d0 47 17 d3 3d 39 33 e5 38 a6 52 e9 bd 2b dc a9 bd
       0.10307174 0.00010929112 -0.11392717 -0.08293947
0003e0 50 4e 16 3d 83 28 b0 bd e0 83 9f bd 8f db 33 be
       0.03669578 -0.08601477 -0.07788825 -0.17564224
0003f0 4b 17 3f 3c fe a2 e5 3a 89 b1 db bd 08 e5 54 be
       0.011663268 0.0017519889 -0.107272215 -0.20790493
