results/FoodTarget_imitation_4/AgentPlayer/AgentPlayer-1.onnx (onnx, 142790 bytes, 7 tensors)

action_model._continuous_distribution.log_sigma f4 [1, 20]
000000 00 00 00 00 00 00 00 00 00 00 00 00 00 00 00 00
       0.0 0.0 0.0 0.0
000010 00 00 00 00 00 00 00 00 00 00 00 00 00 00 00 00
       0.0 0.0 0.0 0.0
000020 00 00 00 00 00 00 00 00 00 00 00 00 00 00 00 00
       0.0 0.0 0.0 0.0
000030 00 00 00 00 00 00 00 00 00 00 00 00 00 00 00 00
       0.0 0.0 0.0 0.0
000040 00 00 00 00 00 00 00 00 00 00 00 00 00 00 00 00
       0.0 0.0 0.0 0.0

action_model._continuous_distribution.mu.bias f4 [20]
000000 00 00 00 00 00 00 00 00 00 00 00 00 00 00 00 00
       0.0 0.0 0.0 0.0
000010 00 00 00 00 00 00 00 00 00 00 00 00 00 00 00 00
       0.0 0.0 0.0 0.0
000020 00 00 00 00 00 00 00 00 00 00 00 00 00 00 00 00
       0.0 0.0 0.0 0.0
000030 00 00 00 00 00 00 00 00 00 00 00 00 00 00 00 00
       0.0 0.0 0.0 0.0
000040 00 00 00 00 00 00 00 00 00 00 00 00 00 00 00 00
       0.0 0.0 0.0 0.0

action_model._continuous_distribution.mu.weight f4 [20, 128]
000000 15 56 33 3d 05 e0 6d ba 55 b4 4c 3c ac cf b7 3b
       0.043783266 -0.0009074214 0.012494166 0.005609473
000010 c3 20 e5 bb 47 d5 2d bc b8 b0 0f 3b 3b f9 b5 bc
       -0.006992431 -0.010609931 0.00219254 -0.022213569
000020 7a cf f8 3c 10 14 0b bc 15 a6 77 b9 3a 9a 33 bd
       0.03037237 -0.00848867 -0.00023617626 -0.043848254
000030 0b ed 01 bc 5b 60 2e 3c 73 f5 5f 3c d5 e6 9a bc
       -0.007930051 0.01064309 0.0136693595 -0.018908897
000040 73 7a 93 bc 53 13 01 bd ed e6 54 3c 9d 03 0c bc
       -0.018002724 -0.03151257 0.01299451 -0.008545783
000050 77 eb 45 bb d0 c1 49 3c cd 13 3f 3d a7 68 0b bc
       -0.0030200162 0.012314275 0.046649743 -0.008508838
000060 89 55 4c 3b 9b ee 1b 3c 97 d6 6e 39 8f c4 cc 39
       0.0031178913 0.009517337 0.0002277739 0.0003905636
000070 3f d9 43 bc 0f 41 92 3b db 50 ec 3a 2d 30 17 bc
       -0.011953651 0.004463322 0.0018029468 -0.009227795
000080 46 0e 24 3b 87 16 9d bb 47 04 c4 bb eb 10 a6 3b
       0.0025032922 -0.0047939452 -0.005981955 0.0050679347
000090 ae cd c5 bb 42 2a 4e 3b eb c0 8d bc f7 29 25 3d
       -0.006036482 0.0031458293 -0.017303905 0.040323224
0000a0 a7 a3 c5 bc 25 e9 38 bc 67 b8 4a bc f2 21 d6 3b
       -0.024125887 -0.011286055 -0.0123730665 0.0065348083
0000b0 8e 92 15 3c 17 a0 12 bc 2a a1 2e bd d4 7e 96 bb
       0.00912918 -0.008949301 -0.042634167 -0.004592756
0000c0 f7 f3 4a 3c b4 7f 1b 3c fa 60 36 3b ba 71 eb 3c
       0.012387267 0.009490896 0.0027828799 0.028740752
0000d0 d2 2d 6c bc 87 b4 60 3b 05 db ac bc 03 d3 72 bc
       -0.014415221 0.003428729 -0.02110053 -0.014820817
0000e0 01 27 21 3c 28 1d 14 bc 68 7e c8 ba 03 17 66 bd
       0.009835959 -0.0090401545 -0.0015296461 -0.05617429
0000f0 45 23 46 bb f5 05 c1 bc e4 4f 2f bc 5a 03 10 bd
       -0.0030233425 -0.02356241 -0.0107002 -0.035159446
000100 ad fb dd bc a9 ed 1d bc fc f1 2a 3a e6 b9 35 bc
       -0.027097547 -0.009639182 0.0006521044 -0.011091685
000110 95 6d bd 3c dd 29 7a bc 87 eb 2a 3c 18 9a f0 bc
       0.023123542 -0.01526877 0.010432131 -0.029370353
000120 26 29 09 bc 9b 95 99 3c 0f 28 76 bc 77 e8 62 bc
       -0.008371627 0.018748095 -0.015024199 -0.013849369
000130 47 68 b3 3c 36 98 b4 bc 3b 24 93 bc f5 14 69 39
       0.02190031 -0.022045236 -0.017961612 0.00022228419
000140 21 49 91 3b 08 9f f9 bc c0 35 f2 bc 0f be 9e bc
       0.0044337665 -0.03047134 -0.029566646 -0.019377736
000150 32 6c 60 3b 3f 89 5b bb 4a 07 5e bc 7f 7c 11 bc
       0.0034244177 -0.0033498553 -0.013551543 -0.00887978
000160 6e 42 c9 3b a8 eb b5 3c 7d 82 33 3c cf 8a 5d bc
       0.0061419522 0.022207096 0.010956404 -0.013521864
000170 93 bc 03 3d 02 d5 c5 3c 5f 6b 51 3c c3 f2 37 bc
       0.03216226 0.024149422 0.012781947 -0.0112273125
000180 0f bd 00 3c 33 f8 05 3b ec 28 0d bc f5 2c 29 3a
       0.007857575 0.0020442128 -0.008615714 0.00064535375
000190 ef 4b ee 3b 03 18 56 bc 9d 09 64 bc ff 40 7e 3b
       0.0072722356 -0.013067248 -0.013918308 0.0038796065
0001a0 21 c0 42 bb 1b 6d 33 ba 31 90 2a bb dc cf 43 3c
       -0.0029716569 -0.0006844566 -0.0026025886 0.011951413
0001b0 e2 74 23 bd 17 7d 95 bc 47 63 a4 3c 5b e3 40 3c
       -0.03990639 -0.018248124 0.02006687 0.011772956
0001c0 f7 d8 88 3c 57 2d b4 bc 90 1d d0 bb cc fb 2e bc
       0.01670502 -0.021994276 -0.0063511804 -0.01068015
0001d0 f1 a9 aa 3a 95 77 d3 ba 6b cf 11 3c 57 50 f7 bc
       0.0013020617 -0.0016133661 0.00889955 -0.030189676
0001e0 0c 9b 0b 3b 77 7e 1c 3c 41 50 18 bc 4a b4 b7 3b
       0.0021302132 0.009551636 -0.009296478 0.005606209
0001f0 bf cb c1 bc 5d e2 29 3a a2 80 dc bc 78 9b 54 3c
       -0.023656724 0.0006480569 -0.026916806 0.01297652
000200 97 be 96 bc a3 d7 fd 3b cb 68 ac 3c 63 7e 43 bb
       -0.018401427 0.007746653 0.021046063 -0.002982997
000210 0f 41 9c 3c f9 14 a4 bc 26 9c a6 3c f9 b7 bf ba
       0.019073991 -0.020029532 0.02033813 -0.0014626972
000220 94 1b 25 3c 55 76 5d 3b 1f 8a e2 bb 0f 48 b5 bb
       0.010077376 0.0033792455 -0.006913438 -0.0055322717
000230 0c d7 05 3c 2f c7 59 3c 67 48 30 bc cf 36 0e bc
       0.008168947 0.013292118 -0.01075945 -0.00868006
000240 0b 69 72 bb d3 8e f4 3c 08 c4 5e bc 84 22 8b b9
       -0.003698888 0.02985326 -0.013596542 -0.00026537862
000250 23 4f aa 3c 22 0c c5 3c f2 78 0a bd f0 19 39 3c
       0.020789688 0.024053637 -0.03380675 0.011297688
000260 7a b5 66 3c 3d 69 92 3c e7 bc 88 bb 5d e4 a6 bb
       0.014081353 0.017872447 -0.0041729095 -0.005093141
000270 a2 b1 7a 3c 44 c0 37 bc 4e 8f 35 3b 18 fe 52 3c
       0.01530114 -0.011215273 0.0027703824 0.0128779635
000280 6f 51 05 bd 03 e2 32 3c fd fd 4d bc 53 88 5a bc
       -0.032548364 0.010918143 -0.012572763 -0.013338166
000290 02 06 87 ba 4b de 97 3b 53 c0 8f bb ea 1d e8 3a
       -0.0010301473 0.0046346537 -0.0043869405 0.001770911
0002a0 ed 6a b4 39 f3 0c 28 3d 8b 1a 7b bc f2 98 55 bc
       0.0003441194 0.041027974 -0.015326153 -0.013036953
0002b0 60 a2 c1 bb 77 bc 1b 3d 55 1e de 3b d2 0b 6a 3c
       -0.005909249 0.03802153 0.006778518 0.014285045
0002c0 5f 17 30 3c 68 aa 6e bb 4a 58 03 3d 71 9c 80 bc
       0.01074776 -0.0036417488 0.03206662 -0.015699597
0002d0 53 58 e0 3b 0f 6e a0 bc 99 b2 b5 3c 9f 52 cd 3b
       0.0068464666 -0.01958373 0.022179889 0.0062659527
0002e0 c9 22 96 bc f3 b1 a6 bb 95 d8 ab bc 75 90 8f 3b
       -0.018327134 -0.005087131 -0.020977298 0.0043812343
0002f0 d5 1f b6 3a b0 a5 de 3c 24 ea 16 3b ff 32 03 3c
       0.0013894985 0.027178615 0.0023027742 0.008007764
000300 c8 c0 31 3b 7f 3b 86 bb 47 ef 22 3d 5b 48 f7 bb
       0.0027122963 -0.004096448 0.039778974 -0.0075464672
000310 b2 82 8f 3c 0d 7c f6 3c 10 6e e7 3b 53 58 8b 3c
       0.017518375 0.030088449 0.007062681 0.01700989
000320 c0 03 fe 3b f7 e7 07 3c eb 27 0a 3d b4 71 2d bc
       0.007751912 0.008295051 0.033729475 -0.010586191
000330 5e 68 1c b8 9a 74 02 3d 4b 32 38 3c 4b fe 00 bc
       -3.7290498e-05 0.03184948 0.0112424595 -0.007873128
000340 a3 01 91 3c 90 e6 b8 3c e3 f7 1d ba 3b 60 39 3c
       0.017700976 0.022570878 -0.00060260127 0.011314447
000350 23 59 1b 3d 8e 73 16 3b 6d 20 cd bb bf 02 b7 3a
       0.037926804 0.002295706 -0.006259969 0.001396261
000360 27 84 bf bc 7a 56 e6 bc 81 59 9d bc c0 7f 86 ba
       -0.023378445 -0.028117407 -0.019207718 -0.0010261461
000370 83 78 c7 3c 90 4a d4 3c 43 58 55 3c 27 65 c6 bb
       0.024349457 0.02591446 0.0130215315 -0.006054539
000380 0c 69 be bc 7f 3f 3d bc 07 24 a5 3c 2b a2 78 3c
       -0.02324345 -0.011550783 0.02015878 0.015175383
000390 f6 e1 92 ba d1 b8 93 bb 7b d9 d8 bb 37 e2 97 3c
       -0.0011206258 -0.004508116 -0.0066177226 0.018540485
0003a0 56 94 27 bb 67 9f 54 bc 15 1b ab bb 93 f0 9e bc
       -0.0025570593 -0.012977458 -0.0052217343 -0.019401824
0003b0 e3 74 0b 3d b2 ec 68 3b eb be 8b b9 37 a4 2b 3b
       0.03404702 0.0035541472 -0.0002665439 0.002619041
0003c0 3d d3 a3 3b b9 cb 07 bb 75 0f b2 3b a9 9b bc 3c
       0.004999547 -0.0020720793 0.0054339715 0.023023443
0003d0 9a 6c a1 bc 9f 58 a3 bc eb 25 29 3d 6d 3f 0a bb
       -0.019705106 -0.019939719 0.041295927 -0.0021094934
0003e0 c8 f8 4a ba 78 2e 86 3c 2a 9e 23 bc 5d fb 75 bc
       -0.000774276 0.01637958 -0.00998644 -0.015013543
0003f0 a5 3b 37 bc 5f fd ab bc 99 9d 13 ba 27 4f 99 39
       -0.011183654 -0.02099484 -0.0005631089 0.00029241407

network_body._body_endoder.seq_layers.0.bias f4 [128]
000000 00 00 00 00 00 00 00 00 00 00 00 00 00 00 00 00
       0.0 0.0 0.0 0.0
000010 00 00 00 00 00 00 00 00 00 00 00 00 00 00 00 00
       0.0 0.0 0.0 0.0
000020 00 00 00 00 00 00 00 00 00 00 00 00 00 00 00 00
       0.0 0.0 0.0 0.0
000030 00 00 00 00 00 00 00 00 00 00 00 00 00 00 00 00
       0.0 0.0 0.0 0.0
000040 00 00 00 00 00 00 00 00 00 00 00 00 00 00 00 00
       0.0 0.0 0.0 0.0
000050 00 00 00 00 00 00 00 00 00 00 00 00 00 00 00 00
       0.0 0.0 0.0 0.0
000060 00 00 00 00 00 00 00 00 00 00 00 00 00 00 00 00
       0.0 0.0 0.0 0.0
000070 00 00 00 00 00 00 00 00 00 00 00 00 00 00 00 00
       0.0 0.0 0.0 0.0
000080 00 00 00 00 00 00 00 00 00 00 00 00 00 00 00 00
       0.0 0.0 0.0 0.0
000090 00 00 00 00 00 00 00 00 00 00 00 00 00 00 00 00
       0.0 0.0 0.0 0.0
0000a0 00 00 00 00 00 00 00 00 00 00 00 00 00 00 00 00
       0.0 0.0 0.0 0.0
0000b0 00 00 00 00 00 00 00 00 00 00 00 00 00 00 00 00
       0.0 0.0 0.0 0.0
0000c0 00 00 00 00 00 00 00 00 00 00 00 00 00 00 00 00
       0.0 0.0 0.0 0.0
0000d0 00 00 00 00 00 00 00 00 00 00 00 00 00 00 00 00
       0.0 0.0 0.0 0.0
0000e0 00 00 00 00 00 00 00 00 00 00 00 00 00 00 00 00
       0.0 0.0 0.0 0.0
0000f0 00 00 00 00 00 00 00 00 00 00 00 00 00 00 00 00
       0.0 0.0 0.0 0.0
000100 00 00 00 00 00 00 00 00 00 00 00 00 00 00 00 00
       0.0 0.0 0.0 0.0
000110 00 00 00 00 00 00 00 00 00 00 00 00 00 00 00 00
       0.0 0.0 0.0 0.0
000120 00 00 00 00 00 00 00 00 00 00 00 00 00 00 00 00
       0.0 0.0 0.0 0.0
000130 00 00 00 00 00 00 00 00 00 00 00 00 00 00 00 00
       0.0 0.0 0.0 0.0
000140 00 00 00 00 00 00 00 00 00 00 00 00 00 00 00 00
       0.0 0.0 0.0 0.0
000150 00 00 00 00 00 00 00 00 00 00 00 00 00 00 00 00
       0.0 0.0 0.0 0.0
000160 00 00 00 00 00 00 00 00 00 00 00 00 00 00 00 00
       0.0 0.0 0.0 0.0
000170 00 00 00 00 00 00 00 00 00 00 00 00 00 00 00 00
       0.0 0.0 0.0 0.0
000180 00 00 00 00 00 00 00 00 00 00 00 00 00 00 00 00
       0.0 0.0 0.0 0.0
000190 00 00 00 00 00 00 00 00 00 00 00 00 00 00 00 00
       0.0 0.0 0.0 0.0
0001a0 00 00 00 00 00 00 00 00 00 00 00 00 00 00 00 00
       0.0 0.0 0.0 0.0
0001b0 00 00 00 00 00 00 00 00 00 00 00 00 00 00 00 00
       0.0 0.0 0.0 0.0
0001c0 00 00 00 00 00 00 00 00 00 00 00 00 00 00 00 00
       0.0 0.0 0.0 0.0
0001d0 00 00 00 00 00 00 00 00 00 00 00 00 00 00 00 00
       0.0 0.0 0.0 0.0
0001e0 00 00 00 00 00 00 00 00 00 00 00 00 00 00 00 00
       0.0 0.0 0.0 0.0
0001f0 00 00 00 00 00 00 00 00 00 00 00 00 00 00 00 00
       0.0 0.0 0.0 0.0

network_body._body_endoder.seq_layers.0.weight f4 [128, 125]
000000 b5 bb db 39 2e 8c 04 3d f4 3a b2 bd 31 4c 94 3d
       0.00041910788 0.03236025 -0.08702651 0.07241095
000010 eb eb 77 bd 82 be f8 3c bc 80 dc 3d 7d 5e 13 3d
       -0.060527723 0.030364279 0.10766742 0.035978783
000020 53 ae ec bd 99 0b ad 3d db 47 0e 3c 11 75 40 3d
       -0.11556687 0.08449478 0.008684124 0.046986643
000030 67 66 a2 3d 2f b7 25 bd b8 65 1c bd 33 e4 ee bd
       0.07929688 -0.0404579 -0.038182944 -0.11664619
000040 6d c8 55 bd 21 67 3a bd 04 10 09 bd c7 38 c7 bd
       -0.052193094 -0.045508508 -0.03346254 -0.09727626
000050 f7 7a ab 3c b9 c1 96 3b b5 5b 4b be f0 be 09 3d
       0.020932658 0.0046007303 -0.19859202 0.033629358
000060 86 24 0e bd 3c 05 4a bd 56 0f 0d 3b a9 69 20 bd
       -0.0347028 -0.0493214 0.0021524034 -0.039163265
000070 71 6f 5b be b3 a1 be 3d db 43 80 bc 73 22 d2 3a
       -0.2142923 0.093081854 -0.015657356 0.0016031995
000080 87 06 ee 3c 1d b7 8a 3d 8b ba a8 bd 1b 7e 1b 3e
       0.029055847 0.06773207 -0.08238705 0.15184824
000090 38 c4 8a bd 51 b6 8a bd bf 7c 16 be 1d f5 24 3c
       -0.06775707 -0.06773055 -0.14696024 0.010068205
0000a0 18 62 a3 bc 54 ba be bc 21 4f 03 3e 28 ee 9c bd
       -0.019944236 -0.023282208 0.12823154 -0.07662612
0000b0 5b b6 25 bd 0c ea 91 3d 70 18 82 bb 33 1f 40 bd
       -0.04045711 0.07124719 -0.0039701983 -0.046904754
0000c0 ac b7 25 be 4a 83 89 3d 98 f5 52 3e 4f 0c 73 bd
       -0.16183347 0.067144945 0.20601499 -0.05933791
0000d0 28 f0 3e bc 2f f5 d4 bd 3f 64 b4 3d c1 f6 84 3d
       -0.011653937 -0.103983276 0.08808183 0.06492377
0000e0 70 43 85 3d 5b 5c c3 bc 91 c6 48 bd c6 72 5e bc
       0.06507003 -0.02384775 -0.049017493 -0.013577169
0000f0 e7 60 3b 3e b0 e8 25 bd eb b1 75 bd ff aa 6f be
       0.18298684 -0.04050511 -0.05998413 -0.23405074
000100 97 2f af bc 58 39 0c 3d 02 b7 46 3d c3 a4 05 3d
       -0.021384997 0.034234375 0.048514374 0.032627832
000110 7f e0 12 3d a4 84 ba 3d 6e 0c 8d 3d 47 af cc 3c
       0.035858627 0.091073304 0.068871364 0.024985923
000120 be 1c f2 bd 40 58 b9 bc 16 74 2b bd 44 12 64 3b
       -0.118218884 -0.022625089 -0.041858755 0.0034800926
000130 27 56 ca bc e2 27 11 3e ab 3b 7a bd 30 e2 93 3b
       -0.024699284 0.1417537 -0.06109206 0.0045130476
000140 7b 2b e9 bd b7 ec c1 3a 5f d1 6d 3c f5 2e b8 3b
       -0.11385246 0.0014795278 0.01451525 0.005620832
000150 ed dd 43 3b 6c 19 11 3e 51 34 b0 bd 2b 7e 40 b9
       0.0029886917 0.14169854 -0.086037286 -0.00018357548
000160 9c d2 63 3d d6 f2 17 be 1f 72 8c 3d 99 77 2a bd
       0.055620775 -0.14838728 0.06857704 -0.041617963
000170 1a a8 b1 bd 62 a8 2e bd 42 81 be 3c 84 50 e6 bd
       -0.08674641 -0.04264105 0.023254994 -0.11245826
000180 1e 14 c4 3c b2 96 c3 bc 3d 15 95 bc b6 a1 b8 3c
       0.023935374 -0.023875568 -0.018198604 0.022538047
000190 90 2b a7 bd f7 34 4d bd aa 03 9d 3c 68 bd d1 bc
       -0.08162606 -0.05009934 0.019166786 -0.025603011
0001a0 a7 2c fd 3c ac 3a 4a bd c6 d4 a5 3d 3a 3e af 3c
       0.030905081 -0.04937236 0.08097224 0.021391977
0001b0 32 b7 5a 3e b7 4d 40 3e 72 a2 69 bd 6f ac 03 be
       0.21358946 0.18779646 -0.057039686 -0.12858747
0001c0 c9 67 a2 3d 96 cf 5b 3c bf cb a5 3b fe e6 33 bc
       0.07929952 0.013416192 0.005059689 -0.010980366
0001d0 e1 c1 d5 bc 78 81 ba bc 69 ef 58 3e 12 d7 17 3e
       -0.026093425 -0.022766814 0.21185078 0.14828137
0001e0 8d 08 ab 3d 47 e2 81 bd 05 75 15 be a1 40 42 3c
       0.0835124 -0.06341987 -0.1459542 0.011856229
0001f0 fa d8 f3 3d 74 35 fb bd 26 f1 9b bd d3 7b 6b bd
       0.11906619 -0.12266055 -0.07614355 -0.057491135
000200 ec 3c 90 3c 43 fd 00 be 68 d1 36 3d 07 d5 b2 bc
       0.017607175 -0.12596612 0.0446333 -0.021830095
000210 1b 82 73 3d 28 ea 8a bd 77 8a b0 bc d1 98 c2 3d
       0.05945025 -0.06782943 -0.0215504 0.09501804
000220 7b 8a 34 3e 3e 20 17 bd 4d 21 a7 bd 0b 97 06 be
       0.17630951 -0.036895983 -0.081606485 -0.13143556
000230 a0 c8 55 3d 9f ee 42 3d 1c 8e 32 3c 8f 4e 16 bc
       0.052193284 0.047590848 0.010898139 -0.009174003
000240 1e 93 71 bd 4a 92 69 3d 7e af d4 bd 17 63 d9 3c
       -0.058978193 0.057024278 -0.10385035 0.026536508
000250 62 4d 90 3d 85 1d eb bc 75 ea 6d bc 99 3d c5 bd
       0.070460096 -0.0287006 -0.014521231 -0.096308894
000260 4f 94 d3 bd c4 e3 69 be f1 28 12 bd 2c 12 cd 3d
       -0.10331022 -0.22840792 -0.035683576 0.10013232
000270 d9 55 e0 bb ee f2 4e be 49 22 28 be 86 53 22 bd
       -0.0068461713 -0.20209858 -0.16419329 -0.039630435
000280 22 46 a5 3d a5 51 00 be 36 b7 45 bd 89 c7 86 bd
       0.080700174 -0.12531145 -0.048270427 -0.06581027
000290 98 7d 21 3d ab 14 36 3d 26 cc ce bd 5d a4 40 3d
       0.039426416 0.044453304 -0.10097532 0.04703175
0002a0 ff 41 b8 bc ec 74 38 bd 09 20 15 bc d1 e0 d5 3d
       -0.022492407 -0.04503338 -0.009101876 0.10443271
0002b0 f4 32 bf bc b0 1d 28 bd 2c 8d 0d be 76 08 54 3d
       -0.023339726 -0.041043937 -0.13823384 0.05176588
0002c0 c4 be 16 3d 3b 92 85 3d bb 36 fa 3d 94 ca 01 3e
       0.036803022 0.06522032 0.1221747 0.12674934
0002d0 e7 da 43 be 5e 47 a8 bd a5 c7 65 3d 22 83 11 be
       -0.19126473 -0.08216737 0.0560986 -0.1421018
0002e0 4a 55 c8 3d e7 2a ce 3a 2a 02 e1 3b d1 d8 32 be
       0.097818926 0.0015729339 0.006866713 -0.17465521
0002f0 16 13 88 3c a6 cf 19 3d f9 5c 8c bc 9c 06 8c bd
       0.016610663 0.037551545 -0.017134177 -0.06837198
000300 8d 61 8c bd bb d7 e3 bd fb f6 11 be 2e 9f af bd
       -0.06854544 -0.11125132 -0.14254372 -0.08575283
000310 96 c5 47 be 0b 60 44 3d c4 75 1f 3d bd 0e 96 3d
       -0.19508967 0.047943156 0.03893067 0.0732703
000320 ff dd 56 3d 3b 84 f7 3c 69 e3 e7 bd f9 98 00 bd
       0.052457806 0.03021442 -0.11322672 -0.031395886
000330 7b 5d 90 bd f8 be fa 3c ef 62 65 3d 68 ae 0e be
       -0.0704908 0.03060864 0.056002554 -0.13933718
000340 77 07 2a bd 91 f4 8a bd a2 3d 8d bd 7c bd 26 bd
       -0.041511025 -0.067849286 -0.06896521 -0.04070805
000350 35 e0 b7 bc 3b d0 9b 3d b0 f7 ef 3d 99 77 c1 3c
       -0.022445777 0.07608076 0.117171645 0.023616599
000360 50 40 46 bc 0c fb 66 3d ab 40 04 3e 08 cc b3 3d
       -0.012100294 0.05639176 0.12915294 0.0877915
000370 0d fe 4f 3d 5d ff 84 be 5a 58 72 3e f3 74 fa bc
       0.05077939 -0.25976077 0.23666516 -0.030573344
000380 84 e3 32 bd 27 25 2f bd 8e fb a8 bc 7d 8a 9f 3d
       -0.043674007 -0.04276004 -0.020627763 0.077900864
000390 2d 00 af 3c f0 4c 66 3c 7d b8 2e bd b9 3b 28 3d
       0.021362389 0.014056429 -0.04265641 0.04107258
0003a0 85 52 bb 3d 89 d7 72 3d fc 7d f3 3d dd 4e e6 3d
       0.09146599 0.05928758 0.11889264 0.11245511
0003b0 56 ee f5 3d ac 7d 3e 3d 2e 18 e5 bc f9 fc 19 be
       0.120083496 0.04650657 -0.027965631 -0.15037908
0003c0 ec 79 78 3d 3a c9 0b be ed b9 2f 3c e6 94 99 3d
       0.06066315 -0.1365098 0.0107254805 0.07499103
0003d0 46 12 ff bc 1d e6 a6 3b 4c e5 44 be 2d 66 3f 3d
       -0.031136643 0.0050933496 -0.19228095 0.0467283
0003e0 53 8b 7f 3d 09 df df 3c 1e f7 a5 bc b4 78 12 3c
       0.06238873 0.027328031 -0.020259436 0.008939911
0003f0 e7 aa dd 3d 93 c2 7e 3d 6a 75 10 b9 5b 9f b8 3c
       0.10823613 0.06219728 -0.0001377665 0.022536924

network_body._body_endoder.seq_layers.2.bias f4 [128]
000000 00 00 00 00 00 00 00 00 00 00 00 00 00 00 00 00
       0.0 0.0 0.0 0.0
000010 00 00 00 00 00 00 00 00 00 00 00 00 00 00 00 00
       0.0 0.0 0.0 0.0
000020 00 00 00 00 00 00 00 00 00 00 00 00 00 00 00 00
       0.0 0.0 0.0 0.0
000030 00 00 00 00 00 00 00 00 00 00 00 00 00 00 00 00
       0.0 0.0 0.0 0.0
000040 00 00 00 00 00 00 00 00 00 00 00 00 00 00 00 00
       0.0 0.0 0.0 0.0
000050 00 00 00 00 00 00 00 00 00 00 00 00 00 00 00 00
       0.0 0.0 0.0 0.0
000060 00 00 00 00 00 00 00 00 00 00 00 00 00 00 00 00
       0.0 0.0 0.0 0.0
000070 00 00 00 00 00 00 00 00 00 00 00 00 00 00 00 00
       0.0 0.0 0.0 0.0
000080 00 00 00 00 00 00 00 00 00 00 00 00 00 00 00 00
       0.0 0.0 0.0 0.0
000090 00 00 00 00 00 00 00 00 00 00 00 00 00 00 00 00
       0.0 0.0 0.0 0.0
0000a0 00 00 00 00 00 00 00 00 00 00 00 00 00 00 00 00
       0.0 0.0 0.0 0.0
0000b0 00 00 00 00 00 00 00 00 00 00 00 00 00 00 00 00
       0.0 0.0 0.0 0.0
0000c0 00 00 00 00 00 00 00 00 00 00 00 00 00 00 00 00
       0.0 0.0 0.0 0.0
0000d0 00 00 00 00 00 00 00 00 00 00 00 00 00 00 00 00
       0.0 0.0 0.0 0.0
0000e0 00 00 00 00 00 00 00 00 00 00 00 00 00 00 00 00
       0.0 0.0 0.0 0.0
0000f0 00 00 00 00 00 00 00 00 00 00 00 00 00 00 00 00
       0.0 0.0 0.0 0.0
000100 00 00 00 00 00 00 00 00 00 00 00 00 00 00 00 00
       0.0 0.0 0.0 0.0
000110 00 00 00 00 00 00 00 00 00 00 00 00 00 00 00 00
       0.0 0.0 0.0 0.0
000120 00 00 00 00 00 00 00 00 00 00 00 00 00 00 00 00
       0.0 0.0 0.0 0.0
000130 00 00 00 00 00 00 00 00 00 00 00 00 00 00 00 00
       0.0 0.0 0.0 0.0
000140 00 00 00 00 00 00 00 00 00 00 00 00 00 00 00 00
       0.0 0.0 0.0 0.0
000150 00 00 00 00 00 00 00 00 00 00 00 00 00 00 00 00
       0.0 0.0 0.0 0.0
000160 00 00 00 00 00 00 00 00 00 00 00 00 00 00 00 00
       0.0 0.0 0.0 0.0
000170 00 00 00 00 00 00 00 00 00 00 00 00 00 00 00 00
       0.0 0.0 0.0 0.0
000180 00 00 00 00 00 00 00 00 00 00 00 00 00 00 00 00
       0.0 0.0 0.0 0.0
000190 00 00 00 00 00 00 00 00 00 00 00 00 00 00 00 00
       0.0 0.0 0.0 0.0
0001a0 00 00 00 00 00 00 00 00 00 00 00 00 00 00 00 00
       0.0 0.0 0.0 0.0
0001b0 00 00 00 00 00 00 00 00 00 00 00 00 00 00 00 00
       0.0 0.0 0.0 0.0
0001c0 00 00 00 00 00 00 00 00 00 00 00 00 00 00 00 00
       0.0 0.0 0.0 0.0
0001d0 00 00 00 00 00 00 00 00 00 00 00 00 00 00 00 00
       0.0 0.0 0.0 0.0
0001e0 00 00 00 00 00 00 00 00 00 00 00 00 00 00 00 00
       0.0 0.0 0.0 0.0
0001f0 00 00 00 00 00 00 00 00 00 00 00 00 00 00 00 00
       0.0 0.0 0.0 0.0

network_body._body_endoder.seq_layers.2.weight f4 [128, 128]
000000 50 ea 37 3a ab 1d 94 bd cb 09 38 bd ff c7 1a be
       0.0007015811 -0.07232221 -0.044931214 -0.15115355
000010 e2 4e d1 3d 49 82 72 bc 1e 62 d3 bd f8 e1 96 3d
       0.10220124 -0.01480157 -0.10321449 0.07367319
000020 80 cd 92 3d 27 84 f5 bc 63 65 70 3d 35 89 db 3c
       0.07168102 -0.029970242 0.05869044 0.026798824
000030 02 2c 1a bc ad eb 1e 3e 62 eb ad bd d5 12 12 bd
       -0.009409906 0.1551959 -0.08492161 -0.03566249
000040 ee aa 14 3e fa 09 9a 3c 82 6e 46 3e 71 d0 09 3e
       0.1451833 0.018803585 0.19378093 0.1345842
000050 2d c9 ac 3c 92 78 92 3c 41 68 91 3d 7f 8c 8b bd
       0.021092022 0.017879758 0.07099963 -0.06813907
000060 c7 25 9d 3d c9 5f 9c bc 20 42 b6 3d 1f fa f3 bd
       0.07673221 -0.019088643 0.08899331 -0.11912941
000070 64 ea aa bd 6a 45 08 3e 65 9d 6b bb 74 ef 5c bd
       -0.08345488 0.1330773 -0.0035951969 -0.053939298
000080 ad e2 4a bd e3 ec 87 bd 39 5f b5 bd f7 83 22 3c
       -0.04953258 -0.066369794 -0.08856053 0.009919158
000090 c9 28 9c 3d e9 1d 01 bd 4b 0a 29 bd 8f aa af 3b
       0.07624967 -0.031522665 -0.04126958 0.0053609083
0000a0 9f 6b 08 bd 1b 59 89 bd 20 2e 79 3d 37 cd c3 3c
       -0.03330576 -0.06706449 0.060835004 0.023901565
0000b0 c1 57 a6 3c 27 7f 5d 3c 20 d1 f0 bd d6 cb 51 3d
       0.020305516 0.013519085 -0.117586374 0.051219784
0000c0 d6 04 25 be 5a 4e b8 bd 86 61 d1 bc 8a 87 72 bc
       -0.16115126 -0.089993194 -0.025559198 -0.014802823
0000d0 02 05 a0 bd 44 1e 0d bd 8e 4e 08 3d 1f 8a 6d bd
       -0.07813455 -0.03445269 0.03327804 -0.05799305
0000e0 f4 03 18 bd f7 98 2a 3c 36 3e 0e 3c 0e 11 c1 3c
       -0.037113145 0.010412446 0.008681824 0.023567703
0000f0 26 17 9c 3d 18 e8 f8 bc ce 52 14 3e ef f0 8d bd
       0.07621603 -0.030384108 0.14484712 -0.0693072
000100 03 df d7 3d d5 e4 d1 3c 19 a8 11 bc dc 2d 7a 3d
       0.10540583 0.02562181 -0.008890175 0.06107889
000110 23 28 04 be 25 87 49 3d 3c b5 34 3d ee 39 c6 bd
       -0.12905936 0.04920115 0.04411815 -0.09679018
000120 90 f2 47 bd 9d 06 81 3d 45 3b 33 3d 8f 17 d6 3b
       -0.04881531 0.063000895 0.043757696 0.00653357
000130 0f 12 64 3c 2e cd eb bc d3 0c 44 3b 31 b9 69 bc
       0.013920321 -0.02878436 0.002991487 -0.0142653445
000140 35 3a 53 bd 9a 25 13 3e e3 4f a4 3b 4c 95 db bd
       -0.051569182 0.14369813 0.005014406 -0.107218355
000150 5b b3 32 bd 5e 54 0b 3e 43 a9 26 3e b3 29 95 3d
       -0.043628078 0.13606402 0.16275506 0.07283344
000160 09 e8 a5 3d ad a6 a5 bd b9 e7 2d be ad ee f1 3d
       0.08100898 -0.080884315 -0.16982926 0.11813102
000170 b9 0a 01 3e 2e 1a 48 3e 6a 63 87 bd e2 0a cf bb
       0.12601747 0.19541237 -0.066107586 -0.006318436
000180 b0 5e 13 bd d3 a8 3d be 65 4c 19 be 2d d3 ba 3d
       -0.035978973 -0.18521433 -0.14970548 0.0912231
000190 36 d2 17 3d 20 92 26 3e 5b 52 72 bb dc 41 1a 3d
       0.037065707 0.1626668 -0.0036975357 0.037660465
0001a0 65 92 5f 39 2b e5 41 3d a6 2e a3 3d 7b 7b 00 3e
       0.00021321473 0.047337692 0.07967882 0.12547104
0001b0 42 3e 25 3c 24 a7 7b be dd 6d c2 bc 52 ae 2c bd
       0.010085644 -0.24575478 -0.023734028 -0.042158432
0001c0 42 b9 23 be e4 c8 71 3c 49 57 b6 3d 03 09 2c 3d
       -0.15988639 0.014757369 0.08903367 0.04200078
0001d0 a2 e7 31 3d b6 b9 a5 3d 63 cc b7 3c bd 1a 84 bd
       0.043433793 0.08092062 0.022436326 -0.064504124
0001e0 f9 fc 94 bd 7d 6b b1 bd 44 4f ac 3d ae fa 38 3d
       -0.07274813 -0.0866308 0.08413556 0.04516094
0001f0 7f 8c 3c be d1 5a f1 3d e9 4d 08 3d e7 5f 96 bd
       -0.1841297 0.117849 0.033277426 -0.07342511
000200 13 ad b5 ba 0e 96 59 be 52 cf 9d 3c 34 0c b4 3c
       -0.0013860784 -0.21248648 0.019263897 0.021978475
000210 3d 34 68 3e 27 2a 3a bd f4 45 b0 3d 0f d3 16 3d
       0.22676177 -0.045450356 0.086070925 0.036822375
000220 5a 0b 25 3d aa 6d bc bd 07 4a 1a 3c af 28 07 3e
       0.04029403 -0.09200604 0.009417064 0.13199113
000230 8a 73 89 3d 76 f4 ad bc 80 2f b9 bb 48 aa ba bd
       0.067114905 -0.021234732 -0.0056514144 -0.0911451
000240 57 f6 25 3e e1 c7 f7 bd 31 67 2b 3c e8 7c 54 bd
       0.16207252 -0.12098671 0.0104616145 -0.051876932
000250 ba 39 df 3d ef a8 5e bc d5 98 7f bd db 3c 1f 3e
       0.10899682 -0.013590082 -0.06240161 0.15550558
000260 d1 b8 b1 3d eb 7f 91 bd b2 73 1e bd 54 89 4f 3e
       0.08677829 -0.071044765 -0.038684554 0.2026723
000270 bc f8 85 3d 42 bf c1 3c 05 6c 57 3d 7f d6 78 3c
       0.06541583 0.02365077 0.05259325 0.015187859
000280 2a af 0c 3d 30 d3 ef 3b 4f bd c2 bd 70 25 dd 3d
       0.034346737 0.0073188767 -0.09508764 0.10798156
000290 af 44 b8 3d f7 d4 05 3d 8f f3 91 bc 8d 14 51 3c
       0.08997475 0.032673802 -0.017816333 0.012761247
0002a0 3b 1c e3 bd 96 95 fa 3c b2 99 90 be ea 77 a2 bd
       -0.11089369 0.030588906 -0.2824226 -0.07933028
0002b0 06 94 f4 bd b9 e6 18 bd e3 4c 18 3c f1 61 1d bc
       -0.11942296 -0.03732941 0.009295675 -0.009605871
0002c0 16 bc a3 bd 0e 44 b2 3d d1 88 27 3c 1f 45 ca bd
       -0.07994859 0.08704387 0.010225491 -0.09876465
0002d0 32 3a 33 be 58 1e 60 3d 71 94 ca bd 0e 14 c3 3d
       -0.17502668 0.054716438 -0.09891594 0.095253095
0002e0 f8 a4 98 3d f0 64 2e bd 37 74 8c 3d d8 1e 92 3b
       0.0745334 -0.04257673 0.06858104 0.0044592433
0002f0 a1 eb ea 3d ca af 64 bc eb f5 f4 3b 45 13 92 bd
       0.11470724 -0.013957927 0.007475605 -0.071325816
000300 94 3b 44 3e 4f c8 8c 3d 97 79 b4 bd 3b 76 e6 bc
       0.19163352 0.06874143 -0.08812254 -0.028132549
000310 2e 7e 81 3d 0a c5 d8 3d ad f5 e1 bc 83 19 00 3e
       0.06322895 0.10584457 -0.027582968 0.12509732
000320 c6 57 96 bd f7 18 17 3d ca c5 35 3e 4a 8e a5 bc
       -0.0734096 0.036889043 0.17751232 -0.02020945
000330 0e 3d d4 bc ff 20 17 3e 50 29 e6 3d 1b 10 d7 bd
       -0.02590802 0.14758681 0.112383485 -0.10501119
000340 e8 d4 1f 3e 80 f9 13 3d 45 9b 03 3d 39 b3 94 3d
       0.15608561 0.036126614 0.0321305 0.072607465
000350 99 04 76 3b 91 8a 39 3d 4d 13 05 3d 7e 51 b6 bc
       0.0037539362 0.045298163 0.03248911 -0.022255655
000360 c7 b8 ac 3c 04 94 03 be 52 44 f5 3d 4d 1d b9 bb
       0.021084202 -0.12849432 0.11975922 -0.005649245
000370 35 f7 8f bd d2 c2 8e 3c db 88 84 bd 0f f7 85 bd
       -0.07029573 0.017426882 -0.064714156 -0.06541263
000380 49 bd bb bd 20 ee 17 bc 2a 61 aa bd 2f a6 5b 3d
       -0.09166963 -0.009273082 -0.08319314 0.053625282
000390 5a c8 8a bd 36 91 c7 3d 0b d6 13 3e ac aa dc bd
       -0.06776495 0.09744494 0.1443712 -0.107747406
0003a0 fc 6c 7c bd 44 6e 88 3b 0f 6e a8 bc c8 4f 50 bd
       -0.061627373 0.0041635353 -0.020560293 -0.050857335
0003b0 7a 8a cb bc 91 20 98 3d b2 01 d8 bd 50 28 08 be
       -0.024846304 0.074280865 -0.10547198 -0.13296628
0003c0 65 14 85 3d 9e 15 cb bd 8c 91 b0 3c 24 01 4e bd
       0.064980306 -0.099162325 0.021553777 -0.050294057
0003d0 13 ce ad 3d 3f 3e 75 3d e9 d6 4a 3e 64 4c 1d 3d
       0.08486571 0.059873816 0.19808544 0.03840293
0003e0 93 d0 dd bc 7a ed 60 bd 1c 38 9d 3d fb 88 39 3d
       -0.027076995 -0.054913975 0.07676718 0.04529665
0003f0 73 58 46 bd f7 96 9b 3a 76 ec 07 bd 5f 4e f1 3c
       -0.048424195 0.0011870553 -0.03318449 0.029456316
