results/FoodTarget_imitation_4/AgentPlayer/AgentPlayer-6259.pt (torch, 300367 bytes, 12 tensors)

network_body._body_endoder.seq_layers.0.weight f4 [128, 144]
00000000: 57b8 c7bd 48cb 383d 8bd0 4dbd 9718 57be
00000010: 03ba e13d def4 c83d 0d4e 243d e8d0 db3d
00000020: 8a87 1e3d b30b c6bd 30b4 aabc 0a30 3e3d
00000030: e8fd 37be b6ac c1bd 32f1 bbbc 368d b73d
00000040: bc3a 143d a848 a53d 9779 c73c 8ccc 9fbb
00000050: 9a27 b53c 4715 413c 9076 1c3e ebe4 463d
00000060: 9e84 843d f610 b8bc cf78 3cbd 9448 48bd
00000070: 1f4f 073d ae94 3ebd 6243 ffbd c126 92bd
00000080: 6add b13d 86bd 71bd ae0b 6ebd 3cec c23c
00000090: 204f c93d ed82 9fbd 377a 473e fcc1 253e
000000a0: c210 04bd 3342 37bd 0e1f 27bd 9336 ae3c
000000b0: 1a03 5e3b 6fb1 3bbd 5664 ddbc 1e68 21be
000000c0: 08f2 c7bd 93a9 eb3d aedb ee3d 443b d6bd
000000d0: fe30 7abd e712 6bbd 10c3 06be 7450 ca3d
000000e0: 6515 05be 7bf5 2c3d b8e2 68be bd9e 22be
000000f0: 7f3a 50bc 5d46 a1bc e67d 803d 9b1a acbd
00000100: d0cb 0b3d 3653 e1bd 1ac0 903d b8b8 69bd
00000110: fb7c 623e edc5 a2bd b223 843d 0eea af3c
00000120: f19c 903d 0b3e 013c 0b57 fc3b 14b4 e43d
00000130: fe6c 68bd 8076 2cba 7429 acbc 3458 bd3d
00000140: 2efb 0b3d bdad 1abe 0085 b5bd 6f0c 9ebd
00000150: dd93 05bd 8de1 1cbd 0a2c 033d 58a9 00be
00000160: a6f9 b7bc cb59 efbb 0024 20bd a848 b1bd
00000170: 3c04 d0bc 1702 d13d 3c92 ebbc 9ccd 97bd
00000180: e3d2 55bd 2c74 933d 4664 b33c 9012 4e3e
00000190: eea5 61bd 23e3 633d 514a 843d 4e4a 533c
000001a0: ca34 a53d 065d 6b3d db75 2cbb aa6a 89bb
000001b0: ffc5 c7bc a75a c7bd 23f7 5f3e ab2b 703d
000001c0: 0024 11bd 304e dfbc 4812 c9bd 34eb 5f3d
000001d0: 3e45 35bc 5cf5 4ebd 78ff f93d 5045 373d
000001e0: a9c6 a53d 7214 cbba 6f59 fdbc 0f1c 4cbb
000001f0: 7a04 933d acdc 03bc 54b6 44be 5ca9 063e
00000200: 8262 093c 0b1e 50bd fa67 3dbd 6ea7 163e
00000210: 4a15 89bc 9b16 d63c 3b48 34bd 6ee6 c8bd
00000220: 3064 323e a016 a5bd 8776 d83d aec8 e93b
00000230: 5c85 bb3c e6ba 00be cd7d a3bd 8292 04be
00000240: 18b1 c93d cbf4 813d d69b 0c3d 69f6 99bc
00000250: 470a 48bd 280e 30be 5028 75bc 92da 1c3c
00000260: 8c01 23bd b63f d43c aee5 e7bd b3d5 c0bd
00000270: afd4 143d 8a5c 4c3d 532e 713c c80d e2bc
00000280: 36b1 7e3c ea7c 5a3d f340 be3d d751 2dbd
00000290: 43ae 3dbd 044c d03d 9527 833b a4bb 0fbd
000002a0: af00 67bd 1612 873c b6de 51be a297 d0bd
000002b0: 4c41 173d c421 633d 4222 debd a39a 353c
000002c0: ce6c acbc a089 9bbd 7ca0 173d 229a e13d
000002d0: cc46 64bc 9902 243d 02ba 33bc 9b48 1a3d
000002e0: cbf4 49be aedb 7cbb 2785 a0bd 00b8 ffbc
000002f0: 8aa3 d1bd 83c7 b23c 2e2d 023e 92e9 953c
00000300: 9832 1d3d 2a3f b4bd dcd7 883d e649 803e
00000310: a350 183c 47f8 0abd fe72 f4bc 9d07 aabd
00000320: 6fba cc3b d0e2 9c3d e0b5 143e 87bd a0bd
00000330: 6316 30bd a29b 583d c818 733d d0f2 823d
00000340: 8643 d5bc e1ef 073e 956a a5bc d784 ec3c
00000350: 36f3 e0bc be7c 72bd ce02 e4bd 2b2e 913c
00000360: b068 c8bd 927c 6c3c 3910 19bc b885 cc3c
00000370: 1e5e adbc 02ef 41bd 1734 cf3d fe49 6dbd
00000380: 784c d23d 2692 0d3b e2d0 573d 645f 913d
00000390: 77d3 383e 6b78 16be 2ac3 313c aeb5 80bd
000003a0: 3191 203d 4ad5 f03c 5e6f 433d 67fb c83d
000003b0: 776b 363d 78a6 05bc 1f30 133e fa89 623d
000003c0: e4bf 03be d02a 373c 0f64 e0bc 5950 943d
000003d0: 2e6d c43d b3db ef3d 23d0 c2bd 5f6a d8bd
000003e0: ff66 613c a322 a13d 0782 c43b 0e66 19be
000003f0: 94c3 ee3d 122a 84be 0cd4 00be 3247 3b3d
-0.09751957 0.04511574 -0.05024771 -0.21005474 0.11021807 0.0981233 0.040113498 0.10733205
0.03870348 -0.096702 -0.020837873 0.046432532 -0.17967951 -0.0945677 -0.02294216 0.08962481
0.036188826 0.08070499 0.02434997 -0.004876679 0.02211361 0.011784858 0.15279603 0.048558157
0.06470607 -0.022469025 -0.04601365 -0.04889734 0.03303444 -0.04652851 -0.12464024 -0.07136298
0.086848095 -0.059018634 -0.058116607 0.023794286 0.09829545 -0.07788644 0.19480215 0.1618728
-0.032242544 -0.044740867 -0.0408011 0.021266257 0.003387636 -0.04582351 -0.027025383 -0.15762374
-0.09762961 0.11506953 0.11662994 -0.10460523 -0.06108188 -0.057391074 -0.13160348 0.098786265
-0.12996443 0.042226296 -0.22742736 -0.15880866 -0.012709259 -0.019686872 0.06274013 -0.08403512
0.034129918 -0.11002199 0.070678905 -0.057060927 0.22117989 -0.079479076 0.06452121 0.02147391
0.07061184 0.007888327 0.007700806 0.1116716 -0.056744568 -0.0006578937 -0.02101586 0.09245339
0.03417509 -0.15105338 -0.08863258 -0.07717215 -0.032611717 -0.03830104 0.03202442 -0.125646
-0.022457909 -0.0073044053 -0.039096832 -0.08656436 -0.025392644 0.10205477 -0.028756253 -0.07412264
-0.05220307 0.071998924 0.0218984 0.20124269 -0.055089884 0.055636536 0.06459487 0.012896134
0.08066709 0.05746176 -0.0026315365 -0.0041936236 -0.024386404 -0.097340874 0.21871619 0.058635395
-0.035434723 -0.027258962 -0.0981794 0.054667667 -0.011063872 -0.05052696 0.1220693 0.044743836
0.08094532 -0.0015493764 -0.030926434 -0.0031144654 0.07178588 -0.008048218 -0.19210178 0.13150543
0.0083853025 -0.0508099 -0.046241738 0.14712307 -0.016733784 0.026133826 -0.044014197 -0.09809576
0.17421031 -0.08060956 0.10569482 0.0071345186 0.02289074 -0.12571296 -0.07982979 -0.12946513
0.09848231 0.06345519 0.034328304 -0.018794255 -0.048837926 -0.171929 -0.0149632245 0.009573596
-0.039796397 0.025909286 -0.11323105 -0.0941576 0.036335643 0.04989294 0.014720517 -0.027594462
0.01554518 0.053341784 0.09289732 -0.042314377 -0.046308767 0.10170749 0.0040025213 -0.035091057
-0.056397136 0.016488116 -0.20495114 -0.10185172 0.036927506 0.055452123 -0.10846378 0.011084232
-0.021047976 -0.07594609 0.037018284 0.110157266 -0.013932895 0.04004154 -0.010969641 0.0376669
-0.19722287 -0.0038583088 -0.07837897 -0.031215668 -0.10236271 0.02182365 0.12712547 0.018299852
0.038378328 -0.0880111 0.06681797 0.2505638 0.009296569 -0.033928182 -0.029839989 -0.08302233
0.0062478106 0.076604486 0.14522505 -0.078486495 -0.0429901 0.052882798 0.059349805 0.06393969
-0.026033174 0.132751 -0.020192424 0.028871937 -0.027459722 -0.059200995 -0.111333475 0.01772221
-0.097855926 0.014433997 -0.009342247 0.024966106 -0.021163043 -0.047347076 0.10117357 -0.057931893
0.102684915 0.0021602004 0.05268944 0.070982724 0.18049417 -0.14694373 0.010849753 -0.06284653
0.039200965 0.02939858 0.04771363 0.09813576 0.04453608 -0.008157365 0.14373825 0.055307366
-0.12866169 0.011179641 -0.027391462 0.072418876 0.09591137 0.11711826 -0.09512355 -0.10567164
0.013757466 0.078679346 0.005996946 -0.14980337 0.11658397 -0.25813347 -0.1258089 0.045722194

network_body._body_endoder.seq_layers.0.bias f4 [128]
00000000: 0000 0000 0000 0000 0000 0000 0000 0000
00000010: 0000 0000 0000 0000 0000 0000 0000 0000
00000020: 0000 0000 0000 0000 0000 0000 0000 0000
00000030: 0000 0000 0000 0000 0000 0000 0000 0000
00000040: 0000 0000 0000 0000 0000 0000 0000 0000
00000050: 0000 0000 0000 0000 0000 0000 0000 0000
00000060: 0000 0000 0000 0000 0000 0000 0000 0000
00000070: 0000 0000 0000 0000 0000 0000 0000 0000
00000080: 0000 0000 0000 0000 0000 0000 0000 0000
00000090: 0000 0000 0000 0000 0000 0000 0000 0000
000000a0: 0000 0000 0000 0000 0000 0000 0000 0000
000000b0: 0000 0000 0000 0000 0000 0000 0000 0000
000000c0: 0000 0000 0000 0000 0000 0000 0000 0000
000000d0: 0000 0000 0000 0000 0000 0000 0000 0000
000000e0: 0000 0000 0000 0000 0000 0000 0000 0000
000000f0: 0000 0000 0000 0000 0000 0000 0000 0000
00000100: 0000 0000 0000 0000 0000 0000 0000 0000
00000110: 0000 0000 0000 0000 0000 0000 0000 0000
00000120: 0000 0000 0000 0000 0000 0000 0000 0000
00000130: 0000 0000 0000 0000 0000 0000 0000 0000
00000140: 0000 0000 0000 0000 0000 0000 0000 0000
00000150: 0000 0000 0000 0000 0000 0000 0000 0000
00000160: 0000 0000 0000 0000 0000 0000 0000 0000
00000170: 0000 0000 0000 0000 0000 0000 0000 0000
00000180: 0000 0000 0000 0000 0000 0000 0000 0000
00000190: 0000 0000 0000 0000 0000 0000 0000 0000
000001a0: 0000 0000 0000 0000 0000 0000 0000 0000
000001b0: 0000 0000 0000 0000 0000 0000 0000 0000
000001c0: 0000 0000 0000 0000 0000 0000 0000 0000
000001d0: 0000 0000 0000 0000 0000 0000 0000 0000
000001e0: 0000 0000 0000 0000 0000 0000 0000 0000
000001f0: 0000 0000 0000 0000 0000 0000 0000 0000
0.0 0.0 0.0 0.0 0.0 0.0 0.0 0.0
0.0 0.0 0.0 0.0 0.0 0.0 0.0 0.0
0.0 0.0 0.0 0.0 0.0 0.0 0.0 0.0
0.0 0.0 0.0 0.0 0.0 0.0 0.0 0.0
0.0 0.0 0.0 0.0 0.0 0.0 0.0 0.0
0.0 0.0 0.0 0.0 0.0 0.0 0.0 0.0
0.0 0.0 0.0 0.0 0.0 0.0 0.0 0.0
0.0 0.0 0.0 0.0 0.0 0.0 0.0 0.0
0.0 0.0 0.0 0.0 0.0 0.0 0.0 0.0
0.0 0.0 0.0 0.0 0.0 0.0 0.0 0.0
0.0 0.0 0.0 0.0 0.0 0.0 0.0 0.0
0.0 0.0 0.0 0.0 0.0 0.0 0.0 0.0
0.0 0.0 0.0 0.0 0.0 0.0 0.0 0.0
0.0 0.0 0.0 0.0 0.0 0.0 0.0 0.0
0.0 0.0 0.0 0.0 0.0 0.0 0.0 0.0
0.0 0.0 0.0 0.0 0.0 0.0 0.0 0.0

network_body._body_endoder.seq_layers.2.weight f4 [128, 128]
00000000: edb5 68bd 77d0 d4bb 8d4a 1e3c ef6a aa3d
00000010: 503d ffbc e57f 8bbd fa87 873d fbf4 0d3d
00000020: 079d 883d 8ba2 f9bd 455f 8ebd 272f 473d
00000030: 8a88 fa3d 3e21 3abe 5cda 4fbd e561 4e3d
00000040: 4498 ddbd d278 733e 30be e53c a462 943d
00000050: 5bea 183e dbb4 883d c4a2 86bc b57a 9cbd
00000060: c419 d4bc 2e9f 7cbb 3364 45bd 906b 2abe
00000070: 2921 523d 2190 d3bd b72c 253d 2153 063e
00000080: c69e 60bd f2fd 84bc 3c51 ccbd 1b9f e8bc
00000090: 48e2 cb3c 32c4 cc3d e2f9 68bb 04b1 553b
000000a0: 2ae0 1e3a 3737 0abe 40c1 b3bd 7309 473d
000000b0: 4eea c53c c2e9 dfbd f492 2fbc 654f 64bd
000000c0: 97c5 f13d a3cb 623d 69b6 ca3c edbb 343d
000000d0: a4ba 993d 58b7 da3d 4df8 b43d 0c81 a33c
000000e0: e64e 0abd 9d9d 5b3d 6a0e f7bd eda3 8e3d
000000f0: c81f 993c cedc 9cbc 7e4e c33d 8754 11be
00000100: c737 35be bb58 77bd 1caf e4bd defa a9bd
00000110: 04f6 53be 5064 bdbc 06bd a43d 2fed ee3d
00000120: 31c0 84bd bd0a 143c bc34 0bbe a30b a3bc
00000130: 5a49 9bbd c089 bfbd b195 333e d8ab a6bd
00000140: c814 623c f0cf a13d dd54 2d38 7548 f8bd
00000150: 8636 383d 2567 ca3d 2250 e53c 22f2 acbd
00000160: b95e 05be 9bc8 53bd e6b7 9ebd f21b 9c3c
00000170: f0dc 89bd 768e 05bd a2fc ac3c d0f6 3abe
00000180: 4f78 e5bd 5d1d a13d e675 37bd cebe 0e3d
00000190: 8b41 0c3e 4422 38bd b5be 66bc 3a7d 09bd
000001a0: 4a0c e6bb 4c19 94bd 1a59 04bd 6896 40be
000001b0: 4e6a 803d abad 8c3c a1a7 1cbd 65b4 ed3d
000001c0: 1387 de3d b199 0a3d 5060 0fbb a08a a43c
000001d0: 9055 1abe bde7 bd3c fda8 bdbc 740a 023d
000001e0: 4e51 d7bd 6ca9 ef3d 7b55 973c 7569 693d
000001f0: 8e4f 9fbd c6a0 68bd 9ef8 813d 852e 623d
00000200: e5b0 91ba 0ed1 5ebd 0fb9 22bd cc41 febc
00000210: c1c1 223d 29ba fd3a f553 a23d 10d5 913d
00000220: 5e48 573c d075 34bc 043c c83c 0ec9 033e
00000230: d125 cf3a 9235 e93c c4d9 d5bd f00f 303c
00000240: a2c2 7fbd e85a 0d3d 0f32 23be 2e07 2f3d
00000250: 641f 8f3d 1520 bcbb fc7f 8b3c 9e45 83bb
00000260: a91c 8bbd c4bc 11bd dfe8 8f3c 1a40 bfbd
00000270: e633 563e 4ed0 b93d 643e 1b3e 074d a63d
00000280: a1ec 80be 5b43 0dbe 7115 663d c15b 1b3d
00000290: f906 bf3d 356b 3bbd 1c53 f73d f416 06bd
000002a0: f6b9 59bd 51bb 61bd c5c0 e2bc 0998 173d
000002b0: 6a68 233d 426c d83c 3496 373d 35fa 203e
000002c0: 3559 b7bd 0bbd 10be bc59 96bd 09de c23d
000002d0: 6cd4 6cbc 58c9 e93d 7f10 24bd 32a0 9f3d
000002e0: fb41 ef3d f36a 62bc 6f5c 7b3e ac93 ad3d
000002f0: e752 943c bc36 13be d3b1 a63d dc4c 353b
00000300: edbd abbd 5970 d2bc 7865 37be d5e8 3bbc
00000310: ecb8 44bd 724d ca3d 520d de3c b598 3a3d
00000320: bd33 213e 2de7 d03d 0eab b9bd 11da 993d
00000330: d035 933d 730d 11be 8fd0 1b3d 565f a2bd
00000340: 9bdd e43c f299 28bd 07cf 4f3c cf73 793d
00000350: 64cc d73d abf3 c0bb 9a3c 223e 3cb4 833d
00000360: ad19 35bd 6995 13be 1ef7 5b3d f4d6 ee3c
00000370: ba65 9a3d 6a6a 20be f0b2 753d 6543 da3d
00000380: bd4d 103d 5f86 ccbd da60 4ebc a989 2c3d
00000390: 573c 5e3d 3c3d 6d3d 6763 da3d 5074 113c
000003a0: 2377 fa3c 3e0e 8f3b bb27 ee3c a876 d3bb
000003b0: d41b 92bd 81c3 133d c1b7 613e 3b50 10be
000003c0: b650 1ebe 94f4 bbbc 7a6c f53d 1669 713d
000003d0: f80f 23be 53b3 973c f11a ed3b fdaf 98bd
000003e0: 2a10 b3bd ff67 05be 4d05 69bd 9abe 093e
000003f0: bf48 a33c 8a25 113d f922 1abd 310f 4ebe
-0.056814123 -0.0064945775 0.009661329 0.08321177 -0.031157166 -0.06811503 0.06617732 0.03465746
0.066705756 -0.12189206 -0.06951765 0.048628952 0.12233074 -0.18176743 -0.050745353 0.05038633
-0.10820058 0.23776558 0.02804479 0.07245377 0.1493315 0.066751204 -0.016435035 -0.07640592
-0.025891192 -0.0038547027 -0.04819126 -0.16642594 0.051301155 -0.10330225 0.040325847 0.13117649
-0.05483892 -0.016234372 -0.09976432 -0.02839618 0.024888173 0.09998359 -0.0035549332 0.003260673
0.0006060625 -0.13497625 -0.08777094 0.048592996 0.024159577 -0.10933258 -0.010716189 -0.05573978
0.118052654 0.055369984 0.024745183 0.044124532 0.07506302 0.10679501 0.08836422 0.019958995
-0.03376665 0.05361711 -0.12063296 0.0696486 0.018691912 -0.019148257 0.095364556 -0.14192401
-0.17697059 -0.060387354 -0.11166212 -0.08299802 -0.20699316 -0.023119122 0.08043866 0.11666333
-0.0648197 0.009035763 -0.13594335 -0.01990301 -0.0758235 -0.093524456 0.17537571 -0.08138245
0.0137989 0.07900989 4.132545e-05 -0.12123195 0.044973873 0.098829545 0.027992312 -0.08444621
-0.13024415 -0.051704984 -0.077499196 0.019056294 -0.067315936 -0.032606564 0.021116558 -0.18258214
-0.11204588 0.07866929 -0.04479017 0.034849934 0.13696878 -0.044954553 -0.014083554 -0.03356669
-0.007020508 -0.072313875 -0.032311536 -0.18807375 0.06270276 0.017172655 -0.0382458 0.11606673
0.10865607 0.033837978 -0.0021877475 0.020085633 -0.15071702 0.02318179 -0.023151869 0.03174825
-0.105135545 0.117022365 0.018473377 0.056985337 -0.07778846 -0.05679395 0.06346248 0.055220146
-0.0011115341 -0.05439859 -0.039727267 -0.031037234 0.03973556 0.0019357848 0.0792617 0.071207166
0.013139812 -0.011014417 0.02444268 0.12869665 0.0015804117 0.028467927 -0.10441926 0.010745987
-0.062441476 0.034510523 -0.15937065 0.042731456 0.06988409 -0.005741129 0.017028801 -0.0040061017
-0.06792576 -0.03558041 0.017567096 -0.09338398 0.20918235 0.09072934 0.15160519 0.081201605
-0.25180534 -0.13795225 0.056172792 0.0379293 0.09327502 -0.045756537 0.12076399 -0.032736734
-0.05315586 -0.05511028 -0.02767981 0.037010226 0.0398945 0.026418809 0.04482098 0.15720446
-0.08952562 -0.14134614 -0.07341334 0.09515006 -0.014454942 0.114153564 -0.040054794 0.07794227
0.11682507 -0.013819444 0.2454698 0.08475432 0.018105937 -0.14376348 0.08139386 0.002766422
-0.08385835 -0.025688337 -0.17909801 -0.011469086 -0.048027918 0.09878053 0.027105961 0.04555579
0.15742393 0.10200343 -0.09065829 0.07512296 0.07187998 -0.14165287 0.038040694 -0.0792834
0.027937701 -0.04116244 0.0126836365 0.06090146 0.10537031 -0.0058884225 0.1584343 0.06430861
-0.04421394 -0.14412464 0.053702466 0.029155232 0.07538934 -0.15665594 0.0599851 0.10657386
0.035230387 -0.09986567 -0.012596333 0.04212347 0.054256763 0.057919726 0.10663491 0.008877829
0.030574387 0.0043657115 0.02907168 -0.006453354 -0.07134214 0.03607512 0.22042753 -0.14093105
-0.15460476 -0.022943772 0.11983581 0.05893811 -0.1592406 0.018518126 0.0072358777 -0.07455442
-0.087433174 -0.13027953 -0.05688982 0.13451615 0.019932149 0.03543619 -0.03763101 -0.20122983

network_body._body_endoder.seq_layers.2.bias f4 [128]
00000000: 0000 0000 0000 0000 0000 0000 0000 0000
00000010: 0000 0000 0000 0000 0000 0000 0000 0000
00000020: 0000 0000 0000 0000 0000 0000 0000 0000
00000030: 0000 0000 0000 0000 0000 0000 0000 0000
00000040: 0000 0000 0000 0000 0000 0000 0000 0000
00000050: 0000 0000 0000 0000 0000 0000 0000 0000
00000060: 0000 0000 0000 0000 0000 0000 0000 0000
00000070: 0000 0000 0000 0000 0000 0000 0000 0000
00000080: 0000 0000 0000 0000 0000 0000 0000 0000
00000090: 0000 0000 0000 0000 0000 0000 0000 0000
000000a0: 0000 0000 0000 0000 0000 0000 0000 0000
000000b0: 0000 0000 0000 0000 0000 0000 0000 0000
000000c0: 0000 0000 0000 0000 0000 0000 0000 0000
000000d0: 0000 0000 0000 0000 0000 0000 0000 0000
000000e0: 0000 0000 0000 0000 0000 0000 0000 0000
000000f0: 0000 0000 0000 0000 0000 0000 0000 0000
00000100: 0000 0000 0000 0000 0000 0000 0000 0000
00000110: 0000 0000 0000 0000 0000 0000 0000 0000
00000120: 0000 0000 0000 0000 0000 0000 0000 0000
00000130: 0000 0000 0000 0000 0000 0000 0000 0000
00000140: 0000 0000 0000 0000 0000 0000 0000 0000
00000150: 0000 0000 0000 0000 0000 0000 0000 0000
00000160: 0000 0000 0000 0000 0000 0000 0000 0000
00000170: 0000 0000 0000 0000 0000 0000 0000 0000
00000180: 0000 0000 0000 0000 0000 0000 0000 0000
00000190: 0000 0000 0000 0000 0000 0000 0000 0000
000001a0: 0000 0000 0000 0000 0000 0000 0000 0000
000001b0: 0000 0000 0000 0000 0000 0000 0000 0000
000001c0: 0000 0000 0000 0000 0000 0000 0000 0000
000001d0: 0000 0000 0000 0000 0000 0000 0000 0000
000001e0: 0000 0000 0000 0000 0000 0000 0000 0000
000001f0: 0000 0000 0000 0000 0000 0000 0000 0000
0.0 0.0 0.0 0.0 0.0 0.0 0.0 0.0
0.0 0.0 0.0 0.0 0.0 0.0 0.0 0.0
0.0 0.0 0.0 0.0 0.0 0.0 0.0 0.0
0.0 0.0 0.0 0.0 0.0 0.0 0.0 0.0
0.0 0.0 0.0 0.0 0.0 0.0 0.0 0.0
0.0 0.0 0.0 0.0 0.0 0.0 0.0 0.0
0.0 0.0 0.0 0.0 0.0 0.0 0.0 0.0
0.0 0.0 0.0 0.0 0.0 0.0 0.0 0.0
0.0 0.0 0.0 0.0 0.0 0.0 0.0 0.0
0.0 0.0 0.0 0.0 0.0 0.0 0.0 0.0
0.0 0.0 0.0 0.0 0.0 0.0 0.0 0.0
0.0 0.0 0.0 0.0 0.0 0.0 0.0 0.0
0.0 0.0 0.0 0.0 0.0 0.0 0.0 0.0
0.0 0.0 0.0 0.0 0.0 0.0 0.0 0.0
0.0 0.0 0.0 0.0 0.0 0.0 0.0 0.0
0.0 0.0 0.0 0.0 0.0 0.0 0.0 0.0

action_model._continuous_distribution.log_sigma f4 [1, 20]
00000000: 0000 0000 0000 0000 0000 0000 0000 0000
00000010: 0000 0000 0000 0000 0000 0000 0000 0000
00000020: 0000 0000 0000 0000 0000 0000 0000 0000
00000030: 0000 0000 0000 0000 0000 0000 0000 0000
00000040: 0000 0000 0000 0000 0000 0000 0000 0000
0.0 0.0 0.0 0.0 0.0 0.0 0.0 0.0
0.0 0.0 0.0 0.0 0.0 0.0 0.0 0.0
0.0 0.0 0.0 0.0

action_model._continuous_distribution.mu.weight f4 [20, 128]
00000000: df72 fdbb 44e1 94bb 67b1 5fbc f6ed bd3b
00000010: 33f4 473c 3ce8 98bc b053 f73c 5d67 ef39
00000020: 6b09 8dbc 0675 8abc 0f38 9a3c d56b 29bc
00000030: 7a6f 9c38 0709 6ebc aad4 0e3b 0057 f03b
00000040: 10ef 92bc f011 273d a991 863c 1774 95bc
00000050: 41b2 a93c 3834 ef3c 1a63 f83a f208 523c
00000060: b660 443b 0f22 633c 4524 54bc 874b b93c
00000070: a72d 9dbc c3ff 173c 3d96 363c ae7a 3c3c
00000080: b575 04bd 8d7e 5dbc 10d9 f538 7e29 a7bc
00000090: e59a 123b 1afc 2fbd 3af3 9ebc 7345 933b
000000a0: a546 f2bc fd83 6fbc af8e 033c 085a 27bc
000000b0: ba39 4f3c 619b ae3c 9a51 dd3c a408 85ba
000000c0: 313f 8abb 97ce 69bb 3849 21bb faf9 fd3b
000000d0: 7870 313c b067 7d3b e6d0 9ebc bd7d 02bd
000000e0: 1b52 57bc fb16 923b c3ad 843c d50a cfbc
000000f0: dbcc 813b c443 2c3c 50e4 60bc a5f2 e1bc
00000100: f21a c63b 7282 06bc 3faa c03b e9d1 2aba
00000110: 7f57 f3bb acdc 973c a7bb 19bd 23d1 8abc
00000120: fa72 d2bc 7fe3 7dbb 0bbb 7cbb 8f9b 2fbc
00000130: c2b2 313c 36d6 26bd 80e7 6fbb f362 923c
00000140: aaa8 a43c da63 dcba 5393 a4ba cd12 3bbc
00000150: cbc3 5c3c fa9c f23b 3738 a8bc 8b9a 56bc
00000160: b748 99bb 434b aebc 32d3 5ebc cd65 a63c
00000170: ef55 543c 9e51 a0bc 3bee 7d3c 2f68 bbbc
00000180: 79d2 473c b4e3 b43c 0b38 0b3c b3c9 39bd
00000190: 4d32 a8bc d572 2f3b 67d9 80ba 9ee7 13bb
000001a0: 42ed af3c e596 11ba 7b5c a0bb e114 133c
000001b0: e4ed 87bc 98be b63c 4d61 26bc f565 90bb
000001c0: 4f3a ad3a 95ff 133b fb1a b43b 751f 583c
000001d0: 9316 b63b efeb dc3c 031f 503b ffca 273c
000001e0: 1d21 79bc 9aca 033c 5713 da3b 030f a33b
000001f0: 584e 133b c82e dabb c870 a83c 3d75 dd3c
00000200: 95d7 93bc 5f88 19bc a9a5 c33c 9bd2 65bb
00000210: aa37 39bc d9ae 3cbb 3cca 84bc 77d2 4a3c
00000220: 82d4 3bbc 4d42 2f3c 550e 0eba e748 3abd
00000230: e902 1ebc 5230 a7bb a6f7 bb3c 3da2 07bd
00000240: 374f f1bc f46c 3d3c aa0c b7bb 604d 013c
00000250: 8170 a3bb ca76 4ebc 006d 9e3c 2f99 13bd
00000260: 0cb0 80bc f512 eb3c 8424 9b3b 6957 9ebb
00000270: 6529 3f3c 30e5 e2bb 5e5b 30bc c3cc bf3c
00000280: d480 1338 53f6 393c 0b4b 473b 9c28 083c
00000290: d3b7 7bbb ab32 8f3c 585f cebc 3701 5fbc
000002a0: d7a7 50bc ea57 12bc 1080 02bc b274 a1bb
000002b0: ade0 e4ba 6d74 0bbd c883 9cbc fe24 99bc
000002c0: 4043 a5b9 7727 c8bc b8e4 54bc 2b7b b83c
000002d0: 80cc 9dbc 2f78 67bc 4ec9 2f3b f86c 2fbb
000002e0: 3970 3abc a06e d63c 6d7a 8d3b c333 1dbc
000002f0: 14d2 983b a9a0 353d f635 a6bc 2366 b7bc
00000300: cf76 4e3c a7f4 3a3d ff12 863c 8d67 913b
00000310: 0246 de3c 2dee debc f047 ce3c 9d0b cb3c
00000320: 08ce e8bb 1c10 14bd 2c32 c5bc 992e 2bbc
00000330: 1356 573c 5076 3f3c 8302 95bb cf67 4c3b
00000340: c818 fa3c dd88 a23c 2579 fd3c 182c 713c
00000350: 289b 523c eddb 4c3c 4849 0abc 17f0 263d
00000360: 9a0e 84bc ab5f 22bd e393 283c 7f43 95bb
00000370: 9be9 943c 4b05 aabc 81d4 ae3c 8bc6 22bc
00000380: 9ac2 613c 072f 9dbb aa73 2e3c 9f2e 46bd
00000390: e18d 42bd 5051 99bb f706 1a3c 988c 8c3c
000003a0: 5a3c 00bc 630e d5bb 6d6e a33c c4d8 483c
000003b0: 1b1a 8ebc 2fd1 023c 5994 a5bc 5bad 043d
000003c0: 3400 1bbc e449 c33c 1b27 f1ba 8dbd 52bb
000003d0: a580 543c 33a0 8e3c b256 323c e0dc e3bc
000003e0: 63ca fcbb e891 633c 28e9 14bb 0720 24bc
000003f0: 0dcc 193c 4fe1 373c 1577 d0bc 432a 61bc
-0.007734641 -0.0045434553 -0.013653136 0.0057961894 0.012204218 -0.018665425 0.030191272 0.00045662644
-0.017216405 -0.016901504 0.018825559 -0.010340651 7.459424e-05 -0.0145285195 0.0021794238 0.00733459
-0.01793626 0.04078859 0.016426878 -0.018243833 0.02071488 0.029199705 0.0018950433 0.012819516
0.002996487 0.013863101 -0.0129481 0.022619022 -0.019186808 0.009277287 0.011144218 0.0115038585
-0.032338817 -0.013518942 0.000117229414 -0.020405527 0.0022370156 -0.042965032 -0.019403089 0.004494363
-0.029574702 -0.014618871 0.008029624 -0.010214336 0.01264804 0.021314325 0.02701645 -0.001014967
-0.004218959 -0.0035676116 -0.0024610292 0.007750747 0.010830037 0.003866654 -0.01938672 -0.031858195
-0.013142134 0.004458306 0.016196137 -0.02527372 0.0039611883 0.010514203 -0.013726309 -0.027581522
0.0060456926 -0.0082098115 0.00587967 -0.00065162644 -0.007426202 0.018537842 -0.037532475 -0.016945427
-0.02568959 -0.0038740335 -0.0038563635 -0.01071824 0.010845842 -0.04073163 -0.003660649 0.017869448
0.020099957 -0.0016814426 -0.0012556113 -0.011418057 0.013474415 0.007403967 -0.020534618 -0.013098369
-0.0046778577 -0.021276122 -0.013600158 0.020312214 0.012959941 -0.019570168 0.015498693 -0.022876827
0.012196177 0.022081234 0.008497248 -0.04535837 -0.020531798 0.0026771326 -0.0009830416 -0.0022568475
0.021475438 -0.0005553796 -0.004893837 0.008977146 -0.016592927 0.022307679 -0.010155034 -0.0044066855
0.001321623 0.0022582759 0.0054963804 0.013191094 0.0055568903 0.02696797 0.0031756766 0.010241269
-0.015205649 0.008043909 0.0066551375 0.004976155 0.0022477116 -0.006658409 0.02056159 0.027033443
-0.018047133 -0.009370892 0.023882704 -0.0035068158 -0.011304775 -0.002879074 -0.016209714 0.01237928
-0.01146424 0.01069696 -0.0005419006 -0.04547968 -0.0096442485 -0.005102196 0.022945236 -0.033113707
-0.029456718 0.011561621 -0.0055862265 0.007891983 -0.0049877767 -0.012601564 0.019339085 -0.03603476
-0.015708946 0.028695563 0.0047345776 -0.0048321974 0.011667584 -0.006924294 -0.010763971 0.023413068
3.516751e-05 0.011350232 0.003040972 0.008310463 -0.0038409128 0.017480215 -0.025191948 -0.0136111295
-0.012735329 -0.008932093 -0.007965103 -0.0049272412 -0.0017461978 -0.03404658 -0.019105807 -0.018694397
-0.00031521358 -0.02443288 -0.012993984 0.022519669 -0.019262552 -0.014127775 0.0026822868 -0.0026767831
-0.011379295 0.026175797 0.004317573 -0.0095948605 0.004663715 0.04434267 -0.020289402 -0.02238757
0.012601568 0.045643475 0.01636648 0.004437393 0.027132992 -0.02721318 0.025180787 0.024785811
-0.007104639 -0.036148176 -0.024071775 -0.0104481215 0.01314308 0.011685923 -0.0045474186 0.0031189804
0.030529395 0.019840652 0.030941555 0.014719985 0.012854375 0.012503606 -0.008440323 0.04075631
-0.016120244 -0.039642017 0.010289165 -0.0045551653 0.018177798 -0.020754477 0.021341564 -0.009935032
0.013779307 -0.004796866 0.010647694 -0.048384305 -0.047498588 -0.0046788827 0.009401075 0.017156884
-0.007826889 -0.006501959 0.019950116 0.012258712 -0.017346432 0.007984444 -0.02021234 0.032391887
-0.009460498 0.023838945 -0.0018398495 -0.0032156438 0.012970124 0.017410373 0.010884928 -0.027815282
-0.007714556 0.013889767 -0.002272198 -0.010017402 0.009387028 0.011223151 -0.025447408 -0.013742986

action_model._continuous_distribution.mu.bias f4 [20]
00000000: 0000 0000 0000 0000 0000 0000 0000 0000
00000010: 0000 0000 0000 0000 0000 0000 0000 0000
00000020: 0000 0000 0000 0000 0000 0000 0000 0000
00000030: 0000 0000 0000 0000 0000 0000 0000 0000
00000040: 0000 0000 0000 0000 0000 0000 0000 0000
0.0 0.0 0.0 0.0 0.0 0.0 0.0 0.0
0.0 0.0 0.0 0.0 0.0 0.0 0.0 0.0
0.0 0.0 0.0 0.0

network_body._body_endoder.seq_layers.0.weight f4 [128, 144]
00000000: 0a18 1bbd 940c 25bd a0f9 15bd 8aec 99bd
00000010: 1699 453d 4b84 e13d b75d ff3d 6698 603e
00000020: 18f6 88bd f823 a9bc 8b0e 70bd 6dc0 9e3c
00000030: 93c1 553d f0b5 283e d839 eb3b 02cb d03c
00000040: 7be9 ce3d 0a3f 713e 38d5 b5bc e7cf d63d
00000050: 906b c5bc 4e6f 55bc acdd 4a3c 6ec6 2dbd
00000060: 6a76 4dbb 1e31 84bd 7375 de3c f06d 873d
00000070: 2a22 6e3c 2b20 d93c 9e4a 80bc 147d d03d
00000080: f488 9dbd 3f65 6ebc 1537 aabb a3e8 93bd
00000090: deb6 2d3e f22e 263e cb92 ad3d 4a51 04bd
000000a0: 1a13 473d 3449 9b3d d41e 613d 55f9 18bd
000000b0: cba5 0dbe 07d4 4f3d 3f3b 2bbe e495 a2bd
000000c0: c30b 803d 84ce da3c a635 143e 8d1e 063c
000000d0: 5f59 b73d 0272 aabd 1444 093d 3f31 06be
000000e0: 7c5a 0a3e f4c3 26bd 2e52 2bbd 50b6 b7bd
000000f0: efc5 d2bd 17c8 c0bc 2f7b 67bc 508c 5fbd
00000100: 04d0 abbd 6aa7 9f3c 90dd 083d b69f 313c
00000110: 4c11 f1bd c6d4 543d 90de bbbd 3ef4 0abe
00000120: 32c1 0e3e 4260 5cbd c3ba 333d ba14 5d3c
00000130: 0b4b 783d 82fe 07bd 371d 483c 7b86 74bd
00000140: 2be2 48bd b97b 23bd ab15 403d b2cf cfbc
00000150: b7fc af3c 3a7f 6ebd bfb9 debc b007 37bb
00000160: 1bf6 dcbd d8cc febc 736d 27be 2a50 5a3d
00000170: c24e 983d 1cdf 6e3d e2e3 bcbb d7fa 603c
00000180: 9f7d dd3d ae77 163d b0d1 b83c 5480 913c
00000190: 4766 8bbd 0cfd 733d d1ed 96bd 2431 6d3d
000001a0: 7326 453e 15c4 243d 18f0 bdbd b6b3 603d
000001b0: f136 983d e0f2 13be f0f5 393d 1bab 95bd
000001c0: d711 14be b730 69b9 40b9 a43d 6a36 4ebd
000001d0: f520 183d 8623 12bd 2b1b 8cbc 26bb d73c
000001e0: 021e 09be a592 80ba 4c3d 67bd 2f93 483d
000001f0: 7e90 dd3c baa0 e13c 5eec 313e dbb0 30be
00000200: ba3b 4c3e 7b33 333d 119f aa3d 37ce 50bd
00000210: cb9e 023c be54 34bd bdd5 8d3c e96c 87bd
00000220: 7ea7 493e cf97 0e3d 8aba eebc 568f a0bd
00000230: e48a 9c3d 6f97 4fbd f2bb 28bd 8ea6 80bc
00000240: c4aa 4bbd d7ea 673d 94b3 1fbd 0b81 ddbb
00000250: 6619 37bd b23b 91be bbb4 ce3d 00b1 7fbe
00000260: e330 eb3d 26fe 363d 1c14 01bc aabe 32bd
00000270: 8110 003d 084d 473e f75e 833d 20d7 3a3e
00000280: 8c10 2c3c a417 3b3e 6ac8 023e 5eb3 783d
00000290: 2f50 333d dfee e2bd a45c 10bd f46a 143d
000002a0: 9c7f b3bd fac2 213c 9674 913b e555 073e
000002b0: eefd 04bc 527c 5b3d d5a0 91bd 1ac9 cfbb
000002c0: 86bf 93bb 1e4e 463b 0746 b5bd 4a49 9d3d
000002d0: 72d6 afbc 6a16 843e ea3c 3b3c 26e3 a93c
000002e0: 8489 4cbd 68b1 983d c2ea b13d fcef 933d
000002f0: e637 873d d4b9 86bd fbdc 563d f445 b03c
00000300: 68b7 a0bc ccde 6fbd 1cc4 2b3d b404 203e
00000310: ea15 b93c b7bc 863c 4855 633d 023b 183c
00000320: 24c3 eb3c 940b b9bd 5843 8fbd 0841 68bc
00000330: 4608 523d 1434 f6bc 742c aebd a77e 57bd
00000340: 82a4 463d 62df b3bd 27ff f4bd 597d 073d
00000350: 28f0 fc3d 1afe 5a3b 87ee d23d 1075 3dbc
00000360: d47d 883d 0e7d 303e 5bec 77bc afba c93d
00000370: a779 7a3d c0e1 b63d 0e5e 1d3d 7e15 3fbc
00000380: eeb3 03bd 5cd5 073e be8e 01bd e01a 183c
00000390: 047e bbbd 1cc6 83bd 5002 dd3c c47e 82be
000003a0: 68b0 e13b 70c8 3dbd 402a df3d dc3c 503d
000003b0: 1a3b fe3d 081c 713e da68 183d d777 0e3c
000003c0: de03 a5bd 788a 4f3b 1c64 663d 208c fa3d
000003d0: 827e f8bd 3e6b 953d 22e4 7dbd f2bf 143e
000003e0: 00d8 17be 5232 cfbc c2d4 9fbc 77d6 c63d
000003f0: d293 bbbd c037 ac3b 5edc a6bd 7770 ccbc
-0.037864722 -0.0402952 -0.036615014 -0.07515819 0.048241697 0.11011561 0.124690466 0.21933135
-0.06687564 -0.020647034 -0.05860762 0.019378865 0.05218656 0.16475654 0.0071785264 0.025487427
0.101031266 0.23559204 -0.022196397 0.10488873 -0.024099141 -0.013027025 0.012381952 -0.042425565
-0.0031351098 -0.06454681 0.027155614 0.06612766 0.014534513 0.026504597 -0.01566058 0.10180107
-0.07692137 -0.014550506 -0.0051945546 -0.07222106 0.1696429 0.16228846 0.08475264 -0.032304086
0.0486022 0.07582322 0.05496104 -0.037347157 -0.13832776 0.050739314 -0.1672182 -0.079387456
0.06252243 0.026709802 0.1447359 0.008185995 0.08952593 -0.083225265 0.03351219 -0.13104723
0.1351108 -0.04071422 -0.04182642 -0.0897032 -0.10291659 -0.02353291 -0.01412849 -0.05457717
-0.08389285 0.019489009 0.033414423 0.010841301 -0.11770877 0.05196073 -0.0917331 -0.13569734
0.13940886 -0.053802736 0.04387928 0.013493711 0.06061844 -0.033201702 0.012213997 -0.059698563
-0.049043816 -0.039912913 0.046895664 -0.025367592 0.021482809 -0.0582268 -0.02718818 -0.0027928166
-0.107891284 -0.031103536 -0.16350345 0.053299107 0.07436897 0.058318242 -0.0057644704 0.01373168
0.10814976 0.03673523 0.022560924 0.017761387 -0.06806617 0.059567496 -0.07369579 0.057908192
0.19252948 0.04022606 -0.0927431 0.054858886 0.07432354 -0.14448118 0.04540056 -0.073080264
-0.1445993 -0.00022238759 0.08043146 -0.050344862 0.037140805 -0.03567841 -0.017102798 0.026334357
-0.13390353 -0.0009809328 -0.05645494 0.04896849 0.027046438 0.02754246 0.17375323 -0.17254965
0.19944659 0.043750267 0.08331121 -0.05097791 0.0079724295 -0.04402613 0.017313832 -0.0661257
0.196928 0.034812745 -0.029141683 -0.07839839 0.07643679 -0.050681528 -0.041194864 -0.01570442
-0.0497234 0.056620445 -0.03898962 -0.006759768 -0.044701956 -0.28365856 0.10093065 -0.24969864
0.11483934 0.04467597 -0.00787833 -0.043638863 0.03126574 0.19462979 0.064145975 0.18246126
0.010501992 0.18270737 0.12771764 0.060717933 0.04377764 -0.11080717 -0.0352446 0.03623481
-0.08764574 0.009873146 0.004438947 0.1321636 -0.008117182 0.053585358 -0.071107544 -0.006341112
-0.0045089154 0.0030258964 -0.08851247 0.076799944 -0.02146456 0.2579835 0.011428097 0.020738196
-0.049935833 0.074557126 0.086873546 0.07223508 0.06602459 -0.06578413 0.052456837 0.021517731
-0.019618705 -0.058562085 0.04193507 0.15626794 0.022593457 0.016447408 0.055501252 0.009291412
0.028779574 -0.090354115 -0.06995267 -0.014175661 0.05127742 -0.03005413 -0.085045725 -0.05261102
0.04849673 -0.08782841 -0.11962729 0.033078525 0.12350494 0.0033415616 0.10299402 -0.011563554
0.06664625 0.17235205 -0.015132035 0.0985006 0.061151173 0.08929777 0.038419776 -0.011662839
-0.032154016 0.13264984 -0.03163027 0.009283751 -0.09154895 -0.06434271 0.026978642 -0.2548734
0.0068874843 -0.04633373 0.108967304 0.05083929 0.124136165 0.2354585 0.03720937 0.008695564
-0.08057378 0.0031668227 0.056247815 0.12233758 -0.121335045 0.072958454 -0.061985143 0.14526346
-0.14828491 -0.02529255 -0.01951063 0.09708875 -0.09159054 0.0052556694 -0.081475005 -0.024955971

network_body._body_endoder.seq_layers.0.bias f4 [128]
00000000: 0000 0000 0000 0000 0000 0000 0000 0000
00000010: 0000 0000 0000 0000 0000 0000 0000 0000
00000020: 0000 0000 0000 0000 0000 0000 0000 0000
00000030: 0000 0000 0000 0000 0000 0000 0000 0000
00000040: 0000 0000 0000 0000 0000 0000 0000 0000
00000050: 0000 0000 0000 0000 0000 0000 0000 0000
00000060: 0000 0000 0000 0000 0000 0000 0000 0000
00000070: 0000 0000 0000 0000 0000 0000 0000 0000
00000080: 0000 0000 0000 0000 0000 0000 0000 0000
00000090: 0000 0000 0000 0000 0000 0000 0000 0000
000000a0: 0000 0000 0000 0000 0000 0000 0000 0000
000000b0: 0000 0000 0000 0000 0000 0000 0000 0000
000000c0: 0000 0000 0000 0000 0000 0000 0000 0000
000000d0: 0000 0000 0000 0000 0000 0000 0000 0000
000000e0: 0000 0000 0000 0000 0000 0000 0000 0000
000000f0: 0000 0000 0000 0000 0000 0000 0000 0000
00000100: 0000 0000 0000 0000 0000 0000 0000 0000
00000110: 0000 0000 0000 0000 0000 0000 0000 0000
00000120: 0000 0000 0000 0000 0000 0000 0000 0000
00000130: 0000 0000 0000 0000 0000 0000 0000 0000
00000140: 0000 0000 0000 0000 0000 0000 0000 0000
00000150: 0000 0000 0000 0000 0000 0000 0000 0000
00000160: 0000 0000 0000 0000 0000 0000 0000 0000
00000170: 0000 0000 0000 0000 0000 0000 0000 0000
00000180: 0000 0000 0000 0000 0000 0000 0000 0000
00000190: 0000 0000 0000 0000 0000 0000 0000 0000
000001a0: 0000 0000 0000 0000 0000 0000 0000 0000
000001b0: 0000 0000 0000 0000 0000 0000 0000 0000
000001c0: 0000 0000 0000 0000 0000 0000 0000 0000
000001d0: 0000 0000 0000 0000 0000 0000 0000 0000
000001e0: 0000 0000 0000 0000 0000 0000 0000 0000
000001f0: 0000 0000 0000 0000 0000 0000 0000 0000
0.0 0.0 0.0 0.0 0.0 0.0 0.0 0.0
0.0 0.0 0.0 0.0 0.0 0.0 0.0 0.0
0.0 0.0 0.0 0.0 0.0 0.0 0.0 0.0
0.0 0.0 0.0 0.0 0.0 0.0 0.0 0.0
0.0 0.0 0.0 0.0 0.0 0.0 0.0 0.0
0.0 0.0 0.0 0.0 0.0 0.0 0.0 0.0
0.0 0.0 0.0 0.0 0.0 0.0 0.0 0.0
0.0 0.0 0.0 0.0 0.0 0.0 0.0 0.0
0.0 0.0 0.0 0.0 0.0 0.0 0.0 0.0
0.0 0.0 0.0 0.0 0.0 0.0 0.0 0.0
0.0 0.0 0.0 0.0 0.0 0.0 0.0 0.0
0.0 0.0 0.0 0.0 0.0 0.0 0.0 0.0
0.0 0.0 0.0 0.0 0.0 0.0 0.0 0.0
0.0 0.0 0.0 0.0 0.0 0.0 0.0 0.0
0.0 0.0 0.0 0.0 0.0 0.0 0.0 0.0
0.0 0.0 0.0 0.0 0.0 0.0 0.0 0.0

network_body._body_endoder.seq_layers.2.weight f4 [128, 128]
00000000: fac3 d13d 4447 62bd 7a7b a83d b6ac b8bc
00000010: 316d d83d cafb 7bbd b23c 00be 9541 32bd
00000020: e558 563d f0fb e4bd 1c6a 1abe 2bdb 19bc
00000030: 37f5 893d ee6a 93bc b0a0 273e 5e1a d93d
00000040: 3b20 34bc 0828 883d bd9b f23b a849 013e
00000050: c680 853c 1c29 ff3d a202 6cbe bb84 abbd
00000060: 1c4d 073e 4d79 4cbd a73f 513d 9e71 163c
00000070: ed79 76bd 6a5e 2b3e f22b 12be cc9b 2e3e
00000080: 2289 d93d be1e 3abe c42e 8f3d 55de 543c
00000090: 9585 783c c484 4fbe b11d 16bd 9c31 3f3e
000000a0: f5a9 5bbd 1db7 8bbd d72d 103c 08e9 3cbc
000000b0: aa66 8ebd 64b8 21bd 976c 06bc ba6a 093e
000000c0: 41ab 4c3d 880e e6bd 4f52 173d 1e2c 743d
000000d0: d2cf 973d 026b 0dbc 5f77 da3c 5225 db3d
000000e0: 2e27 b93d 0a80 6dbd b420 4a3e 72ce 90bc
000000f0: 90e0 0b3d 570c 47bc f60b 3dbd 5fbb f53c
00000100: a605 6cbd ac02 9abd 840c 20be 7547 dfbc
00000110: 71f3 f23d b1e7 043e 5493 13bd 52f8 ccb9
00000120: 1b9f bf3d f2ab 13be ded6 c9bd 4f09 02be
00000130: de9b a03b 4d80 d03d b1c6 3dbd 4198 ccbd
00000140: fe32 d23d df2a 67bc 03b7 e7bd fa0d 233e
00000150: 3834 af3d a241 06bd 9735 1ebe 197b 8a3d
00000160: 95fd ca3c 6ab6 3c3d d5f7 10bc 9b02 c23d
00000170: 52fe dc3a 3bcb 41bd fdb2 0f3c bdfb c63d
00000180: 9680 dbbc 25b0 8abd 52a6 533c c6aa 933d
00000190: 3c4c 463d 4927 403d 612f 273e 94a2 25be
000001a0: b8e9 1dbe c03f 03bb a01d 313d 0639 39bd
000001b0: e706 ea3d 2b3e 01bc f5cd c1bd a163 a23d
000001c0: 0b76 0c3c 274f 333d 94c3 c6bc 4680 0bbd
000001d0: ba0f c2bd 2eea 94bd b9fd 6abd 2f97 1abe
000001e0: a3c2 87bd 471e 563c 47c8 b23d c7d6 8b3d
000001f0: 4218 393d d0d5 96bd 4c1e e93d f313 2b3e
00000200: b928 0d3e efe9 013e 76e3 af3b 10f0 793e
00000210: fffd 56bd bca2 93bd 7f6f 30bd e0c5 90bd
00000220: b65e efbd 6fbf f13d e9da 033a 7938 72bd
00000230: 7c93 85ba dbba 30be 1d9f 45bd 4bc5 04be
00000240: 933a 9e3d d893 e7bd 719d 26bd f46d acbd
00000250: 29e0 e8bd 6b93 7bbb 9fe5 8fbb 6cbd 3a3d
00000260: 58df 9dbc 8a93 3bbd b406 d73d 341a bebd
00000270: 19cf a03d 9bf3 253e fbb5 973d d328 61bc
00000280: b207 de3c 2184 ca3c e5a7 623d c978 6ebd
00000290: 1c06 743d 709b bd3d 29c7 6fbd 5d75 22be
000002a0: 76ef 803d d28f 06be 5c0a 53bd b7ed 263d
000002b0: 8817 a1bd d3db eabd 4fd0 5a3d a34b 8a3c
000002c0: 3d1b eebb c6e3 9fbd e862 94bd 78f4 de3c
000002d0: c8a1 50bd 673f 63bc 6054 c2bd d9f4 9d3d
000002e0: b5a3 2e3d f41e aebd 9ab4 ab3c 4381 eebc
000002f0: 3100 a13d f63b 81bd 8a71 49bc 2354 ee3c
00000300: cb94 a73d 5821 a7bc 5900 b23d 1b6b c03d
00000310: db03 0f3d 558e 253e 26d3 4bbd 58a0 f4bd
00000320: cbf1 38bd 9f5b cebd 6c0f 663d d292 bf3d
00000330: 9e89 603d b1ff bebc c2c8 acba a609 0abe
00000340: 7f16 573e 6dbf 5ebd ceab d93c 3e06 5abc
00000350: 53ef d43d ee29 043e 2e40 683d 816c fbbb
00000360: 840e 803d e2ae a03d a622 a53d ef25 f53d
00000370: 3d68 f0ba 2349 983d 3cb1 623d 39f8 ba3c
00000380: 6a0b 15be 92da eb3d 9a19 11be 3013 8c3b
00000390: 2193 b53a 6e46 8a3a 81b7 c13d ca4a 4ebe
000003a0: 2220 023b fe75 f3bb ec06 25bd 2d69 263e
000003b0: dbe1 9fbc 33bd 85bd 450e 613c fadc 863d
000003c0: 063f 453d 8bac 823d 20aa 853d 8f3e 3f3e
000003d0: 6abc e53c 33c5 923d 737c 1abe 0931 e13c
000003e0: 1dcc e5bc 5cea b43c e8de 99bc b1b4 d4bd
000003f0: 20fe 423d cc65 c23d 622f 213e eefa 9bbd
0.10242458 -0.055243745 0.08226676 -0.022543292 0.105677016 -0.06151942 -0.12523153 -0.043519575
0.05233087 -0.11180866 -0.1507954 -0.009390633 0.06736224 -0.017995324 0.16369891 0.10600732
-0.0109940125 0.0664826 0.0074038194 0.12625754 0.016296756 0.12459013 -0.2304788 -0.08374926
0.13213009 -0.04992037 0.051086094 0.009182362 -0.06017487 0.16735235 -0.14274576 0.1705162
0.10621859 -0.1817579 0.06991342 0.012992461 0.015168567 -0.2026549 -0.03664941 0.18671268
-0.05362888 -0.068220355 0.008799992 -0.011530168 -0.06953175 -0.03948249 -0.008204601 0.13419619
0.049968008 -0.1123324 0.03694373 0.059612386 0.074126855 -0.00863147 0.026668249 0.10700478
0.09040676 -0.057983436 0.19739038 -0.017676566 0.034149706 -0.012148938 -0.046153985 0.029996572
-0.057622574 -0.07520041 -0.15629774 -0.027255753 0.11862839 0.12979008 -0.036029175 -0.00039094925
0.09356519 -0.1442106 -0.09855436 -0.12698863 0.0049013933 0.101807214 -0.046332065 -0.09989978
0.10263632 -0.014109342 -0.113142036 0.159233 0.08554882 -0.032777436 -0.1545013 0.0676176
0.02477912 0.0460724 -0.00884815 0.09473153 0.0016860461 -0.047312956 0.0087707015 0.09715984
-0.026794713 -0.06771878 0.012918072 0.07210307 0.048412547 0.046912465 0.16326667 -0.161753
-0.15421188 -0.0020027012 0.043241143 -0.045220397 0.11427098 -0.007888357 -0.09463111 0.07929159
0.0085730655 0.043776657 -0.02426318 -0.034057878 -0.09475656 -0.07271229 -0.057370875 -0.15096734
-0.06628921 0.013068742 0.08729606 0.06828075 0.04518915 -0.07365 0.11382732 0.16706829
0.13785066 0.12686895 0.0053676916 0.24407983 -0.052488323 -0.072087735 -0.04307508 -0.07068992
-0.116879866 0.11804091 0.00050298736 -0.059135888 -0.0010191048 -0.1725878 -0.048247445 -0.12965886
0.07726016 -0.11307496 -0.04067749 -0.084194094 -0.1137088 -0.0038387429 -0.0043913866 0.045590803
-0.019271538 -0.045795 0.104993254 -0.092823416 0.07852001 0.1620621 0.07407757 -0.013742643
0.027103279 0.024721207 0.055335898 -0.05822066 0.05957614 0.09258163 -0.058539543 -0.15865083
0.062956735 -0.131408 -0.05152355 0.040754046 -0.07865816 -0.114677094 0.053421315 0.01688177
-0.0072664306 -0.07807116 -0.07245427 0.027216181 -0.050935537 -0.013870097 -0.094887495 0.077127166
0.042636592 -0.085019976 0.020960141 -0.029114371 0.07861365 -0.06310265 -0.012295136 0.029092854
0.08182677 -0.020401642 0.086914726 0.09395429 0.034915786 0.16167577 -0.049761914 -0.11944646
-0.045152467 -0.10076069 0.05616705 0.093541756 0.054818742 -0.023315283 -0.0013182389 -0.13480243
0.21004675 -0.054381777 0.02657118 -0.013307152 0.1039721 0.1290662 0.05670183 -0.007672847
0.06252769 0.07845856 0.08063249 0.11970126 -0.0018341612 0.07435825 0.055344805 0.02282344
-0.14555135 0.11516298 -0.14169922 0.0042747483 0.0013853052 0.0010549554 0.09458829 -0.20145717
0.0019855578 -0.0074298372 -0.040289804 0.16251059 -0.019516876 -0.065302275 0.013736312 0.06585117
0.048155807 0.06380566 0.065265894 0.18676208 0.028043944 0.07166519 -0.15086536 0.027489202
-0.02805143 0.022084408 -0.018783048 -0.10386027 0.047605634 0.094920725 0.15740731 -0.076162204

network_body._body_endoder.seq_layers.2.bias f4 [128]
00000000: 0000 0000 0000 0000 0000 0000 0000 0000
00000010: 0000 0000 0000 0000 0000 0000 0000 0000
00000020: 0000 0000 0000 0000 0000 0000 0000 0000
00000030: 0000 0000 0000 0000 0000 0000 0000 0000
00000040: 0000 0000 0000 0000 0000 0000 0000 0000
00000050: 0000 0000 0000 0000 0000 0000 0000 0000
00000060: 0000 0000 0000 0000 0000 0000 0000 0000
00000070: 0000 0000 0000 0000 0000 0000 0000 0000
00000080: 0000 0000 0000 0000 0000 0000 0000 0000
00000090: 0000 0000 0000 0000 0000 0000 0000 0000
000000a0: 0000 0000 0000 0000 0000 0000 0000 0000
000000b0: 0000 0000 0000 0000 0000 0000 0000 0000
000000c0: 0000 0000 0000 0000 0000 0000 0000 0000
000000d0: 0000 0000 0000 0000 0000 0000 0000 0000
000000e0: 0000 0000 0000 0000 0000 0000 0000 0000
000000f0: 0000 0000 0000 0000 0000 0000 0000 0000
00000100: 0000 0000 0000 0000 0000 0000 0000 0000
00000110: 0000 0000 0000 0000 0000 0000 0000 0000
00000120: 0000 0000 0000 0000 0000 0000 0000 0000
00000130: 0000 0000 0000 0000 0000 0000 0000 0000
00000140: 0000 0000 0000 0000 0000 0000 0000 0000
00000150: 0000 0000 0000 0000 0000 0000 0000 0000
00000160: 0000 0000 0000 0000 0000 0000 0000 0000
00000170: 0000 0000 0000 0000 0000 0000 0000 0000
00000180: 0000 0000 0000 0000 0000 0000 0000 0000
00000190: 0000 0000 0000 0000 0000 0000 0000 0000
000001a0: 0000 0000 0000 0000 0000 0000 0000 0000
000001b0: 0000 0000 0000 0000 0000 0000 0000 0000
000001c0: 0000 0000 0000 0000 0000 0000 0000 0000
000001d0: 0000 0000 0000 0000 0000 0000 0000 0000
000001e0: 0000 0000 0000 0000 0000 0000 0000 0000
000001f0: 0000 0000 0000 0000 0000 0000 0000 0000
0.0 0.0 0.0 0.0 0.0 0.0 0.0 0.0
0.0 0.0 0.0 0.0 0.0 0.0 0.0 0.0
0.0 0.0 0.0 0.0 0.0 0.0 0.0 0.0
0.0 0.0 0.0 0.0 0.0 0.0 0.0 0.0
0.0 0.0 0.0 0.0 0.0 0.0 0.0 0.0
0.0 0.0 0.0 0.0 0.0 0.0 0.0 0.0
0.0 0.0 0.0 0.0 0.0 0.0 0.0 0.0
0.0 0.0 0.0 0.0 0.0 0.0 0.0 0.0
0.0 0.0 0.0 0.0 0.0 0.0 0.0 0.0
0.0 0.0 0.0 0.0 0.0 0.0 0.0 0.0
0.0 0.0 0.0 0.0 0.0 0.0 0.0 0.0
0.0 0.0 0.0 0.0 0.0 0.0 0.0 0.0
0.0 0.0 0.0 0.0 0.0 0.0 0.0 0.0
0.0 0.0 0.0 0.0 0.0 0.0 0.0 0.0
0.0 0.0 0.0 0.0 0.0 0.0 0.0 0.0
0.0 0.0 0.0 0.0 0.0 0.0 0.0 0.0

value_heads.value_heads.extrinsic.weight f4 [1, 128]
00000000: ace3 713d 6920 3c3d b488 48bc b5a9 15be
00000010: a71b e6bd 1dc6 533c a518 8e3d 7bcd bc3d
00000020: 64ca da3c 8094 17be c3f8 19be a9ec b3bd
00000030: 9a61 f2bd b377 48be 0e51 243d 8092 203c
00000040: 352f 5d3d 75c7 22be 6289 a8bd 363a 8b3d
00000050: 5d5a b23d aeee 643b b72c 163e 0cca 58be
00000060: bf3a 723b 9393 4dbe 11e3 2c3e 2522 143d
00000070: 38b7 853d 6d5c 38bd 2e9b 6cbb 8908 d73d
00000080: caac c5bc 51cc 15be 36c3 553e e982 c1bd
00000090: dad0 2dbe 3dac 3ebe 81a8 37bd 1b6f d6bd
000000a0: 789a 0dbe 58ba 42be 2f66 10be 3025 b03d
000000b0: b7c8 b8bd 39cd d7bd 3a10 063e 6b8b 2f3c
000000c0: 6651 1fbe 4c22 0b3e 9db7 e7bd 4157 943b
000000d0: 4718 493e 520c 223d b780 f53c d366 263d
000000e0: a2bc 25be 8a67 7f3c 45b0 c23d a07c 76bd
000000f0: a160 183e bee2 45be bca9 6abd b6d7 a4ba
00000100: 2521 d0bd aeb2 b5bd 1b83 41bd cd37 e33d
00000110: 1d4d 34be 1915 283e 520b f7bd 8467 90bd
00000120: bf95 323e 19ee 34be cdd1 353b c49a 0a3e
00000130: e679 d13d 313b 583e 1279 af3d 843f 3fbe
00000140: 4e9d 47bd 0b6e 30be ba30 2abd 1de9 f73d
00000150: b93f 39bd e0e2 a6bd 2aa6 0ebd 63d7 52be
00000160: 2de3 19be 4ee1 453e 20d2 8ebd 7457 c239
00000170: cfb5 94bd 8732 f2bd ee30 683d 4dd2 97bd
00000180: 50dd f2bd 9998 2a3c a35e e4bd 2ac3 5b3c
00000190: fe80 953d 628b 4b3d 65a3 eabd 92d6 19be
000001a0: c8f6 533e 0817 2a3e 58b8 b7bd 9fd7 cebd
000001b0: b2f1 4d3e 0d4a 233d dabb 513d 1efa ad3d
000001c0: 77df 4bbe b2b8 9c3b 8ebd 243e 46e1 d33d
000001d0: 76ec 0d3e 6705 853d 9239 fcbd 6a23 2abe
000001e0: 5be1 153d 3b1d d9bd f6b0 963d 9c34 55bd
000001f0: 910d 513d 1ac9 23bd 74a0 1d3d 9172 363e
0.059055015 0.045929346 -0.012239624 -0.1461552 -0.11235743 0.012925652 0.06938294 0.0921888
0.026707835 -0.14802742 -0.15036301 -0.08785374 -0.11835022 -0.19576912 0.040116362 0.009800553
0.0540001 -0.158964 -0.08229329 0.06798212 0.08708642 0.0034932303 0.14665495 -0.21170825
0.0036961285 -0.20075826 0.16883494 0.036165375 0.06529087 -0.04501002 -0.0036103236 0.10499675
-0.024130244 -0.14628722 0.20875248 -0.09448797 -0.16974202 -0.18620391 -0.044838432 -0.104704104
-0.13828456 -0.19016397 -0.1410148 0.08600843 -0.09022658 -0.1053719 0.13092127 0.010714392
-0.15558395 0.13587302 -0.11314318 0.004527003 0.19638167 0.03956253 0.029968603 0.040625405
-0.16185239 0.0155886505 0.09506277 -0.060177445 0.14880611 -0.19324777 -0.057290778 -0.0012576494
-0.10162572 -0.08871971 -0.047244173 0.110946275 -0.17607541 0.16414298 -0.12062706 -0.07050994
0.17439936 -0.17668952 0.002774346 0.13535601 0.102283284 0.2111633 0.08568014 -0.18676573
-0.048734 -0.17229478 -0.041550376 0.1210501 -0.045226786 -0.08148742 -0.034826435 -0.20589976
-0.15028067 0.19324228 -0.06973672 0.0003706772 -0.0726124 -0.118260436 0.056687288 -0.074131586
-0.11858618 0.010412359 -0.11150863 0.01341323 0.07299994 0.049693473 -0.11456946 -0.15023258
0.20699608 0.16610348 -0.08970708 -0.1009972 0.2011173 0.039865542 0.05120454 0.08494972
-0.19909464 0.0047827596 0.16087934 0.10345702 0.13859734 0.06495171 -0.12315668 -0.16615072
0.03659187 -0.106012784 0.07357971 -0.052052125 0.05103833 -0.039986707 0.0384831 0.17817141
