results/FoodTarget_imitation_4/AgentPlayer/AgentPlayer-29162.onnx (onnx, 136525 bytes, 7 tensors)

action_model._continuous_distribution.log_sigma f4 [1, 5]
00000000: 7f95 ab3b fa72 4d3b f72f b13b 7152 8fbb
00000010: c888 d03b
0.005236327 0.003134905 0.005407329 -0.0043738415 0.006363962

action_model._continuous_distribution.mu.bias f4 [5]
00000000: 23f8 2dbb b731 6e3b d7f6 e339 5b54 b73b
00000010: f3e3 f53b
-0.0026545606 0.003634555 0.00043480724 0.0055947728 0.0075039803

action_model._continuous_distribution.mu.weight f4 [5, 128]
00000000: 8205 35bc 4738 d93b 5486 06bd 6a02 913c
00000010: 58cd aebc d6c2 e23c 3958 8dbc a96d c13c
00000020: a50c 03b9 da87 0fbb b75c 1abc 87e8 4cbc
00000030: 9b0a 1e3c e46c 25bc 4a3f 35bc d3e6 e13c
00000040: 1ad0 303d d594 8bbc 3c6f 8f3c df55 f33b
00000050: 35d0 41bd bb52 57bc 9d7f eabb d93f c13c
00000060: d30d 183c 39f5 f2bc 57e6 0abd 0b28 b03c
00000070: a227 753a ff2f b13c c4a6 00bc 58c2 2d3c
00000080: 5402 f7bb fa7c 893c 9684 09bc 6e21 6a38
00000090: 2020 8a3b 9f32 aa3c 1eb3 a13c 545c b93c
000000a0: 260c ffbc 19bf 073c bec8 0bbc 5ede 95bc
000000b0: 54ee 10bb c79c 3dbb 06e7 693c 15fe 3ebd
000000c0: 75c7 833a 959d 98bc 9a6b 8039 d522 f0bb
000000d0: 1fba a2ba 7125 e0bb 019f be3c 210f 9c3c
000000e0: 2ef0 e7bb 0669 adba ce39 06bc 5bb1 753b
000000f0: 985f 083d a204 f8ba 53dd 8f3b f42f 473b
00000100: 97a5 59bc 2f40 c63c 0d1e d6bc b859 22bc
00000110: 189d bebc 3008 3bba 7d1a ed3b 5e22 97bc
00000120: 1adb 773c 8900 5d3a 544c d13c fcb4 2b3d
00000130: e9ab 8e39 8a5f 37bc b2c7 e03a 007d abb9
00000140: 37b4 a6bc e012 173c 07f8 a23c 233b e83c
00000150: 65e3 803b cb4a 173c 7c99 8a3c 7c35 92bc
00000160: 8a7f ecbc f295 33bc 018f e73b 43db 073c
00000170: cbb3 8e3c 7986 01bb 07be 36bc 8934 e4bc
00000180: c1ab 3bbc e42a ecbc fcf2 b2bc 553a 053d
00000190: 2802 01bd 0913 723b d9eb 123c 126a 0b3d
000001a0: 8d91 0b3d 7b5d 3a3b da15 c13c 9201 5dbb
000001b0: 3cb5 1bbd 3df6 d63a 6933 8ebc 9c5b cb3a
000001c0: d1a9 4e3c dea7 57bc c285 233c 3d3b 643c
000001d0: 9762 aa3c d48c 393d f667 e1ba 4e5f 1e3c
000001e0: 97db ae3c 9096 1fbc e844 a73c 17b3 963c
000001f0: 1cc2 d1bb 4aea ca3c 4f3b 17bc eddc 96bc
00000200: f480 26bb 22fd c13c c560 c63c 6eb5 683c
00000210: c135 e0bc 1862 753c 5185 18bc f7cc a43c
00000220: 14b7 8c3c 63bc 15bc 5646 dfbc 78e4 75bc
00000230: 2260 cc3b 11a3 07bc 9d39 003d 7ad3 02bd
00000240: df0d 84bb e0a4 193d 3ad3 c5bb 3433 1b3c
00000250: 0507 5cba 2d56 2a3c a0e8 153c c9d7 b93c
00000260: 9f20 aebc 588d 56bc 9059 7e39 1b80 b63c
00000270: fb9c 4f3c dc35 f43a 30ec d33c b72d fabb
00000280: 7f29 bfbc 98d8 e03c 298b 8bba 5a92 0d3d
00000290: c3a8 593c 22e9 043b 94c1 febc b523 b7bb
000002a0: 95bc f9bc 8af1 6e3d 5aab cabc fa9a 873c
000002b0: b812 4f3b 98bf 993c 77e4 e8bc 64af 5c3c
000002c0: 3124 4fbb fe2a 313b 6868 04bd 6da0 2d3c
000002d0: 8777 0cbd a283 533c a698 e33c f05e bc3c
000002e0: 64af 28bc b0f0 f1bc de74 2bbd 71e1 a53b
000002f0: 2742 28bd 4070 553c 83fb fb3c ed6d 01bd
00000300: 4618 34bb 5e09 ec3c 96b4 52bc 6a3f a83b
00000310: 130d 123d 28d8 6ebc 99ba aebc 9a2c a63c
00000320: afb4 093d 2085 8dbc 6ad7 5d3c 8f09 a63c
00000330: a095 1abc 49d3 a13c 7d1d fc3c 91ad 22bc
00000340: 8e50 cd3a 2ace 133d f93a 1cbc e296 c63c
00000350: f25d 923c 1030 c13b 8a4c 0c3d b8d2 8f3c
00000360: 483e aabb e988 d03a 87d6 e7bc aca7 2bbc
00000370: 9305 2f3d f3e7 423c 9269 fcbc da03 ad3b
00000380: 9796 b83c 4d19 603c 5018 0d3c 08ac 183b
00000390: 78db 6d3b 6b68 7f3c 20ec 053c fb35 87bb
000003a0: bf7d d33b 2204 a9bc 2aca 2b3d bf2d 2fbb
000003b0: 2474 2a3c 5d65 563c 8ca2 0dbd 2a5a 9b3c
000003c0: b080 4bbc 59f9 dd3c b7a7 b9bc 9c3c be3b
000003d0: 3d3d ebbc 9b1a 9c3c ba46 98bc f231 b6bb
000003e0: 76ab 033c 8ed0 8abb 62d5 03bc 3122 84bb
000003f0: 57b5 f03c 85a4 c6bc 1ef2 c23c 33cf b6bc
-0.011048676 0.0066290232 -0.03284295 0.017701346 -0.02133815 0.027680796 -0.017253982 0.02361186
-0.00012497844 -0.0021901042 -0.009421519 -0.012506611 0.009646083 -0.010096762 -0.011062453 0.027575886
0.04316721 -0.017038742 0.017509095 0.007426008 -0.047317702 -0.013142283 -0.007156326 0.023590015
0.00928064 -0.029657947 -0.033911075 0.021503469 0.0009351914 0.021629332 -0.00785226 0.010605417
-0.0075381193 0.016783226 -0.008393427 5.582108e-05 0.0042152554 0.020776091 0.01973873 0.022627033
-0.031133723 0.008285307 -0.008531747 -0.01829451 -0.002211471 -0.0028932558 0.014276272 -0.04662903
0.001005395 -0.018629828 0.00024494232 -0.007328371 -0.0012415088 -0.006840401 0.023269178 0.019050183
-0.007078192 -0.0013230152 -0.008192493 0.0037489745 0.03329429 -0.0018922279 0.0043903976 0.0030393573
-0.013284109 0.024200527 -0.026137376 -0.009909086 -0.023268268 -0.0007134704 0.0072358237 -0.018449005
0.0151279215 0.00084305607 0.025549091 0.041920647 0.00027212434 -0.011192212 0.0017149358 -0.00032708794
-0.020349605 0.009220809 0.01989366 0.028348511 0.0039333575 0.009234141 0.01691889 -0.017847769
-0.02886941 -0.010961043 0.007066608 0.008292022 0.017419716 -0.001976399 -0.0111537045 -0.027857082
-0.011454524 -0.028829046 -0.02184438 0.032526333 -0.031496197 0.0036937615 0.008967363 0.034036703
0.034074355 0.0028437066 0.02356999 -0.003372286 -0.038014635 0.0016400289 -0.017358499 0.0015514973
0.01261373 -0.013162581 0.009980621 0.013930139 0.020798964 0.04530032 -0.001719712 0.009666277
0.021344943 -0.009740487 0.0204186 0.018395944 -0.0064013135 0.02476992 -0.009230449 -0.018415892
-0.0025406452 0.023680273 0.024216065 0.014203412 -0.027369382 0.014977001 -0.009309129 0.020117266
0.017177142 -0.009139153 -0.027255218 -0.0150080845 0.006237046 -0.008278624 0.031304944 -0.03193996
-0.004029974 0.037510753 -0.006037143 0.009472657 -0.000839338 0.0103965225 0.0091497 0.022685902
-0.02125579 -0.013095222 0.00024256692 0.022277882 0.012671704 0.0018631774 0.025869459 -0.007634844
-0.023335217 0.02744703 -0.0010646331 0.0345634 0.013284865 0.002028056 -0.031098165 -0.0055889734
-0.03048543 0.05833582 -0.02473991 0.01655339 0.003159685 0.018768117 -0.028429253 0.013469551
-0.0031607265 0.0027033682 -0.032326132 0.0105973305 -0.034293678 0.012909802 0.02778275 0.022994488
-0.010295723 -0.029533714 -0.0418595 0.005062275 -0.041078713 0.013027251 0.030759579 -0.031598974
-0.0027480288 0.02881306 -0.012860438 0.0051345127 0.035657 -0.014577903 -0.021329211 0.02028494
0.03361958 -0.017275393 0.013540128 0.02026823 -0.009435087 0.019754069 0.03077578 -0.009929077
0.0015664266 0.036085285 -0.009535545 0.024241868 0.017867062 0.005895622 0.03425268 0.017556533
-0.005195413 0.0015909943 -0.028300537 -0.010476988 0.042729925 0.011896121 -0.030812059 0.00528
0.022532744 0.013677907 0.008611754 0.0023295898 0.0036294144 0.01558886 0.008173972 -0.004126308
0.006454199 -0.020631853 0.041940846 -0.0026730148 0.010403667 0.01308569 -0.034578845 0.018963892
-0.012420818 0.027096437 -0.02266298 0.005805565 -0.028715724 0.019055655 -0.018588413 -0.005560153
0.008036485 -0.0042362874 -0.00804648 -0.0040323962 0.029383345 -0.02424837 0.023797091 -0.022315597

network_body._body_endoder.seq_layers.0.bias f4 [128]
00000000: b3ae 8b3b 23f6 323a 53cd 7a3a aa08 8b3a
00000010: aaa7 98bb 28f8 a2ba e95b 47ba 6fd8 be3b
00000020: 8d27 b93b b930 adb9 22d8 383a b55c 543b
00000030: cae3 0f3b 819e a43a b383 673b 1e7f 8eba
00000040: ab64 a4bb a6af 9b3b dcec 023b 2b5f 4e3b
00000050: c70a b33b 6e06 253c 9ca6 013b 9fc3 383b
00000060: c98b 873b a560 3eba 6aaa 0a3b fca1 adbb
00000070: f087 23ba 9113 bc3b 971c ecbb 8016 fd3b
00000080: 9750 ce3b 9770 143c 8070 45bb 61a0 873b
00000090: 7696 9e3b 7291 d13b 2048 163b 1ad8 5d3b
000000a0: 5d23 523a 2d3a ddba 40b7 16bb 06bc e6ba
000000b0: 263e 0e3c 41ca 8ebb 8012 b13b cbfb d73a
000000c0: 0be1 bb3b cc6d 8e3b f1e0 c4bb 1e61 103b
000000d0: 69e3 0ebb ae6b dc39 227c ffba a266 a6ba
000000e0: 88c3 b0ba a204 2039 74a6 baba aa9e 143c
000000f0: 4dd9 a4bb efd9 ea3a 4b58 30bb 5267 64ba
00000100: db71 03bb bf4e 82b9 8cb4 693b a07a 8abb
00000110: 9d75 343a 1ed1 013c 8583 11bb 401c ab39
00000120: 9989 0a3c a652 15bb b6cb 753b 8600 123c
00000130: 190e 423a c649 bf3b 51f9 f23b c907 513b
00000140: fe53 4a3a f7c9 9fbb baf4 ac3b cc21 163b
00000150: 7fd7 ba3a b5f7 063b 7509 ecbb 12ad 833b
00000160: daef a23b 2624 b4ba 32d6 d83b 5e63 8abb
00000170: 0faf aa3b cc41 e9bb 8f0a 1b3b 0235 8dbb
00000180: 6f01 333b c2f7 9a3a 36ec 96bb 5f1c bc3b
00000190: ead9 c23b 13bf 503b 2f9c ac3b 17cd ca3a
000001a0: 0acc bf3a 2977 c9bb e61c 83b9 50ab 06bc
000001b0: ad41 c43a 0942 093a 9f08 2c3b 4f0a 2fbb
000001c0: eec5 e83b 5229 0d3c 95bc f43b f954 f33b
000001d0: 718a c1ba 58c3 e43b 37f4 aa3a 492a f2b8
000001e0: 00c8 b23b 0345 37bb 7e05 383b ca41 12bb
000001f0: dfcf 773a 5627 2bb9 e095 e43a 2f4c b93b
0.004262769 0.00068268384 0.0009567339 0.001060744 -0.004658659 -0.0012433575 -0.0007604943 0.0058241407
0.005650467 -0.00033033433 0.0007051249 0.003240389 0.0021955841 0.0012559445 0.0035326302 -0.0010871624
-0.0050168834 0.0047511635 0.0019977605 0.003148983 0.0054639312 0.010072334 0.0019783145 0.002819277
0.0041365367 -0.0007262326 0.0021158704 -0.005298851 -0.0006238213 0.005739637 -0.0072055566 0.0077236295
0.006296228 0.009060047 -0.003012687 0.0041389917 0.0048397137 0.0063955123 0.0022931173 0.003385073
0.0008016134 -0.00168783 -0.002299741 -0.0017603643 0.0086818095 -0.0043576066 0.0054038167 0.0016478238
0.0057336143 0.004346585 -0.0060082604 0.0022030543 -0.0021803027 0.00042041898 -0.001949195 -0.0012695382
-0.0013486007 0.00015260515 -0.0014240281 0.009071032 -0.005030787 0.0017917732 -0.0026908095 -0.00087129057
-0.0020056877 -0.00024854203 0.0035660593 -0.004226044 0.0006883981 0.007923393 -0.0022203636 0.0003263671
0.008455657 -0.0022784858 0.0037505454 0.008911258 0.00074026134 0.005837652 0.0074149747 0.003189551
0.0007718204 -0.004876371 0.005278197 0.0022908328 0.0014254897 0.0020594422 -0.007203276 0.0040184343
0.00497244 -0.0013743683 0.006617331 -0.0042232713 0.005208857 -0.0071184393 0.0023657416 -0.0043092975
0.0027314087 0.0011823105 -0.0046057953 0.005740687 0.0059463875 0.003185217 0.005267642 0.0015472498
0.0014632952 -0.006148238 -0.00025007798 -0.008219555 0.0014973186 0.0005235975 0.0026250256 -0.0026709025
0.007103673 0.008615809 0.00746877 0.007425901 -0.001476599 0.0069812946 0.0013042752 -0.000115473355
0.0054559708 -0.0027964718 0.0028079445 -0.0022317045 0.00094532775 -0.00016322485 0.0017439686 0.0056548337

network_body._body_endoder.seq_layers.0.weight f4 [128, 128]
00000000: fde0 553d fbae ab3d 59a4 5dbd 7024 e23d
00000010: f06f ec3d 10f2 523d b8a6 623d f39c f33c
00000020: ba65 82bd 6d37 e8bd 56f2 5ebd 90cf 0ebc
00000030: ef53 fc3d 237f bcba 9630 3cbe 1e1c a93c
00000040: 4521 d1bc cd8f 05be 1dc4 823d b4f2 9c3d
00000050: 5573 0f3e 504b c63c 30eb bc3c 0162 a1bc
00000060: e8fa 4d3e 89b6 1c3d 6d32 fd3d a6af b03d
00000070: 6d15 59bd 9cea 6e3d 2f10 203e ad13 febb
00000080: cdeb 403e e13b 67bd 1860 8fbd 516c 57bd
00000090: 9c9f 933d 0698 003d fe40 103d 95b4 f5bd
000000a0: 4a9d 2f3e 6541 073d e29b ca3d 0e2f 8ebd
000000b0: 477f 43bd cd74 e63d 991f 203e b23f 02bd
000000c0: 1abc 4f3c 99a9 ab3d 51a3 243d 0cfa 10be
000000d0: 75a7 dbbd 1855 48be 6d3c 98bc 7350 4a3d
000000e0: 2125 343d 6427 2bbd 983a b6bd 4cde b7bb
000000f0: 7037 1d3e 5581 15bd ed72 903d ab0b 013e
00000100: e610 463b 4458 d7bc c5ef 27be a486 893c
00000110: 1512 a83d 2865 cc3d 5c0c 09bd f1b7 893b
00000120: b274 4a3c cf69 673d 0473 3dbd 04e3 9fbd
00000130: 1d95 7abd 7887 403e f34b aebd 01e9 4c3d
00000140: 1c83 39bd 502f eebc 45cc 04be 54a4 02bd
00000150: e287 a43d a0e8 a03d 270a a23d 231c ccbc
00000160: 6f70 893d 6d04 1bbd 9c49 8cbd 1c13 d0bd
00000170: 2f35 e4bd 0753 17be 4acc 8fbd 7344 48bd
00000180: 97c2 1cbd a851 3a3e 01ce bfbd 0a79 1b3d
00000190: e9c3 c0bc 5559 db3d b7fa 1ebd 7750 2bbc
000001a0: 46d8 a2bd c878 ab3d 2fda 2e3c fcf0 c73d
000001b0: 2c43 e9bc 5b82 28be 38cc 14be fd1d e93d
000001c0: de0a e9bd 2ea1 7cbb 82e3 d03d fe58 983d
000001d0: b3e8 77bd f010 3a3d 771e b1bd b897 b5bc
000001e0: 740e e0ba 1497 703d 75f0 abbd 40f2 c4bd
000001f0: 5548 84b9 c10b 963d 3beb 2f3d 397f 5bbd
00000200: bdef 953d 7c03 5b3d 6942 54bd 4f4a 83bd
00000210: cd62 03bc 838f c1bd 1944 d73b 9ff2 fbbb
00000220: 89a7 003c da0c 053d 4840 d9ba 70dc ffbd
00000230: a312 28bd 76b1 9e3c 23e9 43bd 8d93 70bd
00000240: 641b a5bc fb91 073e 5a63 533c 4642 063e
00000250: 00e3 ed3b 53da 323d 6409 adbc b9d8 883d
00000260: d715 9dbd cc5f 62bc a4a9 f63d 96bb 533c
00000270: a34b d73c 2edb 013d a44e 103c 2f48 553c
00000280: 72fa 15be 5d95 d93c 2750 a0bd fdc4 e0bd
00000290: a37d d43c e9b0 343d f892 1cbc a98f 033c
000002a0: 5c11 22be 4e2f df3d 953c 0dbd fe12 713c
000002b0: 83c2 99bd 75be 3d3e 5c48 06bd 45d3 313e
000002c0: 2792 253d e721 88bc 4b13 a7bd 4728 b3bd
000002d0: da63 fbbc 3c60 8ebd a286 153d 0459 c9bd
000002e0: 2a27 80bb 8208 54bc 43cd 113e ca4c 093d
000002f0: 5b6b ed3c 089f 7c3c b6fb c43d 0bfb ac3d
00000300: cde8 abbc c6c1 41be 541b 30bd 8c32 b03d
00000310: 8628 93bd 73dc e9bc 9c1b 433d 3af9 09bd
00000320: 3d21 6e3e d1a2 32bd 1561 d7bd 2b28 503d
00000330: d40e d1bd 0373 213e bfad 2e3d 7f9d ccbc
00000340: bc1c 30bd bb04 7b3d 2706 debb 4d49 eebd
00000350: 8537 0d3d 14f9 493e 0522 3ebd 6b06 063e
00000360: 9328 18be faf1 c7bc ac9b 1b3e b7a5 fc3d
00000370: 5ae0 07be 2759 e6bd e433 b7bd f582 213e
00000380: 2a01 e0bc 899d 103e 4a6a 34bd 5003 8d3d
00000390: 9e8b 12be f722 67bd df0d 11be 9b70 c5bd
000003a0: 7b09 823b b65b 523d 7c35 9abc 1107 863d
000003b0: 2606 cd3d b9fd 543e 880e abbd 4991 1b38
000003c0: 0ef9 c93d 71c9 9fbd 93dd fc3c a317 2b3e
000003d0: 5966 8dbd f88f d53c f2a7 3fbe 9b29 3e3d
000003e0: f4ac 80bc 5bbc 15be b55d b1bc 8d68 1fbe
000003f0: 32d4 0bbd dc16 703c cd38 cc3c c7ad 713d
0.05221652 0.08382984 -0.054111812 0.11042106 0.11544788 0.05150038 0.055334777 0.029737925
-0.06367059 -0.11338697 -0.05443033 -0.008716479 0.123206966 -0.0014381151 -0.18377909 0.02064329
-0.02552856 -0.13043137 0.06385062 0.076634794 0.1400884 0.024205834 0.023061365 -0.019700052
0.20115244 0.038260017 0.123631336 0.08627252 -0.05299895 0.05832921 0.15631174 -0.0077538104
0.18839951 -0.05645359 -0.0700075 -0.052593533 0.072081774 0.03139498 0.03521823 -0.11997334
0.17149845 0.03302135 0.098930135 -0.06942569 -0.047728803 0.11252747 0.15637054 -0.031799026
0.012679124 0.083819576 0.040194813 -0.14157885 -0.10725299 -0.1956371 -0.0185835 0.04939313
0.04398072 -0.041785613 -0.088978946 -0.0056112166 0.15353179 -0.036500294 0.0705317 0.12602107
0.0030222475 -0.026287206 -0.16400059 0.016787834 0.08206574 0.099802315 -0.033459052 0.0042028357
0.012356924 0.05649739 -0.046252266 -0.07806972 -0.06117736 0.18801677 -0.0851058 0.050026897
-0.04529105 -0.029075295 -0.12968548 -0.031894997 0.0803373 0.0785687 0.07912093 -0.02491576
0.06710898 -0.037846018 -0.068499774 -0.10159895 -0.111429565 -0.14777766 -0.07021387 -0.048893403
-0.038271513 0.18195212 -0.09365464 0.03795723 -0.023530917 0.10710398 -0.03881332 -0.010456196
-0.07951407 0.083726466 0.010672136 0.09762761 -0.028474413 -0.16455977 -0.14531028 0.11382673
-0.11379026 -0.003854822 0.10199644 0.07438849 -0.060524654 0.04542631 -0.08648389 -0.022167072
-0.0017094151 0.05873783 -0.08395473 -0.09616518 -0.00025230894 0.07326461 0.042948943 -0.053588126
0.07321117 0.05347012 -0.051821146 -0.064106576 -0.008019161 -0.09451201 0.006569397 -0.007688835
0.0078524435 0.03248296 -0.0016574943 -0.12493217 -0.0410334 0.01937173 -0.04782976 -0.058734465
-0.020154662 0.13239281 0.012902105 0.13111219 0.0072597265 0.04366524 -0.021122642 0.066819616
-0.07670181 -0.013816785 0.12044075 0.012923142 0.026281184 0.031703167 0.008807812 0.013017698
-0.14646319 0.02656048 -0.07827788 -0.109750725 0.025938815 0.044114027 -0.009556524 0.008029857
-0.15826935 0.108976945 -0.034481604 0.014714001 -0.07507803 0.18529685 -0.03278385 0.17365749
0.040422585 -0.016617728 -0.08157977 -0.08747917 -0.030687261 -0.06951949 0.03650535 -0.098314315
-0.0039109187 -0.012941482 0.14238457 0.033520497 0.028981855 0.015418775 0.096183226 0.0844632
-0.020985032 -0.18921575 -0.042994812 0.08603391 -0.071854636 -0.028547501 0.047633752 -0.033684947
0.23254867 -0.043612305 -0.10516564 0.050819557 -0.10207906 0.1576653 0.042646166 -0.024977444
-0.042996153 0.06128381 -0.0067756358 -0.11635075 0.034476776 0.19723922 -0.046419162 0.13088386
-0.14859228 -0.024407376 0.15196103 0.12336295 -0.13269177 -0.11247473 -0.08945444 0.15772612
-0.027344305 0.14122595 -0.044046678 0.068853974 -0.14311072 -0.05642983 -0.14165448 -0.096406184
0.0039684153 0.051356994 -0.018824331 0.065443166 0.10010938 0.20799913 -0.08352381 3.7090187e-05
0.098619565 -0.07802094 0.030867374 0.16708235 -0.06904287 0.026069626 -0.1871641 0.046426397
-0.01570747 -0.14622633 -0.021651128 -0.15567227 -0.034137912 0.014653888 0.024929428 0.059003618

network_body._body_endoder.seq_layers.2.bias f4 [128]
00000000: e3b6 8a3b 0793 eb3b ab8d 733a e357 75ba
00000010: 927c 8b3b cf45 b33a 3383 b0bb a183 da3a
00000020: 1e40 b53a e5ca f1bb 03e2 f0bb 9fcb a13b
00000030: 7414 6cbb af22 2c3b a251 f53b 1fb6 d9bb
00000040: a879 b7ba 3486 4f3b c7ed b5b9 62de 843b
00000050: 9d52 8a3a 1337 403b 9d9f 063b f5ed 36bb
00000060: a877 2fba 073f aa3b ea95 a93b f19f eb3b
00000070: 917f a73b f3ac 3bb7 c08f b63a a21c 2c3a
00000080: ee00 32ba 8c45 9a3b 63d6 8ebb a6cf 163c
00000090: a50e 3cbb e55b 7bba a0c6 253a febb 323b
000000a0: a0bc c1bb b778 443b cedc 453b 7e29 8c3b
000000b0: fdf0 6e3b 2f76 ae3b ae51 f23a 9ee8 a73b
000000c0: 871a e2bb 3fb6 09ba 0edb 98bb eeaa c3ba
000000d0: 0d11 afbb 2a4e 5f3b 1134 453b e527 213c
000000e0: 12df f3bb 4ed0 82bb 7523 08bb e099 eebb
000000f0: cc84 42bb 938d c53b d758 91ba c7e1 163b
00000100: cd13 d6bb 5e38 9c3b 7c8e 12bb c69d ac3b
00000110: cb1c b63b 27b1 f2bb 97ab 4d3a f167 f53a
00000120: f445 a93b 4284 1c3b 016a d6b9 a190 393a
00000130: 1b2c 31bb 3890 843b b3dd 7d39 bc6d 2ebb
00000140: b4a9 7839 c32c 2d3b 7ec1 4f3b 4fd2 9eb8
00000150: 27ed 983b 4c9f 83bb bd3c caba 0ef6 0c3b
00000160: ce11 013c 4a6b 85ba 4bf3 a4ba eb0e aabb
00000170: 89d4 c13b 0c4f 003b a903 d8ba 35d7 083b
00000180: 1f5c bb3b f977 f33a 36b2 cf3b 5560 803a
00000190: df38 3ebb c384 9bbb 5e81 ef3a 850c 8fbb
000001a0: 4e2c 9dbb 896d c13b 23e8 10b9 62e7 06bb
000001b0: a960 ea3b 8daf 45bb d588 d7bb d979 c43a
000001c0: af62 30bb 41fa 6739 fb04 a5bb 725a ef3b
000001d0: 4862 bebb 9c64 a73a 7431 b63b 1797 09bb
000001e0: e716 d9bb 9159 613b e207 bc39 422b 7a3a
000001f0: 6ca2 053b 74d2 bdbb 3195 9c3b 4549 993b
0.0042332276 0.007189158 0.00092908245 -0.00093591044 0.0042567933 0.0013677421 -0.005386734 0.0016671309
0.0013828313 -0.0073789232 -0.0073511614 0.0049376036 -0.0036022933 0.002626579 0.007486538 -0.006644025
-0.0013998048 0.0031665685 -0.00034700168 0.0040548304 0.0010553185 0.0029329702 0.0020541914 -0.002791283
-0.00066935504 0.0051955017 0.005175342 0.0071906974 0.0051116426 -1.1186336e-05 0.0013928339 0.0006565546
-0.00067902997 0.0047079977 -0.004359053 0.009204781 -0.0028695252 -0.00095885835 0.0006323848 0.0027272697
-0.0059123784 0.0029979178 0.0030191424 0.004277407 0.0036459558 0.005324147 0.0018487477 0.0051241657
-0.006900135 -0.0005253292 -0.004664785 -0.001492826 -0.005342609 0.003407369 0.0030090848 0.009836172
-0.0074423635 -0.003992117 -0.0020773087 -0.007281527 -0.0029681204 0.00602884 -0.0011089098 0.0023022757
-0.006533122 0.0047674617 -0.002236276 0.0052678315 0.0055576316 -0.007406372 0.0007845698 0.0018722994
0.0051658098 0.0023882543 -0.0004089624 0.00070787413 -0.0027034346 0.0040455125 0.0002421055 -0.00266157
0.00023714342 0.0026424385 0.0031701024 -7.5732e-05 0.0046669426 -0.0040167924 -0.0015429478 0.0021508965
0.00787778 -0.0010179069 -0.0012584714 -0.0051897666 0.0059152287 0.0019578366 -0.0016480583 0.0020880227
0.005717769 0.0018575183 0.006338383 0.0009794334 -0.0029025597 -0.004746051 0.0018272807 -0.004365506
-0.0047965413 0.00590295 -0.00013819388 -0.0020584692 0.007152636 -0.003016445 -0.006577591 0.0014989927
-0.0026914289 0.00022123104 -0.005035994 0.007304483 -0.005810056 0.0012771073 0.0055600945 -0.0020994598
-0.0066250446 0.003438566 0.00035864027 0.0009543189 0.0020391 -0.0057929102 0.004778527 0.004677924

network_body._body_endoder.seq_layers.2.weight f4 [128, 128]
00000000: 3601 503e df5c 98bc f355 87bd ac4c 43bd
00000010: 7268 203e 9e01 12bd 9bf9 ee3d f429 0f3d
00000020: 07b5 8a3d 90af 9d3d f223 6bba d488 31b8
00000030: abb3 05bd 2615 1b3e 4e07 1b3d d0f9 0c3e
00000040: 61ed d33c e0ca 69bd f456 413e d2e1 80bd
00000050: f486 bebb 1974 2e3d ca4e c13b e747 febb
00000060: a1a5 d13c ac66 f23d 1a58 073e 963f e83c
00000070: ef95 58be 75e1 883c 1da8 7c3d cc89 6a3d
00000080: 06ca 05bb 4b43 80bd 79c1 a03b bdc0 20bd
00000090: 853d c7ba efdf 973d a8f8 3abd 5b8c abb9
000000a0: 094c 23bd 5617 7ebd df08 afbd cc8d e1bc
000000b0: d971 fc3c ebaf 87bc bc20 debd 6d7b c63d
000000c0: 056f 0ebc eedf e3bd 53e3 10be 61de 413d
000000d0: efd3 113d c5a5 c63d 8d59 2b3d 570a a6bd
000000e0: f93e 84bd 5ca6 063e 63a3 fb3c b971 a13c
000000f0: 5b8e afbc 6411 903d 04cb 503d a208 09be
00000100: f212 9a3d 9f5e e3bd b0cd 5cbd f658 2d3d
00000110: 3743 30be 3a77 733d cf07 bbbd 8220 eb3d
00000120: 6988 92bd 69b1 653d 9ec5 52bd c4d4 613d
00000130: 9f9f 053d eb5f 60bd 4128 1c3e abf5 233e
00000140: ed74 453d d5a5 a13b 211f babd b787 493d
00000150: 7e6f 87bd 43ae d6bd 2444 11be 4803 91bd
00000160: 3fd7 24be b2c5 003e 8f50 6b3c f497 54bd
00000170: 7c7c cabd 843e 453d 35be a6bc 5e89 3fbe
00000180: 1116 953c 61bd 1cbd a3ad d3bc 2487 5c3d
00000190: 9ce9 a33d 5a79 a83d 8f77 88bb 511d 83bc
000001a0: ddae dabd 8736 f2bc cb3c d7bd 0b52 8cbd
000001b0: 0dfc 05bd b74e 9bbc 039e 09bd 094b 913d
000001c0: faf6 87bd f54f 8b3d 34a1 8f3d 47d8 8bbc
000001d0: d7e3 ccbd 6eeb ba3d bbc1 87bd 468e 0c3b
000001e0: a5cb ef3d 14e4 313e 2599 ee3d 4e87 bd3d
000001f0: d78e 703d 8a5a babd c727 f23d 38b1 de3c
00000200: 0895 32bd d9e0 92bd f2f2 16bc 1d68 e8bb
00000210: 6910 573d f308 233d 1943 22be 7f05 f63c
00000220: 2838 55bc b456 da3c ddb6 a63c 6011 7ebd
00000230: 59df 05bc 8387 46bd 10a4 fdbb 0931 973d
00000240: 186f 6d3d 3078 633c ace7 5f3d bd52 e5bc
00000250: 4550 d2bd ecdf 29bd ffe6 c03d c196 2cbe
00000260: d628 a1bd f33d f9bd fd71 61bd 328d e83d
00000270: 26cf 933b 5e0e 24bb 6819 8cbd b375 0fbd
00000280: 87a5 49bd 95a4 20bc 51be 3c3d 2687 863c
00000290: ea9f 8b3d a409 063c d8c5 c73b 5db2 5a3d
000002a0: ebd9 12be 6584 34be 6276 eebd d7ef 98ba
000002b0: 2cfe 00be 66ae c33c d0de 243e a647 a0bc
000002c0: 85a2 9c3d fefd 9f3c 0f70 863d aba7 453b
000002d0: 13eb 4d3d 906f 193d 6725 ffbd 212d 823c
000002e0: 9090 98bd 857d c0bd 3e34 1abc 1eb4 61be
000002f0: 03b3 283c 63ca 863d 5e49 a53d a0b3 bdbd
00000300: 0ad1 403e 8d93 0c3d 1806 a23b 934d 11be
00000310: 4fc9 02be 42ce 4c3e 4b00 faba bde6 de3d
00000320: b4a9 4a3c e05d f6bd 29e8 8abd bee6 973d
00000330: 4d28 b7bb 4fee f5bb 2656 a53d a44c fabc
00000340: 8825 413d 1788 143d c926 bebc 483d 513c
00000350: b24c 363e 4d1f 833d a510 ac3b cf33 7abd
00000360: aa72 99bc 188e 54bd 20ca 41bd 56d4 873d
00000370: 3089 993c 286d eb3d 6258 293e 58df 62bc
00000380: 2ed9 93bd 50a6 c73c 245d 46bd 19e0 16be
00000390: dbf4 063d e289 583e e273 1e3d ccd3 23bc
000003a0: 76af 723d a48e 81bd 3c26 fd3d 1a6e 9cba
000003b0: 35aa f13d 0788 04be 96e2 94bc 8b70 cabc
000003c0: 9d46 6c3d e514 a83d 031c f5bb 1313 b53d
000003d0: 948b 81bd 46e9 b7bb 5398 ff3c 6cd1 e23a
000003e0: 11ff 0c3e db05 bd3c da42 a5bc 6303 153e
000003f0: b18a 063d 7f83 73bc 642a 1f3c 4ca4 453d
0.20312962 -0.018598972 -0.066081904 -0.047680542 0.15664843 -0.035646074 0.11668702 0.03495212
0.067728095 0.076995015 -0.0008969895 -4.232752e-05 -0.032642048 0.15144786 0.037848763 0.13767171
0.025870027 -0.057078242 0.18880826 -0.06293072 -0.0058144275 0.042591188 0.005899285 -0.0077600363
0.025591673 0.11835989 0.13217202 0.028350633 -0.21150945 0.016709069 0.061683763 0.05726032
-0.0020414605 -0.06262835 0.0049058762 -0.03924631 -0.0015200829 0.07415759 -0.045647293 -0.00032720235
-0.039867435 -0.062033974 -0.08546614 -0.027533434 0.030816006 -0.016563376 -0.10846087 0.0969151
-0.008693461 -0.111266956 -0.14149217 0.047331218 0.035602506 0.09699587 0.04183345 -0.08107441
-0.064573236 0.13149399 0.030717557 0.019707548 -0.021430185 0.07034567 0.05097486 -0.133822
0.07523145 -0.11102032 -0.053907096 0.042321168 -0.1721314 0.059439875 -0.09132349 0.1148081
-0.071549244 0.056077395 -0.051457994 0.05513455 0.03262293 -0.054778975 0.1524973 0.16011684
0.048207212 0.004933099 -0.090879686 0.049201693 -0.06613062 -0.104824565 -0.1418615 -0.07080704
-0.16097735 0.12575415 0.014362468 -0.051902726 -0.09887025 0.048155323 -0.02035437 -0.18704745
0.018198999 -0.038266543 -0.025839632 0.053839818 0.08003542 0.08226271 -0.004164643 -0.01600519
-0.10677884 -0.029567016 -0.10509642 -0.06851586 -0.032711077 -0.018958433 -0.033597957 0.0709439
-0.06638904 0.0680236 0.07013169 -0.017070903 -0.100043945 0.09126936 -0.06628748 0.0021447106
0.11708764 0.17372161 0.11650304 0.09254323 0.058729973 -0.090993 0.11823993 0.027184114
-0.04359916 -0.071717925 -0.009213196 -0.0070924894 0.052505884 0.039803457 -0.15845908 0.030031918
-0.013013877 0.026652671 0.020350868 -0.06202829 -0.008170926 -0.048469078 -0.007740505 0.073823996
0.057967275 0.013883635 0.0546643 -0.027993554 -0.102692164 -0.041473314 0.09419059 -0.16854383
-0.07869117 -0.12170019 -0.05504035 0.11355056 0.004510778 -0.0025032978 -0.06840783 -0.035024356
-0.049230125 -0.009804864 0.046079937 0.016421866 0.068176106 0.008181009 0.006096583 0.053392757
-0.14340942 -0.1762863 -0.116436735 -0.0011668158 -0.12596959 0.02388687 0.16100621 -0.019565415
0.07648186 0.019530293 0.06564342 0.0030159752 0.050273012 0.03745991 -0.12458306 0.01589066
-0.07449448 -0.09398941 -0.00941187 -0.22041366 0.010296586 0.06581571 0.08070634 -0.092627764
0.18829742 0.034320403 0.004944574 -0.14189748 -0.12772106 0.20000556 -0.0019073574 0.108838536
0.012369562 -0.12029624 -0.06782562 0.074170575 -0.005589521 -0.0075052152 0.08073072 -0.030554123
0.047154933 0.036262598 -0.023211854 0.012770958 0.17802694 0.064024545 0.0052510076 -0.061084565
-0.018731434 -0.051893324 -0.047311902 0.06632297 0.018742174 0.11495429 0.16537622 -0.013847195
-0.07219158 0.024371296 -0.04842867 -0.14733924 0.032948356 0.21146348 0.038684733 -0.009999227
0.059249364 -0.06326035 0.12360808 -0.0011934668 0.118000425 -0.12942515 -0.01817445 -0.024711868
0.05768453 0.0820711 -0.007480146 0.08841529 -0.063254505 -0.005612525 0.031200564 0.0017304844
0.13769175 0.023074081 -0.020173479 0.14552073 0.03284711 -0.014862894 0.009714697 0.04825239
