results/FoodTarget_imitation_4/AgentPlayer/AgentPlayer-121340.onnx (onnx, 136525 bytes, 7 tensors)

action_model._continuous_distribution.log_sigma f4 [1, 5]
0.020906836 0.015185117 0.0028855868 -0.004846553 -0.0029948582
00000000: d044 ab3c ffca 783c 1d1c 3d3b d5cf 9ebb
00000010: 6245 44bb

action_model._continuous_distribution.mu.bias f4 [5]
-0.0023210228 -0.004427648 -0.002174652 -0.008055998 -0.009834248
00000000: 4d1c 18bb ce15 91bb 9b84 0ebb 4efd 03bc
00000010: d31f 21bc

action_model._continuous_distribution.mu.weight f4 [5, 128]
0.017386364 -0.022656476 0.011490722 -0.05163726 0.008241381 0.035423335 0.026424438 0.03516007
-0.03422698 -0.06155166 0.072195 -0.04628097 0.038086146 -0.020192897 -0.04611231 -0.01960002
0.020392187 0.023564707 0.0061447863 0.027499836 0.01616928 0.045492582 -0.05225763 0.057754297
0.0032361965 -0.0008083847 -0.0058045234 -0.048189424 -0.055617865 0.012883954 0.03656776 0.008308974
-0.053002894 -0.026786124 -0.008007603 -0.0003914224 0.044803828 0.04206074 -0.028615914 -0.038667332
0.0011600127 0.0058146594 -0.019748652 0.019217925 0.014094053 0.038044613 -0.00863832 -0.040438455
-0.05293025 -0.05163666 0.016420882 -0.010685614 0.05691129 0.047921445 0.007772285 -0.041867845
-0.0019937207 -0.04057577 0.03663502 0.051089317 -0.060798906 0.023633258 -0.0092978645 0.0059868684
-0.06699394 0.02431772 -0.04169739 0.019961702 -0.03596175 0.04801207 -0.018195987 -0.038343456
0.020772655 0.03498282 0.050125733 0.024134828 0.007115098 -0.04603235 -0.030755835 0.030814636
-0.016228415 -0.039368983 -0.036389444 -0.028788371 0.016788563 -0.0018979382 -0.02711363 0.018341469
-0.06615934 0.05352012 0.0024104693 0.034202307 0.038934913 -0.016810263 -0.054812126 0.017732268
-0.0020294453 0.023539206 0.011803526 -0.021791417 0.05503774 -0.031612042 -0.033766177 0.0124044595
-0.0145573495 0.015070233 -0.043177005 -0.0086411685 -0.039491307 -0.026731154 -0.04889301 -0.0034257139
0.00944513 -0.022079468 0.06149531 0.028628472 -0.02113305 -0.0010527007 0.05330945 0.04401226
-0.051438656 -0.03759774 0.0137543 0.026799783 -0.018509585 0.020241441 -0.048675913 0.00963157
0.025902634 -0.0049550286 0.012978138 0.028918615 -0.012630252 0.013374357 -0.063791156 0.004396782
0.004737727 -0.019862892 -0.05688688 0.019229177 -0.037349135 0.053136554 0.04750929 -0.035866376
0.037091233 -0.0026459747 -0.002950406 -0.004124101 -0.040023778 0.043939926 0.03436606 0.0017728148
0.032187846 0.026157768 -0.007225213 -0.032304503 -0.031415716 -0.012396313 0.029050043 -0.008274012
-0.027219834 -0.04975208 0.05688584 -0.039243456 -0.06629805 -0.043248944 0.024630649 -0.030635228
0.05458418 0.08145899 0.023607846 0.0013673234 -0.026296107 0.012638766 0.032748975 0.011704674
-0.00019345636 -0.009052128 -0.0033387817 -0.007507024 0.00926687 -0.015636938 0.033017028 0.01812725
-0.01888234 0.06770799 -0.0073156133 0.0639805 -0.0057013794 0.010538547 0.029937763 -0.054819606
-0.01767166 0.020504149 -0.020787878 0.022225706 -0.03464143 -0.002585246 -0.046844415 0.004871943
0.018862875 -0.05422781 -0.004784582 -0.0056182807 0.010752094 0.0003303373 0.010474651 -0.04057104
0.018612627 -0.012848629 0.036386546 0.029575562 -0.03205522 -0.0040998305 -0.027969474 -0.043179862
0.035072632 0.009962011 -0.044715337 0.016620932 0.019632779 -0.05014398 -0.00036488738 0.05148519
-0.024629116 0.031003905 -0.003626141 0.018470833 -0.0349177 -0.04458012 0.023729349 -0.024234205
-0.05560587 -0.06945614 -0.0146647375 -0.035911247 -0.0047001503 0.035472292 -0.021957437 -0.03821476
0.028658899 0.010633465 0.0014696949 0.021172034 0.014114759 -0.006520159 0.019564405 -0.014647043
0.008170263 -0.022804845 0.00210385 -0.01746581 0.026586134 0.0048692 -0.07098289 0.0123989815
00000000: d96d 8e3c 139a b9bc 9543 3c3c 9781 53bd
00000010: db06 073c 0f18 113d 1078 d83c 0104 103d
00000020: 9731 0cbd 981d 7cbd f9da 933d 1d91 3dbd
00000030: 3800 1c3d 936b a5bc 43e0 3cbd 3990 a0bc
00000040: 840d a73c c60a c13c 345a c93b 5647 e13c
00000050: 7075 843c 6e56 3a3d 190c 56bd c58f 6c3d
00000060: 5e16 543b c7e9 53ba df33 bebb 4662 45bd
00000070: 8fcf 63bd 3817 533c 13c8 153d 5d22 083c
00000080: 9019 59bd 936e dbbc 5232 03bc d337 cdb9
00000090: 3884 373d e247 2c3d ec6b eabc a361 1ebd
000000a0: 910b 983a e688 be3b edc7 a1bc e96e 9d3c
000000b0: beea 663c abd4 1b3d bd87 0dbc cba2 25bd
000000c0: 64cd 58bd f680 53bd 1685 863c b712 2fbc
000000d0: d01b 693d 4749 443d a7ae fe3b 9e7d 2bbd
000000e0: 15a9 02bb c732 26bd 9a0e 163d 0843 513d
000000f0: 4608 79bd 899a c13c 1256 18bc 7e2d c43b
00000100: 1e34 89bd f535 c73c e2ca 2abd b986 a33c
00000110: a14c 13bd 4ea8 443d c00f 95bc 070e 1dbd
00000120: 6a2b aa3c 254a 0f3d a450 4d3d 67b6 c53c
00000130: c525 e93b 6b8c 3cbd a9f3 fbbc fa6e fc3c
00000140: 74f1 84bc 5f41 21bd 190d 15bd 97d5 ebbc
00000150: 2b88 893c 3dc4 f8ba 671d debc d940 963c
00000160: 8c7e 87bd ea37 5b3d f7f8 1d3b b817 0c3d
00000170: 377a 1f3d adb5 89bc ae82 60bd 4343 913c
00000180: 7100 05bb 4bd5 c03c 9463 413c ea83 b2bc
00000190: 416f 613d a17b 01bd 674e 0abd 133c 4b3c
000001a0: f381 6ebc 23e9 763c 5fda 30bd b093 0dbc
000001b0: a3c1 21bd 4bfb dabc 0944 48bd f181 60bb
000001c0: bfbf 1a3c 00e0 b4bc 82e2 7b3d 4286 ea3c
000001d0: 381f adbc c6fa 89ba 035b 5a3d 3346 343d
000001e0: 57b1 52bd 1600 1abd b759 613c 388b db3c
000001f0: 6aa1 97bc 61d1 a53c 6560 47bd bccd 1d3c
00000200: c331 d43c cb5d a2bb 42a2 543c bbe6 ec3c
00000210: 1eef 4ebc 1e20 5b3c f0a4 82bd e112 903b
00000220: ef3e 9b3b 81b7 a2bc 3802 69bd 8286 9d3c
00000230: 68fb 18bd b7a5 593d 1a99 423d 9fe8 12bd
00000240: faec 173d 1768 2dbb 995b 41bb 7723 87bb
00000250: f9ef 23bd 5afa 333d 6dc3 0c3d cb5d e83a
00000260: 67d7 033d d148 d63c 7bc1 ecbb ba51 04bd
00000270: c4ad 00bd e819 4bbc 5bfa ed3c b98f 07bc
00000280: 21fc debc d6c8 4bbd 2001 693d bfbd 20bd
00000290: 46c7 87bd ce25 31bd 37c6 c93c bbf6 fabc
000002a0: a993 5f3d f9d3 a63d 3e65 c13c c337 b33a
000002b0: ef6a d7bc d412 4f3c ca23 063d f6c4 3f3c
000002c0: 8cda 4ab9 604f 14bc 76cf 5abb 7bfd f5bb
000002d0: 12d4 173c 0919 80bc dd3c 073d 997f 943c
000002e0: 23af 9abc 7daa 8a3d d0b7 efbb 3508 833d
000002f0: a3d2 babb dfa9 2c3c 0a40 f53c 868a 60bd
00000300: 28c4 90bc 51f8 a73c 574b aabc af12 b63c
00000310: 2ce4 0dbd 3b6d 29bb eedf 3fbd d2a4 9f3b
00000320: 5186 9a3c fb1d 5ebd fcc7 9cbb 8e19 b8bb
00000330: 8d29 303c 1f31 ad39 df9d 2b3c d22d 26bd
00000340: 8279 983c 0e83 52bc 0f0a 153d 7348 f23c
00000350: 564c 03bd df57 86bb 3d20 e5bc 5edd 30bd
00000360: 52a8 0f3d b437 233c 6e27 37bd 9f28 883c
00000370: ecd4 a03c c663 4dbd 5b4e bfb9 22e2 523d
00000380: 00c3 c9bc e7fb fd3c 8da4 6dbb 2550 973c
00000390: dd05 0fbd a599 36bd 0d64 c23c d086 c6bc
000003a0: fbc2 63bd 053f 8ebd 5e44 70bc ac17 13bd
000003b0: b803 9abb 654b 113d 15e0 b3bc 1587 1cbd
000003c0: 11c6 ea3c fc37 2e3c c7a2 c03a f970 ad3c
000003d0: 9741 673c 0fa7 d5bb 8845 a03c 27fa 6fbc
000003e0: 91dc 053c 3ad1 babc bfe0 093b 7514 8fbc
000003f0: 2acb d93c cf8d 9f3b 7a5f 91bd 1925 4b3c

network_body._body_endoder.seq_layers.0.bias f4 [128]
0.0014119147 0.011057637 0.010012638 0.014061843 0.010078068 0.0076971063 -0.008297569 -0.0077646305
0.011633133 0.016057393 -0.00013639608 0.016861053 0.0034679421 0.0028479774 0.015107392 0.009211749
-0.002628349 -0.019906245 0.0071284208 -0.0036983388 0.019808603 0.020910373 0.0015045264 0.012183947
-0.0058247196 0.014971397 0.025749383 -0.0072260667 0.005164838 0.02254887 0.010022942 0.0019554305
0.014261003 0.01490629 0.029170891 -0.022657532 0.018012397 0.014439742 0.017834157 0.012274419
0.020105612 0.0025703849 0.0049221916 -0.0018238683 0.013202959 0.006828841 -0.0022453077 0.008636359
0.0009811141 -0.001841935 0.006183405 -0.0056687235 0.02846158 0.02547614 0.0058974256 0.003160015
0.027802976 -0.008808887 0.016288063 0.00993875 -0.0018552465 0.003289662 0.014402063 0.005094581
0.02912689 -0.006844323 -0.0070204227 0.009876741 -0.0029712652 0.013423998 0.0027211295 0.016141884
0.0020137995 0.0029734073 0.0100869415 0.0065943105 0.0038990926 0.006844606 0.0034039437 0.0099655995
-0.00019597213 0.010992911 0.008013367 0.0008697138 0.006217656 -0.004920856 -0.005744464 -0.008336066
-0.020740079 0.007110424 0.0071040536 0.0043717283 0.019974435 0.016956883 0.010048997 0.013253281
0.00095080066 0.0020193309 -0.017195772 0.014964006 -0.005149752 0.006126845 0.021451663 -0.0021683616
0.0070642116 0.002079853 -0.0011027554 0.008582167 0.0051035476 -0.007168789 -0.018962555 0.0046757744
-0.037572175 0.0023997559 0.0058175097 -0.0015138052 0.010428453 0.012652439 0.0060500824 0.01782661
0.009502306 0.011867779 -0.0055009997 0.006892286 0.009865639 -0.013187959 -0.008593098 -0.007262038
00000000: ff0f b93a 172b 353c 0c0c 243c a563 663c
00000010: 7b1e 253c 0238 fc3b 87f2 07bc 716e febb
00000020: e598 3e3c cb8a 833c 8b05 0fb9 3120 8a3c
00000030: 6a46 633b 22a5 3a3b ff84 773c e0ec 163c
00000040: 6140 2cbb 6c12 a3bc 8795 e93b d45f 72bb
00000050: a745 a23c 3b4c ab3c 8733 c53a 2d9f 473c
00000060: 4add bebb 974a 753c 5ff0 d23c a4c8 ecbb
00000070: cd3d a93b 68b8 b83c 4437 243c ae26 003b
00000080: fba6 693c 8339 743c cbf7 ee3c 4a9c b9bc
00000090: bc8e 933c ab94 6c3c f018 923c a51a 493c
000000a0: 86b4 a43c e773 283b 564a a13b dd0e efba
000000b0: 3951 583c 78c4 df3b 0326 13bb 847f 0d3c
000000c0: ba98 803a 156d f1ba 299e ca3b b3c0 b9bb
000000d0: 4228 e93c 57b3 d03c 313f c13b 4118 4f3b
000000e0: 11c3 e33c 2653 10bc 8b6e 853c 24d6 223c
000000f0: be2b f3ba 5f97 573b a1f6 6b3c 71f0 a63b
00000100: 849b ee3c 5846 e0bb 930b e6bb 0ed2 213c
00000110: 8fb9 42bb 54f0 5b3c fa54 323b fc3b 843c
00000120: f3f9 033b 7fdd 423b b343 253c 1615 d83b
00000130: eb87 7f3b b748 e03b b314 5f3b c146 233c
00000140: de7d 4db9 9c1b 343c 7f4a 033c 81fd 633a
00000150: 7bbd cb3b 223f a1bb 0f3c bcbb ff93 08bc
00000160: 19e7 a9bc 8ffe e83b 1fc9 e83b b740 8f3b
00000170: 6da1 a33c 29e9 8a3c 8ca4 243c 4a24 593c
00000180: 273f 793a c056 043b 26de 8cbc 972b 753c
00000190: 40bf a8bb b3c3 c83b 66bb af3c 121b 0ebb
000001a0: e77a e73b 254e 083b 558a 90ba 389c 0c3c
000001b0: a93b a73b 29e8 eabb 5c57 9bbc 3d37 993b
000001c0: 48e5 19bd 3945 1d3b cfa0 be3b e06a c6ba
000001d0: 1adc 2a3c 2d4c 4f3c c53f c63b 1c09 923c
000001e0: 8faf 1b3c 1371 423c bb41 b4bb afd8 e13b
000001f0: 7da3 213c 4f12 58bc 11ca 0cbc 64f6 edbb

network_body._body_endoder.seq_layers.0.weight f4 [128, 128]
-0.05589705 0.08218962 -0.026876323 0.15503508 0.04648966 0.07253567 0.0028939159 0.042553037
-0.041549318 -0.044511 -0.07461846 -0.12029987 -0.004894687 0.014617226 0.16161388 -0.09614199
0.040622 -0.0119071705 0.06695517 -0.090826236 0.016168987 -0.040095713 -0.0019323789 -0.012967367
-0.0073433802 -0.04234684 -0.020684866 -0.012282994 -0.07226125 -0.065113746 -0.037270173 0.041544758
0.10872993 0.1726841 -0.012692615 -0.1422691 -0.19951713 0.014134485 0.10025184 -0.05361715
0.04051145 0.14646819 -0.024431271 0.018672775 0.104342416 0.024305074 0.10786986 0.08391322
0.100332014 0.029009366 0.11402809 -0.06137509 -0.06618799 0.012854315 0.019254964 -0.028601296
0.011303431 -0.014509137 0.047673263 -0.014909708 0.025886523 0.031038519 0.16237192 -0.058643077
-0.12756486 -0.016027061 0.06728025 -0.09763488 -0.031008877 -0.039796006 -0.04317686 -0.03148531
-0.060828626 0.07437556 -0.089783564 0.015567112 -0.049582995 -0.06853338 -0.061896082 0.010945055
-0.030082652 0.08243975 0.03604859 0.034837916 0.0017982109 -0.08941074 0.044356834 -0.05203326
-0.0512485 0.111967646 -0.09056435 0.1529174 -0.028242273 -0.07044936 0.025983537 -0.032523226
0.010591313 0.015397749 -0.21763591 0.063996 -0.011741442 0.057708155 0.068865456 0.07809657
0.08035681 -0.01697656 -0.1137647 0.07082506 -0.041046232 -0.07261996 -0.009770718 0.116812065
0.09331104 -0.01572001 -0.084224656 -0.12773544 -0.097855255 -0.21855067 -0.05373288 0.07025682
-0.07664329 0.06093274 -0.0424476 0.04311808 0.027042344 -0.018382387 -0.038602244 0.01644956
-0.040276304 0.12270359 -0.033865623 -0.034764856 0.008538579 0.058185708 -0.005844842 -0.015669836
0.1408212 0.14087959 -0.1131324 0.116222054 0.014981872 0.13006015 0.06261383 -0.04826928
0.021550316 0.066822365 -0.103731655 0.03013299 0.06710205 -0.02148672 0.0810997 -0.03204256
-0.1016422 0.1135574 0.12622498 0.10635898 0.058926724 -0.06274264 -0.0024720915 -0.07029399
0.063670136 0.06281414 0.05526944 -0.07450038 0.058900278 -0.15418531 -0.041027624 -0.26951045
0.12730965 0.08445015 -0.13600647 -0.16458867 0.107585564 -0.07473026 -0.043514393 0.1600314
-0.039639756 -0.014299937 0.14556581 -0.018811492 0.04026875 0.124885134 -0.06919962 0.1523709
0.083263576 -0.06073654 0.069202155 -0.068634875 -0.08912923 -0.11398853 -0.03826379 -0.04301999
0.052864343 0.12595646 -0.10748694 0.072295085 -0.026334427 -0.032413553 -0.0066517084 0.11934955
0.069620736 -0.013408832 -0.01267273 -0.05633196 -0.016288657 -0.08157829 0.024771277 0.08337091
-0.025886206 0.14939815 0.124259666 0.12602808 -0.109581955 -0.022184633 -0.058899187 0.030828916
-0.06701825 0.00019836996 -0.07416168 -0.047990296 -0.09116266 -0.18779022 -0.019303419 0.0526718
-0.04538253 0.06389364 0.0068061496 0.07016319 0.20607863 0.04491605 0.0386992 0.0315629
-0.07429866 0.028687576 0.043036357 -0.027388653 0.18442662 -0.13827027 0.11949468 -0.048409015
0.00020776737 0.012529759 -0.09396628 0.10961519 -0.10581149 -0.10810206 -0.06892694 0.17778587
-0.01799537 0.06739483 -0.0703335 0.097163044 0.057131886 -0.043053526 -0.013185439 0.02511238
00000000: 4ef4 64bd 0853 a83d bc2b dcbc 84c1 1e3e
00000010: f16b 3e3d 958d 943d daa7 3d3b 184c 2e3d
00000020: 9e2f 2abd 2b51 36bd 90d1 98bd c75f f6bd
00000030: 9c63 a0bb 177d 6f3c 1c7e 253e 17e6 c4bd
00000040: 4163 263d 4b16 43bc cb1f 893d 1b03 babd
00000050: d374 843c 673b 24bd e047 fdba 1475 54bc
00000060: bda0 f0bb e173 2dbd 4f73 a9bc 9c3e 49bc
00000070: b5fd 93bd 5b5a 85bd 9ca8 18bd d62a 2a3d
00000080: ccad de3d 1ad4 303e b0f4 4fbc feae 11be
00000090: 384e 4cbe 5494 673c d650 cd3d a89d 5bbd
000000a0: 56ef 253d c2fb 153e 1724 c8bc a6f7 983c
000000b0: 7ab1 d53d 6f1b c73c e0ea dc3d b2da ab3d
000000c0: df7a cd3d 0da5 ed3c 8f87 e93d 7264 7bbd
000000d0: 928d 87bd e89a 523c 96bc 9d3c 444d eabc
000000e0: 0732 393c bbb7 6dbc 0a45 433d d947 74bc
000000f0: f90f d43c 7e44 fe3c d344 263e b933 70bd
00000100: 5da0 02be 2f4b 83bc 3aca 893d ccf4 c7bd
00000110: 5406 febc 2301 23bd 38da 30bd bef6 00bd
00000120: 7027 79bd 3752 983d 72e0 b7bd 330d 7f3c
00000130: 8a17 4bbd 3b5b 8cbd bf86 7dbd e352 333c
00000140: e56f f6bc 2cd6 a83d b0a7 133d 34b2 0e3d
00000150: f2b1 eb3a fa1c b7bd 83af 353d d420 55bd
00000160: f2e9 51bd 4b4f e53d cd79 b9bd 6196 1c3e
00000170: 575c e7bc c147 90bd 6ddb d43c 1337 05bd
00000180: 3087 2d3c d746 7c3c f3db 5ebe 5610 833d
00000190: 2d5f 40bc 635f 6c3d 5509 8d3d 18f1 9f3d
000001a0: 1c92 a43d 6d12 8bbc 78fd e8bd bb0c 913d
000001b0: 1820 28bd c6b9 94bd 5d15 20bc 2a3b ef3d
000001c0: dc19 bf3d 40c7 80bc fa7d acbd 14cd 02be
000001d0: 5668 c8bd bfcb 5fbe 0217 5cbd cfe2 8f3d
000001e0: 28f7 9cbd 9c94 793d 89dd 2dbd 959c 303d
000001f0: e887 dd3c a996 96bc 631d 1ebd 3ac1 863c
00000200: c4f8 24bd 054c fb3d aeb6 0abd 9865 0ebd
00000210: 65e5 0b3c 2354 6e3d 1786 bfbb 075e 80bc
00000220: 6f33 103e bd42 103e f6b1 e7bd d405 ee3d
00000230: 8776 753c 7d2e 053e ae3b 803d 02b6 45bd
00000240: 4a8a b03c 2ada 883d 4371 d4bd 76d9 f63c
00000250: cd6c 893d eb04 b0bc 9917 a63d 0f3f 03bd
00000260: c929 d0bd c890 e83d 1f41 013e bdd2 d93d
00000270: 265d 713d 377f 80bd d002 22bb 4cf6 8fbd
00000280: 7d65 823d b3a4 803d 3562 623d a893 98bd
00000290: 6b41 713d c1e2 1dbe 950c 28bd 46fd 89be
000002a0: 765d 023e 33f4 ac3d 4845 0bbe ef89 28be
000002b0: d255 dc3d 2e0c 99bd 263c 32bd 45df 233e
000002c0: 4c5d 22bd 484a 6abc 340f 153e 8f1a 9abc
000002d0: d8f0 243d c7c3 ff3d 88b8 8dbd 1e07 1c3e
000002e0: 1886 aa3d e1c6 78bd dcb9 8d3d 7190 8cbd
000002f0: 6389 b6bd d272 e9bd 7eba 1cbd bb35 30bd
00000300: 4888 583d bbfa 003e 1d22 dcbd 720f 943d
00000310: 4cbb d7bc 13c4 04bd 93f6 d9bb 896d f43d
00000320: 5195 8e3d b8b0 5bbc 48a1 4fbc 57bc 66bd
00000330: ca6f 85bc 8512 a7bd 22ed ca3c 5ebe aa3d
00000340: 4f0f d4bc d4fb 183e da7b fe3d 810d 013e
00000350: 816c e0bd 8cbc b5bc 4640 71bd ec8c fc3c
00000360: dd40 89bd 8801 5039 14e2 97bd 7991 44bd
00000370: 7db3 babd 144c 40be 3422 9ebc 63be 573d
00000380: 08e3 39bd abda 823d 1f06 df3b b8b1 8f3d
00000390: 4706 533e e4f9 373d 0d83 1e3d 1948 013d
000003a0: e529 98bd 3502 eb3c e446 303d 2b5e e0bc
000003b0: 55da 3c3e b996 0dbe a0b9 f43d 8848 46bd
000003c0: 21dc 5939 9e49 4d3c 6571 c0bd ee7d e03d
000003d0: b2b3 d8bd 9d64 ddbd 9129 8dbd 800d 363e
000003e0: 076b 93bc 4d06 8a3d 030b 90bd 6bfd c63d
000003f0: 2003 6a3d e558 30bd bd07 58bc 7ab8 cd3c

network_body._body_endoder.seq_layers.2.bias f4 [128]
0.0066590626 0.0049918285 -0.0064253346 0.015308583 -0.0022220004 0.0035269305 0.008147197 0.006035926
0.0148599725 0.012001972 0.01931242 0.010704902 0.013877875 -8.46407e-05 0.012696358 0.012179314
-0.0027437683 -0.006356676 0.0070164986 0.0040987968 -0.006093593 0.00031241446 0.00976131 0.008278622
-0.0029199377 -0.0066971416 -0.006691443 0.014311264 0.010334245 -0.0041411277 -0.0012671599 -0.0066983574
0.01849399 0.015522491 -0.0062728664 0.011806915 0.021272367 0.010286443 0.002287778 0.022546569
0.0016557648 0.0054622944 0.0050294884 -0.010743499 0.010616449 0.0061853807 -0.008197101 0.012654388
0.013020781 0.008844619 -0.004276119 0.010480051 0.004646252 0.008591132 -0.004168957 0.004019518
0.009659786 0.00021853228 0.0012451161 0.0060968273 0.014883235 -0.006676343 -0.0033145784 0.016021414
0.011175716 -0.0047470555 0.0029670505 -0.00042352063 0.009773569 -0.0010520554 0.017336652 0.012793841
-0.0039400104 0.0072499947 0.012158097 0.0015652352 -0.012693842 0.015398304 0.0067485864 0.0028294676
0.00053453306 -0.0021995795 0.009589612 0.0044797203 0.010036256 0.0054215826 0.0061975396 0.0020022527
0.01592568 0.0023558442 0.0076066726 0.004964227 0.008332174 0.014466335 0.014371275 0.002161076
-0.0014159826 0.005130593 -0.0051812455 -0.00281829 0.015476026 0.016711168 6.714635e-05 -0.004557563
0.0075074947 0.018034566 0.012357735 0.011054359 0.011562993 0.0032267056 0.012885053 0.015934294
0.0012122891 0.0009349044 -0.00119793 0.0066355653 -0.006694557 0.0031715534 0.011773613 0.0059642354
0.008545981 0.013536327 0.0006026958 -0.0023342543 -0.00020406304 -0.0015262208 0.008086596 0.0114398645
00000000: 4434 da3b 7e92 a33b 9d8b d2bb dad0 7a3c
00000010: fb9e 11bb 1324 673b d27b 053c 04c9 c53b
00000020: 3e77 733c eba3 443c 1535 9e3c 9d63 2f3c
00000030: 0760 633c 2181 b1b8 6304 503c bf8b 473c
00000040: cbd0 33bb aa4b d0bb a8ea e53b 334f 863b
00000050: c3ac c7bb 8fcb a339 e7ed 1f3c 0fa3 073c
00000060: 6d5c 3fbb b273 dbbb e443 dbbb cb79 6a3c
00000070: f750 293c 4cb2 87bb d516 a6ba e57d dbbb
00000080: b580 973c 0c52 7e3c 9e8c cdbb ca71 413c
00000090: 6343 ae3c 7888 283c 8cee 153b 95b3 b83c
000000a0: 3f06 d93a 0cfd b23b 68ce a43b 8005 30bc
000000b0: 9df0 2d3c bcae ca3b 224d 06bc 5a54 4f3c
000000c0: 1d55 553c 05e9 103c b01e 8cbb 85b4 2b3c
000000d0: 963f 983b d2c1 0c3c bf9b 88bb 29b6 833b
000000e0: 1444 1e3c d025 6539 2a33 a33a e5c7 c73b
000000f0: d0d8 733c 39c5 dabb 6639 59bb 573f 833c
00000100: 5a1a 373c 308d 9bbb d972 423b fa0b deb9
00000110: 5221 203c 1fe5 89ba 9805 8e3c 429d 513c
00000120: 341b 81bb 5d91 ed3b c132 473c 9428 cd3a
00000130: d5f9 4fbc 2b49 7c3c 3f23 dd3b 976e 393b
00000140: e81f 0c3a d226 10bb bf1d 1d3c 9eca 923b
00000150: 1c6f 243c 88a7 b13b bb14 cb3b 3a38 033b
00000160: 9276 823c 8264 1a3b 6541 f93b f4aa a23b
00000170: ac83 083c 3504 6d3c 7f75 6b3c d7a0 0d3b
00000180: 7e98 b9ba 891e a83b 70c7 a9bb 0fb3 38bb
00000190: 288f 7d3c dce5 883c ecd0 8c38 9c57 95bb
000001a0: 6e01 f63b 3abd 933c 1978 4a3c 581d 353c
000001b0: b572 3d3c 2377 533b d41b 533c a388 823c
000001c0: ace5 9e3a 5f14 753a dc03 9dba 286f d93b
000001d0: 045e dbbb d6d9 4f3b 1de6 403c a26f c33b
000001e0: 7104 0c3c 78c7 5d3c 3bfe 1d3a 4afa 18bb
000001f0: c1f9 55b9 790b c8ba a47d 043c 456e 3b3c

network_body._body_endoder.seq_layers.2.weight f4 [128, 128]
-0.09233741 0.026533788 0.08434933 -0.029567145 -0.037416592 -0.039049916 -0.09617624 -0.14808695
-0.047103412 0.07438865 -0.06997597 -0.10795164 -0.042238887 -0.05805955 -0.14514318 0.12110689
-0.07763073 -0.10529334 0.20663352 0.022954714 -0.057263657 0.05251886 0.19041201 -0.038748816
-0.028803684 0.040795133 -0.06631696 0.11489845 -0.02728605 -0.04319864 0.08286738 0.09952174
0.20176175 -0.07204835 -0.11250401 -0.1207461 0.041336816 0.020601531 -0.050279032 0.099983454
0.056416545 -0.017167421 0.07230201 0.06921547 -0.0041256365 -0.18568961 0.050240166 -0.062066577
0.10766197 -0.06175625 -0.035819143 0.028113099 -0.103494436 -0.1669775 -0.10384726 -0.046556756
0.067708574 0.04893737 -0.0023603318 -0.006941341 0.05518614 0.0053780344 0.096015446 -0.21546498
-0.26596865 0.1220005 -0.11517197 -0.12845954 -0.12320382 -0.056205064 -0.13797763 -0.10331895
0.12929264 0.039151136 -0.096060716 0.0286447 0.0390516 0.0040287892 0.09299242 -0.020946583
-0.09654072 0.18325685 0.030188795 -0.057031687 0.02993133 -0.11606876 -0.051454652 -0.18954043
0.13243462 -0.07801694 -0.020825578 -0.030783193 0.045391336 -0.020428209 0.080806814 -0.06668447
0.024640478 -0.10280187 0.031740982 0.010521885 0.1991242 -0.038909566 0.15167391 0.03500392
-0.09836394 0.11655515 -0.01652124 -0.020762485 0.087324016 0.1338315 0.15521052 0.06763381
0.0092684915 -0.06711287 0.0483812 0.07763577 -0.12367135 -0.14874949 -0.05251144 -0.029947096
-0.010555582 -0.108002305 0.1281167 0.051245846 0.15485224 -0.056607164 0.202852 -0.024655482
0.05861043 0.04145263 0.059296392 0.085064955 -0.037718922 0.026446529 0.036459662 0.005428826
-0.2144641 0.029354624 0.08770136 -0.0042416733 0.020883769 0.07498062 0.012020642 -0.055033755
-0.017507581 0.010292421 0.09281591 -0.042602528 0.10500653 0.09439151 -0.019763393 0.008169513
-0.028196279 0.05391361 0.06698132 -0.09035034 0.17094849 -0.087728225 -0.051282655 0.014477133
-0.05639803 0.13310604 0.050298702 -0.052620456 0.16056372 0.01874914 -0.060213365 -0.06898333
-0.054218084 0.030704495 -0.10453051 0.12262157 -0.07902509 0.009592989 -0.061103676 0.03707072
0.06250672 -0.10049066 0.07748671 -0.012380211 0.13238998 0.08723934 0.09484828 0.14269973
-0.04581894 0.054137405 -0.03729849 0.005420228 -0.014997027 -0.0623598 -0.03441562 0.1491382
-0.10947402 0.0055058277 -0.0642618 -0.029888455 -0.01885708 -0.07743908 0.06690214 0.0054594437
-0.044016287 0.119677685 -0.043425154 0.08181899 -0.011348503 0.01187284 -0.0019836372 -0.09310932
0.1549038 -0.0028932136 -0.009607909 -0.09764823 -0.023500979 -0.2046511 0.11192215 0.11769606
-0.024740458 0.007037591 0.06773669 -0.13528171 0.023176126 0.11819699 -0.05590972 0.058655873
0.030415826 -0.051490936 -0.07068567 -0.043579135 -0.1644783 0.07722305 -0.0568995 0.04972496
-0.02924781 -0.067354165 0.020702805 0.048661936 -0.037727434 -0.011507101 0.053547885 0.18599032
0.027350347 0.022947202 -0.08571878 -0.1455112 -0.091523096 0.09192129 0.18014576 -0.14995204
0.119748436 0.04377968 -0.09295842 0.025190834 -0.033404034 0.012241263 0.10199882 -0.0044738105
00000000: 651b bdbd 635d d93c 57bf ac3d cc36 f2bc
00000010: 2442 19bd cef2 1fbd 0cf8 c4bd 1ba4 17be
00000020: 82ef 40bd 1459 983d 904f 8fbd c015 ddbd
00000030: af02 2dbd dacf 6dbd 6aa0 14be e406 f83d
00000040: dcfc 9ebd 09a4 d7bd bd97 533e 860b bc3c
00000050: 4c8d 6abd 041e 573d 5efb 423e 14b7 1ebd
00000060: b4f5 ebbc cc18 273d 30d1 87bd e14f eb3d
00000070: ff86 dfbc 0ff1 30bd 5fb6 a93d 0ed2 cb3d
00000080: a29a 4e3e 168e 93bd 8168 e6bd bb49 f7bd
00000090: cb50 293d 8bc4 a83c 63f1 4dbd 20c4 cc3d
000000a0: 0915 673d b1a2 8cbc 1413 943d d7c0 8d3d
000000b0: 5930 87bb 6b25 3ebe a2c8 4d3d 8639 7ebd
000000c0: e17d dc3d 1ff4 7cbd 18b7 12bd 714d e63c
000000d0: e4f4 d3bd 26fc 2abe dfad d4bd 4cb2 3ebd
000000e0: cbaa 8a3d 8d72 483d ccaf 1abb 3074 e3bb
000000f0: dd0a 623d 393a b03b bfa3 c43d daa2 5cbe
00000100: 0b2d 88be 66db f93d 48df ebbd e68a 03be
00000110: 4952 fcbd 4837 66bd 024a 0dbe e398 d3bd
00000120: 4a65 043e f15c 203d 7bbb c4bd 4aa8 ea3c
00000130: 92f4 1f3d ef03 843b cf72 be3d 2b98 abbc
00000140: 24b7 c5bd afa7 3b3e 7e4e f73c 0f9a 69bd
00000150: 8c32 f53c 75b5 edbd 1dc2 52bd e316 42be
00000160: f19c 073e 58c7 9fbd 679a aabc 092d fcbc
00000170: 44ec 393d 0f59 a7bc 0b7e a53d de91 88bd
00000180: d4da c93c c989 d2bd d502 023d fc63 2c3c
00000190: 37e7 4b3e a35f 1fbd 6850 1b3e 4560 0f3d
000001a0: 0973 c9bd 77b4 ee3d 8d57 87bc 1616 aabc
000001b0: efd6 b23d 200b 093e 82ef 1e3e 9883 8a3d
000001c0: dfda 173c 7972 89bd 5d2b 463d 81ff 9e3d
000001d0: 6847 fdbd c951 18be 3c16 57bd 9d53 f5bc
000001e0: 52f1 2cbc 5030 ddbd 0631 033e 2ae7 513d
000001f0: 9691 1e3e eadc 67bd 6fb8 4f3e 4bfa c9bc
00000200: 7e11 703d 3cca 293d c6e0 723d 8936 ae3d
00000210: 287f 1abd 64a6 d83c ba56 153d 4be4 b13b
00000220: 7a9c 5bbe 1c79 f03c c59c b33d bcfd 8abb
00000230: 7014 ab3c 708f 993d 3af2 443c 136b 61bd
00000240: 0f6c 8fbc 8ba1 283c 4516 be3d fd7f 2ebd
00000250: aa0d d73d 5650 c13d d7e6 a1bc 6cd9 053c
00000260: e2fb e6bc 84d4 5c3d 812d 893d 9909 b9bd
00000270: 1f0d 2f3e dbaa b3bd c30d 52bd 7f31 6d3c
00000280: 9f01 67bd f34c 083e 0306 4e3d 8c88 57bd
00000290: d16a 243e cc97 993c 4aa2 76bd 2247 8dbd
000002a0: c813 5ebd fe87 fb3c 1814 d6bd 0521 fb3d
000002b0: e8d7 a1bd ea2b 1d3c d947 7abd 78d7 173d
000002c0: 8603 803d 0cce cdbd 5ab1 9e3d 5ed6 4abc
000002d0: 3d91 073e 8aaa b23d d13f c23d e11f 123e
000002e0: a4ac 3bbd 2fbf 5d3d 4dc6 18bd 2b9c b13b
000002f0: 17b6 75bc fd6c 7fbd 65f7 0cbd afb7 183e
00000300: ea33 e0bd 3b6a b43b b19b 83bd a2d8 f4bc
00000310: 2a7a 9abc 6198 9ebd fd03 893d 22e5 b23b
00000320: 6c4a 34bd 9319 f53d 93de 31bd b790 a73d
00000330: 12ef 39bc 4d86 423c e9ff 01bb 19b0 bebd
00000340: 1a9f 1e3e 129c 3dbb 7e6a 1dbc ccfb c7bd
00000350: 2085 c0bc 0f90 51be 7137 e53d a20a f13d
00000360: 80ac cabc 989b e63b 89b9 8a3d 4a87 0abe
00000370: dcdb bd3c 4311 f23d 9701 65bd 2441 703d
00000380: 9c2a f93c 29e8 52bd a6c3 90bd 0980 32bd
00000390: 006d 28be 1e27 9e3d 730f 69bd 66ac 4b3d
000003a0: 1a99 efbc fbf0 89bd ee98 a93c bd51 473d
000003b0: 1588 1abd 4888 3cbc 0755 5b3d 3f74 3e3e
000003c0: d60d e03c c5fb bb3c 548d afbd e300 15be
000003d0: 7670 bbbd 3b41 bc3d 2178 383e 078d 19be
000003e0: ab3e f53d 5252 333d fc60 bebd 025d ce3c
000003f0: abd2 08bd 948f 483c c2e4 d03d 0b99 92bb
