results/FoodTarget_imitation_4/AgentPlayer/AgentPlayer-27283.onnx (onnx, 136525 bytes, 7 tensors)

action_model._continuous_distribution.log_sigma f4 [1, 5]
0	0xbbca464a	-0.00617293
1	0xbb29571e	-0.002583928
2	0xbaa860b6	-0.0012846205
3	0x394daec1	0.00019615424
4	0x3b01e74b	0.00198217

action_model._continuous_distribution.mu.bias f4 [5]
0	0xbbc85c24	-0.0061144996
1	0x3ba0223f	0.004886895
2	0xbbb9d9f0	-0.005671732
3	0x3a65c0bb	0.0008764376
4	0xbb74d9c7	-0.003736125

action_model._continuous_distribution.mu.weight f4 [5, 128]
0	0x3cbd8c28	0.02313812
1	0x3c88df78	0.01670812
2	0x3d0bcb11	0.034129206
3	0x3a51b1a3	0.0007999187
4	0x3baad777	0.0052136737
5	0x3caf30b6	0.021385532
6	0x3cb0303e	0.021507379
7	0x3c0ea27f	0.008705734
8	0xbc12b328	-0.008953847
9	0xbcd33265	-0.025780866
10	0xbca40eaf	-0.020026533
11	0x3c17286d	0.009225947
12	0x3c214e26	0.009845292
13	0xba78fe1e	-0.00094983156
14	0xbc8a3962	-0.016873065
15	0x3d5787e8	0.052619845
16	0xbafdaec3	-0.0019354451
17	0xbccc975b	-0.024974516
18	0xbbb5a39d	-0.005543186
19	0x3c38af76	0.011272302
20	0xb9f4660b	-0.00046615335
21	0x3b942de6	0.004522073
22	0xbbdecadd	-0.0067990855
23	0x3c865f6e	0.016402926
24	0xbcc68bdc	-0.024236612
25	0x3d02743b	0.031849127
26	0xbcd6c436	-0.026216608
27	0xbbf9af52	-0.0076197768
28	0x3c985994	0.018597402
29	0xbcc07a2c	-0.023495756
30	0x3c49cd65	0.012317036
31	0x3c44b24f	0.012005403
32	0x3d15724f	0.036485966
33	0x3c0d5c35	0.008627941
34	0x3b7491e6	0.0037318408
35	0x3c9b894a	0.018986363
36	0xbbdb32d0	-0.006689407
37	0x3cbc97fc	0.02302169
38	0xbd4b7c0c	-0.049678847
39	0x3c8613cc	0.016366862
40	0xbbbcd6ff	-0.005762934
41	0xbc157d7a	-0.009124154
42	0xbbe96ba5	-0.007123428
43	0x3c3d23ef	0.011544212
44	0x3c73e079	0.014885061
45	0xbd12e5e9	-0.03586379
46	0xbc7adaaf	-0.015310927
47	0xbc9d18a8	-0.019176796
48	0x3cb64051	0.022247465
49	0x3cc6cf3d	0.02426874
50	0x3c664475	0.014054407
51	0x3cd318a3	0.025768584
52	0x3b87b9d8	0.0041420273
53	0xbb97f9ab	-0.004637917
54	0xbc6517b1	-0.013982699
55	0xbc1c6f63	-0.009548041
56	0x3c928936	0.017887693
57	0x3b8516e3	0.004061566
58	0x3b860781	0.00409025
59	0xbcee0ae3	-0.029057926
60	0x3be10c8c	0.006867951
61	0xbca6d4c2	-0.020365123
62	0xbd106617	-0.03525361
63	0x3cc521cc	0.024063967
64	0xbcd842d7	-0.02639906
65	0x3cce3ff0	0.025176972
66	0x3c45cfab	0.012073438
67	0x38948e10	7.083651e-05
68	0x3aba7b8f	0.0014227497
69	0x3c6636c4	0.014051143
70	0xbc98a6df	-0.018634258
71	0xbb875323	-0.0041297837
72	0x3a38bf6a	0.0007047566
73	0xbc76cee7	-0.015063978
74	0xbd8a0108	-0.06738478
75	0x3bafc065	0.0053635114
76	0xbc975e76	-0.01847766
77	0xbaf06d2e	-0.0018343085
78	0xbc01b912	-0.007917659
79	0x3cc620cd	0.024185563
80	0x3d06c1af	0.032899555
81	0x3a90c224	0.0011044187
82	0x3ca6d1af	0.020363657
83	0x3a59d4e2	0.0008309615
84	0x3ca333c8	0.019922152
85	0x3ccfd533	0.025370216
86	0x3d05a591	0.0326286
87	0xbc0b1ffd	-0.008491513
88	0x3ca2a888	0.019855753
89	0x3cf74fdc	0.030189447
90	0xbcc6f6d6	-0.024287622
91	0xbc658e7e	-0.014011024
92	0x39d861c4	0.00041271572
93	0x3d0933eb	0.03349678
94	0xba24a908	-0.0006281291
95	0xbc8cb069	-0.017173963
96	0xbd2e7276	-0.042589627
97	0x3c444a99	0.011980676
98	0xbc9feba5	-0.019521544
99	0x3d14b004	0.036300674
100	0xbc9a0667	-0.018801881
101	0x3b347d1a	0.0027540387
102	0xbc4650ab	-0.012104194
103	0x3cf3ac61	0.029745283
104	0xbbf2bd00	-0.0074077845
105	0xbcda5bb8	-0.026655063
106	0x3b320442	0.0027163182
107	0x3d2203a7	0.039554264
108	0x3b096788	0.002096625
109	0xbcb344ed	-0.021883452
110	0x3d4c3093	0.04985101
111	0xbc139e78	-0.00900995
112	0x3ba70595	0.005097101
113	0xbbed987c	-0.0072508436
114	0xbc68b0bd	-0.014202294
115	0xbd49f0aa	-0.04930178
116	0x3c84d554	0.016215004
117	0x3cbc54d3	0.022989666
118	0xbc6a3f8e	-0.014297379
119	0xbbcc6c5d	-0.006238504
120	0x3c40b71f	0.0117624095
121	0x3d2cfe83	0.04223491
122	0xbc4b79d0	-0.012419179
123	0x3cb153d8	0.021646425
124	0x3c430c88	0.011904843
125	0x3b9584ed	0.004562965
126	0x3c160e19	0.009158635
127	0xbc8db15f	-0.017296491
128	0x3d2784c4	0.0408981
129	0x3ccb468b	0.024813911
130	0x3a856c7f	0.0010179429
131	0xba452c3c	-0.0007521545
132	0x3d05cbcf	0.03266507
133	0x3b81da07	0.0039627585
134	0xbd04a4f1	-0.032383863
135	0x3cc4eb70	0.024038047
136	0x3cb4c35a	0.022065807
137	0xbcab451e	-0.020906981
138	0x3c42190f	0.011846795
139	0x3c7b8d9a	0.015353585
140	0xbc029f1c	-0.007972505
141	0x3b94b580	0.004538238
142	0xbbf1db27	-0.0073808613
143	0x3b15a739	0.0022835268
144	0x3d39c114	0.04535015
145	0xbc1072e2	-0.008816453
146	0x3ce483da	0.027894903
147	0x3d18b23e	0.03727936
148	0xbcaf6b8d	-0.021413589
149	0xbc386dcf	-0.011256649
150	0x3bf5fc2d	0.0075068683
151	0x3c1ef19d	0.00970116
152	0x3bb3929c	0.0054801237
153	0x3c99b025	0.01876075
154	0xbc0958cf	-0.00838299
155	0x3b29f0aa	0.00259308
156	0xbc173ba3	-0.009230527
157	0xbb23f661	-0.002501868
158	0xbbc0b695	-0.0058811405
159	0xbb182720	-0.002321668
160	0xbc8f12e4	-0.017465062
161	0x3d46c16d	0.04852431
162	0x3b04e5b3	0.0020278513
163	0xbd0a0336	-0.03369447
164	0xbcabcee5	-0.020972678
165	0x3b825028	0.0039768405
166	0xbc1c17bd	-0.009527144
167	0x3c9bb4f5	0.019007185
168	0x3bd6a652	0.0065505886
169	0xbb030dd3	-0.0019997254
170	0x3b9f98a8	0.004870493
171	0x3d1b50e0	0.037918925
172	0x3b76b845	0.0037646454
173	0x3ca70b8d	0.02039125
174	0x3c08af37	0.008342556
175	0xbb941e86	-0.0045202402
176	0x3b2ca93c	0.0026345989
177	0xbad75b29	-0.0016430366
178	0x3d79fd51	0.061032597
179	0xba81b05c	-0.0009894478
180	0x3c202479	0.009774321
181	0xbd559327	-0.05214229
182	0x3cd90de1	0.026495876
183	0xbc3b483d	-0.011430797
184	0x3cb31e8a	0.021865148
185	0xbb8f4b72	-0.0043730075
186	0x3c83914c	0.016060494
187	0xbcdc3ee7	-0.026885463
188	0xbc42cf5a	-0.011890257
189	0xbd132727	-0.03592601
190	0x3cede320	0.029038966
191	0x3d332022	0.043731816
192	0x3caba8af	0.020954458
193	0xbba65f40	-0.0050772727
194	0x3d483d31	0.04888648
195	0x3c223eec	0.009902697
196	0xbcfac1ff	-0.030610083
197	0xbcbe3dcb	-0.023222825
198	0x3cb1eed7	0.021720333
199	0xbd1a1a06	-0.037622474
200	0x3c983481	0.018579723
201	0xbc15b327	-0.0091369515
202	0xbd25eea7	-0.0405108
203	0x3bda4398	0.00666089
204	0x3bbecfb6	0.005823101
205	0xbcc363ac	-0.023851238
206	0x3c75a482	0.014992835
207	0xbd04c0dc	-0.032410488
208	0xbc9ed1aa	-0.019387085
209	0xbaff9d4a	-0.0019501832
210	0x3b16c30c	0.002300444
211	0x3c612447	0.013741559
212	0xbcfee30e	-0.031114127
213	0x3b25b1cb	0.0025282975
214	0x3bd950d7	0.0066319513
215	0xbc882437	-0.016618831
216	0x3c0bf385	0.008541946
217	0x3bcda84f	0.0062761675
218	0xbb0cc6ee	-0.0021480876
219	0xbbc33e80	-0.0059583783
220	0x3bcfb302	0.006338478
221	0xba3e7421	-0.00072652294
222	0xbd108060	-0.035278678
223	0xbbb64e21	-0.005563513
224	0xbcd5bd18	-0.026091143
225	0xbc8a9108	-0.01691486
226	0x3cb67b41	0.022275569
227	0x3d3f3eb9	0.046690676
228	0x3b92bedc	0.0044783186
229	0x3cb5fe4c	0.022215985
230	0xbc12bdf8	-0.008956425
231	0x3c9ce840	0.019153714
232	0xbb5e72ca	-0.0033942931
233	0x3bb29146	0.005449447
234	0x3c844044	0.016143925
235	0xbc036ee3	-0.008022043
236	0xbb5e5922	-0.003392764
237	0x3b991d32	0.00467267
238	0x3b7aceaa	0.0038270154
239	0xbbe5d646	-0.007014069
240	0x3bc39a00	0.005969286
241	0x3cbb7d48	0.022886887
242	0xbc71ecd6	-0.014765939
243	0xbce7dfef	-0.028305022
244	0xbbf0bc05	-0.0073466324
245	0xbc1f54e2	-0.0097248275
246	0x39711d5a	0.00022994485
247	0xbca8cab3	-0.020604467
248	0xbc821386	-0.01587845
249	0x3c0fa3cf	0.008767082
250	0xbc5d43b6	-0.013504913
251	0xbd0bdd02	-0.034146316
252	0xbca30e1c	-0.019904189
253	0xbce01d0b	-0.027357599
254	0xb9aad293	-0.00032581817
255	0x3d03c270	0.032167852

network_body._body_endoder.seq_layers.0.bias f4 [128]
0	0x3accf138	0.0015635854
1	0xba587902	-0.00082577777
2	0x3bd2e093	0.0064354627
3	0xbb0cbe27	-0.0021475644
4	0x3b87e85a	0.0041475715
5	0x3ae9c6a5	0.001783569
6	0xba985239	-0.0011621184
7	0xbb02e073	-0.0019970208
8	0xbb7942df	-0.0038034243
9	0xbaa9edd9	-0.0012964561
10	0x3c0bd41d	0.0085344585
11	0x3a0aa39e	0.0005288663
12	0xbbb22c08	-0.005437378
13	0xba3cb2ec	-0.00071982923
14	0xbb6ee1b0	-0.0036450438
15	0x3ba08a1d	0.004899277
16	0x3bdfaa96	0.0068257554
17	0x3b0ccbfe	0.0021483894
18	0x3bbc036c	0.0057377126
19	0xbb752da0	-0.0037411228
20	0x3baa8150	0.0052034035
21	0x3b281574	0.0025647553
22	0xbb6ba0ec	-0.0035954071
23	0x3bda3781	0.0066594486
24	0x3c28e6f4	0.01030897
25	0x3b96a503	0.0045973076
26	0xbb3b1194	-0.0028544413
27	0x3b400b85	0.0029303741
28	0x3c2467f4	0.01003455
29	0x3bc34c34	0.005960012
30	0x3b5be89f	0.00335554
31	0xbbc8c3a8	-0.0061268397
32	0xbb327bed	-0.002723451
33	0xbb96d315	-0.0046027997
34	0x3bcce847	0.0062532756
35	0xba9cd8f1	-0.0011966509
36	0x3b935444	0.004496129
37	0x3a81fce4	0.0009917286
38	0x392ccbbd	0.00016479097
39	0x3c38479f	0.011247545
40	0xbba6686e	-0.005078367
41	0x3c0b7dab	0.008513848
42	0x3b865ac4	0.0041001756
43	0x3afb13e0	0.0019155703
44	0xbb8ad618	-0.0042369477
45	0x3c437ca8	0.011931576
46	0xbb09381f	-0.0020937992
47	0x3a236457	0.00062329083
48	0x3bb97bb7	0.0056605
49	0x3b0cdbbd	0.002149328
50	0xba003d55	-0.00048919517
51	0x3ba92dc5	0.005162927
52	0x3aa9135a	0.0012899444
53	0x3b463698	0.0030244943
54	0x3b07adc4	0.0020702938
55	0x3a890fdf	0.0010457
56	0x3c22cc86	0.0099364575
57	0xbaa1812c	-0.0012321821
58	0x3b033c52	0.0020024967
59	0xbb15e20d	-0.0022870332
60	0x3b532038	0.0032215249
61	0x3b36a7c2	0.0027870988
62	0x3b8aa4c8	0.0042310692
63	0xbbe46fc7	-0.0069713327
64	0x3b8c466f	0.0042808573
65	0xbbc40148	-0.005981598
66	0x3c0b8bc7	0.008517212
67	0x3beabe95	0.0071638324
68	0xbc0ab7bc	-0.008466657
69	0xbab31e05	-0.0013665563
70	0x3bb4bd96	0.0055157645
71	0xbbd0e940	-0.006375462
72	0x3ba4657a	0.0050169798
73	0xbb8c71d5	-0.004286031
74	0xb98604a3	-0.00025561926
75	0xbb4df70a	-0.0031427764
76	0xbae671d5	-0.0017581532
77	0x3bbbc5bc	0.005730359
78	0xb87f6a8a	-6.089596e-05
79	0x3ab3ddc5	0.0013722709
80	0x3b753beb	0.0037419747
81	0x3c00bcc1	0.007857502
82	0x3c1ac0ba	0.009445364
83	0x3c3cf27c	0.011532422
84	0x3ad0e38c	0.0015936955
85	0xb983dca7	-0.00025150666
86	0x3b3952f9	0.0028278215
87	0xbba6650a	-0.0050779628
88	0x3b8e3083	0.004339279
89	0x3b84060e	0.004029042
90	0x3a924673	0.0011159912
91	0xbb7c160e	-0.0038465294
92	0x3bc0024c	0.005859649
93	0x3c55c701	0.0130479345
94	0x3c5caa01	0.013468266
95	0x3c0267cd	0.007959318
96	0x3c1f8d69	0.009738305
97	0xbb37b7b1	-0.0028033073
98	0xb79bb901	-1.8563589e-05
99	0xbc069997	-0.00821533
100	0x3b07b6da	0.0020708353
101	0x3a4b6b5b	0.00077598327
102	0x3b1e86c3	0.002418921
103	0x3c0e668e	0.008691443
104	0xb9cabcf8	-0.00038669235
105	0xbbea5fc4	-0.0071525294
106	0x3b4475e7	0.0029977502
107	0xb93fad58	-0.00018279755
108	0x3b623006	0.0034513487
109	0x3b3e771b	0.0029062692
110	0xbc0d4bb2	-0.008624004
111	0x3b1d3a81	0.002399117
112	0x3c065026	0.00819782
113	0x3c161ec6	0.00916261
114	0xbb3e0902	-0.0028997068
115	0x3b638d35	0.0034721617
116	0x3ab30518	0.0013658134
117	0xbbe09830	-0.0068540797
118	0xbb27cff8	-0.0025606137
119	0xbb79828a	-0.0038072192
120	0xbb775b54	-0.0037743645
121	0xba59375c	-0.0008286142
122	0x3beae4c6	0.007168385
123	0x3c2143f3	0.0098428605
124	0x3a79a9ef	0.0009523918
125	0xba7699fe	-0.0009407102
126	0xbb255508	-0.0025227685
127	0xbaa19543	-0.0012327809

network_body._body_endoder.seq_layers.0.weight f4 [128, 128]
0	0xbcc143a6	-0.023591828
1	0xbda9ab83	-0.082846664
2	0xbc34ed04	-0.011042837
3	0x3d5c3c7a	0.053768612
4	0x3c77da40	0.015127718
5	0xbdb0a87b	-0.08625885
6	0xbd3907c1	-0.04517341
7	0x39fbd156	0.00048030418
8	0x3d03adbc	0.032148108
9	0xbc74a1ac	-0.014931124
10	0xbda569b7	-0.08076804
11	0x3d1aeddb	0.037824493
12	0xbdf38827	-0.118912034
13	0x3c87ffc6	0.016601454
14	0x3d5b118e	0.05348354
15	0x3d08b066	0.03337135
16	0x3cefafe0	0.029258668
17	0x3c99caa0	0.018773377
18	0x3d906dfc	0.07052228
19	0xbcafaddf	-0.021445213
20	0xbd18fd0e	-0.037350707
21	0xbe03dbc6	-0.12876806
22	0xbd0bda6e	-0.034143858
23	0xbc22bc6d	-0.0099326195
24	0x3b9dd204	0.0048162956
25	0xbd9dc76b	-0.077040516
26	0x3dc52ac8	0.096273005
27	0xbd0b21f7	-0.03396794
28	0x3d87a506	0.066232726
29	0xbbf45920	-0.0074569136
30	0xbde31a6c	-0.11089024
31	0x3e78fe07	0.24315654
32	0xbde2f7f5	-0.1108245
33	0xbd510d7b	-0.051038247
34	0x3d2c62ee	0.042086534
35	0xbd60853f	-0.054814573
36	0xbd861cd4	-0.06548467
37	0x3d3d34eb	0.046193045
38	0xbc0e52f4	-0.00868677
39	0x3c7a2a92	0.015268939
40	0xbd98f303	-0.07468226
41	0x3d054c96	0.03254374
42	0x3d7cfae9	0.061762724
43	0xbdbc9a0d	-0.0920907
44	0xbd3dec13	-0.046367716
45	0xbc376f96	-0.011196038
46	0x3d825cc3	0.06365349
47	0xbc7a1571	-0.015263901
48	0xbdbe4c45	-0.09291891
49	0x3daf11d4	0.08548322
50	0x3dcd75cd	0.10032234
51	0xbd0c3733	-0.03423233
52	0xbdb9a43d	-0.09064529
53	0x3deef295	0.116673626
54	0x3d2e4618	0.042547315
55	0x3b58f3df	0.0033104343
56	0x3e1990c6	0.14996633
57	0xbcc1b19e	-0.023644265
58	0x3dda957b	0.106730424
59	0xbd6cc06b	-0.05780069
60	0x3db50b1f	0.08840012
61	0x3d393482	0.04521609
62	0xbdb2ab25	-0.087240495
63	0x3dc27c82	0.09496404
64	0xbd4f3309	-0.05058578
65	0x3d017afe	0.031611435
66	0x3ca8e4cb	0.02061691
67	0xbd7c3c03	-0.06158067
68	0x3d862e1d	0.06551764
69	0xbbc69048	-0.00605968
70	0x3d28587c	0.04110001
71	0x3d69291f	0.05692398
72	0xbe3a4572	-0.18190554
73	0x3debd408	0.11515051
74	0xbd7a50f9	-0.061112378
75	0xbd69cbe2	-0.057079203
76	0x3d8b02e4	0.06787661
77	0xbdabab06	-0.083822295
78	0x3c6b173a	0.014348799
79	0xb8dbc129	-0.00010478713
80	0xbd292268	-0.041292578
81	0xbc805313	-0.015664613
82	0xbd6cef48	-0.057845384
83	0xbd1b1a29	-0.037866745
84	0x3d96557d	0.07340524
85	0xbe292c40	-0.16520786
86	0x3d4e7fd5	0.05041488
87	0x3d6d8226	0.057985447
88	0xbd84b599	-0.064799495
89	0x3d9317e6	0.07182293
90	0x3c6e16f5	0.014531841
91	0xbdd91443	-0.10599568
92	0x3cb6e420	0.022325575
93	0xbe108a22	-0.14115193
94	0x3d0bc6bb	0.03412507
95	0x3d936845	0.07197622
96	0x3d41f285	0.047350425
97	0x3c9a3d0c	0.018827938
98	0xbd9d00f1	-0.07666195
99	0x3d1e4765	0.038642306
100	0x3dda1b91	0.10649789
101	0x3c50eaea	0.01275132
102	0x3e0c049c	0.13673633
103	0xbdf2acb7	-0.11849349
104	0xbc8ff027	-0.017570568
105	0xbd8907a1	-0.06690908
106	0x3c7f564f	0.015584542
107	0xbc0c4ee9	-0.0085637355
108	0xbae3b7c7	-0.0017373496
109	0xbdd89f24	-0.10577229
110	0xbb3612a3	-0.0027782104
111	0x3d81a15c	0.06329605
112	0x3dae167f	0.085003845
113	0x3c5d0972	0.0134910215
114	0xbda624e4	-0.08112505
115	0xbe115a5f	-0.1419463
116	0xbc61418c	-0.013748538
117	0xba09d4c3	-0.0005257839
118	0xbdbb1b1a	-0.091360286
119	0xbd762c50	-0.060100853
120	0x3d7118f4	0.058861688
121	0xbdc8cc79	-0.09804625
122	0xbdeaa65e	-0.11457513
123	0x3e0fdac1	0.14048292
124	0x3db89f1b	0.09014722
125	0xbd9f9a99	-0.07793159
126	0x3dc08193	0.09399714
127	0xbd95127f	-0.072789185
128	0xbba778db	-0.0051108426
129	0xbcf37b15	-0.029721776
130	0x3e018690	0.12648988
131	0x3dbd3aec	0.09239754
132	0xbdcfac70	-0.10140312
133	0x3d54c773	0.051948022
134	0x3d2909bb	0.041269045
135	0xbd4307ad	-0.047614742
136	0x3d00a61a	0.031408407
137	0xbd9e2ee8	-0.077237904
138	0x3df5d498	0.1200344
139	0xbcfb0b05	-0.030644903
140	0xbd52bb9e	-0.051448457
141	0xbd97cbdd	-0.07411931
142	0x3dabfce1	0.08397842
143	0xbe1ea52c	-0.15492696
144	0xbc6142de	-0.013748853
145	0x3e2b4940	0.16727161
146	0x3d547d95	0.051877577
147	0x3d8cd3ce	0.06876336
148	0xbd81d76f	-0.06339919
149	0xbdb7bf33	-0.08972015
150	0x3d8fa0de	0.07013105
151	0x3d916376	0.07099049
152	0x3d9c5c84	0.076348335
153	0xbc1c3e82	-0.009536387
154	0x3c8ef7d8	0.017452165
155	0xbe2ebf68	-0.17065203
156	0xbd8f69b8	-0.07002586
157	0x3d7435e3	0.059621703
158	0xbdce888d	-0.10084639
159	0xbdb85d3d	-0.09002159
160	0xbd78de0f	-0.060758647
161	0x3de812b4	0.11331692
162	0x3d080781	0.03321028
163	0xbe120633	-0.14260177
164	0x3c83e80f	0.016101865
165	0x3cbedca6	0.023298573
166	0xbdc993dd	-0.09842656
167	0xbc8e34c2	-0.017359141
168	0xbd586fff	-0.052841183
169	0x3d744012	0.059631415
170	0x3d61c3d7	0.055118408
171	0x3d51dbb6	0.051234923
172	0xbe0243da	-0.12721196
173	0xbdb43e66	-0.08800964
174	0x3e0cff93	0.13769369
175	0xbdf8ae0c	-0.12142572
176	0x3c96af98	0.018394276
177	0xbb137f73	-0.0022506386
178	0xbd87109b	-0.06594964
179	0xbdbaa5d7	-0.09113663
180	0xbd0fbaa3	-0.0350901
181	0xbe4db59c	-0.2008881
182	0x3d9187aa	0.07105954
183	0xbc8ee7f6	-0.017444592
184	0xbdaaa676	-0.08332531
185	0x3ca80eeb	0.020514926
186	0x3c9dd1ec	0.019265138
187	0xbe1b1d5b	-0.15147917
188	0x3e3581f7	0.17725359
189	0xbb5f11a8	-0.0034037624
190	0xbdba7f23	-0.09106281
191	0xbd44d132	-0.048051067
192	0x3c35214a	0.0110553
193	0xbc27e3ae	-0.010247154
194	0xbd5f9ad4	-0.054591015
195	0xbb1fcad3	-0.0024382367
196	0x3dd34906	0.103166625
197	0xbd630d6e	-0.05543273
198	0x3e0b9f59	0.13635005
199	0x3bdbbeb5	0.0067060837
200	0xbe11d749	-0.14242281
201	0xbc84afec	-0.016197167
202	0x3d75390a	0.05986885
203	0x3d9ff2d4	0.07809988
204	0xbc7ecab9	-0.015551263
205	0xbe07a491	-0.13246371
206	0xbc8f666e	-0.017504897
207	0x3d978ae6	0.0739954
208	0xbd9cb90e	-0.07652484
209	0x3d886ad2	0.06660999
210	0xbde07ebd	-0.109616734
211	0x3d2d6cb7	0.042340007
212	0xbd1b776b	-0.037955683
213	0x3d1f8744	0.03894736
214	0xbe475a14	-0.19467956
215	0xbe00a3d8	-0.12562501
216	0xbd63a321	-0.055575494
217	0x3db76f4c	0.08956775
218	0xbd3ed543	-0.0465901
219	0xbd7d85ab	-0.061895054
220	0x3d05dffc	0.03268431
221	0xbdd2f209	-0.10300071
222	0x3bede240	0.007259637
223	0x3e26a76b	0.16274802
224	0x3d036522	0.03207887
225	0xbdbf2d1a	-0.09334774
226	0x3d10a037	0.035309043
227	0xbccb4e50	-0.024817616
228	0xbc92fa41	-0.017941596
229	0xbce38a4a	-0.027775902
230	0xbbf50d9a	-0.007478428
231	0xbd37519b	-0.04475556
232	0xbc1ff83e	-0.009763775
233	0x3e0a3cc9	0.1349975
234	0xbdce1d48	-0.10064179
235	0x3d98c1cb	0.07458838
236	0xbcc070a3	-0.02349121
237	0x3d31d521	0.043416146
238	0x3ba6ce80	0.0050905347
239	0xbde87469	-0.113503285
240	0xbd209c96	-0.039211832
241	0xbd97c185	-0.07409958
242	0xbd4e4583	-0.05035926
243	0xbd07dde1	-0.033170585
244	0xbbfa9a4d	-0.0076477886
245	0x3d850e8c	0.06496915
246	0x3d3aab49	0.045573507
247	0x3dd99608	0.10624319
248	0x3cec24d0	0.028826147
249	0xbdb55e63	-0.088558935
250	0x3d80dcbb	0.06292101
251	0x3c42aa58	0.011881433
252	0x3df060c2	0.11737205
253	0xbe2a3208	-0.16620648
254	0x3bc9f2cb	0.0061629764
255	0xbd527d64	-0.051389113

network_body._body_endoder.seq_layers.2.bias f4 [128]
0	0x3babd179	0.005243477
1	0x3a026fbf	0.0004975758
2	0x3b492f45	0.003069834
3	0x3ae3b9af	0.0017374064
4	0x3bd24af4	0.0064176265
5	0x39a1df73	0.00030874796
6	0xbbc1f1f7	-0.005918737
7	0xbb0e9d49	-0.002176123
8	0x3bd3268f	0.0064438055
9	0x3c0daa80	0.008646607
10	0x3be16eec	0.006879678
11	0x3b7f3ab8	0.0038944911
12	0xbbf25345	-0.0073951804
13	0x3b594144	0.0033150474
14	0x3b4191af	0.0029536297
15	0xbba034a6	-0.0048890887
16	0x3bbbdedb	0.0057333536
17	0x3b964c55	0.004586736
18	0x3ba6f91c	0.005095614
19	0xb97ca877	-0.00024095351
20	0x3b009c72	0.0019624499
21	0x3b87eeac	0.004148325
22	0x3bccf583	0.006254853
23	0xbbadac13	-0.005300054
24	0x3bc13adf	0.0058969106
25	0x3bc2688b	0.0059328726
26	0x3c077f5f	0.008270114
27	0x3ba94c25	0.005166548
28	0xbab39b65	-0.0013702927
29	0xbb227928	-0.0024791453
30	0xbbc865ef	-0.006115667
31	0xbc0276d1	-0.007962898
32	0xbb9d47e2	-0.004799829
33	0x3bbd0d9c	0.0057694446
34	0xba663d19	-0.0008782908
35	0xbbe623fe	-0.0070233336
36	0xbaf0c66a	-0.0018369679
37	0xbc064406	-0.008194929
38	0x3bba786f	0.0056906263
39	0xbbfe435c	-0.0077594947
40	0x3abd7f08	0.0014457414
41	0xba3761b5	-0.00069954555
42	0xb9814957	-0.0002465944
43	0x3beea73d	0.00728312
44	0xbb98d554	-0.0046641026
45	0x3aa313cd	0.0012441814
46	0x3b81c181	0.003959835
47	0x3be354f3	0.006937617
48	0xbbb34802	-0.0054712305
49	0xbbf64800	-0.0075159073
50	0x3aeb9b28	0.0017975317
51	0xbb420b13	-0.0029608652
52	0x3bb1a484	0.005421223
53	0xbaec4b84	-0.0018027877
54	0x3bf12cff	0.0073601003
55	0xbbad7426	-0.005293387
56	0xbb654254	-0.0034982162
57	0x3acfceac	0.001585444
58	0x3bccf321	0.006254569
59	0xbaad3e0f	-0.0013217347
60	0xbb66d9a3	-0.0035224936
61	0x3b423a78	0.00296369
62	0x3c028e9b	0.00796857
63	0x3bbeed21	0.005826608
64	0x3c222a6c	0.0098978095
65	0x365ae5cd	3.2618293e-06
66	0x3b4d5e4b	0.003133672
67	0xbb4f72fe	-0.0031654234
68	0x3b0860c2	0.0020809625
69	0xbbc2a0a7	-0.0059395614
70	0x3c02bac1	0.007979096
71	0x3b9bc75b	0.0047539896
72	0x3bbf792d	0.0058433027
73	0x3bb55631	0.0055339565
74	0x3c558b4c	0.013033699
75	0xbb3e7732	-0.0029062745
76	0x3bb5935c	0.0055412482
77	0xbb26211d	-0.0025349327
78	0x3b25b49a	0.002528465
79	0xbb99a1a6	-0.0046884594
80	0xbbca60d4	-0.0061760936
81	0xb883eb42	-6.290387e-05
82	0xbb997f57	-0.0046843695
83	0x3a033c5d	0.0005006248
84	0xbbd72ba5	-0.006566482
85	0xbbeca407	-0.007221702
86	0xbad33c17	-0.0016115931
87	0xb97aa51d	-0.00023903367
88	0xbbe9f505	-0.0071398043
89	0xba91f4c7	-0.0011135571
90	0x3c1f38bb	0.009718115
91	0xbb9ebd85	-0.00484437
92	0x3b404664	0.002933883
93	0x3afd99db	0.0019348221
94	0x3b6559c0	0.0034996122
95	0xbb64d9a1	-0.0034919756
96	0x3b89c5b4	0.0042044763
97	0xbb9c8fb6	-0.004777874
98	0x3c0ada7a	0.00847494
99	0x3be2c75a	0.006920737
100	0x3bb772f9	0.0055984226
101	0xba537cb3	-0.0008067593
102	0x3bb7ca6f	0.0056088488
103	0x394e6e64	0.00019686815
104	0xbad1f070	-0.001601709
105	0x3c256b16	0.010096332
106	0x3a7b63ea	0.00095897785
107	0xbbd90ce9	-0.0066238535
108	0x3b4f6f95	0.0031652201
109	0xbb35816b	-0.0027695547
110	0xbc098782	-0.008394124
111	0xbb8ba4cb	-0.004261588
112	0x3b41077b	0.0029453922
113	0x3c0f3118	0.008739732
114	0x3b81a85e	0.0039568385
115	0x3c060b3d	0.00818139
116	0xbb99bdcc	-0.004691815
117	0xbbb1adbb	-0.0054223216
118	0x3c144928	0.009050645
119	0x3a8acb6c	0.0010589189
120	0xbac6fe97	-0.0015182075
121	0x3b3b3c78	0.0028569978
122	0xbb3a6786	-0.0028443052
123	0xba535d28	-0.00080628926
124	0x3afd05aa	0.0019304056
125	0xba851cae	-0.0010155642
126	0xbbcd9e1a	-0.0062749507
127	0x3a256b39	0.0006310228

network_body._body_endoder.seq_layers.2.weight f4 [128, 128]
0	0xbe36648c	-0.17811793
1	0xbd8a9b62	-0.06767918
2	0xbced1fbf	-0.028945802
3	0xbd425e08	-0.047452956
4	0xbd6196bd	-0.055075396
5	0xbd68705b	-0.056747776
6	0x3cac19f2	0.021008465
7	0xbc060325	-0.008179461
8	0x3d6908ef	0.056893285
9	0x3d4de889	0.05027059
10	0xbd648705	-0.055792827
11	0x3d60b651	0.05486137
12	0x3d4347a4	0.047675744
13	0x3d62040b	0.055179637
14	0x3d1cf044	0.038315073
15	0xbcf47117	-0.029839082
16	0xbd9b7c45	-0.07592062
17	0xbd58253b	-0.05276988
18	0x3d0806eb	0.033209722
19	0x3e36b95f	0.17844151
20	0x3c7bb4a8	0.015362896
21	0xbd0d41ec	-0.034486696
22	0xbd9c64f6	-0.07636444
23	0x3d6e97ae	0.05825012
24	0xbd418188	-0.04724267
25	0xbdb95bce	-0.090507135
26	0x3e30421c	0.17212719
27	0x3ca404a4	0.020021744
28	0x3a4b45a1	0.0007754211
29	0xbe2d9b0a	-0.16953674
30	0x3c957e3c	0.01824867
31	0xbe12b122	-0.14325383
32	0x3dc11ce5	0.09429339
33	0x3d6b4b70	0.05744499
34	0x3cc8c127	0.024506165
35	0xbe2dc78b	-0.16970651
36	0x3bbae410	0.0057034567
37	0xbd9f465b	-0.07777091
38	0x3d88864a	0.066662386
39	0xbd66e7d7	-0.056373443
40	0xbc311307	-0.010807759
41	0xbe584610	-0.21120477
42	0x3d5e3ea0	0.054258943
43	0x3b77d05a	0.0037813396
44	0xbdbba3bb	-0.091620885
45	0x3da90103	0.08252146
46	0xbd73fa5a	-0.059564926
47	0xbd972734	-0.07380524
48	0x3e05209c	0.1300072
49	0xbd1b43f0	-0.037906587
50	0x3d1a83a2	0.03772319
51	0x3d1b9988	0.037988216
52	0x3d70fb12	0.05883319
53	0xbe2b5225	-0.16730554
54	0xbd243ba7	-0.04009595
55	0xbdab834c	-0.08374652
56	0xbcfe4f8a	-0.031043787
57	0x3d4a4676	0.049383603
58	0x3c91b64f	0.017787127
59	0xbcb0b7d4	-0.021572031
60	0xbe18eea0	-0.14934778
61	0x3e829363	0.25503072
62	0x3e294ccc	0.16533202
63	0xbd93696b	-0.07197841
64	0xbd7a8298	-0.0611597
65	0x3d286724	0.041113988
66	0xbd4b1f74	-0.049590543
67	0x3cb253b7	0.021768434
68	0x3d11ce5c	0.03559719
69	0x3e267d31	0.16258694
70	0x3d8005ec	0.062511295
71	0x3d404882	0.04694415
72	0x3cc61988	0.024182096
73	0xbda9bf88	-0.08288485
74	0x3dfb8978	0.122820795
75	0xbe114f6d	-0.14190455
76	0xbd1ba101	-0.037995342
77	0x3ca69c86	0.020338308
78	0xbddac617	-0.10682314
79	0xbd34d963	-0.04415263
80	0x3d6aa065	0.05728187
81	0x3d51132b	0.05104367
82	0x3d1dd33c	0.038531527
83	0xbd67555f	-0.0564779
84	0x3d84b499	0.06479759
85	0x3dd4b52a	0.10386117
86	0x3e0f0f12	0.13970593
87	0x3de4754d	0.11155186
88	0x3cc3c4af	0.023897497
89	0xbde55e54	-0.11199632
90	0x3dcfbec5	0.10143808
91	0xbe06cb89	-0.1316358
92	0x3dbb1c98	0.09136313
93	0x3d2df2bb	0.042467814
94	0xbd24aa53	-0.040201496
95	0x3d8f1d69	0.069880314
96	0xbd6d8a13	-0.057993006
97	0x3dc4754c	0.09592685
98	0xbe3db8e1	-0.18527557
99	0xbe2c0942	-0.16800407
100	0x3de675e6	0.11252956
101	0xbcc66afd	-0.024220938
102	0x3e170b47	0.14750396
103	0x3e474aef	0.19462179
104	0x3b9b62e9	0.0047420156
105	0x3d88ebce	0.06685601
106	0x3bcb3032	0.0062008137
107	0xbdc900df	-0.09814619
108	0xbe057d2b	-0.13036029
109	0x3ca139ab	0.019680819
110	0xbd856060	-0.06512523
111	0xbd9ebc95	-0.07750813
112	0xbe0b0a97	-0.13578258
113	0xbe1cb10e	-0.15301916
114	0xbc939263	-0.018014139
115	0xbdaeefb0	-0.085418105
116	0xbdc31998	-0.09526366
117	0xbd21496a	-0.039376654
118	0xbcb07fc9	-0.021545308
119	0x3d4a9df1	0.04946703
120	0xbdce70c2	-0.100801006
121	0xbd4ac913	-0.049508166
122	0x3cedd652	0.02903286
123	0xbd240539	-0.040044043
124	0xbd60345a	-0.054737426
125	0x3d28fb20	0.041255116
126	0x3e17d60d	0.14827748
127	0x3da201dc	0.07910511
128	0xbd53dea1	-0.051725987
129	0xbde19fe5	-0.110168256
130	0x3d020110	0.031739295
131	0xbddbdb5f	-0.10735201
132	0xbc0309f0	-0.007997975
133	0x3d3bdd7f	0.045865532
134	0xbcbeaac4	-0.023274787
135	0xbe46a08a	-0.19397178
136	0xbdbbe8a5	-0.09175233
137	0xbd86579c	-0.06559679
138	0xbd664922	-0.05622209
139	0x3cb28473	0.021791672
140	0xbe088829	-0.13333191
141	0xbc62b0f3	-0.013836133
142	0xbdfebb1a	-0.124380305
143	0xbd07b96d	-0.03313582
144	0xbda2efd1	-0.079558976
145	0xbd013f6f	-0.031554636
146	0x3d210bd5	0.039317925
147	0x3d3cee77	0.046125855
148	0xbd07cd01	-0.03315449
149	0x3b7d0bea	0.0038611838
150	0xbda6eba2	-0.08150412
151	0xbe2191fa	-0.15778342
152	0x3e00c9ec	0.12577027
153	0xbc6489ba	-0.013948852
154	0xbdf1d482	-0.11808111
155	0x3d7ce082	0.061737545
156	0xbd61ab8a	-0.055095233
157	0xbd14ab35	-0.03629609
158	0x3dd29b4d	0.102835275
159	0x3b9120bc	0.004428951
160	0xbc449725	-0.011998926
161	0xbd63f2c0	-0.055651426
162	0xbb035003	-0.0020036704
163	0xbd621b3d	-0.055201758
164	0xbdd6f7c2	-0.10496475
165	0x3dfcb00f	0.12338268
166	0x3bf18fc5	0.007371875
167	0xbc25658e	-0.010095013
168	0x3debe576	0.115183756
169	0x3e179057	0.14801155
170	0x3d215d36	0.039395534
171	0x3ca4c46a	0.020113189
172	0xbda7a377	-0.08185475
173	0x3c0d6c16	0.008631727
174	0x3d090d9e	0.033460252
175	0xbdd1d529	-0.10245735
176	0x3dbd25dd	0.092357375
177	0xbd002d9a	-0.03129349
178	0x3d807fae	0.06274353
179	0xbe5f8fbe	-0.21832177
180	0x3dc8cf32	0.09805144
181	0xbd86f153	-0.06588998
182	0xbcd972a8	-0.02654393
183	0xbd814f81	-0.06313992
184	0xbc6e62dc	-0.014549937
185	0x3e066633	0.13124923
186	0xbd15b708	-0.036551505
187	0x3e0d18ea	0.13779035
188	0x3dd3f924	0.10350254
189	0xbcbc25e0	-0.022967279
190	0xbd9da52f	-0.07697522
191	0x3d836e5f	0.06417536
192	0xbdafccf2	-0.08584012
193	0xbd1add74	-0.03780885
194	0xbbdec927	-0.0067988816
195	0x3d508b56	0.05091413
196	0xbba2884d	-0.004960096
197	0x3ded0928	0.11574012
198	0xbd8cde09	-0.06878287
199	0x3d3cda9f	0.04610693
200	0xbda00109	-0.078126974
201	0x3d9ae0f5	0.075624384
202	0xbda74606	-0.08167653
203	0xbe9de95b	-0.308421
204	0xbdcfb96a	-0.10142787
205	0xbdaa0697	-0.08302038
206	0x3e0b6ed4	0.13616496
207	0x3d2a0a02	0.04151345
208	0x3c82cc6b	0.015966615
209	0xbe640bf3	-0.22270183
210	0x3e40a93e	0.18814561
211	0x3c81fabb	0.015866628
212	0xbe2a194f	-0.16611217
213	0xbc7257f2	-0.014791476
214	0xbdd89ebf	-0.105771534
215	0xbc2a259f	-0.010384946
216	0x3d50f1c2	0.05101181
217	0xbda1c708	-0.0789929
218	0xbe1b01d5	-0.15137418
219	0xbe27f6d8	-0.16402757
220	0xbd275d19	-0.04086027
221	0x3d393b01	0.045222286
222	0x3d7ecaf7	0.06220528
223	0xbbbb0089	-0.005706851
224	0xbcf82a97	-0.030293746
225	0xbd66ac8d	-0.0563169
226	0xbd64e6ff	-0.055884358
227	0xbddd4d01	-0.10805703
228	0x3c7c7b37	0.015410236
229	0xbe250406	-0.16114816
230	0x3cae567d	0.021281475
231	0x3d275742	0.0408547
232	0xbdaec5db	-0.08533832
233	0x3e26eabf	0.16300486
234	0x3e021c3a	0.1270608
235	0x3e20f8b4	0.15719873
236	0xbde2e1bd	-0.110782124
237	0xbd4433bb	-0.047900897
238	0xbd7039c4	-0.05864884
239	0xbd930e91	-0.07180513
240	0xbe07e929	-0.13272537
241	0x39f16f44	0.0004605
242	0xbe11a196	-0.14221796
243	0x3dad8a3b	0.08473631
244	0x3e0ee33a	0.13953868
245	0xbc34d2c5	-0.0110365795
246	0x3aeb6f6e	0.0017962286
247	0x3dd85abb	0.105641805
248	0x3d5c2ffc	0.0537567
249	0xbd925583	-0.07145216
250	0x3d761177	0.06007525
251	0x3d0b60c2	0.034027822
252	0xbd1c3b96	-0.038142763
253	0xbda76128	-0.08172828
254	0x3d55cc06	0.052196525
255	0xbd249a09	-0.040185962
