results/FoodTarget_imitation_4/AgentPlayer/AgentPlayer-26870.pt (torch, 818783 bytes, 36 tensors)

network_body._body_endoder.seq_layers.0.weight f4 [128, 128]
-0.035668958 0.08874165 0.014614417 -0.05737214 -0.15540238 0.12506871 0.0814051 -0.0660657
-0.12728807 0.055915575 0.04428868 -0.05991217 -0.037252333 0.080156244 -0.01063448 0.06607306
-0.07961442 -0.027813707 0.10868937 -0.08442166 0.0012221877 0.08074519 0.0030804223 0.15787151
0.012479414 -0.124416366 0.12968332 -0.09080081 -0.052438673 0.08760316 -0.010974613 0.03412518
0.006801771 -0.06456994 -0.08202092 -0.06380534 -0.05889178 -0.053416144 -0.036487468 0.0019287998
0.033192433 0.06704693 0.05152548 0.018342538 -0.030181576 0.047854368 0.052750964 -0.08068728
-0.055546205 0.006214521 -0.022358418 0.004944684 0.04010613 0.042075615 0.08852621 0.031408936
0.08858183 0.00079970236 -0.17227793 -0.024687998 -0.059692893 0.04426593 -0.087021805 -0.2121992
0.04053076 0.046095103 0.0023245632 0.12904179 0.032501932 -0.03506051 -0.021918057 0.18463604
-0.075471416 -0.004864657 0.12103178 -0.029947184 -0.08790342 -0.026765551 -0.11136113 0.000852227
-0.15086885 0.036815386 0.048605237 -0.064603455 -0.09284624 -0.008296635 0.03598853 -0.057716142
-0.07756244 0.12948298 -0.025251944 -0.046668466 -0.12851985 0.11231566 -0.02414897 0.18201385
0.024064038 0.04839411 -0.0048542297 -0.008060904 -0.038001962 0.06703503 0.06316176 0.011970161
-0.041744273 -0.05062031 -0.07499627 0.12517862 0.05753884 -0.061852664 -0.040404614 0.12163651
0.09547934 -0.041098047 -0.02817165 0.031739373 -0.016338766 0.07498517 -0.116159044 0.19908415
-0.1299046 -0.067954056 -0.09523734 0.041500077 0.07959873 -0.096598566 -0.1362718 0.0116175115
-0.0549818 -0.00073599734 0.06407641 0.12534195 -0.037332688 -0.08556987 0.059577774 -0.04808139
-0.029988633 0.07582774 -0.0033618084 -0.026250593 0.06937387 -0.050396714 -0.11476772 0.048303545
0.0046278383 -0.056730226 0.10222054 0.052829858 -0.033237685 0.14193001 0.006219931 0.014139083
0.073803745 -0.036558148 -0.017694471 0.013161132 -0.023777833 0.043219697 0.1421456 -0.12898937
0.05609185 -0.0039878553 -0.04574146 -0.064632334 -0.031183323 0.087382734 -0.044460498 -0.13839176
0.11442827 -0.13195428 -0.10962876 0.024309348 -0.05952947 0.10128271 -0.059039988 -0.055079773
-0.07748753 -0.09186958 -0.20457362 -0.0834375 0.063124925 -0.13519692 0.048142973 0.0689727
0.06596003 0.10787399 -0.057900567 -0.009635622 -0.019939387 0.09351026 -0.018480802 0.023484603
-0.046999753 -0.18017988 0.0075121727 0.015514227 0.093785934 0.11056834 0.03704657 0.0030007812
-0.057823975 0.008664612 0.06806955 0.21976711 0.06988772 -0.021946566 -0.054526355 -0.21294558
-0.19040057 0.048663825 -0.26147705 -0.01509376 -0.005923777 0.07641455 -0.022661667 0.016332315
-0.027919803 0.09642792 0.09596572 0.05139706 -0.051279105 0.14325862 0.16428113 -0.118786156
-0.026920883 -0.033184346 -0.049963944 0.065955035 -0.07585884 -0.03943206 0.11980336 0.07918859
-0.10586411 -0.020645857 -0.040418763 -0.032008003 0.12498396 0.044898704 -0.13156322 -0.034408666
-0.062219124 0.34334067 -0.11726341 0.11900662 -0.03660376 -0.15017025 0.009384857 0.053167194
0.11642365 0.066341594 -0.057750054 0.14739887 -0.09310503 -0.03811559 -0.068715565 0.046595994
00000000: 9d19 12bd 2fbe b53d 4f71 6f3c 0dff 6abd
00000010: cd21 1fbe 0312 003e b8b7 a63d 744d 87bd
00000020: ce57 02be bb07 653d 0c68 353d 7766 75bd
00000030: e795 18bd f528 a43d 3e3c 2ebc 5051 873d
00000040: e30c a3bd 92d9 e3bc 8898 de3d 43e5 acbd
00000050: d031 a03a bc5d a53d e9e0 493b 12a9 213e
00000060: 7576 4c3c 02ce febd b4cb 043e c6f5 b9bd
00000070: efc9 56bd 4969 b33d ddce 33bc d8c6 0b3d
00000080: 64e1 de3b 3f3d 84bd 96fa a7bd 60ac 82bd
00000090: 8238 71bd e3ca 5abd e273 15bd c8cf fc3a
000000a0: caf4 073d e74f 893d 620c 533d 1743 963c
000000b0: 5a3f f7bc f102 443d 6511 583d 5f3f a5bd
000000c0: 6b84 63bd 2ea3 cb3b 0029 b7bc 0407 a23b
000000d0: 5346 243d 7b57 2c3d 3b4d b53d a8a6 003d
000000e0: 646a b53d 1ea3 513a a069 30be 7c3e cabc
000000f0: 8980 74bd 3150 353d 7d38 b2bd bf4a 59be
00000100: 9503 263d 38ce 3c3d b357 183b 8823 043e
00000110: bf20 053d 9c9b 0fbd 7f8d b3bc 3b11 3d3e
00000120: c290 9abd b367 9fbb 83df f73d cc53 f5bc
00000130: b506 b4bd 6e43 dbbc 4e11 e4bd fc67 5f3a
00000140: 5d7d 1abe bbcb 163d 4916 473d d14e 84bd
00000150: 2b26 bebd 9cee 07bc b568 133d c367 6cbd
00000160: 0ed9 9ebd 3097 043e 2add cebc 6f27 3fbd
00000170: b59a 03be c105 e63d 10d4 c5bc d761 3a3e
00000180: f221 c53c e738 463d 3b10 9fbb e211 04bc
00000190: f2a7 1bbd a949 893d f45a 813d 7f1e 443c
000001a0: 0bfc 2abd 3e57 4fbd a597 99bd d32e 003e
000001b0: d9ad 6b3d 3859 7dbd 4f7f 25bd 901c f93d
000001c0: ac8a c33d 6d56 28bd 3bc8 e6bc 2501 023d
000001d0: e0d8 85bc d391 993d cbe4 edbd b7dc 4b3e
000001e0: b605 05be 7f2b 8bbd cb0b c3bd fcfb 293d
000001f0: a904 a33d 78d5 c5bd d68a 0bbe 6057 3e3c
00000200: 9934 61bd f2ef 40ba 7e3a 833d a459 003e
00000210: 29ea 18bd 423f afbd d307 743d fef0 44bd
00000220: b9aa f5bc 934b 9b3d c951 5cbb 7c0b d7bc
00000230: e313 8e3d c96c 4ebd 570b ebbd f0d9 453d
00000240: 1fa5 973b f45d 68bd 0159 d13d 1f64 583d
00000250: 3d24 08bd 1a56 113e 90d0 cb3b 9da7 673c
00000260: 6b26 973d ffbd 15bd fff3 90bc caa1 573c
00000270: bbc9 c2bc 2307 313d 9e8e 113e ca15 04be
00000280: 91c0 653d 8eac 82bb 665b 3bbd f55d 84bd
00000290: 2b74 ffbc b8f5 b23d 361c 36bd 92b6 0dbe
000002a0: 5e59 ea3d 061f 07be 0b85 e0bd 6624 c73c
000002b0: 2cd5 73bd 4f6d cf3d ead3 71bd 549b 61bd
000002c0: c8b1 9ebd 1e26 bcbd bf7b 51be 48e1 aabd
000002d0: a447 813d 1071 0abe 9131 453d 8f41 8d3d
000002e0: 0d16 873d 0aed dc3d 2529 6dbd bade 1dbc
000002f0: ed57 a3bc 4f82 bf3d 0d65 97bc c862 c03c
00000300: d082 40bd 1381 38be ac28 f63b 622f 7e3c
00000310: d712 c03d a771 e23d 25be 173d c1a8 443b
00000320: d5d8 6cbd 04f6 0d3c 0c68 8b3d a10a 613e
00000330: 4b21 8f3d 49c9 b3bc 0757 5fbd 680e 5abe
00000340: 5ef8 42be b853 473d 52e0 85be d14b 77bc
00000350: 3e1c c2bb 3b7f 9c3d f6a4 b9bc 59cb 853c
00000360: 12b8 e4bc 007c c53d ad89 c43d b985 523d
00000370: 0a0a 52bd 63b2 123e 5039 283e 2846 f3bd
00000380: 2f89 dcbc 4fec 07bd fea6 4cbd 6f13 873d
00000390: e15b 9bbd 8383 21bd 775b f53d a12d a23d
000003a0: 48cf d8bd 8021 a9bc 258e 25bd d31a 03bd
000003b0: 97f7 ff3d b4e7 373d 82b8 06be 1af0 0cbd
000003c0: 7bd9 7ebd 59ca af3e cc27 f0bd beb9 f33d
000003d0: d3ed 15bd 3bc6 19be f1c2 193c d8c5 593d
000003e0: 866f ee3d 1ade 873d 528b 6cbd bbef 163e
000003f0: daad bebd 181f 1cbd bfba 8cbd 71db 3e3d

network_body._body_endoder.seq_layers.0.bias f4 [128]
-0.0042549563 -5.3795902e-05 0.0074576326 0.010655028 -0.0007802244 -0.0025050722 -0.0010068599 0.007442974
-0.010439027 0.007904603 0.0016614906 0.009514685 0.012134634 0.0042745336 0.0010401915 0.010930213
0.006413569 -0.008465533 0.008435557 0.0059641455 0.0046204887 -0.00739738 -0.00015038667 -0.009329522
0.006896207 -0.006387118 0.0037070257 -0.006721386 0.0102255745 -0.005081001 2.3934748e-05 0.0026217385
-0.0057765376 -0.002839934 -0.0042939065 0.0023150076 0.0026959549 -0.00070689153 0.0071987486 0.00023359331
0.004284214 0.010053385 0.0106572425 0.0067688613 0.0040607387 0.011224701 -0.0025454129 -0.0028933182
0.009334503 0.005699839 0.0017004703 0.011265104 0.0075189727 0.0004800974 0.0055173817 -0.009052461
-0.008658507 0.004678196 -0.004731076 0.0029415572 -0.004532927 -0.00048618874 -0.0038898538 -0.003937821
-0.0022056245 0.007756661 0.00044679505 0.0047439393 0.007168126 -0.00738222 -0.00013675165 0.003427423
0.005860533 0.004496903 0.005639302 0.0033844605 -0.00015347009 0.0026338764 -7.146091e-05 0.006785342
0.0014816035 0.0070474967 0.00429202 2.115286e-05 0.0002835344 -0.0027889402 0.004437649 0.010786113
0.0029096904 -0.0017280433 0.0057658674 0.007774093 -0.011906795 0.009173863 -0.0059702396 0.0016978941
-0.0014501238 0.007364843 0.002877904 0.004918976 -0.0046253833 -9.395881e-05 0.0062904707 0.0039765257
0.007076303 -0.00476281 -0.010112543 -0.00022842901 0.006806311 0.0015970948 -0.0061118137 -0.0060106944
0.009318313 0.000531372 0.003918934 -0.005292585 0.013485174 -0.0080172755 0.0054092966 -0.0051130597
0.00980003 0.0072262185 0.003363786 -0.0045101843 -0.0030439317 0.007711924 -0.0016632605 0.00991653
00000000: 296d 8bbb e9a2 61b8 285f f43b 6d92 2e3c
00000010: f987 4cba 232c 24bb 9df8 83ba 31e4 f33b
00000020: 7408 2bbc 4f82 013c 60c6 d93a 7be3 1b3c
00000030: 58d0 463c 6311 8c3b 0957 883a a314 333c
00000040: eb28 d23b 05b3 0abc 4a35 0a3c e16e c33b
00000050: 7867 973b b965 f2bb 1db1 1db9 dada 18bc
00000060: 94f9 e13b 074b d1bb 92f1 723b 133f dcbb
00000070: 2b89 273c 877e a6bb 7bc7 c837 79d1 2b3b
00000080: 1c49 bdbb 301e 3abb e6b3 8cbb 62b7 173b
00000090: 9eae 303b b04e 39ba 7be3 eb3b baf0 7439
000000a0: 9862 8c3b f4b6 243c b79b 2e3c 53cd dd3b
000000b0: f20f 853b cfe7 373c f1d0 26bb d39d 3dbb
000000c0: beef 183c b7c5 ba3b 51e2 de3a 4591 383c
000000d0: b761 f63b 95b5 fb39 27cb b43b c650 14bc
000000e0: 69dc 0dbc 8d4b 993b 2407 9bbb 24c7 403b
000000f0: f388 94bb 26e7 feb9 ebec 7ebb d608 81bb
00000100: 3d8c 10bb 972b fe3b d13f ea39 0c73 9b3b
00000110: 99e2 ea3b 8de6 f1bb fe64 0fb9 9e9e 603b
00000120: b709 c03b c25a 933b e5c9 b83b d3cd 5d3b
00000130: d0ec 20b9 1d9d 2c3b 49dd 95b8 9357 de3b
00000140: 5d32 c23a b0ee e63b 13a4 8c3b 6c71 b137
00000150: 58a7 9439 a7c6 36bb b369 913b 3db8 303c
00000160: 81b0 3e3b 837f e2ba 9aef bc3b d2bd fe3b
00000170: b814 43bc f84d 163c 00a2 c3bb df8b de3a
00000180: 1512 beba c854 f13b 389b 3c3b 5d2f a13b
00000190: 8790 97bb c10b c5b8 4b20 ce3b 844d 823b
000001a0: 55e0 e73b 5911 9cbb 14af 25bc 7286 6fb9
000001b0: 7a07 df3b 9c55 d13a 9c45 c8bb 5cf5 c4bb
000001c0: d6ab 183c c54b 0b3a 676a 803b 6c6d adbb
000001d0: ebf0 5c3c e45a 03bc 7840 b13b 748b a7bb
000001e0: 4e90 203c eac9 ec3b f772 5c3b 2bca 93bb
000001f0: b37c 47bb 4fb4 fc3b c301 daba f178 223c

network_body._body_endoder.seq_layers.2.weight f4 [128, 128]
-0.036409754 -0.12166495 -0.15685187 -0.12955031 -0.17055431 0.06982805 -0.09764605 -0.09575179
0.0030158756 0.09156299 0.06292853 -0.05987825 0.01295953 -0.12172922 -0.12423027 0.020507904
-0.11821497 0.02156424 0.13400333 0.078287 0.13307087 0.02720417 -0.059652224 -0.07463405
-0.006838308 -0.100843765 0.18913862 0.10645952 -0.12791808 0.05064756 -0.02427934 -0.101402014
0.07289084 -0.0037858577 0.08657067 0.07973462 0.10094243 0.08716052 0.0100835515 -0.075321
0.031276055 -0.004272901 -0.029109865 -0.17078505 -0.10136992 -0.124566026 0.1233087 -0.07991627
0.002675929 -0.03295339 -0.035382863 -0.012455608 0.095970154 -0.090603784 -0.19897436 -0.025402917
0.013093237 0.048936572 0.0517088 -0.0051057753 0.082838625 0.009474841 -0.10990371 0.15960625
0.03268254 -0.11124265 0.025134185 0.20925537 -0.1139734 -0.067025706 0.012491153 -0.062925145
-0.16237485 -0.058961164 0.07586916 0.0516645 -0.05849052 -0.0006019865 0.059543796 -0.2136001
-0.02619722 -0.048547283 -0.07906138 -0.043999266 -0.112357154 -0.031056635 -0.019707106 0.028227331
0.17668706 -0.035267547 0.07520187 -0.07858071 0.0022561534 -0.07971853 0.07416768 -0.015940418
0.0635314 -0.07355218 -0.14000432 -0.08608916 -0.0855965 0.040324423 0.037338812 -0.05875436
-0.05143917 0.032733135 -0.00592097 0.103765406 -0.017144859 -0.037185196 -0.098833494 0.076882236
-0.07711975 0.031114304 -0.054915443 0.094421245 -0.1458465 -0.08361836 0.11916716 0.045677047
-0.011772102 -0.037609924 0.013459519 -0.015235913 0.10607096 -0.11512231 0.0010153394 -0.015442827
-0.034155928 0.07211604 -0.03896745 -0.03187335 -0.10225484 -0.11160077 -0.05485629 -0.18375282
-0.12667678 -0.053336002 0.04502521 -0.097848006 0.008231545 0.077187665 -0.18586384 -0.14103705
-0.0102868695 -0.03620694 0.042367693 0.13724178 -0.08297024 -0.19802779 -0.05662855 0.058643702
-0.10657259 -0.039584793 -0.09390682 0.06876516 0.09914793 -0.0029509894 0.100523844 0.04219329
-0.038337898 -0.014832693 -0.17817453 0.08576688 0.005832117 0.06984547 -0.011098961 -0.19280176
0.0975911 0.041281525 0.026837986 0.029576099 0.08610195 0.058734026 0.08911586 -0.018020507
-0.12900187 0.023083346 -0.0469414 -0.074574634 0.11683902 0.015805652 0.13678105 0.021395104
0.15798354 -0.027027141 0.036606126 0.05658696 0.06303843 -0.05518341 -0.06761566 0.14832464
-0.07600068 0.004434021 -0.025525713 0.11145369 0.1398033 0.12044405 0.05805182 0.16411036
0.0032601072 -0.0015718652 -0.04855849 0.07610749 0.04809167 0.062067386 -0.10119326 -0.05182214
-0.018791247 0.01919746 0.00694967 -0.090000786 -0.08526056 -0.047623333 0.03165633 0.008547939
-0.046226963 0.053986568 -0.1659801 0.03404362 0.14811476 0.09815498 0.17796083 -0.03348443
0.0339194 -0.1974997 -0.08129196 -0.06041609 0.028570471 -0.06439788 -0.06558356 0.050977197
-0.033546384 -0.085606195 0.0023305553 -0.054507017 -0.016479647 -0.19558069 0.05070936 -0.0974063
0.13817862 0.0011608622 0.07376844 0.124153726 0.10307174 0.00010929112 -0.11392717 -0.08293947
0.03669578 -0.08601477 -0.07788825 -0.17564224 0.011663268 0.0017519889 -0.107272215 -0.20790493
00000000: 6522 15bd 792b f9bd c79d 20be d6a8 04be
00000010: caa5 2ebe 0202 8f3d a7fa c7bd 8419 c4bd
00000020: ffa5 453b 6085 bb3d ace0 803d e542 75bd
00000030: 3554 543c 2b4d f9bd 716c febd 3100 a83c
00000040: b11a f2bd 7da7 b03c 2b38 093e ef54 a03d
00000050: bb43 083e 48db de3c e455 74bd bdd9 98bd
00000060: e313 e0bb 2d87 cebd 8ead 413e 7307 da3d
00000070: f5fc 02be d173 4f3d 77e5 c6bc dcab cfbd
00000080: cb47 953d 271c 78bb f74b b13d e84b a33d
00000090: e8ba ce3d 3781 b23d 7b35 253c e541 9abd
000000a0: 521b 003d b103 8cbb d077 eebc 47e2 2ebe
000000b0: 089b cfbd 791c ffbd 4689 fc3d 24ab a3bd
000000c0: a45e 2f3b 22fa 06bd 9fed 10bd 9b12 4cbc
000000d0: 008c c43d 7a8e b9bd efbf 4bbe c719 d0bc
000000e0: 0485 563c b771 483d 9bcc 533d 594e a7bb
000000f0: 4ca7 a93d 5d3c 1b3c 3215 e1bd d26f 233e
00000100: 21de 053d 30d3 e3bd 35e6 cd3c 0a47 563e
00000110: e36a e9bd c644 89bd b1a7 4c3c e6de 80bd
00000120: 9845 26be 4381 71bd 4a61 9b3d 289e 533d
00000130: c193 6fbd a1ce 1dba 32e4 733d fcb9 5abe
00000140: 8d9b d6bc 84d9 46bd efea a1bd 9338 34bd
00000150: 821b e6bd 7c6a febc cc70 a1bc 013d e73c
00000160: 74ed 343e b474 10bd 7003 9a3d ecee a0bd
00000170: f9db 133b 7843 a3bd 3ae5 973d 7b95 82bc
00000180: c01c 823d 86a2 96bd 4b5d 0fbe 834f b0bd
00000190: 384d afbd 392b 253d 95f0 183d 69a8 70bd
000001a0: e1b1 52bd 2e13 063d b204 c2bb f582 d43d
000001b0: 6073 8cbc 814f 18bd 3769 cabd 6f74 9d3d
000001c0: f6f0 9dbd 6de3 fe3c 04ef 60bd ed5f c13d
000001d0: c958 15be 1a40 abbd e90d f43d db17 3b3d
000001e0: c6df 40bc dd0c 1abd 5085 5c3c 0da0 79bc
000001f0: bb3b d93d 3fc5 ebbd 2315 853a e903 7dbc
00000200: 16e7 0bbd 93b1 933d 559c 1fbd a18d 02bd
00000210: fc6a d1bd f28e e4bd fdb0 60bd b329 3cbe
00000220: 8fb7 01be da76 5abd 5b6c 383d 8964 c8bd
00000230: 9add 063c 9114 9e3d 1753 3ebe 046c 10be
00000240: 428a 28bc ba4d 14bd bf89 2d3d 1c89 0c3e
00000250: 4dec a9bd ccc7 4abe 57f3 67bd 6134 703d
00000260: bb42 dabd aa23 22bd 3852 c0bd c0d4 8c3d
00000270: 120e cb3d 6365 41bb 72df cd3d dfd2 2c3d
00000280: 3308 1dbd d304 73bc 6273 36be 8ca6 af3d
00000290: 581b bf3b 240b 8f3d 6bd8 35bc d36d 45be
000002a0: d8dd c73d d116 293d 56db db3c 9349 f23c
000002b0: 3856 b03d 1793 703d 6082 b63d be9f 93bc
000002c0: 1119 04be 4919 bd3c a045 40bd 96ba 98bd
000002d0: 4c49 ef3d db7a 813c 5510 0c3e c944 af3c
000002e0: 70c6 213e 0668 ddbc 4ef0 153d bac7 673d
000002f0: 4b1a 813d 0008 62bd 147a 8abd 6ae2 173e
00000300: 3fa6 9bbd 444b 913b 4d1b d1bc d541 e43d
00000310: 9928 0f3e 5fab f63d bfc7 6d3d 8c0c 283e
00000320: 86a7 553b 0b07 ceba 44e5 46bd 3ede 9b3d
00000330: c5fb 443d 5f3a 7e3d 693e cfbd 7443 54bd
00000340: 1af0 99bc fe43 9d3c 0fba e33b 5552 b8bd
00000350: 179d aebd af10 43bd 11aa 013d a80c 0c3c
00000360: 7c58 3dbd 0521 5d3d b0f6 29be 5371 0b3d
00000370: 65ab 173e 7a05 c93d 5d3b 363e f826 09bd
00000380: 12ef 0a3d 5d3d 4abe 667c a6bd dd76 77bd
00000390: 9f0c ea3c 09e3 83bd ac50 86bd 77cd 503d
000003a0: ef67 09bd 4d52 afbd 3bbc 183b c042 5fbd
000003b0: 5300 87bc 4e46 48be 9eb4 4f3d f47c c7bd
000003c0: b27e 0d3e 1228 983a e813 973d 4f44 fe3d
000003d0: 4717 d33d 3933 e538 a652 e9bd 2bdc a9bd
000003e0: 504e 163d 8328 b0bd e083 9fbd 8fdb 33be
000003f0: 4b17 3f3c fea2 e53a 89b1 dbbd 08e5 54be

network_body._body_endoder.seq_layers.2.bias f4 [128]
0.0018781011 0.0042745653 -0.004497547 0.002108999 0.0027885155 -0.0017499581 0.0031381026 -0.0026802563
0.0106673 -0.0012872207 0.0020323503 -0.0028074689 -0.002586056 0.00467559 -0.0051305145 -0.0014501786
0.005817861 0.0019341523 0.0014441875 0.004630066 0.0014232802 0.0043731877 0.0071802 -0.004990601
-0.0010231711 -0.002375049 0.006540133 0.0022511552 0.006760148 0.008644551 0.0023590918 -0.0022637034
-0.006716934 0.0025825887 -0.0052669207 0.004155949 0.0050753583 -0.005192383 0.0052180034 0.0067651435
-0.0038027614 0.001197912 0.00261422 -0.0047774413 0.001590125 -0.002086386 -0.0021381336 0.0074312002
-0.0041832286 -0.005144867 0.005107218 0.006111786 -0.0054203467 -0.0051283534 0.01105463 0.005098718
0.0041488055 -0.007295155 -0.0029798092 0.004127573 0.00042134005 0.0029099253 0.00045817174 0.006317312
0.005221217 -0.0012212222 -0.0029335567 -0.0064237104 -0.0010053567 -0.008868348 0.0044195238 -0.0001469109
0.006422923 -0.0021843838 0.0023837562 -0.004892714 -0.005223959 0.0056972154 0.003639784 -0.0008373128
-0.0016093588 -0.0009709982 0.0057507837 0.004539354 -0.004090994 -0.0052676434 -0.004427019 -0.006877328
0.011490438 0.002594202 0.00755622 0.0055756243 0.0037491815 -0.00036289176 -0.0032218995 0.005753164
-0.002011062 -0.0055159377 -0.007601014 0.0013360395 0.0029773726 0.0051158965 -0.0034291183 0.0037402322
0.00096396287 -0.0039860103 -0.0010703092 0.0076825065 0.00082593947 -0.002900757 0.0008199936 0.0023527835
0.011423347 0.008230954 0.008144804 -0.0064640814 -0.0067118797 -0.0042623077 0.0029323895 0.0041737035
-0.0028733646 -0.0015365524 -0.005006181 -0.008479263 0.003386849 -0.008529765 -6.84794e-05 -0.0015176387
00000000: 9e2a f63a a711 8c3b 2960 93bb 2237 0a3b
00000010: 87bf 363b da5e e5ba a0a8 4d3b 3da7 2fbb
00000020: e6c5 2e3c f6b7 a8ba 2e31 053b 83fd 37bb
00000030: d27a 29bb b135 993b e01d a8bb eb13 beba
00000040: c1a3 be3b 6283 fd3a e44a bd3a cfb7 973b
00000050: 5c8d ba3a f54c 8f3b e247 eb3b 3288 a3bb
00000060: ed1b 86ba b6a6 1bbb 9d4e d63b 1e88 133b
00000070: 3b84 dd3b e0a1 0d3c fe9a 1a3b a45a 14bb
00000080: ba19 dcbb a640 293b 2296 acbb a12e 883b
00000090: 314f a63b de24 aabb c9fb aa3b 23ae dd3b
000000a0: c037 79bb 4203 9d3a 5553 2b3b 158c 9cbb
000000b0: be6b d03a c0bb 08bb ee1f 0cbb 6d81 f33b
000000c0: 7713 89bb 4696 a8bb 735a a73b 6045 c83b
000000d0: 2a9d b1bb bf0b a8bb 7b1e 353c 2613 a73b
000000e0: b4f2 873b 320c efbb e748 43bb 9840 873b
000000f0: 4ee7 dc39 72b4 3e3b c536 f039 7401 cf3b
00000100: be16 ab3b 6b11 a0ba ea40 40bb fd7d d2bb
00000110: 2cc6 83ba 8c4c 11bc a7d1 903b 180c 1ab9
00000120: 6277 d23b e127 0fbb cb38 1c3b 0f53 a0bb
00000130: bf2d abbb b5af ba3b 7189 6e3b 1c7f 5bba
00000140: 1ff1 d2ba 968a 7eba 1271 bc3b dcbe 943b
00000150: bf0d 86bb 329c acbb 8710 91bb 355b e1bb
00000160: 6442 3c3c 7d03 2a3b 2b9a f73b bab3 b63b
00000170: d4b4 753b 8242 beb9 8126 53bb 0a85 bc3b
00000180: 06cc 03bb 0abf b4bb ed11 f9bb 0c1e af3a
00000190: 0620 433b 40a3 a73b 0fbb 60bb af1e 753b
000001a0: 74b2 7c3a 149d 82bb 9e49 8cba 89bd fb3b
000001b0: dc83 583a a01a 3ebb d7f4 563a 2831 1a3b
000001c0: fd28 3b3c 20db 063c c971 053c a5d0 d3bb
000001d0: 54ef dbbb d4aa 8bbb 552d 403b 90c3 883b
000001e0: 0f4f 3cbb 2566 c9ba e40a a4bb 9bec 0abc
000001f0: e6f5 5d3b 6dc0 0bbc 999c 8fb8 81eb c6ba

action_model._continuous_distribution.log_sigma f4 [1, 5]
-0.0019242157 -0.004928359 0.0048453254 0.0008413088 0.0008853378
00000000: f735 fcba 127e a1bb 89c5 9e3b 478b 5c3a
00000010: 0416 683a

action_model._continuous_distribution.mu.weight f4 [5, 128]
-0.0012576054 0.010439821 -0.007357201 0.0031029715 -0.025385087 -0.0142011875 -0.020985126 0.007430734
0.0132903475 -0.024419224 0.018259706 -0.021257328 -0.02711785 0.03023679 -0.0034704378 0.0059760115
0.0043339743 0.012052773 -0.028473012 0.012906947 -0.022066412 -0.028105456 0.02304988 -0.014906284
0.013514405 0.011511409 0.024901418 0.009642359 0.008164469 0.0006387799 -0.015529065 -0.007678571
-0.02677221 -0.024317527 -0.013271321 0.031969097 0.0017925934 -0.014808574 -0.0032606926 0.028832704
-0.0061686076 0.027861083 -0.014889383 -0.018549671 0.008120208 -0.0020388572 -0.039818704 -0.020052845
-0.017639773 -0.014064201 -0.022587141 0.02803968 -0.018645275 -0.0028152443 0.050948277 0.002501715
-0.0044696233 -0.012092988 -0.011945705 -0.010359015 0.012153672 -0.019702682 0.010500535 -0.011303922
0.024760632 0.031118369 -0.0050521977 -0.0032889438 0.0029243855 -0.011504678 0.010485389 -0.034320917
-0.0035657382 -0.039992005 -0.028735727 -0.021841105 -0.022381315 -0.043224886 -0.002013741 0.0347639
-0.002375735 -0.026596166 -0.032038864 -0.00899158 -0.0194304 -0.017574815 -0.037291415 -0.01416481
0.023590902 0.00089372025 0.017744482 -0.043252423 0.0005234778 -0.014853567 -0.026309963 0.024965085
-0.0051745404 -0.025668714 -0.010256775 -0.035778683 -0.0106172655 0.011791176 -0.029779425 -0.013288626
-0.014096851 -0.05102917 0.023248563 -0.008960215 0.009456714 -0.024458194 -0.016193958 0.0038524389
0.03544381 0.041455172 0.017600473 -0.009456775 -0.014059312 -0.0052690743 0.0010753128 -0.0128117595
-0.048488684 -0.014970142 -0.01321002 -0.00687511 -0.017024519 -0.02110872 0.029110925 0.01926929
-0.035724826 0.03288283 -0.030760407 0.019632667 0.013324596 -0.033236966 0.027403422 -0.009045383
0.013433674 0.020545073 0.013054558 0.012522753 0.050573807 -0.021666309 -0.022606267 -0.043916944
-0.00862667 -0.024840033 0.016944898 0.031361334 -0.031133875 0.019332396 0.043800365 0.017763933
0.020508235 -0.04233957 0.008786337 0.025772076 0.027512223 0.034110688 -0.020020716 -0.005728215
-0.0004966209 -0.030500703 0.012291406 -0.019595945 -0.012699301 0.0026663747 0.02368796 -0.021672519
0.012537254 0.021028074 0.04587964 0.013763544 0.010559301 -0.011888441 0.014272965 0.05999985
-0.01659993 0.010142492 0.025006546 0.07477138 0.0059193475 -0.011197212 0.015458542 -0.042976327
-0.010693948 -0.020778794 0.017945733 0.004733847 -0.010720181 -0.04800153 0.017072087 0.041832667
-0.011762153 0.005663179 -0.016026951 -0.04370755 0.016952187 0.00019095813 0.003634371 0.009709429
0.033344813 -0.02298776 0.04217579 0.002721329 0.009073613 0.045124028 0.0097765215 -0.0061869062
-0.0075898673 0.025939697 0.023372252 0.03201845 -0.01531232 0.029618295 -0.027958699 -0.00518939
0.018454535 -0.005318165 0.00016784536 0.041855734 0.024928542 -0.012147307 0.021786964 0.03805625
-0.013694803 -0.025631178 0.0052242605 0.004521821 0.00017367491 -0.027349606 -0.043399267 -0.0238408
-0.0029205312 -0.00060063886 -0.007170321 -0.026709693 -0.021887114 0.015757632 -0.026638376 -0.0046709874
-0.011450039 -0.0012437322 -0.010165557 0.009057265 0.012106365 -0.003730439 0.009707695 0.022151157
0.015216815 -0.014134831 -0.03216861 -0.0059023215 0.042730168 0.01492162 0.008105 -0.02902597
00000000: 3cd6 a4ba c80b 2b3c ad14 f1bb 395b 4b3b
00000010: 63f4 cfbc 19ac 68bc 00e9 abbc 847d f33b
00000020: c2bf 593c d30a c8bc 6195 953c d923 aebc
00000030: 4126 debc 25b3 f73c 4970 63bb 6bd2 c33b
00000040: 0304 8e3b fe78 453c 3c40 e9bc a977 533c
00000050: 9fc4 b4bc 6a3d e6bc 1ad3 bc3c 7d39 74bc
00000060: 866b 5d3c 599a 3c3c 0ffe cb3c fcfa 1d3c
00000070: 44c4 053c cb73 273a 9f6d 7ebc 869c fbbb
00000080: 6551 dbbc 8d35 c7bc f46f 59bc 07f2 023d
00000090: 74f5 ea3a a99f 72bc 58b1 55bb 9032 ec3c
000000a0: 0822 cabb ed3c e43c 99f2 73bc 7bf5 97bc
000000b0: 9f0a 053c 599e 05bb f018 23bd dd45 a4bc
000000c0: 4981 90bc 896d 66bc ab08 b9bc 79b3 e53c
000000d0: fabd 98bc f67f 38bb 24af 503d d0f3 233b
000000e0: eb75 92bb ab21 46bc ebb7 43bc dcb8 29bc
000000f0: 3220 473c 8567 a1bc 700a 2c3c 1634 39bc
00000100: cfd6 ca3c f3eb fe3c e88c a5bb 528b 57bb
00000110: 0ca7 3f3b 1e7e 3cbc e9ca 2b3c 1794 0cbd
00000120: 29af 69bb a8ce 23bd 3067 ebbc 1eec b2bc
00000130: 0559 b7bc 940c 31bd f8f8 03bb 9764 0e3d
00000140: 38b2 1bbb 34e0 d9bc 2f3b 03bd 6c51 13bc
00000150: 812c 9fbc 0ff9 8fbc e2be 18bd 8513 68bc
00000160: b541 c13c 8d48 6a3a e05c 913c 7429 31bd
00000170: 003a 093a 605c 73bc fe87 d7bc 9483 cc3c
00000180: 318f a9bb 3247 d2bc 080c 28bc ab8c 12bd
00000190: 0af4 2dbc c72f 413c fbf3 f3bc 8ab8 59bc
000001a0: 7bf6 66bc f703 51bd c573 be3c decd 12bc
000001b0: 55f0 1a3c 8d5c c8bc 31a9 84bc 3379 7c3b
000001c0: 872d 113d e6cc 293d de2e 903c 97f0 1abc
000001d0: 0759 66bc 33a8 acbb 83f1 8c3a 6ae8 51bc
000001e0: 129c 46bd 5445 75bc d76e 58bc 9a48 e1bb
000001f0: 0177 8bbc 32ec acbc 097a ee3c a1da 9d3c
00000200: 3254 12bd 25b0 063d 40fd fbbc b0d4 a03c
00000210: 684f 5a3c 7c23 08bd 247d e03c 1633 14bc
00000220: ea18 5c3c 244e a83c c9e2 553c 3c2c 4d3c
00000230: 7b26 4f3d 8b7d b1bc c730 b9bc 41e2 33bd
00000240: e056 0dbc 537d cbbc 07d0 8a3c be74 003d
00000250: 780c ffbc f95e 9e3c 0368 333d ab85 913c
00000260: e300 a83c 426c 2dbd 92f4 0f3c f61f d33c
00000270: 5061 e13c a6b7 0b3d 7c02 a4bc c0b3 bbbb
00000280: aa2f 02ba 9cdc f9bc e561 493c ad87 a0bc
00000290: bb10 50bc 58be 2e3b 410d c23c 918a b1bc
000002a0: 0e69 4d3c 1143 ac3c 4aec 3b3d 7d80 613c
000002b0: eb00 2d3c bcc7 42bc 27d9 693c 67c2 753d
000002c0: 94fc 87bc b22c 263c 87da cc3c bd21 993d
000002d0: 16f7 c13b 8374 37bc d345 7d3c f207 30bd
000002e0: ab35 2fbc 4a38 aabc ee02 933c 631e 9b3b
000002f0: b3a3 2fbc 419d 44bd c3da 8b3c bb58 2b3d
00000300: 0cb6 40bc 3092 b93b f44a 83bc b006 33bd
00000310: 50df 8a3c ef3b 4839 a12e 6e3b 4c14 1f3c
00000320: 9294 083d d450 bcbc 85c0 2c3d 5358 323b
00000330: 7ea9 143c f9d3 383d b42d 203c 88bb cabb
00000340: 6cb4 f8bb 7d7f d43c 2a77 bf3c c725 033d
00000350: 86e0 7abc 11a2 f23c a409 e5bc c20b aabb
00000360: f72d 973c 0044 aebb a5ff 2f39 eb70 2b3d
00000370: f136 cc3c 8005 47bc 937a b23c dfe0 1b3d
00000380: 2b60 60bc 7af8 d1bc 4630 ab3b c92b 943b
00000390: 811c 3639 480c e0bc 6ec3 31bd c84d c3bc
000003a0: 6266 3fbb 3174 1dba 03f5 eabb 49ce dabc
000003b0: 9b4c b3bc 2616 813c b938 dabc 150f 99bb
000003c0: f298 3bbc ba04 a3ba 708d 26bc ec64 143c
000003d0: c659 463c 627a 74bb 060d 1f3c 5876 b53c
000003e0: f34f 793c c795 67bc 3bc3 03bd 4368 c1bb
000003f0: d405 2f3d cf79 743c d5ca 043c dfc7 edbc

action_model._continuous_distribution.mu.bias f4 [5]
0.005441512 0.002158899 -0.0066887364 -0.0034961335 0.0020892585
00000000: b64e b23b 517c 0d3b 302d dbbb 631f 65bb
00000010: f1eb 083b

exp_avg f4 [128, 128]
0.0 0.0 -9.300269e-06 -7.5316952e-06 0.0 0.0 -2.221383e-05 -9.844936e-06
0.0 0.0 -1.052312e-05 -5.198919e-06 0.0 0.0 -1.227078e-05 -7.3446977e-06
0.0 0.0 -4.3171262e-06 -2.725244e-06 0.0 0.0 2.544618e-06 -6.5151255e-07
0.0 0.0 2.544618e-06 -6.5151255e-07 5.2746782e-05 5.9237063e-05 0.0 1.0684714e-05
-9.619226e-06 0.0 0.0 0.0 0.0 0.0 0.0 0.0
0.0 0.0 0.0 0.0 0.0 0.0 0.0 0.0
0.0 0.0 0.0 0.0 0.0 0.0 0.0 0.0
0.0 0.0 0.0 0.0 0.0 0.0 0.0 0.0
0.0 0.0 0.0 0.0 0.0 0.0 0.0 0.0
0.0 0.0 0.0 0.0 0.0 0.0 0.0 0.0
0.0 0.0 0.0 0.0 0.0 0.0 0.0 0.0
0.0 0.0 0.0 0.0 0.0 0.0 0.0 0.0
0.0 0.0 0.0 0.0 0.0 0.0 0.0 0.0
0.0 0.0 0.0 0.0 0.0 0.0 0.0 0.0
0.0 0.0 0.0 0.0 0.0 0.0 0.0 0.0
0.0 0.0 0.0 0.0 0.0 0.0 0.0 0.0
0.0 0.0 -5.8848036e-05 -3.5596393e-05 0.0 0.0 -3.8377693e-05 -2.0322184e-05
0.0 0.0 -3.295147e-05 -2.0619791e-05 0.0 0.0 -3.897405e-06 -2.7301091e-06
0.0 0.0 -8.30285e-06 -6.418447e-06 0.0 0.0 5.853567e-06 1.4968366e-06
0.0 0.0 5.853567e-06 1.4968366e-06 -2.8203052e-05 0.00016625844 0.0 1.4031637e-05
-2.3447274e-05 0.0 0.0 0.0 0.0 0.0 0.0 0.0
0.0 0.0 0.0 0.0 0.0 0.0 0.0 0.0
0.0 0.0 0.0 0.0 0.0 0.0 0.0 0.0
0.0 0.0 0.0 0.0 0.0 0.0 0.0 0.0
0.0 0.0 0.0 0.0 0.0 0.0 0.0 0.0
0.0 0.0 0.0 0.0 0.0 0.0 0.0 0.0
0.0 0.0 0.0 0.0 0.0 0.0 0.0 0.0
0.0 0.0 0.0 0.0 0.0 0.0 0.0 0.0
0.0 0.0 0.0 0.0 0.0 0.0 0.0 0.0
0.0 0.0 0.0 0.0 0.0 0.0 0.0 0.0
0.0 0.0 0.0 0.0 0.0 0.0 0.0 0.0
0.0 0.0 0.0 0.0 0.0 0.0 0.0 0.0
00000000: 0000 0000 0000 0000 5a08 1cb7 c5b8 fcb6
00000010: 0000 0000 0000 0000 d657 bab7 ae2b 25b7
00000020: 0000 0000 0000 0000 758c 30b7 6072 aeb6
00000030: 0000 0000 0000 0000 99de 4db7 7972 f6b6
00000040: 0000 0000 0000 0000 d5db 90b6 56e3 36b6
00000050: 0000 0000 0000 0000 34c4 2a36 9ae3 2eb5
00000060: 0000 0000 0000 0000 34c4 2a36 9ae3 2eb5
00000070: 6d3c 5d38 5075 7838 0000 0000 7f42 3337
00000080: 4362 21b7 0000 0000 0000 0000 0000 0000
00000090: 0000 0000 0000 0000 0000 0000 0000 0000
000000a0: 0000 0000 0000 0000 0000 0000 0000 0000
000000b0: 0000 0000 0000 0000 0000 0000 0000 0000
000000c0: 0000 0000 0000 0000 0000 0000 0000 0000
000000d0: 0000 0000 0000 0000 0000 0000 0000 0000
000000e0: 0000 0000 0000 0000 0000 0000 0000 0000
000000f0: 0000 0000 0000 0000 0000 0000 0000 0000
00000100: 0000 0000 0000 0000 0000 0000 0000 0000
00000110: 0000 0000 0000 0000 0000 0000 0000 0000
00000120: 0000 0000 0000 0000 0000 0000 0000 0000
00000130: 0000 0000 0000 0000 0000 0000 0000 0000
00000140: 0000 0000 0000 0000 0000 0000 0000 0000
00000150: 0000 0000 0000 0000 0000 0000 0000 0000
00000160: 0000 0000 0000 0000 0000 0000 0000 0000
00000170: 0000 0000 0000 0000 0000 0000 0000 0000
00000180: 0000 0000 0000 0000 0000 0000 0000 0000
00000190: 0000 0000 0000 0000 0000 0000 0000 0000
000001a0: 0000 0000 0000 0000 0000 0000 0000 0000
000001b0: 0000 0000 0000 0000 0000 0000 0000 0000
000001c0: 0000 0000 0000 0000 0000 0000 0000 0000
000001d0: 0000 0000 0000 0000 0000 0000 0000 0000
000001e0: 0000 0000 0000 0000 0000 0000 0000 0000
000001f0: 0000 0000 0000 0000 0000 0000 0000 0000
00000200: 0000 0000 0000 0000 99d3 76b8 564d 15b8
00000210: 0000 0000 0000 0000 bcf7 20b8 8f79 aab7
00000220: 0000 0000 0000 0000 5f35 0ab8 aaf8 acb7
00000230: 0000 0000 0000 0000 74c6 82b6 eb36 37b6
00000240: 0000 0000 0000 0000 784c 0bb7 0a5e d7b6
00000250: 0000 0000 0000 0000 c269 c436 eae6 c835
00000260: 0000 0000 0000 0000 c269 c436 eae6 c835
00000270: 9895 ecb7 a955 2e39 0000 0000 6c69 6b37
00000280: a3b0 c4b7 0000 0000 0000 0000 0000 0000
00000290: 0000 0000 0000 0000 0000 0000 0000 0000
000002a0: 0000 0000 0000 0000 0000 0000 0000 0000
000002b0: 0000 0000 0000 0000 0000 0000 0000 0000
000002c0: 0000 0000 0000 0000 0000 0000 0000 0000
000002d0: 0000 0000 0000 0000 0000 0000 0000 0000
000002e0: 0000 0000 0000 0000 0000 0000 0000 0000
000002f0: 0000 0000 0000 0000 0000 0000 0000 0000
00000300: 0000 0000 0000 0000 0000 0000 0000 0000
00000310: 0000 0000 0000 0000 0000 0000 0000 0000
00000320: 0000 0000 0000 0000 0000 0000 0000 0000
00000330: 0000 0000 0000 0000 0000 0000 0000 0000
00000340: 0000 0000 0000 0000 0000 0000 0000 0000
00000350: 0000 0000 0000 0000 0000 0000 0000 0000
00000360: 0000 0000 0000 0000 0000 0000 0000 0000
00000370: 0000 0000 0000 0000 0000 0000 0000 0000
00000380: 0000 0000 0000 0000 0000 0000 0000 0000
00000390: 0000 0000 0000 0000 0000 0000 0000 0000
000003a0: 0000 0000 0000 0000 0000 0000 0000 0000
000003b0: 0000 0000 0000 0000 0000 0000 0000 0000
000003c0: 0000 0000 0000 0000 0000 0000 0000 0000
000003d0: 0000 0000 0000 0000 0000 0000 0000 0000
000003e0: 0000 0000 0000 0000 0000 0000 0000 0000
000003f0: 0000 0000 0000 0000 0000 0000 0000 0000

exp_avg_sq f4 [128, 128]
0.0 0.0 1.2946706e-10 1.3290449e-10 0.0 0.0 1.6086142e-10 1.4858627e-10
0.0 0.0 1.0290022e-10 1.5628265e-10 0.0 0.0 1.825512e-10 1.9312055e-10
0.0 0.0 2.0592722e-10 2.1906423e-10 0.0 0.0 2.3784535e-10 2.1654448e-10
0.0 0.0 2.3784535e-10 2.1654448e-10 7.6092194e-10 1.5733148e-09 0.0 6.179329e-10
7.650513e-10 0.0 0.0 0.0 0.0 0.0 0.0 0.0
0.0 0.0 0.0 0.0 0.0 0.0 0.0 0.0
0.0 0.0 0.0 0.0 0.0 0.0 0.0 0.0
0.0 0.0 0.0 0.0 0.0 0.0 0.0 0.0
0.0 0.0 0.0 0.0 0.0 0.0 0.0 0.0
0.0 0.0 0.0 0.0 0.0 0.0 0.0 0.0
0.0 0.0 0.0 0.0 0.0 0.0 0.0 0.0
0.0 0.0 0.0 0.0 0.0 0.0 0.0 0.0
0.0 0.0 0.0 0.0 0.0 0.0 0.0 0.0
0.0 0.0 0.0 0.0 0.0 0.0 0.0 0.0
0.0 0.0 0.0 0.0 0.0 0.0 0.0 0.0
0.0 0.0 0.0 0.0 0.0 0.0 0.0 0.0
0.0 0.0 3.4623848e-10 2.773113e-10 0.0 0.0 3.0111919e-10 2.7184865e-10
0.0 0.0 2.0973857e-10 2.3786972e-10 0.0 0.0 2.606996e-10 2.8584615e-10
0.0 0.0 2.056835e-10 2.7083513e-10 0.0 0.0 2.8353173e-10 2.9340322e-10
0.0 0.0 2.8353173e-10 2.9340322e-10 1.0480796e-09 2.9846172e-09 0.0 1.0139944e-09
9.736425e-10 0.0 0.0 0.0 0.0 0.0 0.0 0.0
0.0 0.0 0.0 0.0 0.0 0.0 0.0 0.0
0.0 0.0 0.0 0.0 0.0 0.0 0.0 0.0
0.0 0.0 0.0 0.0 0.0 0.0 0.0 0.0
0.0 0.0 0.0 0.0 0.0 0.0 0.0 0.0
0.0 0.0 0.0 0.0 0.0 0.0 0.0 0.0
0.0 0.0 0.0 0.0 0.0 0.0 0.0 0.0
0.0 0.0 0.0 0.0 0.0 0.0 0.0 0.0
0.0 0.0 0.0 0.0 0.0 0.0 0.0 0.0
0.0 0.0 0.0 0.0 0.0 0.0 0.0 0.0
0.0 0.0 0.0 0.0 0.0 0.0 0.0 0.0
0.0 0.0 0.0 0.0 0.0 0.0 0.0 0.0
00000000: 0000 0000 0000 0000 bd59 0e2f 4a21 122f
00000010: 0000 0000 0000 0000 77de 302f 515f 232f
00000020: 0000 0000 0000 0000 ad47 e22e a8d5 2b2f
00000030: 0000 0000 0000 0000 98b7 482f 9a56 542f
00000040: 0000 0000 0000 0000 5c6b 622f 19dd 702f
00000050: 0000 0000 0000 0000 c2c1 822f da17 6e2f
00000060: 0000 0000 0000 0000 c2c1 822f da17 6e2f
00000070: 1f29 5130 183c d830 0000 0000 2adb 2930
00000080: b34b 5230 0000 0000 0000 0000 0000 0000
00000090: 0000 0000 0000 0000 0000 0000 0000 0000
000000a0: 0000 0000 0000 0000 0000 0000 0000 0000
000000b0: 0000 0000 0000 0000 0000 0000 0000 0000
000000c0: 0000 0000 0000 0000 0000 0000 0000 0000
000000d0: 0000 0000 0000 0000 0000 0000 0000 0000
000000e0: 0000 0000 0000 0000 0000 0000 0000 0000
000000f0: 0000 0000 0000 0000 0000 0000 0000 0000
00000100: 0000 0000 0000 0000 0000 0000 0000 0000
00000110: 0000 0000 0000 0000 0000 0000 0000 0000
00000120: 0000 0000 0000 0000 0000 0000 0000 0000
00000130: 0000 0000 0000 0000 0000 0000 0000 0000
00000140: 0000 0000 0000 0000 0000 0000 0000 0000
00000150: 0000 0000 0000 0000 0000 0000 0000 0000
00000160: 0000 0000 0000 0000 0000 0000 0000 0000
00000170: 0000 0000 0000 0000 0000 0000 0000 0000
00000180: 0000 0000 0000 0000 0000 0000 0000 0000
00000190: 0000 0000 0000 0000 0000 0000 0000 0000
000001a0: 0000 0000 0000 0000 0000 0000 0000 0000
000001b0: 0000 0000 0000 0000 0000 0000 0000 0000
000001c0: 0000 0000 0000 0000 0000 0000 0000 0000
000001d0: 0000 0000 0000 0000 0000 0000 0000 0000
000001e0: 0000 0000 0000 0000 0000 0000 0000 0000
000001f0: 0000 0000 0000 0000 0000 0000 0000 0000
00000200: 0000 0000 0000 0000 bc58 be2f 1974 982f
00000210: 0000 0000 0000 0000 c28a a52f 4c73 952f
00000220: 0000 0000 0000 0000 299c 662f 30c5 822f
00000230: 0000 0000 0000 0000 3552 8f2f 4525 9d2f
00000240: 0000 0000 0000 0000 c226 622f a8e4 942f
00000250: 0000 0000 0000 0000 8bdf 9b2f d54c a12f
00000260: 0000 0000 0000 0000 8bdf 9b2f d54c a12f
00000270: 060c 9030 f119 4d31 0000 0000 c25c 8b30
00000280: 00d1 8530 0000 0000 0000 0000 0000 0000
00000290: 0000 0000 0000 0000 0000 0000 0000 0000
000002a0: 0000 0000 0000 0000 0000 0000 0000 0000
000002b0: 0000 0000 0000 0000 0000 0000 0000 0000
000002c0: 0000 0000 0000 0000 0000 0000 0000 0000
000002d0: 0000 0000 0000 0000 0000 0000 0000 0000
000002e0: 0000 0000 0000 0000 0000 0000 0000 0000
000002f0: 0000 0000 0000 0000 0000 0000 0000 0000
00000300: 0000 0000 0000 0000 0000 0000 0000 0000
00000310: 0000 0000 0000 0000 0000 0000 0000 0000
00000320: 0000 0000 0000 0000 0000 0000 0000 0000
00000330: 0000 0000 0000 0000 0000 0000 0000 0000
00000340: 0000 0000 0000 0000 0000 0000 0000 0000
00000350: 0000 0000 0000 0000 0000 0000 0000 0000
00000360: 0000 0000 0000 0000 0000 0000 0000 0000
00000370: 0000 0000 0000 0000 0000 0000 0000 0000
00000380: 0000 0000 0000 0000 0000 0000 0000 0000
00000390: 0000 0000 0000 0000 0000 0000 0000 0000
000003a0: 0000 0000 0000 0000 0000 0000 0000 0000
000003b0: 0000 0000 0000 0000 0000 0000 0000 0000
000003c0: 0000 0000 0000 0000 0000 0000 0000 0000
000003d0: 0000 0000 0000 0000 0000 0000 0000 0000
000003e0: 0000 0000 0000 0000 0000 0000 0000 0000
000003f0: 0000 0000 0000 0000 0000 0000 0000 0000

exp_avg f4 [128]
-5.025291e-06 -6.3927696e-06 -3.9152303e-05 -3.0282941e-05 -4.1663284e-06 2.3788774e-05 2.8889064e-05 -1.3363438e-05
2.7201755e-05 -5.08509e-05 1.703206e-05 -9.000372e-05 -5.9988866e-05 -3.380735e-05 2.9320774e-05 -2.6002801e-05
-2.1030887e-06 1.8460856e-05 -4.9419104e-05 -4.0902258e-05 -3.8947015e-05 3.4254812e-05 5.0543763e-06 3.3210777e-05
-2.1233149e-05 4.2785607e-05 -1.8797808e-05 3.5530822e-05 -6.193941e-05 1.255215e-07 -3.110214e-05 4.935417e-06
1.4063618e-05 -1.0878874e-05 -6.8559348e-06 4.4537314e-06 -1.7682102e-06 -8.172924e-06 -8.1062695e-05 1.2220854e-05
-1.2650317e-05 -2.1494663e-05 -3.7260867e-05 -5.016672e-05 -1.3007731e-05 -8.922471e-05 3.7838014e-05 -3.4202692e-06
-4.820562e-05 -5.1110997e-06 4.6169503e-06 -5.1689807e-05 -8.0132704e-05 1.193363e-05 -4.3475637e-05 1.781214e-05
-3.4063391e-06 -4.8279794e-06 1.2062289e-05 -3.1478314e-05 1.0837446e-06 -5.983664e-06 4.333015e-05 3.4489738e-06
5.3154785e-05 -2.6809492e-05 -1.5530279e-05 -4.747499e-05 -1.6588829e-05 1.1686062e-05 -8.0286145e-06 3.0807897e-07
4.0296686e-06 -2.5148873e-05 -3.1242835e-05 -4.5769848e-05 -2.2527585e-05 -3.5145305e-05 -7.403645e-06 -6.8258945e-05
1.2541909e-05 -0.000107035885 -4.7093254e-05 -3.3442695e-06 2.1944528e-05 3.821058e-06 -3.52195e-05 -3.5953086e-05
-1.38766145e-05 -1.8434591e-07 -1.3399683e-05 -6.720726e-05 4.2256273e-05 -5.73411e-05 1.0495749e-05 -3.6014394e-06
-3.3796427e-06 -5.5717388e-05 -2.5709862e-05 2.3370578e-06 2.8934819e-05 -1.1211647e-05 -2.8562217e-05 -2.828046e-06
-4.0311043e-05 2.8270604e-05 3.4928722e-05 -5.6368295e-05 -3.2647074e-06 2.3879176e-05 6.142543e-06 4.018085e-05
-8.19978e-05 -4.6009436e-06 -5.654231e-06 2.4286406e-05 -7.206822e-05 4.49033e-05 -1.5478501e-05 1.0813833e-05
-6.0866518e-05 -2.5713052e-05 -5.627e-05 -2.100312e-05 -1.9281388e-06 -3.8608123e-05 7.3757856e-06 -5.1240062e-05
00000000: ec9e a8b6 7981 d6b6 7737 24b8 1f08 feb7
00000010: 7dcc 8bb6 018e c737 cb56 f237 8733 60b7
00000020: 532f e437 bd48 55b8 12e0 8e37 61c0 bcb8
00000030: 8e9c 7bb8 5ecc 0db8 e2f5 f537 9720 dab7
00000040: ca22 0db6 63dc 9a37 5c47 4fb8 778e 2bb8
00000050: 0a5b 23b8 d3ac 0f38 c398 a936 cd4b 0b38
00000060: d71d b2b7 b274 3338 fcaf 9db7 ee06 1538
00000070: 78e5 81b8 16c7 0634 ab73 02b8 e99a a536
00000080: c8f2 6b37 6884 36b7 080c e6b6 4371 9536
00000090: 3d53 edb5 711e 09b7 3400 aab8 2b08 4d37
000000a0: b33c 54b7 704f b4b7 8d48 1cb8 1b6a 52b8
000000b0: c73b 5ab7 271e bbb8 42b4 1e38 c787 65b6
000000c0: 6430 4ab8 0380 abb6 4deb 9a36 82cd 58b8
000000d0: eb0c a8b8 8d36 4837 9c59 36b8 486b 9537
000000e0: 7698 64b6 0700 a2b6 235f 4a37 9507 04b8
000000f0: 2e75 9135 48c7 c8b6 65bd 3538 eb74 6736
00000100: 84f2 5e38 f2e4 e0b7 0547 82b7 e21f 47b8
00000110: 3d28 8bb7 410f 4437 a3b2 06b7 0d66 a534
00000120: 9736 8736 cbf6 d2b7 bd0a 03b8 00f9 3fb8
00000130: 9ff9 bcb7 fc68 13b8 d46c f8b6 3e26 8fb8
00000140: 176b 5237 7478 e0b8 ff85 45b8 1d6e 60b6
00000150: 8415 b837 a336 8036 a6b8 13b8 55cc 16b8
00000160: 9bcf 68b7 9ef0 45b4 33cf 60b7 9ff1 8cb8
00000170: 543c 3138 8a81 70b8 e616 3037 42b0 71b6
00000180: d2cd 62b6 17b2 69b8 82ab d7b7 59d6 1c36
00000190: 0db9 f237 a819 3cb7 e598 efb7 76c9 3db6
000001a0: a713 29b8 a926 ed37 6e80 1238 ff6c 6cb8
000001b0: 3f17 5bb6 2450 c837 0b1c ce36 dc87 2838
000001c0: 3cf6 abb8 ce61 9ab6 79b9 bdb6 a9ba cb37
000001d0: 5523 97b8 8d56 3c38 d4d7 81b7 0f6d 3537
000001e0: ed4a 7fb8 5cb2 d7b7 7403 6cb8 db2f b0b7
000001f0: 2c65 01b6 28ef 21b8 847d f736 99ea 56b8

exp_avg_sq f4 [128]
2.1550751e-10 2.9984437e-10 1.3158763e-09 7.7980084e-10 3.1367098e-10 1.9265478e-10 3.973465e-10 1.1842891e-09
1.4490396e-10 6.753509e-10 6.944573e-10 1.4083662e-09 6.01498e-10 5.1017207e-10 3.3421155e-10 8.808122e-11
1.3864838e-10 1.4028402e-10 7.150255e-10 1.4768181e-10 3.0161923e-10 3.5675857e-10 3.1378952e-10 2.886813e-10
6.0141137e-10 7.566087e-10 6.5196337e-10 1.2955284e-09 9.722065e-10 9.701632e-11 8.366609e-10 8.9151986e-10
2.5976535e-10 2.0262907e-10 2.7458688e-10 1.6645409e-10 4.935112e-10 7.891201e-11 1.1779111e-09 6.1587524e-10
3.049686e-10 3.3307404e-10 2.4735536e-10 5.268082e-10 1.0145264e-09 2.227226e-09 1.0425147e-09 1.6966042e-10
9.424261e-10 2.434955e-10 1.068386e-09 5.6381944e-10 3.771747e-09 5.976909e-10 1.1599577e-09 1.8812502e-10
2.1517745e-10 1.5830096e-10 4.6181092e-10 1.5548852e-10 1.0032512e-10 4.2483905e-10 1.3122832e-09 2.72433e-10
2.489134e-09 5.0710425e-10 9.7261e-10 9.638234e-10 1.435965e-09 1.7080762e-10 1.0877681e-10 3.381327e-10
1.6139267e-09 3.0662958e-10 3.270769e-10 8.693849e-10 1.4794833e-10 4.3186982e-10 4.2242554e-10 5.358089e-10
2.617478e-10 2.2667919e-09 1.6696736e-09 8.2921037e-10 4.0741718e-10 1.16135476e-10 3.2334682e-10 5.462858e-10
3.3065145e-10 2.7182498e-10 7.9267787e-10 1.4702523e-09 4.7004955e-10 1.5256362e-09 2.3590147e-10 9.718724e-11
6.635767e-10 6.025435e-10 3.2820288e-10 7.757877e-10 3.3433215e-10 6.2641153e-10 6.385122e-10 3.101366e-10
8.847436e-10 4.7665355e-10 5.462127e-10 1.3263163e-09 1.2080896e-10 7.6409595e-10 2.284043e-10 7.393535e-10
9.80876e-10 3.0616715e-10 4.859872e-10 3.8116113e-10 5.909648e-10 6.0754757e-10 7.07748e-10 4.760235e-10
1.5600006e-09 8.3298995e-10 2.5695635e-09 2.4798444e-10 2.57458e-10 3.476238e-10 6.3813094e-11 5.842673e-10
00000000: f9f3 6c2f 58d7 a42f 48da b430 9b59 5630
00000010: 4471 ac2f 80d3 532f 8c71 da2f 78c4 a230
00000020: d752 1f2f 98a3 3930 17e4 3e30 7b90 c130
00000030: a956 2530 2b3c 0c30 18bc b72f 52b1 c12e
00000040: 0d72 182f 713e 1a2f 728b 4430 bc60 222f
00000050: 22d1 a52f 4e21 c42f f381 ac2f 48b4 9e2f
00000060: 9050 2530 9bf9 4f30 d835 3330 5a0e b230
00000070: 7a9e 8530 5557 d52e c7fa 6530 220f 7530
00000080: b9ce 8e2f 03cb 5e2f abf4 962f a904 372f
00000090: c3a7 0730 8387 ad2e 10e4 a130 5e4a 2930
000000a0: 84a8 a72f 011c b72f 2cfc 872f d5ce 1030
000000b0: 796f 8b30 c60d 1931 3a48 8f30 2a8b 3a2f
000000c0: ac86 8130 f2dc 852f 7ed6 9230 44fb 1a30
000000d0: a398 8131 c24a 2430 626c 9f30 7cd8 4e2f
000000e0: 1197 6c2f c20d 2e2f 1ce2 fd2f 21f6 2a2f
000000f0: 069e dc2e c88e e92f dc5b b430 89c5 952f
00000100: 4f0d 2b31 4a64 0b30 acac 8530 8577 8430
00000110: 875b c530 12ce 3b2f e633 ef2e f2e3 b92f
00000120: ffd0 dd30 4792 a82f fbcf b32f 86f9 6e30
00000130: c1ab 222f 466c ed2f 1c3b e82f 3348 1330
00000140: bae5 8f2f d3c5 1b31 6b7a e530 7eee 6330
00000150: dffa df2f 7662 ff2e 05c3 b12f 7229 1630
00000160: 0ec7 b52f f76f 952f bfe3 5930 e711 ca30
00000170: cc34 0130 8dae d130 2eb0 812f 8db7 d52e
00000180: 0f67 3630 3ba0 2530 736e b42f 353f 5530
00000190: 11cd b72f cb2f 2c30 4d83 2f30 d97f aa2f
000001a0: 4c32 7330 8305 0330 4d24 1630 9b49 b630
000001b0: b3d4 042f 7908 5230 1822 7b2f 613b 4b30
000001c0: 82cf 8630 3251 a82f 4f96 0530 a98b d12f
000001d0: 7371 2230 5c00 2730 578b 4230 2dd9 0230
000001e0: a467 d630 75f8 6430 3d94 3031 b554 882f
000001f0: fe89 8d2f b31b bf2f 9453 8c2e 289a 2030

exp_avg f4 [128, 128]
-9.381757e-06 3.5404519e-06 9.687214e-06 1.1476637e-05 7.5146585e-07 1.2765154e-06 5.603276e-06 7.191841e-06
1.7109273e-06 -1.5496935e-05 8.559069e-06 -4.4522453e-06 8.5852025e-06 1.1788149e-05 9.621782e-06 -9.871398e-06
-2.2254444e-06 -1.1890937e-06 -1.0367182e-05 -1.5938289e-06 1.7743478e-06 -1.7689408e-05 1.1264425e-06 -7.9393485e-06
-2.6658486e-06 -1.4664978e-06 -2.4097687e-06 -1.0605854e-06 2.5572601e-06 -2.7796716e-06 -1.2231313e-05 5.2993237e-06
-2.5724999e-06 -7.71115e-06 5.0883773e-06 7.801711e-07 3.0668439e-06 -1.0739212e-06 1.6636974e-05 -7.755705e-06
-4.1065887e-06 3.0200235e-06 -5.9211214e-07 1.1760664e-05 4.9468867e-06 8.007317e-06 5.0975814e-06 3.2263063e-06
4.4601828e-07 -1.4412666e-06 -7.005992e-07 5.380539e-06 1.996972e-05 3.474474e-07 2.976243e-06 3.0932824e-06
3.4352793e-06 1.1157743e-05 -5.322853e-06 -1.2666032e-05 -4.688095e-07 -3.72991e-06 -2.1612597e-05 -3.9149086e-06
-1.5679294e-06 1.0552914e-05 -7.961589e-06 2.1533476e-06 1.4652189e-05 -1.1557588e-05 -1.8104026e-06 9.2777655e-06
1.3399451e-05 -9.3495413e-07 -4.7551175e-06 -4.500077e-06 1.0409152e-05 1.2112953e-06 -6.6033476e-06 -1.2969829e-05
4.093454e-06 8.585907e-06 6.6231055e-06 2.1562382e-05 2.9938196e-06 -6.6794946e-06 4.6874184e-06 7.739717e-06
-6.404475e-06 4.2004813e-06 -6.046438e-06 1.5359858e-05 4.697326e-06 6.8648177e-07 -1.3788732e-08 3.1559237e-06
-1.4328134e-06 -1.4811784e-06 -5.008335e-08 9.563233e-06 3.5836429e-06 1.7543931e-06 1.4115969e-05 -1.4160306e-06
5.9110066e-06 -1.501995e-05 -1.2483122e-06 -1.7779497e-06 6.7265582e-06 -9.140436e-06 -1.6690203e-06 6.235326e-06
6.0511065e-06 -1.4729469e-06 1.765472e-06 -8.013523e-06 -8.2010087e-07 1.6286376e-06 6.9443363e-06 -1.649669e-07
1.0775901e-05 6.297701e-06 -2.4585252e-05 8.346486e-06 -9.158878e-06 -1.1077871e-05 -2.6153637e-06 8.265798e-06
4.6826904e-06 -1.3247433e-05 -1.8493849e-05 -9.529846e-06 -2.0655623e-06 7.854962e-06 -9.022941e-06 -4.6847767e-06
-3.9735373e-06 6.4268734e-06 -9.342689e-06 -5.5566247e-06 -1.7377803e-05 -2.2028242e-05 -8.19086e-06 1.4609967e-05
7.3876517e-06 2.604381e-07 7.518111e-06 -5.3385015e-06 -2.5057725e-05 1.7913206e-05 -5.661969e-06 9.772923e-06
6.0750885e-06 3.5741346e-06 2.502865e-06 6.215238e-06 1.0798647e-06 1.5413289e-05 6.4667292e-06 -4.1062253e-06
8.833503e-06 2.0906198e-06 -5.259089e-07 1.6384528e-06 -1.9791407e-06 7.510755e-07 -4.9976345e-05 1.1317544e-05
7.812235e-06 5.2682913e-06 3.0258807e-06 -1.8400973e-05 -1.3995644e-05 -1.6394166e-05 -1.6831858e-05 1.1065407e-06
-9.6983e-07 5.1600846e-06 -2.9887935e-06 -6.73715e-06 -3.4895213e-05 -1.2276754e-06 -1.2694127e-05 3.3161582e-06
-3.6787167e-06 -1.5674304e-05 -1.759037e-06 7.807246e-06 5.9764184e-06 5.4030065e-06 -6.673965e-06 7.4492777e-06
-5.178547e-06 -1.4638778e-05 4.724961e-06 -8.9067735e-06 -1.8871488e-05 6.6941443e-06 9.382099e-06 -2.5871928e-05
-2.0951222e-05 -1.4818477e-06 -8.3922885e-07 7.925409e-06 -1.25957995e-05 -1.3084863e-06 1.1845545e-05 5.4274733e-06
1.3080225e-06 -3.555342e-05 -1.5760146e-05 -2.4491297e-05 -5.977145e-06 1.165689e-05 -5.727944e-06 -5.7636953e-06
4.4069319e-07 -5.3126723e-06 4.8236586e-07 -2.415199e-05 -5.7662965e-06 -4.1369145e-07 4.685654e-07 -1.8151799e-07
7.748842e-07 -8.976495e-06 2.1576088e-06 -1.0007584e-05 1.8932286e-06 -8.3950035e-06 -1.6743592e-05 7.1483447e-07
-2.5212654e-05 3.7407206e-06 7.724141e-06 -1.14320255e-05 -1.2980737e-05 8.841935e-06 5.2485566e-06 -1.2531433e-05
-1.1667853e-05 -4.8775735e-07 -4.3044165e-06 6.9789608e-06 -6.002252e-07 6.423079e-07 -9.651646e-06 -1.4769914e-07
-1.10183855e-05 -2.4090411e-06 3.6233564e-06 -1.392766e-05 1.2923201e-05 9.558456e-06 8.32214e-06 -1.7484062e-05
00000000: 5766 1db7 8098 6d36 4486 2237 c88b 4037
00000010: 57b8 4935 bc54 ab35 c603 bc36 7251 f136
00000020: 04a3 e535 6aff 81b7 ec98 0f37 7f64 95b6
00000030: 2a09 1037 b7c5 4537 3d6d 2137 559d 25b7
00000040: d858 15b6 f398 9fb5 b5ee 2db7 8beb d5b5
00000050: 2026 ee35 b763 94b7 4530 9735 3e33 05b7
00000060: eee6 32b6 7bd4 c4b5 83b7 21b6 7059 8eb5
00000070: 659d 2b36 658a 3ab6 1735 4db7 d8d0 b136
00000080: 36a3 2cb6 235f 01b7 d4bc aa36 f36c 5135
00000090: facf 4d36 a723 90b5 a18f 8b37 801e 02b7
000000a0: 54cb 89b6 9cab 4a36 a3f1 1eb5 ab4f 4537
000000b0: 6ffd a536 2a57 0637 e40b ab36 8583 5836
000000c0: 4974 ef34 8b71 c1b5 cf10 3cb5 7a8a b436
000000d0: a684 a737 cf88 ba34 77bb 4736 3096 4f36
000000e0: a689 6636 2432 3b37 f69a b2b6 3180 54b7
000000f0: b0b0 fbb4 5e4f 7ab6 b34c b5b7 cf5c 83b6
00000100: a571 d2b5 6c0c 3137 c492 05b7 3b82 1036
00000110: acd2 7537 76e7 41b7 f6fc f2b5 b3a7 1b37
00000120: 34ce 6037 8ff9 7ab5 268e 9fb6 5eff 96b6
00000130: f8a2 2e37 ca93 a235 5392 ddb6 fe98 59b7
00000140: 815a 8936 310c 1037 0b3c de36 dde0 b437
00000150: 6ee9 4836 6c20 e0b6 9e48 9d36 d5d9 0137
00000160: 05e6 d6b6 dcf1 8c36 82e2 cab6 0bd9 8037
00000170: b99d 9d36 ab46 3835 7ce3 6cb2 5bca 5336
00000180: 184f c0b5 e7cc c6b5 3a1b 57b3 c671 2037
00000190: 847e 7036 7d78 eb35 a0d3 6c37 710e beb5
000001a0: 2957 c636 32fe 7bb7 ae8b a7b5 e3a1 eeb5
000001b0: b2b4 e136 e059 19b7 1a03 e0b5 0b39 d136
000001c0: 9c0a cb36 12b2 c5b5 28f5 ec35 d271 06b7
000001d0: e724 5cb5 9097 da35 6503 e936 c221 31b4
000001e0: 24ca 3437 d750 d336 6d3c ceb7 e207 0c37
000001f0: 15a9 19b7 18db 39b7 9b83 2fb6 55ad 0a37
00000200: 0120 9d36 4b41 5eb7 3d23 9bb7 60e2 1fb7
00000210: 179e 0ab6 cec8 0337 3d61 17b7 ed31 9db6
00000220: 6d54 85b6 6ca6 d736 8bbe 1cb7 0b73 bab6
00000230: 8cc6 91b7 4ac9 b8b7 7a6b 09b7 551d 7537
00000240: 72e3 f736 57d2 8b34 1544 fc36 6121 b3b6
00000250: 0e33 d2b7 5144 9637 f2fb bdb6 62f6 2337
00000260: 9dd8 cb36 2adb 6f36 e5f6 2736 7d8c d036
00000270: deef 9035 c94b 8137 c8fc d836 35c8 89b6
00000280: 9b33 1437 934c 0c36 2f2c 0db5 cfe8 db35
00000290: 61d1 04b6 849d 4935 b19d 51b8 7be0 3d37
000002a0: 4b11 0337 47c6 b036 3c10 4b36 ca5b 9ab7
000002b0: d5ce 6ab7 3486 89b7 2432 8db7 7384 9435
000002c0: 1b2b 82b5 ca24 ad36 1593 48b6 ae0f e2b6
000002d0: 735c 12b8 9bc6 a4b5 dcf8 54b7 2a8b 5e36
000002e0: dfdf 76b6 507c 83b7 0d18 ecb5 defb 0237
000002f0: 0b89 c836 794b b536 ecf0 dfb6 cff4 f936
00000300: 61c3 adb6 1399 75b7 1b8b 9e36 4d6e 15b7
00000310: 364e 9eb7 439e e036 cf67 1d37 8b07 d9b7
00000320: 68c0 afb7 e6e3 c6b5 5e47 61b5 5ff7 0437
00000330: 8c52 53b7 3f9f afb5 3abc 4637 a41d b636
00000340: 508f af35 321f 15b8 a834 84b7 a972 cdb7
00000350: 498f c8b6 f691 4337 aa32 c0b6 c465 c1b6
00000360: 6998 ec34 8243 b2b6 ee7b 0135 019a cab7
00000370: 1c7c c1b6 5219 deb4 238f fb34 49e7 42b4
00000380: a301 5035 c199 16b7 70cb 1036 3fe6 27b7
00000390: d71a fe35 44d8 0cb7 9774 8cb7 0de3 3f35
000003a0: c37f d3b7 1709 7b36 ef96 0137 2dcc 3fb7
000003b0: d7c7 59b7 d257 1437 c21c b036 183e 52b7
000003c0: 0cc1 43b7 6eee 02b5 a86e 90b6 d12c ea36
000003d0: 291f 21b5 106b 2c35 81ed 21b7 3b97 1eb4
000003e0: 9bdb 38b7 03ab 21b6 ca28 7336 d8aa 69b7
000003f0: bad0 5837 425d 2037 529f 0b37 bdaa 92b7
