results/FoodTarget_imitation_4/AgentPlayer/AgentPlayer-16174.onnx (onnx, 136525 bytes, 7 tensors)

action_model._continuous_distribution.log_sigma f4 [1, 5]
00000000: 859a 29bb a371 94b8 5640 a03a ac9c 6e3b
00000010: 6c4b b5b9
-0.0025879454 -7.0783564e-05 0.0012226205 0.0036409302 -0.00034579204

action_model._continuous_distribution.mu.bias f4 [5]
00000000: b61d 7abb a3b6 543b e6bb aa3a 0ebf 1fba
00000010: a9e3 a83b
-0.0038164682 0.0032457493 0.0013025969 -0.0006093838 0.0051540923

action_model._continuous_distribution.mu.weight f4 [5, 128]
00000000: bbce 5fbc 783a d63b ead5 3b3d 2a26 8b3c
00000010: 55c7 31bd 08c6 d6bc 4b46 1b3c 678b 35bc
00000020: 467e 913b 17a0 d2bb 9519 f83b 6edf be3b
00000030: 7acb b23c 8eb3 b13b bdbf b2bb d5c8 5d3b
00000040: dfa7 0f3b 71a2 bfbb 2030 333c 99c0 00bd
00000050: 7493 a13b 5caf 8c3c 526e ad3a 5a2f dfbb
00000060: ca10 d4bc f110 55bd 3100 cbbc 5026 0d3d
00000070: 8cfa 8cbc cbca 253c 089e 7abc caba 9fbc
00000080: 249c 2a3c c696 e8bc d742 523d 592f 5c3a
00000090: 8403 733c 4452 52bc aa84 bcbc 0d4d 5d3b
000000a0: cb53 3f3c 74b6 f43c 5654 c4bc 1d97 a33c
000000b0: e10e 13bb 8b1d d6bc a6ec b0bb 83c2 c6bb
000000c0: 999b 963c 539d a23c 5d71 c4bb ed27 453c
000000d0: 5e22 90bc c8e2 083a 5c31 943c 47d8 513c
000000e0: 5c2b 37bc e723 163d 2524 973b 7d45 013d
000000f0: 914a d2bc 83ae 29bd 845a 2e3c 089e 31bc
00000100: 3d7d 183c ccaf 9539 760e 61bc c759 3e3c
00000110: d5fc 043c 10d0 3dbd 201a 9cbb 0b73 a43c
00000120: 8119 a53a 9406 893b 5982 0cbc bee0 013d
00000130: fe9a 30bb 6057 16bc 45a6 0a3c a6dd d43c
00000140: 955c 863c 0fb6 6cbb 910c 1abc b739 1abc
00000150: 8dae 0dbd 0530 eabc c2dd 5e3c 35df ed3b
00000160: 5a6f f03a 07ea 73bb fbce a0ba 010b 23bc
00000170: 77b7 abbc c5e1 8a3c 56b5 bc3c 6260 b23c
00000180: d6ab 0d3c 3e75 43bc 1605 493c bbe6 f1bb
00000190: 4513 86bc 3f93 01bc bd35 613b bc53 d93b
000001a0: 1805 e63b bdf0 ba3c d72f c23c 1a64 573c
000001b0: e7c5 f8bb 0d47 c13b 7a84 24bd ebfe 773a
000001c0: 15fb a73c 9d4e 96bc ce26 4f3d 9c5e 27bc
000001d0: 60ef 21bc 4d89 8dbc 7482 d33c 8d0d 94bb
000001e0: c448 c3bc faec 993c 23a3 16bc ac09 513b
000001f0: 3e13 ae3c 71d5 163c 79f0 c33b de20 5c3b
00000200: 5b98 d53b 9a98 c7b9 43d0 3bbc 7571 b7bc
00000210: 9300 b43c 29f5 9fbb aac8 42bc 5126 e4bb
00000220: fbc0 503d cdf3 febb e0d2 843c 0cec 893c
00000230: 0854 ccbb 1d50 c6bb 5130 1cbc 6c2f 963c
00000240: 4ff8 afbc e86e 8a3c 2bd3 cc3b 21f5 473c
00000250: a297 e33a e5b8 1ebd 6d69 36bc e8c9 f5bb
00000260: 134c 81bc 36e1 d0b9 2378 febb 5f6b 5b3b
00000270: da5f f83b 1b5e 173c c50b 2e3d 01c5 c13c
00000280: f52a 2fbb 03a3 38ba 3b4b 893b 7357 973b
00000290: 16bd d7bc a70b 1d3c 449f 0dbc 6167 88bc
000002a0: a10d a2bc a259 e03a 17e9 8e3b a30d 0a3d
000002b0: f8ff babb c3d5 c7bc 0ce8 d1bb e71f dfbc
000002c0: fd85 95bc 59cb be3c 8949 123d e830 b23c
000002d0: 231f 7a3c cab5 253b 7865 a3bc f2b8 163c
000002e0: 4d30 4abc 5763 08bd bc52 1abc 99ed 9a3c
000002f0: 666d a93a 5da6 803b a8da b93c baec bf3c
00000300: 5b0e 9c3c df81 30bc b5db 96bc 688d 8e3c
00000310: c40e cdbb 3a5d 64bc 101e 173d 8e02 3c3c
00000320: c410 67bb eb4d be3b f9a9 fb3b e7c2 db3b
00000330: 944a 5bbc ad03 27bb 5f9c d43c c05b ae39
00000340: 6ede 3bba e553 943b cbd9 b23c 3631 24ba
00000350: 016c 03bc 8319 eb3a 14e9 2b3d 5d8d e4bc
00000360: c116 a13c ec78 ea3b 9e0c fa3a 02a5 d83b
00000370: a05f 81bc 3817 c6bc b2a0 0a3c 973b 97bb
00000380: 0d86 6bbc 2671 3d3c d93f 843b d60e 923b
00000390: 4fe2 b3ba 1845 77ba 58a3 60ba 171d 303c
000003a0: abfe 9cbc 0411 953c 4e1d 1bbc bd9b 4ebc
000003b0: a631 2abd 2415 b6ba bee3 7abb f03b cebc
000003c0: 7ef2 84bc e5cf 16bb bc85 86bc db0d 5cbb
000003d0: 0040 d2bc 349a 4abc 7ef7 96bc 4762 a8bb
000003e0: 7f90 093d 1c8a c53c 7bd1 b03a ce66 05bd
000003f0: d2d3 64bc f7e1 923b 46d5 54bc 6d1b a23c
-0.013660128 0.0065377317 0.0458583 0.016985971 -0.04340299 -0.026217476 0.009477208 -0.011080599
0.004440102 -0.0064277756 0.007571409 0.0058249747 0.02182554 0.005423016 -0.005454986 0.003384163
0.0021920127 -0.005848222 0.010936767 -0.031433675 0.004930908 0.017173462 0.001323173 -0.0068110647
-0.025886912 -0.05201811 -0.024780365 0.034460366 -0.017209314 0.01011915 -0.015296467 -0.019498248
0.010413203 -0.028392207 0.051333275 0.00083993893 0.014832381 -0.0128369965 -0.023012478 0.003376785
0.011677693 0.029872157 -0.023965996 0.019969517 -0.0022439288 -0.026137134 -0.0053993044 -0.006065668
0.018384742 0.019850409 -0.0059949593 0.012033445 -0.017594513 0.00052217813 0.018089943 0.012807912
-0.011179771 0.036655333 0.004612463 0.03156041 -0.025670322 -0.041426193 0.010641698 -0.0108409
0.009307203 0.00028550474 -0.013736358 0.011618084 0.0081169205 -0.046341002 -0.0047638565 0.020074388
0.0012596102 0.0041816924 -0.008575999 0.03170847 -0.0026947851 -0.009176105 0.008462493 0.025984596
0.016401568 -0.0036119258 -0.00940241 -0.009413174 -0.034590293 -0.02858735 0.013602676 0.0072592744
0.0018343732 -0.0037218349 -0.0012268716 -0.009951354 -0.020961506 0.016953358 0.023035686 0.021774475
0.008646926 -0.011929808 0.012269279 -0.0073822415 -0.01636661 -0.007908641 0.0034364306 0.0066322964
0.00701965 0.022819871 0.023704452 0.013146425 -0.007591951 0.0058983625 -0.040165402 0.0009460288
0.020505467 -0.018348033 0.050574116 -0.010215428 -0.009883732 -0.017277384 0.02581904 -0.004518217
-0.023838408 0.018789757 -0.009194168 0.0031896634 0.02124941 0.009206162 0.0059795943 0.0033588926
0.0065184063 -0.00038069935 -0.011463228 -0.022392968 0.02197293 -0.0048815203 -0.011888662 -0.0069625755
0.05096529 -0.007780528 0.016213834 0.016836189 -0.0062356032 -0.0060520307 -0.009533004 0.01833316
-0.021480707 0.016898587 0.006250759 0.012204439 0.0017363916 -0.038750548 -0.011133534 -0.0075008757
-0.015783345 -0.00039840647 -0.0077657863 0.0033480746 0.007579786 0.009238745 0.042491693 0.02365351
-0.0026728485 -0.00070433336 0.0041898764 0.004618579 -0.02633528 0.009585298 -0.008643929 -0.016650857
-0.01978189 0.0017116556 0.0043612826 0.03370441 -0.0057067834 -0.024393922 -0.006405836 -0.027236892
-0.018252367 0.023290323 0.03571466 0.021751836 0.015266213 0.0025285357 -0.019945845 0.009199368
-0.012340617 -0.033297863 -0.0094191395 0.018912124 0.001292628 0.003926082 0.022687271 0.02342831
0.019049814 -0.010773151 -0.018415311 0.017401412 -0.0062578637 -0.013938243 0.036893904 0.011475218
-0.0035257796 0.0058076284 0.0076801744 0.006706584 -0.01338448 -0.0025484369 0.02595347 0.00033256225
-0.00071666285 0.0045266026 0.021832367 -0.00062634365 -0.008021356 0.001793668 0.041970327 -0.027899439
0.01966417 0.0071555283 0.0019077247 0.0066114673 -0.015792668 -0.024180993 0.008461164 -0.004615258
-0.014375222 0.011562621 0.0040359315 0.004457335 -0.0013724061 -0.0009432598 -0.0008569262 0.010749123
-0.019164404 0.01819659 -0.009467436 -0.012610373 -0.041551255 -0.0013891798 -0.0038282718 -0.025175065
-0.01622891 -0.0023012098 -0.016421191 -0.0033577594 -0.025665283 -0.012365866 -0.01842856 -0.0051386687
0.033585068 0.024113707 0.0013490164 -0.032568745 -0.0139665175 0.0044825035 -0.0129903015 0.019788468

network_body._body_endoder.seq_layers.0.bias f4 [128]
00000000: 365d 5a3b 8e56 21bb f085 82bb d98a 89b9
00000010: d6d4 0f3b 5d4c 5eb9 095a 5439 b36e 163b
00000020: 2226 ac3b 811e 2e3b c2b7 12bb 5125 d83a
00000030: 4632 b8bb 5f8e e73a d0ef 9abb 60b9 61bb
00000040: 2125 723b ade5 51bb c121 4c3b 0ffd cb3b
00000050: 2ec9 ae3b aa95 8b38 9300 41bb 3451 5e3b
00000060: 8de1 50bb 6b22 ab3a e1a9 413a 5b36 cb3a
00000070: c17c 493b 6051 233a 64c7 223a 47ea 7b39
00000080: f9dd 673a 24eb 9bbb a2b5 00bb 2b7b 4cbb
00000090: dd53 7ab9 6f66 4b3b 8069 1d3a 0464 873b
000000a0: e115 19ba e873 f0ba 2d7c dd3a 9988 74b8
000000b0: a5a4 05bb 3aaf 273b dd08 b8bb cd4e 993a
000000c0: 01f8 5f3b 316f 5b3a c3f6 8c3a beb1 ccbb
000000d0: 2274 c1bb b67a 75bb 770a 8d3a 3f14 41bb
000000e0: a451 7bbb a803 a03a 94cf 2f3b ed10 303b
000000f0: c5c2 8d3b 3441 9dbb 715c 9dba 97cc 8f3b
00000100: 2e55 1d3a 555e 44ba 41a8 7c3b ebf9 9ebb
00000110: f7f2 a3bb 6948 22bb 38ac a937 808a 30bb
00000120: 7033 4c3b b4b2 273a 708c 753b 532d 83bb
00000130: 18cc 67bb 2163 a23a 22be 40bb 8fac b23a
00000140: 047c 7ebb 679c f639 369e 64bb 53d7 b0ba
00000150: 0481 f2ba d0d4 1e3b e347 fa3a ce33 2a3b
00000160: 643a adbb fe4a 9f3b 2470 673b 694e 743b
00000170: 5f20 46bb eaee 2cbb fbdd 78bb 704b c73b
00000180: 62d9 6c3b 888c 96ba 487a fd3a f1b1 293b
00000190: e181 80ba 4f12 813b 47f6 0d3b 40b0 a93b
000001a0: 9a1f d8bb 8818 41bb f42f e03b 9186 ebba
000001b0: 2bf6 92bb f964 c8b8 d574 bb3b 14e1 db3b
000001c0: 7549 a63b 9536 18ba 2e8b 70bb 6a77 4abb
000001d0: f060 cabb 5a68 dd3b ad00 1ab9 e983 35bb
000001e0: e5f6 8dbb 76a5 e53a 60dc d63b 6c04 403b
000001f0: 81e6 4a3a 7370 d03b 2e60 b23a 55c1 53bb
0.0033319718 -0.002461824 -0.0039832518 -0.00026234126 0.0021946928 -0.00021200017 0.00020251436 0.0022954165
0.005253569 0.0026568475 -0.002238736 0.0016490613 -0.0056212274 0.0017666331 -0.004728295 -0.0034442768
0.00369484 -0.0032027767 0.0031148049 0.0062252353 0.005334041 6.6559136e-05 -0.0029449805 0.0033922913
-0.003187272 0.0013056522 0.00073876797 0.001550387 0.0030744525 0.00062300824 0.0006209521 0.000240245
0.0008845027 -0.0047582556 -0.0019639512 -0.0031201344 -0.000238731 0.0031036397 0.00060047954 0.004131796
-0.0005839747 -0.001834509 0.0016897969 -5.830135e-05 -0.0020392325 0.002558662 -0.005616291 0.0011696458
0.0034174921 0.0008370756 0.0010754693 -0.0062467745 -0.0059037367 -0.0037457175 0.0010760565 -0.002946153
-0.0038348222 0.0012208121 0.0026826607 0.0026865557 0.004326197 -0.0047990326 -0.0012005699 0.0043884027
0.00060017675 -0.0007490863 0.0038552436 -0.00485157 -0.005003329 -0.0024762398 2.0226566e-05 -0.0026938021
0.0031158589 0.0006397173 0.003746774 -0.004003206 -0.0035369452 0.0012389162 -0.0029410203 0.0013631749
-0.0038831243 0.00047037305 -0.003488434 -0.0013491906 -0.0018501584 0.0024235733 0.001909491 0.002597082
-0.0052865017 0.0048612347 0.0035314644 0.0037278181 -0.0030231697 -0.002638752 -0.0037974108 0.006081991
0.0036140312 -0.0011485973 0.0019338811 0.0025893415 -0.0009804332 0.00393895 0.0021661685 0.0051784813
-0.006595564 -0.0029464085 0.006841654 -0.0017969181 -0.004484912 -9.555551e-05 0.0057207146 0.006710181
0.0050746747 -0.0005806473 -0.0036704051 -0.003089393 -0.0061761066 0.0067568244 -0.00014686836 -0.0027697033
-0.0043324106 0.0017520625 0.0065570325 0.002929951 0.0007740036 0.0063610612 0.0013608986 -0.003231128

network_body._body_endoder.seq_layers.0.weight f4 [128, 128]
00000000: 3484 0a3d 932e 773c dca9 2c3b 3591 9abc
00000010: 5012 e43b ae2f 9c3d bb4b 92bd c418 c7bc
00000020: b77e 053e 33ec b4bd c6ea ad3d 9e60 2d3e
00000030: 79fa 50bc fbb6 82bd ff60 1a3c 89b9 65bc
00000040: f049 e03d 4085 243e 5ec5 3fbe 5247 063b
00000050: ce70 a6ba dde0 29bc cc2f 0a3e 0592 d4bd
00000060: 24b9 60bd 5aa3 21bd c8ab 97bd dd29 8b3d
00000070: b162 683e f686 413d d156 eabd 19fb 0b3e
00000080: b04e a0bd 713d 293e bd9d 07be ebf9 e33d
00000090: b76c bcbd c822 2b3e 5ce7 d7bd ae8b b03d
000000a0: 7566 f0bd 9ebf 5abe 5a93 a1bd fad1 ca3c
000000b0: 5622 e83d 7340 11bd d394 f1bc 676f cb3c
000000c0: ba21 3a3e 422d 6b3c 0f14 4e3e 4736 4e3c
000000d0: a927 febc 4cef bf3d 7aed 19bc 734c 0e3d
000000e0: d08f 9d3c d4a5 9e3d 1bc4 363c 2c74 7a3d
000000f0: b24e 973d 38f1 1bbc ecb6 e83d beb4 a0bc
00000100: 69f2 37bd d4b3 23be 7e9d b73b f0c3 233e
00000110: d95a 84bd 0a1f c2bd 1651 263e 23f3 db3c
00000120: 0d8e c83d 73c5 b53d 07b7 48be 3e3e b7bd
00000130: 7501 b6bd 7e08 013e 7ffd 85bb 98ec 653d
00000140: 69fb 70bb d322 70bd 0666 7f3d bf58 c93d
00000150: aec8 6b3e cbbe 7bbd 84de 2a3d 6f35 c3bd
00000160: e83b 86bd ac98 8b39 b445 a53d 4629 b63c
00000170: 5e21 78bd e6aa b1bd b681 bfbd be1c 0c3d
00000180: f308 1abd 5465 d6bd c95d b537 4eb2 a2bd
00000190: 4842 993d 8a40 5fbd 6118 913d d893 0c3e
000001a0: bb7c a3bd e38a 8b3b 5f83 973e 415a 8ebd
000001b0: a851 12bd b4c9 08be a183 81bd d8fa e43a
000001c0: 144e b33d 2ca5 54bd bd08 733d e71d 4f3d
000001d0: bf98 f83b 052d 163e edc7 9e3d f2a7 8d3d
000001e0: 9792 2abd 1831 bbbd 3c06 b33d d628 9c3c
000001f0: 8eea cb3d 390b 0b3d 63d4 ddbc 5b5d 16bd
00000200: 02e7 0cbe 57fd 633d f552 f53c 66a7 b53c
00000210: 3d66 95bd efb1 123e 17ff 0abd cd0d 03bd
00000220: e174 55bd 2017 0cbd 46c4 443e cded 263d
00000230: f889 0abe 0de5 f2bd e009 ea3d f461 8c3d
00000240: af9a dcbc 626d 25be 2fab c6bd 3634 80bd
00000250: d6d0 043d 9194 21bd 011f e03d e630 8abd
00000260: abc9 45bd 57aa 6f3d a0ba ec3d 44ec 15bd
00000270: 188e 60bb bb30 04be 6d4c 2abd c218 943c
00000280: 5fa4 003c 19d7 5cbe 8cf6 31bd 7619 0e3d
00000290: 270b acbd a393 0dbe cff9 0f3e 97f7 da3d
000002a0: 93c5 02be 4ef4 37bd 960c cb3d a71b 1b3e
000002b0: 49be 413e 0e43 a93d 66c1 c6bd df32 c4bd
000002c0: 0d09 ae3c 388a ac3c dff2 4f3e f522 a23d
000002d0: d5b1 11bc 2388 ec3d 2ea3 573e f580 203d
000002e0: f746 803d 4016 ddbd 33dc b8bb f046 aabc
000002f0: 1b32 5ebd fc37 00bd b1d6 f73d e7b7 0dbe
00000300: 3814 9cbc efa7 e2bc 7bed 8bbd fece 7c3d
00000310: 1c70 0abc 6900 78bd 200c d73d 39d7 bcbc
00000320: f83b fa3b 36fa 273c 8c56 e8bb f7d9 5b3d
00000330: 4d6f a9bb 5c08 a0bd eb51 49be 23e7 c0bd
00000340: 7ff2 503d 2957 d8bd 43b5 38be e4ca 3ebd
00000350: 958e 9b3c 1113 18be 1dbd a13c 6882 50bd
00000360: d5d2 bebc 68c2 4dbd 3c15 253d 3cc1 a03d
00000370: 1072 a43c c792 7dbd e8c3 ebbd 28e9 62bd
00000380: c94b ad3c 2ede a9bd 71e3 bebd ecb7 3dbe
00000390: 2d81 ecbd da67 ad3c 7bd9 263a 4448 a03d
000003a0: 4d5a 503c 77f5 71be 715c ccbc 8998 d93b
000003b0: a598 fe3c 2305 713d afc6 8abc acc1 69bd
000003c0: d803 15bd 5e88 21bc adff 203e 7276 3bbe
000003d0: 3312 6d3e 283f aa3d 5524 e1bd 4f67 adbd
000003e0: fa39 b93d b672 94bd ec0e 8ebc 9082 85bd
000003f0: 01a6 083d 881b 893d 1504 6dbd 1c5e 1abc
0.033817485 0.015086788 0.0026346361 -0.018868068 0.006960191 0.07626282 -0.07143351 -0.024303801
0.13036619 -0.08834114 0.08492045 0.16931388 -0.01275503 -0.06382557 0.00942254 -0.014021286
0.109516025 0.16066456 -0.18727633 0.0020489288 -0.0012698413 -0.010368553 0.13494796 -0.103794135
-0.054864064 -0.039462425 -0.074058115 0.06795094 0.22693898 0.04724785 -0.1144234 0.13670005
-0.078275084 0.16527344 -0.13243766 0.111316524 -0.09200423 0.16712487 -0.10542175 0.08620392
-0.11738292 -0.21362159 -0.07889433 0.024758328 0.11334674 -0.035461854 -0.02948991 0.024833394
0.18176928 0.014354052 0.20124839 0.012586183 -0.03102477 0.09371814 -0.009394998 0.034740876
0.019233614 0.07746473 0.011155154 0.061145946 0.07388057 -0.00951796 0.113630146 -0.019617435
-0.044908915 -0.15986568 0.0056034913 0.15992713 -0.0646264 -0.094785765 0.1624187 0.026849335
0.09792719 0.08875551 -0.1960107 -0.08947419 -0.08886997 0.12600896 -0.004089057 0.056133837
-0.0036770946 -0.05862696 0.062353157 0.0983138 0.23025772 -0.06146125 0.041716114 -0.09531676
-0.06554395 0.00026625895 0.080699354 0.022236478 -0.060578696 -0.086751744 -0.09350912 0.0342071
-0.03760619 -0.104685456 2.1620554e-05 -0.07944165 0.07483345 -0.05450491 0.07084728 0.13728273
-0.07982775 0.0042585 0.29592416 -0.06950808 -0.035722405 -0.13358194 -0.06323934 0.0017469777
0.087551266 -0.051915333 0.059334505 0.050565626 0.007586568 0.14665611 0.077529766 0.06916799
-0.041643705 -0.09140223 0.087414235 0.01906244 0.09956847 0.03394625 -0.027078813 -0.036710124
-0.13759997 0.055661526 0.029946784 0.022174548 -0.07294891 0.14325689 -0.03393468 -0.031995583
-0.052113418 -0.03420174 0.19215497 0.04075413 -0.13529193 -0.11860094 0.11427665 0.068546206
-0.026929228 -0.16155007 -0.097006194 -0.062599584 0.032425724 -0.039448325 0.109434135 -0.06747608
-0.04828803 0.058512058 0.115590334 -0.036602274 -0.0034264382 -0.12909214 -0.04157679 0.018078212
0.007851689 -0.21566428 -0.043448016 0.03469225 -0.08400565 -0.1382585 0.14060138 0.10691755
-0.12770681 -0.04491072 0.0991451 0.15147267 0.18920244 0.08264743 -0.097048566 -0.095800154
0.02124455 0.021062002 0.20307492 0.07916824 -0.008892496 0.115494035 0.21058342 0.039185483
0.062635355 -0.107952595 -0.005641484 -0.020785779 -0.054247003 -0.03130339 0.12101496 -0.13839684
-0.01905261 -0.027667968 -0.06832405 0.06172084 -0.0084495805 -0.060547266 0.105003595 -0.023051845
0.0076365434 0.010252526 -0.0070903953 0.053674664 -0.005170739 -0.078140944 -0.19660155 -0.09419086
0.051012512 -0.105634995 -0.18037896 -0.04658021 0.018988887 -0.14851023 0.019743497 -0.050905615
-0.023293892 -0.05023423 0.040303454 0.078493565 0.02007392 -0.061907556 -0.115119755 -0.055398136
0.021154301 -0.082943305 -0.09320725 -0.18527192 -0.11548076 0.021167684 0.00063648046 0.078262836
0.012716842 -0.23628794 -0.024946423 0.006640498 0.031078646 0.05884279 -0.016940443 -0.057069466
-0.03638062 -0.009859173 0.15722533 -0.18306902 0.23151474 0.08312827 -0.10993258 -0.0846697
0.09044261 -0.07248442 -0.0173411 -0.065190434 0.03336144 0.06694704 -0.05786522 -0.0094218515

network_body._body_endoder.seq_layers.2.bias f4 [128]
00000000: d9cf 48bb 5f9c 3abb d9cc 88bb a4dc 5ebb
00000010: f171 723b 267e 0f3a f407 c9bb 7672 623b
00000020: 9b7b 853b 6e2b 40bb 7f71 f43a 582f 813a
00000030: 2fd1 80bb 1408 d7bb 30da 0f3b 4a1e 9639
00000040: c5bb 8bbb d4aa ad3a 51bf afb9 dc31 713b
00000050: 055c 483a 37da 37bb f524 c1ba 9cde 5cb9
00000060: f1c1 a1b9 a01a a0b9 ba36 46bb addd 76bb
00000070: 8c17 d23b 42c6 37bb d340 883b 1144 51ba
00000080: 1409 09bb 7b49 1e3b 8cfa 93b9 2219 5eba
00000090: e4cf 69bb 08aa 333b 67da d3b9 1892 0dba
000000a0: 5176 393b 418e ceba 75ec 0f3b 3dd2 e2ba
000000b0: 7c0d 88bb e354 7f37 e14a acbb 8a90 1238
000000c0: be5e e53a e499 73b9 3279 9f3b 9709 843b
000000d0: 8889 303b 2e81 1cbb 8470 cabb 2ae9 44bb
000000e0: ae3b 6f3b 4f5a 30bb a20f 57bb 2297 5c39
000000f0: 0f6f b63b d862 d13b 3e23 aabb 3271 92ba
00000100: cfe6 5f3b 9cb0 c8ba 40d4 ab3b 2916 c03b
00000110: 50e3 dfba 3b3b 8a3a eb93 743b 0448 843a
00000120: 0429 fc3a 37c2 0bbb 87a8 613b 5d43 263b
00000130: 46e7 45ba a68b c9ba 9368 b53a 66a7 a9bb
00000140: 6092 71bb 548c c03b 2bff c23b 3ba6 92bb
00000150: f842 603b 7bf5 9d3a b3bd 9f39 ee28 11bb
00000160: 1d3c f83a e984 9a3a e2e2 98ba 4215 3d3a
00000170: 5a4a fb3a a528 2abb 23b5 30bb 7174 2839
00000180: 3ec4 9dbb a884 563a 2dbf 423b 9d17 353b
00000190: d7ce 01bb 7d7d 023a 5bd7 92bb 8154 19bb
000001a0: 9da2 8dbb 8f0b 45bb 1c0c cfba e74c 1c3b
000001b0: 0401 03bb ebb3 bdbb 6dd8 e03a 13f8 73bb
000001c0: 7814 09bb c309 133b bc85 75bb 7d40 29bb
000001d0: 9172 113b 890b 2d3b d139 94bb 84de 9fbb
000001e0: edcd 883b 54cd 03ba aacc b13b 08e6 51ba
000001f0: d2a3 51bb 8657 433b b31b fdba 1c01 623b
-0.0030641465 -0.0028474552 -0.0041748104 -0.0034006024 0.0036994184 0.00054738147 -0.0061349813 0.0034553087
0.004073573 -0.002932276 0.0018649547 0.0009856028 -0.0039311866 -0.0065622423 0.0021950118 0.00028632797
-0.004264327 0.0013249763 -0.00033521143 0.00368034 0.00076431065 -0.002805365 -0.0014735745 -0.00021063763
-0.0003085281 -0.00030537415 -0.0030245022 -0.003766875 0.0064114984 -0.0028041755 0.0041581183 -0.000798286
-0.0020909952 0.0024152684 -0.00028224697 -0.0008472373 -0.003567689 0.002741458 -0.0004040778 -0.0005400493
0.0028299282 -0.0015758948 0.0021961008 -0.0017305088 -0.004151998 1.5218949e-05 -0.0052579497 3.4943725e-05
0.0017499549 -0.00023231615 0.0048667425 0.0040294635 0.0026937444 -0.0023880708 -0.0061779637 -0.0030046203
0.0036504078 -0.0026909297 -0.0032815714 0.00021037136 0.0055674384 0.006389957 -0.0051921895 -0.0011172651
0.0034164672 -0.0015311423 0.005243808 0.0058620167 -0.0017081294 0.0010546217 0.0037319611 0.0010092263
0.0019238298 -0.0021325478 0.0034432726 0.0025369741 -0.0007549416 -0.0015376701 0.001384037 -0.005177426
-0.0036860928 0.0058761034 0.0059508285 -0.0044753826 0.0034219604 0.0012051308 0.0003046818 -0.002214964
0.0018938814 0.0011788878 -0.0011664296 0.00072129455 0.0019171939 -0.0025964167 -0.0026963435 0.00016065106
-0.0048146537 0.00081832195 0.0029716 0.0027632483 -0.0019807124 0.00049778057 -0.004481239 -0.0023396316
-0.0043223635 -0.0030066704 -0.0015796456 0.0023849548 -0.001998962 -0.00578927 0.0017154344 -0.0037226721
-0.0020916741 0.0022436238 -0.0037463745 -0.0025825792 0.002219353 0.002640458 -0.004523494 -0.004878821
0.004174939 -0.00050278497 0.005426009 -0.00080069946 -0.0031988514 0.0029806807 -0.0019310623 0.0034485525

network_body._body_endoder.seq_layers.2.weight f4 [128, 128]
00000000: 35cf fabd 8dac 35bd 3cef 5e3d 8629 a3bd
00000010: f034 ba3c 917a dcbd 9c03 d8bc cbf1 80bd
00000020: 576b 41bd 8546 0c3e 384e 85bd 43a2 0c3e
00000030: d836 b3bd be48 eb3d cd60 453d 46b1 32be
00000040: 3448 b03d 8651 6fbd c446 78bd bd18 37be
00000050: c34b a83d 545c c23d 67dc 7abe 0f44 aebc
00000060: 7305 fc3d 39fa bd3b b130 ad3d 5026 f43d
00000070: a63b c53d 66c9 913d f977 4b3d ca37 353d
00000080: bf5c 9c3d 8f9f aabd b29a c1bb 5e92 e53c
00000090: 5876 163e a440 6d3d 244f 1d3c 00bd 5dbb
000000a0: 021b 1bbe 0a46 8dbc c905 923c 4989 b1bd
000000b0: c9bc 963d 68e9 24be e7e1 dd3d 02e4 a83c
000000c0: d6de bebd cd60 33bd 236d 673d 04d4 8ebd
000000d0: d45b 963d 0e44 1abd ddce bcbb 25b6 84bd
000000e0: eefb a9bd 297e cabd 9700 18bc 380c 733b
000000f0: 2115 42bd 0843 f93d ca1b a4bd 9cf5 f1bd
00000100: 4822 823d 2432 5cbd 0268 683d 0858 d03d
00000110: bd6b 153e c983 c73d de3a 1abd 0b14 64bd
00000120: 05c4 223d 633d a0bd 5c25 11be 53c6 253e
00000130: 2faf 513d b1c2 00be bd01 91bd 96cf 33bc
00000140: 7bac 6e3c c44e 46bd ce58 16be 39ef 7d3d
00000150: aebc 8abd 9a9a babc a848 673c b806 9d3d
00000160: 47fb d03b 529a d5bc 29c4 643d e765 653c
00000170: 3479 b53b ec04 d4bd c24a 36be adb1 763d
00000180: 5118 81bd 092c 84bd 5c6f d83d 6ab1 22bd
00000190: d0e1 adbd 7608 813d d226 4ebe f6b1 053d
000001a0: 535e 743d 7fcc 40bd 29e1 efbd b47d 053d
000001b0: 8b8c 22bc d805 303d 236b e03b fb12 003e
000001c0: 7223 b1bc 6441 d03a f5a0 23bd 75d5 c43d
000001d0: e94e b63c aa38 523e 522a b23d 9f48 c73c
000001e0: 1f5e ac3c 81b9 b33d aad6 15be 3b97 a7bd
000001f0: 042b 1dbd b1ab 123d 70e6 c13d 252d bbbd
00000200: 7a95 9f3d e27d b6bc 66f0 30bd e868 acbd
00000210: 7b56 023e 2752 73bd b0ad d3bc 0f53 ce3d
00000220: f797 cebd 2773 9bbd b2b5 a63d ceac 36bd
00000230: 2b71 8abd 4582 2cbe 5c3c 0b3d fd03 813d
00000240: 2c85 f43b 182a 94bd 094c 993c f3c8 0e3d
00000250: 648e 35bd 1fb3 383d eb5c 14bd c800 cbbd
00000260: dc68 81bd 9f21 17bd bf32 2e3e e0f8 4d3d
00000270: aacd a13d 4c25 c43d 4fa9 0abd 74e5 083e
00000280: 5395 5fbd d3d1 edbc 1027 b0bd f47f e43d
00000290: 1775 cfbc 2566 58bd 06e1 f63c d4be 893d
000002a0: 347f d23c 659e 4abe a583 bb3d 67d1 c03d
000002b0: 1358 db3c 1c0a 03be 6e03 6dbd f98c e33c
000002c0: a5c2 97bd bf44 27bd d910 bb3d 65fa b1bd
000002d0: 86fb b0bd 206e 873d 65cb 2dbe 4d29 273e
000002e0: 8666 173e 1c54 be3d f2d0 26be 5734 4e3d
000002f0: c696 a13d abb2 233d 9d3c e23d a1d1 ff3b
00000300: 90d3 c5bd 0f44 e0bd da16 bfbc 10ce 83bb
00000310: 5cd8 23bc bfeb 50be 34e6 b5bd 2647 2e3e
00000320: 8e2b ad3c 2fef 563d 4cc8 c83b 9dd3 3e3e
00000330: 429a cfbd dace bdbd fe52 4abe eb4f 96bc
00000340: 5169 463d 6b79 6bbd 53b9 11bd c8e5 fa3c
00000350: f5d1 553d 7c47 e33d fa5f 923b 0327 a8bb
00000360: 7ac3 513c 5978 02bd e2ca 7b3d 828a ed3c
00000370: 079d a9bc 3bcb a3bd 8857 bbbd 1213 2bbc
00000380: 34a1 b13c 6e10 183d ae0e 3fbe 194d d2bc
00000390: dbba 96bd 187c 85bd 76b4 1cbe 9dc7 c2bd
000003a0: 8bf7 133e ee85 7abc 7eb4 06bd 3faa 913d
000003b0: 7547 a83d 0e4b 32bd 3285 80bd a871 9b3d
000003c0: c163 0c3d 81b6 a4bd b23e c6bb 3aa2 23bc
000003d0: dcde a4bd 33e7 ca3d 9900 c2bd 995d bb3d
000003e0: 7311 233d c37a 2ebb e677 ae3c 1274 3fbe
000003f0: 5fba a73d 5f66 353b c056 ad3d 0a23 55bd
-0.12246553 -0.04435401 0.05442737 -0.07966904 0.02273032 -0.10765565 -0.026368909 -0.06296118
-0.047221508 0.13698776 -0.0650906 0.13733773 -0.08750695 0.11488484 0.04818802 -0.17450437
0.08607522 -0.058427356 -0.060614362 -0.1788053 0.082175754 0.094902664 -0.2449814 -0.021272687
0.12305727 0.005797651 0.08456553 0.1192137 0.09630518 0.07118492 0.04967496 0.044242658
0.076348774 -0.08331215 -0.0059083337 0.028023895 0.14693582 0.057922974 0.009601388 -0.0033834577
-0.15147021 -0.017245311 0.017825024 -0.08668763 0.07360227 -0.16104662 0.10834103 0.020616535
-0.09319846 -0.04379349 0.056500565 -0.069740325 0.073417336 -0.03766256 -0.0057619647 -0.06480054
-0.08300005 -0.098873444 -0.009277484 0.003708614 -0.04738343 0.12170988 -0.08013113 -0.118144244
0.06354195 -0.053758755 0.056739815 0.10173041 0.1459188 0.09741933 -0.037653796 -0.055683177
0.03973772 -0.078242086 -0.14174408 0.16188936 0.05119246 -0.12574269 -0.0708041 -0.010974785
0.01456749 -0.04841496 -0.14682314 0.06199572 -0.06774269 -0.022778798 0.014116444 0.07667297
0.006377611 -0.026074562 0.055851135 0.014001346 0.00553813 -0.10352501 -0.17801955 0.06022804
-0.06303466 -0.064537115 0.10568115 -0.039719976 -0.08490336 0.06300442 -0.20131996 0.03264042
0.059660267 -0.047070023 -0.11712868 0.032590583 -0.009921203 0.042974323 0.006848709 0.1250724
-0.021623347 0.0015888629 -0.039948422 0.09611026 0.022254424 0.20529428 0.08699478 0.02432662
0.021040974 0.087756164 -0.14632669 -0.08183142 -0.0383711 0.03580827 0.094677806 -0.0913947
0.07792182 -0.022276822 -0.04319801 -0.08418447 0.12728302 -0.05940452 -0.025839657 0.10074436
-0.10087579 -0.07590323 0.081401244 -0.044598393 -0.06759866 -0.16846569 0.03399311 0.06299589
0.0074621644 -0.07234591 0.018713014 0.03485961 -0.044325247 0.0450927 -0.036221426 -0.099122584
-0.063188285 -0.036897298 0.17011546 0.050286174 0.079005554 0.09577426 -0.03385287 0.1336878
-0.054585766 -0.029030716 -0.086012006 0.111572176 -0.025324387 -0.052831788 0.030136596 0.06725851
0.02569542 -0.19786985 0.091559686 0.0941494 0.026775395 -0.12796825 -0.0578646 0.027777182
-0.074101724 -0.040837046 0.09134073 -0.08690337 -0.08641724 0.066128016 -0.1697212 0.16324349
0.14785203 0.09293386 -0.16290644 0.050342884 0.07890086 0.039965313 0.11046717 0.007806972
-0.09659493 -0.10950481 -0.023326326 -0.0040223673 -0.010000315 -0.2040243 -0.088817984 0.17019328
0.021138933 0.052474197 0.006127393 0.18635412 -0.10136844 -0.092679694 -0.19758222 -0.018348655
0.04844028 -0.05748884 -0.03557713 0.030627146 0.052202184 0.11097619 0.0044670077 -0.0051316037
0.012802953 -0.031853054 0.06147278 0.02899671 -0.02070476 -0.079977475 -0.09147555 -0.010441558
0.021683313 0.037125044 -0.18657944 -0.025671529 -0.073598586 -0.0651781 -0.15303215 -0.095107295
0.14449899 -0.01529072 -0.032886975 0.0711255 0.08216754 -0.04352861 -0.06275405 0.075900376
0.03427482 -0.08042622 -0.0060499543 -0.009987408 -0.080503196 0.09907379 -0.0947277 0.09148712
0.039811563 -0.0026623465 0.021297406 -0.18696621 0.08189844 0.0027679426 0.08463812 -0.05203537
