results/FoodTarget_imitation_4/AgentPlayer/AgentPlayer-121340.pt (torch, 818783 bytes, 36 tensors)

network_body._body_endoder.seq_layers.0.weight f4 [128, 128]
000000 4e f4 64 bd 08 53 a8 3d bc 2b dc bc 84 c1 1e 3e
       -0.05589705 0.08218962 -0.026876323 0.15503508
000010 f1 6b 3e 3d 95 8d 94 3d da a7 3d 3b 18 4c 2e 3d
       0.04648966 0.07253567 0.0028939159 0.042553037
000020 9e 2f 2a bd 2b 51 36 bd 90 d1 98 bd c7 5f f6 bd
       -0.041549318 -0.044511 -0.07461846 -0.12029987
000030 9c 63 a0 bb 17 7d 6f 3c 1c 7e 25 3e 17 e6 c4 bd
       -0.004894687 0.014617226 0.16161388 -0.09614199
000040 41 63 26 3d 4b 16 43 bc cb 1f 89 3d 1b 03 ba bd
       0.040622 -0.0119071705 0.06695517 -0.090826236
000050 d3 74 84 3c 67 3b 24 bd e0 47 fd ba 14 75 54 bc
       0.016168987 -0.040095713 -0.0019323789 -0.012967367
000060 bd a0 f0 bb e1 73 2d bd 4f 73 a9 bc 9c 3e 49 bc
       -0.0073433802 -0.04234684 -0.020684866 -0.012282994
000070 b5 fd 93 bd 5b 5a 85 bd 9c a8 18 bd d6 2a 2a 3d
       -0.07226125 -0.065113746 -0.037270173 0.041544758
000080 cc ad de 3d 1a d4 30 3e b0 f4 4f bc fe ae 11 be
       0.10872993 0.1726841 -0.012692615 -0.1422691
000090 38 4e 4c be 54 94 67 3c d6 50 cd 3d a8 9d 5b bd
       -0.19951713 0.014134485 0.10025184 -0.05361715
0000a0 56 ef 25 3d c2 fb 15 3e 17 24 c8 bc a6 f7 98 3c
       0.04051145 0.14646819 -0.024431271 0.018672775
0000b0 7a b1 d5 3d 6f 1b c7 3c e0 ea dc 3d b2 da ab 3d
       0.104342416 0.024305074 0.10786986 0.08391322
0000c0 df 7a cd 3d 0d a5 ed 3c 8f 87 e9 3d 72 64 7b bd
       0.100332014 0.029009366 0.11402809 -0.06137509
0000d0 92 8d 87 bd e8 9a 52 3c 96 bc 9d 3c 44 4d ea bc
       -0.06618799 0.012854315 0.019254964 -0.028601296
0000e0 07 32 39 3c bb b7 6d bc 0a 45 43 3d d9 47 74 bc
       0.011303431 -0.014509137 0.047673263 -0.014909708
0000f0 f9 0f d4 3c 7e 44 fe 3c d3 44 26 3e b9 33 70 bd
       0.025886523 0.031038519 0.16237192 -0.058643077
000100 5d a0 02 be 2f 4b 83 bc 3a ca 89 3d cc f4 c7 bd
       -0.12756486 -0.016027061 0.06728025 -0.09763488
000110 54 06 fe bc 23 01 23 bd 38 da 30 bd be f6 00 bd
       -0.031008877 -0.039796006 -0.04317686 -0.03148531
000120 70 27 79 bd 37 52 98 3d 72 e0 b7 bd 33 0d 7f 3c
       -0.060828626 0.07437556 -0.089783564 0.015567112
000130 8a 17 4b bd 3b 5b 8c bd bf 86 7d bd e3 52 33 3c
       -0.049582995 -0.06853338 -0.061896082 0.010945055
000140 e5 6f f6 bc 2c d6 a8 3d b0 a7 13 3d 34 b2 0e 3d
       -0.030082652 0.08243975 0.03604859 0.034837916
000150 f2 b1 eb 3a fa 1c b7 bd 83 af 35 3d d4 20 55 bd
       0.0017982109 -0.08941074 0.044356834 -0.05203326
000160 f2 e9 51 bd 4b 4f e5 3d cd 79 b9 bd 61 96 1c 3e
       -0.0512485 0.111967646 -0.09056435 0.1529174
000170 57 5c e7 bc c1 47 90 bd 6d db d4 3c 13 37 05 bd
       -0.028242273 -0.07044936 0.025983537 -0.032523226
000180 30 87 2d 3c d7 46 7c 3c f3 db 5e be 56 10 83 3d
       0.010591313 0.015397749 -0.21763591 0.063996
000190 2d 5f 40 bc 63 5f 6c 3d 55 09 8d 3d 18 f1 9f 3d
       -0.011741442 0.057708155 0.068865456 0.07809657
0001a0 1c 92 a4 3d 6d 12 8b bc 78 fd e8 bd bb 0c 91 3d
       0.08035681 -0.01697656 -0.1137647 0.07082506
0001b0 18 20 28 bd c6 b9 94 bd 5d 15 20 bc 2a 3b ef 3d
       -0.041046232 -0.07261996 -0.009770718 0.116812065
0001c0 dc 19 bf 3d 40 c7 80 bc fa 7d ac bd 14 cd 02 be
       0.09331104 -0.01572001 -0.084224656 -0.12773544
0001d0 56 68 c8 bd bf cb 5f be 02 17 5c bd cf e2 8f 3d
       -0.097855255 -0.21855067 -0.05373288 0.07025682
0001e0 28 f7 9c bd 9c 94 79 3d 89 dd 2d bd 95 9c 30 3d
       -0.07664329 0.06093274 -0.0424476 0.04311808
0001f0 e8 87 dd 3c a9 96 96 bc 63 1d 1e bd 3a c1 86 3c
       0.027042344 -0.018382387 -0.038602244 0.01644956
000200 c4 f8 24 bd 05 4c fb 3d ae b6 0a bd 98 65 0e bd
       -0.040276304 0.12270359 -0.033865623 -0.034764856
000210 65 e5 0b 3c 23 54 6e 3d 17 86 bf bb 07 5e 80 bc
       0.008538579 0.058185708 -0.005844842 -0.015669836
000220 6f 33 10 3e bd 42 10 3e f6 b1 e7 bd d4 05 ee 3d
       0.1408212 0.14087959 -0.1131324 0.116222054
000230 87 76 75 3c 7d 2e 05 3e ae 3b 80 3d 02 b6 45 bd
       0.014981872 0.13006015 0.06261383 -0.04826928
000240 4a 8a b0 3c 2a da 88 3d 43 71 d4 bd 76 d9 f6 3c
       0.021550316 0.066822365 -0.103731655 0.03013299
000250 cd 6c 89 3d eb 04 b0 bc 99 17 a6 3d 0f 3f 03 bd
       0.06710205 -0.02148672 0.0810997 -0.03204256
000260 c9 29 d0 bd c8 90 e8 3d 1f 41 01 3e bd d2 d9 3d
       -0.1016422 0.1135574 0.12622498 0.10635898
000270 26 5d 71 3d 37 7f 80 bd d0 02 22 bb 4c f6 8f bd
       0.058926724 -0.06274264 -0.0024720915 -0.07029399
000280 7d 65 82 3d b3 a4 80 3d 35 62 62 3d a8 93 98 bd
       0.063670136 0.06281414 0.05526944 -0.07450038
000290 6b 41 71 3d c1 e2 1d be 95 0c 28 bd 46 fd 89 be
       0.058900278 -0.15418531 -0.041027624 -0.26951045
0002a0 76 5d 02 3e 33 f4 ac 3d 48 45 0b be ef 89 28 be
       0.12730965 0.08445015 -0.13600647 -0.16458867
0002b0 d2 55 dc 3d 2e 0c 99 bd 26 3c 32 bd 45 df 23 3e
       0.107585564 -0.07473026 -0.043514393 0.1600314
0002c0 4c 5d 22 bd 48 4a 6a bc 34 0f 15 3e 8f 1a 9a bc
       -0.039639756 -0.014299937 0.14556581 -0.018811492
0002d0 d8 f0 24 3d c7 c3 ff 3d 88 b8 8d bd 1e 07 1c 3e
       0.04026875 0.124885134 -0.06919962 0.1523709
0002e0 18 86 aa 3d e1 c6 78 bd dc b9 8d 3d 71 90 8c bd
       0.083263576 -0.06073654 0.069202155 -0.068634875
0002f0 63 89 b6 bd d2 72 e9 bd 7e ba 1c bd bb 35 30 bd
       -0.08912923 -0.11398853 -0.03826379 -0.04301999
000300 48 88 58 3d bb fa 00 3e 1d 22 dc bd 72 0f 94 3d
       0.052864343 0.12595646 -0.10748694 0.072295085
000310 4c bb d7 bc 13 c4 04 bd 93 f6 d9 bb 89 6d f4 3d
       -0.026334427 -0.032413553 -0.0066517084 0.11934955
000320 51 95 8e 3d b8 b0 5b bc 48 a1 4f bc 57 bc 66 bd
       0.069620736 -0.013408832 -0.01267273 -0.05633196
000330 ca 6f 85 bc 85 12 a7 bd 22 ed ca 3c 5e be aa 3d
       -0.016288657 -0.08157829 0.024771277 0.08337091
000340 4f 0f d4 bc d4 fb 18 3e da 7b fe 3d 81 0d 01 3e
       -0.025886206 0.14939815 0.124259666 0.12602808
000350 81 6c e0 bd 8c bc b5 bc 46 40 71 bd ec 8c fc 3c
       -0.109581955 -0.022184633 -0.058899187 0.030828916
000360 dd 40 89 bd 88 01 50 39 14 e2 97 bd 79 91 44 bd
       -0.06701825 0.00019836996 -0.07416168 -0.047990296
000370 7d b3 ba bd 14 4c 40 be 34 22 9e bc 63 be 57 3d
       -0.09116266 -0.18779022 -0.019303419 0.0526718
000380 08 e3 39 bd ab da 82 3d 1f 06 df 3b b8 b1 8f 3d
       -0.04538253 0.06389364 0.0068061496 0.07016319
000390 47 06 53 3e e4 f9 37 3d 0d 83 1e 3d 19 48 01 3d
       0.20607863 0.04491605 0.0386992 0.0315629
0003a0 e5 29 98 bd 35 02 eb 3c e4 46 30 3d 2b 5e e0 bc
       -0.07429866 0.028687576 0.043036357 -0.027388653
0003b0 55 da 3c 3e b9 96 0d be a0 b9 f4 3d 88 48 46 bd
       0.18442662 -0.13827027 0.11949468 -0.048409015
0003c0 21 dc 59 39 9e 49 4d 3c 65 71 c0 bd ee 7d e0 3d
       0.00020776737 0.012529759 -0.09396628 0.10961519
0003d0 b2 b3 d8 bd 9d 64 dd bd 91 29 8d bd 80 0d 36 3e
       -0.10581149 -0.10810206 -0.06892694 0.17778587
0003e0 07 6b 93 bc 4d 06 8a 3d 03 0b 90 bd 6b fd c6 3d
       -0.01799537 0.06739483 -0.0703335 0.097163044
0003f0 20 03 6a 3d e5 58 30 bd bd 07 58 bc 7a b8 cd 3c
       0.057131886 -0.043053526 -0.013185439 0.02511238

network_body._body_endoder.seq_layers.0.bias f4 [128]
000000 ff 0f b9 3a 17 2b 35 3c 0c 0c 24 3c a5 63 66 3c
       0.0014119147 0.011057637 0.010012638 0.014061843
000010 7b 1e 25 3c 02 38 fc 3b 87 f2 07 bc 71 6e fe bb
       0.010078068 0.0076971063 -0.008297569 -0.0077646305
000020 e5 98 3e 3c cb 8a 83 3c 8b 05 0f b9 31 20 8a 3c
       0.011633133 0.016057393 -0.00013639608 0.016861053
000030 6a 46 63 3b 22 a5 3a 3b ff 84 77 3c e0 ec 16 3c
       0.0034679421 0.0028479774 0.015107392 0.009211749
000040 61 40 2c bb 6c 12 a3 bc 87 95 e9 3b d4 5f 72 bb
       -0.002628349 -0.019906245 0.0071284208 -0.0036983388
000050 a7 45 a2 3c 3b 4c ab 3c 87 33 c5 3a 2d 9f 47 3c
       0.019808603 0.020910373 0.0015045264 0.012183947
000060 4a dd be bb 97 4a 75 3c 5f f0 d2 3c a4 c8 ec bb
       -0.0058247196 0.014971397 0.025749383 -0.0072260667
000070 cd 3d a9 3b 68 b8 b8 3c 44 37 24 3c ae 26 00 3b
       0.005164838 0.02254887 0.010022942 0.0019554305
000080 fb a6 69 3c 83 39 74 3c cb f7 ee 3c 4a 9c b9 bc
       0.014261003 0.01490629 0.029170891 -0.022657532
000090 bc 8e 93 3c ab 94 6c 3c f0 18 92 3c a5 1a 49 3c
       0.018012397 0.014439742 0.017834157 0.012274419
0000a0 86 b4 a4 3c e7 73 28 3b 56 4a a1 3b dd 0e ef ba
       0.020105612 0.0025703849 0.0049221916 -0.0018238683
0000b0 39 51 58 3c 78 c4 df 3b 03 26 13 bb 84 7f 0d 3c
       0.013202959 0.006828841 -0.0022453077 0.008636359
0000c0 ba 98 80 3a 15 6d f1 ba 29 9e ca 3b b3 c0 b9 bb
       0.0009811141 -0.001841935 0.006183405 -0.0056687235
0000d0 42 28 e9 3c 57 b3 d0 3c 31 3f c1 3b 41 18 4f 3b
       0.02846158 0.02547614 0.0058974256 0.003160015
0000e0 11 c3 e3 3c 26 53 10 bc 8b 6e 85 3c 24 d6 22 3c
       0.027802976 -0.008808887 0.016288063 0.00993875
0000f0 be 2b f3 ba 5f 97 57 3b a1 f6 6b 3c 71 f0 a6 3b
       -0.0018552465 0.003289662 0.014402063 0.005094581
000100 84 9b ee 3c 58 46 e0 bb 93 0b e6 bb 0e d2 21 3c
       0.02912689 -0.006844323 -0.0070204227 0.009876741
000110 8f b9 42 bb 54 f0 5b 3c fa 54 32 3b fc 3b 84 3c
       -0.0029712652 0.013423998 0.0027211295 0.016141884
000120 f3 f9 03 3b 7f dd 42 3b b3 43 25 3c 16 15 d8 3b
       0.0020137995 0.0029734073 0.0100869415 0.0065943105
000130 eb 87 7f 3b b7 48 e0 3b b3 14 5f 3b c1 46 23 3c
       0.0038990926 0.006844606 0.0034039437 0.0099655995
000140 de 7d 4d b9 9c 1b 34 3c 7f 4a 03 3c 81 fd 63 3a
       -0.00019597213 0.010992911 0.008013367 0.0008697138
000150 7b bd cb 3b 22 3f a1 bb 0f 3c bc bb ff 93 08 bc
       0.006217656 -0.004920856 -0.005744464 -0.008336066
000160 19 e7 a9 bc 8f fe e8 3b 1f c9 e8 3b b7 40 8f 3b
       -0.020740079 0.007110424 0.0071040536 0.0043717283
000170 6d a1 a3 3c 29 e9 8a 3c 8c a4 24 3c 4a 24 59 3c
       0.019974435 0.016956883 0.010048997 0.013253281
000180 27 3f 79 3a c0 56 04 3b 26 de 8c bc 97 2b 75 3c
       0.00095080066 0.0020193309 -0.017195772 0.014964006
000190 40 bf a8 bb b3 c3 c8 3b 66 bb af 3c 12 1b 0e bb
       -0.005149752 0.006126845 0.021451663 -0.0021683616
0001a0 e7 7a e7 3b 25 4e 08 3b 55 8a 90 ba 38 9c 0c 3c
       0.0070642116 0.002079853 -0.0011027554 0.008582167
0001b0 a9 3b a7 3b 29 e8 ea bb 5c 57 9b bc 3d 37 99 3b
       0.0051035476 -0.007168789 -0.018962555 0.0046757744
0001c0 48 e5 19 bd 39 45 1d 3b cf a0 be 3b e0 6a c6 ba
       -0.037572175 0.0023997559 0.0058175097 -0.0015138052
0001d0 1a dc 2a 3c 2d 4c 4f 3c c5 3f c6 3b 1c 09 92 3c
       0.010428453 0.012652439 0.0060500824 0.01782661
0001e0 8f af 1b 3c 13 71 42 3c bb 41 b4 bb af d8 e1 3b
       0.009502306 0.011867779 -0.0055009997 0.006892286
0001f0 7d a3 21 3c 4f 12 58 bc 11 ca 0c bc 64 f6 ed bb
       0.009865639 -0.013187959 -0.008593098 -0.007262038

network_body._body_endoder.seq_layers.2.weight f4 [128, 128]
000000 65 1b bd bd 63 5d d9 3c 57 bf ac 3d cc 36 f2 bc
       -0.09233741 0.026533788 0.08434933 -0.029567145
000010 24 42 19 bd ce f2 1f bd 0c f8 c4 bd 1b a4 17 be
       -0.037416592 -0.039049916 -0.09617624 -0.14808695
000020 82 ef 40 bd 14 59 98 3d 90 4f 8f bd c0 15 dd bd
       -0.047103412 0.07438865 -0.06997597 -0.10795164
000030 af 02 2d bd da cf 6d bd 6a a0 14 be e4 06 f8 3d
       -0.042238887 -0.05805955 -0.14514318 0.12110689
000040 dc fc 9e bd 09 a4 d7 bd bd 97 53 3e 86 0b bc 3c
       -0.07763073 -0.10529334 0.20663352 0.022954714
000050 4c 8d 6a bd 04 1e 57 3d 5e fb 42 3e 14 b7 1e bd
       -0.057263657 0.05251886 0.19041201 -0.038748816
000060 b4 f5 eb bc cc 18 27 3d 30 d1 87 bd e1 4f eb 3d
       -0.028803684 0.040795133 -0.06631696 0.11489845
000070 ff 86 df bc 0f f1 30 bd 5f b6 a9 3d 0e d2 cb 3d
       -0.02728605 -0.04319864 0.08286738 0.09952174
000080 a2 9a 4e 3e 16 8e 93 bd 81 68 e6 bd bb 49 f7 bd
       0.20176175 -0.07204835 -0.11250401 -0.1207461
000090 cb 50 29 3d 8b c4 a8 3c 63 f1 4d bd 20 c4 cc 3d
       0.041336816 0.020601531 -0.050279032 0.099983454
0000a0 09 15 67 3d b1 a2 8c bc 14 13 94 3d d7 c0 8d 3d
       0.056416545 -0.017167421 0.07230201 0.06921547
0000b0 59 30 87 bb 6b 25 3e be a2 c8 4d 3d 86 39 7e bd
       -0.0041256365 -0.18568961 0.050240166 -0.062066577
0000c0 e1 7d dc 3d 1f f4 7c bd 18 b7 12 bd 71 4d e6 3c
       0.10766197 -0.06175625 -0.035819143 0.028113099
0000d0 e4 f4 d3 bd 26 fc 2a be df ad d4 bd 4c b2 3e bd
       -0.103494436 -0.1669775 -0.10384726 -0.046556756
0000e0 cb aa 8a 3d 8d 72 48 3d cc af 1a bb 30 74 e3 bb
       0.067708574 0.04893737 -0.0023603318 -0.006941341
0000f0 dd 0a 62 3d 39 3a b0 3b bf a3 c4 3d da a2 5c be
       0.05518614 0.0053780344 0.096015446 -0.21546498
000100 0b 2d 88 be 66 db f9 3d 48 df eb bd e6 8a 03 be
       -0.26596865 0.1220005 -0.11517197 -0.12845954
000110 49 52 fc bd 48 37 66 bd 02 4a 0d be e3 98 d3 bd
       -0.12320382 -0.056205064 -0.13797763 -0.10331895
000120 4a 65 04 3e f1 5c 20 3d 7b bb c4 bd 4a a8 ea 3c
       0.12929264 0.039151136 -0.096060716 0.0286447
000130 92 f4 1f 3d ef 03 84 3b cf 72 be 3d 2b 98 ab bc
       0.0390516 0.0040287892 0.09299242 -0.020946583
000140 24 b7 c5 bd af a7 3b 3e 7e 4e f7 3c 0f 9a 69 bd
       -0.09654072 0.18325685 0.030188795 -0.057031687
000150 8c 32 f5 3c 75 b5 ed bd 1d c2 52 bd e3 16 42 be
       0.02993133 -0.11606876 -0.051454652 -0.18954043
000160 f1 9c 07 3e 58 c7 9f bd 67 9a aa bc 09 2d fc bc
       0.13243462 -0.07801694 -0.020825578 -0.030783193
000170 44 ec 39 3d 0f 59 a7 bc 0b 7e a5 3d de 91 88 bd
       0.045391336 -0.020428209 0.080806814 -0.06668447
000180 d4 da c9 3c c9 89 d2 bd d5 02 02 3d fc 63 2c 3c
       0.024640478 -0.10280187 0.031740982 0.010521885
000190 37 e7 4b 3e a3 5f 1f bd 68 50 1b 3e 45 60 0f 3d
       0.1991242 -0.038909566 0.15167391 0.03500392
0001a0 09 73 c9 bd 77 b4 ee 3d 8d 57 87 bc 16 16 aa bc
       -0.09836394 0.11655515 -0.01652124 -0.020762485
0001b0 ef d6 b2 3d 20 0b 09 3e 82 ef 1e 3e 98 83 8a 3d
       0.087324016 0.1338315 0.15521052 0.06763381
0001c0 df da 17 3c 79 72 89 bd 5d 2b 46 3d 81 ff 9e 3d
       0.0092684915 -0.06711287 0.0483812 0.07763577
0001d0 68 47 fd bd c9 51 18 be 3c 16 57 bd 9d 53 f5 bc
       -0.12367135 -0.14874949 -0.05251144 -0.029947096
0001e0 52 f1 2c bc 50 30 dd bd 06 31 03 3e 2a e7 51 3d
       -0.010555582 -0.108002305 0.1281167 0.051245846
0001f0 96 91 1e 3e ea dc 67 bd 6f b8 4f 3e 4b fa c9 bc
       0.15485224 -0.056607164 0.202852 -0.024655482
000200 7e 11 70 3d 3c ca 29 3d c6 e0 72 3d 89 36 ae 3d
       0.05861043 0.04145263 0.059296392 0.085064955
000210 28 7f 1a bd 64 a6 d8 3c ba 56 15 3d 4b e4 b1 3b
       -0.037718922 0.026446529 0.036459662 0.005428826
000220 7a 9c 5b be 1c 79 f0 3c c5 9c b3 3d bc fd 8a bb
       -0.2144641 0.029354624 0.08770136 -0.0042416733
000230 70 14 ab 3c 70 8f 99 3d 3a f2 44 3c 13 6b 61 bd
       0.020883769 0.07498062 0.012020642 -0.055033755
000240 0f 6c 8f bc 8b a1 28 3c 45 16 be 3d fd 7f 2e bd
       -0.017507581 0.010292421 0.09281591 -0.042602528
000250 aa 0d d7 3d 56 50 c1 3d d7 e6 a1 bc 6c d9 05 3c
       0.10500653 0.09439151 -0.019763393 0.008169513
000260 e2 fb e6 bc 84 d4 5c 3d 81 2d 89 3d 99 09 b9 bd
       -0.028196279 0.05391361 0.06698132 -0.09035034
000270 1f 0d 2f 3e db aa b3 bd c3 0d 52 bd 7f 31 6d 3c
       0.17094849 -0.087728225 -0.051282655 0.014477133
000280 9f 01 67 bd f3 4c 08 3e 03 06 4e 3d 8c 88 57 bd
       -0.05639803 0.13310604 0.050298702 -0.052620456
000290 d1 6a 24 3e cc 97 99 3c 4a a2 76 bd 22 47 8d bd
       0.16056372 0.01874914 -0.060213365 -0.06898333
0002a0 c8 13 5e bd fe 87 fb 3c 18 14 d6 bd 05 21 fb 3d
       -0.054218084 0.030704495 -0.10453051 0.12262157
0002b0 e8 d7 a1 bd ea 2b 1d 3c d9 47 7a bd 78 d7 17 3d
       -0.07902509 0.009592989 -0.061103676 0.03707072
0002c0 86 03 80 3d 0c ce cd bd 5a b1 9e 3d 5e d6 4a bc
       0.06250672 -0.10049066 0.07748671 -0.012380211
0002d0 3d 91 07 3e 8a aa b2 3d d1 3f c2 3d e1 1f 12 3e
       0.13238998 0.08723934 0.09484828 0.14269973
0002e0 a4 ac 3b bd 2f bf 5d 3d 4d c6 18 bd 2b 9c b1 3b
       -0.04581894 0.054137405 -0.03729849 0.005420228
0002f0 17 b6 75 bc fd 6c 7f bd 65 f7 0c bd af b7 18 3e
       -0.014997027 -0.0623598 -0.03441562 0.1491382
000300 ea 33 e0 bd 3b 6a b4 3b b1 9b 83 bd a2 d8 f4 bc
       -0.10947402 0.0055058277 -0.0642618 -0.029888455
000310 2a 7a 9a bc 61 98 9e bd fd 03 89 3d 22 e5 b2 3b
       -0.01885708 -0.07743908 0.06690214 0.0054594437
000320 6c 4a 34 bd 93 19 f5 3d 93 de 31 bd b7 90 a7 3d
       -0.044016287 0.119677685 -0.043425154 0.08181899
000330 12 ef 39 bc 4d 86 42 3c e9 ff 01 bb 19 b0 be bd
       -0.011348503 0.01187284 -0.0019836372 -0.09310932
000340 1a 9f 1e 3e 12 9c 3d bb 7e 6a 1d bc cc fb c7 bd
       0.1549038 -0.0028932136 -0.009607909 -0.09764823
000350 20 85 c0 bc 0f 90 51 be 71 37 e5 3d a2 0a f1 3d
       -0.023500979 -0.2046511 0.11192215 0.11769606
000360 80 ac ca bc 98 9b e6 3b 89 b9 8a 3d 4a 87 0a be
       -0.024740458 0.007037591 0.06773669 -0.13528171
000370 dc db bd 3c 43 11 f2 3d 97 01 65 bd 24 41 70 3d
       0.023176126 0.11819699 -0.05590972 0.058655873
000380 9c 2a f9 3c 29 e8 52 bd a6 c3 90 bd 09 80 32 bd
       0.030415826 -0.051490936 -0.07068567 -0.043579135
000390 00 6d 28 be 1e 27 9e 3d 73 0f 69 bd 66 ac 4b 3d
       -0.1644783 0.07722305 -0.0568995 0.04972496
0003a0 1a 99 ef bc fb f0 89 bd ee 98 a9 3c bd 51 47 3d
       -0.02924781 -0.067354165 0.020702805 0.048661936
0003b0 15 88 1a bd 48 88 3c bc 07 55 5b 3d 3f 74 3e 3e
       -0.037727434 -0.011507101 0.053547885 0.18599032
0003c0 d6 0d e0 3c c5 fb bb 3c 54 8d af bd e3 00 15 be
       0.027350347 0.022947202 -0.08571878 -0.1455112
0003d0 76 70 bb bd 3b 41 bc 3d 21 78 38 3e 07 8d 19 be
       -0.091523096 0.09192129 0.18014576 -0.14995204
0003e0 ab 3e f5 3d 52 52 33 3d fc 60 be bd 02 5d ce 3c
       0.119748436 0.04377968 -0.09295842 0.025190834
0003f0 ab d2 08 bd 94 8f 48 3c c2 e4 d0 3d 0b 99 92 bb
       -0.033404034 0.012241263 0.10199882 -0.0044738105

network_body._body_endoder.seq_layers.2.bias f4 [128]
000000 44 34 da 3b 7e 92 a3 3b 9d 8b d2 bb da d0 7a 3c
       0.0066590626 0.0049918285 -0.0064253346 0.015308583
000010 fb 9e 11 bb 13 24 67 3b d2 7b 05 3c 04 c9 c5 3b
       -0.0022220004 0.0035269305 0.008147197 0.006035926
000020 3e 77 73 3c eb a3 44 3c 15 35 9e 3c 9d 63 2f 3c
       0.0148599725 0.012001972 0.01931242 0.010704902
000030 07 60 63 3c 21 81 b1 b8 63 04 50 3c bf 8b 47 3c
       0.013877875 -8.46407e-05 0.012696358 0.012179314
000040 cb d0 33 bb aa 4b d0 bb a8 ea e5 3b 33 4f 86 3b
       -0.0027437683 -0.006356676 0.0070164986 0.0040987968
000050 c3 ac c7 bb 8f cb a3 39 e7 ed 1f 3c 0f a3 07 3c
       -0.006093593 0.00031241446 0.00976131 0.008278622
000060 6d 5c 3f bb b2 73 db bb e4 43 db bb cb 79 6a 3c
       -0.0029199377 -0.0066971416 -0.006691443 0.014311264
000070 f7 50 29 3c 4c b2 87 bb d5 16 a6 ba e5 7d db bb
       0.010334245 -0.0041411277 -0.0012671599 -0.0066983574
000080 b5 80 97 3c 0c 52 7e 3c 9e 8c cd bb ca 71 41 3c
       0.01849399 0.015522491 -0.0062728664 0.011806915
000090 63 43 ae 3c 78 88 28 3c 8c ee 15 3b 95 b3 b8 3c
       0.021272367 0.010286443 0.002287778 0.022546569
0000a0 3f 06 d9 3a 0c fd b2 3b 68 ce a4 3b 80 05 30 bc
       0.0016557648 0.0054622944 0.0050294884 -0.010743499
0000b0 9d f0 2d 3c bc ae ca 3b 22 4d 06 bc 5a 54 4f 3c
       0.010616449 0.0061853807 -0.008197101 0.012654388
0000c0 1d 55 55 3c 05 e9 10 3c b0 1e 8c bb 85 b4 2b 3c
       0.013020781 0.008844619 -0.004276119 0.010480051
0000d0 96 3f 98 3b d2 c1 0c 3c bf 9b 88 bb 29 b6 83 3b
       0.004646252 0.008591132 -0.004168957 0.004019518
0000e0 14 44 1e 3c d0 25 65 39 2a 33 a3 3a e5 c7 c7 3b
       0.009659786 0.00021853228 0.0012451161 0.0060968273
0000f0 d0 d8 73 3c 39 c5 da bb 66 39 59 bb 57 3f 83 3c
       0.014883235 -0.006676343 -0.0033145784 0.016021414
000100 5a 1a 37 3c 30 8d 9b bb d9 72 42 3b fa 0b de b9
       0.011175716 -0.0047470555 0.0029670505 -0.00042352063
000110 52 21 20 3c 1f e5 89 ba 98 05 8e 3c 42 9d 51 3c
       0.009773569 -0.0010520554 0.017336652 0.012793841
000120 34 1b 81 bb 5d 91 ed 3b c1 32 47 3c 94 28 cd 3a
       -0.0039400104 0.0072499947 0.012158097 0.0015652352
000130 d5 f9 4f bc 2b 49 7c 3c 3f 23 dd 3b 97 6e 39 3b
       -0.012693842 0.015398304 0.0067485864 0.0028294676
000140 e8 1f 0c 3a d2 26 10 bb bf 1d 1d 3c 9e ca 92 3b
       0.00053453306 -0.0021995795 0.009589612 0.0044797203
000150 1c 6f 24 3c 88 a7 b1 3b bb 14 cb 3b 3a 38 03 3b
       0.010036256 0.0054215826 0.0061975396 0.0020022527
000160 92 76 82 3c 82 64 1a 3b 65 41 f9 3b f4 aa a2 3b
       0.01592568 0.0023558442 0.0076066726 0.004964227
000170 ac 83 08 3c 35 04 6d 3c 7f 75 6b 3c d7 a0 0d 3b
       0.008332174 0.014466335 0.014371275 0.002161076
000180 7e 98 b9 ba 89 1e a8 3b 70 c7 a9 bb 0f b3 38 bb
       -0.0014159826 0.005130593 -0.0051812455 -0.00281829
000190 28 8f 7d 3c dc e5 88 3c ec d0 8c 38 9c 57 95 bb
       0.015476026 0.016711168 6.714635e-05 -0.004557563
0001a0 6e 01 f6 3b 3a bd 93 3c 19 78 4a 3c 58 1d 35 3c
       0.0075074947 0.018034566 0.012357735 0.011054359
0001b0 b5 72 3d 3c 23 77 53 3b d4 1b 53 3c a3 88 82 3c
       0.011562993 0.0032267056 0.012885053 0.015934294
0001c0 ac e5 9e 3a 5f 14 75 3a dc 03 9d ba 28 6f d9 3b
       0.0012122891 0.0009349044 -0.00119793 0.0066355653
0001d0 04 5e db bb d6 d9 4f 3b 1d e6 40 3c a2 6f c3 3b
       -0.006694557 0.0031715534 0.011773613 0.0059642354
0001e0 71 04 0c 3c 78 c7 5d 3c 3b fe 1d 3a 4a fa 18 bb
       0.008545981 0.013536327 0.0006026958 -0.0023342543
0001f0 c1 f9 55 b9 79 0b c8 ba a4 7d 04 3c 45 6e 3b 3c
       -0.00020406304 -0.0015262208 0.008086596 0.0114398645

action_model._continuous_distribution.log_sigma f4 [1, 5]
000000 d0 44 ab 3c ff ca 78 3c 1d 1c 3d 3b d5 cf 9e bb
       0.020906836 0.015185117 0.0028855868 -0.004846553
000010 62 45 44 bb
       -0.0029948582

action_model._continuous_distribution.mu.weight f4 [5, 128]
000000 d9 6d 8e 3c 13 9a b9 bc 95 43 3c 3c 97 81 53 bd
       0.017386364 -0.022656476 0.011490722 -0.05163726
000010 db 06 07 3c 0f 18 11 3d 10 78 d8 3c 01 04 10 3d
       0.008241381 0.035423335 0.026424438 0.03516007
000020 97 31 0c bd 98 1d 7c bd f9 da 93 3d 1d 91 3d bd
       -0.03422698 -0.06155166 0.072195 -0.04628097
000030 38 00 1c 3d 93 6b a5 bc 43 e0 3c bd 39 90 a0 bc
       0.038086146 -0.020192897 -0.04611231 -0.01960002
000040 84 0d a7 3c c6 0a c1 3c 34 5a c9 3b 56 47 e1 3c
       0.020392187 0.023564707 0.0061447863 0.027499836
000050 70 75 84 3c 6e 56 3a 3d 19 0c 56 bd c5 8f 6c 3d
       0.01616928 0.045492582 -0.05225763 0.057754297
000060 5e 16 54 3b c7 e9 53 ba df 33 be bb 46 62 45 bd
       0.0032361965 -0.0008083847 -0.0058045234 -0.048189424
000070 8f cf 63 bd 38 17 53 3c 13 c8 15 3d 5d 22 08 3c
       -0.055617865 0.012883954 0.03656776 0.008308974
000080 90 19 59 bd 93 6e db bc 52 32 03 bc d3 37 cd b9
       -0.053002894 -0.026786124 -0.008007603 -0.0003914224
000090 38 84 37 3d e2 47 2c 3d ec 6b ea bc a3 61 1e bd
       0.044803828 0.04206074 -0.028615914 -0.038667332
0000a0 91 0b 98 3a e6 88 be 3b ed c7 a1 bc e9 6e 9d 3c
       0.0011600127 0.0058146594 -0.019748652 0.019217925
0000b0 be ea 66 3c ab d4 1b 3d bd 87 0d bc cb a2 25 bd
       0.014094053 0.038044613 -0.00863832 -0.040438455
0000c0 64 cd 58 bd f6 80 53 bd 16 85 86 3c b7 12 2f bc
       -0.05293025 -0.05163666 0.016420882 -0.010685614
0000d0 d0 1b 69 3d 47 49 44 3d a7 ae fe 3b 9e 7d 2b bd
       0.05691129 0.047921445 0.007772285 -0.041867845
0000e0 15 a9 02 bb c7 32 26 bd 9a 0e 16 3d 08 43 51 3d
       -0.0019937207 -0.04057577 0.03663502 0.051089317
0000f0 46 08 79 bd 89 9a c1 3c 12 56 18 bc 7e 2d c4 3b
       -0.060798906 0.023633258 -0.0092978645 0.0059868684
000100 1e 34 89 bd f5 35 c7 3c e2 ca 2a bd b9 86 a3 3c
       -0.06699394 0.02431772 -0.04169739 0.019961702
000110 a1 4c 13 bd 4e a8 44 3d c0 0f 95 bc 07 0e 1d bd
       -0.03596175 0.04801207 -0.018195987 -0.038343456
000120 6a 2b aa 3c 25 4a 0f 3d a4 50 4d 3d 67 b6 c5 3c
       0.020772655 0.03498282 0.050125733 0.024134828
000130 c5 25 e9 3b 6b 8c 3c bd a9 f3 fb bc fa 6e fc 3c
       0.007115098 -0.04603235 -0.030755835 0.030814636
000140 74 f1 84 bc 5f 41 21 bd 19 0d 15 bd 97 d5 eb bc
       -0.016228415 -0.039368983 -0.036389444 -0.028788371
000150 2b 88 89 3c 3d c4 f8 ba 67 1d de bc d9 40 96 3c
       0.016788563 -0.0018979382 -0.02711363 0.018341469
000160 8c 7e 87 bd ea 37 5b 3d f7 f8 1d 3b b8 17 0c 3d
       -0.06615934 0.05352012 0.0024104693 0.034202307
000170 37 7a 1f 3d ad b5 89 bc ae 82 60 bd 43 43 91 3c
       0.038934913 -0.016810263 -0.054812126 0.017732268
000180 71 00 05 bb 4b d5 c0 3c 94 63 41 3c ea 83 b2 bc
       -0.0020294453 0.023539206 0.011803526 -0.021791417
000190 41 6f 61 3d a1 7b 01 bd 67 4e 0a bd 13 3c 4b 3c
       0.05503774 -0.031612042 -0.033766177 0.0124044595
0001a0 f3 81 6e bc 23 e9 76 3c 5f da 30 bd b0 93 0d bc
       -0.0145573495 0.015070233 -0.043177005 -0.0086411685
0001b0 a3 c1 21 bd 4b fb da bc 09 44 48 bd f1 81 60 bb
       -0.039491307 -0.026731154 -0.04889301 -0.0034257139
0001c0 bf bf 1a 3c 00 e0 b4 bc 82 e2 7b 3d 42 86 ea 3c
       0.00944513 -0.022079468 0.06149531 0.028628472
0001d0 38 1f ad bc c6 fa 89 ba 03 5b 5a 3d 33 46 34 3d
       -0.02113305 -0.0010527007 0.05330945 0.04401226
0001e0 57 b1 52 bd 16 00 1a bd b7 59 61 3c 38 8b db 3c
       -0.051438656 -0.03759774 0.0137543 0.026799783
0001f0 6a a1 97 bc 61 d1 a5 3c 65 60 47 bd bc cd 1d 3c
       -0.018509585 0.020241441 -0.048675913 0.00963157
000200 c3 31 d4 3c cb 5d a2 bb 42 a2 54 3c bb e6 ec 3c
       0.025902634 -0.0049550286 0.012978138 0.028918615
000210 1e ef 4e bc 1e 20 5b 3c f0 a4 82 bd e1 12 90 3b
       -0.012630252 0.013374357 -0.063791156 0.004396782
000220 ef 3e 9b 3b 81 b7 a2 bc 38 02 69 bd 82 86 9d 3c
       0.004737727 -0.019862892 -0.05688688 0.019229177
000230 68 fb 18 bd b7 a5 59 3d 1a 99 42 3d 9f e8 12 bd
       -0.037349135 0.053136554 0.04750929 -0.035866376
000240 fa ec 17 3d 17 68 2d bb 99 5b 41 bb 77 23 87 bb
       0.037091233 -0.0026459747 -0.002950406 -0.004124101
000250 f9 ef 23 bd 5a fa 33 3d 6d c3 0c 3d cb 5d e8 3a
       -0.040023778 0.043939926 0.03436606 0.0017728148
000260 67 d7 03 3d d1 48 d6 3c 7b c1 ec bb ba 51 04 bd
       0.032187846 0.026157768 -0.007225213 -0.032304503
000270 c4 ad 00 bd e8 19 4b bc 5b fa ed 3c b9 8f 07 bc
       -0.031415716 -0.012396313 0.029050043 -0.008274012
000280 21 fc de bc d6 c8 4b bd 20 01 69 3d bf bd 20 bd
       -0.027219834 -0.04975208 0.05688584 -0.039243456
000290 46 c7 87 bd ce 25 31 bd 37 c6 c9 3c bb f6 fa bc
       -0.06629805 -0.043248944 0.024630649 -0.030635228
0002a0 a9 93 5f 3d f9 d3 a6 3d 3e 65 c1 3c c3 37 b3 3a
       0.05458418 0.08145899 0.023607846 0.0013673234
0002b0 ef 6a d7 bc d4 12 4f 3c ca 23 06 3d f6 c4 3f 3c
       -0.026296107 0.012638766 0.032748975 0.011704674
0002c0 8c da 4a b9 60 4f 14 bc 76 cf 5a bb 7b fd f5 bb
       -0.00019345636 -0.009052128 -0.0033387817 -0.007507024
0002d0 12 d4 17 3c 09 19 80 bc dd 3c 07 3d 99 7f 94 3c
       0.00926687 -0.015636938 0.033017028 0.01812725
0002e0 23 af 9a bc 7d aa 8a 3d d0 b7 ef bb 35 08 83 3d
       -0.01888234 0.06770799 -0.0073156133 0.0639805
0002f0 a3 d2 ba bb df a9 2c 3c 0a 40 f5 3c 86 8a 60 bd
       -0.0057013794 0.010538547 0.029937763 -0.054819606
000300 28 c4 90 bc 51 f8 a7 3c 57 4b aa bc af 12 b6 3c
       -0.01767166 0.020504149 -0.020787878 0.022225706
000310 2c e4 0d bd 3b 6d 29 bb ee df 3f bd d2 a4 9f 3b
       -0.03464143 -0.002585246 -0.046844415 0.004871943
000320 51 86 9a 3c fb 1d 5e bd fc c7 9c bb 8e 19 b8 bb
       0.018862875 -0.05422781 -0.004784582 -0.0056182807
000330 8d 29 30 3c 1f 31 ad 39 df 9d 2b 3c d2 2d 26 bd
       0.010752094 0.0003303373 0.010474651 -0.04057104
000340 82 79 98 3c 0e 83 52 bc 0f 0a 15 3d 73 48 f2 3c
       0.018612627 -0.012848629 0.036386546 0.029575562
000350 56 4c 03 bd df 57 86 bb 3d 20 e5 bc 5e dd 30 bd
       -0.03205522 -0.0040998305 -0.027969474 -0.043179862
000360 52 a8 0f 3d b4 37 23 3c 6e 27 37 bd 9f 28 88 3c
       0.035072632 0.009962011 -0.044715337 0.016620932
000370 ec d4 a0 3c c6 63 4d bd 5b 4e bf b9 22 e2 52 3d
       0.019632779 -0.05014398 -0.00036488738 0.05148519
000380 00 c3 c9 bc e7 fb fd 3c 8d a4 6d bb 25 50 97 3c
       -0.024629116 0.031003905 -0.003626141 0.018470833
000390 dd 05 0f bd a5 99 36 bd 0d 64 c2 3c d0 86 c6 bc
       -0.0349177 -0.04458012 0.023729349 -0.024234205
0003a0 fb c2 63 bd 05 3f 8e bd 5e 44 70 bc ac 17 13 bd
       -0.05560587 -0.06945614 -0.0146647375 -0.035911247
0003b0 b8 03 9a bb 65 4b 11 3d 15 e0 b3 bc 15 87 1c bd
       -0.0047001503 0.035472292 -0.021957437 -0.03821476
0003c0 11 c6 ea 3c fc 37 2e 3c c7 a2 c0 3a f9 70 ad 3c
       0.028658899 0.010633465 0.0014696949 0.021172034
0003d0 97 41 67 3c 0f a7 d5 bb 88 45 a0 3c 27 fa 6f bc
       0.014114759 -0.006520159 0.019564405 -0.014647043
0003e0 91 dc 05 3c 3a d1 ba bc bf e0 09 3b 75 14 8f bc
       0.008170263 -0.022804845 0.00210385 -0.01746581
0003f0 2a cb d9 3c cf 8d 9f 3b 7a 5f 91 bd 19 25 4b 3c
       0.026586134 0.0048692 -0.07098289 0.0123989815

action_model._continuous_distribution.mu.bias f4 [5]
000000 4d 1c 18 bb ce 15 91 bb 9b 84 0e bb 4e fd 03 bc
       -0.0023210228 -0.004427648 -0.002174652 -0.008055998
000010 d3 1f 21 bc
       -0.009834248

exp_avg f4 [128, 128]
000000 00 00 00 00 00 00 00 00 37 a1 2e b4 98 af b0 37
       0.0 0.0 -1.6263662e-07 2.1062602e-05
000010 00 00 00 00 00 00 00 00 a6 4e 8f 37 c3 8c e8 37
       0.0 0.0 1.7083552e-05 2.7722102e-05
000020 00 00 00 00 00 00 00 00 32 21 4d 37 c7 a0 f5 37
       0.0 0.0 1.2226681e-05 2.9281144e-05
000030 00 00 00 00 00 00 00 00 d7 9e 10 38 08 03 04 38
       0.0 0.0 3.4480207e-05 3.1474076e-05
000040 00 00 00 00 00 00 00 00 f9 b9 59 37 6c 1e 14 38
       0.0 0.0 1.2977508e-05 3.5314282e-05
000050 00 00 00 00 00 00 00 00 b4 b7 50 38 f5 df 1f 38
       0.0 0.0 4.976215e-05 3.811713e-05
000060 00 00 00 00 00 00 00 00 b4 b7 50 38 f5 df 1f 38
       0.0 0.0 4.976215e-05 3.811713e-05
000070 99 2a 14 38 d4 e7 be 37 00 00 00 00 24 26 bc b8
       3.5325622e-05 2.2757718e-05 0.0 -8.971643e-05
000080 6a f8 29 b5 00 00 00 00 00 00 00 00 00 00 00 00
       -6.3318896e-07 0.0 0.0 0.0
000090 00 00 00 00 00 00 00 00 00 00 00 00 00 00 00 00
       0.0 0.0 0.0 0.0
0000a0 00 00 00 00 00 00 00 00 00 00 00 00 00 00 00 00
       0.0 0.0 0.0 0.0
0000b0 00 00 00 00 00 00 00 00 00 00 00 00 00 00 00 00
       0.0 0.0 0.0 0.0
0000c0 00 00 00 00 00 00 00 00 00 00 00 00 00 00 00 00
       0.0 0.0 0.0 0.0
0000d0 00 00 00 00 00 00 00 00 00 00 00 00 00 00 00 00
       0.0 0.0 0.0 0.0
0000e0 00 00 00 00 00 00 00 00 00 00 00 00 00 00 00 00
       0.0 0.0 0.0 0.0
0000f0 00 00 00 00 00 00 00 00 00 00 00 00 00 00 00 00
       0.0 0.0 0.0 0.0
000100 00 00 00 00 00 00 00 00 00 00 00 00 00 00 00 00
       0.0 0.0 0.0 0.0
000110 00 00 00 00 00 00 00 00 00 00 00 00 00 00 00 00
       0.0 0.0 0.0 0.0
000120 00 00 00 00 00 00 00 00 00 00 00 00 00 00 00 00
       0.0 0.0 0.0 0.0
000130 00 00 00 00 00 00 00 00 00 00 00 00 00 00 00 00
       0.0 0.0 0.0 0.0
000140 00 00 00 00 00 00 00 00 00 00 00 00 00 00 00 00
       0.0 0.0 0.0 0.0
000150 00 00 00 00 00 00 00 00 00 00 00 00 00 00 00 00
       0.0 0.0 0.0 0.0
000160 00 00 00 00 00 00 00 00 00 00 00 00 00 00 00 00
       0.0 0.0 0.0 0.0
000170 00 00 00 00 00 00 00 00 00 00 00 00 00 00 00 00
       0.0 0.0 0.0 0.0
000180 00 00 00 00 00 00 00 00 00 00 00 00 00 00 00 00
       0.0 0.0 0.0 0.0
000190 00 00 00 00 00 00 00 00 00 00 00 00 00 00 00 00
       0.0 0.0 0.0 0.0
0001a0 00 00 00 00 00 00 00 00 00 00 00 00 00 00 00 00
       0.0 0.0 0.0 0.0
0001b0 00 00 00 00 00 00 00 00 00 00 00 00 00 00 00 00
       0.0 0.0 0.0 0.0
0001c0 00 00 00 00 00 00 00 00 00 00 00 00 00 00 00 00
       0.0 0.0 0.0 0.0
0001d0 00 00 00 00 00 00 00 00 00 00 00 00 00 00 00 00
       0.0 0.0 0.0 0.0
0001e0 00 00 00 00 00 00 00 00 00 00 00 00 00 00 00 00
       0.0 0.0 0.0 0.0
0001f0 00 00 00 00 00 00 00 00 00 00 00 00 00 00 00 00
       0.0 0.0 0.0 0.0
000200 00 00 00 00 00 00 00 00 59 2d 24 b8 2e 70 8e b8
       0.0 0.0 -3.914288e-05 -6.791983e-05
000210 00 00 00 00 00 00 00 00 04 9d 8d b8 d1 92 af b8
       0.0 0.0 -6.7526504e-05 -8.371997e-05
000220 00 00 00 00 00 00 00 00 eb 68 5e b8 82 ad b4 b8
       0.0 0.0 -5.3026637e-05 -8.615387e-05
000230 00 00 00 00 00 00 00 00 7a fd b9 b8 ab 58 b5 b8
       0.0 0.0 -8.868701e-05 -8.647268e-05
000240 00 00 00 00 00 00 00 00 7c 37 96 b8 1c a0 bb b8
       0.0 0.0 -7.162892e-05 -8.9466776e-05
000250 00 00 00 00 00 00 00 00 8f da b8 b8 d6 c3 b2 b8
       0.0 0.0 -8.8145134e-05 -8.524179e-05
000260 00 00 00 00 00 00 00 00 8f da b8 b8 d6 c3 b2 b8
       0.0 0.0 -8.8145134e-05 -8.524179e-05
000270 8b 28 20 38 3f 8b 4d b8 00 00 00 00 d3 ce 05 39
       3.818473e-05 -4.900549e-05 0.0 0.00012760916
000280 4a 15 47 b8 00 00 00 00 00 00 00 00 00 00 00 00
       -4.7465124e-05 0.0 0.0 0.0
000290 00 00 00 00 00 00 00 00 00 00 00 00 00 00 00 00
       0.0 0.0 0.0 0.0
0002a0 00 00 00 00 00 00 00 00 00 00 00 00 00 00 00 00
       0.0 0.0 0.0 0.0
0002b0 00 00 00 00 00 00 00 00 00 00 00 00 00 00 00 00
       0.0 0.0 0.0 0.0
0002c0 00 00 00 00 00 00 00 00 00 00 00 00 00 00 00 00
       0.0 0.0 0.0 0.0
0002d0 00 00 00 00 00 00 00 00 00 00 00 00 00 00 00 00
       0.0 0.0 0.0 0.0
0002e0 00 00 00 00 00 00 00 00 00 00 00 00 00 00 00 00
       0.0 0.0 0.0 0.0
0002f0 00 00 00 00 00 00 00 00 00 00 00 00 00 00 00 00
       0.0 0.0 0.0 0.0
000300 00 00 00 00 00 00 00 00 00 00 00 00 00 00 00 00
       0.0 0.0 0.0 0.0
000310 00 00 00 00 00 00 00 00 00 00 00 00 00 00 00 00
       0.0 0.0 0.0 0.0
000320 00 00 00 00 00 00 00 00 00 00 00 00 00 00 00 00
       0.0 0.0 0.0 0.0
000330 00 00 00 00 00 00 00 00 00 00 00 00 00 00 00 00
       0.0 0.0 0.0 0.0
000340 00 00 00 00 00 00 00 00 00 00 00 00 00 00 00 00
       0.0 0.0 0.0 0.0
000350 00 00 00 00 00 00 00 00 00 00 00 00 00 00 00 00
       0.0 0.0 0.0 0.0
000360 00 00 00 00 00 00 00 00 00 00 00 00 00 00 00 00
       0.0 0.0 0.0 0.0
000370 00 00 00 00 00 00 00 00 00 00 00 00 00 00 00 00
       0.0 0.0 0.0 0.0
000380 00 00 00 00 00 00 00 00 00 00 00 00 00 00 00 00
       0.0 0.0 0.0 0.0
000390 00 00 00 00 00 00 00 00 00 00 00 00 00 00 00 00
       0.0 0.0 0.0 0.0
0003a0 00 00 00 00 00 00 00 00 00 00 00 00 00 00 00 00
       0.0 0.0 0.0 0.0
0003b0 00 00 00 00 00 00 00 00 00 00 00 00 00 00 00 00
       0.0 0.0 0.0 0.0
0003c0 00 00 00 00 00 00 00 00 00 00 00 00 00 00 00 00
       0.0 0.0 0.0 0.0
0003d0 00 00 00 00 00 00 00 00 00 00 00 00 00 00 00 00
       0.0 0.0 0.0 0.0
0003e0 00 00 00 00 00 00 00 00 00 00 00 00 00 00 00 00
       0.0 0.0 0.0 0.0
0003f0 00 00 00 00 00 00 00 00 00 00 00 00 00 00 00 00
       0.0 0.0 0.0 0.0

exp_avg_sq f4 [128, 128]
000000 00 00 00 00 00 00 00 00 c6 a5 33 32 01 0a 48 32
       0.0 0.0 1.0456864e-08 1.1643807e-08
000010 00 00 00 00 00 00 00 00 fb 5f 49 32 d7 07 4f 32
       0.0 0.0 1.1721563e-08 1.2050768e-08
000020 00 00 00 00 00 00 00 00 39 f4 3f 32 fd 14 4a 32
       0.0 0.0 1.1173193e-08 1.176272e-08
000030 00 00 00 00 00 00 00 00 2b 3c 53 32 60 64 52 32
       0.0 0.0 1.2295497e-08 1.2246431e-08
000040 00 00 00 00 00 00 00 00 f4 31 44 32 9d 9f 4c 32
       0.0 0.0 1.142006e-08 1.1910655e-08
000050 00 00 00 00 00 00 00 00 77 f9 53 32 16 6c 54 32
       0.0 0.0 1.2338538e-08 1.23646e-08
000060 00 00 00 00 00 00 00 00 77 f9 53 32 16 6c 54 32
       0.0 0.0 1.2338538e-08 1.23646e-08
000070 56 ca 10 33 78 54 cb 32 00 00 00 00 b4 ce 23 33
       3.3711636e-08 2.3670722e-08 0.0 3.813939e-08
000080 e5 b9 81 33 00 00 00 00 00 00 00 00 00 00 00 00
       6.0408446e-08 0.0 0.0 0.0
000090 00 00 00 00 00 00 00 00 00 00 00 00 00 00 00 00
       0.0 0.0 0.0 0.0
0000a0 00 00 00 00 00 00 00 00 00 00 00 00 00 00 00 00
       0.0 0.0 0.0 0.0
0000b0 00 00 00 00 00 00 00 00 00 00 00 00 00 00 00 00
       0.0 0.0 0.0 0.0
0000c0 00 00 00 00 00 00 00 00 00 00 00 00 00 00 00 00
       0.0 0.0 0.0 0.0
0000d0 00 00 00 00 00 00 00 00 00 00 00 00 00 00 00 00
       0.0 0.0 0.0 0.0
0000e0 00 00 00 00 00 00 00 00 00 00 00 00 00 00 00 00
       0.0 0.0 0.0 0.0
0000f0 00 00 00 00 00 00 00 00 00 00 00 00 00 00 00 00
       0.0 0.0 0.0 0.0
000100 00 00 00 00 00 00 00 00 00 00 00 00 00 00 00 00
       0.0 0.0 0.0 0.0
000110 00 00 00 00 00 00 00 00 00 00 00 00 00 00 00 00
       0.0 0.0 0.0 0.0
000120 00 00 00 00 00 00 00 00 00 00 00 00 00 00 00 00
       0.0 0.0 0.0 0.0
000130 00 00 00 00 00 00 00 00 00 00 00 00 00 00 00 00
       0.0 0.0 0.0 0.0
000140 00 00 00 00 00 00 00 00 00 00 00 00 00 00 00 00
       0.0 0.0 0.0 0.0
000150 00 00 00 00 00 00 00 00 00 00 00 00 00 00 00 00
       0.0 0.0 0.0 0.0
000160 00 00 00 00 00 00 00 00 00 00 00 00 00 00 00 00
       0.0 0.0 0.0 0.0
000170 00 00 00 00 00 00 00 00 00 00 00 00 00 00 00 00
       0.0 0.0 0.0 0.0
000180 00 00 00 00 00 00 00 00 00 00 00 00 00 00 00 00
       0.0 0.0 0.0 0.0
000190 00 00 00 00 00 00 00 00 00 00 00 00 00 00 00 00
       0.0 0.0 0.0 0.0
0001a0 00 00 00 00 00 00 00 00 00 00 00 00 00 00 00 00
       0.0 0.0 0.0 0.0
0001b0 00 00 00 00 00 00 00 00 00 00 00 00 00 00 00 00
       0.0 0.0 0.0 0.0
0001c0 00 00 00 00 00 00 00 00 00 00 00 00 00 00 00 00
       0.0 0.0 0.0 0.0
0001d0 00 00 00 00 00 00 00 00 00 00 00 00 00 00 00 00
       0.0 0.0 0.0 0.0
0001e0 00 00 00 00 00 00 00 00 00 00 00 00 00 00 00 00
       0.0 0.0 0.0 0.0
0001f0 00 00 00 00 00 00 00 00 00 00 00 00 00 00 00 00
       0.0 0.0 0.0 0.0
000200 00 00 00 00 00 00 00 00 70 1e 7d 31 12 de 92 31
       0.0 0.0 3.6833647e-09 4.2744057e-09
000210 00 00 00 00 00 00 00 00 d4 b4 8c 31 23 1d 96 31
       0.0 0.0 4.095094e-09 4.368887e-09
000220 00 00 00 00 00 00 00 00 4a 55 94 31 44 aa 9c 31
       0.0 0.0 4.317063e-09 4.5595545e-09
000230 00 00 00 00 00 00 00 00 29 fd 95 31 d7 ff 97 31
       0.0 0.0 4.3652517e-09 4.423764e-09
000240 00 00 00 00 00 00 00 00 83 f6 95 31 f8 10 9d 31
       0.0 0.0 4.364496e-09 4.5712305e-09
000250 00 00 00 00 00 00 00 00 48 18 98 31 60 fd 9c 31
       0.0 0.0 4.4265427e-09 4.569003e-09
000260 00 00 00 00 00 00 00 00 48 18 98 31 60 fd 9c 31
       0.0 0.0 4.4265427e-09 4.569003e-09
000270 57 b0 24 32 8e ca 32 32 00 00 00 00 5e 51 80 32
       9.586151e-09 1.0407019e-08 0.0 1.4938163e-08
000280 13 12 db 32 00 00 00 00 00 00 00 00 00 00 00 00
       2.5503175e-08 0.0 0.0 0.0
000290 00 00 00 00 00 00 00 00 00 00 00 00 00 00 00 00
       0.0 0.0 0.0 0.0
0002a0 00 00 00 00 00 00 00 00 00 00 00 00 00 00 00 00
       0.0 0.0 0.0 0.0
0002b0 00 00 00 00 00 00 00 00 00 00 00 00 00 00 00 00
       0.0 0.0 0.0 0.0
0002c0 00 00 00 00 00 00 00 00 00 00 00 00 00 00 00 00
       0.0 0.0 0.0 0.0
0002d0 00 00 00 00 00 00 00 00 00 00 00 00 00 00 00 00
       0.0 0.0 0.0 0.0
0002e0 00 00 00 00 00 00 00 00 00 00 00 00 00 00 00 00
       0.0 0.0 0.0 0.0
0002f0 00 00 00 00 00 00 00 00 00 00 00 00 00 00 00 00
       0.0 0.0 0.0 0.0
000300 00 00 00 00 00 00 00 00 00 00 00 00 00 00 00 00
       0.0 0.0 0.0 0.0
000310 00 00 00 00 00 00 00 00 00 00 00 00 00 00 00 00
       0.0 0.0 0.0 0.0
000320 00 00 00 00 00 00 00 00 00 00 00 00 00 00 00 00
       0.0 0.0 0.0 0.0
000330 00 00 00 00 00 00 00 00 00 00 00 00 00 00 00 00
       0.0 0.0 0.0 0.0
000340 00 00 00 00 00 00 00 00 00 00 00 00 00 00 00 00
       0.0 0.0 0.0 0.0
000350 00 00 00 00 00 00 00 00 00 00 00 00 00 00 00 00
       0.0 0.0 0.0 0.0
000360 00 00 00 00 00 00 00 00 00 00 00 00 00 00 00 00
       0.0 0.0 0.0 0.0
000370 00 00 00 00 00 00 00 00 00 00 00 00 00 00 00 00
       0.0 0.0 0.0 0.0
000380 00 00 00 00 00 00 00 00 00 00 00 00 00 00 00 00
       0.0 0.0 0.0 0.0
000390 00 00 00 00 00 00 00 00 00 00 00 00 00 00 00 00
       0.0 0.0 0.0 0.0
0003a0 00 00 00 00 00 00 00 00 00 00 00 00 00 00 00 00
       0.0 0.0 0.0 0.0
0003b0 00 00 00 00 00 00 00 00 00 00 00 00 00 00 00 00
       0.0 0.0 0.0 0.0
0003c0 00 00 00 00 00 00 00 00 00 00 00 00 00 00 00 00
       0.0 0.0 0.0 0.0
0003d0 00 00 00 00 00 00 00 00 00 00 00 00 00 00 00 00
       0.0 0.0 0.0 0.0
0003e0 00 00 00 00 00 00 00 00 00 00 00 00 00 00 00 00
       0.0 0.0 0.0 0.0
0003f0 00 00 00 00 00 00 00 00 00 00 00 00 00 00 00 00
       0.0 0.0 0.0 0.0

exp_avg f4 [128]
000000 6f 29 0f 38 ab 38 b7 b8 4d 9e f0 b7 2b bc b5 b8
       3.4132445e-05 -8.736675e-05 -2.8683944e-05 -8.6658016e-05
000010 dc 0b 1c 38 02 ab 97 37 85 8f f7 36 08 07 3b b7
       3.7204343e-05 1.8080234e-05 7.3778815e-06 -1.1147706e-05
000020 50 a4 06 b7 97 9a 4f b8 3e dd 2d 38 70 6d af 37
       -8.025279e-06 -4.949662e-05 4.1452462e-05 2.0912586e-05
000030 1a af ab 37 7d f9 c6 b5 52 54 56 b8 de 59 bf b7
       2.0466327e-05 -1.482476e-06 -5.1100105e-05 -2.2810822e-05
000040 13 dd 12 37 b9 a3 1c 38 b3 13 e1 b7 95 01 01 b9
       8.753751e-06 3.7345777e-05 -2.6831263e-05 -0.00012302988
000050 9c 26 23 37 a5 14 45 b8 37 52 6c b8 a0 f1 69 b8
       9.7245465e-06 -4.6987687e-05 -5.6343353e-05 -5.577656e-05
000060 25 c6 49 35 ff 87 52 b8 28 8b 93 b7 9e 62 bd b7
       7.5166673e-07 -5.0194558e-05 -1.7588565e-05 -2.2576478e-05
000070 81 82 93 b8 84 2c 4e b7 e6 c9 f9 34 43 c3 a7 37
       -7.0338145e-05 -1.2288921e-05 4.6526765e-07 1.9998877e-05
000080 1b 82 0f b8 ca 8c 46 b6 0c c9 e1 b5 42 0a 91 37
       -3.4215027e-05 -2.958625e-06 -1.6822319e-06 1.7290124e-05
000090 8f 93 0b 36 48 bc 52 b7 08 f6 e9 b7 06 b4 07 38
       2.0798504e-06 -1.2560813e-05 -2.7890332e-05 3.2354168e-05
0000a0 b8 1b 0f 38 b2 df 12 b8 c9 57 70 38 a9 13 a1 36
       3.4119672e-05 -3.5017445e-05 5.7302215e-05 4.8004626e-06
0000b0 ba b1 53 38 f3 d9 a8 38 41 1b 40 b7 9a cd d5 b7
       5.047184e-05 8.0514605e-05 -1.1450437e-05 -2.548732e-05
0000c0 a9 d4 b5 38 f3 3c 15 38 38 b7 85 b8 fd 81 9a b7
       8.6703636e-05 3.558113e-05 -6.376061e-05 -1.8418761e-05
0000d0 73 41 8b b7 3f d0 44 b8 b2 a5 48 b8 59 34 76 37
       -1.6600568e-05 -4.6923986e-05 -4.783803e-05 1.4674931e-05
0000e0 d8 5f bd b7 9f da 35 b6 72 90 df b8 aa e4 37 38
       -2.2575186e-05 -2.7098356e-06 -0.00010660374 4.384356e-05
0000f0 b3 25 5b 35 20 39 05 b8 57 d3 49 36 e3 06 f8 37
       8.1638717e-07 -3.1762873e-05 3.007435e-06 2.956711e-05
000100 90 2b 52 b8 03 1c 95 36 b8 8c 92 38 1c e6 28 b8
       -5.0108472e-05 4.443807e-06 6.9880334e-05 -4.0268627e-05
000110 49 81 b1 b7 64 90 a6 37 7d d7 74 36 98 ba 07 37
       -2.1160247e-05 1.985598e-05 3.6484264e-06 8.090072e-06
000120 e7 8b d8 b7 e7 13 26 b8 03 1d 0a b7 c5 ec 64 37
       -2.5814354e-05 -3.959602e-05 -8.232196e-06 1.3644986e-05
000130 1a bd 84 37 60 da 33 b8 d5 34 81 37 89 da ab b6
       1.5823683e-05 -4.2880303e-05 1.54026e-05 -5.121638e-06
000140 90 6d 5c 37 a6 73 86 b7 a3 6a a4 36 2d 5f 06 b8
       1.3138531e-05 -1.6027898e-05 4.899995e-06 -3.203673e-05
000150 04 4a e1 37 22 b5 30 37 86 71 70 b3 30 c6 e6 b6
       2.6856556e-05 1.0532591e-05 -5.5982603e-08 -6.877606e-06
000160 78 43 39 38 a5 16 82 37 91 17 19 b7 e3 9b 06 b8
       4.4170272e-05 1.5507752e-05 -9.124998e-06 -3.209327e-05
000170 4c 0f 05 b9 ab 08 be 36 a9 61 c2 b7 01 ff 51 b8
       -0.00012689567 5.6634503e-06 -2.3172079e-05 -5.0066974e-05
000180 ce 07 80 b7 df e8 87 b7 04 93 81 36 e2 99 6e b7
       -1.5262423e-05 -1.6201693e-05 3.8616145e-06 -1.4221734e-05
000190 7c ce 6a 38 6c 12 70 b8 41 dc f0 37 20 7d a5 b6
       5.598225e-05 -5.7237616e-05 2.8712793e-05 -4.9319497e-06
0001a0 0e c8 23 38 97 f1 0b b7 e6 5b e4 b7 16 56 16 38
       3.9048544e-05 -8.341295e-06 -2.7222512e-05 3.584296e-05
0001b0 49 cb ac b6 49 bc fa 35 0f 58 d3 35 68 47 1b b8
       -5.149665e-06 1.868125e-06 1.5746353e-06 -3.7021382e-05
0001c0 be f2 9f 36 14 95 f8 b6 34 5d e0 b7 3c 9e dd b7
       4.766828e-06 -7.408331e-06 -2.6746282e-05 -2.6418937e-05
0001d0 e1 8c c8 37 ea 64 e6 36 9c ea d7 b8 ed 2a 6b b8
       2.390746e-05 6.866282e-06 -0.00010295698 -5.6068344e-05
0001e0 dc 4b 86 b8 d1 b0 80 38 e5 dd a3 b8 88 de 45 38
       -6.403748e-05 6.13645e-05 -7.813777e-05 4.717571e-05
0001f0 62 80 7d b7 52 56 fe 37 b5 a8 ed 37 4f 57 d7 b7
       -1.5109867e-05 3.0319356e-05 2.8331162e-05 -2.5670653e-05

exp_avg_sq f4 [128]
000000 38 32 58 32 b3 f1 a3 31 71 64 f1 31 21 01 41 32
       1.2584273e-08 4.7714024e-09 7.025442e-09 1.1234335e-08
000010 a3 28 8e 32 fd de 4a 31 db 1f 20 32 a3 26 78 30
       1.6549455e-08 2.9521623e-09 9.320469e-09 9.027678e-10
000020 6d 38 48 32 c0 2c a6 31 7f c9 a7 31 ae a2 5a 32
       1.1654362e-08 4.8363233e-09 4.883247e-09 1.2726259e-08
000030 3a 98 1f 33 99 91 ee 30 aa d1 a4 32 f2 96 b3 31
       3.715852e-08 1.735816e-09 1.9187457e-08 5.226746e-09
000040 55 80 02 30 49 36 40 31 75 5a 13 32 61 07 75 32
       4.7476095e-10 2.7970535e-09 8.577094e-09 1.4262555e-08
000050 56 df 6f 32 53 4f 97 31 21 6b 8b 31 d1 34 3b 32
       1.3962412e-08 4.4036965e-09 4.0576116e-09 1.0896842e-08
000060 12 ae d9 31 8f 88 01 32 4a cc d2 32 dd d4 02 32
       6.3353207e-09 7.539838e-09 2.4540117e-08 7.615395e-09
000070 07 81 dd 31 fd 85 91 31 81 e1 3a 32 23 2e 99 31
       6.4466152e-09 4.235288e-09 1.0877899e-08 4.458131e-09
000080 33 59 2a 32 bf 50 ab 31 db a8 10 33 0c 56 c9 2f
       9.915584e-09 4.9859348e-09 3.3681186e-08 3.6622827e-10
000090 bb df d7 30 7b 30 3a 31 82 4f 5a 32 ae 8a 24 32
       1.5706897e-09 2.709412e-09 1.2707348e-08 9.5775885e-09
0000a0 4d 6c 96 32 a3 7b fe 31 90 55 85 32 49 04 95 2e
       1.7511548e-08 7.406429e-09 1.5522147e-08 6.776497e-11
0000b0 bb 57 35 31 08 32 77 32 52 42 84 31 d9 95 75 32
       2.6388836e-09 1.4388668e-08 3.8492454e-09 1.4294948e-08
0000c0 c5 cd 28 32 ea 4f a8 31 94 a9 12 31 4d f6 86 31
       9.825674e-09 4.8985287e-09 2.134219e-09 3.9279144e-09
0000d0 51 ba d6 31 3a d1 91 32 ae 71 c3 31 64 60 14 31
       6.2494014e-09 1.6975367e-08 5.688171e-09 2.1591626e-09
0000e0 6d 81 7a 32 99 3c 9e 30 aa 7a 87 32 3e 73 52 32
       1.4581343e-08 1.1513236e-09 1.577185e-08 1.2249812e-08
0000f0 e4 1d a5 31 74 c1 85 31 7a b5 43 31 df 23 ec 31
       4.80553e-09 3.8928025e-09 2.8479392e-09 6.872582e-09
000100 1a 19 82 33 ce 8d 95 31 d1 1b 2f 32 11 4c e9 30
       6.058163e-08 4.352592e-09 1.0192665e-08 1.6974601e-09
000110 17 2d 14 32 30 f1 d2 31 b0 9f b4 30 e9 5f 38 31
       8.624986e-09 6.1392242e-09 1.314211e-09 2.6830043e-09
000120 7a 32 6a 32 48 0f da 31 dd 07 9e 31 69 9e f6 31
       1.363207e-08 6.3463723e-09 4.599299e-09 7.1775514e-09
000130 4b d1 c9 31 bf c5 37 32 e9 77 8a 32 c0 3c 2d 32
       5.8736638e-09 1.0696964e-08 1.6119843e-08 1.0083738e-08
000140 eb 2e a1 31 c7 81 9a 32 ee 2e 1f 32 2c 90 0f 32
       4.6910507e-09 1.7986975e-08 9.265689e-09 8.356476e-09
000150 47 07 61 32 f6 15 b6 30 77 c8 6c 30 39 71 df 30
       1.3098378e-08 1.3248485e-09 8.614118e-10 1.6257565e-09
000160 44 a4 1b 31 a1 b7 a2 31 53 b1 0b 32 25 24 e5 31
       2.2648843e-09 4.7356967e-09 8.131184e-09 6.6688863e-09
000170 22 4f e3 32 bb 45 97 31 da 55 27 31 08 b3 ce 32
       2.6462263e-08 4.402606e-09 2.43505e-09 2.406297e-08
000180 5a 77 95 30 e7 a5 fb 30 de 3b 46 31 e2 f9 b0 31
       1.0875099e-09 1.8309806e-09 2.8846823e-09 5.1506825e-09
000190 9b d2 82 32 49 69 e1 31 5d f8 33 33 e9 7d bf 30
       1.5229764e-08 6.5603314e-09 4.190257e-08 1.3932865e-09
0001a0 0b 81 44 33 e8 25 95 30 3d ca 85 31 ae bd cc 32
       4.575217e-08 1.085195e-09 3.8938013e-09 2.3834982e-08
0001b0 10 89 27 31 27 76 03 32 7a e2 bc 2e 19 c8 1d 31
       2.437961e-09 7.652068e-09 8.5894805e-11 2.296025e-09
0001c0 98 0b a4 2f 4c 4a d6 2f 38 97 71 31 e4 ab 85 31
       2.9839664e-10 3.8979164e-10 3.5156074e-09 3.890351e-09
0001d0 75 9d 07 32 8c e6 f7 31 1e 17 2c 32 5d cb 40 31
       7.893836e-09 7.2148563e-09 1.0016974e-08 2.8055276e-09
0001e0 91 01 84 32 0e 4d 97 32 36 34 1d 32 9e 6c ed 31
       1.5367535e-08 1.7613754e-08 9.150474e-09 6.909956e-09
0001f0 81 50 f9 32 f5 c6 b7 30 ac a6 28 31 64 c5 89 31
       2.9024024e-08 1.3371549e-09 2.454196e-09 4.0096655e-09
