results/FoodTarget_imitation_6/AgentPlayer/AgentPlayer-6615.onnx (onnx, 150287 bytes, 15 tensors)

action_model._discrete_distribution.branches.0.bias f4 [5]
0	0x00000000	0.0
1	0x00000000	0.0
2	0x00000000	0.0
3	0x00000000	0.0
4	0x00000000	0.0

action_model._discrete_distribution.branches.0.weight f4 [5, 128]
0	0xbb610ccb	-0.00343399
1	0xbc1832e1	-0.009289474
2	0xbc1b0544	-0.009461705
3	0x3b898fa3	0.004198031
4	0x3bcefe33	0.006316924
5	0xba61e878	-0.00086177094
6	0xbbbd8325	-0.005783456
7	0xbbb3619f	-0.005474284
8	0xba953fdf	-0.0011386833
9	0xbc4027d3	-0.011728245
10	0x3b59fb15	0.0033261229
11	0x3b2181fa	0.0024644122
12	0x3b22e780	0.0024857223
13	0x3c7ce32f	0.015435024
14	0x3b6ff148	0.003661232
15	0xbc278b9b	-0.010226156
16	0x3c31d505	0.0108540105
17	0xbc5a0b20	-0.0133083165
18	0x3bde7528	0.0067888685
19	0x3c51ef95	0.012813468
20	0xbc8448cf	-0.016148
21	0xbc3a8744	-0.011384789
22	0xbc34b3db	-0.011029209
23	0xbb883000	-0.0041561127
24	0x3b88001d	0.004150404
25	0x3a8081ca	0.0009804305
26	0x3c27b212	0.010235326
27	0xbc3e6341	-0.011620344
28	0xbbaeb2e3	-0.0053313836
29	0x3c1acecc	0.009448718
30	0xbb16f6d1	-0.0023035298
31	0x3c00a3b9	0.0078515345
32	0xbc4fd5e3	-0.012685272
33	0x3c2ac5a1	0.010423095
34	0xbbebb6d7	-0.007193427
35	0xbb2108df	-0.0024571938
36	0x3c91ffa0	0.017822087
37	0x3c0cf89f	0.008604198
38	0x3bd1d1f7	0.0064032036
39	0x3b6556f0	0.0034994446
40	0x3c162d5f	0.009166091
41	0xbb9ee46b	-0.004849007
42	0xbc6ea2da	-0.014565194
43	0x3c3a44af	0.0113689145
44	0x3ac2f51b	0.0014874073
45	0x3b9eee78	0.004850205
46	0x3b89e014	0.0042076204
47	0x3baab437	0.0052094716
48	0x3c11075d	0.008851853
49	0x3c3baa06	0.011454111
50	0x3bdfebda	0.0068335356
51	0xbb42f699	-0.0029749034
52	0xbc112e4f	-0.0088611385
53	0xbad0d82f	-0.0015933568
54	0x3bae74c7	0.0053239795
55	0xbc8f1daf	-0.017470209
56	0xba201e23	-0.00061080063
57	0xbc1afba3	-0.009459409
58	0xbc5d3d7d	-0.0135034295
59	0x3b759405	0.003747226
60	0xbc8abb27	-0.016934944
61	0x3a2700ff	0.0006370693
62	0xbc05407b	-0.008133049
63	0x3c6b9502	0.014378788
64	0xbc5a16a7	-0.013311065
65	0x3abfd04b	0.001463422
66	0x3c1e5021	0.009662659
67	0xbbf42fc2	-0.0074519822
68	0xbb0820f7	-0.0020771602
69	0xbbdc1b05	-0.006717088
70	0xbc072284	-0.008247975
71	0x3b915442	0.004435093
72	0xbbd5eb68	-0.0065283068
73	0xbbdb76b8	-0.006697502
74	0x3a0cb8ac	0.00053680944
75	0x3ccaafd8	0.024742052
76	0xba9f5e2e	-0.0012158805
77	0x3b43630b	0.0029813673
78	0x3a974c0f	0.0011543053
79	0x3b82a2b2	0.00398668
80	0x3bf6fc3f	0.0075373943
81	0xbb9dcfab	-0.0048160157
82	0x3c41a528	0.0118191615
83	0xbbfe14ea	-0.007753958
84	0x3c518be3	0.012789699
85	0x3cae1740	0.02125132
86	0x3bbd5183	0.005777539
87	0xbbf1d0cf	-0.0073796283
88	0xbb6c9223	-0.0036097846
89	0xbba09d0c	-0.004901534
90	0xbbcf812f	-0.0063325386
91	0xbb84fc91	-0.0040584286
92	0x3a6aaf0d	0.0008952476
93	0x3bbf4229	0.0058367443
94	0x3c554812	0.013017671
95	0xbb943b9c	-0.0045237076
96	0xbc2005c1	-0.009766997
97	0xbc4d562b	-0.012532751
98	0x3c358d19	0.011081004
99	0x3b608f27	0.0034265013
100	0x3bc404e1	0.005982027
101	0x3bc8002d	0.0061035366
102	0xb90226e5	-0.00012412255
103	0xbb3864f1	-0.0028136338
104	0x3b30be83	0.0026969023
105	0xbc23c858	-0.009996496
106	0xbc2ab8ae	-0.010420008
107	0xbc38f5ed	-0.011289102
108	0xbb91c088	-0.0044480003
109	0xbb6b67a2	-0.0035919924
110	0xbb92b166	-0.004476714
111	0x3c91b0be	0.017784473
112	0x3b8a1fd0	0.004215218
113	0x3a86ebcf	0.0010293665
114	0xb9949730	-0.00028341403
115	0x3c98612f	0.018601028
116	0x3b36e062	0.0027904739
117	0xbbd7cd00	-0.006585717
118	0xbbc3d555	-0.005976359
119	0xbc310ef7	-0.010806791
120	0xbc3a083c	-0.011354502
121	0xbc14bc67	-0.009078122
122	0xbbcdb3c3	-0.006277533
123	0xbaf249fd	-0.0018485185
124	0xb9c90550	-0.00038341666
125	0xbba0eadc	-0.00491081
126	0xbb8d35d3	-0.004309395
127	0xbc044979	-0.008074158
128	0x3c0039de	0.007826297
129	0x3bf1c61a	0.007378352
130	0x3a711448	0.00091964426
131	0x3b05af5b	0.002039871
132	0x3bb670d3	0.005567649
133	0xbb9fef96	-0.004880856
134	0x3b9634c8	0.0045839287
135	0x3c7f4ff3	0.015583026
136	0x3abc8e36	0.0014385644
137	0xbc3c0ca8	-0.011477627
138	0x3b8a4aed	0.0042203576
139	0xb928701c	-0.00016063493
140	0xbbd9dab5	-0.0066483864
141	0xbb3cbb70	-0.0028798245
142	0x39ce455d	0.00039343062
143	0xbc223ce7	-0.009902216
144	0xbc36bf67	-0.011154032
145	0x3ae59dcf	0.0017518344
146	0x3c386d8b	0.011256586
147	0xbc59127f	-0.013249039
148	0xba561d9b	-0.00081678637
149	0xbb2d7f56	-0.0026473603
150	0xbb2ca21f	-0.002634175
151	0x3c326d18	0.010890268
152	0x3c2e7f82	0.010650517
153	0x3a9ef9c5	0.001212888
154	0xbc055bef	-0.008139594
155	0xbbbe52ae	-0.005808196
156	0x3b27d151	0.002560694
157	0xbb0a1ff6	-0.002107618
158	0x3aa97d63	0.0012931045
159	0xbb99d76c	-0.0046948697
160	0xbc1d822a	-0.009613553
161	0xbb561ad7	-0.0032669806
162	0x3a4243d6	0.0007410621
163	0x3c28aa07	0.010294444
164	0x3c70c9e3	0.014696571
165	0x3bb1c954	0.0054256115
166	0x3c235a0d	0.0099702
167	0x3bd0de4d	0.0063741566
168	0xbc004925	-0.007829939
169	0x3c15ddff	0.009147166
170	0xbb96af81	-0.0045985584
171	0xbbabf1f2	-0.005247348
172	0xba9fbf07	-0.0012187668
173	0x3b8baa5b	0.0042622513
174	0x3bb132f8	0.0054076873
175	0x3b10adb9	0.0022076203
176	0x3bb059e4	0.0053818095
177	0x3b703b52	0.0036656451
178	0xb90ab32c	-0.00013227452
179	0xbc5b69da	-0.013391936
180	0x3bab9e28	0.0052373596
181	0x3a1e6b5e	0.00060432206
182	0xbb8962ed	-0.004192701
183	0x39474c57	0.00019006558
184	0x3ba099f7	0.0049011665
185	0xbc2aaa90	-0.010416642
186	0xbbc096c6	-0.0058773486
187	0xbc14df9b	-0.009086515
188	0xbc5699dd	-0.013098207
189	0x3b1efcfd	0.002425968
190	0xbbb56fec	-0.005537024
191	0xbc877612	-0.016535792
192	0xbc0b4de3	-0.008502456
193	0x3b98bcaa	0.0046611624
194	0x3bd6759b	0.0065447814
195	0xbb5a4827	-0.0033307166
196	0xbbe627bf	-0.007023781
197	0xbc8db603	-0.017298704
198	0xbb1b817d	-0.0023728304
199	0xbc11b4ef	-0.008893236
200	0x3a16bc62	0.0005750117
201	0x3c4acc52	0.012377815
202	0xbbf8fdbb	-0.0075986064
203	0xbb7abe5f	-0.0038260443
204	0xbbca4225	-0.006172436
205	0x3c6bc0f3	0.014389264
206	0x3bf933f2	0.0076050693
207	0xbc6851f5	-0.014179696
208	0x3c64c09b	0.013961936
209	0x3bfc9f17	0.0077093947
210	0x3b52b97f	0.0032154021
211	0xbbbecf90	-0.005823083
212	0xba2444e7	-0.0006266371
213	0x3c32cc12	0.010912912
214	0x3a4a2aaf	0.0007712049
215	0x3c1ced14	0.009578008
216	0x3a697b53	0.00089066214
217	0x3b9719b2	0.0046112174
218	0x3be51e4d	0.0069921375
219	0xbb5636ed	-0.0032686547
220	0x3c34ea1c	0.011042144
221	0x3c6cc313	0.014450806
222	0x3af4e498	0.0018683849
223	0xbb826233	-0.0039789914
224	0xba35eb8b	-0.00069397007
225	0x3b3b9820	0.002862461
226	0x3bf843dd	0.0075764493
227	0xbbeec235	-0.007286335
228	0xbc54e97d	-0.012995121
229	0xbb528d23	-0.003212758
230	0xbc105b03	-0.008810761
231	0xba52a5c8	-0.00080355676
232	0x3bf949e7	0.007607687
233	0xbaa6b5c7	-0.0012718969
234	0x3a386421	0.00070339633
235	0x3c0f3930	0.008741662
236	0x3bf4f5d3	0.0074755936
237	0xbb61c7b3	-0.0034451305
238	0x3ad0e4df	0.001593735
239	0x3b4b685a	0.003103754
240	0xbc63ac40	-0.013896048
241	0xbbe1cdcd	-0.0068909884
242	0x3a2bff74	0.0006561198
243	0xb9a6187e	-0.00031680235
244	0xbaf8a0df	-0.0018968842
245	0x3a8e9610	0.0010878462
246	0x3a9ec707	0.0012113758
247	0x3c1dd909	0.009634265
248	0x3a0c70a9	0.0005357364
249	0x3c20b4a3	0.009808692
250	0xbc39fa56	-0.011351189
251	0xbbc0c067	-0.005882311
252	0xbb1af7ff	-0.0023646352
253	0xbc9646f5	-0.018344382
254	0x3ba5fb45	0.005065354
255	0x3bcc9dc0	0.006244391

action_model._discrete_distribution.branches.1.bias f4 [5]
0	0x00000000	0.0
1	0x00000000	0.0
2	0x00000000	0.0
3	0x00000000	0.0
4	0x00000000	0.0

action_model._discrete_distribution.branches.1.weight f4 [5, 128]
0	0x3b95f9b2	0.004576885
1	0x3bb3cc88	0.0054870285
2	0xbb821aed	-0.003970495
3	0xbc24be11	-0.010055081
4	0x3c3a1e07	0.011359698
5	0xbc053419	-0.008130097
6	0x3a934ea1	0.0011238643
7	0x3b90be4f	0.004417218
8	0xbcb863e3	-0.022508567
9	0x3b9382a3	0.004501657
10	0x3a37bdd7	0.00070091843
11	0xbc0382bd	-0.008026776
12	0xbc18c1c7	-0.009323544
13	0x3bb7d2b7	0.005609836
14	0xbc6ae710	-0.014337316
15	0x3b0a0cd7	0.0021064782
16	0xbb87a0c6	-0.0041390387
17	0x3af31780	0.0018546432
18	0x3b7c44a5	0.0038493064
19	0xbc084920	-0.008318216
20	0x3bc3db36	0.0059770597
21	0x3c620dc7	0.01379723
22	0x3ca835aa	0.020533402
23	0x3c82ab48	0.015950814
24	0x3b88528d	0.0041602314
25	0xbc590622	-0.013246091
26	0x3bc8f9e7	0.0061333063
27	0xbaf2455d	-0.0018483807
28	0x3b8771b2	0.0041334266
29	0xbc525c8a	-0.012839446
30	0x3a483622	0.0007637461
31	0xbb9fb9a6	-0.004874426
32	0x3ab28f26	0.0013622984
33	0x3c5da3a3	0.013527784
34	0xbc171f3d	-0.009223756
35	0xbac0a354	-0.0014697113
36	0x3b134b73	0.002247539
37	0xbb3210b2	-0.0027170596
38	0xbbaa9da7	-0.005206782
39	0xbad03f6a	-0.001588804
40	0xbc7e7870	-0.015531644
41	0xbc3af304	-0.0114104785
42	0x3c7934a8	0.015210308
43	0xbc468dde	-0.012118785
44	0xbc5b18f2	-0.013372647
45	0xbc6d297f	-0.0144752255
46	0x3b39eba5	0.0028369215
47	0xba507040	-0.0007951297
48	0xbc7097ef	-0.014684661
49	0x3bccafea	0.0062465565
50	0xb96e989f	-0.00022754305
51	0xbab5804d	-0.0013847441
52	0xbc88ee27	-0.016715122
53	0x3aa7f863	0.0012815114
54	0x3bb436f8	0.005499717
55	0xbb1a691b	-0.0023561183
56	0x3b3f2e2d	0.002917181
57	0xbb28cf17	-0.00257582
58	0xbb2198c2	-0.00246577
59	0xbbc5dc4f	-0.0060382257
60	0x3bdb5457	0.0066934037
61	0xbc318b9f	-0.010836511
62	0xbc59e60a	-0.0132994745
63	0xbb6e4c52	-0.0036361408
64	0x3c4f9fb0	0.01267235
65	0x3bc533c8	0.0060181357
66	0xbc618e8b	-0.013766895
67	0x3be5e720	0.0070160776
68	0x3c75c867	0.015001393
69	0xbb6f797d	-0.0036540919
70	0xbc2450aa	-0.010028997
71	0x3c81c718	0.015842006
72	0x3bcdeb8d	0.0062841834
73	0xba2d7397	-0.00066166505
74	0x3b4f63ea	0.0031645247
75	0x3c3c92d0	0.011509612
76	0x3bce090d	0.0062877
77	0xbc3ce5aa	-0.011529366
78	0x3bf6164a	0.0075099813
79	0xbac86a3e	-0.0015290452
80	0xbae4e328	-0.0017462717
81	0x3b5141af	0.003193002
82	0x3aee9d55	0.0018204848
83	0x3c5d65fb	0.013513084
84	0xbb1b1255	-0.002366205
85	0x3b9d1491	0.0047937115
86	0x3c3be2b6	0.011467626
87	0xbbe3f1e7	-0.0069563272
88	0x3b434ced	0.002980049
89	0x3c4c0df7	0.012454501
90	0x3ba0e570	0.0049101636
91	0xbb6cc52b	-0.0036128263
92	0x3c987c1b	0.018613866
93	0xbc87baf6	-0.016568642
94	0x3a857cab	0.0010184249
95	0xbc1d4181	-0.009598137
96	0xbc1fe7e3	-0.009759876
97	0x3bc54938	0.0060206912
98	0x3c21be6f	0.009872063
99	0x3afc01e7	0.0019226641
100	0x3a907c6b	0.0011023408
101	0x3beb9103	0.0071889176
102	0xba1c1607	-0.000595421
103	0x3b5fa45b	0.0034125063
104	0xb8e0f95a	-0.00010727598
105	0x3c8c91ae	0.01715931
106	0x3c168d06	0.009188896
107	0x3be2950f	0.006914742
108	0x3bea8833	0.0071573495
109	0x3c951197	0.018196864
110	0x3c066a2c	0.008204024
111	0x3c3dca0e	0.011583818
112	0xbc747e2a	-0.014922658
113	0x3c208b59	0.009798848
114	0xbc322363	-0.010872695
115	0xbc26cf89	-0.010181316
116	0x3c3c7780	0.0115031
117	0xbb89528b	-0.004190748
118	0xbc2d1280	-0.010563493
119	0xbbeb841b	-0.007187379
120	0x39e74248	0.00044109137
121	0xbc291f8a	-0.010322461
122	0xbb6ded1b	-0.0036304656
123	0x3ad44332	0.0016194342
124	0x3b06a9c4	0.0020547966
125	0x3b2996c0	0.0025877208
126	0xbbc75b4f	-0.006083883
127	0x3afb44ba	0.0019170262
128	0x3c30d65b	0.010793294
129	0xbafdc4cd	-0.0019361019
130	0x3abdc229	0.001447742
131	0x3c59ac72	0.013285743
132	0xbb47ff5f	-0.0030517203
133	0xbb78093f	-0.0037847308
134	0x3bf88c40	0.0075850785
135	0x3b3566f1	0.0027679766
136	0x3c1a6980	0.009424567
137	0xb81663cc	-3.585573e-05
138	0x3c8cc65f	0.017184434
139	0x3b3d1656	0.0028852425
140	0x3bf91a2a	0.007601996
141	0xbc6cf4ab	-0.01446263
142	0xba6d1a13	-0.0009044718
143	0xbbc5129c	-0.0060141813
144	0x3b683d3f	0.0035436896
145	0xba53d118	-0.00080801686
146	0xbb976e2d	-0.0046212883
147	0x3b58f795	0.0033106555
148	0xbb8de062	-0.004329727
149	0xbc0243c5	-0.007950728
150	0xbb204eb7	-0.002446098
151	0xbb98a9b2	-0.004658901
152	0xba63717a	-0.0008676272
153	0xbc133561	-0.0089848945
154	0x3ba626e2	0.005070553
155	0xbbdb62e5	-0.0066951388
156	0xbca89f97	-0.02058391
157	0x3bf1d477	0.007380064
158	0x3c3c89b7	0.011507443
159	0xbc96e7e5	-0.018421123
160	0xba401a15	-0.0007328105
161	0xbbd6cad8	-0.0065549426
162	0xbb810997	-0.003937911
163	0xbbef1563	-0.0072962507
164	0xbae1af43	-0.001721837
165	0xbbd39eda	-0.0064581456
166	0xbc070563	-0.00824103
167	0x3c3e7fec	0.011627179
168	0x3c8b8b96	0.017034333
169	0x3bb8b8de	0.0056372723
170	0xbbdabf18	-0.006675612
171	0xbcab02f3	-0.02087543
172	0xbc0f4dde	-0.008746592
173	0x3b5bd678	0.0033544581
174	0x3c20e10e	0.009819282
175	0xbc28d442	-0.010304512
176	0xbbcfad00	-0.006337762
177	0xbb0a9471	-0.0021145607
178	0x3ca49193	0.020088946
179	0xbbe6dd63	-0.0070454343
180	0x3bf79b03	0.0075563206
181	0xbc04e28b	-0.008110653
182	0xbb99c351	-0.004692473
183	0x3c61cde8	0.013782002
184	0x3b965c17	0.0045886147
185	0x3c178983	0.009249094
186	0xbc8d3a07	-0.017239584
187	0x3b17e330	0.0023176186
188	0x3c1a17bf	0.009405076
189	0x3cae441a	0.021272708
190	0xbacaa74a	-0.0015461233
191	0xbc1d75a1	-0.009610564
192	0x3c9de993	0.019276416
193	0x3c118bed	0.008883459
194	0x3a8caec5	0.0010733238
195	0x3cacd278	0.021096453
196	0xbb07f759	-0.0020746796
197	0x3b0d0e27	0.0021523328
198	0x3b972f7c	0.004613815
199	0xbaecb6e8	-0.0018059881
200	0x3a986a0a	0.0011628282
201	0xbbe38f3f	-0.0069445665
202	0x3c136533	0.008996296
203	0xbc16242f	-0.0091639
204	0xba36a858	-0.0006967834
205	0x3b95702b	0.0045604906
206	0x3c31865d	0.010835257
207	0xbc644b7f	-0.013934015
208	0x3ba5e653	0.005062857
209	0xbcee85ed	-0.029116595
210	0x3c802d92	0.01564673
211	0x3a8f3b12	0.0010927639
212	0xbc74fbc0	-0.0149526
213	0xbb4ef300	-0.0031577945
214	0xbbec1410	-0.00720454
215	0x3c02448e	0.007950915
216	0xbbad43f7	-0.005287643
217	0x3b76efeb	0.0037679623
218	0x3ba98825	0.0051737004
219	0x3b46de68	0.0030344967
220	0x3c1f625f	0.009728043
221	0x3c9ae015	0.018905679
222	0x3aeede67	0.001822424
223	0x3bdfb51b	0.0068270094
224	0xba9d145b	-0.0011984216
225	0xb9bd0b6b	-0.00036057396
226	0xbb7b372f	-0.0038332453
227	0x3c51e14b	0.012810062
228	0xbc3a059c	-0.011353876
229	0xbb047b8d	-0.0020215244
230	0xbc90c1ce	-0.017670538
231	0x3b0a5a2f	0.0021110883
232	0xbbc2f54f	-0.005949653
233	0xbc0e2aec	-0.008677226
234	0x3c8d3d7f	0.017241238
235	0x3b3f8882	0.0029225652
236	0xbbe2226f	-0.0069010775
237	0x39a96e76	0.00032316492
238	0xbaa2ac57	-0.001241098
239	0x3b40d458	0.0029423442
240	0xbc2d2bd7	-0.010569534
241	0x3c6b7a2d	0.014372391
242	0x3bb14117	0.0054093706
243	0x3bd5aba2	0.0065207044
244	0xbc533a8b	-0.012892376
245	0x3bb297af	0.005450211
246	0x3c9df970	0.01928398
247	0xbb439760	-0.0029844865
248	0x3b2e0b5f	0.002655707
249	0xba9bc0d3	-0.0011883028
250	0x39b43c7a	0.00034377334
251	0x3c925cc9	0.017866509
252	0x3c40a4be	0.011758028
253	0xbaaf783a	-0.0013387271
254	0xbc785863	-0.015157792
255	0x3c094ecf	0.008380606

action_model._discrete_distribution.branches.2.bias f4 [5]
0	0x00000000	0.0
1	0x00000000	0.0
2	0x00000000	0.0
3	0x00000000	0.0
4	0x00000000	0.0

action_model._discrete_distribution.branches.2.weight f4 [5, 128]
0	0xbb1d4f5f	-0.0024003608
1	0x3b52edfb	0.0032185304
2	0x3bea3497	0.0071473825
3	0x3c1e8dce	0.009677364
4	0xbb5074fb	-0.0031808007
5	0x3b9b0b42	0.0047315666
6	0xbc498310	-0.012299314
7	0x3c93f5c2	0.018061522
8	0x3b27234f	0.0025503223
9	0xbc27128f	-0.010197296
10	0xba80f72c	-0.0009839288
11	0xbb707505	-0.0036690843
12	0x3c7de925	0.0154974805
13	0xbbdd61e3	-0.006756054
14	0xbc1d2596	-0.009591481
15	0xbb8041e4	-0.003914105
16	0x3b4c0ba3	0.0031134866
17	0xbcb608d1	-0.022221
18	0x3c84d853	0.016216433
19	0x3c44fd57	0.012023292
20	0xbbb0e1a6	-0.005397993
21	0x3ca9a95f	0.020710645
22	0x39cc05f3	0.00038914345
23	0xbb66df23	-0.0035228215
24	0xbaee6333	-0.0018187523
25	0xbb832e44	-0.004003318
26	0x3c8950f4	0.016762234
27	0x3b2dbb64	0.0026509399
28	0xba9e9ff9	-0.0012102119
29	0xbc1922fa	-0.009346718
30	0x3b7a73cd	0.0038215995
31	0x39c4ad40	0.00037513115
32	0x3c85510e	0.016274001
33	0x3b73cb32	0.0037199971
34	0x3c3e3cd8	0.011611186
35	0x3bc90150	0.0061341897
36	0xbbbbae57	-0.00572757
37	0x3b33267b	0.0027336169
38	0xbcb67d5f	-0.022276578
39	0xbc07f19e	-0.008297352
40	0xbbbd3521	-0.0057741557
41	0x3c21f917	0.009886048
42	0xbb6d6a2a	-0.0036226609
43	0xbbdbbc17	-0.0067057717
44	0xbbc9651a	-0.0061460854
45	0xbc230ac1	-0.009951294
46	0xbc393d57	-0.011306128
47	0x3bcc55d5	0.006235818
48	0x3cbc2fae	0.022971954
49	0xbc194f36	-0.009357264
50	0xbb6703e8	-0.003525013
51	0x3b385535	0.002812696
52	0x3bd96778	0.006634649
53	0xbc65c0a3	-0.014022979
54	0x3b9b5097	0.0047398317
55	0x3b96b0a8	0.004598696
56	0x39f2453f	0.0004620943
57	0x3c2e5068	0.0106392875
58	0xbc9cd6c5	-0.019145379
59	0xbb85e367	-0.0040859464
60	0xba3d527c	-0.0007222069
61	0xb976328a	-0.00023479215
62	0xbb50adcb	-0.003184187
63	0xbc11e1bb	-0.008903916
64	0xbcb377f3	-0.021907782
65	0x3a3046c9	0.0006724415
66	0x3c24e5b0	0.010064527
67	0x3b89caad	0.004205069
68	0x3c099a21	0.008398564
69	0x3b93977b	0.004504142
70	0xbbe4fffa	-0.0069885226
71	0xbb74527b	-0.0037280608
72	0x3955e7c8	0.00020399608
73	0x3b483d3b	0.0030554074
74	0x3bcca228	0.0062449165
75	0xbb988f6d	-0.0046557696
76	0x3bfc8acd	0.007706976
77	0x3be1e4a5	0.0068937116
78	0x3c788922	0.015169414
79	0x3b8688c5	0.0041056597
80	0x3c2ead89	0.010661491
81	0x3a7bb4fa	0.0009601858
82	0xbc9d2bab	-0.019185862
83	0x3bbf163f	0.0058315094
84	0x3b0b9553	0.002129872
85	0xbb917f27	-0.0044402066
86	0xbbf0feb0	-0.00735458
87	0xbae3ddf0	-0.0017384868
88	0x3bb4a289	0.0055125398
89	0xbc319b60	-0.010840267
90	0xbb54c213	-0.003246431
91	0x3be0d2c8	0.0068610646
92	0x3c5481c7	0.012970394
93	0xbb91f326	-0.0044540344
94	0x3aff14f7	0.0019461204
95	0xbc6a704f	-0.014309003
96	0xbc2d9b47	-0.010596103
97	0xbc5217a0	-0.012823015
98	0x3c209ac3	0.009802523
99	0x38db40af	0.00010454782
100	0x3c039d9a	0.008033181
101	0x3b0680b4	0.002052349
102	0x3c0beb85	0.008540039
103	0x3c08b19f	0.008343129
104	0x3b4130e5	0.0029478606
105	0xbc2203b0	-0.0098885745
106	0x3bbe422e	0.005806229
107	0xbc229697	-0.009923599
108	0xbaf37675	-0.0018574732
109	0xbb22d9bd	-0.002484902
110	0xbc913ca3	-0.01772911
111	0xbbbdcf9a	-0.0057925703
112	0x3b8a2490	0.0042157844
113	0x3c15a1d3	0.00913282
114	0x3b591d38	0.0033128988
115	0x3c3cdcd1	0.011527256
116	0xb9aef841	-0.0003337283
117	0xbb6c3b8d	-0.0036046237
118	0x3c208130	0.009796426
119	0xbc3c5025	-0.011493717
120	0xbb1d4406	-0.0023996844
121	0x3c6fbd7b	0.014632578
122	0x3ae14120	0.0017185546
123	0x37b3eee7	2.144971e-05
124	0x3b8f0266	0.0043642996
125	0xbc582b03	-0.013193849
126	0xba5b0002	-0.0008354188
127	0xbc2e0881	-0.010622145
128	0xbbe22f83	-0.0069026365
129	0x3c500693	0.01269688
130	0x3b9da9cf	0.0048115025
131	0xbb404fba	-0.0029344396
132	0x3c043776	0.008069864
133	0x3c8ad25e	0.016946014
134	0xbb980ad0	-0.004639961
135	0x3b8c87cb	0.0042886487
136	0xb9ad9e32	-0.00033114996
137	0xbc078422	-0.008271249
138	0x3c8a951b	0.016916802
139	0xbc42a4b9	-0.011880093
140	0x3ae086d3	0.0017130024
141	0xbc3b35c7	-0.011426396
142	0x3bbeeb9a	0.0058264257
143	0xbc161c6b	-0.009162049
144	0xbb45499f	-0.0030103696
145	0x3bd9d1b7	0.0066473144
146	0x3b76698d	0.0037599534
147	0x3c229d01	0.009925128
148	0x3b2d7a0c	0.002647045
149	0xbb64638d	-0.0034849376
150	0xbc0ff078	-0.00878536
151	0x3c08d85f	0.008352368
152	0xbc3f2ce8	-0.011668421
153	0xbcbb5262	-0.022866432
154	0xbab7fd7a	-0.0014037334
155	0xbb514f60	-0.003193818
156	0x3c58e118	0.01323726
157	0x3c5b6daa	0.013392845
158	0x3c3dad53	0.011576968
159	0x3b9d3b0b	0.0047982982
160	0xb9256663	-0.00015773768
161	0x3b9c154c	0.004763281
162	0x3c125054	0.0089302845
163	0x3a49dcc6	0.00077004393
164	0xbc0f159c	-0.008733179
165	0xba8b4f89	-0.0010628562
166	0x3b92cb1a	0.004479778
167	0xbba0b6a1	-0.0049045836
168	0xbc85f916	-0.016354125
169	0x3b01caf6	0.0019804812
170	0xb9903a5f	-0.0002750931
171	0xba774617	-0.00094327464
172	0xb94f8412	-0.00019790258
173	0x3c229a13	0.0099244295
174	0xbb56d2aa	-0.0032779374
175	0x3bbf129f	0.005831077
176	0x3b8a7517	0.004225384
177	0xbc542e00	-0.01295042
178	0x3c5bd915	0.013418456
179	0x397ab780	0.00023910217
180	0xbb91864d	-0.0044410587
181	0xbc02404c	-0.0079499
182	0x3a19ff73	0.0005874552
183	0x3a32b384	0.0006816911
184	0x3ba09a46	0.0049012033
185	0xbc0d737c	-0.008633491
186	0x3b43ec26	0.0029895394
187	0x3bacbc23	0.005271451
188	0xbc0186e6	-0.007905697
189	0x3bd7c6c7	0.0065849754
190	0x3bb62f03	0.0055598035
191	0xba8a6518	-0.0010558693
192	0xb87feacb	-6.1015406e-05
193	0xbc82e76c	-0.015979491
194	0xbc74d8ca	-0.014944265
195	0x388e4acb	6.785019e-05
196	0x3ae7befd	0.001768082
197	0xbb71d81b	-0.003690249
198	0x3bf3a6e3	0.007435666
199	0x3c6501ed	0.01397751
200	0x3b8a18a9	0.0042143655
201	0x3be59352	0.0070060873
202	0xbc3b1f8b	-0.011421095
203	0x3ac2f2ab	0.0014873346
204	0xbb03ad9d	-0.0020092495
205	0xbc4ae73b	-0.012384231
206	0x3bd2c7e2	0.0064325193
207	0x3a994f98	0.0011696694
208	0xbc41abc6	-0.011820739
209	0x3b8e5514	0.004343638
210	0xbcaaf2ff	-0.020867823
211	0x3c26dae0	0.01018402
212	0x3b36a029	0.002786646
213	0xbca8a965	-0.020588586
214	0x3c17fc61	0.00927648
215	0x3a7f745a	0.0009744816
216	0x3b02e6c0	0.0019973963
217	0xbcd9483b	-0.0265237
218	0x3c0bd940	0.008535683
219	0xbbde7fd8	-0.0067901425
220	0xbc48ba43	-0.0122514395
221	0x3c21fc03	0.009886744
222	0xbb3c8e2b	-0.0028771262
223	0xba73ffa2	-0.00093078066
224	0x3c79765d	0.015225974
225	0x3b5b8965	0.0033498642
226	0xbc99c007	-0.018768324
227	0xbc8706ab	-0.016482672
228	0xbc014c5d	-0.007891742
229	0xbb53fe3d	-0.0032347583
230	0xbc971c70	-0.018446177
231	0xbbd23252	-0.00641469
232	0x3bd497c2	0.0064878175
233	0x3b04963e	0.0020231153
234	0x3c553d05	0.0130150365
235	0xbc0f4b8b	-0.008746038
236	0x3bd870ba	0.006605235
237	0xbb3a0311	-0.0028383175
238	0x3b66fd1d	0.0035246082
239	0x3b5eaa98	0.0033976194
240	0xbbdb648d	-0.006695336
241	0xbbcdf4d5	-0.00628529
242	0x3c26c22b	0.010178129
243	0xbbabee1a	-0.00524689
244	0x3c05f924	0.008177076
245	0x39eea295	0.0004551603
246	0x3bda9190	0.0066701844
247	0x3c0405c7	0.008058018
248	0xbb628adf	-0.0034567637
249	0xbb06b018	-0.0020551737
250	0x3c44f09e	0.012020258
251	0x3af84680	0.0018941909
252	0xbb7f86b7	-0.0038990208
253	0x3c0f873b	0.008760269
254	0x3c022a5f	0.007944672
255	0x3bdb579f	0.006693795

action_model._discrete_distribution.branches.3.bias f4 [5]
0	0x00000000	0.0
1	0x00000000	0.0
2	0x00000000	0.0
3	0x00000000	0.0
4	0x00000000	0.0

action_model._discrete_distribution.branches.3.weight f4 [5, 128]
0	0x3bfec74f	0.0077752243
1	0xbc54b9e2	-0.012983771
2	0xbc1feebf	-0.009761511
3	0xbc7cd41a	-0.015431428
4	0x3c0c97f5	0.008581151
5	0xbbc17380	-0.0059036613
6	0xbbbb63dc	-0.0057186913
7	0xbc08919d	-0.008335498
8	0x3bfb8baa	0.0076765614
9	0xbbf64e0b	-0.0075166277
10	0xbc4f8e43	-0.012668195
11	0x3b59dfe2	0.0033245017
12	0x3be2e352	0.0069240713
13	0xbc4740a5	-0.012161409
14	0x3bdee75b	0.006802482
15	0x3bf6d96b	0.0075332425
16	0x3c9ad49a	0.018900204
17	0xbb32d131	-0.0027285332
18	0xbc4f00c2	-0.012634458
19	0x3b7bf7d2	0.0038447273
20	0x3bc78617	0.006088983
21	0x3b235906	0.0024924888
22	0x3bbcc808	0.0057611503
23	0xbba6f25a	-0.0050948085
24	0xba02d180	-0.00049903244
25	0xbc8aa102	-0.016922478
26	0x3c41d9df	0.01183173
27	0x3c114776	0.008867135
28	0x3bf5332f	0.007482908
29	0xbb180b91	-0.0023200253
30	0xbbad3bfe	-0.0052866926
31	0xbb396bef	-0.0028293093
32	0xbc12ea08	-0.00896693
33	0xbbc52f94	-0.0060176346
34	0xb9c527a2	-0.00037604297
35	0x3c0873a7	0.008328355
36	0xbba3bcf1	-0.004996889
37	0xbc54e63a	-0.012994343
38	0x3b203acf	0.0024449115
39	0x3be132b3	0.006872499
40	0xbac723dd	-0.0015193183
41	0xbb61f5e7	-0.0034478845
42	0xbbf59105	-0.0074940943
43	0xbc22db6f	-0.009940012
44	0x3b425dd6	0.0029657981
45	0x3c42eddf	0.011897533
46	0xbb3708bf	-0.0027928797
47	0xbcb09ec0	-0.021560073
48	0x3c11abe6	0.008891081
49	0x3c1fa271	0.009743319
50	0xbc1e1b87	-0.009650118
51	0xbc69532f	-0.014241024
52	0xbc1eb05a	-0.0096856
53	0xba8cefa7	-0.0010752574
54	0x3c02b6de	0.007978169
55	0xba39c1e3	-0.00070860813
56	0xbb78f4bd	-0.0037987672
57	0x3b90eaa4	0.0044225026
58	0xbbd6b72f	-0.006552599
59	0x3b2759b4	0.0025535645
60	0xbc3c306d	-0.011486155
61	0x3c1bc6b1	0.009507821
62	0xbc00c1bb	-0.007858689
63	0x3ba3e9a3	0.005002217
64	0xbb6a43ff	-0.0035746095
65	0x3c760475	0.015015711
66	0xba4e69e3	-0.0007874055
67	0xbbe35a30	-0.0069382414
68	0xbbec3cca	-0.007209395
69	0x3caf6930	0.021412462
70	0x3be48d97	0.0069748866
71	0xbb1b1a5b	-0.0023666832
72	0x3c72d837	0.014822057
73	0xbb7ce223	-0.0038586936
74	0x3be78cf7	0.007066365
75	0x3ca030fb	0.019554606
76	0xbb3f15d1	-0.002915729
77	0xbc6164a3	-0.013756904
78	0xbc6a59e2	-0.014303656
79	0x3b33f3e4	0.0027458603
80	0x3c0abb90	0.00846757
81	0x3c198703	0.009370568
82	0xbb644f55	-0.0034837325
83	0x3b83a00c	0.004016882
84	0xbb70ca9f	-0.0036741865
85	0x3c0e615d	0.008690205
86	0xbc58b0ef	-0.013225778
87	0x3b3e11db	0.0029002342
88	0xbbfb9e03	-0.0076787486
89	0x3c35b348	0.011090107
90	0x3c60195b	0.01367792
91	0xbcc81065	-0.02442188
92	0xbb6a9275	-0.0035792862
93	0xba0d4c79	-0.00053901185
94	0x3c15420e	0.009109987
95	0x3be6d33f	0.0070442255
96	0x3b2b8ea5	0.0026177552
97	0xbc69f848	-0.014280386
98	0xbc13308d	-0.008983743
99	0x3bd98880	0.0066385865
100	0x3c3c83c5	0.011506026
101	0x3c5a2c0f	0.013316168
102	0xb7e75712	-2.7577891e-05
103	0x3b8309f8	0.003998991
104	0xbc661e03	-0.014045241
105	0x3c3a4433	0.011368799
106	0x3b52637a	0.003210275
107	0xbb56e08a	-0.0032787644
108	0xbc7cd7f3	-0.015432346
109	0x3bd6e57d	0.006558119
110	0x3c2bffc7	0.010497994
111	0x3cc423b1	0.0239428
112	0x3c0bbb2f	0.008528515
113	0xbb48f23f	-0.0030661968
114	0xbad7ed7a	-0.0016473972
115	0x3c02f323	0.007992539
116	0xb75424e3	-1.2644773e-05
117	0x3a043151	0.0005042749
118	0x3bb50bc8	0.005525086
119	0x3c43efea	0.011959055
120	0xbbfb86aa	-0.0076759653
121	0xbc19b15b	-0.009380664
122	0xbac6733b	-0.0015140543
123	0x3bbf6f40	0.0058421195
124	0x3a643705	0.00087057083
125	0x3c73c865	0.014879321
126	0xbc5a6cb2	-0.013331579
127	0xbb67b115	-0.0035353352
128	0x3c05ce63	0.008166882
129	0xbb888e3a	-0.0041673454
130	0xbbcb154f	-0.0061976085
131	0x3c69e710	0.014276281
132	0xbc2bbe8f	-0.010482444
133	0x3ca01bc9	0.019544499
134	0xbbeaaa7f	-0.007161438
135	0x3bb0782a	0.0053854184
136	0x3b788058	0.0037918296
137	0xbba81bf4	-0.0051302854
138	0xba867092	-0.0010256937
139	0x3c1d040b	0.009583483
140	0xbbbd30cf	-0.0057736407
141	0x3cc74846	0.024326455
142	0x3b981680	0.004641354
143	0xba9cb2f2	-0.0011955185
144	0xbbef82ed	-0.0073093087
145	0x3c144f85	0.009052162
146	0xbb7c0037	-0.0038452276
147	0x3bc6832f	0.006058119
148	0x39bf0bb7	0.00036439087
149	0x3c2be0c9	0.010490605
150	0x3bd6db93	0.006556937
151	0xbb2e8984	-0.0026632259
152	0xbb730a97	-0.003708517
153	0xbc341264	-0.010990713
154	0xbb8710f3	-0.0041218936
155	0x3c127623	0.008939299
156	0x3b43b4b4	0.0029862346
157	0xbc8f8939	-0.017521488
158	0x3c4df14a	0.012569735
159	0xbaed45b8	-0.0018102443
160	0x3ad9a195	0.0016603941
161	0xbbe86458	-0.00709204
162	0xbc9cab73	-0.019124722
163	0x3c35a629	0.011086979
164	0x3c01f339	0.007931524
165	0x3b1dd5eb	0.0024083804
166	0xbca22ba4	-0.0197962
167	0x3c461b4b	0.012091468
168	0x3a07d46f	0.00051814964
169	0x3a14f27a	0.0005681884
170	0x3b380a33	0.002808225
171	0xbce4fad5	-0.027951637
172	0x3beb8c45	0.0071883523
173	0xbc77b343	-0.015118423
174	0x3b140e29	0.0022591448
175	0x3c98c4c5	0.018648515
176	0x3a43a40c	0.00074631046
177	0xbcabb5c2	-0.020960692
178	0x3b037f8f	0.0020065045
179	0x3baecbd9	0.005334359
180	0xbaba07e8	-0.001419303
181	0xbbc1baab	-0.005912145
182	0x3a48ea73	0.000766433
183	0x3c8669db	0.016407898
184	0xbb980927	-0.004639763
185	0xbbc265e0	-0.0059325546
186	0x3ab818c3	0.0014045466
187	0xbc18ca6b	-0.009325604
188	0x3bda1345	0.006655129
189	0x3bbb00a4	0.0057068635
190	0xbc122dc5	-0.008922045
191	0xbbf4cf6d	-0.007471016
192	0x398d0c56	0.00026902807
193	0xbbefeb62	-0.007321761
194	0xbb2cf732	-0.0026392457
195	0xbc1d9c0f	-0.009619727
196	0xbc94b4c3	-0.0181526
197	0x3c30da20	0.010794193
198	0x3bbf2dcc	0.005834317
199	0xbbe30e45	-0.0069291913
200	0x3c047040	0.008083403
201	0xbacc480b	-0.0015585435
202	0xbbb16e8d	-0.00541479
203	0xbb395501	-0.0028279426
204	0x3c13fdf3	0.009032714
205	0xbc5b1f58	-0.013374172
206	0x3bd2ae18	0.006429445
207	0xbadc73a8	-0.0016819136
208	0xbc1001b8	-0.008789472
209	0xbbef2a95	-0.0072987773
210	0x3adf2b48	0.0017026449
211	0x3b33f9fe	0.002746224
212	0xbb1c958a	-0.0023892843
213	0x3b3ce05b	0.002882025
214	0x3b8eef01	0.0043619876
215	0x3c06e545	0.008233373
216	0x3b8a7c66	0.004226255
217	0x3bcef473	0.0063157617
218	0x3b8ac057	0.0042343545
219	0xbc598c67	-0.013278103
220	0xbc362bfb	-0.011118884
221	0x3c2f8fb3	0.010715413
222	0xbb230500	-0.0024874806
223	0xbaeb8708	-0.001796932
224	0x3a9c2e17	0.0011915591
225	0x3ccb604c	0.024826191
226	0xbb5f7a2b	-0.0034099917
227	0xbc2d177f	-0.010564684
228	0x3ca890d8	0.02057688
229	0x3c175f07	0.009238965
230	0x3b6c40cb	0.0036049362
231	0xbb3d70b9	-0.00289063
232	0x3b0fb266	0.0021926402
233	0x3b8f6226	0.004375714
234	0xbbeecf7b	-0.007287917
235	0xbbf18e5a	-0.007371706
236	0x3ac3734a	0.0014911678
237	0x3a95db8c	0.0011433228
238	0xbbe983a8	-0.0071262904
239	0x3b2bb58b	0.0026200737
240	0xbbb27b2c	-0.005446812
241	0xbc1b0864	-0.00946245
242	0xbc1f1a7f	-0.009710907
243	0xbbe0531a	-0.006845844
244	0x3c250ed3	0.010074335
245	0xbbab3e0f	-0.005225904
246	0xbc540a68	-0.012941934
247	0x3b9b1309	0.004732494
248	0x39d06ce3	0.00039753978
249	0x3be8a7b3	0.0071000694
250	0xbb87a7e3	-0.0041398867
251	0x3b2a00f3	0.0025940507
252	0xbbd899e7	-0.0066101435
253	0xbc272760	-0.010202259
254	0xbacc05bb	-0.0015565673
255	0xbc40b6e3	-0.011762354

action_model._discrete_distribution.branches.4.bias f4 [5]
0	0x00000000	0.0
1	0x00000000	0.0
2	0x00000000	0.0
3	0x00000000	0.0
4	0x00000000	0.0

action_model._discrete_distribution.branches.4.weight f4 [5, 128]
0	0xbbcc02c8	-0.0062259175
1	0xbcdecbef	-0.027196852
2	0x3ca2bb57	0.019864721
3	0xbb8263b7	-0.003979172
4	0x3b4f70aa	0.0031652846
5	0xbad7de75	-0.0016469496
6	0x3a550ea8	0.0008127489
7	0x3aacbd22	0.0013178925
8	0xba93530f	-0.0011239963
9	0x3c093a23	0.008375677
10	0x3b619693	0.0034422025
11	0xbb95615b	-0.004558725
12	0xbc647445	-0.013943736
13	0xbb3ed4d8	-0.0029118564
14	0x3b060927	0.0020452233
15	0x3a863391	0.0010238757
16	0xbab0c40f	-0.0013486164
17	0xbba69cee	-0.0050846254
18	0xbb93e9bb	-0.004513947
19	0x3b88a19e	0.004169657
20	0xbbfe9b40	-0.007769972
21	0xbc3c22f3	-0.011482942
22	0xbbace674	-0.0052764956
23	0x3af4dd70	0.0018681716
24	0x3a9bfe43	0.0011901337
25	0x3c9e8e52	0.019354973
26	0x3c423714	0.011853952
27	0xbc0fba40	-0.008772433
28	0x3b3103fb	0.002701043
29	0xba9de1d0	-0.0012045447
30	0xbbce03c0	-0.006287068
31	0x3a6f22f3	0.00091223343
32	0xb97d780b	-0.0002417268
33	0xbc85ca6a	-0.01633187
34	0xbb921b23	-0.0044588014
35	0xbc1d03df	-0.0095834425
36	0xbc05a010	-0.008155838
37	0xbc153406	-0.009106642
38	0xba17bfee	-0.00057887926
39	0x3c2a0491	0.010377065
40	0xbcbd3979	-0.023098694
41	0xbc4a307b	-0.01234066
42	0xb9eb20d7	-0.0004484716
43	0x3bdefa2d	0.0068047256
44	0xbc6333e2	-0.01386735
45	0xbbbe587f	-0.0058088894
46	0x3a9152ab	0.0011087259
47	0xbb8471f5	-0.004041905
48	0xbbeda4c3	-0.007252307
49	0x3af7bb03	0.0018900338
50	0x3ba89569	0.005144764
51	0x3c208f1f	0.009799748
52	0x3b443e7b	0.0029944468
53	0xbc107af4	-0.008818377
54	0xbb72bdb2	-0.0037039337
55	0x3c1139c3	0.008863869
56	0x3c4adb79	0.012381428
57	0xbc2184fd	-0.009858367
58	0x3c13f1a4	0.00902978
59	0x3c0197a8	0.007909693
60	0xbbaab35a	-0.0052093687
61	0xbc525b5f	-0.012839167
62	0xbc7edba5	-0.015555297
63	0xbb3e3d4f	-0.0029028242
64	0xbafbe120	-0.0019216873
65	0xb8ed4605	-0.00011314083
66	0xbcb88d23	-0.022528237
67	0x3c32a454	0.010903437
68	0x3bb5d39f	0.005548909
69	0xbc0272a0	-0.007961899
70	0x3c5bbd50	0.013411835
71	0xbc0ef878	-0.008726232
72	0xbaa75177	-0.0012765367
73	0x3a8a9680	0.0010573417
74	0x3c2b18e0	0.010442942
75	0x3be60717	0.007019888
76	0xbb03fdc4	-0.002014027
77	0xbc93b60f	-0.018031148
78	0xbabdfe14	-0.0014495277
79	0xbb23c1d9	-0.0024987368
80	0x3c1dc8b3	0.00963037
81	0x3d003367	0.03129902
82	0x3c1353b6	0.008992126
83	0x3c0695e9	0.008214452
84	0xbb6a4132	-0.0035744426
85	0xbc1df64b	-0.00964124
86	0xbc4501cb	-0.012024353
87	0xbcb0e6ec	-0.021594487
88	0x3c0c0e6c	0.00854836
89	0xba3d04c9	-0.0007210491
90	0x3aae8a3b	0.0013316342
91	0xbc0fa09b	-0.008766319
92	0xbc3d47d6	-0.011552772
93	0xbc740d6d	-0.014895779
94	0x3c1c37df	0.009534805
95	0xbbeb09e8	-0.007172812
96	0xbb777e77	-0.0037764588
97	0x3c313c89	0.010817655
98	0xba89a43e	-0.0010501218
99	0x3c87ec93	0.0165923
100	0x3acc13e2	0.001556989
101	0xbb0ff54a	-0.0021966272
102	0xbbffe668	-0.007809449
103	0xbbccf082	-0.0062542567
104	0x3b694e42	0.0035599624
105	0xbb2d6717	-0.0026459151
106	0xba3e2a1b	-0.0007254199
107	0xbc00c0e5	-0.00785849
108	0xba3e155c	-0.00072511076
109	0xbaa4fb7c	-0.0012587155
110	0x3bf1a745	0.0073746764
111	0x3c27d349	0.010243245
112	0x3c32c3a7	0.010910905
113	0x3c131bd5	0.008978804
114	0xbb813a11	-0.0039436896
115	0x3c52d87a	0.012868995
116	0x3b0a22a2	0.0021077772
117	0xbc3bcf37	-0.011462978
118	0x3c5b844d	0.013398242
119	0xbc076efb	-0.008266206
120	0x3c896c96	0.01677541
121	0x3bc9fbc3	0.0061640455
122	0xbbf7d607	-0.007563356
123	0xbc10441f	-0.008805304
124	0xbb51da3f	-0.0032020954
125	0xbba11f86	-0.004917088
126	0x3b9599c7	0.004565451
127	0x3be600fb	0.00701916
128	0xbba88ed5	-0.00514398
129	0xbc9966a1	-0.018725695
130	0xbc02923b	-0.007969434
131	0xbb89793f	-0.004195362
132	0xbbb00b48	-0.0053724386
133	0xb9809189	-0.00024522495
134	0xbc55ab98	-0.013041399
135	0xbbff7f13	-0.007797131
136	0x3c32b091	0.0109063545
137	0xbbb8100c	-0.0056171473
138	0xbc993a3f	-0.018704532
139	0xbbd2bd5f	-0.006431266
140	0xbc0a9473	-0.008458245
141	0xbb0db88e	-0.0021624896
142	0x3bf6853a	0.007523206
143	0xbb2cf940	-0.0026393682
144	0x3b95b4cb	0.0045686713
145	0x3c91e61d	0.017809922
146	0x3b2cb543	0.0026353158
147	0xbb165d27	-0.0022943707
148	0xbbcb30b0	-0.0062008724
149	0xbc02a8c3	-0.007974806
150	0xbc8cae3b	-0.017172923
151	0x3a6fdbcf	0.00091498805
152	0xbb67e7c3	-0.0035385943
153	0x3c09be3a	0.00840717
154	0xbb35d46b	-0.002774502
155	0xbb0e9c7f	-0.002176076
156	0x3babc753	0.005242267
157	0x3c5478d8	0.0129682645
158	0xbc329a19	-0.010900998
159	0xbbd40e58	-0.0064714365
160	0x3c048b99	0.008089923
161	0xbab19547	-0.0013548516
162	0xba2ff9db	-0.00067129516
163	0x3ad1c80d	0.0016005054
164	0xb8da7978	-0.000104176754
165	0xbc5f55f5	-0.013631334
166	0xbb781cf8	-0.0037859064
167	0xbbc39a21	-0.0059693013
168	0x3bb0c4e2	0.005394564
169	0x3c46e059	0.01213845
170	0x3c3327fc	0.010934826
171	0x3ccf6a73	0.025319314
172	0x3b934468	0.0044942386
173	0x3b710dfa	0.0036782012
174	0xbc27062b	-0.010194342
175	0xbb3b8a23	-0.0028616271
176	0x3c534b35	0.012896349
177	0xbc89fae4	-0.016843267
178	0xbbb61f0d	-0.0055579008
179	0xbbeae915	-0.007168899
180	0xbba8fbe1	-0.0051569794
181	0xbb64ca23	-0.0034910522
182	0x3be6661b	0.007031215
183	0x3950c2e5	0.0001990903
184	0x3c4afe02	0.012389662
185	0xbbceabef	-0.006307117
186	0xbb8bd6a4	-0.0042675305
187	0xbc53ef83	-0.012935522
188	0xb6de698b	-6.6284024e-06
189	0xbb2eb8eb	-0.0026660513
190	0xbb992dab	-0.0046746335
191	0xbc21e27c	-0.009880658
192	0x3b71e128	0.0036907885
193	0x3c1b693b	0.009485538
194	0x3c3d4e0b	0.011554251
195	0x3bf68d6a	0.007524182
196	0xbc091cf4	-0.008368719
197	0x3b857cf5	0.004073734
198	0x3b126f23	0.0022344075
199	0x3bbe8f03	0.005815388
200	0x3b610547	0.003433542
201	0x3bdc148d	0.006716317
202	0xbc4a6ae3	-0.012354585
203	0xbb94a8c0	-0.004536718
204	0x3b871a3d	0.004123001
205	0x39522e3f	0.00020044389
206	0xbc936833	-0.017994022
207	0x3c569bd7	0.013098679
208	0x3c25e3c9	0.010125109
209	0x3bf3ba2f	0.0074379663
210	0xbc67381f	-0.014112501
211	0x3b946654	0.0045288
212	0xbb455c3b	-0.0030114788
213	0x3b32b155	0.0027266343
214	0xbc3dc07e	-0.011581538
215	0x3ba6ed51	0.0050942083
216	0xbc2ed8d7	-0.010671816
217	0xbb7b7475	-0.0038368974
218	0xb8b442cd	-8.5955115e-05
219	0xbc98fbd3	-0.018674767
220	0x3c5e9390	0.013584986
221	0x3ba44167	0.0050126794
222	0x3bfff858	0.0078115873
223	0xbb931e93	-0.0044897287
224	0x3b3befd7	0.0028676891
225	0x39cdbe2f	0.00039242345
226	0x3b9017b3	0.0043973564
227	0x3cbb952d	0.022898281
228	0xba827025	-0.0009951635
229	0x3b5656aa	0.0032705464
230	0xbac30f33	-0.0014881849
231	0xbc9664f0	-0.018358678
232	0xbab306ff	-0.0013658701
233	0x3a000826	0.0004884027
234	0xbb6055b2	-0.0034230766
235	0x3c5c632f	0.013451382
236	0x3b0e9ff9	0.0021762832
237	0x3c136f9b	0.008998777
238	0x3b2385e1	0.0024951624
239	0x3bb46b50	0.0055059567
240	0x3b9cb5d6	0.0047824187
241	0xbac9c7a8	-0.0015394585
242	0x39786e7a	0.00023692279
243	0x3c645d80	0.013938308
244	0xbc26904c	-0.010166239
245	0x3b3fa427	0.002924213
246	0x3bd67028	0.006544132
247	0x3c141b03	0.009039643
248	0xbc4f07dd	-0.012636152
249	0x3a418966	0.00073828397
250	0x3ad8d295	0.001654225
251	0x3c1e5f13	0.009666222
252	0x3bd734fd	0.006567596
253	0x39df6b5d	0.00042613866
254	0xbc537140	-0.012905419
255	0x399619fe	0.00028629595

discrete_action_output_shape f4 [1, 5]
0	0x40a00000	5.0
1	0x40a00000	5.0
2	0x40a00000	5.0
3	0x40a00000	5.0
4	0x40a00000	5.0

network_body._body_endoder.seq_layers.0.bias f4 [128]
0	0x00000000	0.0
1	0x00000000	0.0
2	0x00000000	0.0
3	0x00000000	0.0
4	0x00000000	0.0
5	0x00000000	0.0
6	0x00000000	0.0
7	0x00000000	0.0
8	0x00000000	0.0
9	0x00000000	0.0
10	0x00000000	0.0
11	0x00000000	0.0
12	0x00000000	0.0
13	0x00000000	0.0
14	0x00000000	0.0
15	0x00000000	0.0
16	0x00000000	0.0
17	0x00000000	0.0
18	0x00000000	0.0
19	0x00000000	0.0
20	0x00000000	0.0
21	0x00000000	0.0
22	0x00000000	0.0
23	0x00000000	0.0
24	0x00000000	0.0
25	0x00000000	0.0
26	0x00000000	0.0
27	0x00000000	0.0
28	0x00000000	0.0
29	0x00000000	0.0
30	0x00000000	0.0
31	0x00000000	0.0
32	0x00000000	0.0
33	0x00000000	0.0
34	0x00000000	0.0
35	0x00000000	0.0
36	0x00000000	0.0
37	0x00000000	0.0
38	0x00000000	0.0
39	0x00000000	0.0
40	0x00000000	0.0
41	0x00000000	0.0
42	0x00000000	0.0
43	0x00000000	0.0
44	0x00000000	0.0
45	0x00000000	0.0
46	0x00000000	0.0
47	0x00000000	0.0
48	0x00000000	0.0
49	0x00000000	0.0
50	0x00000000	0.0
51	0x00000000	0.0
52	0x00000000	0.0
53	0x00000000	0.0
54	0x00000000	0.0
55	0x00000000	0.0
56	0x00000000	0.0
57	0x00000000	0.0
58	0x00000000	0.0
59	0x00000000	0.0
60	0x00000000	0.0
61	0x00000000	0.0
62	0x00000000	0.0
63	0x00000000	0.0
64	0x00000000	0.0
65	0x00000000	0.0
66	0x00000000	0.0
67	0x00000000	0.0
68	0x00000000	0.0
69	0x00000000	0.0
70	0x00000000	0.0
71	0x00000000	0.0
72	0x00000000	0.0
73	0x00000000	0.0
74	0x00000000	0.0
75	0x00000000	0.0
76	0x00000000	0.0
77	0x00000000	0.0
78	0x00000000	0.0
79	0x00000000	0.0
80	0x00000000	0.0
81	0x00000000	0.0
82	0x00000000	0.0
83	0x00000000	0.0
84	0x00000000	0.0
85	0x00000000	0.0
86	0x00000000	0.0
87	0x00000000	0.0
88	0x00000000	0.0
89	0x00000000	0.0
90	0x00000000	0.0
91	0x00000000	0.0
92	0x00000000	0.0
93	0x00000000	0.0
94	0x00000000	0.0
95	0x00000000	0.0
96	0x00000000	0.0
97	0x00000000	0.0
98	0x00000000	0.0
99	0x00000000	0.0
100	0x00000000	0.0
101	0x00000000	0.0
102	0x00000000	0.0
103	0x00000000	0.0
104	0x00000000	0.0
105	0x00000000	0.0
106	0x00000000	0.0
107	0x00000000	0.0
108	0x00000000	0.0
109	0x00000000	0.0
110	0x00000000	0.0
111	0x00000000	0.0
112	0x00000000	0.0
113	0x00000000	0.0
114	0x00000000	0.0
115	0x00000000	0.0
116	0x00000000	0.0
117	0x00000000	0.0
118	0x00000000	0.0
119	0x00000000	0.0
120	0x00000000	0.0
121	0x00000000	0.0
122	0x00000000	0.0
123	0x00000000	0.0
124	0x00000000	0.0
125	0x00000000	0.0
126	0x00000000	0.0
127	0x00000000	0.0

network_body._body_endoder.seq_layers.0.weight f4 [128, 128]
0	0xbd8dde9f	-0.06927227
1	0x3d98f66c	0.07468876
2	0x3e73edd0	0.23821187
3	0xbe2905b0	-0.16506076
4	0x3ced6330	0.02897796
5	0xbdc328da	-0.09529276
6	0xbb65bbc5	-0.0035054546
7	0xb8e2444b	-0.0001078924
8	0x3d07084e	0.032966904
9	0xbe237309	-0.15961851
10	0x3d5ace60	0.05341947
11	0x3d72208f	0.05911308
12	0xbb45e2c8	-0.0030194987
13	0x3d9c8c32	0.07643928
14	0xbe098c56	-0.1343244
15	0x3c6ee40a	0.014580736
16	0xbd6a764d	-0.057241727
17	0x3d7992ad	0.060930897
18	0xbd1ab11c	-0.03776656
19	0xbe9826c5	-0.2971708
20	0x3cd17ca7	0.025572134
21	0x3c3d96fc	0.011571642
22	0xbd48551b	-0.048909288
23	0x3bfdd340	0.00774613
24	0x3d719615	0.05898102
25	0x3d9ce76a	0.07661326
26	0xbb189001	-0.0023279192
27	0xbbdd388c	-0.0067511257
28	0xbdfbf4f0	-0.123025775
29	0x3d2075ca	0.039174832
30	0xbda71d65	-0.081599034
31	0x3c147509	0.0090611065
32	0xbdf27a97	-0.118397884
33	0xbdf36788	-0.118849814
34	0xbcc2c177	-0.023773892
35	0xbd806f7d	-0.06271265
36	0x3d902a3f	0.07039308
37	0x3cf1e602	0.029528622
38	0x3d1f113e	0.038834803
39	0xbdb58e3c	-0.0886502
40	0x3c5c9c2d	0.01346497
41	0xbdbb3405	-0.09140781
42	0x3c6935d6	0.014234027
43	0x3d4d4682	0.05011607
44	0x3d916187	0.0709868
45	0x3dc4578c	0.09587011
46	0xbd1dd599	-0.03853378
47	0x3d151a2e	0.03640192
48	0x3cd67e89	0.026183384
49	0xbbac8819	-0.0052652475
50	0xbe445794	-0.19174033
51	0xbd0c81aa	-0.034303345
52	0xbcb2fec9	-0.021850007
53	0xbccee8af	-0.025257437
54	0x3d7d215a	0.061799385
55	0x3d768701	0.060187344
56	0x3dcb5858	0.099289596
57	0x3cb46e47	0.02202524
58	0x3d9713fa	0.07376857
59	0xbd6a18c0	-0.05715251
60	0x3dbc2cf8	0.091882646
61	0x3d99c890	0.075089574
62	0xbcae26f1	-0.021258803
63	0xbc1cebf2	-0.009577738
64	0xbd83d198	-0.06436461
65	0xbd50d69d	-0.05098592
66	0x3e0faa98	0.1402992
67	0xbd28b430	-0.041187465
68	0x3d958c64	0.07302168
69	0x3d973b55	0.073843636
70	0xbdf4e98e	-0.119586095
71	0xbd74e126	-0.05978503
72	0x3d838d8c	0.06423482
73	0x3dc4dc4e	0.09612332
74	0xbd2699cb	-0.040674012
75	0x3c004d13	0.007830876
76	0x3d06989f	0.032860395
77	0xbd151b72	-0.036403127
78	0xbdb64072	-0.08899011
79	0x3e11ed3c	0.14250654
80	0x3dd1f5be	0.1025195
81	0x3d9aedff	0.075649254
82	0xbd84b458	-0.0647971
83	0xbe058d11	-0.13042094
84	0x3e2c10e5	0.1680332
85	0x3d34811d	0.044068445
86	0xbd91ee1f	-0.07125496
87	0x3bc93cce	0.0061412817
88	0xbe321e97	-0.17394482
89	0x3d86f50e	0.06589709
90	0x3c072f1f	0.008250981
91	0x3e139d43	0.1441546
92	0xbbd329d1	-0.006444194
93	0xbdb2b5bb	-0.087260686
94	0xbbfa35d9	-0.0076358137
95	0x3ccb8dc2	0.024847869
96	0x3e17088d	0.14749356
97	0xbd7e8e57	-0.062147465
98	0x3cfcf14c	0.030876778
99	0xbd7b0b29	-0.06128994
100	0x3d31beb8	0.043394774
101	0x3d8d01c4	0.068851024
102	0x3d01af12	0.0316611
103	0xbdcea37b	-0.10089775
104	0xbe0e89f6	-0.13919815
105	0x3ca19f53	0.019729292
106	0xbc7d3b69	-0.015456059
107	0x3ced2ea7	0.02895291
108	0xbd4ce716	-0.05002507
109	0x3c2ac58d	0.010423076
110	0x3b0bbf1c	0.0021323627
111	0xba153eac	-0.0005693238
112	0x3ddc65f0	0.107616305
113	0x3da328b7	0.0796675
114	0xbcee0fad	-0.02906021
115	0xbd0010b1	-0.03126592
116	0xbdcb6370	-0.099310756
117	0x3e03370f	0.12813972
118	0x3bc4d74d	0.006007111
119	0x3cd39eb8	0.025832519
120	0xbd017c49	-0.03161267
121	0x3ca9f89f	0.020748435
122	0x3d463c0b	0.048397105
123	0x3c4648bb	0.012102301
124	0xbd3d1596	-0.046163164
125	0xbda8caa6	-0.08241777
126	0xbd50c7cf	-0.050971802
127	0xbdff5d71	-0.124689944
128	0xbd18aa89	-0.03727201
129	0x3d8aeb29	0.067831345
130	0xbda7fbad	-0.082023
131	0xbd1666a0	-0.036718965
132	0xbb56b5a4	-0.0032762075
133	0xbdce111d	-0.10061858
134	0xbbdc625c	-0.0067255925
135	0x3dc4cc0f	0.096092336
136	0xbd0f2e69	-0.03495637
137	0x3d8a0b0e	0.0674039
138	0xbd893fc2	-0.06701614
139	0xbaecea25	-0.0018075152
140	0xbdf5776e	-0.1198567
141	0x3de2ed39	0.11080403
142	0xbc4afc67	-0.012389279
143	0xbdad7576	-0.084696695
144	0x3e5a6f68	0.2133156
145	0x3d5342da	0.051577426
146	0x3da146d7	0.0787484
147	0xbe584776	-0.2112101
148	0x3db2ff5d	0.08740113
149	0x3cfc8cf8	0.030828938
150	0x3d849ba6	0.06475
151	0xbdbc3d1e	-0.09191345
152	0x3e0dc9cf	0.13846515
153	0x3e375974	0.17905217
154	0x3cf08c4d	0.029363776
155	0x3dd36884	0.10322669
156	0xbdf869d4	-0.1212956
157	0x3d973079	0.07382292
158	0xbdfa40da	-0.12219401
159	0xbafd5378	-0.0019327244
160	0x3d98372a	0.07432397
161	0xbc8bc193	-0.017060077
162	0xbcdd1423	-0.026987141
163	0xbdf3d0af	-0.119050376
164	0x3d8e98b3	0.06962719
165	0xbd88d082	-0.06680395
166	0x3d57bfb6	0.052673064
167	0xbd772dd7	-0.06034645
168	0x3d2497a9	0.040183697
169	0x3db80e30	0.08987081
170	0x3e218fcf	0.15777515
171	0xbd4820bf	-0.048859354
172	0xbd08faeb	-0.03344242
173	0xbd93a1bd	-0.072085835
174	0x3e25c43d	0.1618814
175	0xbdcd7f65	-0.10034064
176	0xbbbabcb4	-0.0056987647
177	0x3dad5e57	0.084652595
178	0x3c9ac63b	0.018893352
179	0xbc995fe0	-0.018722475
180	0xbdae9dff	-0.08526229
181	0x3d4b06bf	0.04956698
182	0xbcc697ed	-0.024242366
183	0x3d96bd65	0.07360343
184	0xbdb12a95	-0.086507
185	0xbd2f4624	-0.0427915
186	0x3d33edd9	0.043928
187	0xbc6bd6f4	-0.014394511
188	0xbdc93e43	-0.098263286
189	0xbd94a5d1	-0.072581895
190	0xbdd636a5	-0.10459641
191	0x3e00c5a6	0.12575397
192	0x3da03b3c	0.07823798
193	0x3d64f7fb	0.055900555
194	0xbd418575	-0.047246415
195	0x3da3f647	0.08005958
196	0xbaee8f6e	-0.0018200704
197	0xbe06e766	-0.13174209
198	0xbd00fc37	-0.03149053
199	0x3d650470	0.055912435
200	0xbd41c482	-0.047306545
201	0x3ca40d44	0.020025857
202	0xbe397a50	-0.18113065
203	0xbd9a3274	-0.075291544
204	0x3dcc865d	0.09986565
205	0xbd610fd1	-0.054946724
206	0x3d32e84b	0.043678563
207	0xbe05c87b	-0.13064758
208	0xbe103ac0	-0.14084911
209	0xbe2e4e12	-0.17021969
210	0xbdd32cf4	-0.103113085
211	0xba125383	-0.0005581902
212	0xbc9c817b	-0.01910471
213	0xbd935530	-0.071939826
214	0xbd9ca8fe	-0.0764942
215	0xbd4a431c	-0.049380407
216	0xbd9e9fdc	-0.077453345
217	0x3e005193	0.12531118
218	0xbc45a90d	-0.012064231
219	0xbda2ac2c	-0.079429954
220	0xbe01f69e	-0.12691733
221	0x3e15921c	0.14606518
222	0x3d7bd8f1	0.06148619
223	0xbd9a6e6f	-0.07540595
224	0x3e0991e0	0.13434553
225	0xbd624155	-0.055238087
226	0x3a08ca81	0.0005218164
227	0x3ddc02c9	0.10742719
228	0x3cae0aac	0.021245323
229	0x3e37887a	0.17923155
230	0xbc80ee4b	-0.015738627
231	0x3d9a1d5f	0.07525133
232	0x3e2eb203	0.17060094
233	0x3da522d7	0.08063286
234	0xbe71f9f9	-0.23630513
235	0xbc979d1f	-0.018507538
236	0x3e076283	0.13221173
237	0xbd1a42ff	-0.03766155
238	0xbdcb376b	-0.099226795
239	0x3df0091a	0.11720486
240	0xbe1bde3f	-0.15221499
241	0x3c84dcfa	0.016218651
242	0x3d83bf3f	0.06432962
243	0xbdcb8646	-0.0993772
244	0xbd41aa25	-0.047281403
245	0xbd680276	-0.056642972
246	0x3dc24388	0.09485537
247	0xbcb806e4	-0.022464223
248	0xbc410fde	-0.011783568
249	0x3e410b81	0.18852045
250	0x3c93ca49	0.018040793
251	0xbd8c08cb	-0.068376146
252	0x3de98bd8	0.11403626
253	0x3d2cbf43	0.04217459
254	0x3e2da547	0.1695758
255	0x3db5c86c	0.08876118

network_body._body_endoder.seq_layers.2.bias f4 [128]
0	0x00000000	0.0
1	0x00000000	0.0
2	0x00000000	0.0
3	0x00000000	0.0
4	0x00000000	0.0
5	0x00000000	0.0
6	0x00000000	0.0
7	0x00000000	0.0
8	0x00000000	0.0
9	0x00000000	0.0
10	0x00000000	0.0
11	0x00000000	0.0
12	0x00000000	0.0
13	0x00000000	0.0
14	0x00000000	0.0
15	0x00000000	0.0
16	0x00000000	0.0
17	0x00000000	0.0
18	0x00000000	0.0
19	0x00000000	0.0
20	0x00000000	0.0
21	0x00000000	0.0
22	0x00000000	0.0
23	0x00000000	0.0
24	0x00000000	0.0
25	0x00000000	0.0
26	0x00000000	0.0
27	0x00000000	0.0
28	0x00000000	0.0
29	0x00000000	0.0
30	0x00000000	0.0
31	0x00000000	0.0
32	0x00000000	0.0
33	0x00000000	0.0
34	0x00000000	0.0
35	0x00000000	0.0
36	0x00000000	0.0
37	0x00000000	0.0
38	0x00000000	0.0
39	0x00000000	0.0
40	0x00000000	0.0
41	0x00000000	0.0
42	0x00000000	0.0
43	0x00000000	0.0
44	0x00000000	0.0
45	0x00000000	0.0
46	0x00000000	0.0
47	0x00000000	0.0
48	0x00000000	0.0
49	0x00000000	0.0
50	0x00000000	0.0
51	0x00000000	0.0
52	0x00000000	0.0
53	0x00000000	0.0
54	0x00000000	0.0
55	0x00000000	0.0
56	0x00000000	0.0
57	0x00000000	0.0
58	0x00000000	0.0
59	0x00000000	0.0
60	0x00000000	0.0
61	0x00000000	0.0
62	0x00000000	0.0
63	0x00000000	0.0
64	0x00000000	0.0
65	0x00000000	0.0
66	0x00000000	0.0
67	0x00000000	0.0
68	0x00000000	0.0
69	0x00000000	0.0
70	0x00000000	0.0
71	0x00000000	0.0
72	0x00000000	0.0
73	0x00000000	0.0
74	0x00000000	0.0
75	0x00000000	0.0
76	0x00000000	0.0
77	0x00000000	0.0
78	0x00000000	0.0
79	0x00000000	0.0
80	0x00000000	0.0
81	0x00000000	0.0
82	0x00000000	0.0
83	0x00000000	0.0
84	0x00000000	0.0
85	0x00000000	0.0
86	0x00000000	0.0
87	0x00000000	0.0
88	0x00000000	0.0
89	0x00000000	0.0
90	0x00000000	0.0
91	0x00000000	0.0
92	0x00000000	0.0
93	0x00000000	0.0
94	0x00000000	0.0
95	0x00000000	0.0
96	0x00000000	0.0
97	0x00000000	0.0
98	0x00000000	0.0
99	0x00000000	0.0
100	0x00000000	0.0
101	0x00000000	0.0
102	0x00000000	0.0
103	0x00000000	0.0
104	0x00000000	0.0
105	0x00000000	0.0
106	0x00000000	0.0
107	0x00000000	0.0
108	0x00000000	0.0
109	0x00000000	0.0
110	0x00000000	0.0
111	0x00000000	0.0
112	0x00000000	0.0
113	0x00000000	0.0
114	0x00000000	0.0
115	0x00000000	0.0
116	0x00000000	0.0
117	0x00000000	0.0
118	0x00000000	0.0
119	0x00000000	0.0
120	0x00000000	0.0
121	0x00000000	0.0
122	0x00000000	0.0
123	0x00000000	0.0
124	0x00000000	0.0
125	0x00000000	0.0
126	0x00000000	0.0
127	0x00000000	0.0
