results/FoodTarget_imitation_6/AgentPlayer/AgentPlayer-1.pt (torch, 279079 bytes, 16 tensors)

discrete_act_size_vector f4 [1, 3]
000000 00 00 40 40 00 00 40 40 00 00 00 40
       3.0 3.0 2.0

network_body._body_endoder.seq_layers.0.weight f4 [128, 128]
000000 3d 4c aa bd 29 51 b3 bd b0 e3 71 bd 5a 24 d7 bd
       -0.083153225 -0.087557144 -0.05905503 -0.105049804
000010 fd 20 4f 3c 40 5a 0e be fb 94 e2 3c 1c 9e 80 3d
       0.012642142 -0.13901615 0.02765893 0.06280157
000020 83 31 1e 3e 25 91 b2 3d b1 74 87 3c f9 73 fa 3d
       0.15448575 0.0871909 0.016535135 0.12229151
000030 4e 9f 31 3e ca a6 06 3e ee 48 b4 3d a0 2a d9 3d
       0.17345926 0.13149562 0.08802973 0.10603833
000040 e4 d8 52 bc f8 eb 90 bb 50 1b 46 bd 07 93 91 3c
       -0.012869094 -0.004422661 -0.04836589 0.017770303
000050 9d 80 a3 3d 20 cc 6c 3a b2 de e3 3c 73 98 af 3d
       0.079835154 0.00090331025 0.02781615 0.08573999
000060 0f 22 f3 3d 41 2b 95 3c 1d bc 20 bd 58 e7 94 3d
       0.118717305 0.018209102 -0.0392419 0.07270688
000070 35 28 73 bd 56 37 90 3d 8f 2b 46 3d cc cf f5 3d
       -0.059364516 0.070418045 0.048381384 0.12002525
000080 b4 e0 9e 3d 28 24 e0 3d 55 27 47 be 68 0a 02 be
       0.077577025 0.10944396 -0.19448598 -0.12699282
000090 1f 2e 8d bd be 3a ba 3c 21 1d 75 bd 1b b1 d8 3d
       -0.068935625 0.022733089 -0.059842233 0.10580655
0000a0 0c 2c 02 bd f7 83 61 3b 9c c5 b3 bd 7b 18 58 3c
       -0.031780288 0.0034410933 -0.08777925 0.01318943
0000b0 52 c2 ad bd 11 2d 29 3e b9 97 cc bd 4a d3 84 bc
       -0.08484329 0.16521098 -0.09989876 -0.016214032
0000c0 03 75 d9 bd fc b0 6a 3d 71 e1 39 bd b6 21 10 be
       -0.10618021 0.05729769 -0.045381013 -0.1407536
0000d0 4e c6 e5 3d 5d 8b 16 be 71 b1 89 bc 9b 8d a2 bc
       0.11219464 -0.147016 -0.016808243 -0.019842913
0000e0 20 04 1c 3e 60 84 ac bd 3a a7 a2 bc 6c 2a 0c 3d
       0.15235949 -0.08423686 -0.01985513 0.034220144
0000f0 67 9f 22 3d 05 6a 11 bd 1b fd b2 bd c8 c7 f9 bd
       0.0397028 -0.0355015 -0.08739682 -0.121963084
000100 33 ee 6a bd b6 b6 bf bd 5a 1c 65 bd a5 6e 2d bd
       -0.05735607 -0.09361021 -0.05593524 -0.042341847
000110 fa 65 d9 3d 14 6b 05 3e c0 05 45 3c 22 e1 00 be
       0.106151536 0.13029128 0.012025297 -0.12585881
000120 37 85 e7 bd 2d eb a0 bd d2 43 42 3d d3 87 16 bd
       -0.113047056 -0.07857356 0.04742796 -0.036750626
000130 b7 6f f8 bd e5 36 65 be 52 a3 f0 bd 24 b3 24 3e
       -0.12130683 -0.22384222 -0.11749901 0.16083962
000140 f7 9a 41 bd 5f f6 dc 3d 89 cb 90 3d 7f 54 d1 3d
       -0.047266927 0.10789179 0.07070071 0.102211945
000150 7b 94 07 3e cf 21 98 bd 4e 72 1f 3d b0 cc 01 bd
       0.13240235 -0.074283235 0.03892737 -0.031689346
000160 f6 6a c9 3d 86 5f ac bd 17 82 e9 3d 7e b5 35 bd
       0.09834854 -0.08416657 0.11401766 -0.044362538
000170 7d 98 93 3d 18 56 26 3d 03 9e 75 3d 91 07 52 be
       0.07206819 0.04060945 0.059965145 -0.20510699
000180 a7 46 46 be 60 8c 66 3d e4 be 39 be 37 90 f3 bc
       -0.19362889 0.056286216 -0.18139225 -0.029731853
000190 ed 0a 9b bd a5 78 c6 bd 51 bf 9c 3d 8c 7c a7 3c
       -0.07570443 -0.0969098 0.07653678 0.02044513
0001a0 f4 e7 49 bd 46 43 b7 b9 73 17 60 3e 55 47 54 3d
       -0.049293473 -0.00034954603 0.21883945 0.05182584
0001b0 17 79 ff 3d 92 a4 4f be b3 40 00 be 04 36 a7 bd
       0.12474268 -0.20277622 -0.12524681 -0.081645995
0001c0 32 7a 8b 3c 43 99 0e 3d 92 c4 15 be 5a 08 d8 3d
       0.01702604 0.03481413 -0.14625767 0.10548468
0001d0 36 07 e3 bc 63 a4 2c 3d 50 72 89 be f3 86 59 ba
       -0.0277134 0.04214896 -0.26845026 -0.0008298002
0001e0 61 9a 89 3c e0 a1 e5 bd 83 c6 95 bd f7 d6 2a be
       0.016797246 -0.11212516 -0.07313254 -0.16683565
0001f0 c6 01 d1 bd 85 fd c6 bd a0 64 dc bd 3c 30 29 bd
       -0.102054164 -0.09716324 -0.1076138 -0.041305766
000200 11 19 3b 3e b0 11 8d bd 84 86 c3 3d 68 d0 94 bc
       0.18271281 -0.06888139 0.09547141 -0.018165782
000210 41 7e 90 3c 1d be 71 bd 60 55 5b bd 6d a5 a1 3c
       0.017638328 -0.059019197 -0.053548217 0.019732201
000220 69 f2 1d bd 50 c4 fe 3b 0e 22 29 3d 6e 87 02 3d
       -0.03856126 0.007774867 0.041292243 0.031867437
000230 57 98 14 bd ed dc 98 3d e6 be 4c bd b3 71 83 bd
       -0.036278095 0.07464013 -0.049986742 -0.06418171
000240 15 1d 52 3d c2 a8 ea 3c 50 f8 d7 3c 2c 68 51 3d
       0.051297266 0.028644923 0.026363522 0.051124737
000250 33 2e 3c bc be d6 51 3d 06 16 13 bb 7a b6 35 bd
       -0.011485624 0.051230185 -0.0022443547 -0.044363476
000260 5d 29 55 bd 7b 55 86 bc c2 36 b1 bb 7d 3a 00 be
       -0.0520414 -0.016398182 -0.005408139 -0.12522312
000270 a9 6c d2 bd 91 32 3d 3d 88 42 c0 3d 61 8d 85 bd
       -0.102746315 0.046190802 0.0938769 -0.065211065
000280 9d da a1 3c 51 2d e6 3d ec 46 e6 bd 9b a4 20 3c
       0.019757563 0.11239112 -0.11243996 0.00980487
000290 73 4a 84 bd d7 fc 1a be e6 e0 dd bd c2 b2 aa bd
       -0.064595126 -0.15135513 -0.108339116 -0.083348766
0002a0 40 00 55 bd e4 4f 9f bc cc 09 e9 bc 5f 3a 83 3c
       -0.05200219 -0.019447275 -0.028447054 0.016019044
0002b0 a8 a4 f5 bc 25 1b 85 3d 64 0d 1d 3d 77 40 e6 3c
       -0.02998574 0.06499318 0.03834285 0.028106911
0002c0 c3 b9 a3 3d 6a 02 af bd 2d 47 de bc 54 97 a2 3d
       0.079944156 -0.08545382 -0.027133549 0.0793902
0002d0 64 90 54 3d 9c 1f 91 bd fc b5 14 3d c3 d5 9d 3d
       0.051895514 -0.07086107 0.036306366 0.077067874
0002e0 98 c7 8b 3d 74 25 33 bd 67 55 11 bd 07 ca f6 bd
       0.06825179 -0.04373689 -0.035481837 -0.120502524
0002f0 c1 24 bc bc f6 a5 16 3e bb 4a 2d bd 6a ba 0b 3c
       -0.022966744 0.14711747 -0.042307597 0.008528331
000300 03 7a 6d 3d a2 01 ef bc 15 59 82 3c 8b 6a 8c 3d
       0.057977688 -0.029175583 0.015911618 0.06856259
000310 f6 04 15 3e e0 6a ec bc e4 8a f3 bd de 0d 32 be
       0.14552674 -0.028859556 -0.11891726 -0.17388102
000320 f1 6a 27 3e 90 83 f4 3d b9 1a 0e bd 37 5c 53 3d
       0.16349389 0.11939156 -0.034693453 0.051601615
000330 97 3c c4 3d 11 2b c3 bd 0e 07 09 3d e9 b1 f5 3d
       0.09581869 -0.09529699 0.033453993 0.11996824
000340 6a 9b 80 3d 1a 56 09 3d a4 66 10 3e f6 dc d4 bc
       0.06279643 0.03352938 0.14101654 -0.025984269
000350 f1 db 26 3d 10 bf 9c bd 94 c4 9c bc 8f 41 25 be
       0.040737096 -0.0765363 -0.019136705 -0.1613829
000360 fa 95 98 bd 49 ac 96 bd d0 6c b5 3d f2 c5 b7 bd
       -0.07450481 -0.073570795 0.08858645 -0.08973302
000370 c6 ac 8f 3d 06 29 4a bd 2f de a4 bd ad 2b 0d bc
       0.07015376 -0.04935553 -0.08050191 -0.00861637
000380 f2 83 a5 3c 6a ee d4 bd 85 7c 53 3e 1e 93 67 bd
       0.020204518 -0.103970364 0.20652969 -0.056536786
000390 85 fd 82 bd 67 01 59 bc 76 a3 12 3d 9e 41 f4 3c
       -0.06396011 -0.013244963 0.03580042 0.029816445
0003a0 92 bf 80 bd c7 60 e5 bd 93 e6 89 bd d5 61 e3 3d
       -0.06286539 -0.112000994 -0.06733432 0.11102644
0003b0 8e ce 9c bd 57 01 f0 bd 5c 1a 0e bd da 06 05 be
       -0.07656585 -0.117190056 -0.034693107 -0.12990895
0003c0 64 2b 99 3d e6 22 4d 3d 7d 5d 3c 3d f6 46 0a be
       0.07478979 0.05008211 0.045987595 -0.13503632
0003d0 32 9a e1 bd bd 7c db bc 18 1d 16 bd 3b ad 28 bc
       -0.110157385 -0.026792878 -0.03664884 -0.010295208
0003e0 12 6c d7 bc 3c ea 85 3d 6c 40 8d bb b5 17 f9 3c
       -0.02629665 0.06538817 -0.004310658 0.030406812
0003f0 1d 1a 27 3e 38 ba 1a bd 9a 51 d9 bc d4 7a 83 bd
       0.16318555 -0.03777525 -0.026528168 -0.06419912

network_body._body_endoder.seq_layers.0.bias f4 [128]
000000 00 00 00 00 00 00 00 00 00 00 00 00 00 00 00 00
       0.0 0.0 0.0 0.0
000010 00 00 00 00 00 00 00 00 00 00 00 00 00 00 00 00
       0.0 0.0 0.0 0.0
000020 00 00 00 00 00 00 00 00 00 00 00 00 00 00 00 00
       0.0 0.0 0.0 0.0
000030 00 00 00 00 00 00 00 00 00 00 00 00 00 00 00 00
       0.0 0.0 0.0 0.0
000040 00 00 00 00 00 00 00 00 00 00 00 00 00 00 00 00
       0.0 0.0 0.0 0.0
000050 00 00 00 00 00 00 00 00 00 00 00 00 00 00 00 00
       0.0 0.0 0.0 0.0
000060 00 00 00 00 00 00 00 00 00 00 00 00 00 00 00 00
       0.0 0.0 0.0 0.0
000070 00 00 00 00 00 00 00 00 00 00 00 00 00 00 00 00
       0.0 0.0 0.0 0.0
000080 00 00 00 00 00 00 00 00 00 00 00 00 00 00 00 00
       0.0 0.0 0.0 0.0
000090 00 00 00 00 00 00 00 00 00 00 00 00 00 00 00 00
       0.0 0.0 0.0 0.0
0000a0 00 00 00 00 00 00 00 00 00 00 00 00 00 00 00 00
       0.0 0.0 0.0 0.0
0000b0 00 00 00 00 00 00 00 00 00 00 00 00 00 00 00 00
       0.0 0.0 0.0 0.0
0000c0 00 00 00 00 00 00 00 00 00 00 00 00 00 00 00 00
       0.0 0.0 0.0 0.0
0000d0 00 00 00 00 00 00 00 00 00 00 00 00 00 00 00 00
       0.0 0.0 0.0 0.0
0000e0 00 00 00 00 00 00 00 00 00 00 00 00 00 00 00 00
       0.0 0.0 0.0 0.0
0000f0 00 00 00 00 00 00 00 00 00 00 00 00 00 00 00 00
       0.0 0.0 0.0 0.0
000100 00 00 00 00 00 00 00 00 00 00 00 00 00 00 00 00
       0.0 0.0 0.0 0.0
000110 00 00 00 00 00 00 00 00 00 00 00 00 00 00 00 00
       0.0 0.0 0.0 0.0
000120 00 00 00 00 00 00 00 00 00 00 00 00 00 00 00 00
       0.0 0.0 0.0 0.0
000130 00 00 00 00 00 00 00 00 00 00 00 00 00 00 00 00
       0.0 0.0 0.0 0.0
000140 00 00 00 00 00 00 00 00 00 00 00 00 00 00 00 00
       0.0 0.0 0.0 0.0
000150 00 00 00 00 00 00 00 00 00 00 00 00 00 00 00 00
       0.0 0.0 0.0 0.0
000160 00 00 00 00 00 00 00 00 00 00 00 00 00 00 00 00
       0.0 0.0 0.0 0.0
000170 00 00 00 00 00 00 00 00 00 00 00 00 00 00 00 00
       0.0 0.0 0.0 0.0
000180 00 00 00 00 00 00 00 00 00 00 00 00 00 00 00 00
       0.0 0.0 0.0 0.0
000190 00 00 00 00 00 00 00 00 00 00 00 00 00 00 00 00
       0.0 0.0 0.0 0.0
0001a0 00 00 00 00 00 00 00 00 00 00 00 00 00 00 00 00
       0.0 0.0 0.0 0.0
0001b0 00 00 00 00 00 00 00 00 00 00 00 00 00 00 00 00
       0.0 0.0 0.0 0.0
0001c0 00 00 00 00 00 00 00 00 00 00 00 00 00 00 00 00
       0.0 0.0 0.0 0.0
0001d0 00 00 00 00 00 00 00 00 00 00 00 00 00 00 00 00
       0.0 0.0 0.0 0.0
0001e0 00 00 00 00 00 00 00 00 00 00 00 00 00 00 00 00
       0.0 0.0 0.0 0.0
0001f0 00 00 00 00 00 00 00 00 00 00 00 00 00 00 00 00
       0.0 0.0 0.0 0.0

network_body._body_endoder.seq_layers.2.weight f4 [128, 128]
000000 d2 6d 14 bd 9f e2 71 bd b7 a1 a2 3d 3e 8a 86 bd
       -0.036237545 -0.059054013 0.07941001 -0.06569336
000010 8a b7 29 3d 1a 37 a7 3c e2 b5 75 3d 1f 66 8f 3c
       0.041434802 0.020412017 0.05998791 0.01750475
000020 16 ac 74 bd c7 55 65 3d c1 8d 1b bd 22 1c 14 be
       -0.059734426 0.055990007 -0.037976984 -0.14463857
000030 7d 5a a9 bd 99 45 ac bd da d9 3d 3d df ca 89 bd
       -0.082692124 -0.08411712 0.046350338 -0.06728148
000040 33 42 2d 3d 08 72 e1 3d e5 5a 88 bc 2f 0b 13 be
       0.04229946 0.11008078 -0.016644904 -0.14359735
000050 a4 6d 80 bd c7 46 fc bc d0 21 97 3d 12 85 42 bb
       -0.06270912 -0.030795468 0.07379496 -0.0029681367
000060 f9 e9 ae bd bb 78 21 bd ec f7 c8 bd 7d dc ac bd
       -0.085407205 -0.03942178 -0.09812912 -0.08440492
000070 17 b2 35 bd 9b 92 4f 3d 3d 94 bc 3b 25 7f c3 bd
       -0.044359293 0.050676923 0.005754976 -0.09545735
000080 5a 71 a6 3d be 1f 5f bd 09 98 55 be 88 05 94 bd
       0.08127089 -0.05447363 -0.20858778 -0.072276175
000090 93 d2 fb 3d fb 36 5b bd 8f b3 c6 bd 06 34 9c bd
       0.12296023 -0.05351923 -0.09702217 -0.0762711
0000a0 fd 8b 67 bd 21 43 df bc 7f df cd 3d 77 d7 99 3d
       -0.056529988 -0.02725369 0.10052394 0.075118
0000b0 0f ea ce 3d 01 08 b5 ba 2e c0 10 bd 20 87 82 3d
       0.10103237 -0.001381159 -0.035339527 0.06373429
0000c0 5d 51 3e bd 2b e8 d7 3d ff 36 b2 bb be a7 52 bd
       -0.046464313 0.105423294 -0.005438685 -0.051429503
0000d0 3f b1 5e 3e ac 71 60 bd 59 e6 38 3e 4b 2d 6e 3c
       0.21747302 -0.054795906 0.1805662 0.014537166
0000e0 93 2d c7 bd 2e 70 01 3b 4d 19 03 3d 21 82 86 3e
       -0.097254895 0.0019750702 0.03200655 0.26271155
0000f0 e1 02 1e bd 52 ce 81 bd fb 9b 67 bd ae fa a5 bc
       -0.038576964 -0.063381806 -0.05654524 -0.020261135
000100 57 df 15 3d db 0e 91 bd 71 89 7b 3d 86 39 4e 3d
       0.036589947 -0.070829116 0.06141037 0.050347827
000110 b7 14 31 bd f5 1f 4b bd 1d f3 91 3d a6 c1 0f 3d
       -0.043232646 -0.049591023 0.07126448 0.035096787
000120 a0 ef 31 3d 4d da 36 3c 88 67 b8 3c e9 36 f7 b9
       0.043441415 0.011160445 0.022510305 -0.00047152422
000130 ac 63 e7 3b 01 ec fb 3d b4 6f 85 3c b1 fd 31 3d
       0.0070614424 0.123008735 0.016288616 0.04345483
000140 d9 66 46 3e 0e b8 e9 3c 32 04 9a 3d 95 a8 54 bb
       0.19375171 0.028530147 0.075203314 -0.0032449116
000150 ff 3e 6c 3c 1f 0b c0 bc eb 72 9b 3c 50 b5 95 bd
       0.014419316 -0.023442803 0.018975696 -0.07309973
000160 33 01 03 3d 7e 99 91 3c 33 12 2c be dd c0 f4 3c
       0.031983566 0.017773386 -0.16803817 0.02987712
000170 f6 7c 09 3e b6 ca c9 bd f7 87 00 3c 1b c6 4e 3d
       0.13426575 -0.09853117 0.007844917 0.050481897
000180 2a d7 a9 3d c2 96 66 3d f9 91 da bc fa 1c 96 bc
       0.082929924 0.056296118 -0.026680933 -0.018324364
000190 3b 93 8b 3d b3 74 8b bd 20 b0 45 bc 65 39 3b 3d
       0.06815191 -0.06809368 -0.012065917 0.045709033
0001a0 cc c0 82 3d 1d a1 5a 3d 5a c9 17 be 3a b8 7a 3d
       0.06384429 0.053376306 -0.14822903 0.06121085
0001b0 90 55 67 bd 18 b7 3f 3e 8c f6 d7 bc 6d 64 35 3c
       -0.056478083 0.18722188 -0.02636268 0.011071307
0001c0 a9 90 fb 3c 0e 65 9b 3d 64 c9 c4 3d ca 10 18 3d
       0.030708628 0.07587634 0.09608725 0.037125386
0001d0 1d 1d 4f 3d b4 ee 91 3d f3 11 84 3c a5 84 fc bc
       0.050564874 0.07125607 0.01612184 -0.030824969
0001e0 fd e2 76 3d 69 32 99 bd 37 4f bd bd e2 e6 22 be
       0.060275067 -0.07480318 -0.09243625 -0.15908387
0001f0 61 92 78 3e 7e e9 01 3e 39 eb 72 bb 1b 68 15 3e
       0.24274589 0.12686726 -0.0037066473 0.14590494
000200 52 69 3e bd bf 7f 92 bb 8c 91 10 be a9 94 83 bd
       -0.04648716 -0.004470795 -0.14118022 -0.06424839
000210 5e 70 10 3d 31 f7 41 3d d4 20 57 3e c5 62 03 3d
       0.03526341 0.04735488 0.21008617 0.032076616
000220 41 bd 71 3d 22 a0 bb bd e2 56 e5 3d de c4 af bb
       0.059018377 -0.09161402 0.11198212 -0.0053640446
000230 00 a6 cf 3d b9 a2 31 3d 49 96 b1 bd 7b 6d 73 3b
       0.10139084 0.043368075 -0.08671243 0.0037144113
000240 e6 ef 8c bc 67 78 81 3e c5 e3 af 3d b8 db 03 3d
       -0.017204236 0.25287172 0.085883655 0.032191962
000250 f7 e7 1a 3d 40 ca 6a ba 8c 62 83 bd 55 e2 fc bd
       0.037818875 -0.0008956529 -0.06415281 -0.12347857
000260 f7 92 56 3d e5 71 b2 bd 7c f7 94 3b a9 6a 45 be
       0.05238625 -0.0871313 0.004546104 -0.19278969
000270 68 b6 8f bd d6 c4 9f 3d 3c c6 fc bd f5 6f 39 bd
       -0.07017213 0.07801215 -0.12342498 -0.045272786
000280 54 b5 a7 bd f7 93 41 3c 19 c6 bd bb 51 19 d9 bd
       -0.081888825 0.011815063 -0.0057914373 -0.10600532
000290 77 5e 6f 3d 4c 6e 5c be 84 d2 66 be f5 a5 8c 3d
       0.058439698 -0.2152645 -0.22541243 0.06867591
0002a0 86 77 d2 bd fb f5 36 3d ff b3 f6 bd fc 58 48 3c
       -0.102767035 0.04466818 -0.1204605 0.012228247
0002b0 8d 19 54 bd 54 98 58 be a8 cf d5 3c 2b d1 3a bd
       -0.05178218 -0.21151859 0.026099995 -0.045609634
0002c0 45 80 57 3d 3f 43 af 3d 43 7c 9b 3d 44 36 0d be
       0.05261256 0.08557748 0.075920604 -0.13790232
0002d0 a1 d0 6e 3d 3e 8d 49 bd 24 99 a1 bd 04 88 63 3d
       0.058304433 -0.049206965 -0.078905374 0.055549636
0002e0 d4 06 f7 bd 65 90 06 3e 21 6c 13 be 50 33 9f bd
       -0.12061849 0.1314102 -0.14396717 -0.07773459
0002f0 d5 08 1d be 2e df ff bd eb 71 90 3e 6b 43 63 3c
       -0.153354 -0.1249374 0.28211913 0.013871054
000300 4f d5 29 be 6f 97 b4 3d 16 6d 8e bd 1c 5d af bc
       -0.16585277 0.08817946 -0.069544 -0.021406703
000310 23 f5 4e bd 77 e6 c0 bd 11 0e 28 bd d9 a0 88 be
       -0.05052675 -0.09418958 -0.04102904 -0.26685217
000320 83 b9 49 bd 99 cd 65 bc 3e d7 b2 3d f9 f6 2d bd
       -0.049249183 -0.014026069 0.087324604 -0.04247186
000330 21 45 0b be 28 56 92 bc 9b e9 ad 3d 60 da 34 bd
       -0.1360059 -0.017863348 0.08491822 -0.04415357
000340 c5 6f c6 3d 00 46 86 bd 1c 2b 89 bd 0f bd 6a bd
       0.09689287 -0.0655632 -0.066976756 -0.057309207
000350 ca 64 7e 3d 62 55 f3 3c 63 58 2a bd 19 37 03 be
       0.06210784 0.0297038 -0.0415882 -0.12813987
000360 78 3b be bc b7 77 e0 bc 42 3d b0 3d c6 24 22 bd
       -0.023221716 -0.027400834 0.08605434 -0.03958585
000370 13 7a d8 bd 35 cf d5 3d e1 00 b3 3c 0b eb 54 bd
       -0.10570159 0.10439912 0.021851005 -0.051981967
000380 b3 07 24 bc ff 73 e6 3c 8c 45 85 bd 94 70 b1 3d
       -0.010011601 0.028131483 -0.06507406 0.08664051
000390 60 a4 2f 3d ce f8 9f 3d 9e 9b 46 3d fe 26 ce 3d
       0.04288137 0.078111276 0.048488252 0.10066031
0003a0 a4 dc f4 3c 7d 6a 3b bc a8 69 cc bc e7 43 ad 3d
       0.029890366 -0.011438963 -0.024952725 0.08460217
0003b0 07 af e6 3d 44 1f 8c bc ee 81 1a bd 36 ec 18 3d
       0.112638526 -0.017104752 -0.037721567 0.037334643
0003c0 ee 88 05 3e d6 63 05 3a 62 b2 b7 bd 5d fe ca 3d
       0.13040516 0.0005088424 -0.08969571 0.09911797
0003d0 83 1f 6b bc f7 af 01 3d be e3 df 3b 5a 55 4f 3d
       -0.014350775 0.031661954 0.006832569 0.050618507
0003e0 82 39 0e be 90 96 0d be e3 f5 f5 3c 9e c3 70 3c
       -0.13889125 -0.13826966 0.030024474 0.014695076
0003f0 40 9f 1a bc 31 b2 35 bd 1a a8 02 3d 50 a7 b6 3c
       -0.009437382 -0.04435939 0.031898595 0.022296578

network_body._body_endoder.seq_layers.2.bias f4 [128]
000000 00 00 00 00 00 00 00 00 00 00 00 00 00 00 00 00
       0.0 0.0 0.0 0.0
000010 00 00 00 00 00 00 00 00 00 00 00 00 00 00 00 00
       0.0 0.0 0.0 0.0
000020 00 00 00 00 00 00 00 00 00 00 00 00 00 00 00 00
       0.0 0.0 0.0 0.0
000030 00 00 00 00 00 00 00 00 00 00 00 00 00 00 00 00
       0.0 0.0 0.0 0.0
000040 00 00 00 00 00 00 00 00 00 00 00 00 00 00 00 00
       0.0 0.0 0.0 0.0
000050 00 00 00 00 00 00 00 00 00 00 00 00 00 00 00 00
       0.0 0.0 0.0 0.0
000060 00 00 00 00 00 00 00 00 00 00 00 00 00 00 00 00
       0.0 0.0 0.0 0.0
000070 00 00 00 00 00 00 00 00 00 00 00 00 00 00 00 00
       0.0 0.0 0.0 0.0
000080 00 00 00 00 00 00 00 00 00 00 00 00 00 00 00 00
       0.0 0.0 0.0 0.0
000090 00 00 00 00 00 00 00 00 00 00 00 00 00 00 00 00
       0.0 0.0 0.0 0.0
0000a0 00 00 00 00 00 00 00 00 00 00 00 00 00 00 00 00
       0.0 0.0 0.0 0.0
0000b0 00 00 00 00 00 00 00 00 00 00 00 00 00 00 00 00
       0.0 0.0 0.0 0.0
0000c0 00 00 00 00 00 00 00 00 00 00 00 00 00 00 00 00
       0.0 0.0 0.0 0.0
0000d0 00 00 00 00 00 00 00 00 00 00 00 00 00 00 00 00
       0.0 0.0 0.0 0.0
0000e0 00 00 00 00 00 00 00 00 00 00 00 00 00 00 00 00
       0.0 0.0 0.0 0.0
0000f0 00 00 00 00 00 00 00 00 00 00 00 00 00 00 00 00
       0.0 0.0 0.0 0.0
000100 00 00 00 00 00 00 00 00 00 00 00 00 00 00 00 00
       0.0 0.0 0.0 0.0
000110 00 00 00 00 00 00 00 00 00 00 00 00 00 00 00 00
       0.0 0.0 0.0 0.0
000120 00 00 00 00 00 00 00 00 00 00 00 00 00 00 00 00
       0.0 0.0 0.0 0.0
000130 00 00 00 00 00 00 00 00 00 00 00 00 00 00 00 00
       0.0 0.0 0.0 0.0
000140 00 00 00 00 00 00 00 00 00 00 00 00 00 00 00 00
       0.0 0.0 0.0 0.0
000150 00 00 00 00 00 00 00 00 00 00 00 00 00 00 00 00
       0.0 0.0 0.0 0.0
000160 00 00 00 00 00 00 00 00 00 00 00 00 00 00 00 00
       0.0 0.0 0.0 0.0
000170 00 00 00 00 00 00 00 00 00 00 00 00 00 00 00 00
       0.0 0.0 0.0 0.0
000180 00 00 00 00 00 00 00 00 00 00 00 00 00 00 00 00
       0.0 0.0 0.0 0.0
000190 00 00 00 00 00 00 00 00 00 00 00 00 00 00 00 00
       0.0 0.0 0.0 0.0
0001a0 00 00 00 00 00 00 00 00 00 00 00 00 00 00 00 00
       0.0 0.0 0.0 0.0
0001b0 00 00 00 00 00 00 00 00 00 00 00 00 00 00 00 00
       0.0 0.0 0.0 0.0
0001c0 00 00 00 00 00 00 00 00 00 00 00 00 00 00 00 00
       0.0 0.0 0.0 0.0
0001d0 00 00 00 00 00 00 00 00 00 00 00 00 00 00 00 00
       0.0 0.0 0.0 0.0
0001e0 00 00 00 00 00 00 00 00 00 00 00 00 00 00 00 00
       0.0 0.0 0.0 0.0
0001f0 00 00 00 00 00 00 00 00 00 00 00 00 00 00 00 00
       0.0 0.0 0.0 0.0

action_model._discrete_distribution.branches.0.weight f4 [3, 128]
000000 c7 f0 d7 3b 60 57 e3 3a ee 73 23 3c a5 c2 0c 3c
       0.006589982 0.0017344765 0.00997637 0.008591329
000010 0b a9 88 bb 9d 0f 69 3c 52 11 c4 3c 97 7b cd 3b
       -0.004170542 0.014224914 0.02393404 0.0062708366
000020 84 f4 ad bb cd b6 5b 3c ed 2d 92 bb 74 5d 8a bc
       -0.0053086895 0.013410282 -0.004461041 -0.016890265
000030 3c 6c b5 ba 50 52 85 3c bf 89 8f ba da 9d 75 bc
       -0.001384146 0.016274601 -0.0010951086 -0.014991248
000040 53 58 01 3a 80 2b 3f 3c 7e 2f be 3b 3a 83 64 bc
       0.0004934121 0.011668086 0.0058040014 -0.0139473025
000050 47 d9 48 bc a7 81 06 3c 3b 0c 54 3a 65 9d 4f bc
       -0.012258834 0.008209622 0.00080889807 -0.012671803
000060 a3 1f 60 bb 2a ee 7e 3b 57 c0 5c 3c fd e5 f7 3b
       -0.0034198544 0.003889928 0.013473592 0.0075652585
000070 77 31 a3 bb 3f 6f 42 3c 02 2c 06 3b e6 9f 36 3c
       -0.004980262 0.011867343 0.0020473008 0.011146521
000080 d3 01 f1 bb f0 b6 34 bb 6a f9 0f bc 3f 4f 26 bb
       -0.007354954 -0.002757486 -0.008787492 -0.0025376824
000090 e3 2a 13 3c 40 a9 ed 3b fb c5 32 bc e6 f5 9f bb
       0.008982393 0.007252842 -0.01091146 -0.0048816083
0000a0 e4 47 2f 39 46 6b 96 bc 29 d7 80 bb 00 98 ef 3a
       0.00016716082 -0.018361699 -0.003931899 0.0018279552
0000b0 71 be 27 bb a5 5b a5 3b 35 50 38 bc e0 00 99 bb
       -0.002559569 0.0050463253 -0.011249592 -0.0046692938
0000c0 ca 2d 69 bb 98 4b 78 bc ef 26 c4 bb 69 71 ba bb
       -0.003558027 -0.015154742 -0.0059860866 -0.005689789
0000d0 97 fc e7 ba b2 fc 52 bb 73 f8 dc bb 5f 82 5e bb
       -0.0017699179 -0.0032194075 -0.0067434846 -0.003395222
0000e0 08 f2 68 bc 2b d7 21 ba c8 60 09 3c 6c e9 47 bc
       -0.014217861 -0.0006173725 0.008384891 -0.012201648
0000f0 dc 0b 0e bb e2 d6 66 3c 12 5b 89 b8 93 a3 44 3a
       -0.002167455 0.014089318 -6.549632e-05 0.0007501181
000100 ea 1a e8 ba a0 76 80 bb bb e8 40 3b 7b 2f 9b ba
       -0.0017708216 -0.003920391 0.0029435593 -0.0011839712
000110 cf 70 d1 ba 65 66 9e ba 67 61 19 3b 00 4e eb 3a
       -0.0015979054 -0.0012084959 0.0023404004 0.0017952323
000120 1f ba 3b bc 1d 10 76 bb 65 c6 a1 3c d7 b8 a1 ba
       -0.011457949 -0.0037546225 0.019747922 -0.0012338412
000130 3a 88 6c 3a e3 5d 8d bb 24 71 92 3b c1 2b 2f bc
       0.0009022985 -0.0043141707 0.004469054 -0.010691584
000140 0b e3 47 bc ca e4 82 3c cf f9 3a bb 10 9c 3a bc
       -0.012200127 0.015978236 -0.0028530245 -0.011389747
000150 be e9 17 3c 97 5a 63 bc 78 58 de 3b dd 76 b1 ba
       0.009272037 -0.013876579 0.0067854486 -0.0013539452
000160 ed 7c 17 bc 33 cf 0b 3c b6 ff a6 3b b8 29 49 bb
       -0.009246093 0.008533287 0.005096401 -0.0030695032
000170 73 fc 2f 3c 41 cd 38 3c 50 e3 57 3b c3 7b ce ba
       0.010741341 0.011279405 0.0032941885 -0.0015753437
000180 ba 76 5a 3b d7 8d 01 bc 53 83 ad ba f8 dd 56 3c
       0.0033334927 -0.007907352 -0.001323799 0.013114445
000190 c6 5e 11 3c 96 47 3d bb 15 de 85 3b 8a eb 95 3c
       0.008872693 -0.002888178 0.004085312 0.01830079
0001a0 97 56 93 bc fc 24 12 bc c4 14 11 ba 53 d9 77 3b
       -0.017985625 -0.008919951 -0.00055344054 0.0037818744
0001b0 52 85 63 3c a7 0c 86 bb 06 94 b0 3b c6 d0 0d 3b
       0.0138867665 -0.0040908637 0.0053887395 0.0021639331
0001c0 63 d7 22 3b 3d a0 cb ba 2c 6c 23 bc d5 e9 d2 3b
       0.0024847619 -0.0015535426 -0.009974521 0.0064365664
0001d0 bf 0d 59 bc 1b 5b b3 3c b7 2c 28 bc 30 cd cc 3b
       -0.013247906 0.021894028 -0.010264567 0.006250046
0001e0 e2 90 53 bc e2 d7 b2 3b 0d 0e 44 bc ba 94 97 bb
       -0.012912961 0.005457864 -0.011966241 -0.004625884
0001f0 0d 6a fa 3b 26 71 43 bc 75 90 2b 3c 19 97 21 3c
       0.007642037 -0.011928832 0.010471453 0.009862685
000200 e5 ea 7b 3c d2 44 5a bc a3 c1 89 bb 1a 3e 02 3c
       0.015375827 -0.013322072 -0.0042039915 0.0079493765
000210 ad d4 52 3c cf 13 ec bc 75 61 81 3b c3 e8 6c bb
       0.012868089 -0.02881804 0.0039483854 -0.003614948
000220 cc 09 3c bc 85 91 7b 3a 8b 28 be b9 4f 66 9e bb
       -0.011476945 0.0009596574 -0.0003626983 -0.0048339735
000230 c3 c1 5d 3b cc 40 31 bc 82 02 28 bb 2a 32 6b 3b
       0.0033837415 -0.010818671 -0.002563626 0.0035888054
000240 e3 db 3e 3b 85 a9 88 3b 85 22 02 3b 55 1d 44 3b
       0.0029122762 0.004170599 0.0019857 0.002992471
000250 e3 2f e2 bb 90 cd 6f 3b 27 59 a3 bb dc 58 4c bc
       -0.006902681 0.003659103 -0.004984993 -0.012472358
000260 f3 69 bb 3c 83 61 0f bb 33 cf b4 3c 67 21 cb 3b
       0.022877669 -0.002187819 0.022071457 0.00619905
000270 dc cd 37 bb da 87 01 bc 43 af 29 3c 47 13 99 3b
       -0.0028046286 -0.007905925 0.010356727 0.0046714875
000280 45 0c db 3b 0a 85 48 bc 22 05 e2 b8 87 86 ad bb
       0.0066848123 -0.01223875 -0.00010777476 -0.005295578
000290 61 74 34 bc 8f 85 0d 3c c4 f3 36 bc ea 8c 62 bb
       -0.011014075 0.0086378 -0.011166517 -0.0034568855
0002a0 fa 9f 93 3a 00 eb f0 3b 64 6f 31 bc 5d c6 5e bc
       0.0011262887 0.007352233 -0.01082978 -0.013597098
0002b0 2b d2 7a bc 8b f4 7a 3c 3c 55 be bb a5 cb 7f bc
       -0.015308897 0.015317093 -0.0058085006 -0.0156125175
0002c0 98 63 09 3b 96 d5 9b 3c 9e bd 1b 3c 76 95 4a ba
       0.0020963904 0.019022744 0.0095056575 -0.000772796
0002d0 2d 8a 3b bc 43 58 c0 ba c0 9c 4d 3c c8 21 d5 3b
       -0.011446518 -0.0014674742 0.012549579 0.006504271
0002e0 77 33 ef bb 9d 65 6e bc fb c2 e0 34 6f 21 a5 3b
       -0.0072998363 -0.014550594 4.1865118e-07 0.005039386
0002f0 a7 79 31 3c f7 12 ba 3b db d5 9d bb 44 80 05 3c
       0.010832227 0.0056785303 -0.0048167533 0.008148257
000300 83 35 b4 3a dd b9 9c bb 7e 5c 83 bc 1b f9 db ba
       0.0013748858 -0.004782899 -0.016035315 -0.0016782613
000310 27 9a 69 3c 73 ae 35 3c bc 6c 16 bc 2d 26 86 ba
       0.014257944 0.011088955 -0.009181198 -0.0010234766
000320 d9 7f 3b ba 5e 8f 20 ba e8 3f fc bb 9f be 08 3b
       -0.00071525347 -0.0006124879 -0.007698048 0.0020865572
000330 2f be 34 3a 20 c7 96 bb c4 44 a9 b9 4f ff f5 ba
       0.00068947946 -0.0046013743 -0.00032285426 -0.0018768104
000340 10 0a 10 bc 31 e0 a7 bb d1 c1 a3 b9 e5 b0 64 bb
       -0.008791462 -0.0051231612 -0.00031234187 -0.0034895476
000350 83 1a 61 3c cf 7d 17 3b 98 ab 82 bc f8 59 b0 3a
       0.013739231 0.002311576 -0.015950963 0.0013454547
000360 e0 85 3c bb 9a 19 db 3b 27 79 a0 3b 78 01 01 bc
       -0.002876632 0.0066864016 0.004897255 -0.007873885
000370 63 e9 5a 3a 90 67 2e 3c 48 fb 70 3a 5f 9b dd 3b
       0.00083508174 0.010644808 0.0009192717 0.0067629064
000380 d5 5c 1e bc 66 2c 07 3a bd 09 01 3c e2 3c f9 3a
       -0.009665688 0.0005156457 0.007875857 0.0019015337
000390 b8 af 5c 3c 33 e7 16 3b dd 8d f0 bb 23 95 79 bc
       0.013469629 0.002302599 -0.00734113 -0.015233311
0003a0 5d c8 73 3c 4b 4e 62 3b 9b 34 1c 3b 05 a7 d1 3a
       0.014879313 0.003453153 0.0023835066 0.001599521
0003b0 05 32 ce ba b8 97 3f 3c 85 e5 fc 3a bb 99 e2 ba
       -0.001573146 0.011693887 0.0019294476 -0.0017288247
0003c0 62 6f 7b 3b 3a 44 b7 b8 18 39 f8 ba 4c bf 47 b9
       0.003836595 -8.738828e-05 -0.0018937914 -0.00019049383
0003d0 83 ef f8 bb 56 66 83 bb 03 93 66 3c e8 19 af bb
       -0.0075969114 -0.004010002 0.014073136 -0.0053436644
0003e0 03 8d ce ba 2d 91 06 3c 23 d4 4b bb 85 a6 0e 3c
       -0.0015758578 0.008213324 -0.0031101785 0.008706694
0003f0 82 3a 60 3c 72 a0 02 bc e0 25 02 3b 72 f3 57 3a
       0.013685824 -0.007972823 0.0019859 0.00082378753

action_model._discrete_distribution.branches.0.bias f4 [3]
000000 00 00 00 00 00 00 00 00 00 00 00 00
       0.0 0.0 0.0

action_model._discrete_distribution.branches.1.weight f4 [3, 128]
000000 7d 81 ba ba c5 54 14 bc cb 31 88 3c e6 72 84 bb
       -0.0014229264 -0.009053414 0.016625306 -0.0040420173
000010 f5 ee 95 bb c3 be 8c 3c e6 2d 87 bb 8a 08 30 bb
       -0.004575605 0.017180806 -0.0041253446 -0.0026860558
000020 58 80 36 3a eb a5 86 3a 2f 95 be ba 86 b3 a4 bb
       0.0006961874 0.0010272836 -0.001454031 -0.0050262837
000030 48 19 f9 3a ff 83 73 3b 5a c8 fa 3b 49 79 37 3b
       0.0019004727 0.0037157533 0.0076532783 0.0027995876
000040 c4 f1 be 3b 0c 96 1b ba 61 49 c6 bb 91 f8 88 bb
       0.0058271606 -0.00059351395 -0.006051228 -0.004180022
000050 e3 28 03 bc 75 e3 91 39 ba 03 8c 3b b7 02 12 bb
       -0.008005354 0.00027826024 0.004272905 -0.002227945
000060 9b 85 7c bb 03 c1 1a 3b c0 b5 c1 bb 36 92 34 3c
       -0.0038531784 0.002361358 -0.005911559 0.0110211875
000070 af 16 8f 3a 61 21 c5 39 1a c7 db ba 73 49 00 bb
       0.0010916794 0.00037599637 -0.0016767711 -0.001957503
000080 fb 51 95 3c 27 cd 8f bb 7b 53 03 3c 2a 1e d9 3b
       0.018227568 -0.0043884697 0.008015509 0.0066259103
000090 91 eb 97 bb 73 d0 68 3c 5d c0 d6 bb 45 eb 56 3c
       -0.004636236 0.014209854 -0.006553693 0.013117616
0000a0 87 f1 cb b9 38 32 63 bb 8f 6b 2a 3c 47 5d 4c 3c
       -0.0003889913 -0.0034667384 0.0104016205 0.012473411
0000b0 6a 58 8b 3b 31 69 00 bb ac f9 2d bb f9 05 81 bc
       0.004252483 -0.001959395 -0.002654652 -0.015749918
0000c0 4b 36 ac bb d7 4f 18 3b 96 b8 80 bc 58 31 f6 3b
       -0.0052554957 0.0023240948 -0.015713017 0.0075132065
0000d0 95 90 58 bb 8f b8 a0 bc 81 39 07 3c 73 68 3b 3c
       -0.0033045162 -0.019619254 0.008253456 0.011438477
0000e0 d7 32 c4 bb b5 17 6c bb 3d d9 07 3c 6b 09 d5 3b
       -0.005987506 -0.0036024873 0.00829154 0.006501367
0000f0 5f 06 43 3a 60 7e 59 3b 1c d6 a8 bb 3b 26 6b 3c
       0.0007439609 0.0033186898 -0.005152477 0.014352377
000100 19 6c 88 bb 5f 7d c5 b9 4b e7 d8 bb 7d 7f d5 3b
       -0.004163277 -0.00037668177 -0.006619369 0.006515442
000110 df 0f 61 3b 83 b3 7a bc cf d7 40 3b 3f b2 c3 3a
       0.0034341735 -0.015301588 0.0029425507 0.0014930441
000120 1b 47 66 39 00 72 71 3c 40 d0 b7 3c 19 f0 20 bc
       0.00021960998 0.014736652 0.022438169 -0.009822869
000130 f3 90 22 bc fd d3 3e bc 57 00 83 3c f7 b5 94 bc
       -0.009922254 -0.011647222 0.015991373 -0.018153174
000140 12 46 7e bc 4d 09 e2 3a 1a b8 89 bb e7 db f2 3b
       -0.015519636 0.0017245203 -0.004202855 0.0074114683
000150 7d 22 ea bb 5f 43 3c 3b fb a3 36 bb 76 d4 89 3c
       -0.0071452246 0.002872668 -0.0027868736 0.016824942
000160 60 86 ce 3b 23 10 0e bb 18 5b 61 bc 3d 05 89 bb
       0.00630264 -0.0021677099 -0.013754629 -0.0041815327
000170 47 8e 34 bc a7 56 21 bc d7 dc 04 3a 14 88 93 ba
       -0.01102025 -0.00984732 0.0005068308 -0.0011255764
000180 66 c4 a0 3a 42 86 1b 3c c7 b0 3e bc 22 74 12 bc
       0.0012265563 0.009492459 -0.011638827 -0.008938821
000190 04 b2 90 bb b2 2b 0a bb 87 55 b1 bb fb 35 25 3b
       -0.0044157524 -0.0021083173 -0.005411807 0.0025209177
0001a0 57 55 69 3c ad cb 86 3b c4 30 22 bc 5d e2 be bb
       0.014241538 0.0041136355 -0.009899322 -0.0058253244
0001b0 f9 01 47 3b 62 e4 c9 3b 30 1e 7e ba a3 31 53 38
       0.0030366166 0.0061612586 -0.00096938293 5.0352548e-05
0001c0 1b e1 ed bb 7d a1 0e bc 25 8d 38 3c 05 a9 21 3c
       -0.0072595007 -0.008705494 0.01126412 0.009866958
0001d0 dd ca 8e 3b 83 ff 35 ba bc 71 1e bc 05 eb 8d bb
       0.0043576793 -0.0006942676 -0.009670671 -0.004330995
0001e0 65 c3 d7 39 10 a4 db 3a 2f d0 10 3b 89 58 c0 3b
       0.00041153576 0.0016757268 0.0022096743 0.005869929
0001f0 60 be 84 bc b4 4a 14 bc 13 cd 26 bc df d2 d0 bb
       -0.01620406 -0.009051014 -0.010180729 -0.006372794
000200 78 ae 4c bb 04 b6 41 3b 0a aa d0 bb c7 58 00 bb
       -0.0031231921 0.0029557953 -0.0063679265 -0.0019584165
000210 53 d7 16 bc 6f 12 69 3b 9e d8 01 3b f8 95 eb b9
       -0.009206611 0.0035563966 0.0019812952 -0.00044934428
000220 7b 06 91 3b c6 d7 ac ba 27 5b a9 3c 57 b1 15 3c
       0.0044258214 -0.0013186864 0.020673348 0.009136519
000230 42 89 01 bc f4 60 39 3b e9 14 b9 3b b0 8c e4 3b
       -0.00790626 0.0028286548 0.0056482446 0.006974779
000240 6a 85 5d bc eb 99 61 3b 86 46 86 3b 69 e8 ba 3b
       -0.013520578 0.0034424018 0.0040977625 0.005703975
000250 78 f1 55 bc f0 49 ec bb 59 f5 0a 36 e7 8e 5f bc
       -0.013058059 -0.0072109625 2.0706414e-06 -0.01364491
000260 cf 57 3a ba ee 4b 09 bc 7d 12 87 3b 64 77 98 3b
       -0.00071084214 -0.008379919 0.004122077 0.0046529043
000270 fd 9f 93 ba bb 27 ae bb 4b 54 11 3c 2a 7c a0 ba
       -0.001126289 -0.005314795 0.008870195 -0.0012244035
000280 80 c3 58 3c 11 ee 33 bc cf 26 02 3b 8b a6 40 bb
       0.013230205 -0.010982052 0.0019859558 -0.0029396142
000290 24 36 98 bc 27 ea 8b 3b ab 5a 3a bb c1 d9 04 3c
       -0.018580504 0.0042698565 -0.002843539 0.008108557
0002a0 39 3e a5 3a 8a c4 5a bc 4d 25 af bb 72 ae 25 3c
       0.0012607045 -0.013352523 -0.005345023 0.010112392
0002b0 f1 ab 36 bc c0 a1 d0 ba 33 16 0e 3a 3f f4 3c bb
       -0.011149392 -0.0015917346 0.0005420178 -0.0028832105
0002c0 11 0b 2e 3b 3c 94 c2 bc 5b 6c b2 3b da 25 28 3b
       0.002655689 -0.023752324 0.005445046 0.0025657327
0002d0 f2 b3 71 3b 7f f8 bb bb cb c5 8f bc 2d 99 0b bb
       0.0036880937 -0.00573641 -0.01755037 -0.0021301017
0002e0 bb fb ac bb 13 4f 79 3b b3 9f 43 3c a4 24 35 3a
       -0.005279032 0.0038041517 0.011939931 0.0006910062
0002f0 82 a7 bc bb d9 81 3a bb 53 bb 0e bc b2 c0 d2 bb
       -0.005757273 -0.0028458743 -0.008711654 -0.0064316625
000300 36 40 30 bc 97 f5 13 3c c9 b6 cb 3a 44 3b 03 bc
       -0.010757497 0.009030721 0.0015542145 -0.0080097355
000310 c7 b7 01 b9 3e 2a 81 bc d7 7d d2 bb 87 eb 8c 3b
       -0.00012370861 -0.015767213 -0.0064236927 0.004300538
000320 0b 86 68 3b 0d 89 03 3c e8 74 c4 3a cf b4 c0 bb
       0.0035480286 0.008028281 0.0014988454 -0.005880929
000330 9f fb 7e b8 e7 21 7d 3a 25 9c 7b bb b7 c8 3b 3b
       -6.079266e-05 0.0009656236 -0.003839263 0.002865357
000340 38 a3 f9 bb 20 b2 ae 3b 99 18 c7 3b 32 ec fa ba
       -0.007618334 0.0053312927 0.0060759303 -0.0019143878
000350 cf c1 70 3c 6b 84 6b 3b ff 9c 86 ba b0 aa 51 3c
       0.014694645 0.0035937082 -0.0010270177 0.012797043
000360 ac 9e 1e 39 a5 9c 82 bc 93 36 d2 3b c7 dd 95 3b
       0.00015127164 -0.015943835 0.006415197 0.004573557
000370 96 a4 8d bc e8 6c 65 3b bd 95 dd bb 98 c9 46 bc
       -0.017290395 0.003500754 -0.006762235 -0.012133025
000380 ca 0c 6c bb 0a 7e 77 3c d6 68 3d bc 50 4b 02 bc
       -0.0036018365 0.015105734 -0.011560639 -0.007952526
000390 a0 a1 6d bc fb 9a 42 bc 12 f2 d1 bb 1b de a4 3b
       -0.014503866 -0.011877771 -0.006407031 0.00503136
0003a0 af 1a e0 3b 7f 86 d7 bc fe 13 29 3a 83 69 d3 3b
       0.0068391184 -0.02630925 0.00064498174 0.006451787
0003b0 07 dd 53 3c bf 48 09 3b 6d 75 6b 3b 6a 21 dd 39
       0.012931115 0.00209479 0.0035928146 0.000421773
0003c0 60 f6 ef bb b6 b1 1f 3c b6 2f 8e bc c0 aa 12 bc
       -0.0073230714 0.009746959 -0.017356735 -0.008951843
0003d0 01 2d 4b bc a1 fd a6 bb 8b 24 84 bc e8 b5 8c 3a
       -0.0124008665 -0.005096153 -0.016130706 0.0010735365
0003e0 e7 3c a8 bb b7 cb 5b 3b 13 79 26 3b fc 4c 43 3c
       -0.0051342133 0.0033538172 0.0025401756 0.01192021
0003f0 96 1f 00 bb 50 9b 51 bc e8 fb f0 ba a0 8f d8 3b
       -0.0019550077 -0.012793377 -0.0018385621 0.0066089183

action_model._discrete_distribution.branches.1.bias f4 [3]
000000 00 00 00 00 00 00 00 00 00 00 00 00
       0.0 0.0 0.0

action_model._discrete_distribution.branches.2.weight f4 [2, 128]
000000 9d c8 3b bc 2b fb 48 3a f5 ba f5 ba 66 f4 37 bb
       -0.011461404 0.00076668215 -0.0018747734 -0.0028069257
000010 ef 48 55 3b cf 71 a0 3b 97 6e ba 3b b2 f3 35 3c
       0.0032544693 0.0048963795 0.005689453 0.011105465
000020 f2 db 2d bb 2f 30 51 b9 4d 1f ae 3b dc 13 9a bb
       -0.0026528803 -0.00019949743 0.00531379 -0.0047020745
000030 5f 2a 34 3c 37 f6 20 3b 86 7e 31 3c 1b 2a 2d bc
       0.01099643 0.0024560818 0.010833388 -0.010569121
000040 b0 ff 88 3c d3 4e 07 3c 07 d8 81 bb 0d 16 ee bb
       0.016723484 0.008258539 -0.00396252 -0.0072658123
000050 f4 1c b7 bb 7b 93 75 3b 2b b7 8b bb a9 bc 1f 3c
       -0.0055881683 0.0037471938 -0.0042637787 0.00974957
000060 a8 4b 2e bc 26 16 0d 3c 04 b5 9d bb fd fe 4c 3a
       -0.010638155 0.008611238 -0.0048128385 0.00078199786
000070 90 b7 f5 3b 86 c1 21 bc 22 c0 12 bc 37 74 6d 3b
       0.007498689 -0.0098728 -0.008956941 0.00362326
000080 7d 28 37 3c b8 5a e3 3b 90 90 34 bc a7 00 d7 bb
       0.011179087 0.0069383048 -0.0110207945 -0.006561357
000090 b7 b7 94 3a 23 4d 93 3c 57 2c df ba c8 ab 20 bc
       0.0011346255 0.017981118 -0.0017026764 -0.009806581
0000a0 eb 69 9a 3c 5f f2 0c bb 47 16 a9 3b 43 76 9d bc
       0.018849334 -0.002150677 0.0051601264 -0.01922143
0000b0 72 29 56 bc da 53 28 3c b6 b5 47 3b cb 47 8d bb
       -0.013071405 0.010273898 0.0030473298 -0.004311537
0000c0 1f 52 a4 bb 3e 75 2e ba 43 f7 0e 39 9b 97 12 bb
       -0.0050146724 -0.00066550437 0.00013634287 -0.0022368196
0000d0 eb c2 43 bc e1 16 0b 3b e2 77 15 3b ba f6 9e 3a
       -0.0119483275 0.0021223354 0.0022807051 0.0012127974
0000e0 57 b7 bb 3b 92 f0 eb bb c7 45 b2 bb c7 16 63 3b
       0.005728643 -0.007200309 -0.005440447 0.0034651028
0000f0 1b bf 1e 3c 1f 92 2e ba 17 0d 64 bc 1b 2a de bc
       0.009689118 -0.0006659347 -0.0139191365 -0.027119687
000100 28 00 d1 ba a6 28 37 39 4e cd 07 3c a8 e7 4d 3b
       -0.0015945481 0.00017467383 0.008288695 0.0031418595
000110 92 a4 d8 bb e5 04 2c bc 5d 3b 4e 3c 86 42 80 bb
       -0.006611415 -0.010499214 0.0125873955 -0.00391418
000120 0d b2 66 3b 4c 72 ad 3c eb 1e 79 3b bb 4b c7 bb
       0.0035201341 0.021172665 0.0038012813 -0.006082026
000130 59 98 04 3b b5 3e e8 3b a3 5c 5f 3b 50 ea bc 3a
       0.0020232408 0.0070875534 0.0034082315 0.0014413092
000140 53 dc 16 bc 4a 93 b7 ba a3 75 82 3c b2 ff 67 bc
       -0.009207803 -0.0014005688 0.015925234 -0.014160084
000150 4d 4b 1d 3b 21 7a 3c bc 98 f3 01 3a c2 79 88 3a
       0.0024001182 -0.011503727 0.0004957258 0.0010412263
000160 31 7e 35 bb 72 d9 24 ba ff 5c 04 3c 37 22 57 3c
       -0.0027693624 -0.00062885054 0.008078813 0.013130716
000170 a4 57 44 3c ce 40 a7 3b f8 b6 06 bc fd d4 ff 39
       0.011983786 0.005104161 -0.008222334 0.0004879608
000180 45 d3 51 3b c0 4c 8f b9 f0 8b 17 3c c7 e6 20 ba
       0.0032016796 -0.0002733227 0.009249672 -0.0006137904
000190 7f 94 86 3a df e2 3c 3b 22 16 10 bb 49 f4 9e 3b
       0.0010267644 0.002882175 -0.0021985848 0.0048508984
0001a0 45 b5 43 bc 08 06 64 bc 28 b1 2c ba 25 4b e1 3b
       -0.0119450735 -0.013917454 -0.00065876776 0.006875413
0001b0 97 b7 8a 3c 90 dc 52 3b 32 47 0f 3b d3 ce 14 3b
       0.016933246 0.0032174923 0.0021862504 0.0022706285
0001c0 38 67 cd bb 22 cb 0d ba 5b b9 b4 bb e2 f0 f0 3b
       -0.006268408 -0.00054089923 -0.00551526 0.007352934
0001d0 a4 c7 43 39 90 b1 7c 3b bd 9d 33 3c 07 e7 b7 bb
       0.00018671021 0.0038557984 0.010962901 -0.0056122574
0001e0 e8 6f f4 b9 e0 cc af ba 50 2d 77 3b 1c 08 ba bb
       -0.00046622683 -0.0013412498 0.0037716217 -0.0056772362
0001f0 d3 d7 9f bb 68 81 5a bc 7c 29 c0 3b ee ea 06 3c
       -0.004878023 -0.013336517 0.0058643203 0.008234723
000200 7f 63 c2 bb 04 c2 82 bc c8 09 2a bc 58 29 23 3c
       -0.005932271 -0.015961654 -0.010378309 0.009958588
000210 e2 fe 6e 3b b8 ee 7c bb d7 66 6e 3b 8a 44 50 3a
       0.003646784 -0.0038594436 0.0036377215 0.00079447834
000220 b8 e4 fb bb fb 79 09 3c a0 dd 5e 3c 81 b5 be bb
       -0.0076871775 0.008390899 0.013602644 -0.005819977
000230 1f 77 26 3c 75 11 e8 3b 56 31 2a 3b f1 4e 18 3a
       0.010160237 0.007082159 0.0025969348 0.0005810103
000240 7b a4 ab 3b 28 a3 a9 3a c7 91 e4 3b 37 5b a2 3b
       0.0052381135 0.0012942301 0.006975386 0.0049547213
000250 e1 f2 9a 3c b3 67 bc ba 47 12 e5 bb c5 52 03 3c
       0.018914642 -0.0014374166 -0.006990704 0.008015339
000260 10 5b ae bb a0 84 0b 3c ad 34 06 bb f9 e9 87 3b
       -0.005320914 0.008515507 -0.0020478175 0.0041477648
000270 58 3f ec bb ae af b9 bb f4 32 8c 3c 1b 8c 1c bc
       -0.0072096996 -0.0056666946 0.01711414 -0.009554888
000280 a9 d5 ab 3b 68 9b 55 bc 3b 82 44 3a b0 ae 82 bb
       0.005243976 -0.01303754 0.00074962125 -0.0039881095
000290 65 c9 ea bb 62 3c 6c 3b 03 6e 11 3c 9d b2 da 3b
       -0.0071651214 0.0036046733 0.0088763265 0.0066741244
0002a0 c3 52 da 3b d2 2e e8 3a f3 bd ab 3b 26 d9 83 bc
       0.006662698 0.0017714149 0.0052411496 -0.016094755
0002b0 af 7d 92 3a 4b 18 09 bc 09 55 1f bb 9b 1f 3f 3c
       0.0011176373 -0.008367608 -0.002431216 0.01166525
0002c0 a7 8f 03 bb 76 e8 8f 3a ee 6a 03 3b 15 fd 41 bc
       -0.0020074637 0.0010979313 0.0020052749 -0.011840125
0002d0 f8 c8 54 bc 0b 84 8f 3a ef 98 7d 3c df 59 40 3c
       -0.012987368 0.0010949386 0.015478357 0.011740177
0002e0 57 47 32 3c fc 57 2d bc ed fc 62 bc 8b e5 c3 bb
       0.010881267 -0.010580059 -0.0138542475 -0.0059782914
0002f0 0a b9 01 bc 15 18 66 3c d7 0d 9a bc 7b 31 af bb
       -0.007917652 0.014043828 -0.018805427 -0.0053464747
000300 2b 4f 07 3c 9a 6a 8d bc 3f 68 fc 3a 23 82 bf bb
       0.008258621 -0.017262746 0.0019257142 -0.005844371
000310 7b e2 80 bc 22 20 0c 3c 7b bc 9d ba b6 16 9e bb
       -0.015732994 0.008552583 -0.0012034321 -0.0048244847
000320 be 4b b9 3b 43 0b 21 bb bb 93 82 bb 22 95 65 37
       0.005654781 -0.0024573363 -0.003984896 1.3684186e-05
000330 d3 84 b0 bb ab a3 7a bc 61 47 20 3b 95 63 8f b9
       -0.0053869276 -0.015297811 0.0024456608 -0.0002734928
000340 18 e7 55 bc d2 34 51 bb fd 3d 05 3b fc 9f a8 bc
       -0.013055585 -0.0031922353 0.0020331137 -0.020584099
000350 36 73 2c bc a5 6e 0b bc 4b ed 41 3c c7 c6 da bb
       -0.010525515 -0.008510266 0.01183636 -0.006676528
000360 55 41 61 3c 37 d6 6d bb dc ff b1 3b 2f e2 6a 3b
       0.0137484865 -0.0036291012 0.005432112 0.0035840382
000370 4d e4 3c bb 8c 61 8c bb 9c 70 0b ba 72 93 86 3b
       -0.0028822601 -0.0042840894 -0.00053192093 0.0041069323
000380 87 f7 9d 39 f5 68 95 3b 00 f9 d5 ba 25 95 6f bb
       0.00030129796 0.004559631 -0.0016324818 -0.0036557403
000390 d8 43 9d 3b 03 72 80 3c bc e6 07 bc 5f c4 66 3c
       0.0047993474 0.015679365 -0.008294757 0.014084904
0003a0 40 a0 dd ba aa ee 78 3c cf 4b 36 bc 94 d1 83 3c
       -0.001690872 0.015193621 -0.011126473 0.016091146
0003b0 d8 7e 2e 3c 40 94 53 3c 47 72 e9 bb 2f 5b f2 3b
       0.010650359 0.0129137635 -0.0071242186 0.007396124
0003c0 71 88 88 38 22 15 69 3c 24 3e 3f 3c d5 4e 5e bb
       6.5103995e-05 0.01422623 0.01167253 -0.00339215
0003d0 32 f6 9e ba 4d b7 2e 3b fa ad 0f bc 84 26 1f 3b
       -0.0012127815 0.0026659549 -0.008769507 0.0024284432
0003e0 74 a1 0d bb 60 61 e4 bb 37 f8 61 3b 97 27 9b bb
       -0.0021611126 -0.006969616 0.0034480223 -0.004734944
0003f0 56 ee 26 bc dc 01 35 bc 7a 2d 02 bb 41 5b b5 3a
       -0.01018866 -0.011047807 -0.0019863532 0.00138364

action_model._discrete_distribution.branches.2.bias f4 [2]
000000 00 00 00 00 00 00 00 00
       0.0 0.0

network_body._body_endoder.seq_layers.0.weight f4 [128, 128]
000000 64 12 cb bc 84 42 d7 3b 65 b2 8f bd 53 c0 1b be
       -0.024789043 0.0065692086 -0.07016448 -0.15210085
000010 58 e4 c0 3d 17 91 bf bd 36 68 f3 3d c1 f9 37 be
       0.09418553 -0.093538456 0.11885111 -0.17966367
000020 6f 44 93 bd 80 2e 40 be 9d 36 33 3d e7 16 4a be
       -0.07190787 -0.18767738 0.043753255 -0.19735299
000030 62 3e 67 bd 37 44 41 3e 71 0f fb 3c 27 af 5e 38
       -0.056455977 0.18873678 0.030647011 5.3092048e-05
000040 b4 c6 75 bd bb 65 35 bc c7 ce 6a bd e7 f4 81 3d
       -0.06000395 -0.011071618 -0.057326104 0.063455395
000050 74 13 7c bc a4 4e 33 3d ab a8 8f 3c a3 19 44 bd
       -0.015385497 0.04377617 0.017536482 -0.04787601
000060 78 a0 0b bd 39 24 61 3e 0d b7 19 bd 1f 5c 2b bd
       -0.03408858 0.21986474 -0.037528086 -0.0418359
000070 f2 40 19 3e 70 70 6e 3d d7 d1 b7 bd 32 bd 3e bc
       0.14966181 0.058212698 -0.08975571 -0.011641787
000080 65 7f 10 3c 8b be df bc 8a c8 e4 bd be 61 3e 3e
       0.008819436 -0.027312538 -0.11171062 0.18591973
000090 7c f1 f4 3c 33 ba e7 3d 81 bb 07 3d 16 9f d7 3c
       0.029900305 0.113148116 0.033137802 0.026320975
0000a0 82 be 91 3d cc 37 e1 3d 2a 6c 6d 3d 4b 6a 99 bd
       0.071164146 0.109969705 0.05796448 -0.07490977
0000b0 2a 85 56 bd 72 d0 5f 3c 69 29 8b bd 46 93 24 bd
       -0.05237309 0.013660537 -0.06795008 -0.040179513
0000c0 d3 e3 0f bd 8c 83 9f bd a9 78 09 3d fe 1d b6 b8
       -0.03512938 -0.077887625 0.033562336 -8.684023e-05
0000d0 07 9a bc 3d d1 6e 71 3e 22 46 8c 3d 9f ef ad bb
       0.09209066 0.2357743 0.06849314 -0.005308106
0000e0 02 69 30 3d 7a 1c 08 bd 2f f4 0f 3e b3 7b 95 bd
       0.043068893 -0.033230282 0.14057992 -0.072989844
0000f0 85 dd 85 bd 38 55 81 3b f8 3a af bd 65 ca 31 be
       -0.06536392 0.0039469264 -0.08556169 -0.17362364
000100 73 4b 95 bd 82 01 50 3d 94 fe 7d 3c 67 79 65 3d
       -0.072897814 0.050782688 0.015502591 0.05602398
000110 af 3f 77 3d 6c ff d4 bc 3e c6 41 3e 87 ab f1 3d
       0.060363468 -0.0260007 0.1892328 0.11800294
000120 c0 5b 90 bb 94 7a ba bd ea 9b 3a be 67 ec 65 bd
       -0.0044054687 -0.09105411 -0.18223539 -0.056133654
000130 ad ea e2 3c cf ac dc bd 7e df af 3d be d7 c3 bc
       0.027699793 -0.10775148 0.085875496 -0.023906585
000140 78 8d 5d bd 99 21 8d bd db 91 36 3c b1 20 f1 bd
       -0.054089993 -0.06891174 0.011143173 -0.117738135
000150 47 89 ff ba b0 8e 0a be e7 20 b6 bd 37 98 ca bc
       -0.0019495868 -0.13530993 -0.088929944 -0.024730785
000160 98 ef 70 3d 9a 8b 42 3e a4 a9 ce bd 68 2f 09 be
       0.058822244 0.18998566 -0.1009095 -0.1339699
000170 4d 8c f0 3c d3 12 78 bd b6 83 98 3d 16 53 0b 3e
       0.029363776 -0.060564827 0.07446997 0.13605914
000180 40 54 9b 3c 54 4c 8b 3d ba 4a cc bd 65 89 81 3d
       0.018961072 0.06801668 -0.099751905 0.06325034
000190 d2 50 51 3e 9d ec f0 3c ca 1f cf bd 24 24 32 bd
       0.20440987 0.029409701 -0.10113485 -0.043491498
0001a0 a8 bc d1 bc f1 52 8b 3c a4 f6 ef 3d d2 e0 6f 3c
       -0.025602654 0.017007323 0.11716965 0.014641004
0001b0 78 9f ef 3c 47 30 68 bd 12 5e 5b 3c a4 49 11 3d
       0.029250845 -0.056686666 0.013389127 0.03547062
0001c0 a8 b4 e0 3c e0 22 3a bd d6 db ed bc eb fa 0d 3d
       0.027429894 -0.045443416 -0.02903549 0.034663122
0001d0 d8 e9 61 bd 54 bd 3e 3b 7d eb c4 bd 68 54 04 bd
       -0.05515465 0.0029104548 -0.09615228 -0.03230706
0001e0 b8 07 20 3e 69 7c 04 be 5f 89 00 3e 02 47 6f bb
       0.15627944 -0.12938084 0.12552403 -0.003651083
0001f0 7f 2f 0a bd f6 9d 2f 3e e5 40 75 bd f5 40 95 bd
       -0.033736702 0.17150101 -0.05987634 -0.0728778
000200 79 cd 90 3d 51 14 7d bd d3 1b 6e bd ae 3d 39 3c
       0.07070441 -0.061786953 -0.058132004 0.0113062095
000210 9e d6 5b 39 b4 ef 35 bd 5f cb 4c be 14 2e e0 bd
       0.00020965419 -0.04441805 -0.19999455 -0.10946289
000220 70 8e f2 3d 6c 8d c0 bd 04 cf 03 3d 68 4d 2b 3d
       0.11843574 -0.09401974 0.032179847 0.041821867
000230 c1 08 ca bd f3 51 31 3e 6d 52 1d bd ab 22 83 bd
       -0.09864951 0.17316417 -0.038408685 -0.06403097
000240 b3 52 35 be 64 6b da 3c be 4a 38 3d 0d cc 76 bd
       -0.17707328 0.026662536 0.044993155 -0.06025319
000250 d1 16 75 3d 94 ae 3c bd ef 0d 62 3e 96 5b b1 bd
       0.059836213 -0.04606493 0.22075628 -0.08660047
000260 fd 22 8e bc 4f 4d ce 3d 22 23 eb bc 0f 84 a9 3d
       -0.017350668 0.10073339 -0.028703276 0.08277141
000270 1b df be 3d 48 73 69 bd 00 a4 e0 3d 4b 60 e1 3c
       0.09319898 -0.056994706 0.109687805 0.027511736
000280 9a 54 31 bd 40 8f cf bd 01 5e 09 bd 6f 27 ce bd
       -0.043293573 -0.10134745 -0.033536915 -0.10066115
000290 aa c1 8d 3d d1 5a 7a 3d 56 77 83 3c b9 e4 b7 3d
       0.06921704 0.061121766 0.016048115 0.08979172
0002a0 3c b5 09 be 6d 5f 25 bd 44 af 01 bd 1b 27 a3 3c
       -0.13448042 -0.04037421 -0.031661287 0.019916108
0002b0 60 d2 11 be 3c d9 29 3d 84 a0 ee bd 6b 79 11 be
       -0.14240408 0.041466936 -0.1165171 -0.14206474
0002c0 74 88 44 bd 5d 96 03 3e cc 66 8e bd bd 76 44 3e
       -0.047981694 0.12850328 -0.06953201 0.1918592
0002d0 d8 f3 e8 3d 21 22 05 be 79 7d 37 3d 7f d6 38 be
       0.113746345 -0.130013 0.044797394 -0.18050574
0002e0 bc 25 aa bb 5f 09 fa 3d dc 6e a2 bd 9f 9a 1f 3e
       -0.0051924866 0.12208819 -0.07931301 0.15586327
0002f0 cf 56 67 3d 2c 99 86 3b 53 f6 77 3c 6c f4 bb 3c
       0.05647927 0.004107615 0.015134412 0.022943698
000300 a5 d6 2e bd 20 37 9f 3d 38 9f 2b 3e ae 4d 6c bb
       -0.04268517 0.07774186 0.16759956 -0.0036057043
000310 99 6d d2 3d 9d 16 31 be 20 34 29 3e 4d 66 1c bd
       0.1027481 -0.17293783 0.1652379 -0.0381835
000320 90 1d d4 bc c6 a6 36 3e 44 e6 06 3e ab 8b 95 bd
       -0.025893003 0.17837057 0.13173777 -0.0730203
000330 46 f5 00 3e 5e d8 c3 3d 70 44 c5 bd bd c5 4f 3e
       0.12593564 0.09562753 -0.09632194 0.20290275
000340 1a 7d 24 be 2e 42 d6 3c 60 48 f9 bc 98 36 8a bd
       -0.16063347 0.026154604 -0.030430019 -0.06748694
000350 87 bf 18 bd ce 53 0f be f3 f8 81 3d 09 33 69 bd
       -0.03729203 -0.13996813 0.063463114 -0.056933437
000360 97 6a 0c 3e 8c 7a a6 3d 4f b6 fb bd 15 f2 bc bc
       0.13712536 0.08128843 -0.12290632 -0.023064652
000370 94 70 ad 3d 28 86 73 bd 6c f1 12 3d 03 3b 20 bd
       0.08468738 -0.059454113 0.03587477 -0.039118778
000380 ee 81 5f bd 17 cf 27 bc af 76 04 3c ad f9 de 3d
       -0.05456727 -0.010242245 0.008084937 0.108874656
000390 6d 61 3a bd a9 8f 18 3e 77 7d 1d be 53 ed 9f 3d
       -0.04550307 0.14898552 -0.15379892 0.07808938
0003a0 ca 20 50 3d 0b 27 97 3d 1b d6 24 3d 24 05 90 3d
       0.05081252 0.07380494 0.04024325 0.070322305
0003b0 fe ea 78 3d f5 a6 9c 3d e8 66 ad 3c 1e 5c 05 bc
       0.06077098 0.07649032 0.021167234 -0.008139638
0003c0 00 c3 ea 3d 52 83 b4 3d 70 9e e3 3d 79 dd 47 bd
       0.114629745 0.0881411 0.11114204 -0.048795197
0003d0 37 f1 e9 bd bf c4 5f bd 17 84 63 3d 94 47 b1 bc
       -0.11422961 -0.05463099 0.055545893 -0.021640576
0003e0 e7 99 78 3d 9f ad f3 bc 44 3e 83 3c b2 3a 32 bc
       0.060693648 -0.029745875 0.016020902 -0.010878252
0003f0 e2 fd a4 3d 20 b2 e0 bd 00 87 23 bd 14 39 26 3d
       0.08056237 -0.10971475 -0.039923668 0.040581778
