results/FoodTarget_imitation_6/AgentPlayer/AgentPlayer-11708.pt (torch, 834775 bytes, 52 tensors)

discrete_act_size_vector f4 [1, 4]
000000 00 00 40 40 00 00 40 40 00 00 40 40 00 00 40 40
       3.0 3.0 3.0 3.0

network_body._body_endoder.seq_layers.0.weight f4 [128, 128]
000000 a2 cb 73 3c 7d 63 d6 bd 0f 46 84 3c d8 6a ff 3d
       0.014880093 -0.10468195 0.016146688 0.12471551
000010 dc 3f 9f 3d f7 a1 68 3d c7 31 35 3c 67 d5 43 be
       0.07775852 0.056795087 0.011059231 -0.19124375
000020 08 64 17 bd ce 1f 2a 3e d8 a0 03 3c 5e ac 07 3e
       -0.03696063 0.16613695 0.008033954 0.13249347
000030 a8 db 47 3d 4b 74 88 bd 5b 24 e4 3d 1c ec 7e 3d
       0.048793465 -0.06662806 0.11139747 0.06223689
000040 a5 63 6b bd a9 db 01 bd fd da 03 3d 15 16 8d 3b
       -0.057468075 -0.031703625 0.032191265 0.004305611
000050 25 90 8d bc 6c f4 b0 3c 5f a2 05 3e 56 5a ee bc
       -0.017280648 0.021600924 0.13050221 -0.02909581
000060 87 fc 0d 3d 3b 6c 01 3e 13 95 66 3d 46 00 6a bd
       0.034664657 0.12638943 0.056294512 -0.057129167
000070 9b 43 db 3c 18 bc b2 3d 49 b6 bb 3c 6b c2 29 bd
       0.026765635 0.08727282 0.022914069 -0.041445177
000080 89 cb 11 3e 9f 5d 13 3d 69 95 a3 3d ab c5 52 bd
       0.14237799 0.035977956 0.07987482 -0.051458042
000090 c9 74 ac bb 55 a6 3d bd 4f 9b cf 3d ee 6a a6 3d
       -0.0052629453 -0.046301205 0.10137045 0.08125864
0000a0 b7 aa 91 3d d7 13 01 3d d2 5f 2a bd 8a 39 99 bd
       0.071126394 0.03151306 -0.041595288 -0.07481678
0000b0 d6 8c b2 bc c8 37 15 bd 07 c0 d9 3d ab 11 b6 3d
       -0.021795671 -0.03643015 0.106323294 0.08890089
0000c0 42 ec e0 bc a6 a3 2c bd 86 2a e1 bc 4e f8 25 3e
       -0.027456407 -0.042148255 -0.027486097 0.16208002
0000d0 0a 00 14 3d 75 c1 c2 bb 9e ff 86 bd 83 c5 03 3e
       0.03613285 -0.005943472 -0.06591724 0.12868313
0000e0 cf 2a 29 3d ec e0 fc 3b e1 5a e7 bc a3 56 e0 bb
       0.04130059 0.0077172425 -0.028241577 -0.0068462654
0000f0 47 f4 28 3c 36 fd 90 3d f5 13 11 be 13 c5 8d 3d
       0.0103121465 0.07079546 -0.14167769 0.069223545
000100 03 a3 e7 bc 18 c5 1f bb 91 9f 19 bd e6 6d 24 be
       -0.028275972 -0.0024378952 -0.03750569 -0.16057548
000110 f3 0b b5 3d ac 60 64 3d 58 1a 19 3d 06 ad 58 3e
       0.0884017 0.055756256 0.03737864 0.21159753
000120 ee b4 b9 bb ba 8e a5 bd b4 7c a9 3d 27 4f 82 be
       -0.0056673205 -0.080838636 0.08275738 -0.25451013
000130 4b 84 8f 3d 43 fd 77 bd 60 62 93 bd b4 e9 c2 bc
       0.07007655 -0.060544264 -0.07196498 -0.023793079
000140 e2 f7 59 3d 24 86 8d 3c 36 df 71 bd 50 2f 31 3c
       0.053214915 0.017275877 -0.05905076 0.010814503
000150 90 3f e3 bc cc a3 d5 bd e2 da da 3d 6d 44 53 3d
       -0.02774027 -0.104316324 0.1068628 0.051578928
000160 2c a8 8d bc 62 80 a6 bb 55 d5 d0 3d b0 3e 4b bc
       -0.017292105 -0.0050812224 0.1019694 -0.012405083
000170 c8 5b 11 bc 36 a7 50 3e 96 c4 23 3d 70 8c cd 3b
       -0.00887198 0.20376286 0.0399824 0.006272845
000180 f4 44 b8 3c 67 f8 5f bd 4d 1c a4 bd 34 93 21 bd
       0.022493817 -0.054680254 -0.080132104 -0.039447024
000190 65 46 d4 3d 9d b3 79 be cb a7 27 bc 9b 56 6a bb
       0.10364989 -0.24384923 -0.010232876 -0.0035757187
0001a0 45 1a be 3d 2e 68 8a bd 00 99 96 bb 97 2f 0c 3e
       0.09282354 -0.06758152 -0.0045958757 0.13690029
0001b0 8e 18 f0 3d 13 e4 0b bc 59 a2 48 3d 47 18 55 bd
       0.117234334 -0.008538264 0.04898295 -0.052025106
0001c0 ff 1c 8f 3d 2e 50 f8 bd 47 a9 89 bd 34 1a 6a bd
       0.069879524 -0.12124668 -0.0672174 -0.057153895
0001d0 31 bf 9c bd 8c 96 38 3d 3b 5c 16 bd ba d0 2d be
       -0.07653654 0.045065448 -0.03670905 -0.16974154
0001e0 e3 85 bd bd 1f bb 1f 3d 28 74 7a 3d 1c 2b df 3d
       -0.092540525 0.038996812 0.06114593 0.10896894
0001f0 67 1f c2 bd 3a 2e 3c bd f5 7a 83 bc 41 3f 74 ba
       -0.09478646 -0.045942523 -0.016049841 -0.0009317287
000200 27 cb 80 3d b0 d3 05 bd e0 d1 4e 3d b6 5f c3 3c
       0.06288748 -0.032672584 0.05049312 0.02384935
000210 ec 6e ea bb 5c b5 bb bd fc 30 e7 bd 11 b5 99 3d
       -0.007154336 -0.09165451 -0.1128864 0.07505239
000220 98 97 bd 3d e0 cf f9 bd a4 a5 39 be 6f eb 6b bd
       0.0925743 -0.12197852 -0.18129593 -0.057597574
000230 cf c0 9b bc ae bd 06 be 09 1e 2f be e5 32 61 3d
       -0.019012837 -0.13158295 -0.17101301 0.054980177
000240 1a e9 dd 3d 7d 6f 8d 3d 38 30 c7 3d fa 9f b5 3d
       0.10835476 0.0690603 0.09725994 0.08868404
000250 fb 96 c9 bc a3 9b a5 3c ba 8f ec 3d 40 77 be 3c
       -0.024608126 0.020215815 0.11550851 0.023250222
000260 3b 1b 90 bd 5c 14 38 bd f4 ca 1e bb ce f8 24 be
       -0.07036444 -0.04494129 -0.0024229856 -0.16110536
000270 b1 62 2e bd be b2 9e bd f1 5e 56 3c 9f 01 ba bc
       -0.04257459 -0.07748936 0.013084159 -0.022705851
000280 d5 a2 97 3d 8d ca 81 be 04 95 23 3d f3 a9 4d 3d
       0.074041046 -0.25349846 0.039937034 0.050210904
000290 3b f9 69 be af 5b b4 bb af 07 46 bd b8 fb 59 3d
       -0.2284898 -0.0055040936 -0.04834717 0.053218573
0002a0 d5 be 0b be 1a f3 01 3e c0 cc c1 bd 4b b9 b3 3c
       -0.13647015 0.12690392 -0.09462881 0.02193894
0002b0 e8 f0 1b bd df 88 bb bd 22 b0 02 3d 19 9b 17 be
       -0.038071543 -0.091569655 0.031906255 -0.14805259
0002c0 63 4d fe 3c a3 79 15 3d f0 56 3c 3e b3 45 cf 3c
       0.03104276 0.036492955 0.18392539 0.02530179
0002d0 b8 95 27 bd a7 a3 bd 3d 4f e1 e8 3d 61 6e be bc
       -0.040914267 0.0925973 0.11371099 -0.023245992
0002e0 20 85 95 3d 6a 6a 30 3d b0 de 75 3d 9c 6d 0d be
       0.07300782 0.043070234 0.060026824 -0.13811344
0002f0 bc ec a5 bd c1 5d 25 be e5 a9 c2 bc 52 8b a0 3b
       -0.08101794 -0.16149046 -0.023762653 0.004899421
000300 74 e2 06 3d 16 ef 3b 3d 9c 80 15 be 29 3b f7 3d
       0.032930806 0.045882307 -0.14599842 0.12071831
000310 96 a4 25 be 93 5d 33 3d 3f a1 3c 3d b6 0b 54 bd
       -0.16176066 0.04379041 0.046052214 -0.05176898
000320 d2 bc 4f 3d 2a 5d 03 3d 12 bf 71 3d db 4d bf 3b
       0.050717182 0.03207127 0.05902011 0.0058381385
000330 42 6b fa 3d 46 be 7e 3d 65 7e 1c be d2 30 83 3e
       0.12227489 0.062193178 -0.1528259 0.25623184
000340 3f 8f ea 3d 33 8c 73 bb 73 29 45 bc 32 89 0d bc
       0.11453103 -0.0037162423 -0.012033808 -0.008638667
000350 52 62 26 38 88 88 22 3d b0 ca 1f bd 99 f6 bd 3d
       3.9669052e-05 0.039680988 -0.039011657 0.092755504
000360 fd 35 1c 3e f7 a7 32 bc c8 9c e8 3c 8d 5c d1 3d
       0.1525497 -0.010904304 0.028395072 0.10222731
000370 eb d6 8f 3b da 96 1a bd 97 ea 4e bb 92 e1 de 3d
       0.004389634 -0.03774152 -0.0031572932 0.10882868
000380 6e 36 b7 3b 69 d9 54 3b 02 3b 40 bd de dd 15 3e
       0.0055912053 0.003247822 -0.046931274 0.14635417
000390 c2 04 2d 3d 00 d2 9f 3c 30 d1 84 bd 91 c5 b7 bd
       0.042240866 0.019509315 -0.06485212 -0.0897323
0003a0 68 5f 58 bb f8 49 c4 3d a8 16 04 3e ce 3b 1a 3c
       -0.003301585 0.09584421 0.12899268 0.009413673
0003b0 be d8 29 3e e8 71 3d bc d2 46 87 bb 31 98 7d bd
       0.16586587 -0.011562802 -0.0041283155 -0.06191272
0003c0 53 38 87 3d 69 62 53 bd 92 6b 66 3d 88 05 3d 3e
       0.0660254 -0.051607523 0.05625493 0.18459141
0003d0 b1 0f bd 3b c5 db d3 3d b1 89 70 bb b4 ec 91 bd
       0.005769693 0.10344652 -0.0036703164 -0.07125226
0003e0 4c 15 2b 3c 6b 08 10 3e f4 4a 00 be cd ef 8b bc
       0.010442089 0.14065711 -0.12528592 -0.01708212
0003f0 2d 26 a2 bd bc b3 ce 3d e7 f8 65 bd 6d e7 2a 3e
       -0.07917438 0.10092875 -0.056145575 0.16689844

network_body._body_endoder.seq_layers.0.bias f4 [128]
000000 a7 46 d7 ba e2 b1 8d 3b 47 e5 4e 3b 4d cc c7 3a
       -0.0016424254 0.004324184 0.0031569765 0.0015243381
000010 c8 87 91 b9 59 f1 24 3b 4b 91 77 3b 42 76 b5 3b
       -0.0002775772 0.0025168268 0.003777581 0.005537779
000020 d8 00 c2 b9 70 6d b9 bb b1 6a ce ba 5b 33 a6 bb
       -0.00037003192 -0.005658798 -0.0015748349 -0.00507204
000030 69 76 f2 3a f5 09 84 bb f8 aa 66 3a 42 60 06 3a
       0.0018498424 -0.0040295073 0.000879928 0.0005126038
000040 69 29 1a 3b 91 31 8a b9 fd 9f 7e bb 6c e4 94 ba
       0.0023523218 -0.0002635834 -0.0038852685 -0.0011359579
000050 74 b4 e9 3a 9c 9f 0c bb ee cf d0 39 21 5b 90 bb
       0.0017830268 -0.002145744 0.0003982777 -0.0044053947
000060 19 af 4c 3b 69 96 63 3a 92 56 f3 39 49 8b 6f ba
       0.0031232296 0.00086817757 0.00046413072 -0.00091378816
000070 7e 89 06 39 4a dd a1 3b 54 e0 79 3b 47 56 c1 b9
       0.00012830456 0.00493971 0.0038128095 -0.0003687611
000080 7c 70 01 3b 09 c9 79 ba 45 42 37 3b 07 58 25 3b
       0.0019750884 -0.0009528553 0.0027963084 0.002522947
000090 78 4c 13 bb dd fb 57 3b ae aa 6e 3a 7c 62 96 ba
       -0.0022476 0.0032956519 0.0009104413 -0.0011473442
0000a0 88 91 ac ba 90 6e 73 3b 76 f1 cf b9 d7 44 11 3b
       -0.001316593 0.0037144758 -0.0003966202 0.0022166276
0000b0 f7 bd 60 3b af d3 78 bb 3f 20 8d 3b 5c b5 5f bb
       0.0034292915 -0.003796797 0.0043068225 -0.0034135198
0000c0 ad 98 34 bb a8 77 38 3b 80 52 09 3a 00 e6 7d b9
       -0.0027556822 0.0028147493 0.0005238429 -0.00024213642
0000d0 dc 16 33 bb 33 f8 51 3b 96 e1 6f b9 1f 6f e0 ba
       -0.0027326858 0.0032038807 -0.00022876853 -0.001712296
0000e0 a9 f4 0f 3a d8 ea 12 3b 31 de 7e 3b 55 da 85 bb
       0.00054914743 0.002241781 0.003888976 -0.004084865
0000f0 ae e6 70 3b d1 ca 99 3a a1 5d 0a 3a e9 1c 90 bb
       0.003675859 0.0011733418 0.0005278234 -0.0043979776
000100 5a e7 1f bb 44 c6 17 bb 27 62 2f 3b a0 b5 62 bb
       -0.002439937 -0.0023158947 0.0026761384 -0.003459312
000110 d3 95 1f ba 06 28 42 bb 4d 7d d7 39 6e 70 8c 3b
       -0.0006087694 -0.0029625907 0.00041101352 0.0042858636
000120 63 7e 54 3b 16 66 e3 3a e8 35 a9 ba e7 9f 5e 3b
       0.0032423965 0.001734915 -0.0012909742 0.003396982
000130 46 8d 92 3a 19 9e 75 bb 10 5c 8f 3a 17 d6 9f ba
       0.0011181019 -0.0037478267 0.0010937471 -0.0012194541
000140 41 f3 95 3b ab de 58 3b 79 d5 2d bb 36 48 a1 3a
       0.0045761173 0.0033091705 -0.0026524945 0.0012304846
000150 f3 83 45 3a 2f b0 2e 3a 42 57 67 3a 3c 00 b4 ba
       0.00075346156 0.00066638266 0.0008824953 -0.001373298
000160 3b 4c a4 bb 97 51 7f 3a c1 d0 ed 3a c4 94 ac ba
       -0.00501397 0.0009739636 0.0018143879 -0.0013166894
000170 83 50 bb bb 87 5f 7d ba d3 13 5d ba da c1 21 bb
       -0.005716385 -0.0009665419 -0.0008433435 -0.0024682195
000180 61 39 3f 3a 17 bd 82 3b c9 06 4e 3b 3b bf f0 3a
       0.0007294622 0.0039898264 0.003143715 0.0018367538
000190 73 63 20 bb 49 2f a0 bb 56 67 7f 3b d0 58 0a ba
       -0.002447334 -0.0048884493 0.0038971505 -0.00052775163
0001a0 77 05 93 3b 8c c0 90 bb df b4 17 ba cb df a5 ba
       0.0044867354 -0.0044174846 -0.0005787145 -0.0012655196
0001b0 5b e9 e7 39 65 d0 ec 38 04 9d 42 39 ec 78 11 b9
       0.00044233617 0.000112921734 0.00018559775 -0.00013873324
0001c0 2f ef 43 39 ac 9e b5 3b e9 01 70 3b f7 e2 11 3b
       0.00018685752 0.005542597 0.0036622232 0.0022260526
0001d0 7b 9a 7f ba 18 4d a2 3b 61 20 59 3a dc aa e2 ba
       -0.00097504974 0.004953038 0.0008282718 -0.0017293352
0001e0 d3 f6 07 ba 7f 0b 9e 3a 04 24 08 3a 83 11 bc ba
       -0.0005186621 0.001205787 0.0005193355 -0.0014348481
0001f0 b9 8e 7c b9 27 52 57 bb 2a 20 97 3b 49 c2 2f 3b
       -0.00024085761 -0.0032855363 0.0046119886 0.0026818684

network_body._body_endoder.seq_layers.2.weight f4 [128, 128]
000000 30 cd 2d 3e d2 7f 20 3e 7b 03 1b bd db a0 03 be
       0.16972804 0.1567376 -0.037845116 -0.1285433
000010 ba 36 22 3e bb 48 9a 3d 1e c4 70 bc d5 6e a9 bd
       0.15841189 0.075334035 -0.0146951955 -0.08273093
000020 14 4a 3c 3d 00 de cd bd 21 7b 64 3c 8e 3d 97 bc
       0.045969084 -0.10052109 0.013945372 -0.018461969
000030 0d ba 67 bd 95 bd 1b 3d 65 5f 52 3d ee d3 c8 bc
       -0.056573916 0.038022596 0.051360507 -0.024515118
000040 5a d4 10 bd e0 b6 5a 3d 23 a0 c6 bc e0 08 1f bd
       -0.035358764 0.05339706 -0.024246281 -0.038826823
000050 72 e9 9c bd 0f a1 22 3c 25 5a 2b 3e 8f 52 b9 3c
       -0.07661714 0.009926095 0.16733606 0.022622375
000060 b3 b0 4f 3d 95 b8 37 3d a7 05 57 bd c6 17 1b 3c
       0.050705623 0.044853766 -0.052495625 0.009466117
000070 4a 83 84 3d 22 12 32 bc 69 f1 4b bd 6c a6 bc bd
       0.06470354 -0.010868581 -0.049790774 -0.0921143
000080 cf 14 da 3d 15 85 f1 3d 5e 9e c3 3d 93 0e b0 bc
       0.106485 0.117929615 0.095516905 -0.021491325
000090 b1 59 a8 3d f0 1a 70 3d db 36 b6 3d c6 68 bf bd
       0.08220232 0.05861944 0.088971816 -0.09346156
0000a0 af b5 3d 3e 0c 8b 86 bd 2e 73 28 be 8a a0 ca 3c
       0.18526338 -0.0656949 -0.16450188 0.024734754
0000b0 59 d6 37 3c 3c e5 34 3d 92 b6 8f bc 5a 9a 80 3d
       0.011220538 0.044163927 -0.017543111 0.0627944
0000c0 a1 25 63 bd 5e cd 5c 3e 86 72 73 3c 17 80 32 3d
       -0.055455808 0.21562716 0.0148588475 0.043579187
0000d0 cf aa 1e be ba 83 81 3d 16 85 75 bc f4 cb c5 3d
       -0.15494846 0.06323953 -0.014985343 0.096580416
0000e0 2e 33 aa bd 01 9c d9 3c ea bb a8 3d ed 24 92 3d
       -0.08310543 0.026563646 0.08238967 0.07135949
0000f0 7b 7a 84 bd b2 2f ad bd e4 b9 95 bb c7 ce 6c bc
       -0.06468674 -0.08456363 -0.004569279 -0.014453596
000100 25 24 8a 3b 80 05 a3 bc 94 0d 16 bc ad a1 e0 3d
       0.0042157345 -0.019900084 -0.009158511 0.10968337
000110 8c 69 82 bd 46 9e 8e 38 01 7a ba bc 99 12 11 3e
       -0.06367788 6.8005684e-05 -0.022763254 0.1416725
000120 eb 2b ed bc 41 41 24 3d 59 72 5c bd b6 14 0b 3e
       -0.028951606 0.040101293 -0.053819988 0.1358212
000130 a9 bd 00 bd 8a db 03 bd 06 4b c2 bc f0 39 4b 3c
       -0.031430874 -0.03219179 -0.023717415 0.01240395
000140 d4 a6 45 3d 47 db b3 3d 9f 2a e4 3c 1e da 27 3e
       0.048254803 0.08782058 0.027852355 0.16391799
000150 f1 ed 0a be 59 ec ef 3d 4c 4e 0c 3d c0 ed 83 3c
       -0.1356733 0.117150016 0.034254357 0.016104579
000160 9a 9f fc bd 07 08 a7 3d a2 64 99 bd 53 ed e2 bd
       -0.12335129 0.08155828 -0.07489897 -0.11080422
000170 b8 b6 7c bd 9d 83 af bc 58 6d 81 bc ec 79 c1 3c
       -0.06169769 -0.021425063 -0.01579921 0.023617707
000180 51 4b 4a 3e 0f 79 13 be 17 f1 87 3d 4b 9e dc 3d
       0.19755293 -0.14401649 0.06637781 0.107723795
000190 84 e7 8c 3c ca 7b 92 bc 86 01 d6 ba b8 aa 48 bd
       0.017200239 -0.017881293 -0.0016327358 -0.048990935
0001a0 25 d9 b9 bc 61 bf 13 3e a8 46 29 bc f0 a0 e9 3d
       -0.02268655 0.14428474 -0.010331787 0.114076495
0001b0 53 54 4d 3d 69 24 33 bd 4a 58 04 be f7 0a 45 3d
       0.050129246 -0.043735895 -0.12924305 0.04810616
0001c0 5a 6d fe bd 52 61 db bc 7e 3c 16 3d 1e 0d 69 bd
       -0.12423201 -0.026779804 0.036678784 -0.056897275
0001d0 05 b5 be 3c 3f b3 78 3c fc f4 48 be 99 ce ff 3a
       0.023279676 0.015179454 -0.19624704 0.0019516527
0001e0 1e 65 2c 3d dc 5a 14 be 69 e1 92 3b d9 d2 1b 3e
       0.04208862 -0.14487785 0.0044824374 0.15217151
0001f0 a8 1b d7 bc f0 ee 28 3e 51 84 14 3d 41 67 86 bd
       -0.026258305 0.16497397 0.036259 -0.06562663
000200 b1 8e b4 bc c5 92 99 3b e5 5c ae 3d b5 ba 44 bd
       -0.022040697 0.0046866857 0.08513812 -0.04802962
000210 91 9e 57 bd 41 d6 91 bd a8 b3 03 3d c4 6d 54 3d
       -0.052641455 -0.07120944 0.032153755 0.051862493
000220 3b 32 fe bd ce e5 95 bd 4c a3 40 be 3e b2 26 3d
       -0.124119245 -0.073192224 -0.18812293 0.04069733
000230 ac c3 28 be e0 0d 78 3e 5b 1a 5a bd 1d 40 16 3e
       -0.16480893 0.24224043 -0.05324779 0.14672895
000240 23 8f 89 bd 59 2e 5d bd 08 9b cb 3d 30 30 2c bd
       -0.06716754 -0.05399928 0.09941679 -0.042038143
000250 0f a5 50 bc eb ef 51 3a 9c cc 00 3e 3f e6 be 3b
       -0.012734666 0.0008008468 0.12578052 0.0058257873
000260 62 a4 e8 bd 87 63 7c bc 21 33 3d bd d0 f2 a1 3d
       -0.113594785 -0.015404589 -0.04619134 0.07907641
000270 ee 62 d2 bd d8 1c 27 3c 7c 72 9d 3c c3 4c aa bc
       -0.102727756 0.010199748 0.01921963 -0.020788556
000280 34 20 c3 b9 16 14 d5 3c 53 7a 96 3c d1 d1 90 ba
       -0.00037217292 0.026010554 0.018368876 -0.0011048858
000290 f6 56 ed bd 47 83 ab bc e6 ad 0d 3e 63 b6 b5 3d
       -0.11588852 -0.020936621 0.13835868 0.08872678
0002a0 fa d3 bb 3d 22 d0 f2 3c 32 23 8d bd 02 9d 8e 3d
       0.09171291 0.029640261 -0.068914786 0.069635406
0002b0 60 9e 08 3d 1c e4 96 3b 21 8d 79 bd 41 8a 2d bc
       0.033354163 0.0046048295 -0.060925607 -0.010592044
0002c0 f3 07 3b ba 4a ab 98 bc 6f 97 0b 3d 00 ed 2b 3d
       -0.00071346684 -0.018636364 0.034079965 0.041974068
0002d0 7c 8a 4a 3e 94 32 03 3e 06 02 3a 3d db 1c 36 be
       0.1977939 0.12812263 0.045412086 -0.17784445
0002e0 2c 16 92 3c b6 66 de bc 31 4d 7b bd b0 24 e5 bd
       0.017832838 -0.027148586 -0.061352912 -0.11188638
0002f0 8e dd 9c bd 8e c9 0f 3e 46 7d 15 bd a6 d5 dc 3a
       -0.07659446 0.14041731 -0.036496423 0.001684834
000300 77 49 24 be 9f 19 8c bc eb a0 45 3d d0 31 4c bb
       -0.1604365 -0.01710206 0.048249166 -0.003115762
000310 c9 5a d7 3d 17 dc d5 bd 48 fa f3 bb 98 17 47 3e
       0.10515363 -0.104423694 -0.0074456073 0.19442594
000320 20 f2 91 3b c3 fa 18 3d 3d 01 1f 3e bb a9 1f be
       0.0044539124 0.03734852 0.15527816 -0.15592091
000330 dc cc c2 3d 7b 7b 2c 3c e1 1f e0 bc 44 d8 f3 bc
       0.0951173 0.010527487 -0.027358951 -0.02976621
000340 e3 c0 3e bd e6 73 4f 3d 56 c7 6a be 32 25 b2 3d
       -0.04657067 0.05064764 -0.22927603 0.08698501
000350 e0 03 15 bd 3f c8 03 3e c5 95 82 bd 19 55 34 bc
       -0.03638065 0.12869357 -0.063762225 -0.011006617
000360 aa e5 0d bd 57 54 1b 3e 2d 82 68 3d ab 50 00 3b
       -0.034642853 0.15168892 0.05676477 0.0019579332
000370 b9 49 d6 3b 5d 66 64 bb 9d 8c 69 3d 19 fc cc bd
       0.00653955 -0.0034851052 0.057018865 -0.10009021
000380 78 ad ac bc 6b 45 2d 3e ac d4 2d 3d a7 7e 2a 3d
       -0.02107881 0.16921012 0.042439148 0.04162469
000390 14 16 29 ba d2 c6 d5 bd a2 70 5f bd 1a f4 76 3c
       -0.0006450128 -0.104383126 -0.054550774 0.015072847
0003a0 3b 72 81 bc 72 1c c0 3d f9 24 00 3e 64 a4 ed 3d
       -0.01580154 0.093804255 0.12514104 0.11603621
0003b0 17 a4 fa 3c 22 a8 25 3d 49 9f 15 be 84 34 a5 bd
       0.030595822 0.040443547 -0.14611544 -0.08066657
0003c0 e9 83 bb 3d 0e a3 69 3d 26 24 dc bd 8f 86 93 3d
       0.09156019 0.057040267 -0.10749082 0.072033994
0003d0 b9 14 ea bd 56 21 86 ba 33 ef 17 3d ee 57 a1 bc
       -0.11429734 -0.0010233324 0.037093353 -0.019695248
0003e0 6e 76 aa b9 aa 5e 47 bd 15 0b 95 3d 11 df c3 3c
       -0.00032513164 -0.048674263 0.07277504 0.023910077
0003f0 e5 47 b5 bd 91 5e 34 bc 3d 17 54 3d 06 7a c5 3c
       -0.088516034 -0.0110088745 0.051779974 0.024106037

network_body._body_endoder.seq_layers.2.bias f4 [128]
000000 af 99 23 bb dd 72 5f 3b 22 0f 07 3b f7 18 e5 39
       -0.0024963429 0.0034095563 0.0020608385 0.00043696884
000010 e4 1b 60 ba 07 27 77 3b 10 aa f2 3a b7 37 e3 ba
       -0.0008549078 0.003771247 0.0018513817 -0.001733533
000020 9c c8 84 3b 85 a9 0b 3b ff 72 50 3b 12 70 f8 3a
       0.004052235 0.0021310758 0.0031806824 0.0018954298
000030 1d 09 55 bb c0 5c 49 b8 1f 7c c2 b9 36 50 95 bb
       -0.0032506653 -4.8008515e-05 -0.0003709504 -0.004556681
000040 bd 63 97 3a 7f 8b 09 3a ab 69 69 3b 7f 0b 30 bb
       0.001155011 0.0005246922 0.0035615962 -0.002686232
000050 e4 3a 40 3b 90 e9 93 bb c5 c2 72 3b 83 be 2f ba
       0.0029331977 -0.004513927 0.0037042361 -0.00067041087
000060 b4 da 27 bb 65 db 59 ba 53 89 71 bb 42 07 55 3b
       -0.0025612535 -0.00083105854 -0.0036855533 0.0032505547
000070 3b 8c 2c bb 92 70 10 b9 78 02 6f 3b 7c 85 c8 ba
       -0.00263287 -0.00013774846 0.0036469977 -0.001529857
000080 df 02 08 bb f3 15 0b 3a ef 8b 66 3b 36 30 41 39
       -0.0020753664 0.00053057 0.0035178622 0.00018423874
000090 77 aa 6c 39 0f 8a 0e 3b ef 3d 09 3b a4 ac 0b bb
       0.00022570217 0.002174977 0.0020941456 -0.0021312619
0000a0 b1 4b 39 ba 2a 2b 2b 3b 32 53 1b 3b 96 97 97 39
       -0.0007068469 0.0026118257 0.0023700711 0.00028913905
0000b0 e7 fc fb 39 2c c3 9e bb 94 66 be ba ec c8 1a bb
       0.00048062878 -0.0048450436 -0.001452642 -0.0023618294
0000c0 ec d4 71 bb d6 ff 8b ba a7 6d 98 39 e2 52 95 3b
       -0.0036900593 -0.0010681103 0.00029073397 0.0045569995
0000d0 03 e7 0e ba a4 8b eb 3a 7e 1b 88 3b 55 bc 44 3a
       -0.00054512935 0.0017970693 0.004153668 0.00075048703
0000e0 99 6f 91 bb 5f b9 4d 39 e0 88 3b 3b de f7 e9 ba
       -0.0044383523 0.0001961938 0.002861552 -0.001785036
0000f0 b1 2e 91 3a 88 e1 fa b9 41 de 5f 3b 41 b5 42 3b
       0.0011076537 -0.0004785175 0.0034159573 0.0029710087
000100 03 86 86 bb 71 11 5b 3b 88 f1 aa 3b 28 2d 84 bb
       -0.004105331 0.0033427144 0.005216781 -0.0040337034
000110 8a 0e 74 3b d3 22 5b 3b 7f 3f 7a 3b cb 60 d5 3a
       0.0037240111 0.0033437505 0.003818482 0.0016279457
000120 08 dc b3 ba fd b7 46 ba 8f 36 bd ba cf 3b f0 ba
       -0.0013722191 -0.0007580517 -0.0014435815 -0.0018328371
000130 a4 66 ea ba 11 72 3a 3a df 37 9f 3b 4e 0d 0f 3b
       -0.0017883372 0.0007112334 0.0048589553 0.0021827999
000140 93 7e a0 b8 76 27 da ba 80 2d 9a ba da 57 f4 b9
       -7.652971e-05 -0.001664384 -0.0011762828 -0.0004660476
000150 d8 14 40 3b e2 1e c8 ba e8 9b 9c bb af 62 92 bb
       0.00293093 -0.0015267993 -0.0047793277 -0.0044673304
000160 ff c4 b2 3b 98 52 38 bb c7 bf cd 3a bf 49 48 3b
       0.0054556127 -0.0028125402 0.0015697413 0.0030561534
000170 b4 1c b3 bb 90 56 cb 39 43 67 c0 3b 61 5c 9a b9
       -0.005466068 0.0003878367 0.0058716848 -0.00029441997
000180 dc 6b c5 bb 56 81 45 b9 8e cd c8 b9 78 15 63 3a
       -0.0060248207 -0.00018835565 -0.00038300123 0.0008662562
000190 03 7a b9 3a c4 cd 29 3b cc 1a db ba ba 35 a4 ba
       0.0014150742 0.002591 -0.001671636 -0.0012528219
0001a0 b6 f4 65 bb a9 8a 71 37 20 cb 61 3b 63 52 e7 ba
       -0.0035088486 1.4397004e-05 0.0034453347 -0.0017648455
0001b0 3c a2 2e bb be f3 aa 3b 53 7d 6c 3b 14 f7 f1 36
       -0.0026646992 0.0052170446 0.0036085441 7.2111234e-06
0001c0 9d 86 37 bb 99 ed d7 3a 4f d6 52 ba 23 30 aa ba
       -0.002800382 0.0016474008 -0.0008042799 -0.0012984317
0001d0 1d 59 ae bb 8a c7 1f 3b 54 df 17 3b 17 02 1b 3b
       -0.0053206817 0.002438041 0.0023173885 0.0023652369
0001e0 23 43 87 3a 50 ce 4f ba e3 f0 aa ba 25 a2 8c 3b
       0.0010319691 -0.00079271663 -0.001304176 0.00429179
0001f0 b3 7e 65 3a e4 16 4b 3b 24 65 ad ba 14 d4 fd b8
       0.00087545364 0.0030988986 -0.0013228995 -0.00012103483

action_model._discrete_distribution.branches.0.weight f4 [3, 128]
000000 58 d8 79 bc 57 75 47 3c 78 82 d5 bb 78 9c 8b 3c
       -0.015249334 0.012173972 -0.006515797 0.017042384
000010 e9 a1 6d bc f1 93 9c 3b 54 e9 ef 3a c2 b1 2d 3c
       -0.014503934 0.004778378 0.001830379 0.010601463
000020 45 3e 62 bb 88 a4 f7 3b c4 45 d5 3b fe ee 21 3c
       -0.0034521979 0.0075574555 0.006508561 0.00988364
000030 ec 62 28 3b bf 4f 14 bc 46 fc 22 bb 6e 30 30 bc
       0.0025693728 -0.009052216 -0.0024869605 -0.010753734
000040 40 94 c9 3b 2c 9c ed b9 d6 c2 f3 3b 54 4b e1 3a
       0.006151706 -0.0004532052 0.0074389977 0.0017188587
000050 f3 ec 85 3c a1 0f 5a 3c 6d 5c 41 3c 9c 23 36 ba
       0.016348338 0.01330939 0.011801821 -0.0006948055
000060 11 d8 8e 3b ab 67 54 bc 61 88 63 bc da 23 dd 3b
       0.004359253 -0.0129641695 -0.013887496 0.0067486586
000070 6d 0f 3f bc b0 b9 77 3a a7 61 e8 3b 8f 25 a0 bc
       -0.011661393 0.0009449972 0.007091719 -0.01954916
000080 0b d7 3d bb 15 ca 0a bb 50 2b 57 3b e2 09 64 3c
       -0.0028967287 -0.002117758 0.0032832213 0.013918372
000090 c7 c6 c5 bb 48 1f ba 3b 3a 2f 0e 38 ab 57 f8 b9
       -0.006035659 0.0056799985 3.389942e-05 -0.00047367564
0000a0 e4 4e c7 bb 69 3c c9 3b f8 47 f6 3b 03 aa 80 3b
       -0.0060824025 0.0061412347 0.0075159036 0.003926517
0000b0 25 13 1c bc 62 5b 03 b9 52 de 70 bc b8 e2 a1 3b
       -0.009526049 -0.00012527176 -0.014701443 0.004940357
0000c0 03 3b 8a 3b 7a 65 03 bc 6a 28 72 bb fb 4c a8 3b
       0.0042184605 -0.008019799 -0.0036950358 0.00513613
0000d0 21 6b 10 bc 33 ec eb 3b 56 67 f1 3b ac 9a bd 3b
       -0.008814604 0.007199788 0.007367055 0.0057862606
0000e0 1e 82 b8 bb 37 ac 66 bb 60 d8 c4 bb e1 a2 11 3c
       -0.0056307456 -0.0035197863 -0.006007239 0.008888931
0000f0 ac 3d a1 bb b9 ff bf 3a b7 d4 54 3c 7f db 97 3b
       -0.004920682 0.0014648355 0.012990168 0.0046343203
000100 6a 17 c0 bb 76 21 e6 3c a8 fa 10 3c 81 62 42 bc
       -0.005862166 0.028092127 0.008848824 -0.0118643055
000110 89 8d 80 3c f6 e9 07 3c 81 26 97 3b 48 b2 df 3a
       0.01569249 0.008295527 0.0046127443 0.0017066682
000120 cc 1c 3e bb 18 41 a2 3b b1 7b 2c 3b 31 7f 5f bb
       -0.0029008863 0.0049516074 0.0026318843 -0.0034102912
000130 47 b0 ed bb 6e b5 95 b9 5d cb 74 3c 9c cf 1d bb
       -0.00725368 -0.0002855467 0.014941064 -0.0024080044
000140 46 f2 06 bc 93 86 23 bc ab 71 84 bc e6 fc c7 bb
       -0.008236473 -0.009980815 -0.016167482 -0.006103146
000150 d0 bc dd 3b 06 80 e4 bb 72 2e c0 ba ee df 01 3c
       0.006766893 -0.0069732694 -0.0014662279 0.007926924
000160 9e 50 9c 3c 1d 1d 18 bc bd fe 76 ba 71 66 97 3c
       0.01908141 -0.009284285 -0.0009422114 0.018481465
000170 73 81 c4 bb 3a 52 7f 3c 2e a9 e5 3b f0 35 74 3c
       -0.005996877 0.015583569 0.007008693 0.014905438
000180 36 66 72 bc be f0 1c 3a 32 cb 20 bc f4 40 05 3c
       -0.014794877 0.0005986801 -0.009814071 0.008133162
000190 68 27 31 37 d9 50 33 3b ca 23 9e bc 4f 09 99 3b
       1.0559197e-05 0.0027361421 -0.019304175 0.004670299
0001a0 28 89 16 bc 22 99 e6 bb 7d 5f 68 3c 5a bd 2c 3b
       -0.009187974 -0.007037298 0.014182922 0.002635798
0001b0 bd 42 d6 3b cb 8e 51 3c a8 21 08 3b ad dd dc bb
       0.0065387175 0.012790392 0.0020772014 -0.006740293
0001c0 a5 49 43 bc d4 1e 1a 3c 36 1c 40 bc 6d 99 94 3b
       -0.011919414 0.009406764 -0.011725476 0.0045348913
0001d0 84 44 32 bc 6e 07 c5 bb fd 4b 04 bb b0 2f 03 3c
       -0.010880593 -0.0060128486 -0.0020186894 0.008006975
0001e0 48 22 cb bb 2d 7c 5b 3b e4 5a 06 bc 11 64 b3 3b
       -0.006199155 0.0033490763 -0.008200381 0.0054745753
0001f0 cf e8 1b 3c b1 a2 b9 ba b0 57 df 3b 61 f1 d8 3a
       0.009515955 -0.0014162866 0.006815873 0.0016551429
000200 6f 70 22 3c c0 6b c0 bb 25 76 cf bb 31 d2 34 3b
       0.009914502 -0.00587222 -0.0063312226 0.0027591104
000210 a5 3a 66 bc d5 63 14 bc 02 ae 60 3c fb e6 f1 3a
       -0.014052068 -0.009057005 0.013713362 0.0018455678
000220 70 5c 6d b8 3a 91 e0 39 91 06 56 3a 41 0c 5f bc
       -5.6591292e-05 0.00042832812 0.00081644306 -0.013613761
000230 a7 97 42 3b b7 fd 8d 3b 52 14 36 3b 0a 3a 27 3c
       0.0029692443 0.0043332237 0.0027783108 0.010206709
000240 f4 bf 8e bc b6 de 4a bc 2e 7c 4a bc 35 f8 93 3c
       -0.017425515 -0.0123822 -0.012358708 0.01806269
000250 4d 2b a7 bb b2 59 0b 3c 3f ce 22 3c 3b 83 0c 3c
       -0.0051015974 0.008505272 0.009936868 0.00857621
000260 19 f1 97 3b 6e 3c 4a 3c 58 26 e4 bb 09 ad f4 bc
       0.0046368954 0.012343509 -0.0069625787 -0.029867666
000270 b5 f8 9d bb c2 b1 82 bc 51 b1 2a 3b cd e0 4c 3a
       -0.004820908 -0.015953902 0.002604563 0.00078154803
000280 a1 13 fe bb f8 dc b3 bc e4 89 a2 3a 02 45 98 bc
       -0.007753805 -0.021955952 0.0012400714 -0.018587593
000290 13 f9 11 39 44 f5 f8 ba 50 d5 28 bc 4d e5 6f 3b
       0.00013921065 -0.0018993993 -0.010304764 0.003660518
0002a0 66 7e bf bc 44 19 cb 3b 0a 22 ab ba 00 5c e5 3b
       -0.023375701 0.0061980803 -0.0013056409 0.0069994926
0002b0 18 dc 68 3c 09 8d 10 3c c3 ea 35 3c 81 b3 b5 3b
       0.014212631 0.008822688 0.011103335 0.00554508
0002c0 88 4d 50 bb 1a 58 82 bc 26 dc 33 bc a6 c0 8b 3b
       -0.0031784493 -0.01591115 -0.01097778 0.004264909
0002d0 6c 39 40 bc 70 06 09 bc f3 20 03 3c 1e ab 84 3b
       -0.01173244 -0.008363351 0.008003461 0.004048719
0002e0 09 c1 10 3c 28 fb 06 bc 0b e9 93 3b 08 ff fa 3b
       0.008835086 -0.008238591 0.004513865 0.0076597966
0002f0 26 db 00 bc 69 67 05 3c ab b1 3f bc 3e f0 a5 bb
       -0.007864749 0.008142331 -0.011700074 -0.0050640395
000300 93 17 ed 3b 88 5b 02 bc 96 1a 7d bc bb 1f d9 3b
       0.0072354763 -0.007956393 -0.015448233 0.006626097
000310 40 2e ba bb b6 ba 89 ba f1 c7 25 bc 98 d0 04 bb
       -0.005681783 -0.0010507915 -0.0101184705 -0.0020265933
000320 a1 1c c6 3b c6 10 af 39 b6 a5 5f bc a3 81 00 bc
       0.0060458933 0.00033391098 -0.013650348 -0.007843408
000330 80 f9 3b 38 58 a0 da ba 74 f0 02 bc 80 f9 7a 3a
       4.481664e-05 -0.0016679866 -0.007991899 0.00095739216
000340 20 bd d5 ba 9d cd 6c 3c 83 15 bc 3b 72 02 f1 39
       -0.0016306974 0.014453319 0.005739869 0.00045968924
000350 bb 52 e0 3b 95 8a 71 3b 09 11 98 3b f9 24 0c 3c
       0.0068457997 0.0036856283 0.0046407026 0.008553737
000360 e7 d8 65 bc fd cd 52 bc ea 88 a7 ba 99 0a 9b 3b
       -0.014028764 -0.012866494 -0.0012781892 0.004731488
000370 b8 e7 a0 3b 6d a0 8a bb d8 b7 27 3b 98 31 99 3c
       0.0049104355 -0.00423055 0.0025591757 0.018700406
000380 d3 18 4f 3c a2 fa 54 3b 39 1c 43 bc 86 f0 b2 3b
       0.012640196 0.0032498022 -0.011908584 0.0054608015
000390 11 ee 62 bb 8a e7 47 bb 21 6c 29 3c d8 2c aa bb
       -0.0034626762 -0.0030502998 0.010340721 -0.005193334
0003a0 74 77 21 3c fb 18 91 b8 ad 57 d7 3a e1 5c 5b 3b
       0.00985514 -6.918792e-05 0.0016429328 0.0033472108
0003b0 0e 89 5b bc ec b1 a3 3a 71 3d 37 3b 82 28 dc ba
       -0.013399376 0.0012488938 0.0027960206 -0.001679674
0003c0 14 49 a7 3b df 8d dc bb 3f 3b c2 bb b5 7a 12 3a
       0.005105147 -0.0067307795 -0.005927473 0.0005587743
0003d0 d0 fd 5b 3c cb 67 ce 3b 98 21 47 bc eb f0 72 ba
       0.013427213 0.006298994 -0.0121540055 -0.0009267467
0003e0 b0 fb 0a bc 4d dc 34 bc 42 41 2b 3c 85 31 94 bb
       -0.008482859 -0.011038852 0.01045257 -0.0045225048
0003f0 8c 71 ea 3c 9f 85 e4 bb cc 4d 18 3b b8 5c 8b bb
       0.028618596 -0.0069739367 0.002323973 -0.0042529963

action_model._discrete_distribution.branches.0.bias f4 [3]
000000 f3 52 b9 3b 3d db 09 bb ab 07 4f bb
       0.0056556403 -0.0021035217 -0.0031590264

action_model._discrete_distribution.branches.1.weight f4 [3, 128]
000000 e7 1c 7e 3b 75 89 85 3b 36 7c 7f 3c f9 4a 1d 3c
       0.0038774551 0.004075224 0.015593579 0.009600394
000010 b6 a5 95 ba ef 9f a1 3b bb 7f 9e ba d6 26 6b b9
       -0.0011417184 0.0049323956 -0.001209251 -0.00022425814
000020 85 66 13 3c 49 89 39 3b 4f 26 22 3c 51 c1 14 3c
       0.0089966105 0.0028310588 0.009896829 0.009079293
000030 bc cf 61 bc b7 d6 d5 3b 85 60 07 bc 8e 92 71 bc
       -0.013782438 0.00652584 -0.008262758 -0.014744414
000040 0b da 9c bc d1 49 4c 3c 6c 54 88 3c 68 89 b0 bb
       -0.01914694 0.012468771 0.016641818 -0.005387474
000050 86 41 b2 3c 6e 21 90 bc ee e1 94 3b f5 14 42 3b
       0.02175976 -0.017594066 0.0045435345 0.0029614542
000060 a5 9d 91 bc b4 30 08 3c 70 9f 8b 3b a6 3c 4b 3b
       -0.017775366 0.008312393 0.00426095 0.003101149
000070 77 e9 7f 39 b5 89 89 3b 62 66 d7 3a 01 1c b1 3c
       0.00024405668 0.004197324 0.0016433711 0.021619799
000080 5d cd 31 bb 54 c2 28 3a 82 b0 ef 3b 22 52 3f ba
       -0.0027130463 0.00064376486 0.0073147425 -0.00072983105
000090 b9 85 f5 3a 71 9c 8e 3c 0f 1b 1f 3c 11 66 50 bc
       0.0018731869 0.017408581 0.009711041 -0.012719647
0000a0 87 d3 26 38 0f 2c c4 3b 18 0e 30 3b 23 a5 67 3c
       3.9774484e-05 0.0059866975 0.002686387 0.014138493
0000b0 44 32 f5 3b 7b eb 5d bb 8c 03 14 bc d7 ee 4c ba
       0.007482799 -0.003386228 -0.009034049 -0.00078175723
0000c0 1e 83 74 3b 9b 5f 28 bc 52 3a 22 3c 59 39 2c 3b
       0.0037309597 -0.0102767 0.0099016 0.00262793
0000d0 f9 5f 7b 3c af a3 11 3c 3d d9 0a 3c 63 78 9b 3b
       0.015342706 0.008889123 0.008474645 0.004744576
0000e0 fe 5a fc 3a 74 ad 8b bb 8f e8 97 3b d7 68 4b ba
       0.0019253192 -0.0042626206 0.0046358774 -0.0007759458
0000f0 94 8c c2 bb 3c 47 37 3a 0c 46 2f 3c 6d cf 01 bc
       -0.0059371684 0.0006991511 0.010697853 -0.007922989
000100 06 2b ae bb ce a7 c6 bb 60 6c 8f 3c 59 70 99 bb
       -0.0053151874 -0.0060624843 0.017507732 -0.0046825823
000110 cf 90 83 3c f7 05 4d ba c3 ea e2 3a 12 60 e1 bb
       0.016060261 -0.0007821018 0.0017312396 -0.0068779076
000120 17 b8 0f bb e4 34 39 3b 9a b9 05 bc 9e 64 83 3b
       -0.0021929794 0.0028260285 -0.008161927 0.0040097972
000130 15 55 68 bb 6c ba 41 bb fc 04 5f 3c 67 f2 30 ba
       -0.0035451103 -0.002956058 0.013612028 -0.0006749988
000140 2a dd 89 3c ae 58 58 3c 97 0e 2d 3b b1 6b 5e bc
       0.016829092 0.013204737 0.0026406401 -0.01357548
000150 a9 31 9d 3c c0 ba 43 bc fc 7d b8 bb 1b ff 58 ba
       0.019188719 -0.01194638 -0.005630253 -0.000827776
000160 db 82 2b 3c dc 31 32 bc ad d6 bc bb 1a bc e9 ba
       0.01046821 -0.010876145 -0.005762896 -0.0017832548
000170 e4 fc e1 ba 3a 59 39 bc ae 0a 30 3b fd 6d 01 bc
       -0.0017241505 -0.011312777 0.0026861834 -0.007899758
000180 e3 60 0d bc 72 fa 4a bb 6e e0 64 3b 4e 0b a0 bc
       -0.008629057 -0.003097203 0.003492381 -0.01953664
000190 4e 83 0b bc 25 05 1e 3c af ef b4 bb 8e 73 8d bb
       -0.008515192 0.009644781 -0.0055217366 -0.0043167537
0001a0 46 a6 46 bc 59 6c a8 bb ac b9 c4 3c cc dc 33 bc
       -0.012124604 -0.005139869 0.024014316 -0.010977935
0001b0 c8 51 2e bc a8 59 a1 3c 78 35 25 3c 82 28 91 bb
       -0.010639615 0.019696072 0.010083549 -0.0044298777
0001c0 4f 61 1b 3b 4c 81 b5 3b e1 66 ac 3b a8 4d ea 3a
       0.0023709123 0.005539095 0.0052612876 0.0017875927
0001d0 a9 6a 94 bb fa d5 92 ba 45 85 ca ba b6 e7 20 3c
       -0.0045293164 -0.0011202686 -0.0015451094 0.009820869
0001e0 75 ea 88 3c 7e 6b 66 3a d2 66 1f bc e9 44 aa 3b
       0.01671336 0.00087898213 -0.009729104 0.005196203
0001f0 95 33 da 3b 01 6f fe ba e7 de c5 bb 63 6d 0b 3b
       0.006658981 -0.0019411744 -0.006038535 0.0021274916
000200 6d 90 e4 bb ca 32 84 bb 41 43 28 bc 02 07 b9 ba
       -0.0069752247 -0.004034375 -0.010269941 -0.0014116468
000210 29 70 af ba 20 fd ab bb 28 1d a1 bb fd 71 d2 3b
       -0.0013384867 -0.0052486807 -0.004916806 0.00642228
000220 71 b5 b4 bb 72 00 58 bc e8 f0 29 3c 59 55 ae 3b
       -0.0055147936 -0.0131837 0.010372378 0.005320233
000230 48 75 b8 3b 57 94 90 bc a3 f6 1f bc 71 80 7d b8
       0.0056292154 -0.017648859 -0.009763393 -6.043952e-05
000240 23 46 c6 bb 46 df 35 ba 25 48 ab 3c 29 d9 2e 3c
       -0.0060508414 -0.00069378724 0.020908425 0.010671892
000250 1c 13 18 bb b8 3c 40 3b 09 84 88 ba db 0a c3 bb
       -0.002320475 0.0029333066 -0.0010415326 -0.005952222
000260 92 8a 51 3b 3b e0 ac 38 ba 12 98 39 77 88 b0 bb
       0.0031973463 8.243365e-05 0.00029005652 -0.0053873616
000270 dc d7 ee bb 3e 12 2c 3c e7 81 19 bb eb 4d 10 3c
       -0.007288916 0.010502396 -0.0023423375 0.00880764
000280 9d 49 36 bc b0 35 a7 ba c8 ce 38 3b 6d bd 4b bb
       -0.011125949 -0.0012757089 0.0028199423 -0.0031088248
000290 e4 81 c1 ba 72 ff bd 3b 51 9d 05 bc 1b a3 94 bb
       -0.0014763442 0.0057982737 -0.008155183 -0.0045360452
0002a0 65 a9 8b bb 9b 99 06 3b 47 ba 12 bb 71 8f 07 ba
       -0.0042621368 0.0020538333 -0.0022388862 -0.0005171216
0002b0 92 9d 0d 3c ea 30 9a 3b 8d 66 ed bb b7 0d b3 3b
       0.008643525 0.004705538 -0.007244891 0.0054642814
0002c0 d6 3f fd 3a 16 6f f9 bb 06 b4 52 3b 29 b3 bc 3b
       0.0019321393 -0.0076121194 0.003215076 0.0057586622
0002d0 57 87 e1 3b 21 8a 90 b9 3d 76 f2 3b c8 8f b1 3b
       0.006882589 -0.00027568734 0.007399349 0.0054187514
0002e0 24 61 c7 ba 3a 76 60 bb 94 72 00 3b 08 1b 9c bb
       -0.0015211445 -0.0034250156 0.0019599544 -0.0047639646
0002f0 a7 78 a6 3b 28 e5 d9 3b fc a8 4e bc b7 45 d1 bb
       0.005080301 0.006649632 -0.012613531 -0.0063864845
000300 36 a8 19 bb 22 1b 88 bb 2c 92 85 3b 8d 05 5e 3c
       -0.0023446209 -0.004153625 0.004076263 0.013551128
000310 47 30 65 bb ca 31 35 3b 70 ea 40 3b 8b 7f dc bb
       -0.0034971402 0.0027648085 0.002943661 -0.0067290715
000320 c4 0b 82 3a 28 60 94 bc 64 35 c3 3b 6a dd 86 3b
       0.0009921719 -0.018112257 0.0059572924 0.00411575
000330 42 2b a9 3b 11 d6 89 3b 38 f4 40 bc ab b8 84 3b
       0.0051626274 0.004206427 -0.011776976 0.0040503344
000340 dd 1b 40 3b 17 da 96 b9 33 ba d8 bb aa 5a 74 bb
       0.0029313483 -0.0002877272 -0.0066139936 -0.0037285485
000350 7f 93 35 3c 43 02 a3 bb 09 0e 96 bb 16 cb 24 bc
       0.011082529 -0.004974635 -0.00457931 -0.010058185
000360 b3 60 85 bc 1b 64 1c 3c 2d 28 9b 3c a6 da d9 3b
       -0.016281461 0.009545351 0.018940056 0.0066483794
000370 21 d5 87 bb 76 9e 82 3c af f9 6a bb 92 f9 75 3c
       -0.00414528 0.0159447 -0.003585439 0.0150131155
000380 9a cf 2c 3c 44 9a 95 3b 87 2a 97 ba b0 5a a3 bc
       0.010547543 0.004565509 -0.001153306 -0.019940704
000390 d1 6a 29 3b a5 b0 f3 3b 23 6a 93 3b cf 38 aa 3b
       0.002585102 0.007436829 0.0044987365 0.0051947604
0003a0 e2 4d ba 3b a0 87 b7 39 8c 8e b8 bc ae 40 93 bb
       0.005685554 0.00035005528 -0.02252891 -0.0044937944
0003b0 fe c2 1b bb f8 17 70 bb c5 41 15 bc 54 9c 68 bc
       -0.0023767347 -0.003663538 -0.009109919 -0.014197428
0003c0 f5 02 2f bc 40 0f 58 bc 6b 2e ea 3a 6d a4 7d bb
       -0.010681857 -0.01318723 0.0017866617 -0.0038702742
0003d0 d4 ec b9 3a 18 82 49 bc b0 8e 30 bc 43 e8 9a bb
       0.001418496 -0.012299083 -0.010776207 -0.004727395
0003e0 df 8f 1e bc b2 de 7c 3c f1 a1 f8 3b 4c 70 61 bc
       -0.009677856 0.015433954 0.0075876643 -0.013759684
0003f0 2f 7b 0b ba e4 44 75 bc b5 76 9a 3b bb 20 19 3b
       -0.0005320785 -0.014970038 0.004713858 0.0023365456

action_model._discrete_distribution.branches.1.bias f4 [3]
000000 2f 6a 5d 3b ac 0f 41 ba 3e fe 0f bb
       0.0033785214 -0.0007364701 -0.0021971609

action_model._discrete_distribution.branches.2.weight f4 [3, 128]
000000 9b 60 64 3c 55 4c 5c bc ac 86 b0 bc e0 da 77 bb
       0.013939048 -0.013445933 -0.021548592 -0.0037819669
000010 1f 71 0d bc 40 22 e5 bb 79 5b 08 bb bb 14 9e 3c
       -0.008632927 -0.0069926083 -0.0020806475 0.019296994
000020 de de 27 bb cc ad 4a 3c 98 a3 1f bc 05 e5 78 bb
       -0.0025615017 0.012370538 -0.009743594 -0.0037978303
000030 c9 8f 53 3c 4d b0 d7 b9 ad 24 a0 3b 12 b1 c0 bb
       0.012912699 -0.0004113935 0.0048871846 -0.0058804834
000040 11 ac f4 bb 25 b5 47 3b e0 9d 16 bc 33 a4 a3 3a
       -0.007466801 0.003047296 -0.009192914 0.0012484848
000050 d5 d7 83 3c 30 c0 71 bc f3 e9 3e 3b 1a e1 f9 3a
       0.016094128 -0.014755294 0.0029131144 0.0019064278
000060 8e 22 ce 3b af 51 e4 ba 75 f0 f7 bb 0d 74 6b bc
       0.0062907403 -0.0017419363 -0.0075665065 -0.01437093
000070 e9 31 27 bc 02 19 5e 3b 5e 93 f8 bb dd 73 a9 3b
       -0.010204771 0.0033889418 -0.007585927 0.0051712827
000080 a9 88 05 3c 38 c8 7d bb 70 b1 4c b8 53 1d 3b 3c
       0.008150258 -0.0038724076 -4.880264e-05 0.011420566
000090 0c 38 50 3c 4b 70 0b bc 94 1b 7f 3b 93 bc e3 ba
       0.012708675 -0.008510659 0.003892635 -0.0017374925
0000a0 71 52 3f bc 95 1a 1f bc c6 1e d9 bb b0 97 8e 3c
       -0.01167737 -0.0097109275 -0.006625983 0.017406315
0000b0 33 ab 21 3a 5d 34 55 3c b5 20 2c bc 5b 1a 04 3b
       0.0006167173 0.013012973 -0.010505845 0.002015731
0000c0 31 b0 27 bc 36 f1 24 bb a3 83 b0 3b be 43 76 3b
       -0.010234878 -0.0025168187 0.005386786 0.0037576999
0000d0 66 b0 3f bc 8b 9d d1 b9 c9 01 e3 ba 95 68 e2 ba
       -0.0116997715 -0.00039980965 -0.0017319258 -0.00172736
0000e0 fa 91 4c bc 4b a5 2a bc e6 ca e9 3a 01 59 44 bc
       -0.012485975 -0.0104153855 0.0017836958 -0.011984111
0000f0 58 d5 e6 3b 49 14 85 3b 8f f3 b0 bb 57 8d 6f 3c
       0.0070444755 0.004061256 -0.005400128 0.0146211
000100 ba 34 48 3c 2b 1f f6 3b 3b e4 70 ba 30 46 23 3c
       0.012219602 0.0075110397 -0.00091892824 0.0099654645
000110 fa c7 cb bb 88 7d 31 3c c6 77 06 3c 65 4e d1 bb
       -0.0062189074 0.010833152 0.008207267 -0.006387519
000120 99 61 b1 bc a6 2e 5d 3b 44 1b e0 bb 45 af 9e 3c
       -0.021652984 0.0033749728 -0.006839188 0.019370684
000130 55 69 30 3c 36 e6 03 3c ab e0 85 3c c8 92 ba bb
       0.010767301 0.008050492 0.016342482 -0.005693767
000140 c0 41 8c 3a 74 9b d4 3b 4f 49 c9 bb 8c 21 27 bc
       0.0010700747 0.006488258 -0.0061427723 -0.010200869
000150 5e 7e 76 bb d3 99 23 bc d2 23 45 3c 8c a9 0b bc
       -0.0037611942 -0.009985405 0.012032466 -0.00852431
000160 c8 08 ef bb b6 45 f0 ba 2f bc 4a 3c e5 d4 3d 3c
       -0.007294748 -0.0018331322 0.012373968 0.011586403
000170 19 d0 19 bc ff 29 b2 bb 65 71 14 bb c2 bd 7e bb
       -0.009387993 -0.005437135 -0.0022650596 -0.0038870429
000180 cc 4f 46 3c b9 25 6d bc 0a 23 46 3c f3 02 36 bc
       0.012103986 -0.014474326 0.012093315 -0.011109102
000190 d2 f8 01 bc 34 b0 6e bb 89 f6 0e bc 7b 70 08 3c
       -0.007932859 -0.0036420943 -0.008725771 0.008327599
0001a0 cf d2 44 3c be a6 4c bc ba 0b 1d bc bc ff bb bc
       0.012013151 -0.012490926 -0.009585315 -0.022949092
0001b0 05 fe ae 3c c7 97 65 3b 7c f7 65 bb cf 16 33 bc
       0.02136136 0.0035033093 -0.003509014 -0.010930731
0001c0 d8 6e 86 3b 0e 5c 66 ba 30 29 8a 3b 7e 16 42 bb
       0.004102569 -0.0008787521 0.0042163357 -0.0029615457
0001d0 1f f3 60 3c 0d 29 35 3c c3 4a 52 bc ff a0 30 bc
       0.01372984 0.011057151 -0.012835207 -0.010780572
0001e0 0b 67 a8 3b ae 46 ec 3b 26 a7 e9 39 68 90 46 3b
       0.005139237 0.007210574 0.00044565758 0.0030298475
0001f0 63 9e a5 bb c3 08 66 3b 62 3f 93 3b 83 1c b6 3b
       -0.0050542816 0.0035100437 0.00449364 0.005557598
000200 e8 50 d6 3b 2b 64 35 3c 17 3f f4 bb 36 4b 07 3b
       0.0065404065 0.011071245 -0.00745381 0.0020644194
000210 05 80 ec ba 9e 27 20 bb 68 e2 2a bc 04 f7 98 3b
       -0.0018043524 -0.0024437676 -0.010429956 0.0046681184
000220 ba 90 28 bb 92 bb 18 b7 97 ae f6 3b 26 c8 92 bb
       -0.002572103 -9.103578e-06 0.007528137 -0.004479426
000230 f5 a5 b1 3b dc 88 7a bb 23 7e 45 3c 08 f2 4a bc
       0.005421395 -0.0038228547 0.012053999 -0.012386806
000240 95 33 b5 39 94 c9 b7 bb 11 25 36 3b ec 1f 81 3c
       0.00034561442 -0.005608747 0.002779309 0.015762292
000250 6f f8 eb 3b 48 e2 d5 3b 27 89 2f bb 71 4c 51 3b
       0.0072012465 0.006527219 -0.002678463 0.0031936432
000260 0c eb 2d bb 46 e5 7c 3c 67 a5 79 3c c8 e8 ae 3b
       -0.0026537804 0.015435522 0.015237189 0.0053378083
000270 0c 1b 4d bc dc a7 fb bb d7 37 8d 3a 57 a8 6c 3b
       -0.0125186555 -0.0076799225 0.0010774088 0.003611108
000280 d8 e8 ad 3b 61 30 96 3b af 19 2e bb 39 ca 6e bb
       0.005307298 0.004583404 -0.0026565602 -0.0036436452
000290 97 6a 1f 3c f9 3c 0b bc d1 53 a3 3b ee 2c 20 ba
       0.009730003 -0.008498424 0.004984357 -0.00061102107
0002a0 80 94 2c bc a6 b9 9a 3b 4e 19 ab bb a1 b3 9a bb
       -0.010533452 0.004721838 -0.0052215224 -0.0047211205
0002b0 3a e5 5c 3b 3d 8a 01 3c 06 9c 3b bc 41 1b 5c 3b
       0.0033705966 0.007906494 -0.011450773 0.003358558
0002c0 f1 14 47 bc 78 3d 35 3a c1 65 92 bb e5 36 b5 bb
       -0.012150989 0.00069137616 -0.0044676964 -0.0055302256
0002d0 c2 05 ac bb db 52 12 3c fe b8 16 bc 80 0b 83 3b
       -0.00524971 0.008930887 -0.009199379 0.0039991736
0002e0 3f 97 cd b9 4f 1e cb bb 3b 91 83 bb 5a 59 a3 3b
       -0.00039213334 -0.0061986814 -0.0040151156 0.004985017
0002f0 9a b4 b0 bb b0 50 c6 bb fd 68 ee 3b 1e 69 67 bc
       -0.005392623 -0.006052099 0.007275699 -0.014124183
000300 72 92 b9 3b e8 38 8a bb 5a b9 13 bc 0f 3e 91 3b
       0.0056632096 -0.0042182095 -0.009016359 0.004432447
000310 e5 6d eb b8 9b 9c 24 bc 3d c0 3e 3c 92 34 ef bb
       -0.00011226143 -0.010047103 0.011642513 -0.007299968
000320 91 df 89 bb 43 3c eb bb 76 db c2 3b 5c 5d 14 bc
       -0.0042075594 -0.0071788146 0.005946572 -0.009055462
000330 75 c7 d1 bb 05 f9 34 ba bf ba e9 3b ad 3b b8 3b
       -0.006401951 -0.0006903562 0.0071328576 0.0056223483
000340 f2 71 1f bc 5e 02 43 bb 54 ba ae 3b 39 72 8e bb
       -0.0097317565 -0.002975605 0.0053322706 -0.0043471125
000350 61 c6 7c 3b db c3 bd bb b4 80 e4 b9 4a ca df 3b
       0.0038570391 -0.00579117 -0.0004358344 0.0068295347
000360 0b 8c 6a bb bf fd 56 bb 97 66 eb bb 01 17 29 ba
       -0.0035789039 -0.0032805053 -0.0071838605 -0.0006450266
000370 79 9b 15 3c ff 89 a0 bb 03 e3 ff bb a0 76 f9 3b
       0.009131306 -0.004899263 -0.0078090443 0.007613018
000380 cd 08 31 3c c9 4e c2 bc d6 b9 a0 3a de 8b 3b 3b
       0.010805321 -0.023719208 0.0012262415 0.0028617303
000390 a2 bd 9e bb 2d 9b ac ba b1 c2 bb bb 83 51 15 3c
       -0.0048443833 -0.0013168805 -0.005729996 0.009113672
0003a0 55 c3 0b bb 3d ec d1 bb f8 a2 6c 3a 39 bd d1 3a
       -0.0021326144 -0.0064063356 0.000902697 0.0016001827
0003b0 56 a7 75 3c f6 ee 12 3c 1f f3 96 3c 13 3a 81 ba
       0.014993509 0.008968106 0.018426476 -0.0009859226
0003c0 5f 1a f2 bb 73 c8 01 3c 91 48 d5 3b c4 85 03 bc
       -0.0073883976 0.007921326 0.0065088947 -0.008027498
0003d0 86 c8 6a 3c 0c b6 39 3a 81 01 98 3a 6b 8f a8 ba
       0.014330035 0.0007084317 0.0011597128 -0.0012860125
0003e0 f9 90 8a bc da 30 31 bc 28 0c 77 3b 9b 84 30 3c
       -0.016914831 -0.01081487 0.0037696455 0.010773803
0003f0 18 2a 04 bc 18 6c 8f bc 74 ed 30 bc 20 24 14 3c
       -0.008066677 -0.017507598 -0.010798801 0.009041816

action_model._discrete_distribution.branches.2.bias f4 [3]
000000 86 fd a7 ba 52 8c 06 ba 1c 1c 0c 3b
       -0.0012816645 -0.00051326037 0.002137906
