results/FoodTarget_imitation_6/AgentPlayer/AgentPlayer-11708.onnx (onnx, 142754 bytes, 13 tensors)

action_model._discrete_distribution.branches.0.bias f4 [3]
00000000: f352 b93b 3ddb 09bb ab07 4fbb
0.0056556403 -0.0021035217 -0.0031590264

action_model._discrete_distribution.branches.0.weight f4 [3, 128]
00000000: 58d8 79bc 5775 473c 7882 d5bb 789c 8b3c
00000010: e9a1 6dbc f193 9c3b 54e9 ef3a c2b1 2d3c
00000020: 453e 62bb 88a4 f73b c445 d53b feee 213c
00000030: ec62 283b bf4f 14bc 46fc 22bb 6e30 30bc
00000040: 4094 c93b 2c9c edb9 d6c2 f33b 544b e13a
00000050: f3ec 853c a10f 5a3c 6d5c 413c 9c23 36ba
00000060: 11d8 8e3b ab67 54bc 6188 63bc da23 dd3b
00000070: 6d0f 3fbc b0b9 773a a761 e83b 8f25 a0bc
00000080: 0bd7 3dbb 15ca 0abb 502b 573b e209 643c
00000090: c7c6 c5bb 481f ba3b 3a2f 0e38 ab57 f8b9
000000a0: e44e c7bb 693c c93b f847 f63b 03aa 803b
000000b0: 2513 1cbc 625b 03b9 52de 70bc b8e2 a13b
000000c0: 033b 8a3b 7a65 03bc 6a28 72bb fb4c a83b
000000d0: 216b 10bc 33ec eb3b 5667 f13b ac9a bd3b
000000e0: 1e82 b8bb 37ac 66bb 60d8 c4bb e1a2 113c
000000f0: ac3d a1bb b9ff bf3a b7d4 543c 7fdb 973b
00000100: 6a17 c0bb 7621 e63c a8fa 103c 8162 42bc
00000110: 898d 803c f6e9 073c 8126 973b 48b2 df3a
00000120: cc1c 3ebb 1841 a23b b17b 2c3b 317f 5fbb
00000130: 47b0 edbb 6eb5 95b9 5dcb 743c 9ccf 1dbb
00000140: 46f2 06bc 9386 23bc ab71 84bc e6fc c7bb
00000150: d0bc dd3b 0680 e4bb 722e c0ba eedf 013c
00000160: 9e50 9c3c 1d1d 18bc bdfe 76ba 7166 973c
00000170: 7381 c4bb 3a52 7f3c 2ea9 e53b f035 743c
00000180: 3666 72bc bef0 1c3a 32cb 20bc f440 053c
00000190: 6827 3137 d950 333b ca23 9ebc 4f09 993b
000001a0: 2889 16bc 2299 e6bb 7d5f 683c 5abd 2c3b
000001b0: bd42 d63b cb8e 513c a821 083b addd dcbb
000001c0: a549 43bc d41e 1a3c 361c 40bc 6d99 943b
000001d0: 8444 32bc 6e07 c5bb fd4b 04bb b02f 033c
000001e0: 4822 cbbb 2d7c 5b3b e45a 06bc 1164 b33b
000001f0: cfe8 1b3c b1a2 b9ba b057 df3b 61f1 d83a
00000200: 6f70 223c c06b c0bb 2576 cfbb 31d2 343b
00000210: a53a 66bc d563 14bc 02ae 603c fbe6 f13a
00000220: 705c 6db8 3a91 e039 9106 563a 410c 5fbc
00000230: a797 423b b7fd 8d3b 5214 363b 0a3a 273c
00000240: f4bf 8ebc b6de 4abc 2e7c 4abc 35f8 933c
00000250: 4d2b a7bb b259 0b3c 3fce 223c 3b83 0c3c
00000260: 19f1 973b 6e3c 4a3c 5826 e4bb 09ad f4bc
00000270: b5f8 9dbb c2b1 82bc 51b1 2a3b cde0 4c3a
00000280: a113 febb f8dc b3bc e489 a23a 0245 98bc
00000290: 13f9 1139 44f5 f8ba 50d5 28bc 4de5 6f3b
000002a0: 667e bfbc 4419 cb3b 0a22 abba 005c e53b
000002b0: 18dc 683c 098d 103c c3ea 353c 81b3 b53b
000002c0: 884d 50bb 1a58 82bc 26dc 33bc a6c0 8b3b
000002d0: 6c39 40bc 7006 09bc f320 033c 1eab 843b
000002e0: 09c1 103c 28fb 06bc 0be9 933b 08ff fa3b
000002f0: 26db 00bc 6967 053c abb1 3fbc 3ef0 a5bb
00000300: 9317 ed3b 885b 02bc 961a 7dbc bb1f d93b
00000310: 402e babb b6ba 89ba f1c7 25bc 98d0 04bb
00000320: a11c c63b c610 af39 b6a5 5fbc a381 00bc
00000330: 80f9 3b38 58a0 daba 74f0 02bc 80f9 7a3a
00000340: 20bd d5ba 9dcd 6c3c 8315 bc3b 7202 f139
00000350: bb52 e03b 958a 713b 0911 983b f924 0c3c
00000360: e7d8 65bc fdcd 52bc ea88 a7ba 990a 9b3b
00000370: b8e7 a03b 6da0 8abb d8b7 273b 9831 993c
00000380: d318 4f3c a2fa 543b 391c 43bc 86f0 b23b
00000390: 11ee 62bb 8ae7 47bb 216c 293c d82c aabb
000003a0: 7477 213c fb18 91b8 ad57 d73a e15c 5b3b
000003b0: 0e89 5bbc ecb1 a33a 713d 373b 8228 dcba
000003c0: 1449 a73b df8d dcbb 3f3b c2bb b57a 123a
000003d0: d0fd 5b3c cb67 ce3b 9821 47bc ebf0 72ba
000003e0: b0fb 0abc 4ddc 34bc 4241 2b3c 8531 94bb
000003f0: 8c71 ea3c 9f85 e4bb cc4d 183b b85c 8bbb
-0.015249334 0.012173972 -0.006515797 0.017042384 -0.014503934 0.004778378 0.001830379 0.010601463
-0.0034521979 0.0075574555 0.006508561 0.00988364 0.0025693728 -0.009052216 -0.0024869605 -0.010753734
0.006151706 -0.0004532052 0.0074389977 0.0017188587 0.016348338 0.01330939 0.011801821 -0.0006948055
0.004359253 -0.0129641695 -0.013887496 0.0067486586 -0.011661393 0.0009449972 0.007091719 -0.01954916
-0.0028967287 -0.002117758 0.0032832213 0.013918372 -0.006035659 0.0056799985 3.389942e-05 -0.00047367564
-0.0060824025 0.0061412347 0.0075159036 0.003926517 -0.009526049 -0.00012527176 -0.014701443 0.004940357
0.0042184605 -0.008019799 -0.0036950358 0.00513613 -0.008814604 0.007199788 0.007367055 0.0057862606
-0.0056307456 -0.0035197863 -0.006007239 0.008888931 -0.004920682 0.0014648355 0.012990168 0.0046343203
-0.005862166 0.028092127 0.008848824 -0.0118643055 0.01569249 0.008295527 0.0046127443 0.0017066682
-0.0029008863 0.0049516074 0.0026318843 -0.0034102912 -0.00725368 -0.0002855467 0.014941064 -0.0024080044
-0.008236473 -0.009980815 -0.016167482 -0.006103146 0.006766893 -0.0069732694 -0.0014662279 0.007926924
0.01908141 -0.009284285 -0.0009422114 0.018481465 -0.005996877 0.015583569 0.007008693 0.014905438
-0.014794877 0.0005986801 -0.009814071 0.008133162 1.0559197e-05 0.0027361421 -0.019304175 0.004670299
-0.009187974 -0.007037298 0.014182922 0.002635798 0.0065387175 0.012790392 0.0020772014 -0.006740293
-0.011919414 0.009406764 -0.011725476 0.0045348913 -0.010880593 -0.0060128486 -0.0020186894 0.008006975
-0.006199155 0.0033490763 -0.008200381 0.0054745753 0.009515955 -0.0014162866 0.006815873 0.0016551429
0.009914502 -0.00587222 -0.0063312226 0.0027591104 -0.014052068 -0.009057005 0.013713362 0.0018455678
-5.6591292e-05 0.00042832812 0.00081644306 -0.013613761 0.0029692443 0.0043332237 0.0027783108 0.010206709
-0.017425515 -0.0123822 -0.012358708 0.01806269 -0.0051015974 0.008505272 0.009936868 0.00857621
0.0046368954 0.012343509 -0.0069625787 -0.029867666 -0.004820908 -0.015953902 0.002604563 0.00078154803
-0.007753805 -0.021955952 0.0012400714 -0.018587593 0.00013921065 -0.0018993993 -0.010304764 0.003660518
-0.023375701 0.0061980803 -0.0013056409 0.0069994926 0.014212631 0.008822688 0.011103335 0.00554508
-0.0031784493 -0.01591115 -0.01097778 0.004264909 -0.01173244 -0.008363351 0.008003461 0.004048719
0.008835086 -0.008238591 0.004513865 0.0076597966 -0.007864749 0.008142331 -0.011700074 -0.0050640395
0.0072354763 -0.007956393 -0.015448233 0.006626097 -0.005681783 -0.0010507915 -0.0101184705 -0.0020265933
0.0060458933 0.00033391098 -0.013650348 -0.007843408 4.481664e-05 -0.0016679866 -0.007991899 0.00095739216
-0.0016306974 0.014453319 0.005739869 0.00045968924 0.0068457997 0.0036856283 0.0046407026 0.008553737
-0.014028764 -0.012866494 -0.0012781892 0.004731488 0.0049104355 -0.00423055 0.0025591757 0.018700406
0.012640196 0.0032498022 -0.011908584 0.0054608015 -0.0034626762 -0.0030502998 0.010340721 -0.005193334
0.00985514 -6.918792e-05 0.0016429328 0.0033472108 -0.013399376 0.0012488938 0.0027960206 -0.001679674
0.005105147 -0.0067307795 -0.005927473 0.0005587743 0.013427213 0.006298994 -0.0121540055 -0.0009267467
-0.008482859 -0.011038852 0.01045257 -0.0045225048 0.028618596 -0.0069739367 0.002323973 -0.0042529963

action_model._discrete_distribution.branches.1.bias f4 [3]
00000000: 2f6a 5d3b ac0f 41ba 3efe 0fbb
0.0033785214 -0.0007364701 -0.0021971609

action_model._discrete_distribution.branches.1.weight f4 [3, 128]
00000000: e71c 7e3b 7589 853b 367c 7f3c f94a 1d3c
00000010: b6a5 95ba ef9f a13b bb7f 9eba d626 6bb9
00000020: 8566 133c 4989 393b 4f26 223c 51c1 143c
00000030: bccf 61bc b7d6 d53b 8560 07bc 8e92 71bc
00000040: 0bda 9cbc d149 4c3c 6c54 883c 6889 b0bb
00000050: 8641 b23c 6e21 90bc eee1 943b f514 423b
00000060: a59d 91bc b430 083c 709f 8b3b a63c 4b3b
00000070: 77e9 7f39 b589 893b 6266 d73a 011c b13c
00000080: 5dcd 31bb 54c2 283a 82b0 ef3b 2252 3fba
00000090: b985 f53a 719c 8e3c 0f1b 1f3c 1166 50bc
000000a0: 87d3 2638 0f2c c43b 180e 303b 23a5 673c
000000b0: 4432 f53b 7beb 5dbb 8c03 14bc d7ee 4cba
000000c0: 1e83 743b 9b5f 28bc 523a 223c 5939 2c3b
000000d0: f95f 7b3c afa3 113c 3dd9 0a3c 6378 9b3b
000000e0: fe5a fc3a 74ad 8bbb 8fe8 973b d768 4bba
000000f0: 948c c2bb 3c47 373a 0c46 2f3c 6dcf 01bc
00000100: 062b aebb cea7 c6bb 606c 8f3c 5970 99bb
00000110: cf90 833c f705 4dba c3ea e23a 1260 e1bb
00000120: 17b8 0fbb e434 393b 9ab9 05bc 9e64 833b
00000130: 1555 68bb 6cba 41bb fc04 5f3c 67f2 30ba
00000140: 2add 893c ae58 583c 970e 2d3b b16b 5ebc
00000150: a931 9d3c c0ba 43bc fc7d b8bb 1bff 58ba
00000160: db82 2b3c dc31 32bc add6 bcbb 1abc e9ba
00000170: e4fc e1ba 3a59 39bc ae0a 303b fd6d 01bc
00000180: e360 0dbc 72fa 4abb 6ee0 643b 4e0b a0bc
00000190: 4e83 0bbc 2505 1e3c afef b4bb 8e73 8dbb
000001a0: 46a6 46bc 596c a8bb acb9 c43c ccdc 33bc
000001b0: c851 2ebc a859 a13c 7835 253c 8228 91bb
000001c0: 4f61 1b3b 4c81 b53b e166 ac3b a84d ea3a
000001d0: a96a 94bb fad5 92ba 4585 caba b6e7 203c
000001e0: 75ea 883c 7e6b 663a d266 1fbc e944 aa3b
000001f0: 9533 da3b 016f feba e7de c5bb 636d 0b3b
00000200: 6d90 e4bb ca32 84bb 4143 28bc 0207 b9ba
00000210: 2970 afba 20fd abbb 281d a1bb fd71 d23b
00000220: 71b5 b4bb 7200 58bc e8f0 293c 5955 ae3b
00000230: 4875 b83b 5794 90bc a3f6 1fbc 7180 7db8
00000240: 2346 c6bb 46df 35ba 2548 ab3c 29d9 2e3c
00000250: 1c13 18bb b83c 403b 0984 88ba db0a c3bb
00000260: 928a 513b 3be0 ac38 ba12 9839 7788 b0bb
00000270: dcd7 eebb 3e12 2c3c e781 19bb eb4d 103c
00000280: 9d49 36bc b035 a7ba c8ce 383b 6dbd 4bbb
00000290: e481 c1ba 72ff bd3b 519d 05bc 1ba3 94bb
000002a0: 65a9 8bbb 9b99 063b 47ba 12bb 718f 07ba
000002b0: 929d 0d3c ea30 9a3b 8d66 edbb b70d b33b
000002c0: d63f fd3a 166f f9bb 06b4 523b 29b3 bc3b
000002d0: 5787 e13b 218a 90b9 3d76 f23b c88f b13b
000002e0: 2461 c7ba 3a76 60bb 9472 003b 081b 9cbb
000002f0: a778 a63b 28e5 d93b fca8 4ebc b745 d1bb
00000300: 36a8 19bb 221b 88bb 2c92 853b 8d05 5e3c
00000310: 4730 65bb ca31 353b 70ea 403b 8b7f dcbb
00000320: c40b 823a 2860 94bc 6435 c33b 6add 863b
00000330: 422b a93b 11d6 893b 38f4 40bc abb8 843b
00000340: dd1b 403b 17da 96b9 33ba d8bb aa5a 74bb
00000350: 7f93 353c 4302 a3bb 090e 96bb 16cb 24bc
00000360: b360 85bc 1b64 1c3c 2d28 9b3c a6da d93b
00000370: 21d5 87bb 769e 823c aff9 6abb 92f9 753c
00000380: 9acf 2c3c 449a 953b 872a 97ba b05a a3bc
00000390: d16a 293b a5b0 f33b 236a 933b cf38 aa3b
000003a0: e24d ba3b a087 b739 8c8e b8bc ae40 93bb
000003b0: fec2 1bbb f817 70bb c541 15bc 549c 68bc
000003c0: f502 2fbc 400f 58bc 6b2e ea3a 6da4 7dbb
000003d0: d4ec b93a 1882 49bc b08e 30bc 43e8 9abb
000003e0: df8f 1ebc b2de 7c3c f1a1 f83b 4c70 61bc
000003f0: 2f7b 0bba e444 75bc b576 9a3b bb20 193b
0.0038774551 0.004075224 0.015593579 0.009600394 -0.0011417184 0.0049323956 -0.001209251 -0.00022425814
0.0089966105 0.0028310588 0.009896829 0.009079293 -0.013782438 0.00652584 -0.008262758 -0.014744414
-0.01914694 0.012468771 0.016641818 -0.005387474 0.02175976 -0.017594066 0.0045435345 0.0029614542
-0.017775366 0.008312393 0.00426095 0.003101149 0.00024405668 0.004197324 0.0016433711 0.021619799
-0.0027130463 0.00064376486 0.0073147425 -0.00072983105 0.0018731869 0.017408581 0.009711041 -0.012719647
3.9774484e-05 0.0059866975 0.002686387 0.014138493 0.007482799 -0.003386228 -0.009034049 -0.00078175723
0.0037309597 -0.0102767 0.0099016 0.00262793 0.015342706 0.008889123 0.008474645 0.004744576
0.0019253192 -0.0042626206 0.0046358774 -0.0007759458 -0.0059371684 0.0006991511 0.010697853 -0.007922989
-0.0053151874 -0.0060624843 0.017507732 -0.0046825823 0.016060261 -0.0007821018 0.0017312396 -0.0068779076
-0.0021929794 0.0028260285 -0.008161927 0.0040097972 -0.0035451103 -0.002956058 0.013612028 -0.0006749988
0.016829092 0.013204737 0.0026406401 -0.01357548 0.019188719 -0.01194638 -0.005630253 -0.000827776
0.01046821 -0.010876145 -0.005762896 -0.0017832548 -0.0017241505 -0.011312777 0.0026861834 -0.007899758
-0.008629057 -0.003097203 0.003492381 -0.01953664 -0.008515192 0.009644781 -0.0055217366 -0.0043167537
-0.012124604 -0.005139869 0.024014316 -0.010977935 -0.010639615 0.019696072 0.010083549 -0.0044298777
0.0023709123 0.005539095 0.0052612876 0.0017875927 -0.0045293164 -0.0011202686 -0.0015451094 0.009820869
0.01671336 0.00087898213 -0.009729104 0.005196203 0.006658981 -0.0019411744 -0.006038535 0.0021274916
-0.0069752247 -0.004034375 -0.010269941 -0.0014116468 -0.0013384867 -0.0052486807 -0.004916806 0.00642228
-0.0055147936 -0.0131837 0.010372378 0.005320233 0.0056292154 -0.017648859 -0.009763393 -6.043952e-05
-0.0060508414 -0.00069378724 0.020908425 0.010671892 -0.002320475 0.0029333066 -0.0010415326 -0.005952222
0.0031973463 8.243365e-05 0.00029005652 -0.0053873616 -0.007288916 0.010502396 -0.0023423375 0.00880764
-0.011125949 -0.0012757089 0.0028199423 -0.0031088248 -0.0014763442 0.0057982737 -0.008155183 -0.0045360452
-0.0042621368 0.0020538333 -0.0022388862 -0.0005171216 0.008643525 0.004705538 -0.007244891 0.0054642814
0.0019321393 -0.0076121194 0.003215076 0.0057586622 0.006882589 -0.00027568734 0.007399349 0.0054187514
-0.0015211445 -0.0034250156 0.0019599544 -0.0047639646 0.005080301 0.006649632 -0.012613531 -0.0063864845
-0.0023446209 -0.004153625 0.004076263 0.013551128 -0.0034971402 0.0027648085 0.002943661 -0.0067290715
0.0009921719 -0.018112257 0.0059572924 0.00411575 0.0051626274 0.004206427 -0.011776976 0.0040503344
0.0029313483 -0.0002877272 -0.0066139936 -0.0037285485 0.011082529 -0.004974635 -0.00457931 -0.010058185
-0.016281461 0.009545351 0.018940056 0.0066483794 -0.00414528 0.0159447 -0.003585439 0.0150131155
0.010547543 0.004565509 -0.001153306 -0.019940704 0.002585102 0.007436829 0.0044987365 0.0051947604
0.005685554 0.00035005528 -0.02252891 -0.0044937944 -0.0023767347 -0.003663538 -0.009109919 -0.014197428
-0.010681857 -0.01318723 0.0017866617 -0.0038702742 0.001418496 -0.012299083 -0.010776207 -0.004727395
-0.009677856 0.015433954 0.0075876643 -0.013759684 -0.0005320785 -0.014970038 0.004713858 0.0023365456

action_model._discrete_distribution.branches.2.bias f4 [3]
00000000: 86fd a7ba 528c 06ba 1c1c 0c3b
-0.0012816645 -0.00051326037 0.002137906

action_model._discrete_distribution.branches.2.weight f4 [3, 128]
00000000: 9b60 643c 554c 5cbc ac86 b0bc e0da 77bb
00000010: 1f71 0dbc 4022 e5bb 795b 08bb bb14 9e3c
00000020: dede 27bb ccad 4a3c 98a3 1fbc 05e5 78bb
00000030: c98f 533c 4db0 d7b9 ad24 a03b 12b1 c0bb
00000040: 11ac f4bb 25b5 473b e09d 16bc 33a4 a33a
00000050: d5d7 833c 30c0 71bc f3e9 3e3b 1ae1 f93a
00000060: 8e22 ce3b af51 e4ba 75f0 f7bb 0d74 6bbc
00000070: e931 27bc 0219 5e3b 5e93 f8bb dd73 a93b
00000080: a988 053c 38c8 7dbb 70b1 4cb8 531d 3b3c
00000090: 0c38 503c 4b70 0bbc 941b 7f3b 93bc e3ba
000000a0: 7152 3fbc 951a 1fbc c61e d9bb b097 8e3c
000000b0: 33ab 213a 5d34 553c b520 2cbc 5b1a 043b
000000c0: 31b0 27bc 36f1 24bb a383 b03b be43 763b
000000d0: 66b0 3fbc 8b9d d1b9 c901 e3ba 9568 e2ba
000000e0: fa91 4cbc 4ba5 2abc e6ca e93a 0159 44bc
000000f0: 58d5 e63b 4914 853b 8ff3 b0bb 578d 6f3c
00000100: ba34 483c 2b1f f63b 3be4 70ba 3046 233c
00000110: fac7 cbbb 887d 313c c677 063c 654e d1bb
00000120: 9961 b1bc a62e 5d3b 441b e0bb 45af 9e3c
00000130: 5569 303c 36e6 033c abe0 853c c892 babb
00000140: c041 8c3a 749b d43b 4f49 c9bb 8c21 27bc
00000150: 5e7e 76bb d399 23bc d223 453c 8ca9 0bbc
00000160: c808 efbb b645 f0ba 2fbc 4a3c e5d4 3d3c
00000170: 19d0 19bc ff29 b2bb 6571 14bb c2bd 7ebb
00000180: cc4f 463c b925 6dbc 0a23 463c f302 36bc
00000190: d2f8 01bc 34b0 6ebb 89f6 0ebc 7b70 083c
000001a0: cfd2 443c bea6 4cbc ba0b 1dbc bcff bbbc
000001b0: 05fe ae3c c797 653b 7cf7 65bb cf16 33bc
000001c0: d86e 863b 0e5c 66ba 3029 8a3b 7e16 42bb
000001d0: 1ff3 603c 0d29 353c c34a 52bc ffa0 30bc
000001e0: 0b67 a83b ae46 ec3b 26a7 e939 6890 463b
000001f0: 639e a5bb c308 663b 623f 933b 831c b63b
00000200: e850 d63b 2b64 353c 173f f4bb 364b 073b
00000210: 0580 ecba 9e27 20bb 68e2 2abc 04f7 983b
00000220: ba90 28bb 92bb 18b7 97ae f63b 26c8 92bb
00000230: f5a5 b13b dc88 7abb 237e 453c 08f2 4abc
00000240: 9533 b539 94c9 b7bb 1125 363b ec1f 813c
00000250: 6ff8 eb3b 48e2 d53b 2789 2fbb 714c 513b
00000260: 0ceb 2dbb 46e5 7c3c 67a5 793c c8e8 ae3b
00000270: 0c1b 4dbc dca7 fbbb d737 8d3a 57a8 6c3b
00000280: d8e8 ad3b 6130 963b af19 2ebb 39ca 6ebb
00000290: 976a 1f3c f93c 0bbc d153 a33b ee2c 20ba
000002a0: 8094 2cbc a6b9 9a3b 4e19 abbb a1b3 9abb
000002b0: 3ae5 5c3b 3d8a 013c 069c 3bbc 411b 5c3b
000002c0: f114 47bc 783d 353a c165 92bb e536 b5bb
000002d0: c205 acbb db52 123c feb8 16bc 800b 833b
000002e0: 3f97 cdb9 4f1e cbbb 3b91 83bb 5a59 a33b
000002f0: 9ab4 b0bb b050 c6bb fd68 ee3b 1e69 67bc
00000300: 7292 b93b e838 8abb 5ab9 13bc 0f3e 913b
00000310: e56d ebb8 9b9c 24bc 3dc0 3e3c 9234 efbb
00000320: 91df 89bb 433c ebbb 76db c23b 5c5d 14bc
00000330: 75c7 d1bb 05f9 34ba bfba e93b ad3b b83b
00000340: f271 1fbc 5e02 43bb 54ba ae3b 3972 8ebb
00000350: 61c6 7c3b dbc3 bdbb b480 e4b9 4aca df3b
00000360: 0b8c 6abb bffd 56bb 9766 ebbb 0117 29ba
00000370: 799b 153c ff89 a0bb 03e3 ffbb a076 f93b
00000380: cd08 313c c94e c2bc d6b9 a03a de8b 3b3b
00000390: a2bd 9ebb 2d9b acba b1c2 bbbb 8351 153c
000003a0: 55c3 0bbb 3dec d1bb f8a2 6c3a 39bd d13a
000003b0: 56a7 753c f6ee 123c 1ff3 963c 133a 81ba
000003c0: 5f1a f2bb 73c8 013c 9148 d53b c485 03bc
000003d0: 86c8 6a3c 0cb6 393a 8101 983a 6b8f a8ba
000003e0: f990 8abc da30 31bc 280c 773b 9b84 303c
000003f0: 182a 04bc 186c 8fbc 74ed 30bc 2024 143c
0.013939048 -0.013445933 -0.021548592 -0.0037819669 -0.008632927 -0.0069926083 -0.0020806475 0.019296994
-0.0025615017 0.012370538 -0.009743594 -0.0037978303 0.012912699 -0.0004113935 0.0048871846 -0.0058804834
-0.007466801 0.003047296 -0.009192914 0.0012484848 0.016094128 -0.014755294 0.0029131144 0.0019064278
0.0062907403 -0.0017419363 -0.0075665065 -0.01437093 -0.010204771 0.0033889418 -0.007585927 0.0051712827
0.008150258 -0.0038724076 -4.880264e-05 0.011420566 0.012708675 -0.008510659 0.003892635 -0.0017374925
-0.01167737 -0.0097109275 -0.006625983 0.017406315 0.0006167173 0.013012973 -0.010505845 0.002015731
-0.010234878 -0.0025168187 0.005386786 0.0037576999 -0.0116997715 -0.00039980965 -0.0017319258 -0.00172736
-0.012485975 -0.0104153855 0.0017836958 -0.011984111 0.0070444755 0.004061256 -0.005400128 0.0146211
0.012219602 0.0075110397 -0.00091892824 0.0099654645 -0.0062189074 0.010833152 0.008207267 -0.006387519
-0.021652984 0.0033749728 -0.006839188 0.019370684 0.010767301 0.008050492 0.016342482 -0.005693767
0.0010700747 0.006488258 -0.0061427723 -0.010200869 -0.0037611942 -0.009985405 0.012032466 -0.00852431
-0.007294748 -0.0018331322 0.012373968 0.011586403 -0.009387993 -0.005437135 -0.0022650596 -0.0038870429
0.012103986 -0.014474326 0.012093315 -0.011109102 -0.007932859 -0.0036420943 -0.008725771 0.008327599
0.012013151 -0.012490926 -0.009585315 -0.022949092 0.02136136 0.0035033093 -0.003509014 -0.010930731
0.004102569 -0.0008787521 0.0042163357 -0.0029615457 0.01372984 0.011057151 -0.012835207 -0.010780572
0.005139237 0.007210574 0.00044565758 0.0030298475 -0.0050542816 0.0035100437 0.00449364 0.005557598
0.0065404065 0.011071245 -0.00745381 0.0020644194 -0.0018043524 -0.0024437676 -0.010429956 0.0046681184
-0.002572103 -9.103578e-06 0.007528137 -0.004479426 0.005421395 -0.0038228547 0.012053999 -0.012386806
0.00034561442 -0.005608747 0.002779309 0.015762292 0.0072012465 0.006527219 -0.002678463 0.0031936432
-0.0026537804 0.015435522 0.015237189 0.0053378083 -0.0125186555 -0.0076799225 0.0010774088 0.003611108
0.005307298 0.004583404 -0.0026565602 -0.0036436452 0.009730003 -0.008498424 0.004984357 -0.00061102107
-0.010533452 0.004721838 -0.0052215224 -0.0047211205 0.0033705966 0.007906494 -0.011450773 0.003358558
-0.012150989 0.00069137616 -0.0044676964 -0.0055302256 -0.00524971 0.008930887 -0.009199379 0.0039991736
-0.00039213334 -0.0061986814 -0.0040151156 0.004985017 -0.005392623 -0.006052099 0.007275699 -0.014124183
0.0056632096 -0.0042182095 -0.009016359 0.004432447 -0.00011226143 -0.010047103 0.011642513 -0.007299968
-0.0042075594 -0.0071788146 0.005946572 -0.009055462 -0.006401951 -0.0006903562 0.0071328576 0.0056223483
-0.0097317565 -0.002975605 0.0053322706 -0.0043471125 0.0038570391 -0.00579117 -0.0004358344 0.0068295347
-0.0035789039 -0.0032805053 -0.0071838605 -0.0006450266 0.009131306 -0.004899263 -0.0078090443 0.007613018
0.010805321 -0.023719208 0.0012262415 0.0028617303 -0.0048443833 -0.0013168805 -0.005729996 0.009113672
-0.0021326144 -0.0064063356 0.000902697 0.0016001827 0.014993509 0.008968106 0.018426476 -0.0009859226
-0.0073883976 0.007921326 0.0065088947 -0.008027498 0.014330035 0.0007084317 0.0011597128 -0.0012860125
-0.016914831 -0.01081487 0.0037696455 0.010773803 -0.008066677 -0.017507598 -0.010798801 0.009041816

action_model._discrete_distribution.branches.3.bias f4 [3]
00000000: 31d2 2dbb 4ad9 e938 fcc3 303b
-0.002652299 0.00011150779 0.0026972285

action_model._discrete_distribution.branches.3.weight f4 [3, 128]
00000000: bad1 3abc 52fa e23b 7313 29bc d4ba c83b
00000010: 29cd ecba 6bd5 30bc 9ce5 7b3b 31c6 833c
00000020: 3ddf 3dbc 636e 9c3b 5eba a8bb 8392 84ba
00000030: 4b4f af3b 0006 60bc 3733 57bc bb42 973a
00000040: 7ede 8dbc 0ffb 4d3b 17f5 57bc ccc5 16bb
00000050: 4df4 333c 9059 39bb a3ec c4bb 929e 44bb
00000060: f0b5 dc3a 153b 9c3b 1a96 02bc d478 dfba
00000070: 8d6d 0c3d 08c3 863c 951a 85bb 7a10 dfb8
00000080: 64ac 883b 1d65 b8ba 2840 7abb 66aa 073b
00000090: ba7a 51bb 0d61 9a3c 3a88 aa3c fb05 103c
000000a0: f749 9438 a93f 0a3c 39a8 b33a 1444 8f3a
000000b0: 8838 b7bc 1f30 963c dac3 633b f310 ba3b
000000c0: c0f7 b53b 6d4d 8fba a30b 0eba 78f0 3abc
000000d0: 0f1c ee3b 705d 783b 442b 8cba 8722 2ebb
000000e0: 4884 66bc c18f a7bc 6975 86bc 1c79 0bbc
000000f0: 5c15 97bc f86e 353b 7e22 eabb 2d3e 8fbc
00000100: dd16 8dbb 01e3 a4ba 469b f83b 0da8 35bc
00000110: ba90 e139 784d a4bc c242 52ba 6dd6 283c
00000120: b038 153c 3240 483b 64b2 943b 034b 0cba
00000130: 7fb4 59bb 1388 52bc 0984 5cbb 5707 d5bb
00000140: 5e5a eebb 9fcb 3fbb 6788 233a 69d7 45bc
00000150: c45f 8bbb be81 8ebc 02e9 033a f5eb 6dbb
00000160: 23a9 9fbb 85af 5f3c d1f7 7abb a3f8 4bbb
00000170: d404 823c 181a 883b d019 d93b 2359 a43b
00000180: bcf6 16bb fd44 e7bb 32c0 6fbb ddfd 91bb
00000190: 6493 3ebc 5ba1 72bb a517 a3ba c133 103a
000001a0: 05f0 543b 8ba4 ef3b 90fc 2fbb d925 7b3c
000001b0: bfde 5bbc 978b 36bc 3fbf 68bc 3f36 9ebb
000001c0: 58a7 afba 252e bdbb 49ac e13c 5775 5b3c
000001d0: a652 953c 2cbb 9e3b 805b 3d3a 6738 e9bb
000001e0: 048b 9f3b 689d 103b bc58 56bb f6b8 9f3b
000001f0: 9d6f e03b c191 3bbc a289 513c a834 9e3b
00000200: 4045 e439 4824 363c 88c3 21bc 9583 f0ba
00000210: d730 93bc 3845 85bc 4748 1a3c ac78 983b
00000220: bde5 0cbc 3838 e2bb e7ce 35bb 6ac4 1f3b
00000230: 6ddf 053b 8bbc fe3b d1a7 f9ba 923d 5a3c
00000240: f9f2 2f3c 4789 83bc ce49 823c fbe2 6f3c
00000250: fb3f 07bc a4dc 2ebc 0bf5 113c 23a7 a03c
00000260: 504b 9d3c f6a7 883c f5cf 6cb9 93c6 983b
00000270: d22d 673c 2852 473c 9ac0 7cbb 6f9a 7b3b
00000280: f227 15bc 7ad8 ee3a 569c f93b 3774 e13a
00000290: ac75 3bbc 48ec 42bc 400c 983b ee74 263c
000002a0: d145 513b bbdd 243b 4f01 36bb f57d 2b3c
000002b0: 7411 833c b9b4 373b 0e58 58bb a66a 513b
000002c0: 335c 26bb 89db dcb9 46b4 723c a9b6 373b
000002d0: 0677 62bb 94b9 053c 56b6 3cbc 8ce8 28bc
000002e0: 0c92 a0bb ed42 bd3b 3a7d a3b9 7b07 1abc
000002f0: e6e8 f7bb be58 35bc 7493 fbb9 bf60 8a3b
00000300: 25d3 9dbb 35ad 343b f46f e839 eaed 81bb
00000310: c92c d5bb 87a9 13bc a0bc b73b f630 023c
00000320: 8382 533c 17b2 c53c 22b3 0b3b a04b 3fbb
00000330: 3b54 3a3b 6153 69bc 9e26 9a3b 8763 76bb
00000340: 90e6 0fbc a7ef 763a e47c 583c 5f68 18bc
00000350: 6ad6 b9ba 0b83 fd3b 5522 aebb 178d b73b
00000360: f540 05bc 4a5e 863b 8c86 7cbc 34a9 75bc
00000370: 7375 22bb de84 243c da48 b23c d861 2abc
00000380: b999 e83b 1f20 d839 089d 56ba 9d05 f13b
00000390: da88 503c a4e3 453c d3a5 9cbb befe 21bb
000003a0: b015 abbc 9e45 12bb 4af0 c33b e01a 10bb
000003b0: 2c4b c13a e73e 693b 3517 3e3c 1718 edbb
000003c0: 7926 f2bb c52e 093b 2599 e5bb cfc3 c2bb
000003d0: 7ae8 2fbc ea27 9239 4c6b 163c 1156 a33a
000003e0: 7ab3 b33b 6100 a7bc 645e 64bc ec03 3c3c
000003f0: b8ab 80ba 1a10 a93c bf89 6f3a 98b5 373c
-0.011402542 0.006926813 -0.010319578 0.0061257873 -0.0018066514 -0.01079307 0.0038436418 0.016085716
-0.011588869 0.0047739013 -0.00514917 -0.0010114465 0.0053500286 -0.0136733055 -0.013134769 0.0011540273
-0.017318007 0.003143016 -0.013180993 -0.002300608 0.010983539 -0.0028282143 -0.0060096546 -0.0030001742
0.001683889 0.0047677853 -0.007970357 -0.0017049559 0.034284163 0.01645042 -0.0040620067 -0.000106365376
0.004170941 -0.001406822 -0.0038185213 0.002070093 -0.003196402 0.018845106 0.020816911 0.008790488
7.070967e-05 0.008438029 0.001370675 0.0010930323 -0.022365823 0.018333493 0.0034754188 0.00567829
0.0055532157 -0.0010933109 -0.0005418604 -0.011409871 0.0072665284 0.003789749 -0.0010694047 -0.0026570873
-0.014069624 -0.02045429 -0.016413407 -0.008512761 -0.018442802 0.002768455 -0.007145225 -0.017485702
-0.004305704 -0.001257986 0.0075868694 -0.01108743 0.00043023174 -0.020056471 -0.0008020812 0.010305029
0.009107754 0.0030555842 0.0045378674 -0.0005351754 -0.0033219156 -0.012849825 -0.0033648035 -0.006501119
-0.007273956 -0.0029265655 0.0006238282 -0.012075284 -0.0042533595 -0.01739585 0.0005031974 -0.0036303971
-0.0048724576 0.013652687 -0.0038294683 -0.003112354 0.015871443 0.0041535012 0.0066253915 0.0050155087
-0.0023035249 -0.0070577846 -0.0036583063 -0.0044553117 -0.01163182 -0.0037022445 -0.001244296 0.0005500876
0.0032491696 0.007313316 -0.002685342 0.015328848 -0.013419806 -0.011141679 -0.014205753 -0.004828244
-0.0013401313 -0.005773323 0.027547972 0.013394675 0.018227886 0.00484409 0.00072234124 -0.0071173194
0.004868867 0.0022066478 -0.0032706698 0.004874344 0.006849243 -0.011448325 0.012789162 0.0048280545
0.00043539144 0.011117049 -0.009873278 -0.0018349761 -0.017967625 -0.016268358 0.009416646 0.004653057
-0.008599696 -0.0069036745 -0.0027741732 0.0024378547 0.0020427362 0.007773941 -0.0019047206 0.013320344
0.010739082 -0.01605667 0.015904333 0.014641519 -0.008255 -0.010672722 0.00890852 0.019610947
0.01920095 0.016681653 -0.00022584184 0.0046623438 0.0141100455 0.012165584 -0.0038566948 0.003839161
-0.009103762 0.0018222474 0.0076175136 0.0017200772 -0.011441629 -0.011897154 0.004640132 0.010159714
0.0031932483 0.0025156576 -0.0027771776 0.010467042 0.015999533 0.0028031303 -0.003301147 0.0031954437
-0.0025384545 -0.00042125236 0.014813488 0.0028032458 -0.0034555807 0.008161921 -0.011518082 -0.01030935
-0.0049002226 0.0057758004 -0.00031183084 -0.009401198 -0.0075656055 -0.011068521 -0.00047984312 0.004222959
-0.00481643 0.002756906 0.000443339 -0.003965129 -0.006505583 -0.009012586 0.0056072026 0.0079462435
0.012909534 0.024132771 0.0021316488 -0.0029189363 0.0028431553 -0.0142410705 0.0047043106 -0.0037595944
-0.008782998 0.0009419866 0.01321337 -0.009302228 -0.001417828 0.007736569 -0.0053141513 0.005601536
-0.008133163 0.0041005956 -0.015412938 -0.014993954 -0.0024789243 0.010041444 0.021763254 -0.010399304
0.0070984033 0.00041222663 -0.00081868516 0.0073554055 0.01272794 0.0120782 -0.00478051 -0.0024718489
-0.020884365 -0.0022319327 0.0059795724 -0.0021988675 0.0014747134 0.0035590471 0.011602213 -0.0072355377
-0.00738984 0.0020932418 -0.0070067816 -0.0059437524 -0.010736579 0.00027877028 0.009180855 0.0012461563
0.0054840418 -0.020385923 -0.01393852 0.011475544 -0.0009816801 0.02063756 0.0009137652 0.011212729

discrete_action_output_shape f4 [1, 4]
00000000: 0000 4040 0000 4040 0000 4040 0000 4040
3.0 3.0 3.0 3.0

network_body._body_endoder.seq_layers.0.bias f4 [128]
00000000: a746 d7ba e2b1 8d3b 47e5 4e3b 4dcc c73a
00000010: c887 91b9 59f1 243b 4b91 773b 4276 b53b
00000020: d800 c2b9 706d b9bb b16a ceba 5b33 a6bb
00000030: 6976 f23a f509 84bb f8aa 663a 4260 063a
00000040: 6929 1a3b 9131 8ab9 fd9f 7ebb 6ce4 94ba
00000050: 74b4 e93a 9c9f 0cbb eecf d039 215b 90bb
00000060: 19af 4c3b 6996 633a 9256 f339 498b 6fba
00000070: 7e89 0639 4add a13b 54e0 793b 4756 c1b9
00000080: 7c70 013b 09c9 79ba 4542 373b 0758 253b
00000090: 784c 13bb ddfb 573b aeaa 6e3a 7c62 96ba
000000a0: 8891 acba 906e 733b 76f1 cfb9 d744 113b
000000b0: f7bd 603b afd3 78bb 3f20 8d3b 5cb5 5fbb
000000c0: ad98 34bb a877 383b 8052 093a 00e6 7db9
000000d0: dc16 33bb 33f8 513b 96e1 6fb9 1f6f e0ba
000000e0: a9f4 0f3a d8ea 123b 31de 7e3b 55da 85bb
000000f0: aee6 703b d1ca 993a a15d 0a3a e91c 90bb
00000100: 5ae7 1fbb 44c6 17bb 2762 2f3b a0b5 62bb
00000110: d395 1fba 0628 42bb 4d7d d739 6e70 8c3b
00000120: 637e 543b 1666 e33a e835 a9ba e79f 5e3b
00000130: 468d 923a 199e 75bb 105c 8f3a 17d6 9fba
00000140: 41f3 953b abde 583b 79d5 2dbb 3648 a13a
00000150: f383 453a 2fb0 2e3a 4257 673a 3c00 b4ba
00000160: 3b4c a4bb 9751 7f3a c1d0 ed3a c494 acba
00000170: 8350 bbbb 875f 7dba d313 5dba dac1 21bb
00000180: 6139 3f3a 17bd 823b c906 4e3b 3bbf f03a
00000190: 7363 20bb 492f a0bb 5667 7f3b d058 0aba
000001a0: 7705 933b 8cc0 90bb dfb4 17ba cbdf a5ba
000001b0: 5be9 e739 65d0 ec38 049d 4239 ec78 11b9
000001c0: 2fef 4339 ac9e b53b e901 703b f7e2 113b
000001d0: 7b9a 7fba 184d a23b 6120 593a dcaa e2ba
000001e0: d3f6 07ba 7f0b 9e3a 0424 083a 8311 bcba
000001f0: b98e 7cb9 2752 57bb 2a20 973b 49c2 2f3b
-0.0016424254 0.004324184 0.0031569765 0.0015243381 -0.0002775772 0.0025168268 0.003777581 0.005537779
-0.00037003192 -0.005658798 -0.0015748349 -0.00507204 0.0018498424 -0.0040295073 0.000879928 0.0005126038
0.0023523218 -0.0002635834 -0.0038852685 -0.0011359579 0.0017830268 -0.002145744 0.0003982777 -0.0044053947
0.0031232296 0.00086817757 0.00046413072 -0.00091378816 0.00012830456 0.00493971 0.0038128095 -0.0003687611
0.0019750884 -0.0009528553 0.0027963084 0.002522947 -0.0022476 0.0032956519 0.0009104413 -0.0011473442
-0.001316593 0.0037144758 -0.0003966202 0.0022166276 0.0034292915 -0.003796797 0.0043068225 -0.0034135198
-0.0027556822 0.0028147493 0.0005238429 -0.00024213642 -0.0027326858 0.0032038807 -0.00022876853 -0.001712296
0.00054914743 0.002241781 0.003888976 -0.004084865 0.003675859 0.0011733418 0.0005278234 -0.0043979776
-0.002439937 -0.0023158947 0.0026761384 -0.003459312 -0.0006087694 -0.0029625907 0.00041101352 0.0042858636
0.0032423965 0.001734915 -0.0012909742 0.003396982 0.0011181019 -0.0037478267 0.0010937471 -0.0012194541
0.0045761173 0.0033091705 -0.0026524945 0.0012304846 0.00075346156 0.00066638266 0.0008824953 -0.001373298
-0.00501397 0.0009739636 0.0018143879 -0.0013166894 -0.005716385 -0.0009665419 -0.0008433435 -0.0024682195
0.0007294622 0.0039898264 0.003143715 0.0018367538 -0.002447334 -0.0048884493 0.0038971505 -0.00052775163
0.0044867354 -0.0044174846 -0.0005787145 -0.0012655196 0.00044233617 0.000112921734 0.00018559775 -0.00013873324
0.00018685752 0.005542597 0.0036622232 0.0022260526 -0.00097504974 0.004953038 0.0008282718 -0.0017293352
-0.0005186621 0.001205787 0.0005193355 -0.0014348481 -0.00024085761 -0.0032855363 0.0046119886 0.0026818684

network_body._body_endoder.seq_layers.0.weight f4 [128, 128]
00000000: a2cb 733c 7d63 d6bd 0f46 843c d86a ff3d
00000010: dc3f 9f3d f7a1 683d c731 353c 67d5 43be
00000020: 0864 17bd ce1f 2a3e d8a0 033c 5eac 073e
00000030: a8db 473d 4b74 88bd 5b24 e43d 1cec 7e3d
00000040: a563 6bbd a9db 01bd fdda 033d 1516 8d3b
00000050: 2590 8dbc 6cf4 b03c 5fa2 053e 565a eebc
00000060: 87fc 0d3d 3b6c 013e 1395 663d 4600 6abd
00000070: 9b43 db3c 18bc b23d 49b6 bb3c 6bc2 29bd
00000080: 89cb 113e 9f5d 133d 6995 a33d abc5 52bd
00000090: c974 acbb 55a6 3dbd 4f9b cf3d ee6a a63d
000000a0: b7aa 913d d713 013d d25f 2abd 8a39 99bd
000000b0: d68c b2bc c837 15bd 07c0 d93d ab11 b63d
000000c0: 42ec e0bc a6a3 2cbd 862a e1bc 4ef8 253e
000000d0: 0a00 143d 75c1 c2bb 9eff 86bd 83c5 033e
000000e0: cf2a 293d ece0 fc3b e15a e7bc a356 e0bb
000000f0: 47f4 283c 36fd 903d f513 11be 13c5 8d3d
00000100: 03a3 e7bc 18c5 1fbb 919f 19bd e66d 24be
00000110: f30b b53d ac60 643d 581a 193d 06ad 583e
00000120: eeb4 b9bb ba8e a5bd b47c a93d 274f 82be
00000130: 4b84 8f3d 43fd 77bd 6062 93bd b4e9 c2bc
00000140: e2f7 593d 2486 8d3c 36df 71bd 502f 313c
00000150: 903f e3bc cca3 d5bd e2da da3d 6d44 533d
00000160: 2ca8 8dbc 6280 a6bb 55d5 d03d b03e 4bbc
00000170: c85b 11bc 36a7 503e 96c4 233d 708c cd3b
00000180: f444 b83c 67f8 5fbd 4d1c a4bd 3493 21bd
00000190: 6546 d43d 9db3 79be cba7 27bc 9b56 6abb
000001a0: 451a be3d 2e68 8abd 0099 96bb 972f 0c3e
000001b0: 8e18 f03d 13e4 0bbc 59a2 483d 4718 55bd
000001c0: ff1c 8f3d 2e50 f8bd 47a9 89bd 341a 6abd
000001d0: 31bf 9cbd 8c96 383d 3b5c 16bd bad0 2dbe
000001e0: e385 bdbd 1fbb 1f3d 2874 7a3d 1c2b df3d
000001f0: 671f c2bd 3a2e 3cbd f57a 83bc 413f 74ba
00000200: 27cb 803d b0d3 05bd e0d1 4e3d b65f c33c
00000210: ec6e eabb 5cb5 bbbd fc30 e7bd 11b5 993d
00000220: 9897 bd3d e0cf f9bd a4a5 39be 6feb 6bbd
00000230: cfc0 9bbc aebd 06be 091e 2fbe e532 613d
00000240: 1ae9 dd3d 7d6f 8d3d 3830 c73d fa9f b53d
00000250: fb96 c9bc a39b a53c ba8f ec3d 4077 be3c
00000260: 3b1b 90bd 5c14 38bd f4ca 1ebb cef8 24be
00000270: b162 2ebd beb2 9ebd f15e 563c 9f01 babc
00000280: d5a2 973d 8dca 81be 0495 233d f3a9 4d3d
00000290: 3bf9 69be af5b b4bb af07 46bd b8fb 593d
000002a0: d5be 0bbe 1af3 013e c0cc c1bd 4bb9 b33c
000002b0: e8f0 1bbd df88 bbbd 22b0 023d 199b 17be
000002c0: 634d fe3c a379 153d f056 3c3e b345 cf3c
000002d0: b895 27bd a7a3 bd3d 4fe1 e83d 616e bebc
000002e0: 2085 953d 6a6a 303d b0de 753d 9c6d 0dbe
000002f0: bcec a5bd c15d 25be e5a9 c2bc 528b a03b
00000300: 74e2 063d 16ef 3b3d 9c80 15be 293b f73d
00000310: 96a4 25be 935d 333d 3fa1 3c3d b60b 54bd
00000320: d2bc 4f3d 2a5d 033d 12bf 713d db4d bf3b
00000330: 426b fa3d 46be 7e3d 657e 1cbe d230 833e
00000340: 3f8f ea3d 338c 73bb 7329 45bc 3289 0dbc
00000350: 5262 2638 8888 223d b0ca 1fbd 99f6 bd3d
00000360: fd35 1c3e f7a7 32bc c89c e83c 8d5c d13d
00000370: ebd6 8f3b da96 1abd 97ea 4ebb 92e1 de3d
00000380: 6e36 b73b 69d9 543b 023b 40bd dedd 153e
00000390: c204 2d3d 00d2 9f3c 30d1 84bd 91c5 b7bd
000003a0: 685f 58bb f849 c43d a816 043e ce3b 1a3c
000003b0: bed8 293e e871 3dbc d246 87bb 3198 7dbd
000003c0: 5338 873d 6962 53bd 926b 663d 8805 3d3e
000003d0: b10f bd3b c5db d33d b189 70bb b4ec 91bd
000003e0: 4c15 2b3c 6b08 103e f44a 00be cdef 8bbc
000003f0: 2d26 a2bd bcb3 ce3d e7f8 65bd 6de7 2a3e
0.014880093 -0.10468195 0.016146688 0.12471551 0.07775852 0.056795087 0.011059231 -0.19124375
-0.03696063 0.16613695 0.008033954 0.13249347 0.048793465 -0.06662806 0.11139747 0.06223689
-0.057468075 -0.031703625 0.032191265 0.004305611 -0.017280648 0.021600924 0.13050221 -0.02909581
0.034664657 0.12638943 0.056294512 -0.057129167 0.026765635 0.08727282 0.022914069 -0.041445177
0.14237799 0.035977956 0.07987482 -0.051458042 -0.0052629453 -0.046301205 0.10137045 0.08125864
0.071126394 0.03151306 -0.041595288 -0.07481678 -0.021795671 -0.03643015 0.106323294 0.08890089
-0.027456407 -0.042148255 -0.027486097 0.16208002 0.03613285 -0.005943472 -0.06591724 0.12868313
0.04130059 0.0077172425 -0.028241577 -0.0068462654 0.0103121465 0.07079546 -0.14167769 0.069223545
-0.028275972 -0.0024378952 -0.03750569 -0.16057548 0.0884017 0.055756256 0.03737864 0.21159753
-0.0056673205 -0.080838636 0.08275738 -0.25451013 0.07007655 -0.060544264 -0.07196498 -0.023793079
0.053214915 0.017275877 -0.05905076 0.010814503 -0.02774027 -0.104316324 0.1068628 0.051578928
-0.017292105 -0.0050812224 0.1019694 -0.012405083 -0.00887198 0.20376286 0.0399824 0.006272845
0.022493817 -0.054680254 -0.080132104 -0.039447024 0.10364989 -0.24384923 -0.010232876 -0.0035757187
0.09282354 -0.06758152 -0.0045958757 0.13690029 0.117234334 -0.008538264 0.04898295 -0.052025106
0.069879524 -0.12124668 -0.0672174 -0.057153895 -0.07653654 0.045065448 -0.03670905 -0.16974154
-0.092540525 0.038996812 0.06114593 0.10896894 -0.09478646 -0.045942523 -0.016049841 -0.0009317287
0.06288748 -0.032672584 0.05049312 0.02384935 -0.007154336 -0.09165451 -0.1128864 0.07505239
0.0925743 -0.12197852 -0.18129593 -0.057597574 -0.019012837 -0.13158295 -0.17101301 0.054980177
0.10835476 0.0690603 0.09725994 0.08868404 -0.024608126 0.020215815 0.11550851 0.023250222
-0.07036444 -0.04494129 -0.0024229856 -0.16110536 -0.04257459 -0.07748936 0.013084159 -0.022705851
0.074041046 -0.25349846 0.039937034 0.050210904 -0.2284898 -0.0055040936 -0.04834717 0.053218573
-0.13647015 0.12690392 -0.09462881 0.02193894 -0.038071543 -0.091569655 0.031906255 -0.14805259
0.03104276 0.036492955 0.18392539 0.02530179 -0.040914267 0.0925973 0.11371099 -0.023245992
0.07300782 0.043070234 0.060026824 -0.13811344 -0.08101794 -0.16149046 -0.023762653 0.004899421
0.032930806 0.045882307 -0.14599842 0.12071831 -0.16176066 0.04379041 0.046052214 -0.05176898
0.050717182 0.03207127 0.05902011 0.0058381385 0.12227489 0.062193178 -0.1528259 0.25623184
0.11453103 -0.0037162423 -0.012033808 -0.008638667 3.9669052e-05 0.039680988 -0.039011657 0.092755504
0.1525497 -0.010904304 0.028395072 0.10222731 0.004389634 -0.03774152 -0.0031572932 0.10882868
0.0055912053 0.003247822 -0.046931274 0.14635417 0.042240866 0.019509315 -0.06485212 -0.0897323
-0.003301585 0.09584421 0.12899268 0.009413673 0.16586587 -0.011562802 -0.0041283155 -0.06191272
0.0660254 -0.051607523 0.05625493 0.18459141 0.005769693 0.10344652 -0.0036703164 -0.07125226
0.010442089 0.14065711 -0.12528592 -0.01708212 -0.07917438 0.10092875 -0.056145575 0.16689844

network_body._body_endoder.seq_layers.2.bias f4 [128]
00000000: af99 23bb dd72 5f3b 220f 073b f718 e539
00000010: e41b 60ba 0727 773b 10aa f23a b737 e3ba
00000020: 9cc8 843b 85a9 0b3b ff72 503b 1270 f83a
00000030: 1d09 55bb c05c 49b8 1f7c c2b9 3650 95bb
00000040: bd63 973a 7f8b 093a ab69 693b 7f0b 30bb
00000050: e43a 403b 90e9 93bb c5c2 723b 83be 2fba
00000060: b4da 27bb 65db 59ba 5389 71bb 4207 553b
00000070: 3b8c 2cbb 9270 10b9 7802 6f3b 7c85 c8ba
00000080: df02 08bb f315 0b3a ef8b 663b 3630 4139
00000090: 77aa 6c39 0f8a 0e3b ef3d 093b a4ac 0bbb
000000a0: b14b 39ba 2a2b 2b3b 3253 1b3b 9697 9739
000000b0: e7fc fb39 2cc3 9ebb 9466 beba ecc8 1abb
000000c0: ecd4 71bb d6ff 8bba a76d 9839 e252 953b
000000d0: 03e7 0eba a48b eb3a 7e1b 883b 55bc 443a
000000e0: 996f 91bb 5fb9 4d39 e088 3b3b def7 e9ba
000000f0: b12e 913a 88e1 fab9 41de 5f3b 41b5 423b
00000100: 0386 86bb 7111 5b3b 88f1 aa3b 282d 84bb
00000110: 8a0e 743b d322 5b3b 7f3f 7a3b cb60 d53a
00000120: 08dc b3ba fdb7 46ba 8f36 bdba cf3b f0ba
00000130: a466 eaba 1172 3a3a df37 9f3b 4e0d 0f3b
00000140: 937e a0b8 7627 daba 802d 9aba da57 f4b9
00000150: d814 403b e21e c8ba e89b 9cbb af62 92bb
00000160: ffc4 b23b 9852 38bb c7bf cd3a bf49 483b
00000170: b41c b3bb 9056 cb39 4367 c03b 615c 9ab9
00000180: dc6b c5bb 5681 45b9 8ecd c8b9 7815 633a
00000190: 037a b93a c4cd 293b cc1a dbba ba35 a4ba
000001a0: b6f4 65bb a98a 7137 20cb 613b 6352 e7ba
000001b0: 3ca2 2ebb bef3 aa3b 537d 6c3b 14f7 f136
000001c0: 9d86 37bb 99ed d73a 4fd6 52ba 2330 aaba
000001d0: 1d59 aebb 8ac7 1f3b 54df 173b 1702 1b3b
000001e0: 2343 873a 50ce 4fba e3f0 aaba 25a2 8c3b
000001f0: b37e 653a e416 4b3b 2465 adba 14d4 fdb8
-0.0024963429 0.0034095563 0.0020608385 0.00043696884 -0.0008549078 0.003771247 0.0018513817 -0.001733533
0.004052235 0.0021310758 0.0031806824 0.0018954298 -0.0032506653 -4.8008515e-05 -0.0003709504 -0.004556681
0.001155011 0.0005246922 0.0035615962 -0.002686232 0.0029331977 -0.004513927 0.0037042361 -0.00067041087
-0.0025612535 -0.00083105854 -0.0036855533 0.0032505547 -0.00263287 -0.00013774846 0.0036469977 -0.001529857
-0.0020753664 0.00053057 0.0035178622 0.00018423874 0.00022570217 0.002174977 0.0020941456 -0.0021312619
-0.0007068469 0.0026118257 0.0023700711 0.00028913905 0.00048062878 -0.0048450436 -0.001452642 -0.0023618294
-0.0036900593 -0.0010681103 0.00029073397 0.0045569995 -0.00054512935 0.0017970693 0.004153668 0.00075048703
-0.0044383523 0.0001961938 0.002861552 -0.001785036 0.0011076537 -0.0004785175 0.0034159573 0.0029710087
-0.004105331 0.0033427144 0.005216781 -0.0040337034 0.0037240111 0.0033437505 0.003818482 0.0016279457
-0.0013722191 -0.0007580517 -0.0014435815 -0.0018328371 -0.0017883372 0.0007112334 0.0048589553 0.0021827999
-7.652971e-05 -0.001664384 -0.0011762828 -0.0004660476 0.00293093 -0.0015267993 -0.0047793277 -0.0044673304
0.0054556127 -0.0028125402 0.0015697413 0.0030561534 -0.005466068 0.0003878367 0.0058716848 -0.00029441997
-0.0060248207 -0.00018835565 -0.00038300123 0.0008662562 0.0014150742 0.002591 -0.001671636 -0.0012528219
-0.0035088486 1.4397004e-05 0.0034453347 -0.0017648455 -0.0026646992 0.0052170446 0.0036085441 7.2111234e-06
-0.002800382 0.0016474008 -0.0008042799 -0.0012984317 -0.0053206817 0.002438041 0.0023173885 0.0023652369
0.0010319691 -0.00079271663 -0.001304176 0.00429179 0.00087545364 0.0030988986 -0.0013228995 -0.00012103483

network_body._body_endoder.seq_layers.2.weight f4 [128, 128]
00000000: 30cd 2d3e d27f 203e 7b03 1bbd dba0 03be
00000010: ba36 223e bb48 9a3d 1ec4 70bc d56e a9bd
00000020: 144a 3c3d 00de cdbd 217b 643c 8e3d 97bc
00000030: 0dba 67bd 95bd 1b3d 655f 523d eed3 c8bc
00000040: 5ad4 10bd e0b6 5a3d 23a0 c6bc e008 1fbd
00000050: 72e9 9cbd 0fa1 223c 255a 2b3e 8f52 b93c
00000060: b3b0 4f3d 95b8 373d a705 57bd c617 1b3c
00000070: 4a83 843d 2212 32bc 69f1 4bbd 6ca6 bcbd
00000080: cf14 da3d 1585 f13d 5e9e c33d 930e b0bc
00000090: b159 a83d f01a 703d db36 b63d c668 bfbd
000000a0: afb5 3d3e 0c8b 86bd 2e73 28be 8aa0 ca3c
000000b0: 59d6 373c 3ce5 343d 92b6 8fbc 5a9a 803d
000000c0: a125 63bd 5ecd 5c3e 8672 733c 1780 323d
000000d0: cfaa 1ebe ba83 813d 1685 75bc f4cb c53d
000000e0: 2e33 aabd 019c d93c eabb a83d ed24 923d
000000f0: 7b7a 84bd b22f adbd e4b9 95bb c7ce 6cbc
00000100: 2524 8a3b 8005 a3bc 940d 16bc ada1 e03d
00000110: 8c69 82bd 469e 8e38 017a babc 9912 113e
00000120: eb2b edbc 4141 243d 5972 5cbd b614 0b3e
00000130: a9bd 00bd 8adb 03bd 064b c2bc f039 4b3c
00000140: d4a6 453d 47db b33d 9f2a e43c 1eda 273e
00000150: f1ed 0abe 59ec ef3d 4c4e 0c3d c0ed 833c
00000160: 9a9f fcbd 0708 a73d a264 99bd 53ed e2bd
00000170: b8b6 7cbd 9d83 afbc 586d 81bc ec79 c13c
00000180: 514b 4a3e 0f79 13be 17f1 873d 4b9e dc3d
00000190: 84e7 8c3c ca7b 92bc 8601 d6ba b8aa 48bd
000001a0: 25d9 b9bc 61bf 133e a846 29bc f0a0 e93d
000001b0: 5354 4d3d 6924 33bd 4a58 04be f70a 453d
000001c0: 5a6d febd 5261 dbbc 7e3c 163d 1e0d 69bd
000001d0: 05b5 be3c 3fb3 783c fcf4 48be 99ce ff3a
000001e0: 1e65 2c3d dc5a 14be 69e1 923b d9d2 1b3e
000001f0: a81b d7bc f0ee 283e 5184 143d 4167 86bd
00000200: b18e b4bc c592 993b e55c ae3d b5ba 44bd
00000210: 919e 57bd 41d6 91bd a8b3 033d c46d 543d
00000220: 3b32 febd cee5 95bd 4ca3 40be 3eb2 263d
00000230: acc3 28be e00d 783e 5b1a 5abd 1d40 163e
00000240: 238f 89bd 592e 5dbd 089b cb3d 3030 2cbd
00000250: 0fa5 50bc ebef 513a 9ccc 003e 3fe6 be3b
00000260: 62a4 e8bd 8763 7cbc 2133 3dbd d0f2 a13d
00000270: ee62 d2bd d81c 273c 7c72 9d3c c34c aabc
00000280: 3420 c3b9 1614 d53c 537a 963c d1d1 90ba
00000290: f656 edbd 4783 abbc e6ad 0d3e 63b6 b53d
000002a0: fad3 bb3d 22d0 f23c 3223 8dbd 029d 8e3d
000002b0: 609e 083d 1ce4 963b 218d 79bd 418a 2dbc
000002c0: f307 3bba 4aab 98bc 6f97 0b3d 00ed 2b3d
000002d0: 7c8a 4a3e 9432 033e 0602 3a3d db1c 36be
000002e0: 2c16 923c b666 debc 314d 7bbd b024 e5bd
000002f0: 8edd 9cbd 8ec9 0f3e 467d 15bd a6d5 dc3a
00000300: 7749 24be 9f19 8cbc eba0 453d d031 4cbb
00000310: c95a d73d 17dc d5bd 48fa f3bb 9817 473e
00000320: 20f2 913b c3fa 183d 3d01 1f3e bba9 1fbe
00000330: dccc c23d 7b7b 2c3c e11f e0bc 44d8 f3bc
00000340: e3c0 3ebd e673 4f3d 56c7 6abe 3225 b23d
00000350: e003 15bd 3fc8 033e c595 82bd 1955 34bc
00000360: aae5 0dbd 5754 1b3e 2d82 683d ab50 003b
00000370: b949 d63b 5d66 64bb 9d8c 693d 19fc ccbd
00000380: 78ad acbc 6b45 2d3e acd4 2d3d a77e 2a3d
00000390: 1416 29ba d2c6 d5bd a270 5fbd 1af4 763c
000003a0: 3b72 81bc 721c c03d f924 003e 64a4 ed3d
000003b0: 17a4 fa3c 22a8 253d 499f 15be 8434 a5bd
000003c0: e983 bb3d 0ea3 693d 2624 dcbd 8f86 933d
000003d0: b914 eabd 5621 86ba 33ef 173d ee57 a1bc
000003e0: 6e76 aab9 aa5e 47bd 150b 953d 11df c33c
000003f0: e547 b5bd 915e 34bc 3d17 543d 067a c53c
0.16972804 0.1567376 -0.037845116 -0.1285433 0.15841189 0.075334035 -0.0146951955 -0.08273093
0.045969084 -0.10052109 0.013945372 -0.018461969 -0.056573916 0.038022596 0.051360507 -0.024515118
-0.035358764 0.05339706 -0.024246281 -0.038826823 -0.07661714 0.009926095 0.16733606 0.022622375
0.050705623 0.044853766 -0.052495625 0.009466117 0.06470354 -0.010868581 -0.049790774 -0.0921143
0.106485 0.117929615 0.095516905 -0.021491325 0.08220232 0.05861944 0.088971816 -0.09346156
0.18526338 -0.0656949 -0.16450188 0.024734754 0.011220538 0.044163927 -0.017543111 0.0627944
-0.055455808 0.21562716 0.0148588475 0.043579187 -0.15494846 0.06323953 -0.014985343 0.096580416
-0.08310543 0.026563646 0.08238967 0.07135949 -0.06468674 -0.08456363 -0.004569279 -0.014453596
0.0042157345 -0.019900084 -0.009158511 0.10968337 -0.06367788 6.8005684e-05 -0.022763254 0.1416725
-0.028951606 0.040101293 -0.053819988 0.1358212 -0.031430874 -0.03219179 -0.023717415 0.01240395
0.048254803 0.08782058 0.027852355 0.16391799 -0.1356733 0.117150016 0.034254357 0.016104579
-0.12335129 0.08155828 -0.07489897 -0.11080422 -0.06169769 -0.021425063 -0.01579921 0.023617707
0.19755293 -0.14401649 0.06637781 0.107723795 0.017200239 -0.017881293 -0.0016327358 -0.048990935
-0.02268655 0.14428474 -0.010331787 0.114076495 0.050129246 -0.043735895 -0.12924305 0.04810616
-0.12423201 -0.026779804 0.036678784 -0.056897275 0.023279676 0.015179454 -0.19624704 0.0019516527
0.04208862 -0.14487785 0.0044824374 0.15217151 -0.026258305 0.16497397 0.036259 -0.06562663
-0.022040697 0.0046866857 0.08513812 -0.04802962 -0.052641455 -0.07120944 0.032153755 0.051862493
-0.124119245 -0.073192224 -0.18812293 0.04069733 -0.16480893 0.24224043 -0.05324779 0.14672895
-0.06716754 -0.05399928 0.09941679 -0.042038143 -0.012734666 0.0008008468 0.12578052 0.0058257873
-0.113594785 -0.015404589 -0.04619134 0.07907641 -0.102727756 0.010199748 0.01921963 -0.020788556
-0.00037217292 0.026010554 0.018368876 -0.0011048858 -0.11588852 -0.020936621 0.13835868 0.08872678
0.09171291 0.029640261 -0.068914786 0.069635406 0.033354163 0.0046048295 -0.060925607 -0.010592044
-0.00071346684 -0.018636364 0.034079965 0.041974068 0.1977939 0.12812263 0.045412086 -0.17784445
0.017832838 -0.027148586 -0.061352912 -0.11188638 -0.07659446 0.14041731 -0.036496423 0.001684834
-0.1604365 -0.01710206 0.048249166 -0.003115762 0.10515363 -0.104423694 -0.0074456073 0.19442594
0.0044539124 0.03734852 0.15527816 -0.15592091 0.0951173 0.010527487 -0.027358951 -0.02976621
-0.04657067 0.05064764 -0.22927603 0.08698501 -0.03638065 0.12869357 -0.063762225 -0.011006617
-0.034642853 0.15168892 0.05676477 0.0019579332 0.00653955 -0.0034851052 0.057018865 -0.10009021
-0.02107881 0.16921012 0.042439148 0.04162469 -0.0006450128 -0.104383126 -0.054550774 0.015072847
-0.01580154 0.093804255 0.12514104 0.11603621 0.030595822 0.040443547 -0.14611544 -0.08066657
0.09156019 0.057040267 -0.10749082 0.072033994 -0.11429734 -0.0010233324 0.037093353 -0.019695248
-0.00032513164 -0.048674263 0.07277504 0.023910077 -0.088516034 -0.0110088745 0.051779974 0.024106037
