results/FoodTarget_imitation_6/AgentPlayer/AgentPlayer-11670.onnx (onnx, 150287 bytes, 15 tensors)

action_model._discrete_distribution.branches.0.bias f4 [5]
000000 ff 0e b0 3a 6f 3e e4 3a 97 24 92 3b 0f 2e 08 ba
       0.0013432204 0.0017413626 0.0044599283 -0.00051948515
000010 3a 60 db bb
       -0.0066948207

action_model._discrete_distribution.branches.0.weight f4 [5, 128]
000000 7e 5c 47 bb 75 03 27 3b d4 3b 36 3b 0e c2 51 bb
       -0.003042012 0.0025484238 0.0027806656 -0.0032006535
000010 11 73 67 bc 89 34 51 bc 10 ee 59 3b 95 70 f0 3b
       -0.014126555 -0.012768873 0.0033253469 0.0073376396
000020 c6 b9 03 bc f8 f8 37 3c fb 94 ec ba a4 6e ba bb
       -0.008039897 0.011228792 -0.0018049771 -0.005689459
000030 03 34 17 3c 9d 13 cc bb 52 44 43 3c 47 8d 95 3a
       0.009228709 -0.006227924 0.011918144 0.0011409902
000040 06 7e 14 3c f1 1f ef 3a c4 7c 0b bc 43 88 e7 36
       0.009063249 0.0018243772 -0.008513633 6.9001994e-06
000050 f8 a4 49 3b ed 3e 8e bc aa 09 81 3b 64 bc 3c bb
       0.0030768495 -0.01736399 0.0039379196 -0.0028798813
000060 5d 3b 59 3c b4 29 30 3a cd 71 fb ba 2c 0d ea bb
       0.013258782 0.00067200814 -0.0019183696 -0.0071426835
000070 63 b0 91 3c 3c 19 4d ba 77 ee 1c 3d c6 25 b6 bb
       0.017784303 -0.00078238896 0.038313355 -0.005558702
000080 2d 38 e6 bb 0b ba b2 bb bd 36 4a bb 5e 45 fb bb
       -0.0070257396 -0.005454307 -0.003085538 -0.0076681813
000090 a2 86 df bb c9 14 bd bc df 47 af bb 16 37 1d 3c
       -0.0068214694 -0.0230812 -0.005349144 0.009595653
0000a0 05 08 38 bc 7a aa 1d 3c bd 43 ac 3b 0c f6 81 bb
       -0.011232381 0.009623164 0.0052570985 -0.0039660987
0000b0 e0 42 a4 bb b8 9f 39 bb 71 e3 bc 3b e2 56 2c 3b
       -0.005012855 -0.002832396 0.005764418 0.0026296903
0000c0 a3 16 3a 3c d0 a6 da bb 21 20 96 3a 4f de 9b 3b
       0.011357936 -0.0066727176 0.0011453667 0.004756726
0000d0 06 87 c6 bb f7 86 bc ba 90 9f d9 ba 35 52 26 3b
       -0.0060585765 -0.0014383484 -0.001660334 0.002537859
0000e0 91 72 04 bc c6 12 99 bc b8 28 8f 3b eb e0 a8 3c
       -0.008083955 -0.01868571 0.0043688677 0.020615062
0000f0 f8 38 d9 3b d4 ea 61 39 ee 7f 85 bb 34 c9 ad bb
       0.0066291057 0.00021545152 -0.0040740883 -0.0053035263
000100 b5 72 5a bc 8e 8b 6c 3c b6 ca 37 bc 6f 08 32 3b
       -0.013333012 0.014437569 -0.011217764 0.0027165671
000110 9d 4b e5 3a d1 c3 26 bc ef 7d 68 3a 86 89 8b 3c
       0.0017493848 -0.010178522 0.0008868863 0.01703335
000120 7d a6 1d bc 70 ec a9 3a 30 fc 57 3b fb bd dd 3a
       -0.009622213 0.0012964141 0.0032956712 0.001691758
000130 5b 61 51 bb 2d 18 35 ba 09 23 a6 3b 26 3c a5 3b
       -0.0031948898 -0.00069082045 0.0050700945 0.0050425706
000140 5d 96 d8 3b ac cd 83 bb 27 2c 8f bb 19 91 fe bb
       0.0066097216 -0.0040223207 -0.004369277 -0.007768762
000150 93 7f ab 3b 4e 83 57 3b ed c0 8b bb ea 37 5a 3c
       0.005233714 0.003288466 -0.004264942 0.013318995
000160 1e f6 31 bc cb 2f 3c ba 60 2f cc 3c 13 8a 2e 3a
       -0.010861902 -0.00071787526 0.024924934 0.0006658148
000170 b9 f6 60 3b 3f e9 71 bc ca fe b9 37 3c fb 59 bc
       0.0034326746 -0.014765083 2.2172364e-05 -0.013304528
000180 7d 25 07 3b 22 f3 e7 3b e5 0c e3 bb d0 eb e6 ba
       0.002062171 0.0070785442 -0.0069290274 -0.0017617885
000190 e6 2b 32 3c 46 ed 70 3a d3 21 40 3c 24 e5 d7 bb
       0.010874724 0.000919063 0.011726814 -0.006588595
0001a0 de 45 ce 3b ac f4 7d 3c 10 00 5a 3c dd 0f dc 3a
       0.00629495 0.015500229 0.013305679 0.0016789396
0001b0 0b dc 72 3b 8b bf 3f bc a2 ec 2c bc 03 b2 71 bb
       0.0037057425 -0.011703382 -0.0105544645 -0.0036879785
0001c0 30 1c 48 3c 91 3f ac bc 54 e7 f5 ba 50 35 34 bc
       0.012213752 -0.021026405 -0.0018760958 -0.010999039
0001d0 9d d3 1e bc f8 3d c6 3b 11 5b 5d bc f9 35 16 3c
       -0.009694007 0.0060498677 -0.013510481 0.0091681415
0001e0 16 62 b2 3b eb f9 62 bb d0 cb 86 bc 2a d5 c7 3c
       0.0054438217 -0.0034633826 -0.016454607 0.024393637
0001f0 57 9c 1a bc 2d 92 b9 3a 3b fe 0c 3a e6 77 3b 3c
       -0.009436688 0.0014157944 0.00053784595 0.01144216
000200 22 f5 f4 bb 9e 5e 49 b9 22 73 17 bc 64 e6 0b bc
       -0.007475511 -0.00019204101 -0.009243758 -0.008538816
000210 36 7b 07 bc 19 36 3f bb 4e 17 a2 3b 12 04 b4 3c
       -0.008269122 -0.0029176532 0.004946626 0.021974597
000220 67 57 7b bc 83 c7 fb ba 1d 9e 09 bc 2c eb d2 3b
       -0.015340663 -0.0019209239 -0.008399514 0.006436726
000230 4e 31 0d bb 7e aa 74 3b db 6c 6c 3c 32 57 89 bc
       -0.002154428 0.0037333067 0.01443025 -0.01676521
000240 42 73 31 bb d6 b4 8a bc bd 09 19 bc 6d b5 02 bc
       -0.0027076756 -0.016931932 -0.009340701 -0.007977826
000250 5e 59 ce bb 22 bd 80 bc f7 ed 4a ba ba 94 65 ba
       -0.0062972745 -0.015715186 -0.0007741148 -0.0008757819
000260 29 c4 7d 3c 0d 88 91 bc 98 4b aa 3c 9c d3 8f 3a
       0.015488663 -0.01776507 0.020787999 0.0010973099
000270 a3 cf 94 3b 15 4d d1 3b a0 a2 be 3b ef ab 78 bb
       0.004541354 0.0063873627 0.0058177263 -0.0037944277
000280 51 41 ae bc b1 49 a4 3c 2f 51 58 3b ee 64 0f bc
       -0.02127138 0.02005467 0.0033007374 -0.008752091
000290 0e 6f 30 3c 8f 1c ae ba 41 25 36 ba a2 c5 1b bb
       0.010768665 -0.0013283658 -0.00069483 -0.0023768921
0002a0 f4 d5 cb bb 49 ab 7d bb b0 e5 c3 bb 42 dc b9 bb
       -0.0062205736 -0.003870683 -0.0059783086 -0.0056720087
0002b0 ae dc 64 bc 42 bb 60 bc 0e 63 29 bb 04 a8 2c 3c
       -0.01396863 -0.013716521 -0.0025846395 0.010538105
0002c0 5b de bc 39 91 da 96 3a b3 bf 55 3c 93 7b a9 3b
       0.00036023822 0.001150923 0.013046193 0.005172202
0002d0 43 07 31 3c 54 6f 1c bc ba 57 d9 39 11 ae 3a 3c
       0.010804954 -0.009548027 0.00041454827 0.01139404
0002e0 dc a4 f3 3b b7 2c a9 3b 07 b4 85 38 70 fd fb 3b
       0.0074354243 0.005162801 6.375467e-05 0.007690124
0002f0 4a b5 11 3c 5b 0a 49 3b fd d8 9e 3b b9 ee 19 bc
       0.00889332 0.0030676338 0.0048476444 -0.009395295
000300 e2 ab b3 bc bc df 14 bc 5c 49 bb bc a0 d4 71 3b
       -0.021932546 -0.009086546 -0.022862129 0.0036900416
000310 d5 67 84 b9 78 2b 23 bc 8d e6 27 bb 78 f1 ce bb
       -0.00025254363 -0.009959094 -0.0025619597 -0.0063154064
000320 4d cf 10 bc b6 0f 84 bb 77 bb 10 3b b2 e6 1e bc
       -0.008838487 -0.004030193 0.0022084394 -0.009698557
000330 96 a5 09 3c e2 80 95 bc c7 36 51 bc 12 c7 b7 3b
       0.008401295 -0.018249933 -0.012769408 0.005608448
000340 54 e5 79 bb 54 23 0e bb 0f c4 22 bc f1 ab a2 3b
       -0.0038131075 -0.0021688538 -0.009934439 0.0049643447
000350 ba 99 66 bb a3 5b 4f 3c 33 f5 dd b9 0f 28 c5 bb
       -0.0035186843 0.012656125 -0.00042335092 -0.0060167382
000360 29 e8 4a 3c ac e9 1f bc e2 36 2b bc e6 d3 e3 ba
       0.012384453 -0.009760302 -0.010450097 -0.0017381876
000370 86 5c 08 3c 43 55 82 3a 96 74 fb bb 26 cc 9a 3c
       0.008322841 0.0009943623 -0.0076738102 0.018896174
000380 05 93 87 ba 8b 4b c9 bb 6b 57 ac bb fc 55 4c bc
       -0.0010343498 -0.0061430386 -0.0052594445 -0.012471672
000390 af 6f 29 3c 8e 14 8d 3c 7c 29 b2 3b 6d 9b d2 bb
       0.010341569 0.017221715 0.005437074 -0.0064272196
0003a0 39 7e 4c 3c 7d 99 b5 bb 76 4e bc bb 18 87 2d bb
       0.012481266 -0.005541979 -0.005746658 -0.0026478227
0003b0 f2 fb da 3b 27 5f 1a bc 6b db 24 3c 88 20 4d 3b
       0.0066828663 -0.0094221 0.010062079 0.0031299908
0003c0 0e 2b ca 3b 2e 44 67 3c f4 60 d4 3b 00 05 8f 3b
       0.0061696833 0.014115376 0.0064812843 0.0043646097
0003d0 96 56 6d bc 02 9a 1a bc 2a b4 ec bb 6a a4 f9 ba
       -0.014485976 -0.009436132 -0.0072236257 -0.0019046192
0003e0 57 5d de bb 1c 0a 1b bc fe 4e 73 bc 84 11 3c bc
       -0.0067860293 -0.0094628595 -0.014850376 -0.011478785
0003f0 35 eb 25 bc ea 01 a2 3b 6a 1d eb 38 9c c7 5c bc
       -0.0101268785 0.004944076 0.00011211152 -0.013475325

action_model._discrete_distribution.branches.1.bias f4 [5]
000000 56 32 b6 3a 06 81 1b 3a 17 4e 5b 3b 73 2e 05 3b
       0.0013900499 0.0005932007 0.0033463293 0.0020321875
000010 6a 9e a1 bb
       -0.0049322145

action_model._discrete_distribution.branches.1.weight f4 [5, 128]
000000 a5 43 88 bb e1 0b 45 bc 91 8e 89 3b 21 8d 05 bc
       -0.0041584545 -0.012026758 0.0041979034 -0.008151324
000010 9d 65 be 3b a9 d9 3f bc 55 9c 1a 3c a0 0b c6 3b
       0.005810453 -0.011709609 0.0094366865 0.0060438663
000020 bb 71 46 3c 71 2a b4 3b cc d6 89 3b 12 bb 26 3b
       0.012112076 0.0054982235 0.004206514 0.0025441092
000030 cb 54 ea 3b 43 02 1b bb 47 c0 9b 3c d2 84 81 3c
       0.0071512214 -0.002365247 0.019012583 0.015810404
000040 04 59 34 3c 74 34 b8 3b 7f 3c 94 3b 0d 8c 27 3c
       0.011007551 0.0056214873 0.0045238133 0.010226262
000050 4f 51 8d 3b 10 d3 83 3b e0 cb 86 bc 7e b4 93 bb
       0.0043126713 0.0040229633 -0.016454637 -0.0045076003
000060 66 bf a1 bb 30 c7 c5 3a f8 2c 47 bb dc 7c 25 3b
       -0.0049361465 0.001508927 -0.0030391794 0.0025251424
000070 47 a1 d7 ba d9 83 27 3c c9 30 1b bc aa fc db 3b
       -0.0016451263 0.010224306 -0.0094720805 0.0067134695
000080 93 66 90 3b eb 64 a4 b9 ed 55 5f ba 26 e8 a6 3b
       0.004406759 -0.00031355707 -0.0008519579 0.005093592
000090 0c 6b 9c 3b 22 04 3a 3c 4f 85 06 bc be c1 65 bc
       0.004773503 0.011353524 -0.008210494 -0.0140232425
0000a0 88 c4 41 bc 60 f2 9f bb 9d 0d 4d bb 8a f2 6c 3b
       -0.011826642 -0.0048811883 -0.0031288632 0.0036155307
0000b0 df af af ba 0c 99 60 3b 3e 3b d3 3b f8 0d 7a 3b
       -0.0013403854 0.003427091 0.006446271 0.0038155299
0000c0 f2 08 67 bb 57 80 4f 3c 57 a2 76 ba b2 5f 50 bc
       -0.0035253135 0.012664876 -0.0009408346 -0.012718128
0000d0 bd 17 ba 3c 17 2b d3 3b 12 de 05 3c e6 1d 0f bc
       0.022716397 0.0064443457 0.0081706215 -0.008735156
0000e0 b5 a0 42 39 42 ff b4 3c 8a d4 0b bc 2f 6a 81 3c
       0.0001856115 0.022094373 -0.00853456 0.015797703
0000f0 fd ed b9 39 fb a0 a2 3b d5 05 82 bc c5 77 23 bb
       0.00035463265 0.004963038 -0.015871922 -0.0024943214
000100 c7 75 68 3c e7 8a 3e 3c af ca 93 ba 0f 00 6c bc
       0.014188237 0.011629797 -0.0011275614 -0.014404311
000110 d9 cb a4 bb ad 10 22 bc 87 58 7e bb e7 70 18 bc
       -0.0050291833 -0.009891671 -0.003881009 -0.009304262
000120 d3 73 67 bc 9c a9 1f 3c 4c 37 62 3b c9 e5 dd ba
       -0.014126736 0.009745028 0.0034517823 -0.0016929443
000130 06 d2 4f ba 37 42 bf bb 4c 9a 48 bc d0 bd 8b bb
       -0.0007927719 -0.005836751 -0.0122438185 -0.004264571
000140 34 54 df 3b 0b ec 22 bb bd 79 f5 bb 07 66 9c bc
       0.0068154577 -0.002485993 -0.007491319 -0.01909162
000150 89 47 0e bc d8 12 55 3c 4d 22 c9 3a 91 ae 5e 3c
       -0.0086840475 0.013004981 0.0015345305 0.013591425
000160 17 fd 9b 3b 2c 89 10 3c d0 3f b1 ba 6b bc 00 3c
       0.0047603953 0.008821767 -0.0013523046 0.007857422
000170 d1 02 8f bb 3d d5 55 3c 64 f9 11 bb 98 1c b3 3c
       -0.0043643494 0.013051328 -0.0022273893 0.02186422
000180 66 c1 e4 3b 38 4d 9b bb a8 f9 41 bc fe ae bd 3a
       0.0069810627 -0.00473943 -0.011839308 0.0014471707
000190 0d a3 47 3c da e2 4c bc a5 55 a2 ba 58 ca 83 3b
       0.01218487 -0.0125052575 -0.0012385143 0.004021924
0001a0 c9 c6 85 3c 6e 01 97 3c ba 01 5c bc eb 0a 0c bc
       0.01633014 0.018433299 -0.013428146 -0.008547525
0001b0 6e 6c b5 3b a8 ec a5 3b cf d8 d8 3b f0 27 f0 3b
       0.0055366075 0.005063612 0.0066176425 0.0073289797
0001c0 81 12 86 bc db ab 8f 3b 0e ae 70 bb 0b 5e 1f 3c
       -0.016366245 0.0043845004 -0.0036724838 0.009727011
0001d0 fc 32 01 bc d9 bf 04 bc 82 01 eb 3c 03 3c 72 bc
       -0.007885691 -0.008102381 0.028687242 -0.014784816
0001e0 ae a3 2a 3b 4d 8a cd ba e7 0a 23 bc c9 ac a7 3a
       0.0026037502 -0.0015681476 -0.00995133 0.0012792583
0001f0 48 9e 65 3c 16 27 23 3c 9c 33 51 bc e1 86 56 3b
       0.014014788 0.009958049 -0.012768652 0.0032734203
000200 a0 c0 92 3b b3 61 7a bc 4b f7 9f bb 15 fa a2 3c
       0.004478529 -0.015282082 -0.0048817745 0.019894639
000210 22 74 c3 3b 3e ce 0e b8 7e 65 95 bb 8c 3c 0a 3c
       0.005964772 -3.4047516e-05 -0.004559218 0.008437287
000220 f3 8f ba 3b b5 6e 72 3c 91 21 ce ba 12 2c 3d 3c
       0.0056934296 0.014796902 -0.0015726556 0.011546152
000230 74 57 b7 3a c6 0c 49 3b fe b4 45 bb ef 33 b3 3b
       0.0013987855 0.003067778 -0.0030167694 0.0054688375
000240 15 f7 54 bc 51 83 8e bb 4a 73 ab ba 3b b0 20 bc
       -0.012998362 -0.00434915 -0.0013080623 -0.009807642
000250 81 0b d0 bb 59 dc c9 ba ba a0 ee b9 12 aa a4 bc
       -0.0063490276 -0.0015400752 -0.00045514648 -0.020100627
000260 cd 74 43 bc f3 4a 98 bc 26 eb e6 3a 4d 34 93 3b
       -0.011929703 -0.018590426 0.0017617687 0.0044923187
000270 d6 6b 88 bc e0 2e be bc df aa 6d bc 60 3e 8e bb
       -0.016652983 -0.023215711 -0.014506071 -0.004340932
000280 d6 48 17 3b 20 31 50 3c 8e 9f 73 bc 50 bd 99 bb
       0.0023084185 0.012707025 -0.014869584 -0.0046917573
000290 98 35 34 3b 4c 70 24 3a 0a 22 fb bb 32 99 67 3b
       0.0027497765 0.0006272837 -0.00766397 0.0035339114
0002a0 41 98 e5 ba 90 14 ce 39 e1 da 10 3a c5 4b ab 3a
       -0.0017516689 0.00039306702 0.00055257796 0.0013068846
0002b0 48 59 62 3b f1 ba 1d 3c a1 e1 a0 ba 58 72 69 bc
       0.003453808 0.00962709 -0.0012274274 -0.014248453
0002c0 1d 6c 44 3c 28 db 7c bc f2 a7 be 3b a7 c2 1c bc
       0.011988667 -0.01543311 0.0058183605 -0.009567893
0002d0 64 58 35 bc 6b a6 ed 3b 90 e0 2d bc e0 ce 6f bb
       -0.011068437 0.0072525046 -0.010612622 -0.0036591813
0002e0 b7 17 c5 3b ae 38 68 3c 59 5f f3 bb ea e4 7f bc
       0.00601479 0.01417367 -0.007427138 -0.015618542
0002f0 f6 02 33 ba b3 6b 20 3c dc 8e 95 3b d3 d3 7e 3a
       -0.00068287493 0.0097913025 0.0045641493 0.00097208953
000300 87 14 89 3c 37 ae 11 3c 98 ab 65 bb 46 43 da 3b
       0.016733421 0.008891634 -0.0035044905 0.0066608516
000310 fb 86 37 3b 01 f1 bf 39 fb 95 cf ba bb f0 d3 3b
       0.0028004039 0.0003660992 -0.0015837544 0.0064679063
000320 d1 75 ba 3b f6 50 e6 3b ec 96 95 3c 02 21 b0 3b
       0.0056903143 0.0070286943 0.018260442 0.0053750286
000330 2c d0 a7 bb 29 6d b6 3b d3 04 89 3b 5b 7a ce b7
       -0.0051212516 0.005567212 0.0041814833 -2.461409e-05
000340 2e 26 0e bc ab 7b 4c bc db c0 67 3b 40 51 34 bc
       -0.008676095 -0.012480657 0.0035362754 -0.0110057
000350 e5 da 2d 3c 8f 50 2c 3b f8 56 02 bc de 38 aa bb
       0.010611271 0.0026293134 -0.007955305 -0.0051947674
000360 69 84 21 bb 3e 11 98 bb 45 e8 3a 3c b5 9b 71 bc
       -0.0024645573 -0.0046407273 0.011407916 -0.014746596
000370 ba df f6 3b ac 5c 3a bc 38 0b 75 3c 18 9a 8d b9
       0.0075339945 -0.011374634 0.014956288 -0.00027008425
000380 3c 10 ac bc 3c 7a d8 3b 1d 5c 07 bb 18 f8 17 3b
       -0.021003835 0.0066063683 -0.002065427 0.0023188647
000390 1c f9 ee bb 0b 0d ef 3b 20 77 40 3c c1 88 a8 bb
       -0.0072928797 0.007295256 0.011747152 -0.0051432555
0003a0 9c 0e 74 bb 95 5f 8a 3c 23 94 c8 bb d8 b0 a3 3b
       -0.0037240153 0.01689128 -0.006121175 0.0049954467
0003b0 8a 7e 7b 3b 38 7f ab 3b f6 5b b3 3c 13 06 84 bb
       0.0038374984 0.0052336715 0.021894436 -0.0040290444
0003c0 4a b2 dd ba 01 9b 81 3c b6 27 24 3c d8 7c 20 ba
       -0.0016914096 0.015820982 0.010019233 -0.0006122119
0003d0 fb 7f 1e 3c 2b 2d e6 bb e0 88 36 bc b3 9b 87 bc
       0.009674068 -0.0070244274 -0.011141032 -0.016553735
0003e0 fe 93 3b bc 92 f7 ba 3c d5 77 4a bc 66 28 06 bb
       -0.011448858 0.022823129 -0.012357672 -0.0020470857
0003f0 e3 d5 64 bc a0 4a 79 3c cd df 81 3c 2b 63 e7 ba
       -0.01396701 0.015215546 0.015853787 -0.0017653456

action_model._discrete_distribution.branches.2.bias f4 [5]
000000 de 7f c0 ba 6b 55 fc ba 77 c1 26 ba 80 71 d0 3a
       -0.0014686545 -0.0019251531 -0.0006361226 0.0015902966
000010 c9 ac b1 3a
       0.0013555522

action_model._discrete_distribution.branches.2.weight f4 [5, 128]
000000 46 fc 96 3c 37 18 a5 3b 68 3d 23 bc 95 6e 1a bc
       0.01843084 0.005038287 -0.009963371 -0.009425779
000010 4d 67 12 bb a4 96 1d bc 96 e8 0e 3c 33 8f a4 bb
       -0.0022339404 -0.009618435 0.008722445 -0.0050219535
000020 c1 2b 2d 3c cc 5e ae b9 3c 0b fb bb 02 21 0e bb
       0.010569514 -0.00033258495 -0.0076612514 -0.0021687155
000030 2c 8d d4 3a 42 5c bf 3b b5 a2 0a 3b c7 88 26 3c
       0.0016216389 0.0058398554 0.002115411 0.010164446
000040 e6 e8 41 bc 04 56 35 3c b2 1a f4 3b 83 53 ca 3b
       -0.0118353125 0.011067871 0.0074494714 0.006174506
000050 dd ed b0 3c 97 aa 0f bc 28 e6 48 bc ba ce a9 3a
       0.021597797 -0.008768699 -0.012261905 0.0012955286
000060 09 67 03 bc 29 d2 3d 3b 7b 3b 2a bb 56 17 ca 3b
       -0.008020171 0.0028964377 -0.0025975395 0.0061673326
000070 9d 10 aa 3a 37 21 17 ba f9 6b 62 3c 22 78 b9 3b
       0.0012974922 -0.0005765142 0.013819688 0.005660073
000080 39 08 e6 ba 91 80 2f bc a2 27 2d 3c d6 3d 1c 3c
       -0.0017550058 -0.010711805 0.010568531 0.009536227
000090 69 30 90 b8 2e ff ec bb a0 60 0d 3c b4 a4 4c 3c
       -6.875472e-05 -0.007232568 0.008628994 0.01249044
0000a0 84 13 a1 bb 5d f1 bf ba 1f 0e 88 3b 58 58 17 bc
       -0.0049156565 -0.0014644075 0.004152074 -0.009237371
0000b0 48 a4 83 bb 75 46 0b 3c 00 d7 0a bc 7e e5 04 3c
       -0.0040173866 0.008500685 -0.008474112 0.008111356
0000c0 e5 a1 8f 3c 74 e0 53 3c f6 a1 ac 3b 84 49 42 3b
       0.017533252 0.012931932 0.0052683307 0.002964587
0000d0 e4 32 56 bc 6e 9d 0f 3a 1a 6e 1c 3c 83 ca 82 bb
       -0.013073657 0.0005478476 0.009547735 -0.0039914264
0000e0 9c 06 ba 39 72 9d 6d 3b 57 b5 70 bc d1 3c 3c 3b
       0.0003548161 0.0036257175 -0.014691672 0.0028722773
0000f0 99 25 e5 bb 67 ee 40 bc 61 15 03 3c 38 d7 af bb
       -0.0069930074 -0.01177559 0.008000703 -0.0053662322
000100 4e 29 d2 3b 34 81 06 3b 68 9d 6f bc d5 26 08 3c
       0.0064136153 0.0020523788 -0.014624931 0.0083100395
000110 8e 7b 55 bc 4c 8f a1 bb 7f 20 5c bb 6c d7 17 bb
       -0.013029946 -0.0049304124 -0.0033588705 -0.0023169173
000120 d8 c2 5d bb d2 3b 12 ba 3e 26 54 bc 01 e2 28 3c
       -0.003383806 -0.0005578372 -0.012948571 0.01030779
000130 21 af e9 ba 53 76 b5 bb 2e 22 9b 3b 66 5b 39 3c
       -0.0017828682 -0.005537787 0.004734299 0.011313295
000140 c5 ae 3b bc 2e a6 85 bb ff 7e 86 3c 7e d5 63 bc
       -0.0114552425 -0.004078648 0.016417978 -0.013905881
000150 18 d1 08 3c 37 ab 0e 3c cf 41 75 3c 4e dd 38 bc
       0.008350633 0.008707813 0.014969303 -0.011283232
000160 5c f0 29 bc 24 45 96 bc 2d a0 87 3b f8 dc c6 bb
       -0.010372248 -0.018343516 0.0041389675 -0.006068822
000170 64 db 66 3b e5 00 d3 bc 51 29 a6 bb b7 ef 26 bc
       0.0035225982 -0.025757262 -0.0050708433 -0.010188988
000180 63 86 d2 bb 51 d7 17 3b 3b eb 0a 3c 92 cc bd bb
       -0.0064247116 0.002316911 0.008478935 -0.005792209
000190 8b ca 52 bb 48 89 14 bc 57 f2 51 bc 22 95 5a 3c
       -0.0032164182 -0.0090659335 -0.012814126 0.01334122
0001a0 e7 59 5c bc b1 de c8 3c f3 31 e7 3b 66 69 08 ba
       -0.013449169 0.02452025 0.007055515 -0.0005203694
0001b0 02 ef 30 3c 73 18 03 bc bc 50 cb bb 66 ec c6 bb
       0.010799171 -0.008001435 -0.0062046926 -0.0060706614
0001c0 30 2c d8 bb e9 6d 80 3c 70 88 c1 3b 7f d8 46 3b
       -0.0065970644 0.01567741 0.005906157 0.0030341444
0001d0 82 2e 62 3b 43 87 be 3b a4 06 a8 bb d5 35 03 3c
       0.0034512584 0.0058144643 -0.0051277447 0.00800844
0001e0 16 da 37 3c 8a 05 c1 3a b2 a1 d1 3b f7 15 48 bb
       0.011221429 0.0014726382 0.0063974494 -0.003053067
0001f0 10 b9 a5 3a fc d6 93 bc 14 6d 86 3c 7c a2 28 39
       0.0012643654 -0.018046848 0.016409434 0.00016082259
000200 1f c7 6c 3b ce 1f e5 3b 7e 6c 8b bb 3f 89 ef b9
       0.0036129428 0.006992317 -0.0042548766 -0.0004568789
000210 23 15 97 3c 76 f0 3a 3c 63 0d 5f 3a 75 3b 77 3c
       0.018442696 0.011409869 0.00085087697 0.015089859
000220 de 2d 85 bb 65 59 9f 3b 9b 87 40 bb 7e 77 e2 3c
       -0.0040643057 0.0048629516 -0.0029377702 0.027644869
000230 3f 5d 43 3c 0f 67 89 bb c6 02 af bb fc a0 97 bc
       0.011924087 -0.0041931937 -0.005340907 -0.01850938
000240 5b 44 ee 3a 7f f0 42 3c e5 76 cf 3b 13 00 e7 3b
       0.001817833 0.011898159 0.006331312 0.0070495694
000250 98 18 30 b9 7c fd 47 bc e1 40 43 ba 01 f2 f0 bb
       -0.0001679383 -0.0122064315 -0.00074483274 -0.007353068
000260 56 29 a1 bb 85 59 ad 3c f9 d8 29 bc 47 5d c9 ba
       -0.0049182577 0.02116085 -0.010366672 -0.0015362882
000270 f7 7b 5b 3c f0 b1 4a 3c 95 e5 a6 3c ea ba 0a 3c
       0.013396255 0.012371525 0.020373145 0.008467415
000280 f7 85 22 3c 84 a5 96 3b e2 0d eb bb ca d4 9d bb
       0.009919635 0.0045973677 -0.007173286 -0.004816626
000290 c9 2c 88 3b 03 49 ab 3c b9 8d 5c 38 8d 62 0f 3c
       0.0041557294 0.020908838 5.2584077e-05 0.008751524
0002a0 95 e1 d2 3c 80 92 86 3b 53 ae 35 3c 65 e7 0f bc
       0.025742332 0.0041068196 0.011088925 -0.008783196
0002b0 be 4b 19 3c 9e eb 4d 3c 0f 06 26 bc 58 69 46 3c
       0.009356437 0.012568383 -0.01013328 0.012110077
0002c0 a6 d5 9e bc 79 76 fa 3a 0a 09 4f bb 8c 76 da ba
       -0.019388985 0.0019108794 -0.003159108 -0.001666741
0002d0 cb 48 1c 3c 1e e6 8d bb cc 17 62 bc 35 d7 c0 3b
       0.00953884 -0.0043304106 -0.013799619 0.0058850297
0002e0 9b 99 58 3b 69 12 04 3c 46 60 e7 3b b7 c9 ce bb
       0.003305054 0.00806103 0.0070610372 -0.0063106674
0002f0 d6 a5 e3 37 7c 88 7b 3c 61 6c c3 3b 26 6f 15 bc
       2.7137732e-05 0.015352365 0.0059638475 -0.009120738
000300 d1 da cf 3b 38 cc 91 3c 29 e5 c4 bb 00 33 26 3c
       0.0063432236 0.017797574 -0.0060087633 0.010143995
000310 23 01 18 bc 52 80 f7 3a a1 31 3b bc 42 e5 4b bb
       -0.009277615 0.0018882847 -0.011425407 -0.003111199
000320 68 31 23 bb e7 9a 67 3c 15 06 4c bb 42 b3 44 bc
       -0.0024901275 0.014136053 -0.0031131555 -0.012005629
000330 29 0a dc ba d9 dc 08 bc 85 e0 39 bb 1f ab bd 3a
       -0.0016787696 -0.008353435 -0.0028362584 0.0014470554
000340 5e 31 c3 3b 27 03 e8 bb 81 ca 4b 3c 76 6e d4 3b
       0.0059568128 -0.007080454 0.012438417 0.0064828945
000350 6c 5b 75 bc 53 5e a4 bc bb 48 87 bb 70 e1 15 3c
       -0.01497541 -0.020064509 -0.004128543 0.009147987
000360 26 4e 1e 3c d7 1d 52 bc e6 51 fc 3b fa 88 6b 3b
       0.009662187 -0.012824497 0.0077001927 0.0035939799
000370 f0 55 73 bc 89 98 18 3b a3 7c 6f 3b 8d 49 45 bc
       -0.014852032 0.0023284277 0.0036542795 -0.012041462
000380 78 e9 9d 3b 57 d6 30 bc e4 19 b2 39 12 9d 41 bc
       0.0048190914 -0.01079329 0.00033970096 -0.011817234
000390 15 d3 56 bc 3c 9f eb 3a f5 42 a5 3a 2c f5 94 3a
       -0.013111849 0.0017976533 0.0012608456 0.0011364571
0003a0 fd 65 12 bc 40 17 4d bb d0 32 78 bc 83 3d 30 bc
       -0.008935449 -0.0031294376 -0.015148833 -0.010756853
0003b0 84 36 52 3b 94 6f 43 3c 0e 93 95 bc 16 55 a1 bc
       0.003207595 0.011928458 -0.018258598 -0.019693892
0003c0 ce 80 62 bb 4e 73 55 bc 7c 30 39 bc 82 aa a2 3c
       -0.0034561637 -0.013027979 -0.0113030635 0.019856695
0003d0 8f 2c bf bb 63 a1 9b 3b 94 a6 e4 bb 52 b6 80 bc
       -0.005834169 0.0047494634 -0.0069778655 -0.015711937
0003e0 b6 ac ae 3a e4 13 49 3c da 64 98 3c c5 b6 95 bc
       0.0013326618 0.012272809 0.018602777 -0.018275628
0003f0 b1 c6 45 37 54 db 5f 3c 6a 9d f2 ba b4 5f 14 bc
       1.17883765e-05 0.013663132 -0.0018510048 -0.0090560205

action_model._discrete_distribution.branches.3.bias f4 [5]
000000 ea ee 33 3b f8 7c 30 bb 14 5d 80 ba b5 9e 6e 39
       0.0027455636 -0.0026929956 -0.0009793364 0.00022756572
000010 46 2e ba 3a
       0.0014204464

action_model._discrete_distribution.branches.3.weight f4 [5, 128]
000000 24 d6 61 ba 28 aa 7e ba c9 9f 2e bc 0d 0d 1c bb
       -0.0008614978 -0.00097146863 -0.010658213 -0.002381149
000010 9d 73 7f 3b 5e b4 2e 3b 6d 98 d0 3b 9e 76 59 3c
       0.0038978823 0.00266578 0.006365827 0.013272909
000020 88 e7 17 bc 40 09 34 3c 60 04 30 3c 12 b0 e9 bb
       -0.00927151 0.0109885335 0.010743231 -0.007131585
000030 f7 43 31 3b 41 b6 97 bc d9 b7 d0 3a 5a 01 14 3c
       0.0027048567 -0.018519523 0.0015923931 0.009033525
000040 14 d8 21 bc 6d 4b 28 3c 38 c3 16 3b 10 58 77 3b
       -0.009878177 0.010271889 0.0023004543 0.0037741698
000050 91 58 f8 bb c4 1a 1d 3c 85 c1 8d ba 32 35 50 bc
       -0.0075789173 0.009588901 -0.001081512 -0.012707995
000060 95 e2 07 bb 85 f7 54 ba 7f 8b 90 bb ef 6e 0c bb
       -0.0020734419 -0.00081240415 -0.0044111605 -0.0021428426
000070 63 e3 9c 3a af 0a 18 3c 17 a6 c2 bb 9c 67 63 bc
       0.0011969622 0.009279891 -0.0059402096 -0.013879683
000080 48 53 c3 bc 21 e7 ab 3c df 7b c5 bb 3f 94 02 3c
       -0.023843423 0.020984234 -0.0060267295 0.007969915
000090 f6 6c 17 3c c2 c1 0e 3c 5c f0 53 3b 4d 3b f5 bb
       0.009242287 0.008713188 0.003233931 -0.007483876
0000a0 e9 ff 26 bc 18 c5 09 3c 69 82 f3 bb 1a 9c ba 39
       -0.01019285 0.008408807 -0.0074313176 0.0003559299
0000b0 db af b4 bb a0 a6 14 bb 92 93 31 3c a6 a8 ca 3b
       -0.0055141277 -0.0022682324 0.010838406 0.0061846552
0000c0 91 07 29 bc 3a 57 95 bb f8 fd f2 3b a1 c7 b5 3b
       -0.010316745 -0.0045575174 0.0074155293 0.0055474793
0000d0 e1 c7 61 bb 6f 81 63 3c d2 61 05 bc 7c fa 93 bc
       -0.0034451413 0.01388584 -0.008140998 -0.018063776
0000e0 ca 9e e3 3b 58 74 2b 3b fb 13 ad 3b 82 05 0f 3c
       0.0069464194 0.0026161876 0.005281923 0.0087293405
0000f0 a7 76 1f 3b da 08 ef 3a 3b a2 3a bc 14 1d b6 39
       0.0024332197 0.0018236891 -0.011391218 0.0003473541
000100 75 4d c3 ba 6a cd ca 3b be f0 82 3b f0 55 f9 3a
       -0.0014900403 0.006189038 0.003995984 0.0019022804
000110 c0 e4 94 3c d4 1f aa 3a 23 46 92 bc 56 2d 87 bb
       0.018175483 0.0012979456 -0.01785571 -0.0041252775
000120 59 46 c0 3b 0d 10 17 3c 9a 43 0f bc 6a 5f 6f bc
       0.005867761 0.009220135 -0.008744145 -0.014610151
000130 d4 88 60 3c a1 47 a8 bb 8d ec 0f 3b 20 ef 7a 3c
       0.013704497 -0.005135492 0.0021961064 0.015315801
000140 45 43 1b 3c be 81 8b bb c9 c3 5f 3c a2 81 cb 3b
       0.0094764875 -0.00425741 0.013657519 0.006210522
000150 63 32 a1 3b 3b cc 05 bc 67 21 84 bc c9 ba fb 3b
       0.0049193366 -0.008166368 -0.016129209 0.0076821786
000160 00 85 10 bc c5 e7 b7 3a 2f 8d 97 3b 71 50 a3 3a
       -0.008820772 0.0014030865 0.0046249847 0.0012459886
000170 08 4e dc 3a eb 64 b2 bb 7d 1c ad bb d7 06 38 bb
       0.0016807923 -0.0054441593 -0.005282937 -0.0028080249
000180 58 cf 8f bb b4 be 33 bb 27 81 56 3c 54 f6 fe 3b
       -0.004388731 -0.00274269 0.013092316 0.0077808294
000190 c5 d8 a8 ba ac dd 94 bb dd 8c 10 bc bc e9 65 3c
       -0.0012881985 -0.004543027 -0.008822647 0.014032777
0001a0 e3 4e 42 3c 0a 3a 11 bc 79 13 8b bb 14 dd 18 3c
       0.011859628 -0.008863935 -0.0042442647 0.009330053
0001b0 34 fd 85 bb 16 ba 2c 3c bc 0f b7 bb 12 45 53 bc
       -0.004089022 0.010542413 -0.0055865925 -0.012894886
0001c0 da 24 31 3c 74 69 2a bc b5 93 c5 bb f5 db 3d bc
       0.010812009 -0.010401119 -0.006029571 -0.011588086
0001d0 7b 76 1c 3c b9 19 7d 3b c6 b0 ed bb 0a 70 8a 3c
       0.009549732 0.0038620068 -0.007253739 0.016899128
0001e0 b4 c3 35 3a 44 49 31 bb 8d 30 0a 3c 96 04 f4 3a
       0.0006933764 -0.0027051726 0.008434427 0.0018617089
0001f0 11 94 1c bc 64 cb f6 bb 28 62 32 bc 31 1a 06 bc
       -0.009556786 -0.0075315703 -0.01088766 -0.008184955
000200 39 bc be bb 8e fe 4c 3c f4 fb 04 3b ff 11 64 3c
       -0.0058207777 0.012511862 0.0020291777 0.013920306
000210 88 66 4f 3c fc 70 07 bb c1 55 3f 3b 10 20 0f bc
       0.012658723 -0.002066671 0.00291954 -0.008735672
000220 68 64 ad 39 11 80 28 3b 13 70 da 3b b4 e2 a5 3b
       0.0003307194 0.00257111 0.0066661923 0.0050624255
000230 6c 32 29 bb 44 a6 5c 3c 89 cc c0 ba 33 a4 a3 3b
       -0.0025817407 0.013467375 -0.0014709394 0.0049939393
000240 ac 64 49 3c 34 a0 61 bb 10 7c 34 3b 22 c0 83 3b
       0.012292068 -0.0034427764 0.0027539767 0.0040207068
000250 2e f4 61 3b c1 1a ea 3b a6 c0 84 bb 7f ae 42 3c
       0.0034477818 0.0071443026 -0.004051286 0.011882423
000260 dc 2f 00 3c 17 b2 8d ba 1b 1b 9a bb bf 2e d3 ba
       0.007823911 -0.0010810521 -0.0047029383 -0.0016111954
000270 f4 c9 1b bc 86 6a 4d 3c d9 ec 0e 3c 9f 45 6d 3b
       -0.009508599 0.012537604 0.008723461 0.0036204827
000280 8d 61 4c bb 85 5e e0 bb fe c3 4f 3c 5d 96 91 bb
       -0.0031186074 -0.006847205 0.0126810055 -0.0044429735
000290 15 21 36 bc 9d 83 a1 bb c0 ea 47 bc de 1e 4f 3b
       -0.011116286 -0.0049290196 -0.012201965 0.0031604092
0002a0 e1 14 0e 3b c0 f4 87 3b b0 06 18 bc 90 85 f2 bb
       0.0021679925 0.0041490495 -0.009278938 -0.007401176
0002b0 f0 29 42 bc 87 b2 f7 3b 72 79 c3 3c 72 c5 fe 3b
       -0.011850819 0.007559124 0.02386162 0.007775002
0002c0 e2 9f 75 ba 13 8d be ba 35 fd fd ba 4b 10 bc bb
       -0.00093698327 -0.0014537893 -0.001937783 -0.005739247
0002d0 17 49 07 bc ba 5f f6 3b 80 08 12 bc ea 50 5f 3c
       -0.008257172 0.0075187357 -0.008913159 0.013630131
0002e0 76 3a ec ba 5a 65 b3 3b 03 22 3f bb e5 92 8a bb
       -0.0018022794 0.0054747285 -0.002916456 -0.004228937
0002f0 21 2a 7b ba e8 6c 7f 3c ef a8 88 3a 47 37 b5 3b
       -0.0009581168 0.01558993 0.0010426323 0.005530271
000300 ac 2e 44 bb 27 05 e9 3a 5b 58 c4 3b 69 8d aa 3a
       -0.0029935045 0.0017778025 0.005991978 0.0013012114
000310 5c d9 85 ba e8 3b db 3b dc d1 76 ba f8 30 04 3c
       -0.0010211873 0.006690491 -0.0009415427 0.008068316
000320 46 48 80 bb 59 b1 49 bc b1 9c 1d 3c 60 fd 12 bb
       -0.0039148657 -0.012310349 0.009619878 -0.0022428855
000330 b1 67 5f 3b ca 70 03 3a 12 57 7d ba b6 2e 67 b9
       0.0034088905 0.00050140603 -0.00096641586 -0.00022047278
000340 51 8c 51 3c 5b a2 ef bb c6 1b a2 3c a3 a3 55 3b
       0.012789802 -0.0073130555 0.019788634 0.0032598756
000350 a9 4b 8e 3b df 5d 6a 3c 28 8c 34 3c f7 b0 15 bc
       0.0043425155 0.014304607 0.011019744 -0.00913643
000360 74 69 f8 bb f6 33 cf b9 cf 80 c8 3b 2c 24 e5 3b
       -0.0075809304 -0.0003952083 0.006118871 0.0069928374
000370 66 48 b3 3b e1 a3 63 3b e9 0e 10 bb 5b 13 03 3c
       0.005471277 0.003473513 -0.0021981543 0.00800022
000380 bc 45 e5 bb a9 a6 a7 bb 2b 92 0b bc ff 48 f4 ba
       -0.0069968384 -0.005116303 -0.008518736 -0.0018637477
000390 f6 04 c7 bb 7f f4 b1 bc f4 71 a2 bb be ea 13 3b
       -0.0060735894 -0.02172303 -0.004957432 0.0022570337
0003a0 07 20 05 3c 3b 63 b6 bb e3 61 21 3c 81 fc e4 bb
       0.008125312 -0.0055660284 0.009849998 -0.0069881086
0003b0 53 16 b0 bb 55 17 86 3b ad 94 b6 b9 5d d9 ed 3a
       -0.005373755 0.004092137 -0.00034824517 0.0018146444
0003c0 69 b1 0e 3c e0 0f 6c bb 53 23 32 3b 34 2f c6 3a
       0.00870929 -0.0036020204 0.00271817 0.0015120269
0003d0 9b 59 53 3a 59 81 90 3b 16 08 0d 3c 39 a2 a0 ba
       0.00080623635 0.0044099507 0.008607885 -0.0012255377
0003e0 7d f5 b8 bc bf a0 a4 3c bf 7e b6 b8 5e 29 70 bb
       -0.022577995 0.020096181 -8.7020446e-05 -0.003664575
0003f0 e9 45 e4 39 a1 35 2b bc 0e e2 c4 3b 0e c6 0f 3c
       0.00043539636 -0.010449798 0.006008393 0.008775247

action_model._discrete_distribution.branches.4.bias f4 [5]
000000 5e a7 1a 3a 1d 08 08 bb 90 88 02 bb 02 e9 84 3b
       0.00058995734 -0.002075679 -0.0019917823 0.004056097
000010 5e 6c 8d ba
       -0.0010789742

action_model._discrete_distribution.branches.4.weight f4 [5, 128]
000000 b2 fd 58 bb c5 ca d0 bb 49 f3 7a 3c b0 18 72 3b
       -0.0033110199 -0.0063718283 0.015316793 0.0036940984
000010 d4 77 46 3c a6 57 14 3a b5 6a 15 bc 28 7a c2 ba
       0.01211353 0.00056588126 -0.009119679 -0.0014837431
000020 d4 5f 04 3c 95 49 9a bc bd 5d f9 3a 87 83 c6 bb
       0.008079488 -0.018833915 0.0019025129 -0.0060581597
000030 d2 1f a3 3b 66 c4 b8 bb 06 95 14 bc c8 13 ca 3c
       0.0049781585 -0.005638647 -0.009068733 0.024667636
000040 fa b8 59 3c 39 62 0b 3b 44 6c 3e 3c b4 5a 28 3c
       0.013288731 0.0021268262 0.011622492 0.010275532
000050 7e 23 9b 3b 2a 94 5e bb 42 ca 27 3b 7a 37 30 bc
       0.0047344556 -0.0033962824 0.0025602733 -0.010755414
000060 06 fb 0d 3c 94 73 5e 3c b3 94 01 bc ad bc 13 ba
       0.008665806 0.013577361 -0.007908988 -0.000563572
000070 83 bd b4 bb 8c 46 5e 3b 9e b5 cf 3a 0a b2 0c 3b
       -0.0055157556 0.003391656 0.0015846973 0.0021468424
000080 bb 3a 91 3b fa 3f cd 3b 15 8b 40 3c b5 ff 1d bc
       0.00443205 0.00626373 0.01175191 -0.009643485
000090 3b d2 62 bc e2 92 3f 3c b7 e7 44 3c 98 5d 06 3c
       -0.013844068 0.011692734 0.012018136 0.008201025
0000a0 bf 15 8c 3b 2b c5 ed ba e3 9b a4 3b 64 e7 71 3b
       0.0042750533 -0.0018140426 0.005023466 0.0036911601
0000b0 a9 1d 17 3b 3a a4 9f 3c 17 ad 46 bc bd 27 b0 bc
       0.002305845 0.019487489 -0.012126229 -0.021503324
0000c0 e4 82 57 3b b7 62 6c 3b 37 cf 17 3b 8d c9 b9 bc
       0.0032884413 0.003606958 0.002316428 -0.022679115
0000d0 a1 23 18 3c 69 35 12 bb af b6 86 bb 31 5f 2a 3c
       0.009285838 -0.0022309667 -0.004111133 0.010398672
0000e0 93 4c 92 3c cb 85 97 ba f8 5c 88 3c cb f9 2c 3c
       0.017858779 -0.0011560259 0.016645893 0.010557602
0000f0 99 4b a7 3c 1c f0 e9 3b 30 33 95 ba 5b f7 ab 3c
       0.02042179 0.007139219 -0.0011383053 0.020991972
000100 ec af 67 3c 7f cf 99 3b 5d 55 df bb 74 de 85 3c
       0.014141064 0.004693925 -0.006815596 0.016341425
000110 fc 9b 2b 3c a3 cb 9f 3c c4 b3 2b bc 28 9b 86 bb
       0.010474201 0.019506281 -0.010479871 -0.0041078515
000120 a6 d4 66 bc 4c ce 50 bc 4b 53 51 ba 48 84 07 bc
       -0.014088785 -0.0127444975 -0.0007985129 -0.008271284
000130 3a e1 3b bc ef f6 69 3b 88 74 17 bc 37 2c 80 3c
       -0.011467272 0.0035700162 -0.009244092 0.015646083
000140 87 4a 19 bb 43 5b 87 3b f1 ff 11 bc dd 53 84 bb
       -0.002339037 0.0041307523 -0.008911119 -0.0040383176
000150 d8 db a8 ba a4 a6 8c bc 77 cc f2 3b 96 b2 e4 bb
       -0.0012882901 -0.017169304 0.007409628 -0.006979297
000160 dc 00 25 ba 26 33 10 bc dc 82 86 3b fb ef 5b bb
       -0.00062943785 -0.008801257 0.004104955 -0.0033559788
000170 a6 02 86 39 41 46 9f bc fa 02 e7 3b 70 cc e3 3b
       0.00025560445 -0.01944268 0.0070499154 0.006951861
000180 e7 8a 10 bc c2 6b dd bb 1e ca cc b8 0d 04 18 bc
       -0.008822179 -0.0067572305 -9.765125e-05 -0.0092783095
000190 71 49 51 3c 38 86 be bb f8 a8 1e 3c 6d 85 d8 3b
       0.012773857 -0.00581434 0.00968384 0.0066077025
0001a0 5f e5 16 3b 80 c2 05 bc 35 74 0c 3c 4e 76 b4 3b
       0.00230249 -0.008164048 0.008572628 0.005507267
0001b0 e5 f4 3d 3b f7 6f 80 3b 0f b5 15 bc 08 80 44 bc
       0.002898508 0.0039195972 -0.009137406 -0.011993416
0001c0 64 98 ff bb bc cb c0 38 fd dc f7 3a f3 b6 5a 3a
       -0.007800149 9.193222e-05 0.0018910464 0.00083433016
0001d0 3a d4 0f 3c 97 f5 cc 3b 5e ad b8 39 61 66 ce 3b
       0.008778626 0.0062548625 0.00035224383 0.0062988256
0001e0 9f 25 0c bc a9 23 29 3b cc 71 29 bc 74 ee cd bb
       -0.008553891 0.0025808609 -0.010342073 -0.0062845293
0001f0 45 a8 17 3c b1 c6 b8 bb f2 b7 80 bc 4c 27 06 bc
       0.009256427 -0.0056389202 -0.015712712 -0.00818808
000200 08 3b 86 3b 21 ea b8 39 46 03 fa 39 05 65 7c bc
       0.0040963925 0.00035269654 0.00047686155 -0.015404944
000210 97 0e 82 bc 35 d4 cb 3b 35 b8 10 3a 99 d4 62 bc
       -0.015876098 0.0062203654 0.0005520613 -0.013844633
000220 2b c4 bb bb ef 53 a2 3c 7f 02 60 bb 22 cc a8 bb
       -0.005730172 0.019815413 -0.0034181175 -0.0051512877
000230 03 0d 63 bc f1 d0 94 3b 0c b9 51 3a 58 82 e3 3b
       -0.013858083 0.0045415093 0.00080002914 0.0069430284
000240 e7 f9 37 bb 92 90 f3 bb a2 0a 22 3b 44 f1 94 b9
       -0.0028072537 -0.0074330056 0.0024725576 -0.00028408517
000250 5d 41 df bb 48 a7 e7 bb e5 f8 68 3b 20 5b d5 3b
       -0.006813212 -0.007069502 0.0035548743 0.006511107
000260 df 5e 46 3c de b7 22 3c c0 1a 02 3c 32 ce 93 3b
       0.01210758 0.009931533 0.007940948 0.0045106644
000270 40 5c 23 3c 9c 5e 5a 3c 35 a5 63 bc dc 9c 28 bc
       0.009970725 0.013328221 -0.013894369 -0.010291304
000280 03 96 61 ba c1 24 71 3c 01 8a 1e bc f5 2d 4f 3c
       -0.00086054223 0.0147182355 -0.009676457 0.012645234
000290 fb cf 88 bb 5f 93 93 3b 59 d1 ee 3b bd 9c d8 bb
       -0.004175184 0.004503652 0.00728814 -0.0066104815
0002a0 f2 39 a0 b8 bd 1f a4 3c 1c 6e 97 bb 49 16 dc b7
       -7.640188e-05 0.020034665 -0.0046212804 -2.6236421e-05
0002b0 7b ad 3c 3c 55 2f 7a bc b9 27 9e bb 76 13 00 bc
       0.01151597 -0.015270074 -0.0048265127 -0.00781714
0002c0 01 40 20 bc 17 19 94 bc 06 1f 96 3b 15 53 f4 3b
       -0.009780885 -0.01807837 0.004581335 0.007456193
0002d0 df 7f 18 bc 1a 0d da ba 8b a2 1b bc 80 37 ae ba
       -0.009307831 -0.0016635985 -0.0094992025 -0.0013291687
0002e0 8e 27 fd bb 46 ed c7 39 e1 0d 12 ba 76 a6 43 ba
       -0.0077256626 0.0003813302 -0.0005571526 -0.0007463464
0002f0 de e8 24 3c 9b da 10 3c dd 8e 88 bb 62 56 0f 3c
       0.0100652855 0.008841182 -0.0041674213 0.008748623
000300 17 dc 68 3c 99 59 f4 3b da c5 25 3c be 01 01 3c
       0.01421263 0.00745697 0.010117972 0.0078739505
000310 f0 81 83 3c a5 bd 88 ba 56 bb 8a 3a a1 b7 0b 3c
       0.01605317 -0.0010432495 0.0010584395 0.008527667
000320 92 f1 c1 bb 11 22 a7 bc 7a 18 b1 3c 4e ab c1 39
       -0.00591869 -0.020401986 0.021618117 0.0003693946
000330 8f c4 d4 3b ea a8 75 3b 80 9a 7b bc 8b 7c fd bb
       0.006493158 0.0037484714 -0.01535666 -0.007735794
000340 ac 1c 09 3c 34 57 9f bb c3 62 f3 3b c7 1f 11 3a
       0.008368652 -0.0048626903 0.007427545 0.0005536046
000350 27 4f 07 bc ff 63 76 3c 52 df 58 3c f4 ca 92 ba
       -0.0082586175 0.015038489 0.013236837 -0.0011199401
000360 ab 14 e0 3b 7a cb d3 3a df ab 61 bb 37 67 24 ba
       0.0068384013 0.0016158663 -0.0034434719 -0.0006271484
000370 31 8e b6 b9 de 2c 1e 3b 08 9e 0d 3b 6b 4c b1 bb
       -0.00034819686 0.002413563 0.0021609087 -0.005410721
000380 82 4b d3 bb 50 e8 5d 3c cc 28 36 bc aa ba 73 3c
       -0.00644821 0.013544157 -0.011118125 0.014876047
000390 48 0a 3f 3c 6d 49 4f 3c cc 5e 65 bb 3c 1c d1 bb
       0.011660166 0.012651783 -0.003499913 -0.0063815396
0003a0 37 22 94 bc 70 1d 98 3c ac ea 42 3c 07 75 d3 bb
       -0.018082721 0.018568724 0.01189677 -0.0064531597
0003b0 44 46 e5 bb dc c1 43 bc bb 4e bd 3b d7 a2 32 bc
       -0.0069969017 -0.011948075 0.0057772077 -0.010903082
0003c0 8f 3f 2f 3c 89 18 cf 3b b7 65 72 bc 8a 4b 58 bc
       0.010696306 0.0063200635 -0.0147947585 -0.013201604
0003d0 00 7e 35 3c 0c 4c 1e 37 21 db 35 bc ca a5 71 3c
       0.011077404 9.43524e-06 -0.011099608 0.014749
0003e0 6d 4e 9b bc 3b 41 88 3c 32 bf 3f 3b 07 60 85 3b
       -0.018958295 0.016632667 0.0029258248 0.0040702852
0003f0 12 08 06 3c b8 bb 3f 3b 81 b5 3c 3c aa 2d b9 3b
       0.008180635 0.0029256176 0.011517883 0.0056511955

discrete_action_output_shape f4 [1, 5]
000000 00 00 a0 40 00 00 a0 40 00 00 a0 40 00 00 a0 40
       5.0 5.0 5.0 5.0
000010 00 00 a0 40
       5.0

network_body._body_endoder.seq_layers.0.bias f4 [128]
000000 45 e6 96 3a 98 ac 48 3b 17 dc 36 3b 17 4f c1 3b
       0.0011512717 0.0030620452 0.002790218 0.005899321
000010 08 25 aa 3b 70 81 09 3b 35 d5 2e b8 9a 7d 37 3b
       0.0051924028 0.0020981692 -4.1683397e-05 0.0027998448
000020 76 d8 32 3b 44 d7 f3 ba 82 25 8a 3a c9 e5 71 bb
       0.0027289665 -0.0018603583 0.0010539743 -0.0036910644
000030 0b 9b 8e 3b c1 47 70 3b e6 1a 03 3b 09 77 e9 39
       0.0043519787 0.0036663862 0.0020005046 0.0004452991
000040 2c 6b 33 3a c3 f9 c4 38 05 2b 29 3b 03 8e 1a 3b
       0.0006844278 9.39253e-05 0.0025812995 0.002358318
000050 a6 f7 8c bb 6a bf 83 3a e9 6a 0d 3b 66 43 d5 ba
       -0.004301983 0.0010051553 0.0021578616 -0.0016270697
000060 aa 6f 3a 3a 6c da 88 3b c7 ed b4 3b 3a 28 96 38
       0.0007111976 0.0041764285 0.0055215093 7.16005e-05
000070 6b 8e 2b 3b 35 d8 55 3b 8e 2c e3 3b b0 2e f1 ba
       0.0026177417 0.003263009 0.0069328016 -0.0018400755
000080 f5 96 93 3b 80 78 c7 3a bc d4 d5 b7 67 25 e1 ba
       0.0045040795 0.0015218407 -2.549064e-05 -0.0017177284
000090 08 30 7b bb d8 5b 8c bb 67 7a 7e 3b 98 17 63 3b
       -0.003832819 -0.0042834096 0.0038830282 0.0034651514
0000a0 16 9a 6e 3b 77 57 6f 3b 3a 66 4d 3a 9e b3 1e 3a
       0.003640776 0.003652064 0.00078353623 0.0006053987
0000b0 ce 65 b1 3b 34 a2 b8 b9 6f b9 fb ba f6 e5 cd bb
       0.0054137474 -0.00035216066 -0.0019205044 -0.006283517
0000c0 1e b6 9f ba 12 5e 47 3b 69 62 91 3b bf 36 ae bb
       -0.0012185012 0.003042106 0.0044367802 -0.005316585
0000d0 7a 31 02 3b 93 89 47 b8 95 56 ef 3a 9c 28 91 3b
       0.0019865916 -4.7573423e-05 0.0018260056 0.00442989
0000e0 9b cb 96 3b 4b 35 0d bb 07 aa b4 ba 8d 5f 8e 3b
       0.0046019084 -0.0021546658 -0.0013783582 0.0043448866
0000f0 f9 3d 46 3b 26 df 64 bb af df 34 39 4a b8 1c bb
       0.003024934 -0.0034923046 0.00017249466 -0.0023913556
000100 62 40 6f bb 0b 7a 13 3b 64 a5 40 3b 94 44 3b bb
       -0.003650688 0.0022503163 0.0029395455 -0.0028574811
000110 5f 69 e6 bb ca 1b 15 3b 13 16 03 3a ee 44 60 3b
       -0.007031604 0.002275216 0.0005000543 0.0034220773
000120 32 b0 aa 3a 04 64 fb 3a 18 af 58 bb f6 f2 b8 b7
       0.0013022481 0.0019179587 -0.0033063348 -2.2047647e-05
000130 4f e9 4c 3a 58 0b 4c 39 f9 eb 86 bb ff f6 8c b7
       0.0007816748 0.00019459182 -0.0041174856 -1.6804317e-05
000140 09 65 f6 b8 bd 3e 1a 3b ef c8 94 ba e0 ad 69 3a
       -0.00011749013 0.002353593 -0.0011351387 0.0008914154
000150 cc 65 29 3b c1 c6 01 3a 28 06 91 ba 11 9d d7 3a
       0.002584803 0.0004950576 -0.0011064457 0.0016450008
000160 00 b9 e5 3a 83 74 50 bb 81 7a 3e 3b ad cb 0e 3b
       0.0017526448 -0.0031807728 0.0029064717 0.002178888
000170 c6 2b d4 b9 1c 57 a9 bb 3a 16 2a 3b 31 32 3e ba
       -0.00040468405 -0.005167855 0.002595319 -0.0007255404
000180 8b 0e bb bb af 79 19 3a 84 93 c6 3b 4d 67 2a 3b
       -0.0057085208 0.0005854619 0.0060600657 0.0026001513
000190 35 2b 98 bb db b5 91 3b de c1 3d 3b b1 c9 14 3b
       -0.0046438226 0.0044467277 0.0028954665 0.0022703225
0001a0 b5 15 5f 3b d1 5c c6 b9 8a f8 84 3b 97 66 47 bb
       0.0034040038 -0.00037834657 0.0040579485 -0.0030426139
0001b0 e1 fa 6c ba 5d b8 28 bb 75 05 09 38 7d 71 c2 3b
       -0.00090400694 -0.0025744655 3.2668428e-05 0.005933939
0001c0 ac e5 cd 3a 58 df 8b ba d0 ce 20 ba 95 b9 fc ba
       0.0015708706 -0.001067142 -0.0006134333 -0.0019281382
0001d0 87 78 c5 3a 52 9f 24 3a e9 00 55 3b 97 2b 0d bb
       0.0015065827 0.0006279844 0.0032501763 -0.0021540874
0001e0 a3 73 8f 3b 19 6f 38 bb 22 c7 2e 3b 7a 4a 3d bb
       0.0043777986 -0.0028142391 0.0026668985 -0.0028883503
0001f0 ab de 8c 3a e9 01 e8 ba 57 c9 8e 33 24 04 44 bb
       0.0010747513 -0.0017700765 6.649014e-08 -0.0029909695

network_body._body_endoder.seq_layers.0.weight f4 [128, 128]
000000 33 36 90 bc 3d eb f7 3d d0 8b 9e 3d 11 86 70 be
       -0.01760397 0.12105415 0.07741511 -0.23488642
000010 0e de f4 bc 73 e6 03 be 0b 25 b7 bc 8a 60 07 be
       -0.02989104 -0.12880878 -0.02235653 -0.1322042
000020 e7 6e 57 3c 27 23 83 bd 27 57 96 3c 26 cb 17 be
       0.013149 -0.06403189 0.018352104 -0.14823589
000030 fd 02 2b 3e ac ce e8 bd 89 a0 37 bd 07 f0 7f bb
       0.16700359 -0.113675445 -0.044830833 -0.003905298
000040 0d 21 83 be ea 29 b3 bd ea ee be bd 2b 2d af bd
       -0.25611153 -0.08748229 -0.09322913 -0.08553537
000050 c6 1d bf 3c 7a 93 b8 3d d2 5c 46 3d d9 3a 9b bd
       0.023329627 0.09012504 0.048428364 -0.07579584
000060 56 ea 46 3c 4a 0b 25 3e c7 f0 99 bd 06 2d 7b bd
       0.012140831 0.16117588 -0.07516628 -0.061322235
000070 00 4d db 3d 78 3a a9 bd 8b 32 1d 3e 00 0b a5 3c
       0.10708046 -0.08263105 0.15351312 0.020146847
000080 d7 11 ae 3c 83 fa 91 bd cb 50 67 bd ff ba 32 3d
       0.021248741 -0.071278594 -0.056473535 0.043635365
000090 b4 c2 f6 bc d2 55 ae bd ae c2 01 3e 53 a7 45 bd
       -0.030122139 -0.08512463 0.1267192 -0.048255276
0000a0 c5 9d 94 3d 5d 67 20 bd e2 97 3f 3d d8 49 55 be
       0.07256655 -0.039161075 0.046775706 -0.2082895
0000b0 f8 01 3a bd 85 65 94 bd e4 ba 11 3d b1 b6 64 3d
       -0.045412034 -0.07245926 0.035578623 0.05583829
0000c0 8f 7b a4 3c 8f 9b 4b bd 81 e4 d2 ba d9 df 75 be
       0.020078449 -0.0497089 -0.0016089828 -0.24011172
0000d0 c8 86 fc 3b bc 5f 10 be 1d 0f 0b bd 90 3b 97 3d
       0.007706497 -0.1409902 -0.03394996 0.073844075
0000e0 a6 2f 09 be 52 4d 1c 3c 10 62 0e 3b ad 8b 91 bd
       -0.13397083 0.009539919 0.002172593 -0.07106719
0000f0 59 fc 82 bd 51 52 b2 3d bd fc 59 bd 2d 5a 6d bc
       -0.06395788 0.08707107 -0.053219546 -0.014486832
000100 d8 61 b0 bd bc d2 dc 3d 74 82 ea bc dd d3 8f 3c
       -0.08612412 0.10782382 -0.028626658 0.017557079
000110 be b3 91 3d cc ba 84 ba 84 d6 35 3d c8 d8 d0 3c
       0.07114361 -0.0010126471 0.04439403 0.025493994
000120 80 15 68 3d 50 01 ee 3b ed bc 45 3c 3e ad 28 3e
       0.05666113 0.00726334 0.012068969 0.16472337
000130 b6 c5 88 bd 69 47 a2 bd 89 6f 8e bd f2 32 42 3e
       -0.06678335 -0.07923777 -0.069548674 0.18964747
000140 3c 18 e1 bd ca 9a 00 be 03 c2 a6 3d 82 51 11 bb
       -0.109909505 -0.12559047 0.081424735 -0.0022173827
000150 00 e4 d8 bd 99 d2 35 3c e8 ac 30 3d f4 d3 0d 3e
       -0.105903625 0.011097574 0.043133646 0.13850385
000160 2d ad b4 bc 7d 8b 96 3d 79 ca 98 3d 9f 20 9c 3d
       -0.022055233 0.07350824 0.074604936 0.076234095
000170 df 66 1f 3d 60 5b b6 bb c4 1f 36 3d 8b 10 c5 3d
       0.038916465 -0.005565092 0.044463888 0.09622296
000180 f4 0d ad 3d c4 a7 86 bc 47 58 34 bd 2e 92 9b bc
       0.08449927 -0.016437419 -0.0440295 -0.018990602
000190 01 c2 d2 3b a1 6b d0 3d a5 5c 94 bd c9 b3 e7 3c
       0.0064318185 0.101767786 -0.07244233 0.02828397
0001a0 50 bc b5 3b d3 85 81 3e d2 56 8d 3b 3f a6 98 3d
       0.0055461302 0.25297412 0.0043133283 0.07453584
0001b0 93 e4 90 bd 1f f2 1f 3d 2a d0 55 3d f1 f2 00 be
       -0.07074847 0.039049264 0.052200474 -0.12592675
0001c0 2f 6e f6 bd 5f 18 2a bd 4d 06 5b 3c c0 02 0f 3e
       -0.120327346 -0.04152715 0.013368201 0.13965893
0001d0 e7 b8 93 bc fd a3 9d bd 47 4d 5e 3d bf e3 c4 bc
       -0.018032504 -0.07697294 0.054272916 -0.024034379
0001e0 7a 0b c0 bc 0c d6 8b 3c 4c 8a e3 3d 70 d0 19 be
       -0.023442972 0.017069839 0.111103624 -0.15020919
0001f0 ba ca 44 3b e3 d0 69 3d cd d2 9c 3b 8d ef e8 3d
       0.003002806 0.057083976 0.0047858716 0.11373816
000200 c4 a6 31 3e a9 7a a9 3d 0e aa f4 bd 51 b1 53 bb
       0.17348772 0.08275349 -0.11946498 -0.0032301734
000210 14 9d 71 3c fc 1e 12 bd ac 32 56 b9 56 d6 b5 bc
       0.014746923 -0.03567408 -0.00020427507 -0.02219693
000220 b6 a0 8f 3d 13 bc 12 be 67 c2 0d be 22 a0 18 3e
       0.07013075 -0.14329557 -0.1384369 0.14904836
000230 01 ca 0f 3d d9 df 09 3c 5e 5f 48 3e f5 92 d0 3c
       0.035104755 0.008415186 0.1956763 0.0254607
000240 b6 77 72 3d 8f 75 b6 bd 80 24 a0 bd 25 28 9d bc
       0.059196196 -0.08909141 -0.07819462 -0.019184181
000250 55 3a 1c 3e cd 5f 4b bd f8 05 08 3e 9d 84 18 3e
       0.15256627 -0.04965191 0.13283527 0.14894338
000260 13 c1 98 3d 9a e1 fb bc 79 7e a0 3d b6 5a af bd
       0.07458701 -0.030747224 0.07836623 -0.085622236
000270 27 0e 20 3c d2 11 d2 bd 8a ae 88 bd b6 08 73 bc
       0.009768999 -0.10257305 -0.06673916 -0.01483362
000280 3a 18 db 3d 80 21 03 3c 14 b0 9b bd 8c bc ea bd
       0.1069798 0.0080035925 -0.076019436 -0.11461744
000290 83 2c 2a bd 7a b4 0e 3b 22 bf 51 bc 77 d3 ba 3d
       -0.041546356 0.0021775053 -0.012801917 0.09122365
0002a0 86 33 87 3d 42 8c e6 bc 82 cb cf bd 2e 6b 79 bc
       0.06601624 -0.028143052 -0.10146238 -0.015223308
0002b0 17 74 4f bd 58 2b d3 3c bf ac 5c 3c 74 4b 75 bc
       -0.05064782 0.025777504 0.01346892 -0.014971603
0002c0 15 0e 72 be 12 02 82 3d bd 25 b9 3d ca 9a b2 bd
       -0.23638184 0.06348051 0.09040401 -0.0872093
0002d0 5f 2e 57 bc f0 28 26 3e 13 10 03 bd 4b c1 c9 3d
       -0.013133614 0.16226554 -0.03199775 0.09851321
0002e0 a6 09 56 bd 2d 1a b1 bb 18 c3 15 bd 6c b3 39 3c
       -0.052255295 -0.0054047317 -0.03656301 0.011334281
0002f0 5c dc af bc 4e 08 75 bc c7 b2 44 3d 7f 58 3f 3e
       -0.02146738 -0.014955593 0.048022058 0.18686102
000300 54 2f e7 bd f1 b4 1e bc 21 4a 2d be 3d a6 a3 bc
       -0.11288324 -0.0096866945 -0.16922809 -0.01997673
000310 17 4f 1c 3d 7d 74 fb 3b 13 85 2f 3e 4b 6c c2 bc
       0.038161363 0.0076737986 0.17140608 -0.023733279
000320 a6 c8 37 be bc e8 b1 bd 0f 07 24 bd a4 08 4e 3d
       -0.17947635 -0.08686969 -0.040045794 0.05030121
000330 b4 b5 98 bc a4 71 23 3d 2e af fe bc 81 1a 9d 3d
       -0.01864133 0.039903298 -0.031089392 0.07671071
000340 b2 ff 01 bb 05 24 9f 3d 46 d5 2c 3c 4d c9 3b 3d
       -0.0019836244 0.07770542 0.010548895 0.045846272
000350 42 ee 41 3e 05 8d 53 3d 98 e5 06 3e 4f 79 fc bd
       0.18938544 0.05164816 0.1317352 -0.12327825
000360 a5 38 c0 3d ef 31 03 be 38 be 5e bd 63 70 02 bc
       0.09385804 -0.12812017 -0.054380625 -0.007961365
000370 63 31 5b 3c 18 a9 d3 bd 8b 6a a6 3c 57 d3 6b bd
       0.013378474 -0.103349864 0.020314476 -0.057574596
000380 57 cd 84 bd be a7 52 3d 5f 4e 82 3d a4 44 2d 3c
       -0.06484478 0.051429503 0.06362604 0.010575447
000390 87 39 c0 3d 95 bd e3 bc 86 35 ca bd 7d f8 29 3d
       0.093859725 -0.02780036 -0.0987349 0.041496743
0003a0 e1 ba 80 3d 61 ad 4d bd f8 e4 a6 3c 97 27 d2 3c
       0.06285644 -0.050214175 0.020372853 0.025653644
0003b0 8c a6 88 3d 27 c3 8b bd 3f 3c 73 3d 67 e8 05 be
       0.06672391 -0.06824332 0.059383627 -0.13076936
0003c0 d0 3d 63 bb 89 e9 55 3d 48 2d b5 3c 1a 8a 4c bd
       -0.0034674294 0.05222467 0.022116318 -0.04993639
0003d0 f6 ad f3 3c 54 6d 8a bd e3 80 cd 3d 3d d7 85 bc
       0.029746037 -0.06759134 0.10034349 -0.016337985
0003e0 58 06 f9 bd c2 28 48 3d 5a 79 d1 3d 81 f3 b1 bd
       -0.12159413 0.048866995 0.10228224 -0.08689023
0003f0 c1 41 c3 3d 20 b9 49 3d 25 35 c8 3d 5b 1e 9c bd
       0.09534026 0.049248815 0.097757615 -0.07622977
