results/FoodTarget_imitation_9/AgentPlayer/AgentPlayer-4401.pt (torch, 281975 bytes, 18 tensors)

discrete_act_size_vector f4 [1, 4]
000000 00 00 40 40 00 00 40 40 00 00 40 40 00 00 40 40
       3.0 3.0 3.0 3.0

network_body._body_endoder.seq_layers.0.weight f4 [128, 128]
000000 b3 60 b0 bc 2e 63 e6 bd 5c 6f a2 bb 06 28 89 3d
       -0.021530485 -0.11249386 -0.0049571227 0.06697087
000010 ef 0f 77 3c 1a eb 03 be cc 60 b8 b9 01 76 b4 3c
       0.015079482 -0.12882653 -0.00035167334 0.022028925
000020 d3 a0 80 3c 70 4d 28 be a5 9e 29 3d 9b f1 83 3d
       0.015701687 -0.1643579 0.04141106 0.06442567
000030 b5 fa 6d bd 24 8f b0 bd c1 f8 97 3d 8c 94 43 be
       -0.05810042 -0.08621052 0.07420493 -0.19099635
000040 35 c7 d3 3d 2c 6b 09 bc 07 eb 6f bd bc d9 4a bb
       0.1034073 -0.008387368 -0.05857375 -0.0030952534
000050 05 9d 1f 3d e0 6e 2f 3e 79 93 9f 3c 42 7e 36 3d
       0.038968105 0.17132139 0.0194795 0.044554003
000060 6c c7 9a bd 58 36 39 bc 2f 84 cd 3d 2d 5c 0d 3e
       -0.07557568 -0.0113044605 0.10034978 0.13804694
000070 2b bc b3 3d d4 08 b9 3d b0 fe 41 3e 6d 55 c5 bd
       0.087761246 0.09034887 0.18944812 -0.09635434
000080 b0 6d 59 be 39 16 ed bd ae 67 63 3c e1 18 c0 3d
       -0.21233249 -0.11576504 0.0138797 0.09379745
000090 0d df bb bd 77 0b 0a 3c 33 82 3f bc da 92 93 3c
       -0.09173403 0.008425585 -0.011688757 0.01801436
0000a0 cc f9 7c 3c ca ec 55 3c 7b d4 a3 bc 2c cd d2 3d
       0.015440416 0.013056943 -0.01999878 0.1029304
0000b0 82 ff df 3d d1 08 da 3c f6 ac 8e bd b1 48 a0 bd
       0.10937406 0.026615532 -0.069665834 -0.07826365
0000c0 6e 91 d2 3c 22 ea 21 be 0a 08 20 3e a2 b5 a1 3d
       0.025704112 -0.15811971 0.15628067 0.07895972
0000d0 43 9a f9 3d a6 e0 07 3d 92 54 e0 bd 90 a8 0c 3e
       0.12187626 0.033173226 -0.109536305 0.13736176
0000e0 4d 8f 36 bd fb 33 28 3e bc 08 10 bd cd d1 bb bd
       -0.044570256 0.16426079 -0.03516458 -0.09170876
0000f0 fc 53 f1 bc fc ab 94 3d dd 1a 0f bc f5 d9 a5 bd
       -0.029458992 0.07259366 -0.008734432 -0.08098213
000100 d2 9b 3b bd 64 b8 0c be 69 4f ec bc 79 39 04 bd
       -0.0458029 -0.13742214 -0.02884646 -0.032281373
000110 4b 46 91 be 84 fc 84 3c 39 2a df 3d c2 e5 03 be
       -0.28373942 0.01623369 0.10896725 -0.12880614
000120 9f 14 01 be df 6e dc 3d b8 14 d0 3d 3f e4 5b 3d
       -0.12605523 0.107633345 0.10160202 0.05368447
000130 ac 2f 16 be 57 c4 7f 3d e6 bd 98 3d 76 dd 2d 3e
       -0.14666623 0.062443104 0.07458095 0.16979012
000140 e0 fc 38 3d 95 51 15 3d 17 16 1c 3e 99 66 1e bd
       0.045163035 0.036454756 0.15242802 -0.038672063
000150 54 8f 97 3d 6f e9 49 3e f8 7d c7 3c 77 1c 0e 3d
       0.074003845 0.19717954 0.024352059 0.034695115
000160 f7 99 7b 3d 7e f0 df 3d a7 16 3b be 65 4a eb 3d
       0.06142613 0.10934542 -0.1827036 0.11488799
000170 49 e5 0a bd f0 99 48 bd eb d0 71 bd 9e eb a8 3d
       -0.03391007 -0.04897493 -0.05903713 0.082480654
000180 23 0a b0 3c 5a 03 35 3d ce 7e e2 bd 85 53 7c 3d
       0.021489209 0.04419265 -0.11059342 0.061603088
000190 9c 4c 2c 3c ae 66 b5 bd ea ec e7 bc e9 cc 22 3e
       0.010516312 -0.08857475 -0.028311212 0.1589848
0001a0 7d b5 b8 bd 06 e6 53 3d 6a 8f ff 3d b6 eb 1c bd
       -0.09018991 0.05173304 0.12478526 -0.03831073
0001b0 d9 71 92 bc ca 0c c7 bd 52 b2 30 3d 06 93 5c bc
       -0.017876552 -0.09719236 0.04313881 -0.0134627875
0001c0 62 58 1c 39 8d aa b5 3c 9d 0b a2 ba c8 8b b8 3b
       0.00014910244 0.022176052 -0.001236308 0.0056318976
0001d0 41 2f b0 3d ae 30 80 3d 74 6a 13 bd a4 4b 93 bd
       0.08602763 0.06259285 -0.035990193 -0.07192162
0001e0 c6 87 80 3d bf 92 90 3d 63 f7 13 be 89 da ba bd
       0.06275897 0.070592396 -0.1444984 -0.091237135
0001f0 4a 7e aa 3d 4c 8f 0d be 8d 60 5b 3c 5d e9 64 39
       0.08324869 -0.13824195 0.013389719 0.00021830709
000200 89 7e 4f bc 8a 1d 36 be e9 8d ee bc d3 94 07 bd
       -0.012664446 -0.17784706 -0.029120402 -0.033100914
000210 6e 9c 00 bc 32 83 1d be 0f 90 fb 3c 65 12 d4 bd
       -0.007849796 -0.15382078 0.03070834 -0.10355071
000220 84 40 46 3d 1f 93 2c 3e 79 73 b9 3d 70 14 c5 bd
       0.04840137 0.16852997 0.09055228 -0.09623039
000230 9c f0 f0 3d 65 f1 9b 3d d9 80 ee bc ff 63 b9 bc
       0.117646426 0.07614402 -0.029114174 -0.02263069
000240 8b 8e be 3d c9 d1 3a 3e a9 3e 22 bd 24 ae 26 be
       0.09304532 0.18244089 -0.03961054 -0.16277367
000250 16 c7 a4 3d fb fe 89 bd 24 b3 3a 3c 6a 79 ea 3d
       0.08045785 -0.06738087 0.0113952495 0.11448939
000260 43 9c 1a 3d a0 06 e6 3d 7b 3e 02 3d 4c 7f 4c bd
       0.03774668 0.11231732 0.031797867 -0.049926087
000270 8d 16 4c bc 6a 23 b4 3c ef 2e db 3d 2f be e0 3d
       -0.012456548 0.021989543 0.10702311 0.10973775
000280 57 d8 1a be 57 28 bd 3c 95 f7 2e 3d 93 22 7d 3d
       -0.1512159 0.023090525 0.04271658 0.06180055
000290 28 9f c0 3d 6a b1 e6 3d a3 d1 9b 3d c1 4c a7 bc
       0.09405357 0.11264308 0.076083444 -0.020422341
0002a0 6d e9 81 be 45 7c f8 3d f5 a6 44 3d 06 68 00 be
       -0.25373402 0.121330775 0.048010785 -0.12539682
0002b0 0d f1 61 bd 2d 41 9e bc fc 6b af bd 45 05 37 3d
       -0.055161525 -0.019318188 -0.08565518 0.04468276
0002c0 d0 f6 2a 3e 9f 55 dc bd 20 04 43 bd f2 af 20 bc
       0.16695714 -0.107585184 -0.047611356 -0.009807574
0002d0 f4 36 9e bc 54 4f 4a bc 13 bc dd bd 9d e4 83 3c
       -0.019313313 -0.012348015 -0.10826888 0.016100222
0002e0 3e 39 8f bc e2 c0 31 bd 58 25 4f be cd b7 82 3d
       -0.01748335 -0.043396838 -0.2022909 0.063827135
0002f0 35 65 32 3d bb 07 33 bd d9 1a d0 3d 68 4f 1e bb
       0.04355355 -0.043708544 0.10161371 -0.0024156217
000300 86 5d dd 3d 47 54 19 be 4c 15 34 be 28 cc 85 3d
       0.10808854 -0.14973556 -0.17586249 0.0653308
000310 f6 f2 15 bc 83 c4 c2 bc 9a 9a 9b bc 3c 84 1d be
       -0.009152165 -0.023775345 -0.018994618 -0.15382475
000320 e8 4b d1 3c 0e a7 86 bd 52 53 bd bd 55 b1 3e be
       0.02554889 -0.06574832 -0.09244408 -0.18622334
000330 a4 f7 6e bd fd d1 ac 3c ec 01 63 bd 76 fb 77 3d
       -0.058341637 0.021096224 -0.055421755 0.060542546
000340 a2 18 1d be 15 02 f3 bd 81 33 a1 3d 6c 65 2d 3d
       -0.15341428 -0.118656315 0.07871152 0.04233305
000350 26 f9 8b bd e4 cf 72 3d 1e 7e ac bd 93 6b 8e 3d
       -0.06834631 0.05928029 -0.084224924 0.06954112
000360 8e 13 d9 3c 82 16 60 bd 78 bf a6 3d 0f fa e3 ba
       0.026498582 -0.054708965 0.081419885 -0.0017393249
000370 88 93 db 3b 0d e0 78 3c 4a 1e 93 bc bc 5e f5 bd
       0.0067009367 0.015190137 -0.017958779 -0.1198096
000380 5a d8 c2 bd 63 9a ca 3c 20 a0 6d 3d 32 e6 a3 3d
       -0.09513922 0.02473182 0.058014035 0.08002891
000390 f1 2f 19 3d c2 e4 8a bb 4e ff e0 3b 0e 18 4c 3e
       0.037399236 -0.004238696 0.006866372 0.19931051
0003a0 19 5e d2 3c 5e e1 15 be b3 23 90 bd ef 9e 2c 3d
       0.025679635 -0.14636752 -0.07038059 0.04214376
0003b0 46 e0 06 be 28 ff 0e bc 68 db 0f 3e 6a a1 96 3b
       -0.13171491 -0.008727826 0.1404854 0.004596879
0003c0 c4 cc 45 bd 92 4f 8e 3d 1f 85 d5 ba 7a ae d7 bd
       -0.048290983 0.069487706 -0.0016290284 -0.10531326
0003d0 ea 5c c2 3c f7 11 a6 bd 71 14 51 3e 77 a6 0e bd
       0.023725946 -0.08108895 0.20417954 -0.034826722
0003e0 00 6f 2e be a4 03 cc 3d 2f 3e 14 3e 42 fd c8 3c
       -0.1703453 0.09961632 0.14476846 0.024534825
0003f0 fc 82 45 3c 3c 59 54 be d9 0e 70 3d cd 03 38 bd
       0.012055155 -0.20737165 0.05860791 -0.0449255

network_body._body_endoder.seq_layers.0.bias f4 [128]
000000 00 00 00 00 00 00 00 00 00 00 00 00 00 00 00 00
       0.0 0.0 0.0 0.0
000010 00 00 00 00 00 00 00 00 00 00 00 00 00 00 00 00
       0.0 0.0 0.0 0.0
000020 00 00 00 00 00 00 00 00 00 00 00 00 00 00 00 00
       0.0 0.0 0.0 0.0
000030 00 00 00 00 00 00 00 00 00 00 00 00 00 00 00 00
       0.0 0.0 0.0 0.0
000040 00 00 00 00 00 00 00 00 00 00 00 00 00 00 00 00
       0.0 0.0 0.0 0.0
000050 00 00 00 00 00 00 00 00 00 00 00 00 00 00 00 00
       0.0 0.0 0.0 0.0
000060 00 00 00 00 00 00 00 00 00 00 00 00 00 00 00 00
       0.0 0.0 0.0 0.0
000070 00 00 00 00 00 00 00 00 00 00 00 00 00 00 00 00
       0.0 0.0 0.0 0.0
000080 00 00 00 00 00 00 00 00 00 00 00 00 00 00 00 00
       0.0 0.0 0.0 0.0
000090 00 00 00 00 00 00 00 00 00 00 00 00 00 00 00 00
       0.0 0.0 0.0 0.0
0000a0 00 00 00 00 00 00 00 00 00 00 00 00 00 00 00 00
       0.0 0.0 0.0 0.0
0000b0 00 00 00 00 00 00 00 00 00 00 00 00 00 00 00 00
       0.0 0.0 0.0 0.0
0000c0 00 00 00 00 00 00 00 00 00 00 00 00 00 00 00 00
       0.0 0.0 0.0 0.0
0000d0 00 00 00 00 00 00 00 00 00 00 00 00 00 00 00 00
       0.0 0.0 0.0 0.0
0000e0 00 00 00 00 00 00 00 00 00 00 00 00 00 00 00 00
       0.0 0.0 0.0 0.0
0000f0 00 00 00 00 00 00 00 00 00 00 00 00 00 00 00 00
       0.0 0.0 0.0 0.0
000100 00 00 00 00 00 00 00 00 00 00 00 00 00 00 00 00
       0.0 0.0 0.0 0.0
000110 00 00 00 00 00 00 00 00 00 00 00 00 00 00 00 00
       0.0 0.0 0.0 0.0
000120 00 00 00 00 00 00 00 00 00 00 00 00 00 00 00 00
       0.0 0.0 0.0 0.0
000130 00 00 00 00 00 00 00 00 00 00 00 00 00 00 00 00
       0.0 0.0 0.0 0.0
000140 00 00 00 00 00 00 00 00 00 00 00 00 00 00 00 00
       0.0 0.0 0.0 0.0
000150 00 00 00 00 00 00 00 00 00 00 00 00 00 00 00 00
       0.0 0.0 0.0 0.0
000160 00 00 00 00 00 00 00 00 00 00 00 00 00 00 00 00
       0.0 0.0 0.0 0.0
000170 00 00 00 00 00 00 00 00 00 00 00 00 00 00 00 00
       0.0 0.0 0.0 0.0
000180 00 00 00 00 00 00 00 00 00 00 00 00 00 00 00 00
       0.0 0.0 0.0 0.0
000190 00 00 00 00 00 00 00 00 00 00 00 00 00 00 00 00
       0.0 0.0 0.0 0.0
0001a0 00 00 00 00 00 00 00 00 00 00 00 00 00 00 00 00
       0.0 0.0 0.0 0.0
0001b0 00 00 00 00 00 00 00 00 00 00 00 00 00 00 00 00
       0.0 0.0 0.0 0.0
0001c0 00 00 00 00 00 00 00 00 00 00 00 00 00 00 00 00
       0.0 0.0 0.0 0.0
0001d0 00 00 00 00 00 00 00 00 00 00 00 00 00 00 00 00
       0.0 0.0 0.0 0.0
0001e0 00 00 00 00 00 00 00 00 00 00 00 00 00 00 00 00
       0.0 0.0 0.0 0.0
0001f0 00 00 00 00 00 00 00 00 00 00 00 00 00 00 00 00
       0.0 0.0 0.0 0.0

network_body._body_endoder.seq_layers.2.weight f4 [128, 128]
000000 20 6a c0 bd d0 fc 0a bd 7b 74 72 bc ca ff 07 bd
       -0.09395242 -0.033932507 -0.014798279 -0.033202924
000010 15 3a c7 3c ec 4d c5 bd 2b 5f df bd 64 0c de 3d
       0.024319688 -0.09634003 -0.10906824 0.10842207
000020 69 0e 40 3d 82 54 86 3a 2e 70 fd bc e1 71 cf 3c
       0.046888743 0.0010248574 -0.03093728 0.025322856
000030 28 ac 68 bd 13 ce 1d 3d 3b 1f b0 3d 36 a9 b1 bc
       -0.056804806 0.038526606 0.08599707 -0.021687131
000040 07 f1 19 bd ab 86 c6 3d 34 0f 2a 3d 4d 31 90 bc
       -0.037583377 0.096936546 0.041518405 -0.017601633
000050 b4 05 66 bd 5a 13 da bc d8 01 58 be 84 22 28 3d
       -0.056157783 -0.026620556 -0.21094453 0.04104854
000060 95 4f f8 bd 10 36 2f 3d ed c8 85 3c 9f a5 67 3b
       -0.12124554 0.042776167 0.01633116 0.003534652
000070 b2 4b 12 3d e7 63 34 be 83 93 3b 3d 2a e4 f1 bd
       0.03571672 -0.17616235 0.045794975 -0.11811097
000080 88 df d5 3d 5c a6 b2 3d e9 e7 e4 bc 91 e6 bc bd
       0.10443026 0.08723137 -0.027942615 -0.092236646
000090 86 87 0e 3d f6 f1 c3 3d 5c d7 c0 ba 96 1e 03 3d
       0.034797214 0.09567635 -0.001471262 0.03201159
0000a0 a6 10 23 3d 20 ed e1 3d cd d8 d1 bb 50 f5 85 3d
       0.0398108 0.11031556 -0.0064040185 0.0654093
0000b0 fc 5e 62 3d 1e ce 6a 3e 69 17 ee bd 29 8d 49 bd
       0.055266365 0.2293019 -0.11625559 -0.049206886
0000c0 17 70 ba bc 6c b7 4a be a5 04 96 3c f3 1d ba bd
       -0.022758527 -0.19796532 0.018312762 -0.090877436
0000d0 d5 f5 7f 3d 2b 15 4b 3d aa f1 21 3d 34 bb ed bb
       0.062490303 0.049580734 0.03953711 -0.0072549824
0000e0 ee 2d 06 3e 6f d3 96 3d b8 52 55 3d f9 e9 a1 3d
       0.13103458 0.073645465 0.05208084 0.07905955
0000f0 30 88 c3 3d 98 c1 4d 3e b3 6a 2b bc be df a2 bd
       0.0954746 0.20093381 -0.010462451 -0.07952832
000100 50 ff 58 3d 86 d7 09 3e 64 fc 81 3e 8f b4 49 3d
       0.05297786 0.13461122 0.2538787 0.04924446
000110 91 b6 84 3d 3d 26 0b bd ec 97 04 3d de 75 43 3c
       0.06480134 -0.033972014 0.032371446 0.011929957
000120 5a 31 ee bd f0 9e 0d be 82 2d 5c bd 77 0f 20 be
       -0.11630507 -0.13830161 -0.053754337 -0.156309
000130 6a 12 19 3e cc c7 e8 3b 5d 0f 9e bc c1 1e 71 bd
       0.1494843 0.007103896 -0.019294435 -0.05886722
000140 2d 35 d9 3d 81 dc 9c bc b9 56 b4 bd 49 80 50 3d
       0.106058456 -0.019148113 -0.088056035 0.050903592
000150 6d ef 6e 3d 94 ca a7 3c 16 b7 5e bc df 30 dd 3c
       0.058333803 0.020482339 -0.013593456 0.027000843
000160 04 ca ec bd ff 66 0e 3d d5 fa da 3c 90 d2 cc 3b
       -0.11561969 0.034766193 0.026730934 0.006250687
000170 51 fa c8 bd bd 69 80 bd 7c 92 c1 3b b4 af 96 bd
       -0.09813369 -0.06270168 0.005907355 -0.073577315
000180 a4 bd 2a 3e d5 f3 cd bd e1 d3 00 3e 0c b2 35 3d
       0.16673905 -0.10056273 0.12580825 0.04435925
000190 ac 1d 85 3d fe 55 03 3d 94 40 43 3d 99 c3 81 3d
       0.064998 0.03206443 0.04766901 0.063361354
0001a0 04 d9 f8 bd 82 9a 4b 3d 10 62 2d 3e 40 5b 79 3d
       -0.121507674 0.049707897 0.16931939 0.06087804
0001b0 e2 af a2 3d 39 1f 82 be eb 71 af bc 1f 38 b5 3d
       0.07943703 -0.25414446 -0.021416625 0.08848595
0001c0 fe c5 bb bc cf 59 19 3d f1 fc be bb c0 d9 39 bc
       -0.022921558 0.037439164 -0.005828493 -0.01134342
0001d0 ba 4d 05 3e 8c 92 f4 bd 9a a0 88 bc ce 1d 7c 3d
       0.13017932 -0.11942014 -0.016678143 0.06155186
0001e0 99 3e b4 3d 38 fa 51 bd e8 c7 8b 3e 93 30 e2 bb
       0.08801002 -0.051264018 0.27300954 -0.006902763
0001f0 d4 5b c7 3d 14 4e c5 bd 68 e1 2e bd bc 9c 5d 3d
       0.09734312 -0.09634033 -0.042695433 0.05410455
000200 f1 86 22 3d 3d 3a a6 3d b7 f4 33 3e 38 b8 64 3d
       0.03967947 0.08116577 0.1757382 0.055839747
000210 75 3e 65 bd 7f 1c 8e 3c 89 b8 4e 3d 1d 60 77 3d
       -0.055967767 0.017347572 0.050468955 0.060394395
000220 82 74 e9 bd 68 e3 ef bd db ab 35 3d 30 eb 31 3e
       -0.11399175 -0.11713296 0.044353347 0.17374873
000230 64 f7 18 3e 1c a2 85 bd d8 57 2b bd 21 85 ec 3d
       0.14938122 -0.065250605 -0.04183182 0.1154883
000240 36 21 06 bd 4b 59 5c 3e 4f 34 45 3d 86 f8 bb bd
       -0.032746516 0.21518438 0.04814559 -0.091782615
000250 cf ff be bd 21 dc 20 be 93 68 0a 3e 5b ec e1 3d
       -0.09326135 -0.15708973 0.13516454 0.11031409
000260 bc ea 70 3d e1 64 90 bd 32 7e d7 bd a7 8a 87 bd
       0.05881761 -0.07050491 -0.10522117 -0.06618243
000270 3d 0c 9b bc 6f da 81 b9 43 e1 05 3d 4c 6d 49 3d
       -0.018926734 -0.00024767543 0.03268553 0.0491765
000280 f0 84 bd 3c 84 99 8f 3d da 61 e0 bc bd b1 03 bd
       0.023134679 0.07011703 -0.02739041 -0.032151926
000290 42 06 ca ba cf c5 40 3e 42 98 0a 3e 77 7b 8f bc
       -0.0015413242 0.18825458 0.13534644 -0.017514927
0002a0 3e 7e 40 3d 9e 85 bf 3d 68 53 ca 3c b3 3d eb bd
       0.046995394 0.09351657 0.024697974 -0.114863776
0002b0 fb d8 c4 bc 01 7d 7b bd de 78 24 3c da 71 44 3d
       -0.024029246 -0.06139851 0.010038583 0.04796014
0002c0 94 a8 f2 bd 61 fd 95 3d dc 93 0e be 5a 2d 1e 3c
       -0.1184856 0.07323719 -0.13923591 0.009654367
0002d0 7e fb ed 3b 56 b3 a5 3d 2c a7 1a 3d 50 1c bf bd
       0.007262646 0.08090846 0.037757084 -0.09331572
0002e0 87 53 2d bc 09 fb 34 3a 19 30 de 3c 08 1c c1 bc
       -0.0105789965 0.0006903862 0.027122544 -0.023572937
0002f0 e7 9b 7a bd 5b c9 95 3b 84 b2 58 3c 8c 3d 82 bd
       -0.061183836 0.0045711226 0.013226155 -0.063593954
000300 6e fa 73 3d 79 aa 42 bd c7 2f 30 3e d2 9c 6e 3d
       0.059565 -0.047525857 0.17205726 0.058255024
000310 60 b9 d4 bd 71 50 a2 3d f9 37 67 bd 4f 31 10 bd
       -0.1038692 0.07925499 -0.056449864 -0.035203274
000320 82 24 3d 3d 4d 69 0a 3e a1 25 5c bd 91 30 44 bc
       0.046177395 0.13516732 -0.053746823 -0.01197447
000330 9d d1 9a bd e2 60 e8 bd 40 d4 9e 3d 5b 8b 80 bc
       -0.07559512 -0.11346604 0.07755327 -0.01569145
000340 8c ec b1 bd 05 54 fc 3d 7b 83 54 bc 8d 96 7e 3d
       -0.08687696 0.12320713 -0.0129708005 0.062155295
000350 d3 2a c6 bd 49 f0 e9 3a 8d c1 6e 3d 84 a5 ac bd
       -0.09676137 0.00178481 0.058290053 -0.08430007
000360 a4 84 8d bd 82 d5 fb bd 83 2a 7f bc fb 14 9c 3d
       -0.06910065 -0.12296583 -0.0155741 0.07621189
000370 9d 8f 00 3e c8 fa e2 bd e7 c3 7b 3c 23 54 9d be
       0.12554784 -0.11082989 0.015366531 -0.30728254
000380 9c 22 06 bb f2 ea 5c bb 11 ce 0a bd 49 f4 86 bc
       -0.0020467406 -0.0033709374 -0.033887926 -0.016473906
000390 4d 14 75 b9 33 41 7f bc 7b cf 26 be d5 3c df bc
       -0.00023372583 -0.01557951 -0.16290085 -0.027250687
0003a0 97 2a 90 3d c4 ec cd bb a3 c2 4b 3c 75 e9 90 bd
       0.07039373 -0.006284328 0.012436542 -0.070757784
0003b0 89 05 05 bd 5b d9 ec bc 06 fc ac 3d fb c6 a6 3d
       -0.03247598 -0.028912237 0.08446507 0.08143421
0003c0 11 ae 68 be 13 cc 0d bd 44 ab 27 3e 15 f4 db bd
       -0.22722651 -0.03461845 0.16373926 -0.10739914
0003d0 18 d7 a2 bd 9c 08 3c 3d 0d ba b0 3d e0 d8 c0 bd
       -0.07951182 0.045906648 0.08629236 -0.094163656
0003e0 aa 35 2c bc 9e fc 48 bd 1a dc 88 3c f2 51 e7 3d
       -0.010510841 -0.04906904 0.016706515 0.11294927
0003f0 9b 87 7d bd d2 bb 92 3e 5b 33 44 3d a2 0f 3a 3d
       -0.0618969 0.2865892 0.04790054 0.045425065

network_body._body_endoder.seq_layers.2.bias f4 [128]
000000 00 00 00 00 00 00 00 00 00 00 00 00 00 00 00 00
       0.0 0.0 0.0 0.0
000010 00 00 00 00 00 00 00 00 00 00 00 00 00 00 00 00
       0.0 0.0 0.0 0.0
000020 00 00 00 00 00 00 00 00 00 00 00 00 00 00 00 00
       0.0 0.0 0.0 0.0
000030 00 00 00 00 00 00 00 00 00 00 00 00 00 00 00 00
       0.0 0.0 0.0 0.0
000040 00 00 00 00 00 00 00 00 00 00 00 00 00 00 00 00
       0.0 0.0 0.0 0.0
000050 00 00 00 00 00 00 00 00 00 00 00 00 00 00 00 00
       0.0 0.0 0.0 0.0
000060 00 00 00 00 00 00 00 00 00 00 00 00 00 00 00 00
       0.0 0.0 0.0 0.0
000070 00 00 00 00 00 00 00 00 00 00 00 00 00 00 00 00
       0.0 0.0 0.0 0.0
000080 00 00 00 00 00 00 00 00 00 00 00 00 00 00 00 00
       0.0 0.0 0.0 0.0
000090 00 00 00 00 00 00 00 00 00 00 00 00 00 00 00 00
       0.0 0.0 0.0 0.0
0000a0 00 00 00 00 00 00 00 00 00 00 00 00 00 00 00 00
       0.0 0.0 0.0 0.0
0000b0 00 00 00 00 00 00 00 00 00 00 00 00 00 00 00 00
       0.0 0.0 0.0 0.0
0000c0 00 00 00 00 00 00 00 00 00 00 00 00 00 00 00 00
       0.0 0.0 0.0 0.0
0000d0 00 00 00 00 00 00 00 00 00 00 00 00 00 00 00 00
       0.0 0.0 0.0 0.0
0000e0 00 00 00 00 00 00 00 00 00 00 00 00 00 00 00 00
       0.0 0.0 0.0 0.0
0000f0 00 00 00 00 00 00 00 00 00 00 00 00 00 00 00 00
       0.0 0.0 0.0 0.0
000100 00 00 00 00 00 00 00 00 00 00 00 00 00 00 00 00
       0.0 0.0 0.0 0.0
000110 00 00 00 00 00 00 00 00 00 00 00 00 00 00 00 00
       0.0 0.0 0.0 0.0
000120 00 00 00 00 00 00 00 00 00 00 00 00 00 00 00 00
       0.0 0.0 0.0 0.0
000130 00 00 00 00 00 00 00 00 00 00 00 00 00 00 00 00
       0.0 0.0 0.0 0.0
000140 00 00 00 00 00 00 00 00 00 00 00 00 00 00 00 00
       0.0 0.0 0.0 0.0
000150 00 00 00 00 00 00 00 00 00 00 00 00 00 00 00 00
       0.0 0.0 0.0 0.0
000160 00 00 00 00 00 00 00 00 00 00 00 00 00 00 00 00
       0.0 0.0 0.0 0.0
000170 00 00 00 00 00 00 00 00 00 00 00 00 00 00 00 00
       0.0 0.0 0.0 0.0
000180 00 00 00 00 00 00 00 00 00 00 00 00 00 00 00 00
       0.0 0.0 0.0 0.0
000190 00 00 00 00 00 00 00 00 00 00 00 00 00 00 00 00
       0.0 0.0 0.0 0.0
0001a0 00 00 00 00 00 00 00 00 00 00 00 00 00 00 00 00
       0.0 0.0 0.0 0.0
0001b0 00 00 00 00 00 00 00 00 00 00 00 00 00 00 00 00
       0.0 0.0 0.0 0.0
0001c0 00 00 00 00 00 00 00 00 00 00 00 00 00 00 00 00
       0.0 0.0 0.0 0.0
0001d0 00 00 00 00 00 00 00 00 00 00 00 00 00 00 00 00
       0.0 0.0 0.0 0.0
0001e0 00 00 00 00 00 00 00 00 00 00 00 00 00 00 00 00
       0.0 0.0 0.0 0.0
0001f0 00 00 00 00 00 00 00 00 00 00 00 00 00 00 00 00
       0.0 0.0 0.0 0.0

action_model._discrete_distribution.branches.0.weight f4 [3, 128]
000000 a7 19 13 bc db 4a 14 bc 6f bd 23 3c df 45 43 3c
       -0.008978284 -0.00905105 0.009993895 0.011918514
000010 bb 31 24 bc 4a ca e9 bb be ec c1 bb 3a 1c 86 39
       -0.010021622 -0.0071347104 -0.0059181144 0.00025579502
000020 ea af b6 bb cf 8e a5 bc 72 8b 83 b9 b3 cb 28 3b
       -0.00557517 -0.020209698 -0.00025090162 0.002575618
000030 46 89 aa bb 73 93 2d bc e0 24 04 bb 0b d8 60 3c
       -0.0052043526 -0.010594237 -0.002016358 0.013723384
000040 90 26 78 3c 67 38 b7 bb 3b 42 13 3c 5d b0 97 bb
       0.015145913 -0.0055914405 0.008987959 -0.0046291784
000050 60 43 35 ba bb 4f aa ba 83 9b f3 3b 80 1b 17 3c
       -0.00069146417 -0.0012993732 0.00743431 0.009222865
000060 7f 62 74 3b fa a1 5d 3b f4 0e 47 3a f8 01 74 bb
       0.0037290154 0.003381847 0.0007593476 -0.0037232619
000070 60 bc 6e 3c d7 de c2 3b a0 24 94 bc a1 2a 22 3c
       0.014571279 0.0059469747 -0.01808387 0.009897859
000080 97 22 6a bc c7 16 a4 ba 4a 24 fd 3b 4d 78 e6 3b
       -0.014290473 -0.0012518995 0.0077252733 0.007033384
000090 ad 61 69 39 cf a6 89 3b d6 41 28 3c c6 7b 07 3c
       0.00022256999 0.0042007933 0.010269603 0.008269256
0000a0 93 1e 1d bc 2d d5 4b bc db 64 ff 3b 38 f7 05 bc
       -0.009589809 -0.012440962 0.0077940053 -0.008176617
0000b0 8a 56 08 bc 4f 0c b0 bb a6 99 02 3c 75 0f 55 3b
       -0.008321414 -0.005372561 0.007971203 0.0032510434
0000c0 b4 d5 ac bb 3d b3 d6 3b 75 3c 05 3c 86 be 33 bb
       -0.005274499 0.0065521286 0.00813209 -0.0027426793
0000d0 a7 19 a0 bc 38 96 40 3a 42 c7 66 bb 89 b6 aa ba
       -0.019543482 0.0007346603 -0.0035213982 -0.001302437
0000e0 2e 59 ac bb 5d cb 98 bc 8b ae a1 3b ca 9d 17 3b
       -0.0052596545 -0.018651659 0.004934137 0.002313482
0000f0 d0 1f 6b ba b3 f5 91 3b 30 a0 cd bb 3d eb 84 ba
       -0.0008969279 0.0044543385 -0.0062751994 -0.0010140907
000100 40 9a a2 bc 6f d2 20 39 7d 17 7c 3c 33 30 42 3b
       -0.019848943 0.00015337182 0.015386459 0.002963078
000110 b9 16 a6 3b 66 db 17 3b 77 71 bd 3b 58 ee 2e bc
       0.0050686267 0.0023171543 0.0057813483 -0.010676943
000120 2f 28 55 bc a1 87 1e 3b 86 0e 36 bc 3f 82 0a bc
       -0.013010069 0.0024189728 -0.011111861 -0.008453905
000130 83 de 68 bb c2 40 e3 bc d3 cb 47 3b 5b e5 3e bc
       -0.0035533018 -0.02774084 0.003048648 -0.011651362
000140 4f 40 c6 3b e6 bd 1a 3c cb 81 a3 3c 90 af 44 3b
       0.0060501467 0.009444689 0.019959351 0.003001187
000150 9e 40 2f 3b 6c f1 33 bc c9 6f 31 bb 62 ae b8 ba
       0.0026741396 -0.010982852 -0.0027074686 -0.0014090056
000160 01 68 33 bc 81 f8 3a bb a4 cb 0f bc 00 86 fe 39
       -0.010950089 -0.0028529468 -0.008776579 0.00048546493
000170 fa dc 76 bb 07 7b df 3b f7 80 bd 3a 96 c8 8e bb
       -0.0037668333 0.006820086 0.001445799 -0.004357408
000180 df f7 b9 3b cf 63 ce 3b 54 da 08 bc 6d b6 1f bc
       0.0056753005 0.006298519 -0.008352835 -0.009748084
000190 04 cf 02 b8 e5 5e 34 3c a1 96 27 bc 38 98 30 3c
       -3.1187214e-05 0.011008953 -0.010228784 0.010778479
0001a0 0b 2e 08 3c ff 60 61 3c d3 b1 97 3b 60 28 e6 3a
       0.008311759 0.013756036 0.0046293526 0.001755964
0001b0 52 50 e9 3b 6f a3 ee 3b b3 1e 4b 3c 71 c7 98 3b
       0.0071201706 0.0072826664 0.012397456 0.004662447
0001c0 55 68 9e bb 9f bc 4b b9 3b 92 03 3c 85 86 33 bc
       -0.0048342147 -0.00019429855 0.0080304695 -0.010957365
0001d0 a2 ba 8c bc b2 1d 67 3c a3 f9 30 39 c0 6f 19 bc
       -0.017178837 0.014106201 0.00016877665 -0.009365022
0001e0 d3 58 f2 ba 78 d0 01 3c 4f 15 51 bc eb 3f 85 bb
       -0.0018489606 0.007923238 -0.012761428 -0.0040664575
0001f0 ca 71 f9 3b b5 ed ee 3a b4 f1 48 3b b0 91 04 3c
       0.0076124417 0.0018228801 0.0030661644 0.008091375
000200 9b e4 37 3b 8f 8c ae bb 46 91 8f bb 5d 73 5c 3b
       0.0028059843 -0.0053268145 -0.0043813316 0.0033638098
000210 a5 14 4a 3a 96 e8 10 bc c8 ea 26 3c 4b e4 aa 3b
       0.0007708765 -0.008844515 0.010187812 0.005215203
000220 b8 ea fa bb 37 be 24 3c 1a fe 55 3b bd 53 dd 3b
       -0.007657375 0.010055116 0.0032652677 0.006754367
000230 b9 67 31 3b 9b df c0 bb c2 50 34 3c 34 03 af 3a
       0.002706988 -0.005886031 0.011005582 0.0013352395
000240 a9 ac c2 3b 4f f2 12 bc ea 96 df ba 55 29 0f 3c
       0.005940993 -0.008968904 -0.0017058526 0.008737882
000250 f9 fc 3f 3c ef 97 61 bb db 26 ae 3b cf 04 c7 3a
       0.011718028 -0.0034422835 0.0053146905 0.0015183928
000260 46 ac 35 3b 3b 43 db bb 84 37 91 bb e7 46 b6 3b
       0.0027721091 -0.006691364 -0.004431667 0.0055626514
000270 f3 59 d1 bb 31 40 ba bb f2 e6 d8 bb ff 2d b6 3b
       -0.0063888966 -0.0056839217 -0.0066193277 0.0055596824
000280 a0 1c 0c 3a 57 4e 12 3a c5 5b 1a bc 17 ad b3 bb
       0.00053448416 0.00055811316 -0.009421294 -0.0054832804
000290 bb c2 16 3c 63 25 c9 ba 0d ab f6 b9 47 4a 08 bb
       0.009201701 -0.0015346225 -0.0004704822 -0.0020796226
0002a0 e2 19 8a bb f7 bf 31 bc dc 2b 3d bc d2 86 f5 bb
       -0.0042145113 -0.010848991 -0.011546101 -0.0074928785
0002b0 c5 7b b0 bc 27 e5 9b bc 92 38 80 bc a5 d5 9d bb
       -0.021543393 -0.019030167 -0.015651975 -0.004816728
0002c0 be 3b 07 3b 66 98 38 bb 1e a2 b6 ba 2c 81 90 b9
       0.0020634974 -0.0028167008 -0.0013933813 -0.0002756206
0002d0 db dc 0e bc 31 4b 9d 3a ae b7 08 bc ab a8 a2 3b
       -0.008719648 0.0012000558 -0.008344574 0.0049639544
0002e0 48 d1 ed ba 5d a3 b1 3a 15 7b 52 3b 67 1f e2 3b
       -0.0018144036 0.0013552714 0.003211682 0.006900716
0002f0 2b 4f 83 bc 7d dd 4f 3b ef e4 18 ba 69 ab 40 3c
       -0.016028961 0.003171771 -0.00058324536 0.011759617
000300 cb d3 b6 38 1f 6b 4c bc fd bf f2 bb a3 9b 7b 3b
       8.717886e-05 -0.0124767115 -0.0074081407 0.0038392327
000310 ed 9c f7 39 db f2 28 bc 8b 19 63 bc 5d 92 68 3c
       0.0004722843 -0.0103118075 -0.01386107 0.014195052
000320 8d c2 0a ba 43 6e c8 3a 83 53 20 3c 4b eb ec ba
       -0.00052932726 0.001529165 0.009785536 -0.0018075494
000330 60 cf 5f 3c 6b 79 e8 3b 8b 6d 15 3b f5 26 57 3c
       0.013660282 0.0070945523 0.0022800888 0.013131847
000340 c2 9a b6 3b 40 67 d2 39 b3 07 a7 bb 2c d8 90 bc
       0.005572648 0.00040131249 -0.0050973534 -0.017681204
000350 8a b8 78 3b e6 c0 95 3b 17 04 a2 bb 29 8d 36 bb
       0.003795179 0.0045701144 -0.004944335 -0.0027855134
000360 50 a5 c4 3b 26 fa 2c bc 59 59 44 3c 6e 33 cc 3a
       0.006001152 -0.010557687 0.011984193 0.0015579292
000370 6d 83 34 b9 9b 60 43 b9 7a da 12 bc ec dc 0e 3c
       -0.00017215098 -0.00018632638 -0.008963222 0.008719664
000380 b3 38 3b 3c 2d 7e 7a 3b 77 f6 2a bb 60 40 42 bb
       0.011427092 0.003822218 -0.0026086846 -0.0029640421
000390 03 2d 4a bb 56 55 34 bc 05 9c ea bb 17 cd ad 3b
       -0.0030849583 -0.011006674 -0.0071597123 0.0053039896
0003a0 aa d2 91 bb f9 f6 42 bb fa 5d 32 bc 08 47 22 3a
       -0.004450162 -0.0029749258 -0.010886664 0.0006190394
0003b0 67 96 30 3c 7a be ac 3b 0f 66 45 bb a3 b8 66 3c
       0.010778046 0.00527173 -0.0030120646 0.014082107
0003c0 1a 7e a0 3a 4a 57 34 bc 52 82 2c ba 90 04 09 3c
       0.0012244612 -0.011007139 -0.00065806985 0.008362904
0003d0 13 da 28 bb 14 61 8c 3b 8d f1 9e bc 53 3b a0 bb
       -0.0025764748 0.0042840336 -0.01940229 -0.0048898845
0003e0 bd c8 72 bc a7 47 b3 3b b0 f5 fb bb 13 61 76 3c
       -0.014818368 0.005471188 -0.0076892003 0.015037793
0003f0 e2 ae a0 39 d2 41 48 ba d4 c2 18 bc 35 20 60 3c
       0.00030647876 -0.00076392025 -0.009323794 0.013679554

action_model._discrete_distribution.branches.0.bias f4 [3]
000000 00 00 00 00 00 00 00 00 00 00 00 00
       0.0 0.0 0.0

action_model._discrete_distribution.branches.1.weight f4 [3, 128]
000000 4f 48 ce ba fa 84 4e 3b 08 23 46 bb 54 32 45 3c
       -0.0015738102 0.0031512366 -0.0030233283 0.012035925
000010 ce 70 9d bb 97 d8 cc 3b d3 6c c3 bb e3 d0 4d bb
       -0.004804707 0.0062514055 -0.0059639006 -0.0031405024
000020 ca 22 02 3b 3e 79 17 3c 61 fe c9 bb 8d 01 60 bc
       0.0019857162 0.009245215 -0.0061643575 -0.013672245
000030 3f 0f bc ba e2 97 c9 3a e8 ee 75 ba 1b 32 42 39
       -0.0014347805 0.0015380348 -0.0009381608 0.00018519947
000040 78 55 6a 3a 07 22 85 bc 0d 9e 93 bc a7 de 08 bc
       0.00089391274 -0.016251577 -0.0180197 -0.008353866
000050 e5 be 61 3b 1d 5d 26 3c 7d 9c 74 3b 1a 44 90 bb
       0.0034446057 0.010154036 0.003732472 -0.0044026496
000060 f8 4a 68 bc a9 e3 46 b9 51 61 45 bb 7a ce a6 3b
       -0.01417803 -0.00018967561 -0.003011782 0.005090532
000070 fe 77 9b 3b 2c c2 25 bc 63 4f 77 bb c9 7e 45 bc
       0.004744529 -0.010117095 -0.0037736527 -0.012054154
000080 11 df a6 3b bf 67 9e bc 33 1a 00 3c 6e aa a1 bb
       0.0050925096 -0.01933658 0.007818746 -0.004933647
000090 8d 00 0d 3b 0b af 7d 3b 43 fe 5d bc 97 b2 82 ba
       0.002151522 0.003870907 -0.01354939 -0.0009971437
0000a0 d0 8b cb 3a 18 93 9d 3a 82 90 e5 3b c7 d5 0c bb
       0.0015529338 0.0012021987 0.007005752 -0.0021489726
0000b0 93 4a 03 3c 22 5a 7a bb 92 00 2f 3b aa c9 65 3b
       0.008013385 -0.0038200696 0.002670322 0.0035062828
0000c0 9c 66 0f 3a fa 8f f8 3b 29 c0 1c bc 4d 56 90 3c
       0.0005470307 0.0075855227 -0.009567299 0.017619276
0000d0 36 5d 0b 3c 33 59 2b 3c c6 78 c7 38 3d 88 05 3b
       0.00850611 0.0104582785 9.511555e-05 0.0020375394
0000e0 b6 3b 2f bb 31 06 a1 bb 97 96 bf 3b bd 92 86 bc
       -0.0026738471 -0.004914068 0.005846809 -0.016427392
0000f0 91 a4 aa 3b 26 c0 b5 3b c5 84 19 bc 55 bf 8e 3a
       0.005207606 0.0055465875 -0.009370034 0.0010890762
000100 87 94 90 b9 97 db 1a 3b f1 52 a8 bb 7a fd 5d 3a
       -0.00027576482 0.002362942 -0.0051368405 0.0008468252
000110 07 38 4e bb ef d1 40 3c 88 ac fa bb 27 2e ff 3b
       -0.00314665 0.011768802 -0.007649962 0.007787484
000120 1a 97 c4 ba df c0 8a bc 10 fc 8a ba 4d 38 06 bc
       -0.0014998645 -0.016937671 -0.0010603685 -0.008192134
000130 a9 36 c8 3b 6b ab 2a bc e5 aa 8c 3c 27 d0 cb bb
       0.0061100316 -0.010416846 0.017171333 -0.006219882
000140 cb b5 ad bb e3 3b 8c bc eb f3 99 3c 20 71 4c 3c
       -0.0053012124 -0.0171184 0.018793067 0.012478143
000150 07 df e4 b9 d6 2e 9e 3c 3a b2 cf bb c6 18 1d 3b
       -0.00043653717 0.019309442 -0.006338385 0.0023971065
000160 40 d3 f7 bb 8b 4b 87 3c b0 e3 59 bb 79 73 9e 3b
       -0.0075630248 0.016515514 -0.0033247285 0.0048355428
000170 93 e4 7a bc f7 ee a1 3a 25 d3 a9 bb 5f 39 b6 bb
       -0.015313285 0.0012354542 -0.005182641 -0.0055610384
000180 43 db fe bb d0 f8 2b 3c 15 62 84 3b 79 3c 05 bc
       -0.007777603 0.010496333 0.0040400126 -0.008132094
000190 1f d3 62 bc 23 36 52 bb 10 84 27 3c ef 2d 2b 3b
       -0.0138442805 -0.0032075725 0.010224357 0.0026119908
0001a0 d0 04 84 3c 82 58 8b 3c 08 5a 2f bc 57 b6 86 3b
       0.016115576 0.017009977 -0.0107026175 0.004111092
0001b0 e0 30 e0 bb 08 94 ef 3c b6 24 97 bb 7f b0 9b bc
       -0.006841764 0.029245391 -0.0046125306 -0.019005058
0001c0 a7 48 81 bb 02 37 ac 3b 2f 44 20 bb 63 74 66 bc
       -0.0039454284 0.005255581 -0.0024454703 -0.014065835
0001d0 da c9 4f bc 07 11 20 bc 13 08 54 bc 0d bf ed bb
       -0.0126824025 -0.009769685 -0.012941378 -0.007255441
0001e0 ef 14 54 3c 40 ce 87 3b 93 45 c3 bc 25 7b 9f bc
       0.012944444 0.00414446 -0.023836887 -0.0194679
0001f0 9c 95 c0 bb 5d 97 0e 3c 4b 78 3c 3c 12 93 cc bc
       -0.00587721 0.00870308 0.011503289 -0.024972472
000200 43 bd 5a 3c 87 0f 61 bc 8d f7 1e bc 1a 0e ed ba
       0.013350788 -0.013736612 -0.009702575 -0.0018085868
000210 83 b6 ad 3b a8 f7 d5 bb f0 38 66 3c 1b 31 ea 3a
       0.005301298 -0.006529767 0.014051661 0.0017867418
000220 1e b2 2a 3c a8 d2 7b bb a4 9c ba bc 5f bf 2c 3c
       0.010418443 -0.0038425121 -0.02277977 0.010543673
000230 07 a4 67 3b c7 09 99 bc f4 25 15 3c 80 a4 dc 3b
       0.003534557 -0.01868142 0.009103287 0.006733477
000240 a0 4c da bb 3e 02 11 bb a5 62 37 3c d2 02 00 3c
       -0.0066619664 -0.002212658 0.011192952 0.007813172
000250 3f 8f 43 bc a9 14 a2 39 70 12 01 3b 05 bd e0 3b
       -0.011936008 0.0003091444 0.0019694827 0.0068584704
000260 fa 00 c2 bb 6d e7 81 3b 47 5d 52 3b a5 ac 21 3b
       -0.0059205266 0.0039643557 0.0032099055 0.0024669555
000270 5d 9e fa 3b 51 3b 18 3c 44 95 05 3c 08 4d 1d 3c
       0.007648273 0.009291486 0.0081532635 0.009600885
000280 08 73 9d 3a 52 a1 44 bb 77 e4 83 3b ab 13 a0 3b
       0.0012012431 -0.003000338 0.004025038 0.004885157
000290 8a e0 40 bc e7 f3 89 bc 19 f5 2f 3a 3f 4f 21 bc
       -0.011772284 -0.016839935 0.00067122426 -0.009845554
0002a0 45 04 bb bb b7 f4 0c 3b 18 eb 45 3c 7d b4 20 bc
       -0.005707296 0.0021508166 0.0120799765 -0.009808657
0002b0 74 b4 8e bc 8d e6 09 bc f2 84 ad bc ab 13 9b bc
       -0.017420031 -0.008416784 -0.021181557 -0.018930277
0002c0 55 80 db 3b 1c ed 90 3c 03 b6 8b 3a 5d dd 98 bb
       0.006698648 0.017691188 0.0010659102 -0.0046650604
0002d0 b9 96 a9 3b 4f 62 78 bb 45 2e 59 ba fb 83 29 3c
       0.0051754382 -0.0037900393 -0.0008284788 0.010346408
0002e0 6b 98 76 bb 86 32 0c 3c 4c a7 83 3b 57 c9 6e bb
       -0.003762747 0.008556968 0.004017746 -0.0036435926
0002f0 45 9a 5d ba 83 71 76 3b 1b 1f f2 ba 18 ba 7c 3b
       -0.0008453469 0.003760428 -0.0018472405 0.003856307
000300 83 62 81 bb 7b 04 83 bc 19 7b 26 bc 1f 7c d3 bc
       -0.003948511 -0.015993347 -0.010161185 -0.025816021
000310 a2 ad 24 3c 54 a7 14 3c 4a cf 14 3c f7 1b a0 bc
       0.010051163 0.009073097 0.009082625 -0.019544585
000320 20 86 0c bc 83 90 3c bc f5 67 df bb 66 48 b8 bc
       -0.0085769 -0.011509064 -0.0068178126 -0.02249546
000330 93 41 15 3b df 05 18 bb 4b 6a cd bb 76 b3 4b bc
       0.002277468 -0.0023196859 -0.0062687746 -0.012432924
000340 99 26 06 3a 98 8c b5 ba c0 e6 e8 bb 89 11 16 bc
       0.0005117446 -0.0013851104 -0.0071075857 -0.009159454
000350 b3 65 6e bc 18 dc 1d bb 9a 13 ed ba af 9e b7 ba
       -0.014550614 -0.0024087485 -0.0018087507 -0.0014009083
000360 67 92 45 ba ab f9 e9 3a 1d 56 eb bb df f9 81 bc
       -0.0007536769 0.0017850896 -0.0071818964 -0.015866218
000370 f7 36 a2 b9 2f be bf ba ff 01 a0 3b b4 fb ca 3a
       -0.0003094 -0.0014628823 0.0048830505 0.001548639
000380 c1 4b 04 3b 32 4a 78 bb ef f5 4c bb 8c e6 21 b8
       0.0020186754 -0.003788602 -0.0031274518 -3.8600105e-05
000390 b4 7c 8b 3c 4f 1d f5 bb e0 4b f9 3b b1 1f 3c bb
       0.017027237 -0.0074803005 0.007607922 -0.0028705413
0003a0 42 f3 18 3b 97 08 cd 3b 09 bb 2a bc e1 4e 1d 3c
       0.0023338352 0.0062571275 -0.010420569 0.009601326
0003b0 3b 0e 22 bc 2f aa 28 3c 77 ef 45 bc 25 99 0c bc
       -0.009891088 0.010294481 -0.012081019 -0.008581434
0003c0 53 50 67 bc 2d 5d e5 3b 15 13 61 3c 53 0a 07 3c
       -0.014118272 0.006999633 0.01373746 0.008242208
0003d0 fe d2 07 3c e0 31 bb b9 43 2a 40 3b d3 32 d4 3b
       0.008290051 -0.0003570458 0.0029322065 0.0064757853
0003e0 98 7b eb 3a e4 a7 9a 3b 81 41 a7 bb 53 2f e7 bb
       0.0017965911 0.004719721 -0.005104244 -0.007055202
0003f0 73 b7 4c 3c 8b 94 bb bb 75 80 29 bc 33 8d 90 3b
       0.01249491 -0.005724495 -0.010345568 0.0044113635

action_model._discrete_distribution.branches.1.bias f4 [3]
000000 00 00 00 00 00 00 00 00 00 00 00 00
       0.0 0.0 0.0

action_model._discrete_distribution.branches.2.weight f4 [3, 128]
000000 d4 31 00 ba 95 63 58 3c ac 37 1f 3c e8 27 fe 3b
       -0.00048902375 0.013207336 0.009717863 0.007756222
000010 a2 3e 7b bb 4d e1 35 3c 4d 8b a6 3c d3 f3 70 bc
       -0.0038336893 0.011101079 0.020330096 -0.01470657
000020 17 17 c8 3b 25 b3 77 3c f9 65 41 ba 9a d0 3f ba
       0.006106268 0.015118395 -0.0007377561 -0.0007317156
000030 9a 36 80 bc 8f e4 a4 3b c8 d5 27 bc ea 68 b8 3b
       -0.015651036 0.005032129 -0.0102438405 0.005627741
000040 93 f3 20 3b 2e 8b 18 bc dd 59 b8 3c 91 f6 2c 3a
       0.0024559244 -0.009310527 0.022503788 0.00065980206
000050 fb 35 3c 3b d7 ab c3 3a 7d d2 56 3b a1 4d 8d 3b
       0.0028718698 0.0014928532 0.003277927 0.0043122326
000060 93 72 3d 3c 66 64 3e bb 12 bc c9 bb 73 e3 9d bb
       0.011562961 -0.0029051541 -0.006156453 -0.004818374
000070 57 41 19 3a 19 e4 24 3b 9b 6a 2c 3c 49 5d 82 3b
       0.0005846223 0.002516037 0.010523464 0.0039784056
000080 b5 40 fb ba b3 5f 32 3c 37 4c 2e 3c 22 8b f3 3b
       -0.0019169064 0.010887074 0.010638288 0.0074323574
000090 17 90 d0 3a ab 77 c2 3c d5 61 e0 3a 92 03 37 3a
       0.0015912083 0.023738703 0.0017119 0.0006981428
0000a0 b3 1e 3b 3c 83 d1 dc bb 7f 9b 63 bc a7 02 e5 3b
       0.0114208935 -0.006738843 -0.013892054 0.0069888416
0000b0 95 d4 8e bb 08 04 37 3c 7a f4 b8 3b 49 96 9c bc
       -0.004358838 0.011170395 0.0056443783 -0.01911463
0000c0 bb c8 5f 3c 8d 4f 67 ba dc e7 81 bc a6 24 97 3c
       0.013658698 -0.00088238047 -0.01585763 0.018450093
0000d0 3f 1d 46 3b 9a 77 69 3a 9e c2 85 3a 4b 68 de ba
       0.0030229834 0.00089060667 0.0010205095 -0.0016968338
0000e0 cb 2f 46 39 c1 8a 49 ba 27 c3 39 bc bf 20 28 bc
       0.00018900556 -0.00076882174 -0.011338032 -0.0102617135
0000f0 0a 25 b7 bc b8 9d f2 39 83 60 fa b8 dd 14 d0 3b
       -0.022356529 0.00046275347 -0.00011938906 0.0063501433
000100 1e 1c 02 bc ef c2 2b 3a 27 d8 d1 3a d3 60 d8 bb
       -0.007941274 0.00065521797 0.0016009853 -0.006603339
000110 a7 57 11 3c f6 d8 32 bc 1b 97 8f 3a 0d ed 7b 3b
       0.008870996 -0.010915985 0.0010955067 0.0038440854
000120 d0 69 d2 bb c3 6d 7f bb 83 99 9d bb 12 80 0a ba
       -0.0064213052 -0.0038975335 -0.00480956 -0.0005283366
000130 43 44 12 bc a2 52 a1 3b fd 79 2c 3c c2 04 e6 3b
       -0.008927408 0.0049231807 0.010527131 0.00701961
000140 b2 23 ab bb b3 93 e3 bb 97 86 a7 3b 77 4d 8e bb
       -0.005222761 -0.0069450974 0.00511248 -0.0043427306
000150 c9 f6 4b 3b 2d 9c 88 b9 40 7a ff 3b 9c f5 0b 3c
       0.0031122437 -0.000260563 0.0077965558 0.008542445
000160 b8 49 5b ba 2f 57 3b 39 8a ac 56 3c d4 86 90 bc
       -0.0008365172 0.00017866188 0.01310266 -0.017642416
000170 d6 4b c7 bb 66 5e 37 3b 21 c8 8c bc 82 b7 69 3c
       -0.0060820384 0.002797985 -0.017185273 0.014264943
000180 f9 07 01 bb 2b 4a f4 bb 94 ba 41 3b 3e 5a 38 bb
       -0.001968859 -0.0074551306 0.0029560672 -0.002812996
000190 08 a1 75 3a ab 7e b9 bb 35 35 64 3a 4b b5 13 bc
       0.0009370004 -0.005660852 0.0008705438 -0.009015392
0001a0 8f 50 d7 3a 6c f6 86 3b 6a 9d c6 bb 45 fc d2 bb
       0.0016427207 0.0041187312 -0.0060612457 -0.0064387643
0001b0 f5 a4 5b bb f6 3d 2b bc 7f d2 ff bb e7 53 96 3c
       -0.003351507 -0.010451784 -0.0078070755 0.018350555
0001c0 2b c0 ee bb 5d 02 5f bb 2c bb 24 3c 1e a9 bd bc
       -0.007286092 -0.0034028508 0.010054391 -0.02315193
0001d0 d3 ce c0 3a a0 63 3d 3c fe 02 bc bb a2 6d 59 3c
       0.0014710076 0.011559397 -0.0057376614 0.013270767
0001e0 fc ed ac 3b 9b 74 15 bc df 79 0e 3c c4 e7 a7 39
       0.0052773934 -0.009122039 0.0086960485 0.000320254
0001f0 30 b6 39 bb 08 5b b3 3b 35 42 5a 3b ee 16 10 3b
       -0.0028337352 0.0054734983 0.0033303623 0.0021986323
000200 4a d1 88 bb bf 68 c5 bb 65 10 4f 3c 84 ed 0c 3c
       -0.00417534 -0.0060244496 0.012638186 0.00860155
000210 bb c4 05 39 f7 62 a0 3c a4 cc 2a bb 79 94 9d ba
       0.00012757156 0.01957844 -0.0026061917 -0.0012022398
000220 41 35 1f 3b 1f c1 fe ba 4b 03 b1 bb c2 43 a1 3b
       0.0024293216 -0.0019436217 -0.005402004 0.0049214074
000230 12 44 82 3b 8b f1 2d bc 7d bd f7 3a db fd b2 bb
       0.0039754 -0.01061667 0.0018901076 -0.005462391
000240 bf c4 71 ba c9 ea 47 3b 5f f5 88 3c bf e4 85 3c
       -0.0009222738 0.0030504933 0.016718565 0.016344426
000250 42 5b 5c bc 10 31 2d bc 9f ac 92 ba b1 89 9f bc
       -0.013449492 -0.010570779 -0.0011190361 -0.019474836
000260 33 6e 6f bb de 0a 84 bc d7 8c 45 bb 4b cf 86 3c
       -0.003653419 -0.016118463 -0.0030143762 0.016456267
000270 e3 0a b0 3a dd 79 a7 3b 75 41 e7 ba 3a 3c cf 3b
       0.0013430979 0.005110963 -0.0017643409 0.0063243182
000280 40 20 af 3b d0 60 58 3b 52 74 1c bc e9 ab 8a 3c
       0.0053444207 0.003301669 -0.009549217 0.016927676
000290 d9 db 1a bc 00 c6 c8 3b b7 d1 69 bc 17 f8 d3 3a
       -0.00945183 0.006127119 -0.014271191 0.0016171959
0002a0 67 9b d1 bb 6e 5a 01 39 c8 69 fa bb c5 5a 08 3b
       -0.006396699 0.00012336086 -0.0076420046 0.0020806056
0002b0 b2 de a4 bc 9b f2 e2 3b 4e 2e 1d bc 0f 82 35 3c
       -0.02012572 0.0069258935 -0.009593559 0.011078372
0002c0 c6 76 1e bb 83 97 53 3a 1e 6f a7 bc 59 50 b9 b9
       -0.0024179681 0.0008071588 -0.020438727 -0.00035345813
0002d0 f5 d8 c2 bb fd ae 80 bb 5f 5a 24 bb e0 31 f7 ba
       -0.0059462734 -0.00392711 -0.002507828 -0.0018859468
0002e0 30 91 86 bb 5c e6 1e bc 85 ba e2 3b 4e 43 c5 bb
       -0.004106663 -0.009698477 0.0069192075 -0.0060199862
0002f0 37 c2 1b 3b 26 d4 21 bb b8 c0 13 3c 7b 7b 02 3c
       0.0023766884 -0.00246931 0.009018116 0.00796401
000300 22 a5 e2 3b 08 47 d9 ba 88 23 26 3b df dd da 3b
       0.006916658 -0.0016576955 0.0025350768 0.006679281
000310 7b 1c 54 bb da c6 fd 3b b5 95 12 bc 12 3d 2c 3a
       -0.0032365608 0.007744652 -0.008946826 0.00065703795
000320 9d f5 7c 3b b3 6e 86 bc 00 a6 bd 3b ae 13 a8 bc
       0.0038598545 -0.016410207 0.005787611 -0.020517197
000330 c3 14 86 bb 57 70 9d bb b5 eb d7 ba 09 ce 3f 3c
       -0.0040918305 -0.0048046517 -0.0016473444 0.011706837
000340 d3 20 8d 3b 36 06 a0 3b 1c ae 12 bb e6 01 06 3c
       0.0043068915 0.004883553 -0.002238161 0.008179164
000350 97 a4 36 3b 08 31 5e ba ca 17 fe 3b e1 da 0c bc
       0.00278691 -0.0008475934 0.0077543007 -0.008597107
000360 5d fe 7e bc ce 24 9b 3a 0f 5d 71 bc ef ce 6e 3a
       -0.015563575 0.001183653 -0.01473166 0.0009109815
000370 b4 5e 0a bb e3 45 ef 3a e8 78 73 bc c8 b1 5b 3c
       -0.0021113576 0.0018255081 -0.014860369 0.013409086
000380 af 5d 1c 3c 9a 1d fc bb 10 1a 6b 3c 8b 04 94 39
       0.00954382 -0.0076939585 0.0143494755 0.00028232145
000390 1b 19 60 bc db b9 a1 ba 14 d5 04 3a 58 aa e4 3b
       -0.013677861 -0.0012338714 0.00050671515 0.0069783144
0003a0 dd f7 c4 3b bb bd 3c bc 94 0a 35 3c 0d 8c 1b 3c
       0.006010993 -0.011519845 0.011049885 0.00949384
0003b0 4a 14 93 b9 9a c8 da 3b 9d 20 c4 3a 75 4e 16 3b
       -0.0002805314 0.0066767456 0.0014963333 0.0022934948
0003c0 da f9 f4 bb d2 99 3f bb 6a a8 69 bc da 7a c6 bb
       -0.0074760737 -0.002923597 -0.014261344 -0.0060571255
0003d0 e1 08 4a 3c 41 fd 2b 3c 56 ab c5 3a 13 7c d7 bb
       0.012331218 0.010497392 0.0015080969 -0.00657607
0003e0 15 86 6b 3b 06 6f 09 3b bf 21 4a 3b f7 86 b7 3b
       0.0035938073 0.0020970716 0.0030842868 0.005600806
0003f0 95 05 73 3b 6b 1e 82 3c 90 7c e0 3b 3b 7a 06 3c
       0.0037082185 0.015883645 0.0068507865 0.008207853

action_model._discrete_distribution.branches.2.bias f4 [3]
000000 00 00 00 00 00 00 00 00 00 00 00 00
       0.0 0.0 0.0

action_model._discrete_distribution.branches.3.weight f4 [3, 128]
000000 bb 2b b5 bb d8 c7 e4 3b 17 ef 1e 3c 77 9e dd bb
       -0.0055288947 0.006981831 0.009700558 -0.0067632752
000010 93 fd c2 bb 6b 3b 18 bc 1f 27 6e 3a d8 3a 79 3c
       -0.0059506386 -0.00929151 0.0009084809 0.015211783
000020 b5 6e e6 bb 10 87 60 3c 8b d3 62 bc bc 6d aa bb
       -0.0070322403 0.013704076 -0.013844381 -0.0052010696
000030 02 43 cc 3b 1a e1 fc 3b 6f 64 e7 3a 3a 06 36 3c
       0.006233574 0.007717264 0.0017653833 0.011109883
000040 60 75 29 3b 3a 4c 1b bb 67 bb 73 bb 15 1e 88 bc
       0.0025857314 -0.0023696558 -0.0037190558 -0.016615907
000050 0e ad 8e 3c 5c f3 35 ba da 11 fc bb 83 18 91 bc
       0.017416503 -0.00069408654 -0.0076925578 -0.017711883
000060 6f 95 df 3a eb 4c 8a 3b d7 3b d8 ba 5f 0a 39 38
       0.0017058084 0.004220595 -0.0016497326 4.4117096e-05
000070 96 6d c9 bc 14 8d 84 bc 33 55 09 bc 27 60 ae bb
       -0.024588387 -0.016180553 -0.0083821295 -0.005321521
000080 5f c6 08 3c 33 12 97 bb 97 44 49 3b c0 b1 29 bb
       0.008348077 -0.004610324 0.0030711049 -0.00258933
000090 75 ac a8 3c 20 fd 05 bb 43 ff fc 3b 5a 65 73 bb
       0.020590046 -0.0020445064 0.0077208593 -0.0037139268
0000a0 7b e4 f4 ba 22 bf ec 3b 35 5c bb bb a0 45 39 bb
       -0.0018683815 0.0072249332 -0.005717779 -0.002827026
0000b0 38 8a d0 bb 3d 06 ed 3b ef b2 89 3b d9 0b 17 bc
       -0.006364133 0.0072334097 0.0042022387 -0.009219133
0000c0 0b a4 d5 3b 43 80 3c bc 6d 55 c7 3b 60 20 5f bc
       0.0065197996 -0.011505189 0.0060831816 -0.013618559
0000d0 6e d5 8c bc 77 38 53 3a ae c7 8b 3c b1 88 22 bc
       -0.017191615 0.0008057425 0.017062988 -0.009920285
0000e0 b8 ab de bb 28 2c f8 bb b5 ba 74 3c 93 9b 0d 3c
       -0.006795373 -0.007573623 0.014937093 0.008643049
0000f0 e2 3d 0b bc ed db e0 3b 31 ec 26 3b cf 53 bf ba
       -0.008498641 0.0068621547 0.002547037 -0.001459712
000100 72 77 62 3b 9e a1 c3 bb cd f1 73 3b ba f1 0b bc
       0.0034556058 -0.005970194 0.0037222982 -0.008541519
000110 1a 8c ba bb 03 6b 8e 3b 0e 60 84 bb 77 ae 9d bb
       -0.005692971 0.004346253 -0.004039771 -0.0048120576
000120 0f 5a dd 3a f9 e7 05 3c 7f 91 7c bc 8a e9 61 3c
       0.0016887801 0.008172982 -0.015415548 0.01378859
000130 b8 0b fd 3b 59 b7 45 3c 8b 3d 76 bc 88 44 cd 3a
       0.0077223442 0.012067639 -0.015029321 0.0015660683
000140 b4 6b bd 3a f7 7f 4e bb 70 78 72 3b e7 d7 22 3b
       0.0014451654 -0.0031509378 0.0036998056 0.0024847926
000150 90 10 8c bc 9f f3 46 ba 24 c9 30 3c 2f 3d e5 bb
       -0.017097741 -0.0007589403 0.010790143 -0.006995819
000160 e5 1f d3 3c 33 41 f8 3a 3f 8e bb bb 0b 54 0f bc
       0.025772044 0.0018940329 -0.005723744 -0.008748065
000170 da a8 10 bc 1f 8f 6c bb 82 16 12 bb 87 d3 0b 3a
       -0.00882932 -0.003609605 -0.0022291248 0.0005333949
000180 83 ef c6 bb f8 54 c3 bb 72 94 0e 3b fa 7c 30 3c
       -0.0060710325 -0.005961057 0.002175596 0.010771984
000190 15 9e 70 3c eb 94 e9 3b c7 1b 0c bb 8b e3 b2 bb
       0.014686127 0.007128348 -0.0021378861 -0.005459254
0001a0 64 43 3f 3c 72 65 1d bc 5f a8 a0 3b 92 45 55 3b
       0.011673782 -0.009606706 0.004902884 0.0032542688
0001b0 8f aa a0 ba a9 81 88 ba ce 12 85 3b af ac 04 3c
       -0.0012257862 -0.0010414618 0.0040610796 0.008097812
0001c0 ea 1e ea ba 51 1d 9e 3a 2d 22 7e bc e7 c9 06 bc
       -0.0017861996 0.001206318 -0.015511078 -0.008226848
0001d0 7a 66 e6 39 1b c3 97 ba c7 a0 c6 bb 8b cf b9 3b
       0.0004394537 -0.0011578532 -0.0060616466 0.005670493
0001e0 eb 88 29 3c 75 65 3f bb d2 b4 52 bb a1 c8 3e 3c
       0.010347585 -0.002920476 -0.0032151234 0.011644513
0001f0 5a ce 18 bc 08 8e 93 3b 0f dd c5 3b 66 19 02 bc
       -0.009326542 0.0045030154 0.006038315 -0.007940626
000200 53 18 8e b8 05 c9 98 ba 1b 78 6c 3b 2f 0e 11 3c
       -6.7756184e-05 -0.0011656588 0.003608233 0.008853479
000210 5f 34 2c bb 9d e6 10 bb 18 d4 6f 3c 13 8d 97 3b
       -0.0026276333 -0.0022110112 0.014637969 0.0046249717
000220 8f c9 3f 3c 90 2e 90 3b c5 e5 9f 3c 1f f7 3c bb
       0.01170577 0.004400082 0.019518742 -0.002883382
000230 e8 99 61 bc 7f 12 0f bb 3a 24 34 3c 93 a1 ae 3b
       -0.013769604 -0.0021831093 0.010994965 0.0053293197
000240 da 46 e4 3b 46 7e cb bb a6 9f b5 3a 23 e5 3d bb
       0.006966454 -0.0062101213 0.0013856783 -0.0028975687
000250 52 8c 8b bc 6e cb ad 3b f0 ec 99 bb 3d 37 15 bc
       -0.017034683 0.0053037917 -0.0046974346 -0.009107408
000260 bb b5 7c b9 e5 d2 c9 b8 95 7a f2 3b 98 d0 33 ba
       -0.00024100293 -9.623709e-05 0.007399867 -0.0006859391
000270 1a b8 84 3c dc e1 1e 3b c5 66 6e 3b 20 e8 19 bb
       0.016201068 0.002424351 0.0036377173 -0.0023484305
000280 cf 40 b0 3a 8a 30 5a 3c 17 42 13 bb 9f 2e 06 bc
       0.0013447049 0.013317237 -0.0022469813 -0.008189826
000290 f2 1e f2 3b 2d c9 17 bc 19 df aa 3b b5 62 e4 bb
       0.007388943 -0.009264273 0.0052145836 -0.0069697746
0002a0 e3 9c 82 ba bc c4 49 3c af 24 46 3c 0c b7 a0 bc
       -0.0009964969 0.012314972 0.012093707 -0.019618534
0002b0 cf 0b 14 3c 06 1b c1 b9 2a 4b 0b bc 9b 2c 8b bb
       0.0090360185 -0.00036831963 -0.008501807 -0.0042472607
0002c0 9f 7e c7 ba 4b 2c 82 3b 0d 0f d7 bb 95 2d 50 bb
       -0.0015220231 0.0039725653 -0.0065630735 -0.003176545
0002d0 40 30 fd ba 65 ec b6 bb bd 35 d3 3b f3 66 b9 ba
       -0.0019316748 -0.0055823796 0.006445615 -0.0014145061
0002e0 53 e6 31 bb 07 79 2e 3c b7 13 94 3c 0b 26 ad 3c
       -0.002714534 0.010648972 0.018075807 0.021136304
0002f0 9d eb 98 3c e3 25 a9 bb 07 08 f7 3b 8f 4d 48 3c
       0.018667037 -0.005161987 0.0075387987 0.012225523
000300 03 e8 21 3c b5 6d 4d bb 3f 21 ba 3a 97 ec ef 3b
       0.009881976 -0.0031345908 0.0014200582 0.007321905
000310 ed 49 c1 3b ed 52 84 bc 87 9b bb 3c d3 8b d4 3b
       0.005898705 -0.016152823 0.02290131 0.006486395
000320 6d 18 07 3b 9d df 66 3b 4d 9f b7 bc f2 48 fb 39
       0.0020613924 0.0035228499 -0.022414828 0.000479288
000330 6b ce 36 3c 13 03 62 bb bf 6f ff 3b 58 d5 5d 3c
       0.011157612 -0.0034486696 0.0077953036 0.013539635
000340 eb 38 16 bc 77 55 92 3a 17 cf 6d 3b 8b 71 94 37
       -0.009168844 0.0011164387 0.0036286765 1.7695847e-05
000350 a5 96 d8 39 a3 3c 3a ba 91 9c b0 bc 84 02 24 bc
       0.0004131097 -0.00071043725 -0.021559032 -0.010010365
000360 57 8a 58 3b d5 cc 7e 3c b2 cd 7d 3b 82 a4 e5 bb
       0.0033041441 0.015551765 0.003872734 -0.0070081363
000370 06 cd b9 3b d6 d6 01 bc 8b a4 27 bb 66 c9 2e 3c
       0.0056701927 -0.007924756 -0.0025580253 0.010668134
000380 7e 8c 87 bb d3 dd 30 3c 0c 5a 93 3c f6 d6 a2 bb
       -0.004136621 0.0107950745 0.017987274 -0.004969473
000390 cc 6b 17 3c 02 5c cb bb 6f af 9e 3a 4f 67 67 39
       0.009242009 -0.0062060365 0.0012106727 0.00022068362
0003a0 26 aa 8b 3c 75 c0 f7 bb 5d 0c e5 39 55 54 0b bc
       0.017048907 -0.0075607845 0.00043687495 -0.008503993
0003b0 d7 1b 2d bc 90 e1 a1 3b ae 5d 1b bc 7b 3b 89 3b
       -0.01056572 0.004940219 -0.009482784 0.004187999
0003c0 4d 56 eb bb ea 25 69 bb 44 8c 98 3b 40 65 f4 3b
       -0.0071819187 -0.0035575577 0.004655393 0.007458359
0003d0 95 11 02 bb 2d 52 62 3c 0c 94 12 3a 71 a2 22 bc
       -0.0019846905 0.013813538 0.0005591519 -0.009926424
0003e0 50 09 b9 ba bd 16 df 3b 9a 69 79 bb bb 18 ee bb
       -0.0014117155 0.0068081305 -0.0038057328 -0.0072661317
0003f0 7c 43 01 bd c0 96 4a bb c2 b6 1b 3c cd 6d 20 bc
       -0.0315585 -0.0030912608 0.009504022 -0.009791804

action_model._discrete_distribution.branches.3.bias f4 [3]
000000 00 00 00 00 00 00 00 00 00 00 00 00
       0.0 0.0 0.0
