results/FoodTarget_imitation_9/AgentPlayer/AgentPlayer-255637.onnx (onnx, 156066 bytes, 13 tensors)

action_model._discrete_distribution.branches.0.bias f4 [3]
-0.0062894262 0.004924745 0.0015732109
00000000: 8817 cebb c15f a13b 3334 ce3a

action_model._discrete_distribution.branches.0.weight f4 [3, 128]
-0.01273504 -0.001419162 0.017537624 -0.0008345494 -0.01228244 0.002135435 -0.009941744 -0.0026026687
-0.01975279 -0.0067698783 -0.00296801 -0.0156198125 0.009058183 0.012237879 -0.012870244 0.008681955
-0.018511185 -0.009754497 0.013557689 -0.016676573 0.016469965 0.0021660635 -0.009897475 0.0012069083
-0.009135822 -0.014144037 -0.010884919 -0.015597367 -0.006753163 0.009388305 -0.016110346 -0.019665025
0.005255427 0.005450631 -0.009692645 0.0057290653 0.0032988337 -0.004350444 -0.011586217 0.002181142
0.01307822 0.005208736 -0.020987261 0.02637441 -0.0060745412 0.0257652 -0.012293619 -0.006160154
-0.008264139 -0.024308944 -0.0052138055 -0.020509757 -0.003675474 -0.0017198226 -0.012465802 -0.015369961
-0.006087805 -0.0036276563 -0.0010701154 -0.012226848 0.012211523 -0.028245095 -0.013268167 -0.0006375721
-2.0558828e-05 -0.015196798 0.016872492 0.01833236 0.012999968 -0.0043699425 0.012123769 -0.022851601
-0.027876057 0.00075056584 -0.000983694 0.0036005592 0.009300716 -0.007239105 -0.0059634247 0.00790177
-0.0060909213 -0.016074814 -0.010897561 0.0016166309 -0.0010917665 -0.0010866061 0.032911845 -0.0019546167
0.006477934 0.014777019 -0.00413026 0.0012202738 -0.009637608 0.0035012695 0.005183562 0.009316255
-0.0088722855 -0.0025749449 0.018965054 0.021245118 -0.016260505 -0.004619619 -0.02957184 -0.023419376
-0.0034652725 -0.0072319815 0.0026175145 0.0005232942 -0.00897979 0.011013275 0.0029373777 0.021464353
0.004562192 -0.0023516475 -0.022169614 0.011638886 -0.0008790646 -0.006761483 0.0128027275 0.009478659
-0.011559439 -0.021313483 0.007861269 -0.014404672 -0.011268567 0.00019798162 0.0036619273 0.0033078992
-0.053150963 0.047400255 0.048502002 -0.06360871 0.018752055 -0.04625732 0.043367323 0.04546809
-0.08424682 -0.010228258 0.04830133 -0.008022366 -0.005333188 -0.015855588 -0.036656503 0.04009259
-0.02968157 -0.0070495205 0.03774559 0.030606769 -0.040225312 0.03609467 0.020478377 -0.041325368
-0.030599939 -0.027626602 0.01516126 0.06692809 0.02807592 0.056056954 -0.061555766 -0.050737858
-0.044536475 0.029916277 -0.0043066163 0.03483981 0.04611604 0.017535428 0.02221164 -0.074495055
-0.014684104 -0.0265941 0.046654418 0.049126975 -0.017812788 0.0332868 0.04282677 -0.027472893
-0.015755251 -0.024337802 -0.023880336 0.0036569359 0.0426635 0.054265026 -0.050008886 0.020595895
-0.018946884 -0.011297937 -0.02082806 -0.0540849 -0.052756015 0.035249133 -0.061320364 -0.030488485
0.015053663 0.07112315 0.030535253 0.061422728 -0.019442383 -0.031344898 0.054186683 -0.047612466
0.037385885 -0.08462524 0.039455067 -0.070455745 -0.07458101 0.055838093 0.03524374 0.031755526
-0.0063986527 -0.02287509 0.04375285 0.067626506 -0.0062174075 -0.04264851 -0.051473476 0.042329837
0.043184318 -0.042839095 0.06369427 -0.055132415 0.05252038 0.018667838 -0.072709985 -0.008685382
0.0040468923 -0.030895764 0.015335108 0.008953235 0.016455885 -0.031867035 0.04386336 0.06883419
-0.04563036 0.009107527 -0.023666682 -0.033109784 0.030417692 -0.01188703 -0.04203556 -0.017300386
-0.030587291 -0.044679068 0.049955744 -0.018833004 0.015764117 -0.0081430925 0.0065417713 -0.0303665
-0.0043889834 0.01187259 -0.012297249 -0.06756444 -0.008694849 -0.07756768 -0.02252215 0.04412758
00000000: a1a6 50bc 2d03 baba 10ab 8f3c aac5 5aba
00000010: 4a3c 49bc a7f2 0b3b b2e2 22bc 8991 2abb
00000020: 9ad0 a1bc dbd5 ddbb f282 42bb 3eea 7fbc
00000030: c668 143c 6381 483c b7dd 52bc c23e 0e3c
00000040: c5a4 97bc 53d1 1fbc 1221 5e3c 4f9d 88bc
00000050: 05ec 863c 84f4 0d3b 0529 22bc 1f31 9e3a
00000060: 6aae 15bc 64bc 67bc a956 32bc 198c 7fbc
00000070: a349 ddbb 68d1 193c d8f9 83bc 8c18 a1bc
00000080: b835 ac3b 359b b23b e6cd 1ebc e2ba bb3b
00000090: 3f31 583b 2b8e 8ebb 1ed4 3dbc 7ef1 0e3b
000000a0: 0846 563c 0bae aa3b 7aed abbc 260f d83c
000000b0: f20c c7bb 8a11 d33c 2d6b 49bc 1edb c9bb
000000c0: 5066 07bc 8d23 c7bc 92d8 aabb 1404 a8bc
000000d0: 39e0 70bb ac6b e1ba 5d3d 4cbc 4ad2 7bbc
000000e0: 367c c7bb f9bd 6dbb 1d43 8cba 1e53 48bc
000000f0: d712 483c 4262 e7bc ba62 59bc bd22 27ba
00000100: bf75 acb7 fefb 78bc 2e38 8a3c bf2d 963c
00000110: d1fd 543c bc31 8fbb c6a2 463c 4833 bbbc
00000120: 545c e4bc 9fc1 443a 4bef 80ba 5cf7 6b3b
00000130: 0862 183c 0436 edbb d568 c3bb 6d76 013c
00000140: 5a96 c7bb 54af 83bc af8b 32bc 22e5 d33a
00000150: 9b19 8fba 736c 8eba 92ce 063d 0719 00bb
00000160: d944 d43b 4f1b 723c 2257 87bb 98f1 9f3a
00000170: 0fe7 1dbc 8e75 653b dfda a93b 35a3 183c
00000180: 105d 11bc 68c0 28bb 9a5c 9b3c 3e0a ae3c
00000190: c034 85bc 2c60 97bb a540 f2bc fed9 bfbc
000001a0: a019 63bb 42fa ecbb 9b8a 2b3b ae2d 093a
000001b0: f81f 13bc 0671 343c 0581 403b 03d6 af3c
000001c0: 717e 953b 191e 1abb 0d9d b5bc 07b1 3e3c
000001d0: 0771 66ba 6e8f ddbb 88c2 513c 614c 1b3c
000001e0: cd63 3dbc 9d99 aebc 8dcc 003c 9301 6cbc
000001f0: cc9f 38bc 4999 4f39 f2fc 6f3b 57c9 583b
00000200: d3b4 59bd c526 423d 09aa 463d 4945 82bd
00000210: e99d 993c 5178 3dbd efa1 313d bf3c 3a3d
00000220: 9989 acbd 6c94 27bc 9ed7 453d 3e70 03bc
00000230: 06c2 aebb 94e3 81bc 2125 16bd 2138 243d
00000240: c426 f3bc aaff e6bb 1f9b 1a3d 0cbb fa3c
00000250: 4cc3 24bd 01d8 133d 45c2 a73c ca44 29bd
00000260: b9ac fabc 2f51 e2bc ef66 783c 9811 893d
00000270: 79ff e53c fa9b 653d e621 7cbd 80d2 4fbd
00000280: e16b 36bd fb12 f53c 841e 8dbb 30b4 0e3d
00000290: 2ce4 3c3d 75a6 8f3c 2ff5 b53c dd90 98bd
000002a0: 9995 70bc dfdb d9bc b418 3f3d 5e39 493d
000002b0: 20ec 91bc bd57 083d 206b 2f3d d50e e1bc
000002c0: 2811 81bc 1260 c7bc b2a0 c3bc 34a9 6f3b
000002d0: ecbf 2e3d 0145 5e3d 1ed6 4cbd b9b8 a83c
000002e0: 7f36 9bbc fb1a 39bc 9c9f aabc 2188 5dbd
000002f0: b116 58bd 6561 103d 102b 7bbd fdc2 f9bc
00000300: a4a3 763c 04a9 913d 1125 fa3c 6696 7b3d
00000310: a245 9fbc 8263 00bd dbf2 5d3d 4a05 43bd
00000320: f121 193d ff4f adbd a39b 213d 1a4b 90bd
00000330: eebd 98bd 7cb6 643d bd5b 103d 1512 023d
00000340: caab d1bb 8a64 bbbc 3036 333d c47f 8a3d
00000350: 65bb cbbb 34b0 2ebd dad5 52bd 0d62 2d3d
00000360: 0ae2 303d 0c78 2fbd 2472 823d 87d2 61bd
00000370: 9c1f 573d 4bed 983c f9e8 94bd 224d 0ebc
00000380: cb9b 843b 1d19 fdbc 1b40 7b3c 97b0 123c
00000390: 7ece 863c 0287 02bd 11aa 333d f1f8 8c3d
000003a0: e6e6 3abd bd37 153c a1e0 c1bc 209e 07bd
000003b0: 862e f93c d1c1 42bc 7b2d 2cbd 8ab9 8dbc
000003c0: 3392 fabc 6601 37bd 659e 4c3d ac47 9abc
000003d0: c023 813c 9b6a 05bc 5b5c d63b 2bc3 f8bc
000003e0: 76d1 8fbb 4085 423c 677a 49bc 3a5f 8abd
000003f0: d774 0ebc cedb 9ebd 5f80 b8bc 1fbf 343d

action_model._discrete_distribution.branches.1.bias f4 [3]
-0.014124739 0.0036161086 0.0106846765
00000000: 736b 67bc 3cfc 6c3b c80e 2f3c

action_model._discrete_distribution.branches.1.weight f4 [3, 128]
0.0003071949 -0.027430052 -0.012020866 -0.00093999674 -0.015041652 -0.010133838 -0.0006982361 -0.038016107
-0.0042895186 -0.017627057 -0.014898146 -0.015131851 0.0012123765 0.005178768 0.016002947 -0.030781437
-0.0071295802 -0.007432999 -0.011871517 -0.011884176 -0.013867034 -0.0356679 -0.021888806 0.020509657
4.9628716e-06 0.0056000515 -0.0050925463 -0.010366668 -0.020194352 -0.015446956 -0.011263987 -0.028422277
0.0020658595 -0.013409294 -0.02501749 -0.0068146945 -0.0418324 -0.0132628 -0.012009032 -0.0034898077
0.017241022 -0.014171924 -0.013689118 -0.015928028 -0.014677999 -0.015638636 0.0028997578 -0.023708092
-0.02099271 -0.0022763216 0.0077934293 -0.00429809 -0.03316707 -0.003276322 0.0014796295 -0.011168129
-0.02441348 0.017112738 -0.032199226 0.0076684034 -0.0060190377 -0.010745027 0.009040576 -0.0039140056
-0.016171241 -0.027519224 -0.023430504 -0.03014323 -0.012728279 -0.016219052 -0.028646206 0.0010181654
-0.007876194 -0.0044865366 -0.048501186 -0.0021794448 -0.0022970778 -0.009642423 -0.032073047 -0.025634347
-0.010366923 0.0033262072 0.022673389 -0.0130487 -0.009850654 0.006029941 -0.0021534616 -0.03723628
-0.010118076 0.010321476 -0.012669134 0.0053233937 -0.028005125 0.008925789 -0.0053968597 0.009572764
-0.037789546 -0.0013274957 -0.021740291 0.020604637 -0.005027042 -0.0140040545 -0.011365866 -0.031945836
-0.0050569903 -0.017175177 -0.030682798 0.0149712935 -0.03417062 -0.010221985 -0.00514801 6.112937e-05
0.019522801 0.025502175 -0.007467889 -0.008506928 -0.026690554 -0.016143141 -0.028558277 -0.003971047
-0.015547671 -0.016875323 -0.007656129 0.009773861 -0.03773346 -0.0049958304 -0.005942654 -0.026146185
-0.0019156553 0.014769417 0.028537156 0.006630854 0.07644227 0.038780484 0.081134796 0.00028037425
0.04225236 0.016225895 -0.053590246 -0.021820614 -0.062638655 2.3530576e-05 0.03218513 0.036012106
0.01707401 0.07342343 -0.03430327 0.053755246 -0.10173898 -0.016137887 -0.05008885 0.030537969
0.004513792 0.0028140533 -0.059144743 0.043765135 0.004602824 -0.022671843 0.030964114 0.022380348
0.011736859 0.053301435 0.031369004 -0.038447298 0.017611638 0.04232462 0.034130424 0.018861879
-0.021143883 -0.044029295 0.047244005 -0.019570172 -0.08169815 -0.025796933 0.06426678 -0.05544002
0.06793844 0.04646373 0.048447985 0.06506747 0.017986687 -0.055058673 0.010410567 0.03717682
0.04448504 0.045283288 -0.09416826 -0.002487531 -0.079424724 0.050253455 -0.010390847 0.063033774
-0.051548224 0.052153714 -0.008487123 -0.019411225 0.05552171 -0.043236516 0.00079611165 -0.023614595
-0.0071125706 -0.038679868 0.013204796 -0.054712527 -0.021072624 0.025847267 -0.09493151 -0.031779014
-0.05178848 0.04363654 0.033606973 0.09770906 -0.068726055 0.06844485 -0.039860506 0.010062586
-0.02311755 -0.051030733 0.0049097757 -0.011289032 -0.015541975 -0.011089484 0.010910531 0.019056724
-0.08135187 -0.054185178 -0.06154122 -0.0043811714 0.04662115 0.0912368 0.028440751 0.042881913
-0.06756427 -0.08676765 -0.09188002 -0.031191487 0.046009887 -0.04371509 -0.049963605 -0.065229245
-0.045057412 0.045479983 0.08086174 -0.07576438 -0.031224454 0.074255705 -0.071160436 -0.074786074
-0.06467034 0.09684956 -0.03144001 -0.06486406 0.057802286 -0.06977331 0.07572184 -0.06223257
00000000: 000f a139 fdb4 e0bc 2bf3 44bc 1d6a 76ba
00000010: 4371 76bc 6608 26bc d509 37ba c7b6 1bbd
00000020: 178f 8cbb 9e66 90bc 5a17 74bc 95eb 77bc
00000030: 9be8 9e3a a8b2 a93b 9d18 833c 5a29 fcbc
00000040: 419f e9bb 8490 f3bb c080 42bc d9b5 42bc
00000050: 8e32 63bc 8118 12bd 2750 b3bc de03 a83c
00000060: be86 a636 a380 b73b 60df a6bb f5d8 29bc
00000070: a06e a5bc 3b15 7dbc 968c 38bc d6d5 e8bc
00000080: 5f63 073b a8b2 5bbc 7bf1 ccbc cd4d dfbb
00000090: 7358 2bbd 374c 59bc 88c1 44bc 42b5 64bb
000000a0: 0b3d 8d3c 5c31 68bc 5348 60bc 7f7b 82bc
000000b0: fd7b 70bc 991c 80bc dd09 3e3b 7937 c2bc
000000c0: e7f8 abbc 572e 15bb 0660 ff3b fed6 8cbb
000000d0: 32da 07bd 90b7 56bb 21f0 c13a 87fa 36bc
000000e0: c7fe c7bc 0330 8c3c 56e3 03bd 3b47 fb3b
000000f0: 593b c5bb e90b 30bc ed1e 143c 0f41 80bb
00000100: 8d79 84bc ff6f e1bc 54f1 bfbc efee f6bc
00000110: 468a 50bc d1dd 84bc 73ab eabc f673 853a
00000120: 270b 01bc cc03 93bb 2ea9 46bd 04d5 0ebb
00000130: 928a 16bb 41fb 1dbc 075f 03bd 1fff d1bc
00000140: 07da 29bc 7ffc 593b 8bbd b93c 37ca 55bc
00000150: a364 21bc d096 c53b 1721 0dbb 1285 18bd
00000160: 49c6 25bc 681b 293c 3392 4fbc dd6f ae3b
00000170: 016b e5bc 793d 123c 24d8 b0bb 15d7 1c3c
00000180: 36c9 1abd 5dff adba b218 b2bc 0ecb a83c
00000190: e2b9 a4bb 4371 65bc e637 3abc a3d9 02bd
000001a0: 1cb5 a5bb f5b2 8cbc 7e5a fbbc 284a 753c
000001b0: 7ef6 0bbd 1d7a 27bc a3b0 a8bb 9532 8038
000001c0: 48ee 9f3c f0e9 d03c 32b5 f4bb a460 0bbc
000001d0: 26a6 dabc 9f3e 84bc 0cf3 e9bc 8e1f 82bb
000001e0: a9bb 7ebc 1e3e 8abc 44e0 fabb 8b22 203c
000001f0: 678e 1abd 10b4 a3bb 98ba c2bb 8630 d6bc
00000200: ba16 fbba 6dfb 713c c1c6 e93c a347 d93b
00000210: c48d 9c3d 49d8 1e3d 002a a63d 32ff 9239
00000220: d010 2d3d 2bec 843c 7281 5bbd 25c1 b2bc
00000230: b248 80bd 8763 c537 8ed4 033d 6e81 133d
00000240: cbde 8b3c 065f 963d 9681 0cbd 762e 5c3d
00000250: 875c d0bd 9a33 84bc f729 4dbd c32a fa3c
00000260: 6fe8 933b fb6b 383b c241 72bd 1243 333d
00000270: 49d3 963b 4dba b9bc 74a8 fd3c fe56 b73c
00000280: f44b 403c 9b52 5a3d c97c 003d ea7a 1dbd
00000290: 4846 903c 955c 2d3d 58cc 0b3d 3a84 9a3c
000002a0: f035 adbc 1058 34bd ee82 413d a051 a0bc
000002b0: 5c51 a7bd 1754 d3bc 4d9e 833d 1315 63bd
000002c0: 4f23 8b3d c150 3e3d 6571 463d 1842 853d
000002d0: d158 933c 3485 61bd 1591 2a3c b946 183d
000002e0: f235 363d f87a 393d 4adb c0bd d805 23bb
000002f0: 6ea9 a2bd 91d6 4d3d 5f3e 2abc da17 813d
00000300: 3b24 53bd 229f 553d 930d 0bbc 4a04 9fbc
00000310: bc6a 633d c618 31bd 26b2 503a 6573 c1bc
00000320: 9110 e9bb c86e 1ebd ee58 583c 3e1a 60bd
00000330: 7fa0 acbc a6bd d33c 746b c2bd b62a 02bd
00000340: 2820 54bd 3bbc 323d 77a7 093d b01b c83d
00000350: 3fc0 8cbd d02c 8c3d c544 23bd 8bdd 243c
00000360: 0461 bdbc 9a05 51bd 2fe2 a03b a2f5 38bc
00000370: c5a3 7ebc abb0 35bc 15c2 323c d91c 9c3c
00000380: cf9b a6bd 47f1 5dbd a512 7cbd ee8f 8fbb
00000390: d2f5 3e3d 5cda ba3d 94fc e83c f2a4 2f3d
000003a0: 235f 8abd 3db3 b1bd 982b bcbd 4a85 ffbc
000003b0: dd74 3c3d 980e 33bd a3a6 4cbd e996 85bd
000003c0: 1f8e 38bd 3849 3a3d d79a a53d 5b2a 9bbd
000003d0: 6dca ffbc 6013 983d 90bc 91bd 7129 99bd
000003e0: e271 84bd 1059 c63d 3dc7 00bd 73d7 84bd
000003f0: 17c2 6c3d 4fe5 8ebd 0d14 9b3d 94e7 7ebd

action_model._discrete_distribution.branches.2.bias f4 [3]
0.013174898 -0.014872794 0.0018181164
00000000: 87db 573c 05ad 73bc dd4d ee3a

action_model._discrete_distribution.branches.2.weight f4 [3, 128]
-0.014727469 0.01070392 0.0027706418 0.012780571 0.003704037 0.015403413 0.007995381 0.012722463
-0.0014329404 0.009495621 -0.0027987526 0.012314518 -0.016583592 -0.00016346261 -0.0041405484 0.010051907
0.021324866 0.012362804 -0.025591658 0.011011761 -0.006242153 0.01840626 -0.003298467 0.016173415
0.018644968 -0.008235427 -0.013509653 0.002398254 0.0037511985 0.0013431348 0.016642364 0.005150487
0.028163714 -0.0041161533 0.013852588 -0.0029330156 0.017994186 0.015279795 0.011833441 0.007983662
-0.0111981 0.01586742 0.016517267 -0.0069765337 -0.01361862 -0.010943248 -0.0067055235 -0.0130911255
0.020375596 0.009506214 0.00968728 0.020151068 0.009489753 -0.011262592 0.01587551 0.0045490377
0.0056563867 -0.013445686 -0.009512415 0.0015248563 0.0044171284 0.0016222609 0.0029909487 0.007739978
-0.0058937906 -0.009013691 0.002517209 -0.0004963269 0.025003098 0.007036008 0.0025675641 0.009701536
0.005194967 0.009953443 0.015014602 -0.011245412 0.0055699917 -0.021092903 -0.014132444 0.0042869765
0.0026438676 0.009102219 -0.01174601 0.013851667 -0.00931866 0.010679874 -0.010488026 0.00514552
0.012071316 -0.018731998 -0.0047279666 0.021256706 -0.012909252 -0.01556573 0.02319865 -0.0087776985
-0.013874064 0.002440682 -0.011482746 -0.009696407 -0.016940422 0.004217315 0.007572676 0.0046237325
0.021140125 -0.013082904 -0.006169913 -0.00039083618 -0.0038873379 -0.002806292 0.0011896747 0.0018913448
-0.0033427055 0.009015141 0.018932154 -0.022808505 -0.0013804191 0.0088105565 0.016226713 0.0022178143
-0.011049907 0.002482735 -0.011127202 0.008059924 0.006090182 0.009412346 0.0033799254 0.000918446
-0.009563567 0.016770445 0.012366335 0.005481852 -0.0056289397 0.004219816 -0.025616204 -0.0024126319
-0.011338429 -0.008267378 0.0042700307 -0.011086286 -0.000528355 -0.009827381 -0.0030850521 -0.03619852
-0.011243931 0.00021935576 0.015627937 0.002891416 0.022414057 -0.010284931 -0.015949985 0.01052463
-0.015260643 -0.014255282 0.007304729 0.011069333 -0.004910895 0.01701219 -0.02161635 -0.03858239
-0.004418454 -0.0193068 -0.012690691 -0.0059386906 0.0011531321 0.006965588 0.0073711085 0.00432674
0.012731308 0.0045722 -0.026712108 0.005828802 0.0067323386 0.00043989773 0.0067997943 0.001551331
-0.027959755 0.0002822982 -0.021926025 -0.017254137 -0.01875765 0.020090861 -0.009756446 -0.011446313
-0.0040391553 -0.004252595 -0.0078511555 0.004041548 0.011067027 -0.0008180095 0.0030257993 -0.026400363
-0.009866893 -0.0007224433 -0.00093199627 -0.007788801 -0.029163899 -0.0070080627 0.0066951206 -0.0135338865
-0.016955571 0.0065590763 -0.011556108 0.01452117 0.020642975 -0.009926397 0.0029903625 0.016041715
-0.024390254 -0.00624 -0.0046851146 -0.00276354 0.009016699 -0.004876459 0.02138492 0.002040853
0.0009714092 0.020560483 0.008141032 -0.0065394617 0.008476786 0.00766161 0.005500447 0.008738115
-0.0025789244 0.009616141 -0.0042321435 0.023961931 0.0025728403 -0.012663032 -0.013092782 -0.025368793
0.0028663033 0.013346183 0.012640163 0.019189926 -0.021065172 0.003233211 -0.008870757 -0.0023098998
-0.0011107352 0.019205628 -0.023924297 -0.004928049 -0.028689824 -0.021418469 0.00010498029 -0.0063761217
0.0044857566 -0.0031076989 0.024458962 -0.001981561 -0.023858713 0.002621058 -0.0023638478 0.011672715
00000000: 7b4b 71bc 7f5f 2f3c a893 353b 9a65 513c
00000010: 6ebf 723b 995e 7c3c 0fff 023c e171 503c
00000020: 80d1 bbba 8593 1b3c 476b 37bb d5c2 493c
00000030: 50da 87bc 2967 2bb9 70ad 87bb c1b0 243c
00000040: 7cb1 ae3c 5c8d 4a3c 99a5 d1bc ac6a 343c
00000050: f98a ccbb bac8 963c 182b 58bb 1c7e 843c
00000060: 55bd 983c e2ed 06bc 9757 5dbc 062c 1d3b
00000070: abd6 753b 200c b03a 9155 883c 6bc5 a83b
00000080: 97b7 e63c cce0 86bb f7f5 623c d637 40bb
00000090: 8b68 933c 1b58 7a3c 0de1 413c e8cd 023c
000000a0: 3c78 37bc 64fc 813c 384f 873c 689b e4bb
000000b0: a220 5fbc 4f4b 33bc 02ba dbbb 297c 56bc
000000c0: b9ea a63c f4bf 1b3c 66b7 1e3c da13 a53c
000000d0: e97a 1b3c bc86 38bc 5c0d 823c 1810 953b
000000e0: 3659 b93b 4b4b 5cbc f6d9 1bbc b0dd c73a
000000f0: 8fbd 903b 0ba2 d43a cb03 443b a49f fd3b
00000100: b320 c1bb 29ae 13bc c2f7 243b ef1b 02ba
00000110: 4cd3 cc3c 508e e63b 9444 283b 31f3 1e3c
00000120: 8b3a aa3b c413 233c ceff 753c ad3e 38bc
00000130: 7a84 b63b 06cb acbc c48b 67bc c479 8c3b
00000140: bd44 2d3b 7921 153c 5672 40bc 1af2 623c
00000150: 4bad 18bc a3fa 2e3c f8d5 2bbc c09b a83b
00000160: c5c6 453c d973 99bc 0fed 9abb 8b22 ae3c
00000170: 5481 53bc 6707 7fbc 180b be3c 56d0 0fbc
00000180: 0b50 63bc d9f3 1f3b 2122 3cbc aedd 1ebc
00000190: a4c6 8abc 6731 8a3b 3624 f83b ae82 973b
000001a0: 0e2e ad3c ad59 56bc fb2c cabb 25e9 ccb9
000001b0: b5c2 7ebb c4e9 37bb dcee 9b3a 00e7 f73a
000001c0: 4b11 5bbb 3eb4 133c 9b17 9b3c e7d8 babc
000001d0: 2eef b4ba 275a 103c e2ed 843c c058 113b
000001e0: ab0a 35bc 62b5 223b de4e 36bc c50d 043c
000001f0: 2690 c73b 3e36 1a3c bd81 5d3b dec3 703a
00000200: 82b0 1cbc 2c62 893c 2b9c 4a3c 1ca1 b33b
00000210: f872 b8bb 6246 8a3b 13d9 d1bc 3f1d 1ebb
00000220: d1c4 39bc e673 07bc 9deb 8b3b 41a3 35bc
00000230: 4e81 0aba 0603 21bc 962e 4abb e644 14bd
00000240: 7738 38bc dd02 6639 2906 803c e97d 3d3b
00000250: af9d b73c 2182 28bc 8ba9 82bc 7f6f 2c3c
00000260: c707 7abc fc8e 69bc 825c ef3b 265c 353c
00000270: 93eb a0bb 265d 8b3c c614 b1bc 9108 1ebd
00000280: aec8 90bb 4b29 9ebc 9eec 4fbc 5999 c2bb
00000290: b124 973a 963f e43b 5789 f13b 53c7 8d3b
000002a0: fa96 503c 65d2 953b 5ad3 dabc 89ff be3b
000002b0: f39a dc3b 13a2 e639 cfd0 de3b 0856 cb3a
000002c0: db0b e5bc 6c01 9439 359e b3bc 8c58 8dbc
000002d0: a5a9 99bc 9795 a43c 80d9 1fbc 5189 3bbc
000002e0: e45a 84bb 5a59 8bbb 22a2 00bc f66e 843b
000002f0: 7a52 353c b06f 56ba 7d4c 463b 9345 d8bc
00000300: c0a8 21bc 5962 3dba 3651 74ba 3339 ffbb
00000310: 21e9 eebc e4a3 e5bb be62 db3b 3cbd 5dbc
00000320: 69e6 8abc 85ed d63b d455 3dbc 34ea 6d3c
00000330: 751b a93c 54a2 22bc f5f9 433b ea69 833c
00000340: 12ce c7bc ea78 ccbb 9785 99bb 821c 35bb
00000350: c7ba 133c b4ca 9fbb 6e2f af3c d5bf 053b
00000360: 2ba6 7e3a 756e a83c f761 053c fb48 d6bb
00000370: 38e2 0a3c 3e0e fb3b 183d b43b 502a 0f3c
00000380: 2c03 29bb 058d 1d3c cbad 8abb d04b c43c
00000390: 199d 283b 9b78 4fbc 1c83 56bc 37d2 cfbc
000003a0: 97d8 3b3b f3a9 5a3c b018 4f3c 3134 9d3c
000003b0: de90 acbc 48e4 533b a756 11bc b061 17bb
000003c0: 1796 91ba 1f55 9d3c e3fc c3bc 797b a1bb
000003d0: ec06 ebbc c975 afbc dd28 dc38 c9ee d0bb
000003e0: 41fd 923b 89aa 4bbb 295e c83c 14dd 01bb
000003f0: 5973 c3bc 0ec6 2b3b c9ea 1abb ea3e 3f3c

action_model._discrete_distribution.branches.3.bias f4 [3]
0.010243077 -0.0032773556 -0.008008676
00000000: 94d2 273c e7c8 56bb d236 03bc

action_model._discrete_distribution.branches.3.weight f4 [3, 128]
0.0002934337 -0.02493559 0.010391393 -0.0064002806 0.01855229 -0.0034845124 0.024343047 0.014682389
0.0039230976 0.014045311 -0.011004358 0.01111727 -0.01408491 0.011456813 -0.012826246 -0.013242097
-0.024281034 -0.0029722713 -0.029963128 0.0054639117 -0.021155389 -0.020096019 -0.017145867 0.004570325
0.024979888 -0.0011264518 0.011296562 -0.0026757044 -0.016880313 -0.024521057 -0.0036707188 0.006248473
-0.0091462955 0.009226222 0.028618254 -0.009230794 0.009949766 -0.007004531 0.021199888 -0.010215767
-0.03455079 0.012537321 0.029613798 -0.015866673 -0.035004377 0.0053777355 0.016298678 -0.01037408
0.023735987 0.027720416 0.013496931 0.010835694 0.02204404 0.005478494 -0.00105776 0.044309977
0.019611636 0.020991514 -0.014121207 -0.0036117043 -0.025135312 0.013947704 -0.010149513 0.021009943
0.017301597 0.0062917224 -0.013342856 -0.015599987 -0.0045198305 -0.009490604 -0.014973911 0.019586995
0.011244814 -0.0010183281 -0.019175975 -0.0099268295 -0.018429099 -0.016848352 -0.026565557 -0.015857773
0.013184044 0.026034797 -0.015776938 -0.0049196016 -0.0285105 0.0004698178 -0.048335668 0.010102
-0.019643372 0.00028499583 -0.013438268 -0.005636748 -0.03154312 -0.0096898945 0.0108343605 0.0035945205
-0.015407621 -0.018375644 -0.0066352854 -0.0058616903 -0.0031723618 0.030794788 -0.00026697578 0.012209327
-0.00644366 -0.02855306 -0.009287523 -0.0153129 0.021927191 -0.017570797 -0.013408856 -0.017147647
-0.002389155 0.002739846 0.008972804 -0.027192058 -0.023327382 0.026995216 0.0015861926 0.003702499
-0.014550895 0.006300605 0.004704903 -0.017724082 0.01781894 -0.038998425 -0.0063085547 -0.014093088
-0.004966098 0.002730203 -0.018856412 0.004640817 -0.013168223 0.0036089774 -0.022494165 -0.014296419
0.00785455 -0.012156332 0.012614312 0.0030438118 0.04580776 -0.003491279 -0.00031909236 -0.0070142928
-0.007666904 -0.0044297636 0.022933483 0.0059240316 0.029624227 0.011227361 0.016806616 0.0031294888
-0.012752585 0.0087204855 0.0029540418 -0.0029753256 -0.0062421374 0.018234843 0.015185972 0.027036559
-0.0012617956 -0.020122474 -0.013675178 0.0069554476 0.0012105858 -0.003348915 -0.02966954 0.011013963
0.0010554638 0.011763808 -0.03471903 -0.001557378 0.023811385 0.006082391 0.0019124448 0.026057923
0.0022607173 0.0078110443 -0.008491214 -0.003688337 -0.0069243102 0.00045231226 -0.007942582 -0.020266581
0.0013753909 0.005750715 0.022121819 0.002568673 0.033518337 -0.031750116 0.026042549 -0.017373417
-0.0107601695 -0.0028523153 0.0107254 0.020788798 0.00040235408 0.025864344 0.012953167 -0.0031729832
-0.0056114974 0.019772867 -0.00080235756 0.014297717 0.014406875 -0.0046549304 0.0094069755 0.020432169
0.014881684 -0.031646866 -0.003196382 -0.012726707 0.04187601 0.00044220002 0.027526071 -0.013292312
0.011975849 -0.0051244213 0.00926038 0.013457834 0.013709906 0.009695604 0.013361545 -0.011916974
0.015445521 0.029745232 0.015708499 -0.004670478 -0.010263341 -0.0012573688 -0.028265473 0.0024533472
0.0042274785 0.0138338255 0.023683295 0.027672604 -0.008367125 0.02669514 0.016366998 0.0038631076
0.018525248 -0.02492679 -0.039920777 0.022870854 0.008544286 -0.010874582 0.01343834 0.01977549
0.0238317 -0.006534081 0.020633373 0.02481792 -0.010346207 0.04750798 -0.023920324 0.01965328
00000000: 01d8 9939 b945 ccbc a940 2a3c 72b9 d1bb
00000010: f9fa 973c 6b5c 64bb 126b c73c 678e 703c
00000020: 548d 803b 4e1e 663c 9f4b 34bc 3625 363c
00000030: 65c4 66bc 5bb5 3b3c 2d25 52bc 61f5 58bc
00000040: 05e9 c6bc 70ca 42bb 3c75 f5bc 9d0a b33b
00000050: 114e adbc 68a0 a4bc 7d75 8cbc aac2 953b
00000060: 9fa2 cc3c 73a5 93ba 3715 393c df5a 2fbb
00000070: 9548 8abc 62e0 c8bc 7190 70bb febf cc3b
00000080: 58da 15bc 9429 173c d470 ea3c c23c 17bc
00000090: 5804 233c 4486 e5bb 63ab ad3c 0860 27bc
000000a0: 2185 0dbd 5669 4d3c a398 f23c d3fa 81bc
000000b0: c060 0fbd b737 b03b ce84 853c 0cf8 29bc
000000c0: f971 c23c ed15 e33c 3b22 5d3c 3288 313c
000000d0: b495 b43c f084 b33b 89a4 8aba 617e 353d
000000e0: 95a8 a03c 65f6 ab3c a35c 67bc 58b2 6cbb
000000f0: 92e8 cdbc e984 643c 254a 26bc 0b1d ac3c
00000100: 14bc 8d3c cb2a ce3b ff9b 5abc 1697 7fbc
00000110: 161b 94bb 7a7e 1bbc 2355 75bc e874 a03c
00000120: 2b3c 383c 6c79 85ba ef16 9dbc 24a4 22bc
00000130: 9ff8 96bc 8e05 8abc 03a0 d9bc 29e8 81bc
00000140: e301 583c ed46 d53c a33e 81bc 9c34 a1bb
00000150: da8e e9bc e151 f639 9ffb 45bd dc82 253c
00000160: 23eb a0bc 7e6b 9539 2e2c 5cbc 78b4 b8bb
00000170: 5c33 01bd 5dc2 1ebc 9a82 313c 0c92 6b3b
00000180: 3f70 7cbc 8588 96bc cf6c d9bb 6c13 c0bb
00000190: 66e7 4fbb 5a45 fc3c e2f8 8bb9 a109 483c
000001a0: 5625 d3bb 1be8 e9bc b22a 18bc f5e2 7abc
000001b0: a7a0 b33c a2f0 8fbc d1b0 5bbc 3979 8cbc
000001c0: 5f93 1cbb fd8e 333b ab02 133c e1c1 debc
000001d0: 1119 bfbc 1225 dd3c cbe7 cf3a a0a5 723b
000001e0: e166 6ebc 4e75 ce3b 962b 9a3b 1832 91bc
000001f0: 07f9 913c d0bc 1fbd feb7 cebb b2e6 66bc
00000200: a6ba a2bb 35ed 323b c378 9abc ff11 983b
00000210: 88bf 57bc 9884 6c3b af45 b8bc 873b 6abc
00000220: 5fb0 003c 5a2b 47bc 42ac 4e3c b07a 473b
00000230: eba0 3b3d f1cd 64bb da4b a7b9 27d8 e5bb
00000240: a73a fbbb 8d27 91bb 00df bb3c 611e c23b
00000250: 82ae f23c f7f2 373c 07ae 893c 1c18 4d3b
00000260: 38f0 50bc 5ee0 0e3c 9998 413b aefd 42bb
00000270: d88a ccbb 3d61 953c 95ce 783c c67b dd3c
00000280: d662 a5ba e3d7 a4bc db0d 60bc 86ea e33b
00000290: 85ac 9e3a 7879 5bbb 890d f3bc e973 343c
000002a0: 7d57 8a3a fdbc 403c 8b35 0ebd ef20 ccba
000002b0: 1810 c33c cb4e c73b 00ab fa3a 6d77 d53c
000002c0: 8b28 143b caf3 ff3b bc1e 0bbc 07b8 71bb
000002d0: 53e5 e2bb 5324 ed39 9a21 02bc 1a06 a6bc
000002e0: 7646 b43a 7e70 bc3b d138 b53c 2f57 283b
000002f0: 864a 093d 690c 02bd 2f57 d53c b252 8ebc
00000300: 6c4b 30bc e9ed 3abb 97b9 2f3c 454d aa3c
00000310: 0df3 d239 76e1 d33c 8539 543c d3f1 4fbb
00000320: a7e0 b7bb b5fa a13c 4e55 52ba f940 6a3c
00000330: d00a 6c3c 6388 98bb b71f 1a3c 5d61 a73c
00000340: 4fd2 733c 25a0 01bd 647a 51bb ae83 50bc
00000350: 2e86 2b3d 15d7 e739 5b7e e13c ffc7 59bc
00000360: 5a36 443c c3ea a7bb d9b8 173c 3f7e 5c3c
00000370: 839f 603c 50da 1e3c 62ea 5a3c 693f 43bc
00000380: 360f 7d3c 46ac f33c 1caf 803c cf0a 99bb
00000390: 9227 28bc 4cce a4ba fe8c e7bc 56c8 203b
000003a0: a986 8a3b 45a7 623c 7803 c23c a8b1 e23c
000003b0: 4416 09bc c4af da3c 1514 863c 312c 7d3b
000003c0: 43c2 973c 4433 ccbc f883 23bd a85b bb3c
000003d0: 55fd 0b3c 4e2b 32bc 7c2c 5c3c 3500 a23c
000003e0: b33a c33c d81b d6bb 5207 a93c f34e cb3c
000003f0: 2383 29bc ba97 423d 8ef4 c3bc eaff a03c

discrete_action_output_shape f4 [1, 4]
3.0 3.0 3.0 3.0
00000000: 0000 4040 0000 4040 0000 4040 0000 4040

network_body._body_endoder.seq_layers.0.bias f4 [128]
0.026203971 0.035190497 0.0036277794 0.005153785 0.0020728547 0.04021009 0.040291328 -0.0077224527
0.0397878 -0.006724849 -0.0119119715 -0.006546783 0.0216743 0.004281122 0.016942626 0.03336183
0.018525548 0.021669231 -0.019571481 0.004412723 -0.017928155 0.015025606 0.020635437 0.01979463
0.0013799907 0.017393183 0.00036120348 0.0016583547 0.031199355 0.03705117 0.015885232 0.02899155
0.013745315 0.0051638666 0.015178022 0.0058765267 0.024717975 0.036684114 0.024018306 0.0048550935
0.022530373 0.026808001 0.023451772 -0.001968117 0.05730953 0.018165154 0.008354401 0.00082350144
0.010620683 0.040641356 0.040491883 0.007233928 0.036061168 0.01625433 0.013445252 0.027181413
-0.004877848 0.020864423 0.019603625 0.004864821 0.03061514 -0.00067798863 0.031314056 0.016223708
0.00884232 0.038797487 0.039965604 -0.0072302446 0.03206025 0.013440789 0.008106658 -0.0020770582
0.03747335 0.016509144 0.0052449903 0.0027198836 0.010727496 0.0055876225 0.0009502583 0.023660498
0.039177496 0.012764995 0.03079197 0.021832952 0.015834682 0.0130816 -0.015698737 0.040129837
0.023797192 0.008077209 0.02127838 0.046774622 0.04055733 -0.0050974414 0.022819156 0.02210179
-0.0103317415 0.019447513 0.012184691 -0.002070588 -0.022752073 0.025822915 0.010627025 0.026641978
0.029595869 0.008994785 0.02395797 0.024219407 -0.0007859681 -0.02069381 0.0060486826 -0.017003562
0.02532171 0.025872363 -0.008642357 0.029650616 -0.0062441267 0.026136728 0.009912999 0.038552728
0.024857573 0.04503456 0.016774993 0.031045344 -0.0067367703 0.0009249646 0.025570538 0.022677213
00000000: b6a9 d63c e923 103d 0ac0 6d3b 15e1 a83b
00000010: bbd8 073b 56b3 243d 8508 253d a10c fdbb
00000020: 88f8 223d 1f5c dcbb 6e2a 43bc 6586 d6bb
00000030: 4d8e b13c a748 8c3b 43cb 8a3c 6aa6 083d
00000040: e4c2 973c ac83 b13c 5f54 a0bc 9a98 903b
00000050: 11de 92bc f62d 763c a60b a93c 5928 a23c
00000060: cee0 b43a 267c 8e3c e95f bd39 265d d93a
00000070: ca95 ff3c f8c2 173d bf21 823c b07f ed3c
00000080: 0834 613c a735 a93b 3dad 783c e18f c03b
00000090: 5a7d ca3c 1542 163d 0ac2 c43c 7a17 9f3b
000000a0: 9e91 b83c 749c db3c ee1d c03c 86fb 00bb
000000b0: 66bd 6a3d 17cf 943c e6e0 083c 3fe0 573a
000000c0: 6002 2e3c 8d77 263d d1da 253d 960a ed3b
000000d0: e0b4 133d cd27 853c 7949 5c3c 8eab de3c
000000e0: 5bd6 9fbb deeb aa3c c897 a03c 1469 9f3b
000000f0: 9acc fa3c 0cbb 31ba 2b43 003d 95e7 843c
00000100: 61df 103c 1dea 1e3d f9b2 233d b0eb ecbb
00000110: 9c51 033d c136 5c3c cad1 043c 411f 08bb
00000120: a87d 193d 2f3e 873c 2bde ab3b 1340 323b
00000130: 61c2 2f3c 6018 b73b c11a 793a a9d3 c13c
00000140: 9578 203d 4524 513c 713f fc3c 05db b23c
00000150: bcb7 813c 3554 563c a39a 80bc 2f5f 243d
00000160: 54f2 c23c 4556 043c ff4f ae3c bf96 3f3d
00000170: 711f 263d 7008 a7bb 3def ba3c d00e b53c
00000180: 7746 29bc 6450 9f3c 4ca2 473c b4b2 07bb
00000190: 8e62 babc 948a d33c f91c 2e3c 4740 da3c
000001a0: 0973 f23c dd5e 133c 8143 c43c c767 c63c
000001b0: 6d09 4eba 1186 a9bc 0734 c63b 0e4b 8bbc
000001c0: 7a6f cf3c 47f2 d33c ac98 0dbc d9e5 f23c
000001d0: 889b ccbb b11c d63c 226a 223c 77e9 1d3d
000001e0: 1ca2 cb3c 2976 383d b66b 893c ce52 fe3c
000001f0: 20c0 dcbb 5379 723a 4e79 d13c 90c5 b93c

network_body._body_endoder.seq_layers.0.weight f4 [128, 154]
0.16630973 -0.16633295 -0.13286701 0.14401054 -0.029482203 -0.0018582882 0.0058901845 -0.09033136
-0.025753634 -0.0022103288 0.025431016 -0.11096691 0.041796397 0.090383954 -0.07823148 -0.12645237
-0.007989919 0.08325423 0.14146905 0.08193862 0.023694571 0.020182488 -0.0002495415 -0.06703161
0.10203876 0.0042889034 0.003772954 0.0909609 0.116298586 0.13835718 -0.030139813 -0.07462518
0.015085279 -0.103252985 0.10508788 -0.11916009 0.013018533 0.055557076 -0.013547333 0.023374481
-0.09332257 0.0377325 0.009542071 -0.011992234 0.05859117 0.0014510266 0.08615092 0.1949803
0.054879304 0.09869924 0.056354787 -0.09239886 -0.0141685875 0.04898235 0.05515552 0.23233022
-0.0017953655 0.07505873 -0.05603339 -0.05090592 -0.0064290897 0.011488811 0.19137698 0.14338432
0.058046717 0.14297584 0.061850727 0.025078436 -0.048709832 -0.055756297 0.0005942586 0.035708696
-0.027425185 0.013902702 0.057742912 0.10152725 -0.08101672 0.06149035 -0.028582726 -0.17262658
-0.20236549 -0.18623325 -0.13035527 0.041239843 -0.07374592 -0.013393709 0.087809816 0.020810489
-0.07230002 0.029494764 0.09269989 0.058821227 0.100635335 0.19744898 -0.053497303 0.060330305
0.06601979 0.044326022 0.05534875 0.014128253 0.07120565 -0.12379517 0.05108747 0.086290985
0.0093551455 0.020152828 -0.04581208 0.1286458 0.0747063 0.020553516 0.098842844 -0.060296502
-0.009277154 0.11005578 -0.04996244 -0.02082858 0.17254011 0.0995666 0.1946496 -0.07119301
-0.009991748 0.020667136 0.014198635 0.038348064 -0.08692947 0.037109744 0.0005047371 0.017833218
0.028410159 0.011979961 -0.021524265 -0.05338443 -0.11240223 -0.073183954 -0.02826508 -0.059103966
-0.033174857 -0.034193728 -0.064682975 0.21114363 0.06411138 0.08269998 -0.018231904 0.026724098
0.09245111 -0.046014413 0.03631631 -0.09046424 -0.1039129 -0.021397298 0.034931883 0.066386335
0.07904923 -0.08985774 0.05450467 0.056449786 0.006424665 0.11860803 0.12241962 -0.091530696
0.05498462 -0.024844212 0.036968254 0.042273495 0.022711739 0.12681244 0.0062636663 0.07650508
0.0842936 -0.21842296 -0.015487624 -0.102672644 0.010141972 -0.029376408 -0.020832345 -0.0020402886
0.2858881 0.12134393 0.06410206 0.120623186 -0.14446427 0.094444074 -0.04481256 0.021725068
-0.058556583 -0.060234033 0.2483053 -0.066439 -0.03001072 0.018390276 -0.011696994 -0.0895204
-0.010335217 0.0496838 0.08890418 -0.16781338 -0.008587664 0.010440063 0.09356611 0.1162503
-0.016044663 -0.050715424 -0.14276707 0.14201972 0.19845982 -0.039275885 0.10890807 0.016489353
-0.0525845 0.06956669 -0.121145256 -0.08030312 0.13299394 -0.026830684 0.020405626 0.13497561
0.067674674 -0.025198657 0.10917059 -0.090748444 -0.0045577628 -0.04711376 0.05414621 -0.024119027
-0.02244842 -0.07263936 -0.0016461107 -0.10153305 0.036011655 0.016325356 0.11878221 -0.07829446
0.035980795 0.045634408 -0.023669913 0.11723965 -0.0015052735 -0.034322724 0.083264075 -0.055786315
0.14438607 0.16429529 -0.09361932 -0.056303732 -0.059732936 -0.026502024 0.152075 0.019203464
0.07904586 0.026419006 -0.17545246 0.11774207 -0.14475214 0.062498085 -0.09076931 0.05389572
00000000: 194d 2a3e 2f53 2abe 4a0e 08be 8077 133e
00000010: a984 f1bc ce91 f3ba 7302 c13b a6ff b8bd
00000020: 49f9 d2bc 2adb 10bb b554 d03c 9f42 e3bd
00000030: b332 2b3d 391b b93d d437 a0bd bb7c 01be
00000040: 26e8 02bc 3281 aa3d 43dd 103e 6fcf a73d
00000050: 1e1b c23c bf55 a53c e5d4 82b9 de47 89bd
00000060: b3f9 d03d ee89 8c3b aa43 773b b549 ba3d
00000070: f42d ee3d 81ad 0d3e c5e7 f6bc 16d5 98bd
00000080: 3f28 773c 4d76 d3bd 5038 d73d 350a f4bd
00000090: af4b 553c d18f 633d a2f5 5dbc d77b bf3c
000000a0: e71f bfbd 658d 1a3d 5956 1c3c 137b 44bc
000000b0: 4bfd 6f3d 6030 be3a e56f b03d eaa8 473e
000000c0: 1fc9 603d d422 ca3d 47d4 663d 9d3b bdbd
000000d0: 5d23 68bc b7a1 483d c1ea 613d f9e7 6d3e
000000e0: 7852 ebba 64b8 993d 4583 65bd ba82 50bd
000000f0: 1dab d2bb 913b 3c3c 54f8 433e 57d3 123e
00000100: 65c2 6d3d 4268 123e 3057 7d3d 4b71 cd3c
00000110: f683 47bd b760 64bd 05c8 1b3a 4843 123d
00000120: c8aa e0bc 29c8 633c d583 6c3d 85ed cf3d
00000130: 18ec a5bd 4edd 7b3d 5226 eabc 06c5 30be
00000140: e638 4fbe eeb3 3ebe da7b 05be 1ceb 283d
00000150: 1a08 97bd 4a71 5bbc a2d5 b33d c27a aa3c
00000160: 0812 94bd 019f f13c 71d9 bd3d 87ee 703d
00000170: e619 ce3d 1130 4a3e fd1f 5bbd e91c 773d
00000180: 6235 873d 348f 353d 5fb5 623d 307a 673c
00000190: 45d4 913d 5288 fdbd 1841 513d 54b9 b03d
000001a0: 5346 193c 8b17 a53c 73a5 3bbd b9bb 033e
000001b0: 9eff 983d d95f a83c 1e6e ca3d 77f9 76bd
000001c0: 34ff 17bc ed64 e13d 6aa5 4cbd b3a0 aabc
000001d0: 5bae 303e 93e9 cb3d 3a52 473e a4cd 91bd
000001e0: 6eb4 23bc 204e a93c 64a1 683c dc12 1d3d
000001f0: 1408 b2bd 6300 183d 5550 043a f816 923c
00000200: 6cbc e83c 9947 443c a853 b0bc a2a9 5abd
00000210: 2433 e6bd 78e1 95bd 2b8c e7bc 0017 72bd
00000220: 5ce2 07bd b90e 0cbd 8278 84bd 0936 583e
00000230: d44c 833d 9b5e a93d 135b 95bc 7fec da3c
00000240: 0257 bd3d 9c79 3cbd 69c0 143d 5145 b9bd
00000250: 49d0 d4bd 6349 afbc bc14 0f3d 8ff5 873d
00000260: 90e4 a13d 5607 b8bd 4a40 5f3d e437 673d
00000270: ff85 d23b c4e8 f23d 23b7 fa3d 7274 bbbd
00000280: 8e37 613d 1786 cbbc 066c 173d f926 2d3d
00000290: f80d ba3c 1fdb 013e 713f cd3b b2ae 9c3d
000002a0: 1fa2 ac3d 45aa 5fbe cebf 7dbc 0946 d2bd
000002b0: 842a 263c cba6 f0bc 98a8 aabc 5db6 05bb
000002c0: ed5f 923e 2b83 f83d f147 833d 4a09 f73d
000002d0: 71ee 13be e56b c13d 608d 37bd c5f8 b13c
000002e0: 07d9 6fbd f6b7 76bd bf43 7e3e 2c11 88bd
000002f0: 0bd9 f5bc 34a7 963c c0a4 3fbc 7956 b7bd
00000300: 0b55 29bc 3e81 4b3d 6513 b63d 45d7 2bbe
00000310: 46b3 0cbc cc0c 2b3c 979f bf3d a314 ee3d
00000320: 1970 83bc faba 4fbd 8831 12be 9e6d 113e
00000330: 0d39 4b3e c0df 20bd 320b df3d ae14 873c
00000340: d862 57bd fb78 8e3d 011b f8bd f675 a4bd
00000350: 902f 083e 06cc dbbc b329 a73c 0c37 0a3e
00000360: 0599 8a3d 6a6d cebc d594 df3d 52da b9bd
00000370: 4959 95bb 5cfa 40bd 6bc8 5d3d 4495 c5bc
00000380: c0e5 b7bc f2c3 94bd 4fc2 d7ba 8ff0 cfbd
00000390: f580 133d c1bc 853c 1644 f33d d958 a0bd
000003a0: 9960 133d 25eb 3a3d 68e7 c1bc 571b f03d
000003b0: 994c c5ba fc95 0cbd 5b86 aa3d 3180 64bd
000003c0: f1d9 133e 063d 283e 7cbb bfbd be9e 66bd
000003d0: 86aa 74bd c61a d9bc 8cb9 1b3e 9550 9d3c
000003e0: cce2 a13d ac6c d83c cfa9 33be c122 f13d
000003f0: e839 14be fefd 7f3d 43e5 b9bd c2c1 5c3d

network_body._body_endoder.seq_layers.2.bias f4 [128]
0.004313752 0.02587334 0.012673851 0.011565595 0.022926133 0.014874986 0.020066982 0.029818252
0.013197443 0.008695465 0.01601974 0.0151539985 0.02628315 0.0018327802 0.008792694 0.015941937
0.006721892 0.017988143 0.00957005 0.01354191 0.03477544 0.018248746 0.021930905 0.007970785
0.016359039 -0.0060728583 0.035224333 0.015823271 0.012297168 0.02608027 0.019266598 0.026905809
0.014970914 0.0145233 0.013427572 0.020705437 0.020336792 0.00763897 0.016628472 0.017188221
0.006406975 0.02397251 0.025736447 0.010955343 0.036142506 0.018807042 0.016919587 0.024946842
0.024415262 0.0074945106 0.016308798 0.014396374 0.025306066 0.030270388 0.003150436 0.020996135
0.017925963 0.010070148 0.03785317 0.007368221 0.024826031 0.01843939 0.01728055 0.02879946
0.014810779 0.02491148 0.012220615 0.017450383 0.013060006 0.026396528 0.022428669 0.019117836
0.02118511 0.03309664 0.026493711 0.019482834 0.011465583 0.0043068896 0.041460752 0.027427668
0.017875224 0.013169464 0.009217915 0.027076403 0.012400788 0.004321695 0.008894488 0.011538375
0.014286157 0.00303411 0.014525738 0.016043328 0.01955282 0.006988496 0.0121846665 -0.00079085823
0.036460675 0.018420026 0.03283444 -0.0146243125 0.009339403 0.02859026 0.009606631 0.030708741
0.03350032 0.031944625 0.030578054 -0.002102059 0.013385201 0.013350202 0.024742378 0.019593667
0.013399745 0.0075175907 0.0253588 0.026274437 0.016685536 0.027682403 0.028664451 0.026396897
0.015155866 0.0147693 0.010151869 0.03077485 0.03507907 0.022453316 0.028538037 0.030266795
00000000: 605a 8d3b 54f4 d33c fca5 4f3c 9f7d 3d3c
00000010: 96cf bb3c 37b6 733c 8363 a43c 6845 f43c
00000020: 173a 583c 6c77 0e3c d43b 833c 7a48 783c
00000030: c34f d73c e639 f03a 3b0f 103c aa98 823c
00000040: 5143 dc3b df5b 933c b3cb 1c3c e3de 5d3c
00000050: b170 0e3d 657e 953c 71a8 b33c e597 023c
00000060: 6403 863c d4fe c6bb 6447 103d ce9f 813c
00000070: 107a 493c 4aa6 d53c fcd4 9d3c 9269 dc3c
00000080: 9148 753c 23f3 6d3c 52ff 5b3c 739e a93c
00000090: 5899 a63c 5350 fa3b 6f38 883c 50ce 8c3c
000000a0: 9af1 d13b ff61 c43c 3ed5 d23c 0a7e 333c
000000b0: 2a0a 143d 3a11 9a3c f29a 8a3c 525d cc3c
000000c0: 8402 c83c 8394 f53b 079a 853c c5de 6b3c
000000d0: ab4e cf3c 9bf9 f73c 8c77 4e3b 1600 ac3c
000000e0: 78d9 923c 43fd 243c ed0b 1b3d 1e71 f13b
000000f0: f65f cb3c 340e 973c f18f 8d3c d8ec eb3c
00000100: e9a8 723c 2913 cc3c f938 483c 1bf4 8e3c
00000110: a3f9 553c 883d d83c 54bc b73c 029d 9c3c
00000120: 658c ad3c 5890 073d 5709 d93c 779a 9f3c
00000130: 24da 3b3c cf20 8d3b c0d2 293d fdaf e03c
00000140: 106f 923c bcc4 573c bd06 173c 55cf dd3c
00000150: ad2c 4b3c 019d 8d3b 30ba 113c 740b 3d3c
00000160: 7c10 6a3c ebd7 463b 5cfd 6d3c 4c6d 833c
00000170: 3c2d a03c c1ff e43b 32a2 473c 9951 4fba
00000180: ca57 153d 98e5 963c 687d 063d d09a 6fbc
00000190: 4c04 193c 1f36 ea3c 2165 1d3c e690 fb3c
000001a0: a237 093d 5ed8 023d d47e fa3c b3c2 09bb
000001b0: 9a4d 5b3c ceba 5a3c 87b0 ca3c e682 a03c
000001c0: 9b8a 5b3c 1f56 f63b 42bd cf3c 7d3d d73c
000001d0: 1bb0 883c 35c6 e23c b6d1 ea3c 4e3e d83c
000001e0: 4f50 783c effa 713c 0654 263c 8a1b fc3c
000001f0: 12af 0f3d 04f0 b73c 9ac8 e93c 12f2 f73c

network_body._body_endoder.seq_layers.2.weight f4 [128, 128]
0.05388205 0.051927496 -0.05189327 -0.16242681 0.06410049 -0.023042839 0.035457104 0.11524428
-0.06929435 0.007287345 0.23797749 -0.0015890523 -0.15413085 -0.07340658 -0.01349807 -0.041607972
-0.0297172 0.026651086 -0.053004194 0.014674384 0.056675605 0.11269156 -0.07531536 -0.07902722
-0.06429608 -0.00889734 -0.10966626 -0.015259947 0.09845708 0.14919691 0.119044006 -0.10044707
-0.09865507 -0.045336243 -0.07179404 -0.03068798 0.08290756 -0.050939266 0.021170838 -0.074497476
-0.056904703 -0.030258795 -0.11477722 0.19365723 -0.03318976 -0.13168487 -0.05285649 -0.18004093
0.122553565 -0.043724936 -0.03186674 -0.061634135 -0.0088960165 -0.068720944 0.12257817 0.015634557
0.03902327 -0.0023750255 0.030718917 -0.06332145 -0.12312098 0.12689196 -0.08032123 -0.14230458
-0.008303517 0.084909126 -0.004905095 0.032017242 0.04644135 0.031743865 -0.054635517 -0.028695356
-0.02242786 0.08110767 -0.1501198 0.110759236 -0.013310768 0.06446099 0.05978194 0.05509751
0.08337315 -0.00840347 0.03257873 -0.006217223 0.09112303 0.09025684 -0.11893661 0.03181909
-0.07168984 -0.014618642 -0.059738714 -0.20141461 -0.01378969 -0.07781631 -0.115272604 -0.053623606
-0.033840947 0.20918283 -0.008005402 0.14511321 -0.03946254 -0.27403948 0.09779454 0.04693048
-0.01293278 -0.05220296 -0.10621016 0.12682332 -0.007780693 -0.03620811 -0.11475072 0.065450005
-0.05372622 -0.02334562 -0.11961718 0.049049996 0.030151317 -0.077151164 -0.023926547 0.06520072
-0.10793938 0.050020784 -0.07646433 -0.094348066 0.02805653 0.12753029 0.07618904 -0.022228075
-0.09561265 -0.1322298 -0.022060787 -0.012299182 0.015273309 0.07797406 0.06627578 0.042198993
0.004662825 -0.018996036 -0.05358352 -0.047954563 0.23755603 -0.11783454 -0.039604135 -0.0013731036
-0.06689505 0.044987775 -0.11891282 0.0023307963 0.0028808573 -0.04109982 0.027191209 0.30765346
0.090990275 -0.11928363 -0.08755131 0.26288384 -0.051111948 -0.018354084 -0.03429961 0.06058622
-0.031234795 -0.024848178 0.04779328 0.021688925 0.039075695 0.09433527 -0.16698205 0.037197962
0.071699426 -0.13003816 0.032541443 -0.062134754 0.1313575 0.19408287 0.0815883 -0.10860819
0.10989775 0.066985875 0.011385286 0.03443226 0.20481502 -0.005323525 -0.098652065 0.028798413
-0.07674542 0.037599906 -0.119328454 -0.043986853 0.06107595 0.072031245 -0.017792264 0.032248363
-0.0125203915 -0.015000834 -0.028473346 -0.13978423 -0.07790704 0.0470804 0.0648363 -0.019034276
-0.037745997 -0.10935018 -0.1147825 0.06513068 -0.018457267 0.05617449 0.056336436 -0.11437149
-0.0839507 0.064331345 0.0006221992 -0.0965371 0.18506184 -0.12296564 -0.05917108 0.03892042
-0.21078771 0.0482327 0.15580471 0.20551553 0.056674995 -0.06732879 0.14936976 0.19182298
-0.1590232 -0.034683675 -0.030414477 -0.122992314 0.10500481 0.07545486 -0.09158366 0.008784258
-0.050199833 -0.06600735 0.07488728 0.07855301 -0.15164831 0.0397583 -0.002816629 0.096692905
0.026516486 0.03172795 0.03189541 -0.15598895 0.061723385 -0.13562934 0.1417785 0.019091973
-0.017301714 0.047433052 -0.06981943 -0.11838613 -0.1425427 0.019629607 0.04909091 0.1740955
00000000: 6db3 5c3d edb1 543d 0a8e 54bd 3753 26be
00000010: 1e47 833d 56c4 bcbc 783b 113d 3105 ec3d
00000020: 32ea 8dbd aeca ee3b 5fb0 733e bf47 d0ba
00000030: 7ad4 1dbe 3056 96bd 0227 5dbc 1f6d 2abd
00000040: 7c71 f3bc 6153 da3c ed1a 59bd d46c 703c
00000050: ae24 683d d5ca e63d f13e 9abd 06d9 a1bd
00000060: aaad 83bd 26c6 11bc b498 e0bd db04 7abc
00000070: dea3 c93d 13c7 183e 58cd f33d 32b7 cdbd
00000080: ab0b cabd 7fb2 39bd c108 93bd 5c65 fbbc
00000090: 70cb a93d b1a5 50bd 776e ad3c 2292 98bd
000000a0: e814 69bd 4be1 f7bc 5210 ebbd 154e 463e
000000b0: fcf1 07bd 66d8 06be 0c80 58bd a65c 38be
000000c0: 5dfd fa3d eb18 33bd b386 02bd 1374 7cbd
000000d0: 99c0 11bc 91bd 8cbd 430a fb3d 0b14 803c
000000e0: ddd6 1f3d 51a6 1bbb 3da6 fb3c adae 81bd
000000f0: da26 fcbd f7ef 013e 757f a4bd 4bb8 11be
00000100: 790b 08bc d6e4 ad3d ebba a0bb 8324 033d
00000110: 4939 3e3d db05 023d 7ec9 5fbd 8612 ebbc
00000120: a2ba b7bc c71b a63d 01b9 19be bdd5 e23d
00000130: 6815 5abc 2004 843d e8dd 743d edad 613d
00000140: 8bbf aa3d b5ae 09bc 4671 053d d9b9 cbbb
00000150: b69e ba3d 94d8 b83d 0a95 f3bd bc54 023d
00000160: 1fd2 92bd 0783 6fbc 95b0 74bd a23f 4ebe
00000170: 27ee 61bc 285e 9fbd 0b14 ecbd 6da4 5bbd
00000180: ce9c 0abd 0634 563e 1729 03bc 8f98 143e
00000190: 79a3 21bd e74e 8cbe 8148 c83d 2d3a 403d
000001a0: 03e4 53bc c5d2 55bd b684 d9bd f9dd 013e
000001b0: 2ff5 febb f54e 14bd 6d02 ebbd a70a 863d
000001c0: 0610 5cbd 503f bfbc daf9 f4bd a6e8 483d
000001d0: e5ff f63c 6e01 9ebd 9b01 c4bc f587 853d
000001e0: 520f ddbd 98e2 4c3d 5599 9cbd 8f39 c1bd
000001f0: cfd6 e53c 4d97 023e 0009 9c3d a717 b6bc
00000200: 91d0 c3bd 4067 07be d3b8 b4bc 8282 49bc
00000210: e73c 7a3c ddb0 9f3d 99bb 873d dad8 2c3d
00000220: 9cca 983b 939d 9bbc 657a 5bbd 016c 44bd
00000230: e341 733e 3c53 f1bd f237 22bd b6f9 b3ba
00000240: 4600 89bd 1a45 383d 9188 f3bd 46c0 183b
00000250: c4cc 3c3b 4958 28bd 19c0 de3c c184 9d3e
00000260: 1c59 ba3d fa4a f4bd 1a4e b3bd b698 863e
00000270: c35a 51bd 4e5b 96bc bf7d 0cbd 4229 783d
00000280: 1de0 ffbc 688e cbbc e3c2 433d f9ac b13c
00000290: d60d 203d da32 c13d 58fd 2abe e45c 183d
000002a0: 26d7 923d b928 05be 2d4a 053d 0381 7ebd
000002b0: 9582 063e a9bd 463e c417 a73d f96d debd
000002c0: 1212 e13d e42f 893d 5a89 3a3c d708 0d3d
000002d0: 07bb 513e f770 aebb 180a cabd a6ea eb3c
000002e0: b42c 9dbd 5c02 1a3d 7a62 f4bd 8f2b 34bd
000002f0: c62a 7a3d 1e85 933d 15c1 91bc dc16 043d
00000300: 5422 4dbc 0fc6 75bc ef40 e9bc 9923 0fbe
00000310: ba8d 9fbd 61d7 403d e5c8 843d c5ed 9bbc
00000320: 8c9b 1abd fdf2 dfbd 1613 ebbd 3c63 853d
00000330: b233 97bc 3917 663d 09c1 663d 9a3b eabd
00000340: 58ee abbd 27c0 833d 151b 233a 3eb5 c5bd
00000350: da80 3d3e 69d5 fbbd 605d 72bd 056b 1f3d
00000360: bcd8 57be a78f 453d 458b 1f3e aa72 523e
00000370: 0a24 683d ade3 89bd 63f4 183e 3e6d 443e
00000380: fad6 22be 7810 0ebd c827 f9bc 65e3 fbbd
00000390: c30c d73d 1488 9a3d 3790 bbbd d9eb 0f3c
000003a0: 579e 4dbd dd2e 87bd 815e 993d 67e0 a03d
000003b0: b249 1bbe 99d9 223d 3197 38bb ee06 c63d
000003c0: 1a39 d93c 2bf5 013d c3a4 023d 91bb 1fbe
000003d0: a9d1 7c3d 6be2 0abe 622e 113e c566 9c3c
000003e0: 53bc 8dbc 2949 423d 7dfd 8ebd 6d74 f2bd
000003f0: b7f6 11be 45ce a03c 8d13 493d 1746 323e
