results/FoodTarget_imitation_9/AgentPlayer/AgentPlayer-258034.onnx (onnx, 156066 bytes, 13 tensors)

action_model._discrete_distribution.branches.0.bias f4 [3]
00000000: 5f7c da3a 821b a33b a101 bdbb
0.0016669146 0.0049776444 -0.0057680164

action_model._discrete_distribution.branches.0.weight f4 [3, 128]
00000000: 6e4c e0ba 4d87 ffbc 1151 7ebb f606 e4bc
00000010: 915a babb ea73 27bc 605b b0bc 1cee 52bc
00000020: d68f 7ebc 3bd9 b1bc 3a95 46bb 4356 51bc
00000030: 2bf7 e63c 305a d83c d10b 9b3c 3bf5 8f3a
00000040: 7702 c63c 82b6 7dbc 324f 6cbc 2a4e 613b
00000050: a867 3ebb 029e 4f3b 5754 7ebc 3213 733c
00000060: e604 9ebc 05bf 5cbc de88 e9bb 169f bc3c
00000070: 5b5b d1bc 7807 d7bb fa26 a63c acf5 be3b
00000080: c0f3 efbc 043e cdbb d3f1 653b 5ac8 cd3c
00000090: 4611 43bc ae95 8dbb b8bf cdbc 6b52 f53a
000000a0: 5483 1fbd 2ff9 cf3b 2d83 03bd bec7 d2bc
000000b0: d884 fdbb 6321 463c 9913 b6bc 3023 ebbb
000000c0: 8e6f e6bc 38cf e8bc c369 89bc 1bcd 893c
000000d0: 298d 0dbd 12f6 ecbb 6eda 073b a932 8ebc
000000e0: a255 f8bc d045 6b3b cde2 3abc 3231 8abc
000000f0: e8d6 c5bc d0d4 f43b 184c acbb 34de 9cbc
00000100: 6416 6ebc edcb dbba e994 e1bb 4e29 9e3b
00000110: 7fa7 85bc cde0 84bc bc96 83bc d619 e4bb
00000120: 56f8 07bd c22c 81bb 6df5 ddbc c4bb 1f3c
00000130: 9860 64bc 831e 37bc fe64 1fbc f736 09bd
00000140: 2a95 a5bc 8c8b aabc 0c25 533a 169d 863b
00000150: 1c86 06bd 6460 34bc aeaa 51bb fea2 4fbb
00000160: c9a1 5ebc b109 13bc f16a 63bc 110b 263b
00000170: 5ba6 2cbc cb4c babc 8461 15bc c3cf cbbc
00000180: d803 9dbc 861b 5cbc 8846 1ebd e323 afb9
00000190: 550e 93bc 57c1 7cbc 8cc3 883c 8bef aa3c
000001a0: 57e2 783a 5c4a 11bd c232 63bc d9b5 3fbc
000001b0: 3c0f f2bc fd2e 1ebd b992 783c 9f04 d43b
000001c0: b6e6 a5bc 013c 98bb 5615 8f3a 5ae9 663b
000001d0: 7fd4 863c 9b6e 783c 91d5 a7bb aba3 503b
000001e0: d189 913c cdee f4bc aa1d f7bc 7fc9 02bd
000001f0: 3663 d93b e662 03bd 1a62 88bc aee8 d33b
00000200: 996b 3abd 567a 24bc 6a02 babb 639a 903d
00000210: 57b8 b1bb 300a 943d 1b8e fa3c 310b 963c
00000220: b9be 653d b2ff 82bd 4f45 663d f6c7 3f3c
00000230: c4ad 9bbc c094 4e3d 9855 86bb 42ce 26bc
00000240: 70a5 393d 2b81 5ebd 0e47 a53d 6016 053d
00000250: 5845 3fbc 621b 073d 26b1 11bd 0a07 313c
00000260: 290f 79bd 2d47 e43c c565 14bd a401 293c
00000270: 90bd dd3c 8d8f 98bc 059f 9fbc 14f0 593d
00000280: 4a2f 3bbd d94a 38bd 4fe3 dcbc 86e7 433a
00000290: f893 813d 8b75 35bc 0746 f5bb 4e42 773d
000002a0: 180a 99bd 329e 11bd 8659 813d d05a 793d
000002b0: 2d5b 263b 1e72 7c3d 11b4 7f3c 5379 5f3d
000002c0: 4eef 8bbc 7df7 963d bb5a 023d 8a90 00bd
000002d0: 74a7 c83d af11 07bd 6430 56bd 3e5a 26bd
000002e0: 3e0d a33c d63a 43bd f312 843d aba3 c93c
000002f0: ef87 0a3d 3960 dd3c 19f8 503c cf49 803d
00000300: 6168 b13b 5e4b 2abd 8031 90bd ea15 ddbc
00000310: a9ac 6bbd ea1f 22bd caff 1a3d 7972 61bd
00000320: fb46 e0bc e09e f5bc 885f 8cbd f759 1abd
00000330: b3cf b43d 49e7 87bd 1310 523d eaf8 843d
00000340: dbec 36bd d464 ed39 4df1 0f3c e529 853c
00000350: edd6 28bd a290 113d ef85 3dbd e0f5 dfbb
00000360: c402 503d a42a afbc 8e70 55bd a639 a2bd
00000370: 8ae1 8abd 66a7 983c 629f 8c3d 2df0 45bd
00000380: 4938 9a3c 7126 963c ed0b 123d deae afbc
00000390: 7767 41bc 92b3 f03c fda6 b13b 3192 fbbc
000003a0: 3fb5 f63c 1cd2 9e3d 2e2a 2dbd e519 13bc
000003b0: 3869 38bd 12f4 dcbc 1bc4 bfbc d9e0 b63c
000003c0: 73e6 7dbd e5c6 e63c 593b 6e3d 9db2 5ebd
000003d0: f053 453d 699c 7d3d 03e5 323d 8bf2 42bc
000003e0: 7a72 fabc 7a9e 84bd 3366 4f3d 5a27 63bd
000003f0: 40fc 943c 5d9d 573d 8a1b 58bc 634a a83d
-0.0017112622 -0.031192446 -0.0038805644 -0.02783535 -0.005687066 -0.010220507 -0.021527946 -0.0128741525
-0.015537223 -0.021710029 -0.0030301348 -0.012776914 0.02819403 0.026410192 0.018926533 0.0010983119
0.024171097 -0.015485408 -0.0144231785 0.0034378865 -0.0029053483 0.0031679873 -0.015523038 0.0148361195
-0.019289445 -0.013473277 -0.0071269115 0.023025077 -0.025556257 -0.0065621696 0.020282257 0.005827626
-0.029291034 -0.0062634964 0.0035086765 0.02511995 -0.011905974 -0.0043208217 -0.025115833 0.0018716579
-0.038943604 0.0063468437 -0.03210752 -0.02573001 -0.0077367835 0.012092921 -0.022226142 -0.0071758255
-0.028129365 -0.028419122 -0.016774064 0.016821435 -0.03455845 -0.0072314823 0.002072956 -0.017358141
-0.03031427 0.0035899766 -0.011406613 -0.016869161 -0.024150327 0.0074716583 -0.0052580945 -0.019148923
-0.0145317055 -0.0016769149 -0.0068842066 0.0048267012 -0.01631522 -0.016220475 -0.016063087 -0.0069610877
-0.033195816 -0.003942103 -0.027094567 0.009749357 -0.013939045 -0.011176708 -0.009728668 -0.033499684
-0.020212729 -0.020818494 0.00080545316 0.0041080816 -0.03284274 -0.011009309 -0.0031992602 -0.0031682844
-0.013588377 -0.008974479 -0.013880477 0.0025336186 -0.010537709 -0.022741696 -0.009117488 -0.024879342
-0.019166872 -0.0134342965 -0.038641483 -0.0003340534 -0.01795117 -0.015426955 0.016694807 0.020866176
0.00094941765 -0.035471305 -0.013867082 -0.011701071 -0.02954828 -0.03861903 0.0151717 0.0064702774
-0.020251613 -0.004645825 0.0010916393 0.0035234303 0.016458748 0.015163089 -0.0051218946 0.0031835835
0.017765911 -0.029899025 -0.030165512 -0.031930443 0.0066341413 -0.03207674 -0.016648341 0.0064669466
-0.04551277 -0.010038933 -0.0056765573 0.07060697 -0.0054235863 0.072285056 0.03058534 0.018315883
0.05609009 -0.06396426 0.05621844 0.011705389 -0.019003756 0.050434828 -0.004099559 -0.010181012
0.04532379 -0.054322403 0.08070193 0.03249204 -0.011674248 0.0329851 -0.035569333 0.010804901
-0.060805473 0.02786597 -0.036229867 0.010315333 0.02706793 -0.018623138 -0.019485006 0.053207472
-0.045699395 -0.044993255 -0.026963858 0.00074731593 0.06327051 -0.011075388 -0.0074851546 0.060365967
-0.07472628 -0.035551257 0.06315903 0.06087762 0.0025383935 0.061632268 0.015606896 0.054559063
-0.017081883 0.073714234 0.03182481 -0.031387843 0.09797564 -0.03297585 -0.052292243 -0.040613405
0.019903775 -0.047663532 0.06448927 0.024614176 0.033821043 0.027023422 0.012754464 0.06264078
0.0054140543 -0.041575782 -0.070406914 -0.026987989 -0.05753771 -0.039581217 0.037841596 -0.05504081
-0.027377596 -0.029982984 -0.06854159 -0.037683453 0.08828678 -0.06635911 0.05128486 0.06492789
-0.044659477 0.00045279285 0.008785558 0.016255328 -0.041220594 0.035538323 -0.046270307 -0.0068347305
0.050783888 -0.021382637 -0.052109294 -0.07921152 -0.067812994 0.01863451 0.06866337 -0.048324753
0.018825667 0.018328877 0.035655905 -0.021445688 -0.011804453 0.0293825 0.005421518 -0.030709358
0.030115722 0.07754919 -0.042276554 -0.008978342 -0.04502222 -0.02697185 -0.02340894 0.022324013
-0.06198735 0.028171012 0.058162067 -0.054369558 0.048175752 0.061916742 0.043675434 -0.011898647
-0.030572165 -0.064755395 0.050634574 -0.05545745 0.018186688 0.052640308 -0.01319016 0.08217313

action_model._discrete_distribution.branches.1.bias f4 [3]
00000000: 113d 32bc 2f61 a9bb 1dc1 633c
-0.010878817 -0.005169056 0.013901022

action_model._discrete_distribution.branches.1.weight f4 [3, 128]
00000000: 7910 823a a5e3 7439 5d7e 0f3c e890 14bd
00000010: 2c20 c6bb d2cb 01bd 65ce 17bc 263d f7ba
00000020: 0b80 f7bb 1072 77bc 7c91 07bc 84f1 d43c
00000030: f95d e7b9 5f79 9ebc 75d3 11bd 4462 16bd
00000040: 2759 c63b f059 36bc 983c 3e3c db5b 35bb
00000050: 62a7 9cbc f841 99bc f8ab f33c 60d9 38bd
00000060: cf70 65bb e49f 06bc 9910 8cbb efe5 4ebc
00000070: d4ae 4ebb e258 3abc 63f4 4fbc f44a 89bc
00000080: 35a2 84bc bbe5 69bc d476 ab3b 0a9f a7bb
00000090: ad2a 16bc e31e 26bb 60a9 f6bc 9bc3 89bb
000000a0: 341b 95bb e0be bfbb 9ed5 6d3b 1a86 b4bb
000000b0: 4880 fdbc 16f5 1abb e064 0d3a b43b 2dbc
000000c0: 61ed 89bc 7aa6 adbb be28 a73c 2532 c2bc
000000d0: cb1d 7d3c 9342 3cbc 7316 753c cdc5 2ebd
000000e0: 0b7b 883c fa76 013c a508 d13b 0cee 10bd
000000f0: 625d 193d e62d 0dbc 5855 d5bc eb0e 36bc
00000100: cbc0 cbbb a6fa d9bb 2ea5 91bc 334e 8ebc
00000110: 4c4f 09bd cc72 893c 200d 1f3b 4416 06bc
00000120: 639a 663c 9756 5e3c bee1 4bbc da40 113b
00000130: 4bb9 ff3b 0cb0 8c3b e9b0 fd3c 60aa 283c
00000140: ba7b 02bc ee21 d6bc bb52 a0bc 1f5c 78bc
00000150: fdbd 433c 6573 5ebc 7a83 8dbc fc07 e63a
00000160: 3fa2 a3bc 9fe0 98b8 97e2 be3b f20b b1bb
00000170: 8830 48bc ea8e 22bb 2730 b2bb 93d1 b0bb
00000180: 3d4a a9bb 058c 9fbc 92dd 013c e297 f3bc
00000190: 2a96 393b 4b58 b4bc b736 92bb 57fe 03bd
000001a0: 3103 e63c 1380 86bc 81e6 4cba 15d3 a1bc
000001b0: 6f55 3ebc f1d5 883b 04d2 46bb 46f7 8b3b
000001c0: ca01 19bc 4ec1 2cbc 289b 86bc 5a41 b1bc
000001d0: 44d0 83bc 3635 f0bb 39d3 a13c 6100 b7bb
000001e0: 69c3 5ebc 4b0e 343c 3200 aabc 981e 97bc
000001f0: 2844 e9bc 7040 ac3c 359c 823c 30cf 6cbc
00000200: 5eaa 8f3b 4dad 423d aef3 bfbb 49b0 0bbd
00000210: 19b9 2abd 3b0a 273d 198b 813d da14 453c
00000220: f276 b0bc b628 4c3d 2cf7 94bc 0e5f 03bd
00000230: 5611 01bd ed8c 57bd 0c55 853c 8c4f 9f3c
00000240: 175c 2dbd f618 533d 8692 d8bc 1454 84bd
00000250: 6e41 5c3d 9ea9 2bbc 303c f83c ac32 4cbd
00000260: 8daa d63c a5f0 843c b431 083d 27a1 90bd
00000270: 1736 363d 0551 cabc df86 fdbc 8664 1abd
00000280: f619 803d eb4c ab3d 4486 89bc 8fed 89bd
00000290: ec52 3b3d 88fc d23c 3b5e a93d 5618 87bd
000002a0: 24ef 333d a130 d43c ac5d 5c3d ac16 2f3d
000002b0: 7986 2cbd 76f2 8dbd f82a 613d 5e99 c43a
000002c0: 129e 4d3d 542d 1a3d fed7 ee3c d577 57bd
000002d0: 54a8 063d ce3f dcbc 7b5b f4bc a875 14bc
000002e0: 2668 8d3d bf89 b9ba 1c77 69bd 4a57 483d
000002f0: 3281 e83c 590a 4cbd a41b e2bc e745 603d
00000300: dda1 643d 9284 6b3d 03ea 2c3d 1ed6 87bd
00000310: 68c4 d339 c65c ebbc 7669 6d3d 2c81 ffbc
00000320: 1652 86bd 9a5f 1bbd fc28 0abd 9282 0ebd
00000330: a713 afba f529 883b 4d75 88bc 99af 5f3d
00000340: ffdf 97bd 7d26 953d 16f0 e8bc 6067 bebc
00000350: 7153 b2bd a31c 99bd 5ed0 053d 4cce 93bc
00000360: b7a9 713c e5ac 8ebd 2be7 d1bc 59df 59bd
00000370: 9693 fdbc 5881 573d 2c3f bfbc 899b ad3d
00000380: ee51 69bd b51d 9b3d df6b ab3d f387 853d
00000390: c286 b13b 215d aa3c ebc6 44bd 464e 88bd
000003a0: 6a47 a4bc 1ca5 803d 05a1 4dbd fb02 20bd
000003b0: f60a a83c 853a 3f3d 9985 50bd b5dc fe3c
000003c0: 9094 1c3d 9a49 413d 5dc6 2bbc e7ca 2c3d
000003d0: ac73 c73c f52e 0dbd c1fd 0cbd 0991 89bd
000003e0: e482 e13c 21b3 a4bd 173d 783c 4236 2e3d
000003f0: 16e9 3ebd d05f 243d f976 40bd 6c0d 61bc
0.0009923122 0.00023354458 0.008758155 -0.036271006 -0.0060463157 -0.03168852 -0.009265517 -0.0018862828
-0.0075531057 -0.015102878 -0.008274432 0.02599407 -0.00044129769 -0.019344984 -0.03560205 -0.036714807
0.0060531083 -0.011129841 0.011611126 -0.0027673158 -0.019122783 -0.018708214 0.029745087 -0.04512918
-0.0035009866 -0.008216832 -0.0042744395 -0.012628063 -0.003153731 -0.01137373 -0.012692544 -0.016759373
-0.016190628 -0.014275963 0.0052326713 -0.0051153945 -0.009165448 -0.0025348 -0.030110061 -0.004204226
-0.004550362 -0.0058516115 0.0036290656 -0.00550915 -0.030944958 -0.0023644618 0.00053937547 -0.010573316
-0.016836824 -0.0052993866 0.02040517 -0.023705551 0.015448998 -0.011490482 0.014958966 -0.042669106
0.016660234 0.007901901 0.0063792043 -0.03538327 0.037442572 -0.0086169 -0.026041672 -0.011111955
-0.006218051 -0.006652194 -0.01777896 -0.017371273 -0.03352289 0.016778372 0.0024269298 -0.0081840195
0.014074895 0.013570449 -0.012443958 0.0022163899 0.007804071 0.0042934474 0.030968146 0.010294527
-0.007964069 -0.026139226 -0.019570699 -0.015158682 0.011947152 -0.013577317 -0.017274607 0.0017549987
-0.019974826 -7.289764e-05 0.0058253515 -0.0054030353 -0.012218602 -0.0024804422 -0.005437869 -0.005396077
-0.0051663206 -0.019475946 0.007926362 -0.02973551 0.0028318265 -0.022014758 -0.004462089 -0.03222498
0.028077694 -0.016418492 -0.000781633 -0.019753972 -0.011617049 0.0041758944 -0.0030337581 0.0042714207
-0.009338805 -0.010544134 -0.016431406 -0.021637607 -0.01609052 -0.007330562 0.01975404 -0.005584762
-0.013596394 0.010989736 -0.020752046 -0.018447205 -0.028474882 0.02102682 0.015943626 -0.014453694
0.004384323 0.047528554 -0.0058579063 -0.034103666 -0.04168043 0.04078124 0.06325359 0.012028897
-0.021541093 0.049843512 -0.018184267 -0.032073073 -0.031510673 -0.05262463 0.016275905 0.01944711
-0.04232415 0.051537476 -0.026437055 -0.06461349 0.053773336 -0.010477452 0.030302137 -0.049853012
0.026204372 0.01622803 0.033250526 -0.07061987 0.044485178 -0.024696836 -0.0309481 -0.037693523
0.06254952 0.0836428 -0.016787656 -0.06734764 0.045733377 0.025755182 0.08269926 -0.065964386
0.043929234 0.025902094 0.05380027 0.04274623 -0.04212043 -0.069310114 0.05497262 0.001499932
0.050199576 0.037640885 0.029155727 -0.052604515 0.032875374 -0.026885893 -0.029828778 -0.009061255
0.0690463 -0.0014155431 -0.056998357 0.04891137 0.028381918 -0.049814556 -0.02760107 0.054754164
0.055818427 0.057499476 0.04221536 -0.066326365 0.0004039139 -0.028730761 0.057961904 -0.031189524
-0.065586254 -0.03793297 -0.033730492 -0.03479249 -0.0013357297 0.0041553923 -0.016657496 0.054610822
-0.07415771 0.07282732 -0.028434794 -0.023242652 -0.087073214 -0.07476165 0.032669418 -0.018042706
0.014749936 -0.06966571 -0.025622925 -0.053191517 -0.030954164 0.052613586 -0.023345552 0.084769316
-0.0569629 0.075740255 0.08370184 0.06520071 0.0054176757 0.02079636 -0.048041265 -0.066555545
-0.020053584 0.06281492 -0.05020239 -0.039065342 0.02051304 0.046686668 -0.05090866 0.0311111
0.038227618 0.047189333 -0.010484305 0.04218569 0.024347149 -0.03446861 -0.034421686 -0.067171164
0.027528234 -0.080419786 0.015151284 0.042532213 -0.046609007 0.040130436 -0.04698846 -0.01373611

action_model._discrete_distribution.branches.2.bias f4 [3]
00000000: 2915 91bb 3ed2 613c f2b9 c0bb
-0.0044275713 0.013783036 -0.0058815414

action_model._discrete_distribution.branches.2.weight f4 [3, 128]
00000000: dc74 deba 76e0 84bc a71d f9ba 34fc 22bc
00000010: c46e 5abb 4550 7cbc 1535 d1bc d6c7 e5bc
00000020: fa38 08bc ec80 6fbc b441 2e3c b82f d33a
00000030: b3ae 48b7 ca3c a5bc adaa 80bc 810d 2ebc
00000040: 3b7f eab9 0e52 15bb 3e9f 6e3c 261e 983b
00000050: 933a 47bb 80bc 073c 4e33 f9bc 7bfc 063c
00000060: b279 69bc ba80 dbbc 9c63 27ba 35e6 fd3b
00000070: 23ca 9abc 5b22 f339 f6df 043b 879a 1cbd
00000080: c48a c7bb 14e3 c63b 7def 1c3c d344 3fbc
00000090: 8c3a 7bbc df6f 9f3b 1db9 99bc f969 b9bb
000000a0: b881 2fb9 3b78 eb3b b9d6 343c 36bf ffbb
000000b0: 9c6d 973b b096 94ba 37c3 1abd b70e 4ebc
000000c0: 6042 04bd fe20 88bc dd31 9cbb ab80 c9bb
000000d0: 87c1 1b3c 0e3d 3ebc 7bda 3338 d4c0 94bc
000000e0: 322c 9abc ce0e 6bbc 3646 4f3c 0c8f c2bc
000000f0: 3486 813c 7348 683c 26a8 643c e3e3 57bc
00000100: 82d5 533c 829a f3b9 2571 353c 8593 093a
00000110: 576a 8dbc ce2e 1d3c 12e8 36bb d5c1 8c3b
00000120: 3bdc 443c 44af a8bb 6bfc 83bc 89a5 41bc
00000130: 3690 ce3a 798c ab3b cdee a2bc 783a 2abb
00000140: 6c23 82bc 6434 e83a 3d3f 22bc 82c8 3abc
00000150: e865 bdbb e865 18bc b90e 15bc 6f62 65bc
00000160: 5ec5 cebb 1410 f2bb dbdf e13b 1e12 6a3c
00000170: bac6 913c a4b5 d7bc 1635 85bb 568c 14bb
00000180: 606b 2c3c fbdd 9abb 4251 a8bc fbb3 2fbc
00000190: f749 5f3c bad6 a2bc aaf8 853c 9939 62bc
000001a0: c8f1 1ebb b7ae 93bc 75a2 b43b 384f 4cbb
000001b0: 9e68 1abd 8707 693b e22d 023d ed6d c73c
000001c0: a199 793b c6be bebb c834 15bc 3a7f 23bc
000001d0: 7231 92bc 3976 293c 47c9 fb3b d781 b93b
000001e0: 9cac 5dbc a088 93ba 8459 e0bb 85fd 10bc
000001f0: 4f54 9b3b f46a 08bc f4a8 8b3c 01d5 963b
00000200: 1042 9b3a b531 083c 7fec b33b d064 af3b
00000210: 7a21 94bc ef78 dbbc 16c4 32bc a489 d93c
00000220: c882 8a3b 0cc5 073b 62be 9c3b 1f54 8cbc
00000230: 5561 9b3c af86 873c 8dbb d03b 7d57 753c
00000240: db72 53bc 42ce 643c daed 283a a768 663b
00000250: 9ea1 d03c 26f1 80bb 22b4 1d3c 0cd1 093c
00000260: 237b 4b3b 840d 353c e0fc 4abb 5b10 9d3b
00000270: 6352 a03c fafb 94bc 1ce7 213c 8169 823c
00000280: 5edc 80bc 5314 f2bb 9927 09bc 198a 3d3c
00000290: 671c be3b 977c c4bc 3f57 453c 2475 9c3b
000002a0: a9d5 123c 583f bebc 5b24 9dbb 3366 46bb
000002b0: 1962 69bc bea1 4eba 9ca2 6b3c d933 d6bc
000002c0: 00d5 b03b 902b 7ebc e2b0 5dbc eb19 813c
000002d0: 7e1f 2abd c110 873c 80c9 55bc ad7b 16bc
000002e0: 4eb8 12bb 0ef1 34bb ff01 da3b 2957 663c
000002f0: d574 94bb 24e3 033c dae8 673c d4f9 313c
00000300: a6ae 06bc 537f 433c ef51 4dbb 6e99 5839
00000310: 86a1 343c 414c 4fbb 70cb 29bc d2c1 05bc
00000320: 7c8e 8bbc fd92 c6bc 2ce7 8b3c 2c9e d73b
00000330: 340f d3bc ee3e 583b d4e4 4b3c 0a7b abba
00000340: 0c5a 283b f580 55bc 2c38 c4ba 3df6 c33c
00000350: 157a fc3b 743c fb3b 30e7 bf3b bf96 113d
00000360: 2558 bf3c 7966 c53b 27ff 333c 608a 343c
00000370: 19d6 30bc 0090 423c d550 f9ba 8b58 35bc
00000380: a7c3 4b3a 1c8e 273c daee 3f3b c50d 013d
00000390: c55f e9bb 6a3e bc3c 3f2e e83b 6ac8 ad3c
000003a0: 4acc a2bc 6b7b 6fbb 8e2e 1a3c 7b3b 573b
000003b0: 9734 9fbb c4b4 fcbc 2dcc bdbb cd72 c1bc
000003c0: b1dd 6bba ecd3 b7bb 12e1 1bbc 5c72 e53b
000003d0: 1002 be3c 738e 673b 7f16 7a3c fed3 27bc
000003e0: eb76 493b b459 fa39 d2d6 313c 7ca9 b2bb
000003f0: e6b5 bc3c 081a 693b 576c afbc 0364 1f3a
-0.0016972083 -0.016220313 -0.001900603 -0.009947825 -0.0033330182 -0.015399997 -0.025538007 -0.02804939
-0.0083143655 -0.01461814 0.010635782 0.0016112244 -1.1961604e-05 -0.020170588 -0.015706385 -0.010623337
-0.00044726752 -0.0022784504 0.0145643335 0.004642266 -0.0030399903 0.008284688 -0.030419972 0.008238907
-0.014250206 -0.02679478 -0.00063853874 0.00774839 -0.018895214 0.0004637417 0.0020275093 -0.038233306
-0.00608954 0.0060695503 0.009578583 -0.011674124 -0.015333783 0.004865631 -0.018765027 -0.005658385
-0.00016737625 0.0071859634 0.011037522 -0.0078047765 0.0046212208 -0.0011336412 -0.037783828 -0.0125767505
-0.032289863 -0.016617294 -0.0047666864 -0.0061493716 0.00950659 -0.011611236 4.28804e-05 -0.018158354
-0.018819902 -0.014346791 0.012651017 -0.02374985 0.015811063 0.0141774295 0.013956105 -0.013176891
0.012929322 -0.0004646369 0.011074339 0.00052481174 -0.01726262 0.009593679 -0.002790932 0.0042955675
0.012015398 -0.0051478464 -0.016111573 -0.011819252 0.0015759531 0.0052352515 -0.01988926 -0.0025974791
-0.015886031 0.0017715809 -0.0099027725 -0.011400344 -0.0057799704 -0.00930164 -0.009097748 -0.014000519
-0.006310149 -0.0073871706 0.0068931407 0.014286546 0.017794956 -0.02633173 -0.004065166 -0.0022666655
0.010523647 -0.004726169 -0.02054656 -0.010724063 0.013628474 -0.01987778 0.016353924 -0.013807678
-0.0024253 -0.018027646 0.0055125304 -0.0031175148 -0.037697427 0.0035557465 0.03178204 0.024344409
0.0038085955 -0.005821082 -0.009106822 -0.009979064 -0.017845843 0.010343128 0.0076839062 0.00566123
-0.013529923 -0.0011255927 -0.0068466086 -0.008849506 0.004740275 -0.008326281 0.017048337 0.0046030288
0.001184525 0.008312632 0.005490839 0.005352594 -0.01808237 -0.026791064 -0.010911008 0.02655489
0.004227016 0.0020716814 0.0047834376 -0.017129956 0.01896731 0.016543714 0.006370014 0.014974472
-0.012905802 0.013965191 0.0006444134 0.0035157593 0.02546769 -0.003934997 0.009625467 0.008411657
0.0031048737 0.011050586 -0.003097348 0.0047932095 0.019570535 -0.018186558 0.009881761 0.015919449
-0.01573008 -0.0073876767 -0.008371257 0.01156857 0.0058017257 -0.02398519 0.012044727 0.0047747064
0.008962073 -0.023223564 -0.0047955937 -0.0030273318 -0.01424458 -0.0007882378 0.014382031 -0.02614777
0.0053964853 -0.015513316 -0.013530942 0.015759429 -0.04153394 0.016487481 -0.01304853 -0.00918476
-0.0022387686 -0.00276095 0.00665307 0.014058867 -0.004530529 0.00804976 0.014154637 0.010862786
-0.00822035 0.011932212 -0.0031329354 0.00020656522 0.011024838 -0.0031631144 -0.010363445 -0.008163886
-0.017035715 -0.024240011 0.017078005 0.006580135 -0.025764085 0.0032996493 0.012444694 -0.0013082933
0.0025688438 -0.013031234 -0.0014970354 0.023921126 0.007704983 0.0076671187 0.005856417 0.035544153
0.02335746 0.0060241786 0.010986126 0.011019319 -0.010793232 0.011875153 -0.0019021282 -0.011068474
0.000777299 0.010226753 0.0029286654 0.031507272 -0.0071220123 0.02297898 0.007085591 0.021213729
-0.019872803 -0.0036542069 0.009410514 0.003284185 -0.004858564 -0.030847915 -0.005792162 -0.023614312
-0.0008997573 -0.00560998 -0.00951411 0.007002158 0.023194343 0.003533271 0.015264153 -0.010243414
0.0030741047 0.0004775055 0.01085444 -0.005452333 0.023035955 0.0035568494 -0.021413965 0.00060802716

action_model._discrete_distribution.branches.3.bias f4 [3]
00000000: 34ad 5cbc ab21 da3b 758d c03b
-0.013469029 0.0066568456 0.005876238

action_model._discrete_distribution.branches.3.weight f4 [3, 128]
00000000: 9c32 d2bc bd80 363c 306b 053c ae0b 913c
00000010: b478 813c 554c 4d3b bd07 33bc 3f3a e03b
00000020: 2e53 d6bc 83e2 27bc 0f79 09bc 8283 6cbc
00000030: ae55 55bc 8c95 823c 23ef 5abb 1e55 28bd
00000040: b4af 47bb df20 25bb 15e3 393c 2bfb db3b
00000050: 4c51 0cbd 6ce5 c73c 768d 303d 6e94 ffbb
00000060: 6eff a4bb 0c73 9b3c c2be 26bc 5ed0 5d3c
00000070: e24c 82b9 1b59 89bb e22b a0bb c456 f23b
00000080: 5a7c 97bb fe57 7bbc 2f2e c9ba cec1 d139
00000090: 8318 7a3b 5421 be3c c156 9ebc 485a b03c
000000a0: b466 a7bc 637d ac3c 7333 d6bb 9e96 9e3b
000000b0: 01cc d3bb 3d93 ed3b a70c 863b 4869 893c
000000c0: 6dff 86bc e7b5 30bb 9558 b33c f8ff 78bc
000000d0: 27bf 8d3b 0ec7 cabc bec6 383c 9cf5 2fbc
000000e0: 9bfa 6fbc 7375 8bbc cbd3 9f3c c975 84b8
000000f0: a573 593b c74b b3bb 0a27 6dbc e817 5fbc
00000100: a288 2abc 8c62 af3b 7bef 83bc fe76 ea3b
00000110: 49e1 cbbb 9998 6e3c 1351 da3b 554a c1bc
00000120: dd1c aa3b b8a0 873c ad31 7ebc 5413 053d
00000130: 8430 3e3b d599 bb3a 91c2 4b3c ec54 c1ba
00000140: 34a2 4c3c ba4b b1bb 6961 5cbc 0209 703b
00000150: 961e eb3c 65d2 363c 1097 c0bc 8926 003c
00000160: f8a0 d13c 2ece 9bbc 5bc8 15bc b60d 9cbc
00000170: 293a 84bc c8ab 00bc 715c ed3b 220b 5cbc
00000180: f3bc 9c3c 63ef 84bb ca6c bdbc 81ef 92bb
00000190: edce c53c c9cf c0bb a5f2 3a3c cad4 02bc
000001a0: 5aa4 a43c 47aa fabb 845e d7bb 0da9 56bc
000001b0: fd00 11bd 28bb acbc 2ed7 6d3c 4eb8 543c
000001c0: 38a6 f1bc 965c 27bd 5f5f c33b 793e 96bc
000001d0: 6988 b4bc 3ccf 23bb 6c5e e9bb cf12 133c
000001e0: 0178 343b ecc5 f9bb d24b f1b9 cfc4 91bc
000001f0: a19b 8a3c be96 81bc 9555 1b3c f28c a6bc
00000200: ed0e 503a 602c 583b 0c09 fdba f8d0 9ebc
00000210: 4ab8 1cbc 1709 b53b 149b 813c 5120 9cbc
00000220: 5f83 92bc 43dc 1c3c b56d 833c 37c7 43bc
00000230: c6d7 363c 4777 cdbc 16c2 fb3c b171 353c
00000240: 268f 683c e219 9c3a f6bf 733b 7b81 293c
00000250: b5bb 733c d84b dc3c eb27 b5bc 048d 6a3c
00000260: 2c10 853c 2d2c 47bc 3b70 343b 64e3 a1bc
00000270: 06af 86bc 59c5 173c 7ac9 d33b b0a5 d0bc
00000280: f096 a13c 028d 493c fd66 56bc 2cfd bcbc
00000290: c756 1bbb 78da 763c 8398 8d3c ada8 48bc
000002a0: eac8 9d39 ed03 9c3b 05c3 513c 6374 c1bc
000002b0: ecf1 133c 0cb5 35bc d1d1 19bb e7e2 223c
000002c0: 27e3 02bb 0679 1f39 6172 81bc 853f 9d3c
000002d0: ac1c 143c 6060 a73c 53dc 29bc be6f 23bc
000002e0: 2817 a0bb 953e ffbc 13c8 9bbc 9ab7 353b
000002f0: 5722 45bb 9f35 f5bc e08f 393c 2ddb e03b
00000300: ef4b 17bc 9955 093c 37af 2d3c 55b6 833c
00000310: bd86 483c 34dd 50bb 0367 3e3c 05ba cb3c
00000320: 38a5 3a3c 63d6 223c e6f2 b63c cccc abbc
00000330: 78a3 88bc 8829 d13c 2c3f 00bd ee12 d0bb
00000340: 4737 93bc 3f98 4d3d 4ed9 313c 686f e839
00000350: 9121 b5bc 381e 23bc fba9 ac3c f737 0bbd
00000360: b5e0 d6bb ad99 653b aa79 79bb 0e90 a5bb
00000370: 2eae 113c cc1c 703b 03d3 f0bc 7165 a13c
00000380: d588 0fbd 370b 7e3c 2f1e d33c 7199 6439
00000390: 21da 72bc d971 563c 64b6 323a 9692 963b
000003a0: 1dfd 8fbc 3fc4 45bc 8553 acba b8a6 793c
000003b0: 2ec5 263c e896 a43b b5d5 8b3c 3310 c73c
000003c0: b95d ce3c 2339 303c 4418 debb e27b b63c
000003d0: c7fe 103c ba69 c3bb fb73 1cbc 0432 813c
000003e0: a9e5 743c 7351 953b e718 a4bc ca1f a43c
000003f0: e9c4 04bd 1322 8938 95fd c4bb debf 813a
-0.025658898 0.011139092 0.008143231 0.017705765 0.015804626 0.0031326015 -0.010927138 0.006842881
-0.02616271 -0.010246876 -0.008390679 -0.014435651 -0.013020916 0.01594045 -0.0033406697 -0.0410968
-0.0030469717 -0.0025196595 0.0113456445 0.006713291 -0.03425722 0.024401389 0.043103658 -0.0077996766
-0.0050353324 0.018975757 -0.010177316 0.013538448 -0.00024852814 -0.0041915304 -0.0048880437 0.007395597
-0.004622978 -0.015340803 -0.0015348847 0.00040007982 0.0038161583 0.023209251 -0.019328477 0.021527424
-0.020434715 0.021055883 -0.006536895 0.0048397323 -0.006463528 0.007250218 0.0040908637 0.016773835
-0.016479218 -0.002696389 0.021892825 -0.015197746 0.0043257657 -0.02475312 0.011277853 -0.01073971
-0.014647151 -0.017023778 0.01951017 -6.31619e-05 0.0033180502 -0.00547168 -0.01447464 -0.01361654
-0.010408552 0.005352324 -0.016105404 0.0071552983 -0.0062219244 0.014562749 0.006662497 -0.023595015
0.005191429 0.016556129 -0.015514773 0.032489136 0.0029020617 0.0014312813 0.012436525 -0.001475004
0.012489844 -0.0054106386 -0.013450959 0.0036626463 0.028701108 0.01115856 -0.023509532 0.0078216875
0.025589451 -0.019019213 -0.009142007 -0.019049507 -0.016141014 -0.007853456 0.007243686 -0.013430389
0.019133067 -0.0040568574 -0.023123164 -0.0044841175 0.024146521 -0.005884145 0.01141039 -0.007985303
0.0200979 -0.007649693 -0.0065725464 -0.013101828 -0.035401333 -0.021085337 0.014516635 0.012983395
-0.029498205 -0.04085978 0.005962297 -0.018340336 -0.022037702 -0.0024995347 -0.0071218517 0.008976652
0.0027537348 -0.007622471 -0.00046023593 -0.017794041 0.016919913 -0.01581895 0.009480854 -0.02033088
0.00079367944 0.0032985434 -0.0019305064 -0.019386753 -0.009565422 0.0055247652 0.015821017 -0.019058378
-0.017884908 0.009573999 0.016043523 -0.011949352 0.011159843 -0.02508129 0.030732196 0.011074469
0.0141942855 0.0011909569 0.0037193275 0.010345812 0.014876296 0.026891634 -0.022113761 0.014315847
0.016243063 -0.012156528 0.0027532715 -0.019761749 -0.01644088 0.00926336 0.006463227 -0.025469631
0.019725293 0.012301685 -0.013086078 -0.02306994 -0.0023702846 0.015066735 0.017284637 -0.012247247
0.00030095066 0.00476121 0.012802844 -0.023615068 0.009029847 -0.011090528 -0.0023471008 0.009941793
-0.001997182 0.00015208506 -0.01580161 0.019195328 0.009040039 0.020431697 -0.010367471 -0.009975372
-0.004885573 -0.031157771 -0.019016301 0.0027727843 -0.0030080283 -0.029932795 0.011325806 0.0068620653
-0.009234413 0.0083822245 0.0106008565 0.016078154 0.012239155 -0.0031870129 0.01162124 0.024868974
0.01139193 0.009938809 0.02233262 -0.020971678 -0.01667951 0.025532499 -0.031310245 -0.006349913
-0.017970694 0.05019402 0.010855032 0.00044333492 -0.022110732 -0.009955935 0.021077147 -0.03398892
-0.006557549 0.0035034225 -0.0038066902 -0.005052573 0.008891625 0.0036638258 -0.029397493 0.019701691
-0.035042603 0.0155056035 0.025771229 0.00021800936 -0.014822514 0.013088667 0.00068173395 0.004595111
-0.017576749 -0.0120707145 -0.0013147449 0.015237503 0.010178847 0.0050228722 0.017069677 0.024299717
0.025191175 0.01075581 -0.006777795 0.022275869 0.008849806 -0.0059635313 -0.009549136 0.01577092
0.014947333 0.0045568286 -0.020031406 0.02003469 -0.03241435 6.539016e-05 -0.0060116746 0.00098991

discrete_action_output_shape f4 [1, 4]
00000000: 0000 4040 0000 4040 0000 4040 0000 4040
3.0 3.0 3.0 3.0

network_body._body_endoder.seq_layers.0.bias f4 [128]
00000000: 7cee 993c a6af f33c a69f 7e3c 02b9 4b3d
00000010: aa7d d83c db91 b23c 8b4b 0e3c 5fe0 903c
00000020: 734b bd3b 95f7 253c 5a3d ae3c 8170 09bd
00000030: 3a3c d43c a20a 413d b204 a63c 8da9 fd3c
00000040: b337 7a3c cd69 723c 30b2 ff3c 449d f53c
00000050: 6331 ba3c 6401 b93c 7e37 dc3c 8866 01bd
00000060: 9e2d 913b 8e61 ac3c 2def 8d3c 5285 303d
00000070: 17fa 223c df0c c03c a5df 6e3c 053c bd3c
00000080: 80e6 793c 4e01 e83b deee e43c 75d7 b33b
00000090: 57ad 02bd 0f57 c33c 87b1 ee3c a926 7ebc
000000a0: ebe0 d83b 9d2e d3bc ee80 363c b88b 03bc
000000b0: 113c f13c 8670 ef3c 5f2c 9bba a1cd ed3c
000000c0: 9917 ef3c eac5 a93c 3cf8 ca3c cc65 1e3d
000000d0: 3435 873c 7411 9eba 2c27 e63c 0fd3 a83c
000000e0: 63ba c5bb 0d44 dc3c 59c5 853c e39e 903c
000000f0: 9dcc 483c a722 2b3c ee9b aebb b76e 033d
00000100: 7a61 bd3c 1114 3f3d 3538 463d 8b4c e03c
00000110: 3b4d d23c 6704 613c d0d8 243c ccea ac3c
00000120: 9665 113d 19e1 c43c 3889 033d fb61 493c
00000130: 01f6 3d3d 40e3 2d3d 684f fc3c 1292 dd3c
00000140: 4a14 8d3b 78cf 843c ae87 e73c f296 8b3a
00000150: d4fa 143d 00c8 f13c b7eb 123d ac9c 593c
00000160: 37dc bc3c ed96 a1bc 6653 633d 06db 203c
00000170: 8b91 c43c 63ac bf3b 3327 b53c e22b a03c
00000180: 3e82 563d 620c 053c 41ec 723a 7536 a73c
00000190: 0a8b 143c 56d4 97bc 7e98 0c3c 9194 f83c
000001a0: d16f e93c eeb8 0d3c aa30 253d ae9c e93c
000001b0: 5186 093d 69ec cc3c a035 e93c b1cb c5bb
000001c0: 038d c73c a79e d53c da82 bd3c 74b8 803c
000001d0: 25cc 3f3c 76e8 143d 0ca6 3b3b 294d ca3c
000001e0: 861d e63a 7f11 db3c efca 7a3c d7dd d93c
000001f0: 6276 3d3d 89a6 b33b 6dff 993c 9146 743c
0.018790476 0.029746842 0.015540993 0.049736984 0.026427109 0.021798065 0.008685003 0.017685113
0.0057768165 0.010129829 0.02126949 -0.033554558 0.025907625 0.04712928 0.02026591 0.030964637
0.015272069 0.014795733 0.031212896 0.029982217 0.022728628 0.02258367 0.02688193 -0.031591922
0.004430487 0.021042611 0.017325962 0.043095894 0.009947321 0.023443637 0.014579688 0.023099909
0.015252709 0.0070802337 0.027945932 0.005488331 -0.03190359 0.023845224 0.029137386 -0.015512147
0.006618609 -0.025779063 0.011139138 -0.008028917 0.029447587 0.02922846 -0.0011838785 0.029028716
0.029186057 0.020724256 0.02477657 0.0386713 0.016504861 -0.0012059645 0.02809485 0.020608453
-0.006034182 0.026887918 0.016329454 0.017653888 0.012255815 0.0104452735 -0.005328647 0.032088008
0.02311777 0.046649996 0.048393447 0.027380249 0.025671592 0.01373396 0.010061458 0.021108054
0.03549727 0.024033116 0.032113284 0.012291427 0.046377186 0.04245305 0.030799583 0.02704719
0.004305397 0.01621221 0.02826294 0.0010649844 0.03637202 0.029514313 0.035869326 0.013281982
0.023054225 -0.019725287 0.055499457 0.009817844 0.023995182 0.0058494075 0.022113418 0.019552175
0.052370302 0.008120628 0.0009266772 0.02041171 0.009066353 -0.018533867 0.008581279 0.03034428
0.028495701 0.008650048 0.040329613 0.028517094 0.03357536 0.025015073 0.028467953 -0.006036245
0.024359232 0.026076628 0.023133684 0.015712954 0.011706387 0.036354505 0.0028632907 0.024694996
0.0017556406 0.026741741 0.015307172 0.02659504 0.046255477 0.005482499 0.018798554 0.0149094025

network_body._body_endoder.seq_layers.0.weight f4 [128, 154]
00000000: 60a9 c13d b41e 22be e111 87bd 22f3 e03d
00000010: 0372 f23d 2e51 1c3e c5b3 1a3d 0b33 753b
00000020: 28a6 f13d 70f3 0a3c 2c42 cf3d 0338 a63d
00000030: d103 11be 6da8 423d c6a9 b13d 4ea5 7e3d
00000040: d959 c13d 473d 933d bc7c 5ebe a363 25be
00000050: 9cad 82bd 3e1b 0f3c 76ca 313d 5da5 103e
00000060: 0458 73bd f9a4 c7bc e28b 3bbe 997b 0abe
00000070: 0559 8dbd 3c10 71bd 696a 6e3c 84a8 803d
00000080: f5ea ddbc c171 7c3d 2c29 63bd e391 483d
00000090: 512d 033e f102 af3c 4046 f73d 7be0 36bc
000000a0: bcd3 01bb bb40 8abb 4898 ae3c ba89 f7b8
000000b0: 0243 a7bd 2e9c 123e 459d 8cbd eb03 b9bd
000000c0: 397c 9b3d e793 863d 729e 53bd 653c 55be
000000d0: 51bb 00be 5271 20bc 547c a03c 4437 84bd
000000e0: 2b44 133d 7ef3 b8bc 5681 8a3b 0a34 903d
000000f0: 897e 8abc dd55 38bc 10b2 993c e9f9 69be
00000100: 6013 5c3c 5209 c0bd edaf 0dbd 9c92 9a3d
00000110: 2762 913d df96 153e e1aa cf3d bc1d 00be
00000120: c8d6 4d3c 8ee7 14be 4082 34bd 866b f63d
00000130: 42ff 0f3e 1285 20bd c47b 543d 7213 b13d
00000140: 5076 123e 20c1 70bd 85f4 023e dc46 133d
00000150: c7b5 733d 023f 813a 42e2 d93d 8e8e bd3b
00000160: f416 c1bd d1e0 50bb 6865 10bd c310 893b
00000170: 1ecc 603e 796d 273d 2b1d 2b3d 36c2 4d3c
00000180: 8b9c 043e 9a27 c3bd 6844 9a3d 031a 683d
00000190: 2743 93bd 52e7 3d3d 87d8 d23d b7ad 933d
000001a0: 9d58 78bc 3f9c 78bd 8fcd 16bc ec84 27be
000001b0: 377c 5dbd 691b 5a3d 02d1 24be cf78 abbd
000001c0: d2bb 8cbb ffe5 ecbd edc6 373d 8c71 33bd
000001d0: 669b 7b3d 9ff7 63bd f268 26be 7799 07bd
000001e0: 74a5 42bd 7169 063d 093e c6bc a7a1 e63b
000001f0: 68c7 1c3e 4c39 e73d bbe2 07bd 8920 0a3e
00000200: 8109 61bd 13bd c33c aa08 af3d e18b 363e
00000210: b5b0 d13c 32d9 4b3d 50a1 07be 432c d63d
00000220: 52d5 1dbd 725e fbbc 9a70 3d3e a123 babd
00000230: a26a 323d 6a70 aa3c b31f 1d3e ea36 073d
00000240: 9c79 53bd f631 e03c d779 5c3c 24ba 4dbc
00000250: d764 a93d 03cc 81bd d239 76bd 9dfb a7bd
00000260: 0e63 823d 2c55 a23d 5d88 23bd b1cf 843d
00000270: bbd6 1c3e b544 38bd 2235 1d3e 59f3 b1bc
00000280: eb8d f4bc c1d0 183e 54c5 0a3e d034 67bc
00000290: 5ed8 073e 77dc fa3b ad51 64bc d3db 8abd
000002a0: 240b 5d3d 34cc 233d a20a 88bd bee6 0dbd
000002b0: a66b 53bc 4f0a 51bd 64da 303e d774 ba3d
000002c0: 5ef0 df3d 70c8 d53d 7f98 183e 9554 09bd
000002d0: b644 1dbe 5712 00bd ad6b 1fbe a8d8 693d
000002e0: bc7b 14be c081 1dbd 179d c23d 345c 9fbd
000002f0: a49e a13c 1aa8 6bbd b334 223c 962d 2d3d
00000300: 2d83 d4bd 92e7 32bd b6b6 6a3c c732 7bbd
00000310: 3fb2 6d3d 5c8b 7ebc 1092 003d d778 813c
00000320: e332 603c dbba cabd 9de7 0fbd 012d 87bc
00000330: 74bc 063e 353f 56bc 770f 95bc 1d0c ecbc
00000340: f935 10be 8dd5 41be 98b5 82bc 7957 2f3d
00000350: 833d 6cbd 4d92 043c fef8 a93d 613c 133c
00000360: d195 943d 4010 72bd 95ff 30bd 7a09 c6bd
00000370: aec4 6f3e 88ed 403e a925 6cbd a8f1 453d
00000380: cb0e 2cbd ad64 503e 3f36 ce3d 9e0b 273e
00000390: dc9a d83c ac10 633d 3d12 2c3e c33a 5b3c
000003a0: 3462 b53b 6698 b0bd c875 253e 0cb5 c93d
000003b0: 2592 8abc 4001 29bd 3922 0cbe d278 a8bd
000003c0: d37c afbd 4328 8e3d ddb7 99bd 6151 553d
000003d0: fabb f83d 73ed b53d f551 2ebd fb52 df3c
000003e0: acdf 0e3e 4866 56bd e64e 1dbe 66c0 7e3d
000003f0: 0e03 f4bd 192b d5bd 2641 da3b ab2e a33d
0.09456134 -0.15832025 -0.06595207 0.10983874 0.11838152 0.15265343 0.037769098 0.0037414457
0.1179927 0.008480892 0.10120043 0.08116152 -0.14161612 0.047523905 0.0867496 0.062169366
0.09440965 0.07189422 -0.2172727 -0.1615129 -0.063807696 0.008734522 0.043405972 0.14125581
-0.05941011 -0.024370657 -0.1831508 -0.13523711 -0.06901745 -0.058853373 0.014551737 0.06282142
-0.027089575 0.06163192 -0.055459186 0.048967253 0.12810256 0.021363707 0.12073946 -0.011161919
-0.0019810041 -0.0042191423 0.021312848 -0.000118035314 -0.081670776 0.1431739 -0.06865934 -0.090339504
0.07592053 0.06571179 -0.051664777 -0.2082382 -0.12571456 -0.009792643 0.019590534 -0.064558536
0.035953682 -0.022577044 0.004226844 0.07041176 -0.01690604 -0.01125094 0.018761665 -0.2284924
0.013432354 -0.09376778 -0.034591604 0.07547495 0.07098799 0.14608334 0.101400144 -0.12511343
0.012563415 -0.14541456 -0.04406953 0.12032227 0.14062217 -0.039189406 0.051875845 0.08646287
0.14302945 -0.05877793 0.1278859 0.03595625 0.05949953 0.0009860697 0.106388584 0.005784816
-0.09428206 -0.0031872282 -0.03525296 0.0041829064 0.21952865 0.040875886 0.041775864 0.0125585105
0.12950341 -0.09529038 0.07532579 0.05666543 -0.07190543 0.046363182 0.102952056 0.07210868
-0.015157846 -0.060695883 -0.009204282 -0.163593 -0.05407354 0.053248797 -0.16095355 -0.08372652
-0.004294851 -0.11567306 0.044867445 -0.04380946 0.061427496 -0.05565607 -0.16250971 -0.03310534
-0.04752107 0.0328154 -0.024199503 0.0070383134 0.15310442 0.112902254 -0.03317521 0.13488974
-0.054940704 0.023893869 0.085465744 0.17826797 0.025596956 0.04976768 -0.1324513 0.10457661
-0.038533516 -0.030684683 0.18499985 -0.09088827 0.043558724 0.020805556 0.15344124 0.033011355
-0.051629648 0.027367573 0.013456783 -0.012556586 0.08271187 -0.0633774 -0.060113735 -0.08202288
0.063665494 0.079264015 -0.039924968 0.064849265 0.15316288 -0.0449874 0.153523 -0.021722483
-0.029852828 0.14923383 0.13551837 -0.014111713 0.13266131 0.007655676 -0.013935489 -0.067802094
0.053965703 0.039989665 -0.06642653 -0.03464388 -0.012904083 -0.05103522 0.1727081 0.09104317
0.10934518 0.10438621 0.14901923 -0.03352793 -0.15358242 -0.03126749 -0.15568419 0.057091385
-0.14500326 -0.038453817 0.09502619 -0.07781258 0.019728966 -0.05753336 0.00990026 0.042279802
-0.10376582 -0.043677874 0.014325788 -0.061327722 0.058031317 -0.015536156 0.031389296 0.015804691
0.013684007 -0.09898921 -0.035132993 -0.016500952 0.13157827 -0.013076593 -0.01819585 -0.02881437
-0.14083089 -0.1892912 -0.015955731 0.04280803 -0.05767585 0.008091521 0.082994446 0.008986563
0.07255138 -0.05909753 -0.043212492 -0.09669776 0.23414871 0.18840611 -0.057653103 0.048326164
-0.042006295 0.20350905 0.1006894 0.16313025 0.02644103 0.05543582 0.16803832 0.013380709
0.0055353884 -0.08622818 0.16158211 0.09848985 -0.01691539 -0.041260958 -0.1368493 -0.0822617
-0.0856873 0.06941273 -0.07505772 0.052079562 0.12145229 0.088831805 -0.04255863 0.027261248
0.13952512 -0.052343637 -0.15362129 0.062195204 -0.11914645 -0.10408611 0.0066605983 0.079678856

network_body._body_endoder.seq_layers.2.bias f4 [128]
00000000: d1ba 0b3b c9de 403c 652a 6d3c 48a2 7e3c
00000010: 4534 a93b 1b48 f83c dff4 843c f19f b33c
00000020: 5bfe 853c c685 383c 0642 a63c 4e4e ad3c
00000030: 16e6 343c 386e c83c 7bb4 b63b ba41 b63c
00000040: 4392 c93b 85f5 093c 1c71 023d fce7 093d
00000050: f43c 3a3c 07df a23b c3e3 033b 21be e63c
00000060: 17f9 a23c 1420 0f3c 9bdf 6b3b 7fd3 bb3c
00000070: 50d0 3a3c e087 803c 60fe 863c cf9d 023d
00000080: 2b4b 603c fd19 643c 8d65 883c 1560 f93c
00000090: c292 673c a8ab afbb e438 ba3c c550 253d
000000a0: c83a 673c 0406 523b 1ccb ad3b e537 d63c
000000b0: 0384 123c 616d e43c 3c44 a43c e40d d53c
000000c0: 1d21 a83b 32d1 a63c 5648 323c a4e0 b73c
000000d0: 4458 dd3c 6387 6b3c c6de 1b39 d074 1b3c
000000e0: 3d2f 203c 9918 cc3b 148c f73c 8035 823c
000000f0: 0974 e73b d401 9c3c 8553 c03c c466 d33c
00000100: 23ec 083b cf2a 76bb 39f5 323c afd5 b93c
00000110: 3fac d73a fc84 563b f01b 283c e59a b63c
00000120: 82d3 063b 0160 3339 afae a03c d93b 21bb
00000130: 52dd 193d 88f2 0a3c 6c42 7b3c 59df d43c
00000140: b230 523c 6736 873c e489 b33c 5564 b23c
00000150: 2c25 483c cf3d cd3c c192 a33c a3f6 aa3c
00000160: 7f94 533c 71c6 da3c 256b ec3b 86ad 0f3d
00000170: c8f8 803c 00ea 7c3c e815 ab3c 1bb0 683c
00000180: e91d bb3c e31f a53c dd9c c93c 3001 853c
00000190: 2b67 83bc fe6b e13b 39f4 e73c 1d8d d63c
000001a0: 7416 3c3c f30b b23c 7112 343c 323a 7c3c
000001b0: fd76 1f3c 4dd7 2b3c 2f15 0d3c f572 213c
000001c0: b047 ad3b fd75 803c 5c53 153d e206 503c
000001d0: d745 ec3c ac62 123d 0bbd a43c d692 b73c
000001e0: 57e1 c43a e325 bf3c 8b69 583c d4eb 603c
000001f0: 757a d73c 350b ba3c b134 a63b 3b65 a93c
0.0021321068 0.011771866 0.01447544 0.015541621 0.0051637017 0.03030782 0.016230045 0.021926852
0.016356638 0.011262363 0.020295154 0.021155503 0.011041185 0.024466619 0.005575714 0.022248138
0.006151469 0.008420353 0.03184615 0.033668503 0.011367071 0.0049704346 0.002012477 0.028166832
0.019894166 0.008735675 0.0035991434 0.022927998 0.011402205 0.01568979 0.016478717 0.03188878
0.013689796 0.013922212 0.016649986 0.030441323 0.014134111 -0.005361039 0.022732206 0.04036023
0.014113136 0.0032047043 0.0053037535 0.0261497 0.008942607 0.027884187 0.020052068 0.0260076
0.0051309005 0.020363424 0.010881504 0.022445984 0.027019627 0.01437554 0.00014864941 0.0094882995
0.0097768875 0.006228518 0.030218162 0.015894651 0.007063393 0.01904384 0.023477325 0.025805838
0.0020892702 -0.0037562137 0.010922723 0.0226849 0.0016454532 0.0032733073 0.010260567 0.022290656
0.0020572846 0.00017106535 0.019614546 -0.0024602322 0.037564583 0.0084806755 0.01533566 0.025985407
0.012828993 0.016505433 0.021916337 0.021776358 0.012215894 0.025053887 0.019967439 0.020869559
0.012913822 0.026705952 0.007214921 0.035077594 0.015743628 0.015436649 0.02088447 0.014202143
0.02284141 0.020156806 0.024610931 0.016235918 -0.016040405 0.0068793288 0.028314697 0.026190335
0.011479963 0.021734213 0.010990725 0.015394734 0.009732959 0.010488343 0.008611008 0.009854068
0.005288087 0.015681261 0.03645645 0.0126969535 0.028841896 0.035738632 0.020109674 0.022408884
0.001502077 0.023333495 0.013208757 0.013728101 0.02630351 0.022710422 0.0050721993 0.020678153

network_body._body_endoder.seq_layers.2.weight f4 [128, 128]
00000000: be86 113d 2302 ac3d a4fc 383e e4d0 00be
00000010: 3cf2 303e 3686 9abd 4097 2dbc 9237 31be
00000020: 06eb 903d 6208 c93d 4684 ba3d cd1f e8ba
00000030: 1548 acbc 062d 56be d5dc febb 67b3 8fbd
00000040: c573 54bd e6bf 0a3d dccd c03c 35e3 513d
00000050: 8bd5 3e3d 485c aebd a6bf e63c a0d8 803e
00000060: 0377 53bd 6d6b 783e 24db d2bd 92ff d0bd
00000070: 171b 293d 33c9 b73c 826e 25bd f801 803d
00000080: 565b fb3d 2fe5 56bc 1f49 bbbd b221 133d
00000090: 5b6c a4bd 14b2 4dbd 3416 2bbd 8990 033d
000000a0: d65f 80bd c849 bc3d 4b46 4fbd 27bc 1fbd
000000b0: 3766 433d 3188 debd 57c7 1cbe b89c 0c3e
000000c0: 6ba6 4b3c 2a4f 903d 0d43 c3bc 3c8b ccbd
000000d0: aa94 573d 9c45 183d 0766 39be 2588 15be
000000e0: 7303 3ebd 6772 243e 3898 7e3d bc54 c1bd
000000f0: a573 cdbb 4d40 a43d 1491 86bd cd0e 9cbd
00000100: 209d 1cbc c38a debc c995 643d e544 483e
00000110: 3905 cfbd ef70 863d 9d88 ed3d 808e c63d
00000120: 8cc3 bfbc e8ff 213e c735 f13d 1392 a73c
00000130: 895b c03d 812e a3bc 892c 963d 6e0a f23d
00000140: 38fa 86bd b123 aa3c 564a a7bd 0ec5 1bbe
00000150: eb4c 35bd 886f 5b3d ea32 02bc 1831 8b3d
00000160: 0cd7 b33c 6971 78bd ea19 06be b202 9e3d
00000170: fb49 2cbd 7731 13bd 1cd9 5d3c 7a65 a2bd
00000180: 2b4a cbbd 802f 153e ce61 1c3e 0b69 3ebd
00000190: 1d32 3bbe f4c1 503d aa85 bf3d 3024 14bd
000001a0: e580 bb3c 7356 17bd b735 11bd 8daa 4cbd
000001b0: 3182 f0bd 033a b13d e428 c83d 1ea0 063d
000001c0: 7040 86bd d630 573e f9ea b63d dc03 30be
000001d0: df2f 053e 77b8 e7bd 76b3 ad3d f341 5a3e
000001e0: 943e 163e 798b cabd 0449 463e 1049 063c
000001f0: d420 3ebd c7a7 233e 547b 8e3d 01a8 99bd
00000200: d885 d1bc 4136 0d3e b1ec e2bd 6791 85bd
00000210: c059 083b 4292 5e3d 39f0 b93d c893 ab3c
00000220: 2b3b 953d e734 e7bd cd19 4e3c 7646 debc
00000230: 5cb9 263e 4d9b febb 1558 933b 4d1b f1bd
00000240: d768 6dbb 76f7 153e d917 4b3c e15b 0abe
00000250: aefb b33b 2cf9 7e3c bf21 10be eb7c 97bd
00000260: 1aae 183e 9a5c c13c abb8 8b3d cb2d babd
00000270: 2fd7 0bbe d801 433e 3cf7 aa3b fbd3 cbbd
00000280: e5c2 073e c987 9cbd 13e1 1a3e 92d9 6bbd
00000290: 2024 083e 186d 843d e897 b63e 5609 5cbd
000002a0: bb66 0bbd 1531 f23c 0ce3 a2bd e4f1 233e
000002b0: c914 48bd c780 21be 9d10 a6bd 7690 3e3b
000002c0: 36d3 e33b 2a38 283d 2ac3 b9bd d4ba fc3d
000002d0: fb1c 303c f070 b3bd 3fac 45bd 3624 283c
000002e0: a87e 0a3d b9a6 313e 54c0 a3bc b0fc 323e
000002f0: 8c5d f7bc acb9 a63c ddb8 d6bd db03 6e3d
00000300: a9b9 30bd bb02 f3bc c306 3fbd 8265 023c
00000310: 338f a1bd e632 a6bc 89b1 99bd fc1f d63c
00000320: a9d2 79bd a6fa 6ebd 5d6e 35bc 6f7a b93c
00000330: b1a5 4e3e af43 aa3c d4f1 913d 6d0c 583e
00000340: 24d8 adbc d9f5 903d 5f59 0fbd 565a 3a3c
00000350: 838f 143e f52e 93bd bee3 abbd 8c37 763d
00000360: 1636 6f3d 4a25 5a3d 41f4 ea3a d02e 94bd
00000370: ab6f 20be 7737 8f3c fe0d b93c 22ef c73c
00000380: 1d8f 4f3d 7c21 bc3a 55b7 313d dcd5 e1bb
00000390: 2942 1bbe 7169 ff3a 706c 43bd 7422 08be
000003a0: f7f7 e93d 22c5 313d c7af 933d b612 c5bc
000003b0: e8cd 7f3b 9cbf 1abd f4b3 96bd 3f6c 32be
000003c0: 2471 443d 5326 b03c ba2b a4bb f9a9 b63a
000003d0: 2200 f13c d0c1 8cbd 4b0d 14bd fe2a 6f3d
000003e0: 4619 983d 082d 803c b3c6 423d 4c00 7dbd
000003f0: ef52 953c 1589 be3c 871b aabd b5e3 653e
0.03552889 0.08398845 0.18065125 -0.12579685 0.17279905 -0.0754513 -0.010595143 -0.17306355
0.07076077 0.09816052 0.091072604 -0.0017709673 -0.021030465 -0.20915613 -0.00777779 -0.0701664
-0.05186822 0.033874415 0.023535661 0.051242072 0.04659037 -0.08513695 0.028167557 0.25165272
-0.05162717 0.2425973 -0.10295704 -0.10204996 0.0412856 0.022434806 -0.04038859 0.062503755
0.1227328 -0.013116165 -0.09144806 0.035920806 -0.0802848 -0.050218657 -0.04176922 0.03212026
-0.06268279 0.0919376 -0.050604146 -0.038997795 0.0477049 -0.1086582 -0.15310417 0.13731658
0.012429814 0.07046349 -0.023835683 -0.09987494 0.05263201 0.03717576 -0.18105327 -0.14602716
-0.04639001 0.16059266 0.062156886 -0.0943999 -0.0062698894 0.08020077 -0.0657064 -0.076200105
-0.009558946 -0.027165776 0.05580691 0.19557531 -0.10108418 0.06564509 0.115983225 0.096951485
-0.023408674 0.15820277 0.11777835 0.020455396 0.09392459 -0.019919636 0.07332713 0.118183956
-0.06590694 0.020768972 -0.08168475 -0.15211889 -0.044262808 0.05357316 -0.007946709 0.06796473
0.021953128 -0.06065503 -0.13095823 0.07715358 -0.04206274 -0.035935845 0.013540532 -0.07929511
-0.09926256 0.14568901 0.15271685 -0.046486896 -0.18280835 0.050966218 0.09351666 -0.036167324
0.02288861 -0.03694768 -0.035451617 -0.049967337 -0.11743582 0.08653643 0.09773424 0.032867543
-0.06555259 0.21014723 0.08931536 -0.17188972 0.13006543 -0.11314481 0.08481495 0.2131422
0.14672309 -0.098898835 0.19363791 0.00819613 -0.046418026 0.1598197 0.06957117 -0.07502747
-0.025576517 0.13790227 -0.110803016 -0.06521874 0.0020805448 0.0543387 0.09079022 0.020944491
0.07286676 -0.11289387 0.012579394 -0.027133208 0.16281646 -0.007769978 0.004496584 -0.11772785
-0.003622582 0.1464518 0.012395822 -0.13511612 0.005492649 0.015562337 -0.14075373 -0.07396873
0.14910164 0.023603726 0.06822332 -0.090907656 -0.13656305 0.19043672 0.005217461 -0.099525414
0.1325794 -0.076430865 0.15124922 -0.057580538 0.1329503 0.064661205 0.3566277 -0.05371984
-0.03403352 0.02956442 -0.07953462 0.16010243 -0.048847947 -0.15771781 -0.081086375 0.0029077805
0.0069526685 0.041069187 -0.09070428 0.12340322 0.010749097 -0.087617755 -0.04825997 0.01026254
0.033812195 0.17348756 -0.01998917 0.17479205 -0.030195974 0.020352207 -0.104844786 0.058109146
-0.04314581 -0.029664388 -0.046637308 0.007958772 -0.07888641 -0.020287942 -0.07504565 0.026138298
-0.060991917 -0.058344506 -0.011073676 0.022641389 0.20180394 0.020784227 0.07126203 0.2109849
-0.021221228 0.07078142 -0.03499734 0.011374077 0.1450787 -0.07186691 -0.08393048 0.060111567
0.05840119 0.053258218 0.0017925577 -0.07235491 -0.15667598 0.017482502 0.02258968 0.02440602
0.050673593 0.0014353241 0.04338773 -0.006891949 -0.15161957 0.001948638 -0.047710836 -0.13294393
0.11424249 0.04340089 0.07211261 -0.024056774 0.0039032642 -0.03778039 -0.07358542 -0.17424105
0.04795946 0.02150265 -0.0050100954 0.0013936154 0.029419009 -0.06872904 -0.03614549 0.05839061
0.074266955 0.015646473 0.047552776 -0.06176786 0.018228022 0.023258725 -0.08306032 0.22450145
