results/FoodTarget_imitation_5/AgentPlayer/AgentPlayer-222.pt (torch, 267983 bytes, 12 tensors)

network_body._body_endoder.seq_layers.0.weight f4 [128, 120]
000000 c4 7d 2b 3c 54 e3 7e 3d 94 87 93 bc ca b4 be 3d
       0.010466997 0.062228516 -0.018008985 0.093118265
000010 dd 31 90 bd 3b b7 4d 3d 99 8e fb 3c ff 63 3d 3d
       -0.07040761 0.05022357 0.030707644 0.04623794
000020 d6 66 44 3c 9b c0 60 bd 8c bb 41 3e a8 8f 1a 3e
       0.011987409 -0.054871183 0.189192 0.15093863
000030 4a 59 14 bd 12 09 a0 3d 7b 49 b0 3d 2c 04 0e 3d
       -0.036217965 0.0781423 0.08607765 0.034671947
000040 09 db a0 bd c4 6e c0 3c e1 b9 fb bd 49 c1 1d 3d
       -0.07854278 0.023490317 -0.12291313 0.03851441
000050 fe c7 85 bb 62 04 b6 3d d9 c5 a0 bd 4a 78 28 3d
       -0.004082679 0.08887555 -0.078502364 0.04113034
000060 52 26 89 bd bb a7 80 bd d5 97 aa 3d 84 43 9a 3b
       -0.06696762 -0.06281992 0.08329741 0.0047077555
000070 ce ae 21 bd 37 e8 7f bd d4 14 d5 bb cd 17 0a 3d
       -0.039473347 -0.062477317 -0.006502727 0.033714104
000080 1c a5 05 be ed af 55 3c 07 d6 16 3e 16 0c 64 bd
       -0.13051265 0.013042432 0.14730082 -0.05567559
000090 4f 60 ae 3d c2 f1 27 3e cc 4e af bc a7 f0 e2 3b
       0.08514463 0.16400817 -0.021399878 0.0069256607
0000a0 bf cc b4 3d 36 cb 06 bd 9a 83 7c 3d f0 28 41 bd
       0.08828115 -0.03290864 0.061648943 -0.04715818
0000b0 e2 2c 1c bc c5 71 61 bd 79 8f cc bd 3a 35 12 be
       -0.009532185 -0.05504014 -0.09988303 -0.14278117
0000c0 f8 6b 1f bd 0c 9f 67 3c ec 15 e4 bc c2 7e 18 be
       -0.038921326 0.014137041 -0.027842484 -0.14892104
0000d0 c6 dd 2e 3d 73 38 9a bd 7b ab f1 3d 23 de e9 3d
       0.04269197 -0.07530298 0.118002854 0.11419322
0000e0 5b 1f 17 bd d9 38 05 be dd 0d 8d bd 48 47 02 be
       -0.036895137 -0.13009967 -0.0688741 -0.12722504
0000f0 2b 62 3b bd af a3 cd bc e5 09 b0 bd 99 39 b5 bd
       -0.045747917 -0.025102464 -0.08595637 -0.088488765
000100 0f db 1a 3c b5 92 15 3d 0b 09 6c bc ed d6 28 bd
       0.009451642 0.036516864 -0.014406453 -0.041220594
000110 05 84 49 bd d6 b6 7f 3d b7 76 80 bd a4 41 40 bd
       -0.04919817 0.062430225 -0.06272643 -0.0469376
000120 3b 92 91 3d 0c 59 26 bc 4f 14 a2 3d 50 3e fa 3d
       0.071079694 -0.010153066 0.0791403 0.122189164
000130 a3 29 06 be aa ea 05 3c 8f 95 bd bd de 2d c1 bc
       -0.1310182 0.008173624 -0.09257042 -0.023581441
000140 16 ac 06 3e b2 3d b0 3d f3 33 75 3d 8e f8 df bd
       0.13151583 0.086055174 0.059863996 -0.1093608
000150 ab 0a 59 bd 8f 64 38 3d 21 cb 0f 3e 05 e6 f6 3d
       -0.05298869 0.045017775 0.14042331 0.120555915
000160 87 56 4a 3d f8 5e 20 3e fe a6 de 3c 65 21 fe 3d
       0.049398925 0.15661228 0.027179237 0.12408713
000170 29 a3 24 3c 56 e2 1d 3d c0 06 aa 3d 4a 90 89 3d
       0.010048666 0.03854593 0.08302069 0.06716974
000180 b4 31 18 3d 96 5f 56 3c ea 52 2c 3e ac fa b6 3d
       0.037156776 0.013084313 0.16828504 0.089345306
000190 79 38 2e 3d dc b8 96 3b 2a b7 61 bd 4a 7a c2 3d
       0.042534325 0.0045996737 -0.05510632 0.09495981
0001a0 5b a1 27 be 54 01 b9 3d 42 c7 ae bc 6e 9d dc 3c
       -0.16370146 0.090334564 -0.021335248 0.026930537
0001b0 d0 82 01 3d 8c 9d ea bd bf 87 90 bc f9 2a 35 be
       0.031618893 -0.11455831 -0.017642854 -0.17692174
0001c0 37 a2 3c be e8 8c a3 bd 1b 83 36 bd 98 6b ee bc
       -0.18421255 -0.0798586 -0.044558626 -0.02910404
0001d0 bd 2a 8f bd 12 55 f8 bd f4 11 8c bd d9 c4 30 bd
       -0.069905736 -0.12125601 -0.06839362 -0.04315648
0001e0 a0 80 ac bd 32 bd 6f bd 21 27 cb 3d 57 59 4a 3e
       -0.08422971 -0.05853004 0.099195726 0.19760643
0001f0 4f fd 96 3d b4 95 5c 3d b0 b9 05 bd 8b 98 8b bd
       0.073725335 0.053853706 -0.03264779 -0.06816205
000200 ea 91 30 be 85 61 8d 3d 5e d1 2e bc 2f ac ab bd
       -0.17243162 0.06903366 -0.010670034 -0.08382451
000210 21 c4 7a bd 4c e5 c8 3b 81 a4 c1 3d a4 81 cf 3c
       -0.0612222 0.00613085 0.09455205 0.025330372
000220 e7 ff a9 3d ff 68 53 bd 47 b3 a9 3d 1a 51 a7 3d
       0.083007626 -0.051613804 0.082861476 0.08169766
000230 86 cd c1 3c e4 57 02 bb 75 08 f9 3b ad 2f d6 bd
       0.023657572 -0.0019888813 0.007599885 -0.10458312
000240 a5 e2 3f bd 01 83 38 3c b2 96 96 3d 8c 10 eb bd
       -0.046847004 0.0112617025 0.073529616 -0.114777654
000250 09 8f 28 3d e6 a2 1d bd bb 45 71 3d 76 bf 83 bd
       0.041152034 -0.03848543 0.05890439 -0.06433003
000260 16 d9 77 bd b3 bc 6d 3d a9 c1 44 be 0b c7 53 bd
       -0.060509764 0.058041286 -0.192145 -0.051703494
000270 76 3e 1c bb d5 8a 1d be c1 84 b0 3c 07 1c 08 bd
       -0.002384094 -0.15384991 0.021547677 -0.033229854
000280 86 f3 5c bd c6 e9 1d 3e e9 77 47 bd 60 52 d9 bd
       -0.05394318 0.15421209 -0.04869834 -0.10611415
000290 e0 fc 18 be 5f f3 2f 3e 75 48 97 3d 8c 0a 03 3e
       -0.14940214 0.17182682 0.07386867 0.12796992
0002a0 00 21 77 bd 22 5c d1 3d 23 27 3f 3d eb 67 f7 3d
       -0.060334206 0.10222651 0.046668183 0.12080368
0002b0 f2 20 61 3d e6 9f 21 be b0 79 2c be 54 b1 46 3d
       0.05496306 -0.15783653 -0.16843295 0.048508957
0002c0 d1 23 08 be c9 5c 9d bd 3e a8 93 bd 0e ea 92 bd
       -0.13294913 -0.07683713 -0.07209824 -0.07173549
0002d0 77 b3 69 3c 5b 8c 58 3d c4 9a 55 3e 15 9c cf 3d
       0.014263979 0.05286823 0.2085982 0.10137192
0002e0 61 f9 35 bd 14 12 43 bc 21 28 24 3d 22 59 89 3e
       -0.04442728 -0.011906166 0.040077332 0.26825815
0002f0 53 d8 85 bc e4 cf c4 3c 8e 6c 2e be ab 85 9a 3d
       -0.016338503 0.024024911 -0.17033598 0.075450264
000300 45 53 14 3e de 3f 99 3d 28 e8 4a be 5d 42 4d 3d
       0.1448489 0.07482885 -0.19815123 0.050112117
000310 b4 02 f5 3d e1 18 19 be e2 5d 9e bc c7 c9 d1 bd
       0.11963406 -0.14950897 -0.019331876 -0.10243564
000320 e3 83 0b 3e a9 75 0a bd 85 af 54 bd 2e 9b a9 bd
       0.1362453 -0.033803616 -0.0519252 -0.08281551
000330 0d 33 33 be 3f da 06 bd a2 78 90 bd 35 78 24 3d
       -0.17499943 -0.03292298 -0.07054259 0.0401537
000340 ff 7a 58 3c b6 ad cc 3d ea 1b 0f be 34 6f 2b bd
       0.013212918 0.0999407 -0.13975492 -0.0418541
000350 6c 14 e9 3d a6 34 e5 bd 62 a9 25 3d 0c d6 fb 3d
       0.11380848 -0.111916825 0.04044474 0.122966856
000360 66 86 5f bd 2a b3 ba 3d cf c6 6d bd b9 c6 2f 3e
       -0.05457153 0.09116204 -0.058050927 0.1716565
000370 0c 04 f9 bd ff 78 b4 bc 93 31 18 3e b8 5d 65 bd
       -0.12158975 -0.022030352 0.14862661 -0.05599758
000380 7c 00 0e be 65 39 df 3c 4a 62 28 3e e4 07 82 3e
       -0.13867372 0.027249048 0.16443744 0.25396645
000390 74 90 1e 3d 86 64 59 bd c9 12 8b bd e7 9d 66 3d
       0.03871198 -0.053074382 -0.06790692 0.05630293
0003a0 47 cb 92 3e dc 89 07 be 36 e4 d7 ba 6c 76 2a 3d
       0.28670713 -0.13236183 -0.001647121 0.041616842
0003b0 f5 e6 7b be 70 fb 85 bd 32 56 18 be 40 aa 37 3d
       -0.24599822 -0.065420985 -0.14876631 0.044840097
0003c0 cf b3 32 bb f0 50 c2 bd dd 80 be 3d ed d0 29 bd
       -0.0027267819 -0.09488094 0.093019225 -0.041459013
0003d0 07 60 86 3d df b6 78 bc 50 da a4 3c a6 00 04 3e
       0.065612845 -0.015180319 0.02012363 0.12890872
0003e0 0b f1 96 bd 97 31 8f bd d6 12 86 3c 3d 8f 83 3b
       -0.07370194 -0.069918804 0.016366404 0.004014878
0003f0 92 a4 a7 3d 37 83 c4 bc ca a3 d6 ba 22 d3 95 3d
       0.08185686 -0.02398835 -0.0016375717 0.07315661

network_body._body_endoder.seq_layers.0.bias f4 [128]
000000 00 00 00 00 00 00 00 00 00 00 00 00 00 00 00 00
       0.0 0.0 0.0 0.0
000010 00 00 00 00 00 00 00 00 00 00 00 00 00 00 00 00
       0.0 0.0 0.0 0.0
000020 00 00 00 00 00 00 00 00 00 00 00 00 00 00 00 00
       0.0 0.0 0.0 0.0
000030 00 00 00 00 00 00 00 00 00 00 00 00 00 00 00 00
       0.0 0.0 0.0 0.0
000040 00 00 00 00 00 00 00 00 00 00 00 00 00 00 00 00
       0.0 0.0 0.0 0.0
000050 00 00 00 00 00 00 00 00 00 00 00 00 00 00 00 00
       0.0 0.0 0.0 0.0
000060 00 00 00 00 00 00 00 00 00 00 00 00 00 00 00 00
       0.0 0.0 0.0 0.0
000070 00 00 00 00 00 00 00 00 00 00 00 00 00 00 00 00
       0.0 0.0 0.0 0.0
000080 00 00 00 00 00 00 00 00 00 00 00 00 00 00 00 00
       0.0 0.0 0.0 0.0
000090 00 00 00 00 00 00 00 00 00 00 00 00 00 00 00 00
       0.0 0.0 0.0 0.0
0000a0 00 00 00 00 00 00 00 00 00 00 00 00 00 00 00 00
       0.0 0.0 0.0 0.0
0000b0 00 00 00 00 00 00 00 00 00 00 00 00 00 00 00 00
       0.0 0.0 0.0 0.0
0000c0 00 00 00 00 00 00 00 00 00 00 00 00 00 00 00 00
       0.0 0.0 0.0 0.0
0000d0 00 00 00 00 00 00 00 00 00 00 00 00 00 00 00 00
       0.0 0.0 0.0 0.0
0000e0 00 00 00 00 00 00 00 00 00 00 00 00 00 00 00 00
       0.0 0.0 0.0 0.0
0000f0 00 00 00 00 00 00 00 00 00 00 00 00 00 00 00 00
       0.0 0.0 0.0 0.0
000100 00 00 00 00 00 00 00 00 00 00 00 00 00 00 00 00
       0.0 0.0 0.0 0.0
000110 00 00 00 00 00 00 00 00 00 00 00 00 00 00 00 00
       0.0 0.0 0.0 0.0
000120 00 00 00 00 00 00 00 00 00 00 00 00 00 00 00 00
       0.0 0.0 0.0 0.0
000130 00 00 00 00 00 00 00 00 00 00 00 00 00 00 00 00
       0.0 0.0 0.0 0.0
000140 00 00 00 00 00 00 00 00 00 00 00 00 00 00 00 00
       0.0 0.0 0.0 0.0
000150 00 00 00 00 00 00 00 00 00 00 00 00 00 00 00 00
       0.0 0.0 0.0 0.0
000160 00 00 00 00 00 00 00 00 00 00 00 00 00 00 00 00
       0.0 0.0 0.0 0.0
000170 00 00 00 00 00 00 00 00 00 00 00 00 00 00 00 00
       0.0 0.0 0.0 0.0
000180 00 00 00 00 00 00 00 00 00 00 00 00 00 00 00 00
       0.0 0.0 0.0 0.0
000190 00 00 00 00 00 00 00 00 00 00 00 00 00 00 00 00
       0.0 0.0 0.0 0.0
0001a0 00 00 00 00 00 00 00 00 00 00 00 00 00 00 00 00
       0.0 0.0 0.0 0.0
0001b0 00 00 00 00 00 00 00 00 00 00 00 00 00 00 00 00
       0.0 0.0 0.0 0.0
0001c0 00 00 00 00 00 00 00 00 00 00 00 00 00 00 00 00
       0.0 0.0 0.0 0.0
0001d0 00 00 00 00 00 00 00 00 00 00 00 00 00 00 00 00
       0.0 0.0 0.0 0.0
0001e0 00 00 00 00 00 00 00 00 00 00 00 00 00 00 00 00
       0.0 0.0 0.0 0.0
0001f0 00 00 00 00 00 00 00 00 00 00 00 00 00 00 00 00
       0.0 0.0 0.0 0.0

network_body._body_endoder.seq_layers.2.weight f4 [128, 128]
000000 86 8f 82 3d ec 81 04 3e 79 47 8a 3e ec 71 84 3d
       0.06375031 0.12940186 0.27007654 0.064670414
000010 38 e1 a8 3d 35 e9 f8 bb ad 04 d8 3c 66 de 13 3e
       0.08246082 -0.00759616 0.026369417 0.14440307
000020 8c a3 61 3d cf 24 2e 3d 46 71 d5 3c 16 dd a5 3d
       0.05508761 0.042515572 0.02605499 0.080988094
000030 25 e3 34 be 0e 6a 10 3e 3b fe a4 3c 0d 00 0f be
       -0.17664774 0.14102957 0.020140758 -0.13964863
000040 04 49 13 3e 31 7f b2 bd b9 c4 dd bd 6d 85 5c 3d
       0.14383322 -0.08715666 -0.108285375 0.053838182
000050 bb bf 75 3c a1 b2 c1 bd fd e6 40 bd 2c 45 ba 3d
       0.014999325 -0.09457899 -0.047095288 0.09095225
000060 af a2 c4 3c 5a 9c 21 bc eb 13 96 3c e2 6e 49 3e
       0.024003355 -0.009863937 0.018320045 0.19671205
000070 8b 0c 48 bd ac 1b 2e bc 4c 43 3c bd 57 f1 cf 3c
       -0.048840087 -0.010626715 -0.045962617 0.025383634
000080 8a d5 84 be 3b db 49 3d b0 3d 69 3d f3 8c c0 3c
       -0.25944167 0.04928134 0.056943595 0.02350471
000090 73 c3 5e 3d 61 06 f2 bc ef be dc 3c 33 bf 0c 3c
       0.054385614 -0.029544057 0.026946513 0.008590507
0000a0 cb e4 1d 3d 4d ac 07 be 9d d3 1f 3e 3f 98 00 be
       0.038548272 -0.13249321 0.15608068 -0.12558077
0000b0 f8 d8 fc bd e7 ad 04 3d 43 66 c5 bd 46 75 ab 3a
       -0.12346071 0.03239241 -0.096386455 0.0013081215
0000c0 a7 5e d8 3c 38 80 b5 3c a5 5c 7f bd ba ee 5d be
       0.026412321 0.022155866 -0.062344212 -0.21673098
0000d0 6b f7 f8 bd 01 e7 d4 3c 9b 56 3b bd 6e 8c b0 bd
       -0.12156566 0.025989057 -0.04573689 -0.08620535
0000e0 51 e3 2a bd 8d 12 05 be 3c 54 02 bd f5 f6 cd 3c
       -0.041720692 -0.12995358 -0.031818613 0.025142172
0000f0 e4 80 d3 3d 4e ce e7 bd 7b 14 3d be 87 9b 13 3d
       0.10327318 -0.11318646 -0.18464844 0.036036994
000100 37 30 59 bc 9a c1 a2 bd 41 34 32 3c ac aa 9c bc
       -0.013256124 -0.07947083 0.010876716 -0.019124351
000110 01 59 8e 3d a1 b6 0c bd b0 09 ac 3c 7d 4d 88 3d
       0.0695057 -0.034353856 0.021000713 0.06655405
000120 ea d7 32 3d c7 83 8e 3d 84 da 85 3c a2 4c a6 3d
       0.043662943 0.06958728 0.016339548 0.08120085
000130 00 2e dc bc 26 85 29 be 2e e0 15 bd 12 33 1a 3e
       -0.026877403 -0.16554698 -0.036590748 0.15058544
000140 1b dc 7c bd 07 e7 39 bd ef d2 da 3d 0c 36 34 bd
       -0.061733346 -0.04538634 0.10684764 -0.043996856
000150 3a 27 ed bb 3e 3a ad bd 0a 02 d4 bd 19 6c e1 3c
       -0.007237342 -0.084583744 -0.103519514 0.027517365
000160 fb 1c 12 bd 3c 08 0a 3c 0e 78 ba bb 24 b9 8a bc
       -0.03567217 0.008424815 -0.005690581 -0.016933985
000170 a3 c1 1a be bf 5c 5f 3d 31 fa 1e 3e a5 11 0b bc
       -0.15112929 0.05453181 0.15525128 -0.0084880935
000180 dc 2c 94 bd 06 4f 4b bc ab 7e 61 be 8d d5 2e bd
       -0.07235119 -0.012408977 -0.22020976 -0.042684127
000190 61 90 6b 3d 51 d4 fe 3c e5 48 32 bd c1 f7 d4 3d
       0.057510737 0.0311071 -0.04352655 0.10398818
0001a0 08 75 14 3e d2 97 d2 3c cd ee 20 bd 92 19 c6 3d
       0.14497769 0.02570716 -0.03929024 0.09672846
0001b0 b1 c0 cc bd e6 37 ea 3c cb 2a 9b 3d 9b a6 de bd
       -0.099976905 0.028591108 0.075765215 -0.10871621
0001c0 25 b9 4b 3c 95 1e b5 bd 51 20 1c bc 91 68 3c bd
       0.012434279 -0.08843724 -0.009529189 -0.04599816
0001d0 f6 2d ff bc 14 54 55 bd 7c ca 3c b9 e9 8a 25 3e
       -0.031149846 -0.052082136 -0.00018004508 0.16166271
0001e0 bd 74 b9 3c 0e 7e 75 3d 76 9b 53 3c 16 00 02 be
       0.022638673 0.05993467 0.012915483 -0.12695345
0001f0 d4 ee 57 bd 4f 3a ed 3d 14 a5 79 bd 38 bf e0 3c
       -0.052718 0.11583387 -0.060948446 0.02743493
000200 4b fb 8a 3c ee a7 9f 3c 7b c1 8b 3d bd bd 94 3c
       0.016965529 0.019489255 0.06824013 0.01815688
000210 a5 9d a8 3d 69 8e 91 3d ce 9f f1 bc 06 36 2f 3d
       0.08233193 0.07107241 -0.029495146 0.04277613
000220 5e 85 19 3b 21 98 05 be 70 36 15 be e3 20 e4 3d
       0.002342544 -0.13046314 -0.14571548 0.11139085
000230 6e 46 71 3e fb 02 93 3b 21 53 3b bd 2f f0 6b 3d
       0.23562023 0.0044864393 -0.045733575 0.057602104
000240 99 78 d0 3b c6 e4 86 bc 18 ee 6e 3e ea b5 b0 bc
       0.0063620326 -0.01646651 0.23333013 -0.021571118
000250 e5 22 9f bd 2f c7 66 be 03 06 96 bc e7 7d ad 3d
       -0.077703275 -0.2253692 -0.018313413 0.084712796
000260 14 31 fb bb 9f f0 13 3d 78 ad bc bc 29 c4 b6 bd
       -0.0076657627 0.036118146 -0.023031935 -0.08924133
000270 02 98 8f bc 6d bc 22 3e f8 d5 27 bb 7f ea 3b 3c
       -0.017528538 0.15892191 -0.0025609713 0.011469482
000280 43 b8 87 bc 4d e2 ef bb c5 6d 6e bd 00 7a 0b 3c
       -0.016567355 -0.0073206783 -0.058210153 0.008512974
000290 24 4e 27 3e 29 21 c5 bd d1 bb 8f 3c 29 57 40 bd
       0.16338402 -0.096254654 0.017545613 -0.046958122
0002a0 4d 6d c0 3d 49 37 c1 3c ed 71 21 3d 10 3c c2 3c
       0.093958475 0.023585932 0.03941529 0.02371028
0002b0 10 b8 a7 bd fc 06 51 bd c0 8f 1b 3e a6 da 29 3e
       -0.08189404 -0.05103205 0.15191555 0.16587314
0002c0 99 fb 62 bd f5 8e 04 bd b6 23 80 3d 1e c2 f7 bd
       -0.055415723 -0.032362897 0.06256811 -0.12097572
0002d0 5f fc 38 3b 8b 4e fe bc c7 15 fd 3c f2 98 da 3c
       0.0028226597 -0.031043312 0.030894173 0.026684258
0002e0 6d d9 40 3e dc 55 53 be c4 65 7d 3d 09 1c 2e 3d
       0.18832941 -0.20638222 0.06186463 0.042507205
0002f0 f1 21 a6 bc c7 f4 07 bb e9 55 30 3e 65 ff 9a 3c
       -0.020279856 -0.0020745264 0.17220272 0.01892061
000300 d7 6d e8 3d 48 81 9a 3d da 96 b4 3d c9 ba af 3d
       0.11349075 0.0754419 0.08817835 0.08580548
000310 12 d1 7e 3c 5d 05 33 bc 6b b3 fa bd 56 8f 7a 3b
       0.015552776 -0.010926572 -0.122412525 0.0038232408
000320 35 ad ff bc 2f 29 9e bb a1 48 04 bc 2e 3b b6 3d
       -0.031210521 -0.004826687 -0.008073957 0.088980064
000330 c8 20 ad bc bc e7 7d 3d 09 3c 98 3c fc b6 5f 3d
       -0.021133795 0.061988577 0.018583314 0.054617867
000340 18 e3 fd bd 04 3a bd bd e0 46 00 be c3 c9 a4 bc
       -0.1239683 -0.09239581 -0.12527037 -0.020115739
000350 d6 82 0f 3d 65 cd fe 3c ae 33 08 3d aa fa 83 3d
       0.035036884 0.0311038 0.03325241 0.06444295
000360 cf 22 be bd 9f 40 ad 3c 2b e2 5a bd 3e 7e d0 3d
       -0.09283983 0.021148978 -0.053438347 0.10180329
000370 82 bd 28 3e 62 e2 e9 3d 7e 4b b4 bc b8 81 52 3d
       0.16478541 0.11420132 -0.022008654 0.05139324
000380 42 9a 0c 3d 71 2a e7 3d 29 c4 b6 bd a3 64 ad 3d
       0.0343268 0.11287392 -0.08924133 0.084664606
000390 02 d5 da bd 1e 90 21 bb ed f6 ec 3c 3a cd 24 be
       -0.10685159 -0.002465255 0.028926337 -0.16093913
0003a0 c4 81 39 3e 2f 31 27 3b 3f 22 98 bd 47 f0 07 bd
       0.18115908 0.0025511493 -0.07428407 -0.03318813
0003b0 af 5d 50 3d f3 54 fd 3c 82 b7 da 3d c5 82 ac 3c
       0.050870594 0.030924296 0.106795326 0.02105845
0003c0 5b 0a 7b 3b 33 e8 bf 3c 30 f0 44 bd d8 2c 0d bc
       0.0038305733 0.02342615 -0.048080623 -0.008616649
0003d0 84 6c 04 3e 71 ee 7c 3d 41 20 c3 bb 8f 13 08 be
       0.1293202 0.061750833 -0.0059547727 -0.13288711
0003e0 c3 41 74 bc 23 a2 30 bd ef e7 9b bd 0a 22 8e bc
       -0.014908257 -0.043123376 -0.07612597 -0.017350215
0003f0 f9 51 a1 bc 9e f3 93 3a c0 3d 1c be a4 a9 de 3a
       -0.019692408 0.0011287814 -0.15257931 0.0016987813

network_body._body_endoder.seq_layers.2.bias f4 [128]
000000 00 00 00 00 00 00 00 00 00 00 00 00 00 00 00 00
       0.0 0.0 0.0 0.0
000010 00 00 00 00 00 00 00 00 00 00 00 00 00 00 00 00
       0.0 0.0 0.0 0.0
000020 00 00 00 00 00 00 00 00 00 00 00 00 00 00 00 00
       0.0 0.0 0.0 0.0
000030 00 00 00 00 00 00 00 00 00 00 00 00 00 00 00 00
       0.0 0.0 0.0 0.0
000040 00 00 00 00 00 00 00 00 00 00 00 00 00 00 00 00
       0.0 0.0 0.0 0.0
000050 00 00 00 00 00 00 00 00 00 00 00 00 00 00 00 00
       0.0 0.0 0.0 0.0
000060 00 00 00 00 00 00 00 00 00 00 00 00 00 00 00 00
       0.0 0.0 0.0 0.0
000070 00 00 00 00 00 00 00 00 00 00 00 00 00 00 00 00
       0.0 0.0 0.0 0.0
000080 00 00 00 00 00 00 00 00 00 00 00 00 00 00 00 00
       0.0 0.0 0.0 0.0
000090 00 00 00 00 00 00 00 00 00 00 00 00 00 00 00 00
       0.0 0.0 0.0 0.0
0000a0 00 00 00 00 00 00 00 00 00 00 00 00 00 00 00 00
       0.0 0.0 0.0 0.0
0000b0 00 00 00 00 00 00 00 00 00 00 00 00 00 00 00 00
       0.0 0.0 0.0 0.0
0000c0 00 00 00 00 00 00 00 00 00 00 00 00 00 00 00 00
       0.0 0.0 0.0 0.0
0000d0 00 00 00 00 00 00 00 00 00 00 00 00 00 00 00 00
       0.0 0.0 0.0 0.0
0000e0 00 00 00 00 00 00 00 00 00 00 00 00 00 00 00 00
       0.0 0.0 0.0 0.0
0000f0 00 00 00 00 00 00 00 00 00 00 00 00 00 00 00 00
       0.0 0.0 0.0 0.0
000100 00 00 00 00 00 00 00 00 00 00 00 00 00 00 00 00
       0.0 0.0 0.0 0.0
000110 00 00 00 00 00 00 00 00 00 00 00 00 00 00 00 00
       0.0 0.0 0.0 0.0
000120 00 00 00 00 00 00 00 00 00 00 00 00 00 00 00 00
       0.0 0.0 0.0 0.0
000130 00 00 00 00 00 00 00 00 00 00 00 00 00 00 00 00
       0.0 0.0 0.0 0.0
000140 00 00 00 00 00 00 00 00 00 00 00 00 00 00 00 00
       0.0 0.0 0.0 0.0
000150 00 00 00 00 00 00 00 00 00 00 00 00 00 00 00 00
       0.0 0.0 0.0 0.0
000160 00 00 00 00 00 00 00 00 00 00 00 00 00 00 00 00
       0.0 0.0 0.0 0.0
000170 00 00 00 00 00 00 00 00 00 00 00 00 00 00 00 00
       0.0 0.0 0.0 0.0
000180 00 00 00 00 00 00 00 00 00 00 00 00 00 00 00 00
       0.0 0.0 0.0 0.0
000190 00 00 00 00 00 00 00 00 00 00 00 00 00 00 00 00
       0.0 0.0 0.0 0.0
0001a0 00 00 00 00 00 00 00 00 00 00 00 00 00 00 00 00
       0.0 0.0 0.0 0.0
0001b0 00 00 00 00 00 00 00 00 00 00 00 00 00 00 00 00
       0.0 0.0 0.0 0.0
0001c0 00 00 00 00 00 00 00 00 00 00 00 00 00 00 00 00
       0.0 0.0 0.0 0.0
0001d0 00 00 00 00 00 00 00 00 00 00 00 00 00 00 00 00
       0.0 0.0 0.0 0.0
0001e0 00 00 00 00 00 00 00 00 00 00 00 00 00 00 00 00
       0.0 0.0 0.0 0.0
0001f0 00 00 00 00 00 00 00 00 00 00 00 00 00 00 00 00
       0.0 0.0 0.0 0.0

action_model._continuous_distribution.log_sigma f4 [1, 5]
000000 00 00 00 00 00 00 00 00 00 00 00 00 00 00 00 00
       0.0 0.0 0.0 0.0
000010 00 00 00 00
       0.0

action_model._continuous_distribution.mu.weight f4 [5, 128]
000000 9d 52 05 bc b7 e8 90 bc 33 2f e0 3c 7f 70 33 bc
       -0.008137372 -0.017689092 0.027366256 -0.010952114
000010 af 08 22 3d cb c3 0e 3d 92 37 55 bc 2f 0e 20 bd
       0.039559063 0.03485469 -0.013013737 -0.039076027
000020 1b 0d 8e 39 73 06 57 3c 0d 91 9e 3a 61 62 11 bd
       0.00027094115 0.013124096 0.0012097672 -0.035494212
000030 bd f9 44 bd df 8e 52 bc b0 5c ac 3c 8e 01 3b 3c
       -0.04808973 -0.012851446 0.02104029 0.011413945
000040 3d e0 85 3c f0 92 56 bc 03 55 7e b9 37 87 98 ba
       0.016342277 -0.013096556 -0.00024254997 -0.0011636977
000050 33 3b 8b 3b cf 40 50 bb 7c d8 8a bc fa 59 03 bd
       0.0042490005 -0.003177691 -0.01694893 -0.03206823
000060 0b a5 c5 3c bd b9 4f bc 5c 57 05 3d 33 18 74 3c
       0.02412655 -0.012678561 0.032554016 0.014898348
000070 df b6 51 bc 95 dc 94 bb 91 ba 1f 3c 1f 75 fe 3c
       -0.0127999475 -0.004542897 0.009749071 0.031061707
000080 a7 e4 99 bc d3 67 75 bc d6 0f 84 bc cb ee 73 bc
       -0.018785788 -0.014978367 -0.016120832 -0.014888476
000090 93 e2 30 bc 32 17 a0 3b d3 2f ac 3b 18 44 89 bc
       -0.010796207 0.0048855776 0.0052547245 -0.016756102
0000a0 03 3e 98 3c 9b a2 06 bd 52 e6 80 bb ab 20 be bb
       0.018584257 -0.032869916 -0.0039337063 -0.005802234
0000b0 f6 e2 ad bb 4d 28 e7 bc af 63 bf 3c 6c cd a0 bc
       -0.005306597 -0.02821746 0.023362963 -0.019629203
0000c0 09 a3 a6 39 d3 8a 79 bc d1 b0 34 bb c8 2b 84 3c
       0.00031783458 -0.015230852 -0.002757121 0.016134158
0000d0 f7 93 aa 3c f0 ff 56 3c d8 09 4b bc 5f 0d 35 bb
       0.020822508 0.013122544 -0.012392484 -0.0027626378
0000e0 a2 fa 74 bc 57 28 0d bd df 28 69 3c c9 d6 95 3b
       -0.014952334 -0.0344623 0.014230936 0.0045727235
0000f0 75 bf b8 3b bc 83 a9 3b e6 a7 c5 3b ea 5b fe bb
       0.005638058 0.0051731747 0.006031978 -0.007762422
000100 40 db 78 3c 0f ea c2 3c 73 d8 0b bd 70 4f 76 bc
       0.015188992 0.023793248 -0.03414197 -0.015033588
000110 00 5f f5 b9 51 4f b8 bc 23 0a b4 39 0f ab d4 3a
       -0.00046800822 -0.022498759 0.00034339828 0.0016225296
000120 6c a0 a9 3c 02 76 53 bc c7 2d 0f b9 9f 97 bb 3c
       0.020706378 -0.012906553 -0.00013654596 0.022899447
000130 b2 e4 9b bc a7 bd bc bc b3 11 96 bc df 7a 88 bc
       -0.019029949 -0.023039652 -0.018318987 -0.016660152
000140 1a 0f 91 3c 63 18 02 3d 63 c6 dc 39 cd 77 9a 3c
       0.017707396 0.03176154 0.0004210948 0.018855954
000150 da 67 c5 3c 97 18 41 bc a2 74 84 3c 6a 70 1e bd
       0.024097372 -0.011785648 0.016168896 -0.038681425
000160 ed e0 d9 3c 1b 7a fd 3b cd 20 87 3a d0 b1 fd 3c
       0.02659651 0.0077355034 0.0010309458 0.030968577
000170 f4 f2 07 3b 78 fd dd 3c e6 3f b8 3b ce 67 41 3a
       0.0020744177 0.027098402 0.0056228517 0.0007377834
000180 4c 89 92 ba 34 8e 86 3c 6c e0 95 bc 55 c8 5c bb
       -0.0011179834 0.01642523 -0.01829549 -0.0033688743
000190 ff 88 55 3c c2 0d 73 ba 73 c0 8f 3c af b2 ca b9
       0.013033151 -0.00092717644 0.017547822 -0.00038661572
0001a0 d9 9f c8 3b 1b fb 5f bb 0b 80 e3 bb 03 92 30 3c
       0.006122571 -0.003417677 -0.006942754 0.010776999
0001b0 e2 f0 57 3c f1 77 43 3c 97 f5 f6 3b 00 0e 7b bc
       0.0131799895 0.011930452 0.007536601 -0.015323162
0001c0 db 71 69 bc c4 af 17 bd 7b 5d 71 3b 05 d5 52 bc
       -0.014248337 -0.037032858 0.00368294 -0.012868171
0001d0 12 22 3f 3d 85 be 93 bc 2f 73 e2 39 7d 0d 5f 3b
       0.04666335 -0.018035183 0.00043191898 0.003403514
0001e0 ff 4c de 3c b9 7a c0 3b 26 be b2 bc 39 dd aa bc
       0.027136324 0.0058740047 -0.021819185 -0.02085744
0001f0 67 57 8b 3c 9f 28 52 bb e8 3d 6b bb 28 21 d0 bb
       0.01700945 -0.003206767 -0.0035895053 -0.006351609
000200 77 7f a6 3c 03 53 5d 3c 2b fb 3e 3c 4f 7f 8c bc
       0.020324452 0.013508561 0.011656563 -0.01715055
000210 03 4e b5 3b 1d fc fd bb 93 aa ab bb e6 8f ad bb
       0.0055329814 -0.0077510015 -0.00523884 -0.005296695
000220 2f 7f 9b ba 78 72 ad bc 1c b5 90 bc 43 ee a1 3c
       -0.0011863465 -0.021172747 -0.017664485 0.019766932
000230 f5 df 0c bc 89 b7 af 3c cd 87 e6 3a 2b d8 05 3a
       -0.008598317 0.021449821 0.0017588079 0.0005105759
000240 2b 80 1b 3c 4b 12 da 3a d0 f1 4c 3a 70 88 13 bc
       0.009491007 0.0016637532 0.00078180153 -0.009004697
000250 aa 57 7b 3a 97 c1 b6 bb 58 b9 70 bc a0 73 33 3c
       0.0009587953 -0.005577277 -0.014692627 0.01095286
000260 5b a2 09 bc df 6a ac 3c ad 75 ff bb 12 bf f2 3b
       -0.008400525 0.021047054 -0.0077960105 0.0074080313
000270 fe 39 c4 bc 05 1e ac bb e9 ed 97 bc 1c e0 bd 3b
       -0.023953434 -0.005252602 -0.018546062 0.005794538
000280 95 2a 0b 3a fd 45 86 3c 42 e6 25 bc 55 73 4f 3b
       0.00053087744 0.016390795 -0.0101256985 0.0031654437
000290 e4 24 c3 bc d5 c0 3f bd ef 0a fa 3c a5 d4 f0 bc
       -0.023821302 -0.04681476 0.030522792 -0.029398272
0002a0 9d 95 50 bb 3f 1e 5a bc 87 75 46 bc 3f f3 ec bb
       -0.0031827458 -0.013312875 -0.012112982 -0.0072311456
0002b0 9f fc 82 bc 53 fb 92 bb f3 54 fb bb 60 cd 87 bc
       -0.0159896 -0.0044855266 -0.007670039 -0.016577423
0002c0 9d 91 d7 bb 5f 7b b7 bb 81 90 2d bc 2b 4b b6 3c
       -0.0065786378 -0.005599424 -0.010593534 0.02225264
0002d0 75 89 84 bc 1a 17 96 bc 7f 76 28 bc f0 13 7e bc
       -0.016178826 -0.018321563 -0.010282158 -0.015507683
0002e0 fb 0d 9a bc 24 38 24 3d ca 1d 8a 3c a9 23 83 bc
       -0.018805495 0.040092602 0.016859908 -0.016008215
0002f0 70 e6 ec bb aa 84 6b 3c 5d 4c cb bb ef 65 7e bb
       -0.0072296187 0.014374891 -0.0062041716 -0.0038818081
000300 22 e6 73 3c f5 0c 30 3b 60 82 c2 3c 83 08 82 bc
       0.014886411 0.0026863192 0.023743808 -0.0158732
000310 44 3e 81 3a 3f f3 02 3c db 29 a5 bb 7f b2 ce bb
       0.0009860476 0.007992565 -0.00504039 -0.0063078995
000320 f3 6d 2d bd 4f 11 f6 3a b3 cc 66 bc 13 73 87 bb
       -0.042341184 0.0018773469 -0.01408689 -0.004133591
000330 ea dc 9f 3c ff a2 af bc ed fc e1 bc 6f b2 a4 3c
       0.01951452 -0.021440027 -0.027586425 0.020104615
000340 b1 b3 09 3a 2b fd 3b 3d 33 ae ed bc 93 f7 f3 3b
       0.00052529114 0.045895737 -0.029013729 0.0074452846
000350 85 fe 2a bc 08 ec f5 3b 1a 1d f9 bb 7b 3d 3a bc
       -0.010436659 0.0075049438 -0.007602346 -0.011367197
000360 27 a7 86 3c 72 68 fc bc 0d 00 f0 ba 0b b5 bc 3b
       0.016437126 -0.030811522 -0.0018310562 0.0057588867
000370 d4 fe bf ba 1f 96 9c bc 03 cd 43 3b 73 ea e4 3c
       -0.0014648088 -0.019114552 0.0029876835 0.027943825
000380 8c 26 18 3c 87 58 e7 bb 0a a3 f3 bb 6d 9f 9f ba
       0.009286534 -0.007060114 -0.0074352073 -0.001217825
000390 fd 37 ee bb f9 be 26 bc 07 72 76 3c 37 16 be 3b
       -0.007269858 -0.010177367 0.015041835 0.005800988
0003a0 a8 8d 9d bc 3f 98 d6 bc e8 9a ef 3c f7 eb b9 3c
       -0.019232586 -0.026195643 0.02924867 0.022695525
0003b0 ea f3 99 bc 9c 41 3b 3b 28 33 1e bb d7 65 88 ba
       -0.018793065 0.0028573042 -0.0024139378 -0.0010406327
0003c0 5d bd b7 bc 3b 51 47 3d 2b 28 74 bc bd 3f c0 ba
       -0.022429163 0.04866145 -0.014902155 -0.0014667433
0003d0 db b4 73 3c 50 cd 89 bc d0 f2 b3 bb aa 15 f1 bc
       0.014874662 -0.016821533 -0.005491592 -0.029429276
0003e0 8d de 32 3c 60 d4 83 bb 0a ef d1 3c 2f 61 32 bc
       0.010917318 -0.00402312 0.025626678 -0.010887428
0003f0 9c 78 3f bc ad df 54 3c db 0c ef ba e8 cd 0b bd
       -0.01168647 0.012992782 -0.0018238084 -0.034131914

action_model._continuous_distribution.mu.bias f4 [5]
000000 00 00 00 00 00 00 00 00 00 00 00 00 00 00 00 00
       0.0 0.0 0.0 0.0
000010 00 00 00 00
       0.0

network_body._body_endoder.seq_layers.0.weight f4 [128, 120]
000000 bb 80 5e 3d a8 6a 19 3d 9e df fb 3d 8b 12 5c 3e
       0.054321986 0.03745523 0.12298511 0.21491449
000010 32 d9 9a bc 53 5d e7 3b 5c c0 5c bd a7 1a 26 bd
       -0.018902395 0.0070606857 -0.053894386 -0.04055276
000020 53 17 32 bc a2 67 93 bc d6 ca ee bc d9 a8 8f bd
       -0.010869819 -0.017993752 -0.029149454 -0.07014627
000030 d5 9a 1d 3d 4a 38 1d 3e 47 61 7f 3d 16 2a d6 bd
       0.038477737 0.15353504 0.06234863 -0.10457246
000040 3e e0 06 bd 8c 50 2f be cd 06 d7 3d 3a 21 75 3d
       -0.032928698 -0.1712057 0.10499344 0.05984614
000050 9c 91 8b bd 10 37 ca bd f8 22 25 bd b5 9e a6 bd
       -0.06814882 -0.098737836 -0.040316552 -0.0813574
000060 2f ac 2a 3d 21 19 59 bd bc 87 b3 bd ba 05 91 3d
       0.041668113 -0.05300248 -0.08766124 0.070811704
000070 08 06 dd bd 42 34 e7 3d 56 e4 d1 3d 39 79 70 bd
       -0.10792166 0.11289264 0.1024863 -0.058709357
000080 53 75 d4 3d 0e fe ac b9 51 f1 ae bd 13 d6 f0 3d
       0.1037394 -0.00032995682 -0.08542121 0.117595814
000090 e5 e8 2f 3d c3 d7 ec 3d 43 e3 99 bd f3 d6 ef 3d
       0.042946715 0.11564591 -0.0751405 0.1171092
0000a0 4d 3a 95 bd 27 92 06 3b 1c b0 96 3d 47 fe 4b 3d
       -0.072865106 0.002053389 0.07357809 0.049803045
0000b0 73 82 b3 bd ae d6 81 3d d4 9e 90 3d 67 c3 7e bc
       -0.087651156 0.06339775 0.07061544 -0.015549517
0000c0 05 89 21 3d b5 e7 02 be a3 bd fe bc af 72 73 ba
       0.039437313 -0.12783702 -0.031096285 -0.00092868035
0000d0 b6 18 54 3d dd 7b b0 bc c4 e6 41 3d 3c 5d b7 3b
       0.05178138 -0.021543438 0.047339216 0.005595831
0000e0 01 6e a8 3d 23 5c 50 bd 22 ea 5a 3c ef c1 8b bd
       0.082241066 -0.05086912 0.013361486 -0.06824099
0000f0 6d 82 55 3c 22 15 09 be a0 cf f8 3d 7c bc 86 bd
       0.013031584 -0.13386968 0.12148976 -0.06578919
000100 a0 1a b5 bd 97 c6 0c bd a9 ae 89 3d 28 41 c0 3d
       -0.08842969 -0.034369078 0.06722767 0.093874276
000110 a3 e1 fb bd bd e5 19 bd 8d 64 2c 3d 86 c1 8f bd
       -0.12298896 -0.03757261 0.04208808 -0.070193335
000120 f1 f4 03 be 5b b6 8f bd 7e d3 5b bd c3 e6 c3 3d
       -0.12886406 -0.070172034 -0.05366849 0.09565499
000130 ce bb a4 3d b8 96 b0 3c 2c c8 95 bb d6 f0 23 bd
       0.080436334 0.021556243 -0.0045709815 -0.0400246
000140 51 f2 69 3d 80 ec dc bc 3a 6d 8c 3c d9 dd 2f be
       0.057115857 -0.02696824 0.017141927 -0.17174472
000150 5d cc 21 be 06 4d 07 be 67 08 7a 3e 74 9b 69 3e
       -0.15800615 -0.13212976 0.24417268 0.22813207
000160 c6 f7 66 3e 22 73 15 bd 87 28 13 be 26 7d 43 bc
       0.22555456 -0.036486752 -0.14370929 -0.011931693
000170 09 a6 1a be 46 81 9c 3d ab 20 23 ba ee 78 3d bd
       -0.151024 0.076418445 -0.00062228244 -0.046257906
000180 80 24 61 3d f5 da 84 3a 39 67 e0 bb 8c 39 1d bc
       0.05496645 0.0010136055 -0.0068482426 -0.00959624
000190 c5 02 b6 3d d8 32 11 3d 5f 6b f0 3b 16 14 83 bd
       0.08887247 0.03544888 0.0073370184 -0.064003155
0001a0 5d 30 a8 3d 96 43 f6 3d a7 1c da bd 99 2e 69 bd
       0.082123496 0.1202461 -0.10649996 -0.056929205
0001b0 b7 0d fa 3c 49 c1 2e 3d dd 7d 22 3e 93 d8 7b bd
       0.030524118 0.0426648 0.15868326 -0.06148584
0001c0 e2 9e 30 bd d7 29 3c be fd ad 84 ba e2 20 05 3e
       -0.043120272 -0.18375336 -0.0010122653 0.13000825
0001d0 e7 ed 48 bd de 85 dd bb 9d 47 df 3d a7 18 0f 3d
       -0.049055006 -0.006760343 0.10902331 0.03493562
0001e0 23 c3 e8 bd f0 de 54 3c 03 1b ef bd 7d cd d0 3b
       -0.113653444 0.012992606 -0.11675074 0.0063721524
0001f0 1a 15 31 bc 93 0b a6 3c 3f 1a 93 bc 26 16 90 bd
       -0.010808254 0.02026919 -0.017956851 -0.070354745
000200 29 4e 05 3e b9 aa 6f 3d bb f2 48 be d7 cf 58 bd
       0.13018097 0.058512423 -0.19623844 -0.052932587
000210 ab c1 97 3d 66 3a 74 3d 37 ba 20 3e e7 9e bd bb
       0.07409986 0.059626006 0.15696035 -0.005786765
000220 ed 72 02 3e 6b a0 15 3e 1d f5 0a be c0 81 05 bd
       0.12739153 0.14611976 -0.13570066 -0.032594442
000230 a8 d8 63 bd 80 63 99 3d 31 c9 0b 3d 13 ee e6 3c
       -0.05562654 0.07489681 0.034127418 0.028189695
000240 44 e0 1b bb c3 91 af 3d e2 17 a7 3b 03 2d 33 bd
       -0.0023784796 0.08572724 0.0050992826 -0.0437441
000250 89 86 30 3c a6 71 aa 3d 61 b5 74 3d ff 17 1b 3e
       0.010774263 0.08322458 0.05974329 0.15145873
000260 b7 05 c3 3c 3a b1 8d bc b7 34 92 3e e7 0f c2 bd
       0.023806436 -0.017296422 0.28555843 -0.094756894
000270 92 1c 08 3e 9e b2 e8 bc 86 0f ab bd 2e ae 04 3e
       0.13292149 -0.028405484 -0.0835257 0.1295707
000280 87 18 cb 3d da 25 38 bd e0 bc bb bd d3 3e 69 3d
       0.099167876 -0.044957973 -0.091668844 0.05694468
000290 e2 a5 66 bd 25 ce 5b bd e7 fd fe 3d 9a 9c 80 bd
       -0.056310542 -0.05366339 0.12450772 -0.062798694
0002a0 13 1e bd bd 2f 2c 8b bd 78 91 d3 3c 8c 18 78 be
       -0.09234252 -0.06795537 0.0258262 -0.24228114
0002b0 23 e2 d0 bd 6c 04 db bd 76 ea 06 bc 8c 86 62 bd
       -0.10199382 -0.10694203 -0.008234611 -0.055304095
0002c0 96 36 04 3e af 8d 28 bc 35 c0 17 be e5 72 e1 bb
       0.12911448 -0.010287686 -0.14819415 -0.0068801516
0002d0 4b 5a 09 3d aa 04 11 be c1 bc f7 bd 8a 2a 70 be
       0.033533376 -0.14161935 -0.12096549 -0.23453727
0002e0 73 7e db 3d c7 78 ae 3d 56 38 1f bd 31 b8 62 3e
       0.10717478 0.0851913 -0.038872086 0.22140576
0002f0 9a b8 2b be bc fa e1 bd e9 2f 66 bd b0 8c 4a bd
       -0.16769639 -0.11034152 -0.056198034 -0.049450576
000300 9a 4b 68 be 71 b5 db bd 8d bf 8b bc 36 c4 db bd
       -0.2268509 -0.107279666 -0.017059112 -0.10730784
000310 aa 99 1f 3e 2b db ad bd 3c 1d 00 3e 37 34 5a be
       0.15585962 -0.084890686 0.12511152 -0.21308981
000320 60 16 d6 bd 34 39 7a 3c 65 57 4f bd 63 ea 7d bc
       -0.104534864 0.015272427 -0.050620455 -0.015497777
000330 f0 8f e9 3c 25 8c a5 bd fc 55 b7 3d ba 68 9d bb
       0.028511018 -0.08083371 0.08951947 -0.004803744
000340 40 a1 8f 3d d8 6f ad 3c 13 cf 2d bd ac 0a cf 3d
       0.07013178 0.021171495 -0.04243381 0.101094574
000350 9c 30 04 be 5d ed b4 bd 39 0b dc bd 1a a7 24 3e
       -0.12909168 -0.08834336 -0.10744328 0.16079369
000360 d1 3e 44 3c 21 f0 8a 3c 57 5f 3b be 56 da 17 bc
       0.011977867 0.016960206 -0.18298088 -0.009268364
000370 3d 5e 00 be a3 3a 0e 3e bf c6 e4 bd 18 92 3a bc
       -0.12535949 0.13889556 -0.1117072 -0.0113873705
000380 d4 98 b1 bd c1 6a 07 3e 69 b6 ab bd df 95 8f 3c
       -0.08671728 0.13224317 -0.08384401 0.017527519
000390 3d 92 0b 3d 36 fe ee 3d 24 28 18 bd e5 61 b5 bd
       0.03407501 0.11669581 -0.037147656 -0.088565625
0003a0 62 2c d7 3d 17 df 50 be e8 0f 08 3d 61 2f 8a bc
       0.10506512 -0.20397602 0.033218294 -0.016868295
0003b0 0d af f8 bd 2a 0c a1 bd 6f 20 9c 3d c0 29 d8 3c
       -0.12142763 -0.07863648 0.07623374 0.026387095
0003c0 ea af 4a 3c 6e a9 2d 3c 34 16 6c 3d 63 bc ae 3d
       0.012371043 0.010599477 0.057638362 0.08532026
0003d0 37 58 98 bd 64 5b 21 3d 18 e5 df bd 69 bc 75 bd
       -0.07438701 0.039393798 -0.10932368 -0.059994135
0003e0 36 f1 b4 3d 7c 7c 02 3e d7 0c 10 3e c7 49 02 3e
       0.0883507 0.127428 0.14067398 0.12723456
0003f0 c3 6c 58 3d 11 33 b6 bd 3c c1 15 bc f0 6a 8b bd
       0.0528381 -0.08896459 -0.009140309 -0.06807506

network_body._body_endoder.seq_layers.0.bias f4 [128]
000000 00 00 00 00 00 00 00 00 00 00 00 00 00 00 00 00
       0.0 0.0 0.0 0.0
000010 00 00 00 00 00 00 00 00 00 00 00 00 00 00 00 00
       0.0 0.0 0.0 0.0
000020 00 00 00 00 00 00 00 00 00 00 00 00 00 00 00 00
       0.0 0.0 0.0 0.0
000030 00 00 00 00 00 00 00 00 00 00 00 00 00 00 00 00
       0.0 0.0 0.0 0.0
000040 00 00 00 00 00 00 00 00 00 00 00 00 00 00 00 00
       0.0 0.0 0.0 0.0
000050 00 00 00 00 00 00 00 00 00 00 00 00 00 00 00 00
       0.0 0.0 0.0 0.0
000060 00 00 00 00 00 00 00 00 00 00 00 00 00 00 00 00
       0.0 0.0 0.0 0.0
000070 00 00 00 00 00 00 00 00 00 00 00 00 00 00 00 00
       0.0 0.0 0.0 0.0
000080 00 00 00 00 00 00 00 00 00 00 00 00 00 00 00 00
       0.0 0.0 0.0 0.0
000090 00 00 00 00 00 00 00 00 00 00 00 00 00 00 00 00
       0.0 0.0 0.0 0.0
0000a0 00 00 00 00 00 00 00 00 00 00 00 00 00 00 00 00
       0.0 0.0 0.0 0.0
0000b0 00 00 00 00 00 00 00 00 00 00 00 00 00 00 00 00
       0.0 0.0 0.0 0.0
0000c0 00 00 00 00 00 00 00 00 00 00 00 00 00 00 00 00
       0.0 0.0 0.0 0.0
0000d0 00 00 00 00 00 00 00 00 00 00 00 00 00 00 00 00
       0.0 0.0 0.0 0.0
0000e0 00 00 00 00 00 00 00 00 00 00 00 00 00 00 00 00
       0.0 0.0 0.0 0.0
0000f0 00 00 00 00 00 00 00 00 00 00 00 00 00 00 00 00
       0.0 0.0 0.0 0.0
000100 00 00 00 00 00 00 00 00 00 00 00 00 00 00 00 00
       0.0 0.0 0.0 0.0
000110 00 00 00 00 00 00 00 00 00 00 00 00 00 00 00 00
       0.0 0.0 0.0 0.0
000120 00 00 00 00 00 00 00 00 00 00 00 00 00 00 00 00
       0.0 0.0 0.0 0.0
000130 00 00 00 00 00 00 00 00 00 00 00 00 00 00 00 00
       0.0 0.0 0.0 0.0
000140 00 00 00 00 00 00 00 00 00 00 00 00 00 00 00 00
       0.0 0.0 0.0 0.0
000150 00 00 00 00 00 00 00 00 00 00 00 00 00 00 00 00
       0.0 0.0 0.0 0.0
000160 00 00 00 00 00 00 00 00 00 00 00 00 00 00 00 00
       0.0 0.0 0.0 0.0
000170 00 00 00 00 00 00 00 00 00 00 00 00 00 00 00 00
       0.0 0.0 0.0 0.0
000180 00 00 00 00 00 00 00 00 00 00 00 00 00 00 00 00
       0.0 0.0 0.0 0.0
000190 00 00 00 00 00 00 00 00 00 00 00 00 00 00 00 00
       0.0 0.0 0.0 0.0
0001a0 00 00 00 00 00 00 00 00 00 00 00 00 00 00 00 00
       0.0 0.0 0.0 0.0
0001b0 00 00 00 00 00 00 00 00 00 00 00 00 00 00 00 00
       0.0 0.0 0.0 0.0
0001c0 00 00 00 00 00 00 00 00 00 00 00 00 00 00 00 00
       0.0 0.0 0.0 0.0
0001d0 00 00 00 00 00 00 00 00 00 00 00 00 00 00 00 00
       0.0 0.0 0.0 0.0
0001e0 00 00 00 00 00 00 00 00 00 00 00 00 00 00 00 00
       0.0 0.0 0.0 0.0
0001f0 00 00 00 00 00 00 00 00 00 00 00 00 00 00 00 00
       0.0 0.0 0.0 0.0

network_body._body_endoder.seq_layers.2.weight f4 [128, 128]
000000 25 78 46 3c 8b 5b fb 3d 6f a9 d4 3d 28 22 db bb
       0.012113606 0.1227332 0.103838794 -0.0066874214
000010 1d e0 7f bc 13 b6 d9 bd e7 76 ab bc 40 3d ed 3c
       -0.015617398 -0.10630431 -0.02093072 0.02895987
000020 4e 5b c6 bc 61 27 ae bd 7f 2f 95 3d 29 15 53 bc
       -0.02421346 -0.08503605 0.0728445 -0.012883463
000030 97 0d 66 3c 8f 34 3f 3d f4 e1 81 3b f1 0d 07 3d
       0.014041326 0.046680983 0.0039637033 0.03297228
000040 5b 8e 10 be db 0e 7d be cd a8 89 3c 34 a0 43 bd
       -0.14116804 -0.24712698 0.016804123 -0.047760203
000050 26 cc de 3c a6 30 ae 3d 1a 0a e5 bc 09 6f c0 bc
       0.027196955 0.08505373 -0.027958918 -0.023490446
000060 b3 27 8f 3c e7 43 59 be 94 15 88 3d 75 3a b0 3c
       0.017474985 -0.21217309 0.06644741 0.02151225
000070 ff d7 54 3d a7 3d e5 bc e5 87 20 be 7d 0e 89 bb
       0.051963802 -0.0279835 -0.1567684 -0.0041826353
000080 70 61 a0 3d 91 66 45 3e 0b af 5f 3e 0c 63 3d 3e
       0.07831085 0.19277407 0.21844117 0.18494815
000090 a9 b0 f4 3c 76 ef cb bd 30 2a b6 3d da 5d 2f 3d
       0.029869394 -0.09957783 0.088947654 0.042814113
0000a0 78 b5 f4 3d ef 6e 81 bd 14 aa 9c ba 7e cb cf 3c
       0.11948675 -0.06319987 -0.0011952543 0.025365587
0000b0 9e 6a 5f be 60 52 f7 bd 41 89 58 3d c2 33 d3 3c
       -0.21818015 -0.12076259 0.05286527 0.025781516
0000c0 4d 11 5f 3d ca 25 49 bd 5d 70 44 3e 33 99 99 bd
       0.05445986 -0.049108304 0.19183488 -0.074999236
0000d0 9f e9 58 bd 61 85 26 3e 05 06 2d bd 5c 1a ab bc
       -0.052957173 0.16261818 -0.04224207 -0.020886593
0000e0 14 30 72 bc cc 9c df 3c 2d 7b aa 3d b7 32 e1 3d
       -0.0147819705 0.027296446 0.08324275 0.10996001
0000f0 c3 cd 14 bd 94 2d bb 3d e0 77 4a 3d 31 54 29 bd
       -0.036329042 0.09139553 0.049430728 -0.041340057
000100 46 82 38 3d c3 e1 78 3c a8 cd 2e 3e aa cf cc bd
       0.045046113 0.015190545 0.17070639 -0.10000546
000110 5e 90 14 bc 5e 5d 73 3d ea ce d1 bd 58 1c 96 3d
       -0.009067623 0.059415214 -0.10244544 0.07329625
000120 77 5b a5 bd 1b 5b c2 3c 31 3d c5 3d 72 26 86 3d
       -0.08074086 0.023725083 0.09630812 0.065503016
000130 a7 65 2e be ab b9 32 3e d5 13 50 bc aa 0e ba 3c
       -0.17030965 0.17453639 -0.012700041 0.02271207
000140 e2 5b fd bc ff b3 8e bd 33 18 21 3e 26 71 b6 3d
       -0.030927602 -0.06967925 0.15731888 0.089083
000150 cb 2d b2 3c 82 d8 0d be 6b d4 99 bc 13 4e 26 bd
       0.021750351 -0.13852122 -0.018778047 -0.0406018
000160 6b dc 96 3d 7f 8f 49 3c 28 6d b3 bd 23 da f9 3d
       0.0736626 0.012302279 -0.08761054 0.121998094
000170 fa fb 48 3d 7f ed f5 3c 15 25 84 bd 54 3d 91 bd
       0.04906843 0.030020474 -0.06452385 -0.070917755
000180 3a 51 08 be fe 1f 42 3d df 03 5b bd 47 ab 66 3e
       -0.13312235 0.04739379 -0.05347049 0.22526275
000190 0c 98 a4 3d 4e 4b 4a 3d 22 cd 0f be 87 f6 0a 3e
       0.08036813 0.049388222 -0.14043096 0.13570605
0001a0 bb d4 50 3d b0 de 04 bd 80 b5 f1 3c 87 c2 d6 bd
       0.050984126 -0.032438934 0.029505491 -0.10486322
0001b0 43 d1 c1 bd ff b6 df 3c 43 69 cd bd 8f 92 a5 bc
       -0.09463742 0.027308939 -0.10029843 -0.020211486
0001c0 bd 91 09 bd b8 3d 92 39 50 bf 89 3d 5d 37 45 bd
       -0.033586252 0.00027893274 0.06725943 -0.0481485
0001d0 db 65 a5 3b db 53 b1 bd 28 d9 18 be 53 a7 4e 3d
       0.0050475425 -0.08658572 -0.14926589 0.05045254
0001e0 9f 52 f4 3b 47 11 44 be 89 50 98 3d 17 61 f0 3d
       0.0074561383 -0.19147216 0.07437236 0.117372684
0001f0 d0 2b 73 3d e3 cc 25 3d 92 bc 89 3c 53 97 43 be
       0.059367955 0.0404786 0.01681355 -0.19100694
000200 97 fa d9 bc b5 b2 28 bd 91 ab 37 bb 56 50 06 3e
       -0.026608748 -0.041186053 -0.0028025846 0.13116583
000210 ae 3f a4 3d b2 1b 05 3e 76 23 e3 bd e9 4f b1 bc
       0.080199584 0.12998846 -0.11090748 -0.02164455
000220 b6 ce c4 3d 91 be 2b bd 9e 6b b5 bd 5b d9 71 bd
       0.096097395 -0.041929785 -0.08858417 -0.059045177
000230 66 15 2d 3d 7b ca 42 bd 48 38 81 3d 65 f1 e2 bc
       0.042256735 -0.04755638 0.06309563 -0.027702997
000240 ee 0b a0 3b 09 63 8f 3d 29 b3 22 3e 40 68 e3 bb
       0.0048842346 0.07001311 0.15888657 -0.006939918
000250 fa 56 f6 3c 21 64 4e 3e 7e 8b 36 3c df 07 38 3e
       0.03007077 0.20155384 0.011141656 0.17971753
000260 90 65 e2 3d f7 59 11 3a 5c c2 48 be 92 7f 9f 3d
       0.11054528 0.0005544717 -0.19605392 0.07788004
000270 4b 48 19 3e 96 54 55 3e 63 c3 54 3c fc 8d 4d bd
       0.14968984 0.20833048 0.012986037 -0.050184235
000280 86 c6 ae bd e4 fc 1f 3d 5d 8f d9 3a 43 a6 3f 3d
       -0.08533959 0.039059535 0.0016598512 0.04678942
000290 2a 00 60 bc b4 99 79 3c 4c 6f e3 3c 7c 18 bf bd
       -0.013671914 0.0152344 0.027763031 -0.09330842
0002a0 19 ea 0c 3e 67 85 00 be 08 7c 86 3d 36 52 6f bd
       0.13761176 -0.12550889 0.06566626 -0.05842801
0002b0 7c f3 76 bd b9 63 73 3e e9 1e b0 3c 76 5c a6 bd
       -0.0602908 0.2376851 0.021499114 -0.08123104
0002c0 1b 72 10 bd 2e f0 89 3b c6 e9 fd bc a7 c3 cd bc
       -0.03526507 0.00420954 -0.03099526 -0.025117708
0002d0 dc 69 20 bd 80 a6 6e 3d 56 35 e2 3b 18 c2 02 3c
       -0.039163455 0.058264256 0.006903331 0.007980846
0002e0 b5 6f b9 3d 47 b1 4a 3c 6c e6 46 3e a4 46 ac bd
       0.090545096 0.012371368 0.19423836 -0.08411911
0002f0 b8 26 81 3d 2c 56 48 bd 3a 05 bc bd a0 07 36 be
       0.06306213 -0.048910305 -0.091806844 -0.17776346
000300 c6 2c 2d be 31 33 44 3e 8b 51 18 bd c8 9e 40 3e
       -0.16911611 0.19160153 -0.03718714 0.1881057
000310 4a cb 10 bd e3 45 dd 3d 98 9d 05 bd a5 87 fc bd
       -0.03535012 0.108043455 -0.032620996 -0.1233056
000320 05 9e 13 bd a2 00 02 3e f7 82 2b 3e fd f0 ed bc
       -0.03603937 0.12695554 0.16749178 -0.029045576
000330 7c 7d 74 bd 22 03 3b bd f5 97 38 bd cd 4f d8 3d
       -0.059689984 -0.045657285 -0.045066793 0.10562096
000340 e8 5f 37 be 40 f8 82 bc 41 83 d2 bc 84 d2 b1 3c
       -0.17907679 -0.015987515 -0.025697352 0.021706827
000350 db 1a 79 bd 0e 45 50 3d a0 01 01 3c f8 cf cd bc
       -0.060816627 0.050847106 0.007873923 -0.025123581
000360 da 47 a9 3c 4c da 37 be 6a 51 0e bc cc 0f 31 bc
       0.020664144 -0.17954367 -0.008686403 -0.010806989
000370 ab 83 12 be 78 9c 9b bd bd 34 47 3c 3f a6 a2 3c
       -0.1430804 -0.075982034 0.01215857 0.019854663
000380 aa e1 14 3c 37 1d c2 3d b1 20 20 3e 52 4b 80 bd
       0.009087006 0.094782285 0.15637471 -0.06264366
000390 49 8d 66 3c 8f a8 9b 3d c7 eb c0 bd 10 30 0b bd
       0.014071771 0.076005094 -0.09419971 -0.033981383
0003a0 bc 0a 18 3e 7c 92 64 3e 05 cd bd 3d c3 b7 40 3d
       0.14847845 0.22321504 0.0926762 0.04705025
0003b0 f1 7e ef 3d 06 a2 ec bd a4 bc 70 3c 56 0d 3a be
       0.11694134 -0.11554341 0.014693413 -0.1816915
0003c0 33 29 5f bb b7 3e a6 bc d0 a8 39 3d 45 45 2a be
       -0.0034051656 -0.020293577 0.045327008 -0.16627987
0003d0 69 4f 1a bb a1 d8 10 bd 45 9a 22 bd 5e 0e 1b 3c
       -0.0023545867 -0.035362843 -0.039697904 0.009463875
0003e0 e5 da c8 bd cb 4e 60 3d 9c 4a 23 bc 55 5f 34 3d
       -0.09807376 0.054762643 -0.009966519 0.04403623
0003f0 6e dd de 3d ac 17 0b 3e e0 58 66 3d 83 3b d7 bd
       0.10882078 0.13583249 0.0562371 -0.10509398

network_body._body_endoder.seq_layers.2.bias f4 [128]
000000 00 00 00 00 00 00 00 00 00 00 00 00 00 00 00 00
       0.0 0.0 0.0 0.0
000010 00 00 00 00 00 00 00 00 00 00 00 00 00 00 00 00
       0.0 0.0 0.0 0.0
000020 00 00 00 00 00 00 00 00 00 00 00 00 00 00 00 00
       0.0 0.0 0.0 0.0
000030 00 00 00 00 00 00 00 00 00 00 00 00 00 00 00 00
       0.0 0.0 0.0 0.0
000040 00 00 00 00 00 00 00 00 00 00 00 00 00 00 00 00
       0.0 0.0 0.0 0.0
000050 00 00 00 00 00 00 00 00 00 00 00 00 00 00 00 00
       0.0 0.0 0.0 0.0
000060 00 00 00 00 00 00 00 00 00 00 00 00 00 00 00 00
       0.0 0.0 0.0 0.0
000070 00 00 00 00 00 00 00 00 00 00 00 00 00 00 00 00
       0.0 0.0 0.0 0.0
000080 00 00 00 00 00 00 00 00 00 00 00 00 00 00 00 00
       0.0 0.0 0.0 0.0
000090 00 00 00 00 00 00 00 00 00 00 00 00 00 00 00 00
       0.0 0.0 0.0 0.0
0000a0 00 00 00 00 00 00 00 00 00 00 00 00 00 00 00 00
       0.0 0.0 0.0 0.0
0000b0 00 00 00 00 00 00 00 00 00 00 00 00 00 00 00 00
       0.0 0.0 0.0 0.0
0000c0 00 00 00 00 00 00 00 00 00 00 00 00 00 00 00 00
       0.0 0.0 0.0 0.0
0000d0 00 00 00 00 00 00 00 00 00 00 00 00 00 00 00 00
       0.0 0.0 0.0 0.0
0000e0 00 00 00 00 00 00 00 00 00 00 00 00 00 00 00 00
       0.0 0.0 0.0 0.0
0000f0 00 00 00 00 00 00 00 00 00 00 00 00 00 00 00 00
       0.0 0.0 0.0 0.0
000100 00 00 00 00 00 00 00 00 00 00 00 00 00 00 00 00
       0.0 0.0 0.0 0.0
000110 00 00 00 00 00 00 00 00 00 00 00 00 00 00 00 00
       0.0 0.0 0.0 0.0
000120 00 00 00 00 00 00 00 00 00 00 00 00 00 00 00 00
       0.0 0.0 0.0 0.0
000130 00 00 00 00 00 00 00 00 00 00 00 00 00 00 00 00
       0.0 0.0 0.0 0.0
000140 00 00 00 00 00 00 00 00 00 00 00 00 00 00 00 00
       0.0 0.0 0.0 0.0
000150 00 00 00 00 00 00 00 00 00 00 00 00 00 00 00 00
       0.0 0.0 0.0 0.0
000160 00 00 00 00 00 00 00 00 00 00 00 00 00 00 00 00
       0.0 0.0 0.0 0.0
000170 00 00 00 00 00 00 00 00 00 00 00 00 00 00 00 00
       0.0 0.0 0.0 0.0
000180 00 00 00 00 00 00 00 00 00 00 00 00 00 00 00 00
       0.0 0.0 0.0 0.0
000190 00 00 00 00 00 00 00 00 00 00 00 00 00 00 00 00
       0.0 0.0 0.0 0.0
0001a0 00 00 00 00 00 00 00 00 00 00 00 00 00 00 00 00
       0.0 0.0 0.0 0.0
0001b0 00 00 00 00 00 00 00 00 00 00 00 00 00 00 00 00
       0.0 0.0 0.0 0.0
0001c0 00 00 00 00 00 00 00 00 00 00 00 00 00 00 00 00
       0.0 0.0 0.0 0.0
0001d0 00 00 00 00 00 00 00 00 00 00 00 00 00 00 00 00
       0.0 0.0 0.0 0.0
0001e0 00 00 00 00 00 00 00 00 00 00 00 00 00 00 00 00
       0.0 0.0 0.0 0.0
0001f0 00 00 00 00 00 00 00 00 00 00 00 00 00 00 00 00
       0.0 0.0 0.0 0.0

value_heads.value_heads.extrinsic.weight f4 [1, 128]
000000 7e 67 fe 3d 59 5e d9 bd b1 41 2b 3e ea e2 26 3d
       0.12422083 -0.106136985 0.16724278 0.040743746
000010 ad 6d 20 be 75 df bd 3c 4c 1f a5 bd 89 39 35 3e
       -0.15666838 0.023177842 -0.0806261 0.17697729
000020 9f bb 0f 3e f2 d8 2c be 93 a8 86 3d f6 b5 23 3d
       0.14036416 -0.16879633 0.06575122 0.039968453
000030 00 68 28 3d b0 d5 44 3d a8 10 0c be 23 75 52 3e
       0.041114807 0.04805535 -0.13678229 0.20552497
000040 6d 6f 3e bd 26 2f 0f 3e d0 56 03 3e 34 05 9f bd
       -0.046492983 0.1398283 0.12826085 -0.07764664
000050 ed da 87 bd cc e2 a8 3c a1 da 79 bd db 36 1f 3e
       -0.06633554 0.020615958 -0.060999516 0.1554827
000060 cf 95 1d be d1 4f b6 bd 87 58 8d 3d b0 49 00 be
       -0.15389179 -0.089019425 0.06901651 -0.1252811
000070 29 fb 0d 3e 15 d8 3a be a0 04 45 bc 63 74 0f 3e
       0.13865341 -0.18246491 -0.0120250285 0.14009242
000080 a1 03 ea 3c 27 c1 0a be 5a 15 27 3d 92 4e fc bd
       0.028566184 -0.13550244 0.040791847 -0.123196736
000090 bd 9b fb bd 99 24 80 bd 6d 0c 92 bd f2 ab 16 3e
       -0.12285564 -0.062569804 -0.07131276 0.1471403
0000a0 c9 6c 09 3e 07 7f 34 be 74 4a 3d 3e 2b 77 40 bd
       0.13420404 -0.17626582 0.18485433 -0.046988647
0000b0 63 c5 95 bd cb d0 4e be 66 a3 3f 3e ae fa 23 3d
       -0.07313039 -0.20196836 0.18714675 0.04003399
0000c0 bb d6 36 3d b7 09 d9 3d e7 b1 87 bd 47 aa 15 3a
       0.044638377 0.10597556 -0.06625729 0.0005709272
0000d0 04 26 67 bd 8c d1 e8 3c 66 d8 3c be d1 ba 3f be
       -0.05643274 0.028420232 -0.18441924 -0.18723609
0000e0 0e 77 4d be a3 02 97 bd 17 41 26 be c6 c9 43 3e
       -0.20064947 -0.0737355 -0.16235767 0.19119939
0000f0 dc cf 96 bd d2 8e 08 3d 08 f0 d9 bb c8 22 3c be
       -0.07363865 0.03333933 -0.0066509284 -0.18372643
000100 c3 fe 4c 3b 87 c0 c9 bd e3 0a 1f be f3 3c 02 be
       0.003127978 -0.09851175 -0.15531497 -0.12718563
000110 8a 59 26 be e8 1c 00 be 01 a5 5f 3d 60 3c 11 3e
       -0.16245094 -0.12511027 0.05460072 0.14183187
000120 8f 59 06 3e ae 90 05 3e ef 54 17 3e 95 34 b5 3d
       0.13120101 0.13043472 0.14778493 0.0884792
000130 9c 3a 11 bd 17 34 00 3d ae ac fb bb 28 b8 85 bd
       -0.035456285 0.031299677 -0.007680497 -0.06529266
000140 4a 9d 9c bd 61 46 17 be 23 c8 a2 bc 6d c9 98 bb
       -0.07647188 -0.14772941 -0.019870823 -0.0046626837
000150 73 73 16 3e 53 a6 e6 bd 07 ce 76 bd 51 8c 58 3d
       0.14692478 -0.112621926 -0.060255077 0.05286819
000160 0b 60 0e 3d b3 46 45 bd 01 fb d3 3d a5 85 ec bd
       0.034759562 -0.048163127 0.103506096 -0.11548928
000170 44 73 99 3d 96 4e a7 bd 42 91 52 be 0c 8c 2a bd
       0.07492688 -0.08169286 -0.20563224 -0.041637465
000180 8e 25 91 3c 7a 45 29 be fe 66 36 be 06 57 da 3d
       0.017718103 -0.1653041 -0.17812726 0.1066113
000190 0f 0e 30 be 6c 7b f8 bd 72 61 04 be 2c 17 b3 bd
       -0.17192863 -0.12132916 -0.12927797 -0.08744654
0001a0 a3 79 fe bd 1e fa 02 bc bb 4b 4f be db 3e 34 3e
       -0.12425544 -0.007994203 -0.20243733 0.17602102
0001b0 5c ae 51 be cb 4b 9a 3c 23 94 9b bd cb 16 4d 3e
       -0.20476669 0.018834969 -0.07596614 0.20028226
0001c0 1f 59 79 bd ef 1f 27 bd be 82 1b be f8 00 f9 3d
       -0.060876008 -0.04080194 -0.15186593 0.12158388
0001d0 d0 af c4 3c 33 e8 7c 3d ce 9f 02 3e ab 82 01 3e
       0.024009615 0.06174488 0.12756273 0.12647502
0001e0 f1 f7 3a 3e 77 54 24 be b9 f6 c9 bd 57 45 09 3e
       0.18258645 -0.16047846 -0.09861512 0.13405357
0001f0 a2 2e 0d bd 2d e2 4e 3c 08 13 8d 3c 3e 08 3e be
       -0.0344683 0.012627167 0.017220989 -0.18557832
