results/FoodTarget_imitation_5/AgentPlayer/AgentPlayer-9864.pt (torch, 267983 bytes, 12 tensors)

network_body._body_endoder.seq_layers.0.weight f4 [128, 120]
00000000: 7b52 ad3d d7fd 07be 5bbc 6bbe 043c 6e3d
00000010: a47c 803c b892 b83b bc7f 033d 66c7 d3bc
00000020: cce2 613d 9e3f f5bd 11bb 3b3d 6116 af3a
00000030: d9ba e7bc e8ed 63bd 9f74 613d 7448 81bc
00000040: dd1b 733c 2239 71bc f013 e3bd 906b 013c
00000050: b995 90bd 317b 01bd b5f7 d53a df62 b63d
00000060: b370 a9bd dbef ca3b f502 b4bc edf6 bebc
00000070: 4997 14be 06ee 5f3d 3d93 f63d 9afc 8dbd
00000080: 3b97 f7ba b214 f43d d088 29bc 4a52 00bd
00000090: bf4f f93b 4c4e 9e3b 7a4e 903c 7382 92bd
000000a0: 5c8a 11bd cf3a 45bd e05b 803d 813a cd3d
000000b0: 2dbb 54be 0870 bc3c ab2b 68bd f028 27bd
000000c0: a670 3bbd 5e1c cb3d d3f1 213e df7a c5bd
000000d0: c483 aabd e214 de3d 6d15 2ebc e7bc 0cbd
000000e0: d7db 29bd eda4 a4bd 685f de3c 34a5 d93c
000000f0: 4ac8 31bb ae3e 2dbc 12e4 3d3d af9f 7abd
00000100: d29c a33d f773 0abc 4b21 5bbc d5a0 573e
00000110: e94c 083c 0ecb 9bbd 7272 f53d 4f6e 783c
00000120: 887d e3bd 6e5d 0b3e 2a0f 753c 88ae 94bd
00000130: f691 3ebd de0a 0e3e 3f14 af3c 3d97 8cbd
00000140: bf68 803b 9989 95bc 500d 0a3e bee6 1f3d
00000150: 6f3c 8e3d 1518 093d d9fd 163d 763f 7f3d
00000160: f651 ac3c ef60 41bd 9406 b33d 562f 66bd
00000170: da55 4a3d 8e63 b83d 92df adbd 3ef7 703d
00000180: 0950 883e fbf1 d839 4e24 b1bd 7d35 003d
00000190: 7d01 f3bc 911a 8fbd c46f 9a3d d115 583d
000001a0: b8b1 6b3d 968f b63d b420 0fbd eea0 22be
000001b0: f705 0d3e 54bd 873e 3638 2f3d df58 5dbe
000001c0: d4a1 a9bc b636 873b d534 b5bd 2216 b3bd
000001d0: 3283 6a3c 88ec e4bd 5630 57bc a4e3 a63a
000001e0: 3a78 cb3d dfe6 003e 7bb0 af3d 885a eb3c
000001f0: f6de 5fbd fcfc ae3d fa47 96bd 5973 17be
00000200: e8cf a9bc 1c5f 523d 5c71 00bd 6511 5f3d
00000210: 415a 9dbd c113 f0bd ad28 2b3d 667a 1abe
00000220: b57f 3abc 3d31 a9bc 9e9e 263d 0603 7abd
00000230: ebfd 6dbe 0f5d b6bd 3872 ed3d ca72 2abe
00000240: 6d8c 013e 89cc 8d3d 987c debd feaa b0bd
00000250: d922 503d 429d fd3c 61a0 ae3d 701e 653d
00000260: b735 b5bd 49ec 97bd 7420 88bd 0b09 193d
00000270: c9db a8bb 4521 943d 846d f8bd 5c51 67bd
00000280: 292e bf3a 0571 a13d 3f0d cabc 238f abbc
00000290: 431a 053e 3098 8b3c c6b7 fc3d 84bd 123e
000002a0: afc8 12be d09d 803d b88f 17bd 93dc 643d
000002b0: bf63 91bd 01f7 c73c c174 c03d 35bb 97bd
000002c0: 4f80 753d 448c 0bbe 6c0a 71bd 8eae 923e
000002d0: 6fd5 67bb e695 3e3e d445 43bc d604 f13c
000002e0: b6c9 4939 acdb 57bd 31aa b0bc b617 a53d
000002f0: dc31 f1bd 4cbd 273d b9c7 e4bd 4470 cebd
00000300: 5330 efbc fc0c 493c 8e21 6b3d 96bd b0bd
00000310: 4083 59bd ad39 183e 77cb 79bd 2455 f1bd
00000320: 6d41 943c 6661 62bd 6f32 d3bd 25a0 7dbd
00000330: 24d5 f1bd 371b 84bd 2d47 d23d 0471 d43c
00000340: 69de cebc dbea 98bd 40cc 0cbd 5574 cebd
00000350: ec42 25bd d5e6 833d 06ae fb3d e92d 583d
00000360: 94e8 2bbe 08f6 223e 3ad0 483d fedd aa3d
00000370: 79e3 81bd 8e2e 71ba 51b0 a63d c83b 753e
00000380: 1627 f3bd 6b45 c23d 2832 ea3d 59ae 92bd
00000390: 5b2b 31bd b14a 673d b86d 89bd 0a19 c3bd
000003a0: 9aec 51bd 6e96 403d 20e4 4c3c e367 f73c
000003b0: 24f6 703d b958 733c fb27 c63c fb44 493e
000003c0: 056a 30bd 526a e13d e784 103c c160 8cbe
000003d0: ea1a d8bb f3fe 9bbd c966 a1bd 0076 03bc
000003e0: 8014 afbd e138 d4bc 6d97 55bd f484 773d
000003f0: 268d abbc f859 c2bc d462 893d 76e7 2f3d
0.084629975 -0.13280426 -0.2302107 0.058162704 0.015684433 0.0056327246 0.03210424 -0.025851917
0.05514793 -0.11975025 0.045832697 0.001335811 -0.028287338 -0.055646807 0.05504286 -0.015781619
0.014838186 -0.014723094 -0.11087787 0.00789918 -0.07059807 -0.031611625 0.0016324433 0.08905577
-0.08273449 0.006193144 -0.021974066 -0.023311103 -0.14510836 0.054670356 0.12039802 -0.069329455
-0.0018889675 0.1191801 -0.01034756 -0.031328477 0.0076083834 0.004831111 0.017615546 -0.071537875
-0.03553234 -0.048151787 0.06267524 0.10020924 -0.20774527 0.02300264 -0.05668227 -0.040810525
-0.045761727 0.0991752 0.15814905 -0.096425764 -0.083259135 0.10843827 -0.0106252255 -0.03435984
-0.04146942 -0.080392696 0.027145103 0.026568033 -0.0027127438 -0.010574026 0.046360083 -0.061187442
0.079888955 -0.0084505 -0.013374637 0.21057446 0.008319118 -0.07607089 0.11984719 0.015163018
-0.111079276 0.1360986 0.014957229 -0.07259852 -0.046525918 0.13871333 0.021371959 -0.06864784
0.0039187367 -0.018254088 0.13481641 0.039038412 0.069451205 0.033470232 0.03686318 0.06231638
0.021035176 -0.047211584 0.08741489 -0.056197487 0.04939828 0.090033635 -0.08489908 0.05882954
0.26623562 0.0004137902 -0.08649503 0.03130101 -0.029663796 -0.06987489 0.07540849 0.05275518
0.057542533 0.089141056 -0.034943298 -0.15881702 0.13771807 0.26511633 0.042778216 -0.21615933
-0.020707048 0.004126395 -0.088479675 -0.08744456 0.014313506 -0.11177927 -0.013134083 0.0012732637
0.09935041 0.1258807 0.08578583 0.028729692 -0.05465599 0.08544347 -0.07337947 -0.14790095
-0.02072902 0.051360235 -0.031358108 0.054459948 -0.0768323 -0.11722518 0.04178684 -0.15085754
-0.011382987 -0.020653361 0.040678613 -0.06103804 -0.23241393 -0.08904468 0.11594051 -0.16645351
0.12651224 0.069237776 -0.10863608 -0.08626364 0.050814483 0.030958775 0.085266836 0.05593723
-0.08848136 -0.07418115 -0.06646815 0.03736214 -0.0051531536 0.07232908 -0.121302634 -0.056474075
0.00145859 0.07882885 -0.02466452 -0.020942276 0.129983 0.017040342 0.123397395 0.14330107
-0.14334367 0.062801 -0.037002295 0.05587442 -0.07099103 0.024409773 0.09397269 -0.07408754
0.059936818 -0.13627726 -0.05884783 0.286488 -0.003537502 0.18611869 -0.011918504 0.029421251
0.00019243997 -0.05269973 -0.021565529 0.08061163 -0.11777088 0.040952012 -0.111709066 -0.10080007
-0.029197847 0.012271162 0.057405047 -0.08629911 -0.053103685 0.14865752 -0.060985055 -0.117838174
0.018097604 -0.055268668 -0.10312354 -0.061920304 -0.118082315 -0.06450503 0.10267482 0.025932796
-0.025252538 -0.0746667 -0.034374475 -0.10080782 -0.040347025 0.06440512 0.12289052 0.05277816
-0.1678794 0.15914166 0.049026705 0.08343123 -0.06342215 -0.00092003576 0.081390984 0.23948586
-0.118726894 0.09485897 0.11435348 -0.071621604 -0.043254238 0.056467716 -0.0671038 -0.0952626
-0.05125103 0.04701846 0.012505561 0.030200904 0.058828488 0.014852696 0.024188986 0.1965522
-0.043069858 0.11006607 0.008820749 -0.27417567 -0.0065950053 -0.07616987 -0.07880933 -0.008023739
-0.08548832 -0.025906028 -0.052146364 0.06042953 -0.020941328 -0.023724541 0.06708303 0.042945348

network_body._body_endoder.seq_layers.0.bias f4 [128]
00000000: 0000 0000 0000 0000 0000 0000 0000 0000
00000010: 0000 0000 0000 0000 0000 0000 0000 0000
00000020: 0000 0000 0000 0000 0000 0000 0000 0000
00000030: 0000 0000 0000 0000 0000 0000 0000 0000
00000040: 0000 0000 0000 0000 0000 0000 0000 0000
00000050: 0000 0000 0000 0000 0000 0000 0000 0000
00000060: 0000 0000 0000 0000 0000 0000 0000 0000
00000070: 0000 0000 0000 0000 0000 0000 0000 0000
00000080: 0000 0000 0000 0000 0000 0000 0000 0000
00000090: 0000 0000 0000 0000 0000 0000 0000 0000
000000a0: 0000 0000 0000 0000 0000 0000 0000 0000
000000b0: 0000 0000 0000 0000 0000 0000 0000 0000
000000c0: 0000 0000 0000 0000 0000 0000 0000 0000
000000d0: 0000 0000 0000 0000 0000 0000 0000 0000
000000e0: 0000 0000 0000 0000 0000 0000 0000 0000
000000f0: 0000 0000 0000 0000 0000 0000 0000 0000
00000100: 0000 0000 0000 0000 0000 0000 0000 0000
00000110: 0000 0000 0000 0000 0000 0000 0000 0000
00000120: 0000 0000 0000 0000 0000 0000 0000 0000
00000130: 0000 0000 0000 0000 0000 0000 0000 0000
00000140: 0000 0000 0000 0000 0000 0000 0000 0000
00000150: 0000 0000 0000 0000 0000 0000 0000 0000
00000160: 0000 0000 0000 0000 0000 0000 0000 0000
00000170: 0000 0000 0000 0000 0000 0000 0000 0000
00000180: 0000 0000 0000 0000 0000 0000 0000 0000
00000190: 0000 0000 0000 0000 0000 0000 0000 0000
000001a0: 0000 0000 0000 0000 0000 0000 0000 0000
000001b0: 0000 0000 0000 0000 0000 0000 0000 0000
000001c0: 0000 0000 0000 0000 0000 0000 0000 0000
000001d0: 0000 0000 0000 0000 0000 0000 0000 0000
000001e0: 0000 0000 0000 0000 0000 0000 0000 0000
000001f0: 0000 0000 0000 0000 0000 0000 0000 0000
0.0 0.0 0.0 0.0 0.0 0.0 0.0 0.0
0.0 0.0 0.0 0.0 0.0 0.0 0.0 0.0
0.0 0.0 0.0 0.0 0.0 0.0 0.0 0.0
0.0 0.0 0.0 0.0 0.0 0.0 0.0 0.0
0.0 0.0 0.0 0.0 0.0 0.0 0.0 0.0
0.0 0.0 0.0 0.0 0.0 0.0 0.0 0.0
0.0 0.0 0.0 0.0 0.0 0.0 0.0 0.0
0.0 0.0 0.0 0.0 0.0 0.0 0.0 0.0
0.0 0.0 0.0 0.0 0.0 0.0 0.0 0.0
0.0 0.0 0.0 0.0 0.0 0.0 0.0 0.0
0.0 0.0 0.0 0.0 0.0 0.0 0.0 0.0
0.0 0.0 0.0 0.0 0.0 0.0 0.0 0.0
0.0 0.0 0.0 0.0 0.0 0.0 0.0 0.0
0.0 0.0 0.0 0.0 0.0 0.0 0.0 0.0
0.0 0.0 0.0 0.0 0.0 0.0 0.0 0.0
0.0 0.0 0.0 0.0 0.0 0.0 0.0 0.0

network_body._body_endoder.seq_layers.2.weight f4 [128, 128]
00000000: 2214 4f3d 547d 823c 23eb f6bd 6041 aa3c
00000010: 5a33 0b3d 35f2 843d 3ea2 ba3d b767 23bc
00000020: ef11 60bc def7 eb3d cd10 9c3c db37 37bc
00000030: fb4a 95bd 785d 0a3e a21f aebb 3120 173e
00000040: 9088 85bd 304c 22be 2b1f 27bd 6fa6 183d
00000050: ada7 693d d8c0 69bc ea97 be3d 67e3 f33c
00000060: 2c13 853d 9135 a53d a6b6 b5bc 2e26 abbd
00000070: 52cc 1c3d 08de 17bd 94d6 873e a22b fcbc
00000080: 29ac 3dbd ed09 dcbd 9394 c6bd f206 3abd
00000090: c7da 3cbc 62c9 22be 091f a13d dea3 e0bd
000000a0: e837 033e f9d2 a6bd 1229 03be 1864 c73c
000000b0: 81bc c53d 6795 cb3c 567c a1bd 8f7a 00bd
000000c0: 81fa f13d 9dea e4bd c8e6 e0bc 9f34 34bb
000000d0: e487 5cbd 9d71 b4bc c378 993d b26b 5fbd
000000e0: 6d24 4abd 7320 4a3e 1dc1 0fbc 3248 73bb
000000f0: 3116 5f3d edf5 a33d 5f31 4e3d 2eae daba
00000100: 98fc 333d dff8 a8ba 1bc0 ad3c 2355 bf3d
00000110: cf22 09be 15d7 1d3d 5e27 4a3d 1d01 7abd
00000120: 1049 9eba 298c 143d 732f a2bb 52a0 4e3d
00000130: 057f 3b3d 2ce2 823d acf6 293d 9219 38be
00000140: 712f 303e cbae 9ebc 75a8 13be 63c1 17be
00000150: b152 8f3d cf89 f03c 99d0 223e 5a7d 143c
00000160: 1c7f 9dbd fc04 f63d c428 2fbd 6267 7abd
00000170: 96a6 033c 83fa be3d 3d22 b8bc faf6 16bd
00000180: 1394 c43c fe81 e2bc 102c d5ba cd45 b6ba
00000190: 9d2c ae3d 7bd1 103e a0d4 253e ec9d 1a3d
000001a0: cee3 2e3d 83f6 f9bd d1ce 243e 8f06 f3bd
000001b0: f91a 413e b7d3 d339 9acb df3d 13eb 16be
000001c0: b5fe 3b3d 01ed f8bd 65c5 553e 1227 eebd
000001d0: 9075 523d bc34 9939 4456 f03c cbd2 1cbd
000001e0: fa3f 5dbd 6393 d73d eee5 4bbd 96f9 923d
000001f0: ac42 f83d f2d3 e03d 3f21 523e c0e7 493e
00000200: 5e7f 61bd 1331 143d f453 c73d c68e 463d
00000210: 4acf 2fbe 6147 9cbd de0b d03d 4061 823d
00000220: 5502 543c a4c6 2cbd 2d48 39bd 66cb c93d
00000230: 8ace 0bbd 1ca0 213e 96bb 7dbd 6e47 3bbe
00000240: 2642 b0bd d344 a5bc 5395 a73d 9df0 2bbe
00000250: 7010 f8bc c67b 4cbe c6e8 ebbc 8007 22bc
00000260: e709 1abe a797 143d abc3 8d3c 4286 ac3d
00000270: 2ee0 873d 8949 adbc 45cb ef3c a346 02bd
00000280: 6cfc 0d3c 9241 173e e1f4 e23d b982 673d
00000290: b157 953c 0c7f d8bd 2496 bcbd 899e cbbc
000002a0: 2f05 6d3d 6c6c 32be 11e7 07be dd35 223d
000002b0: bab9 033d 786d e13d 2483 92bc 2dfe a33d
000002c0: e1c6 50bd 9501 53bd 18b3 b93c c077 fbbd
000002d0: 0c60 75bd 8ef6 2dbe ec9b ef3d f1d6 40bd
000002e0: d836 9d3d a02f 4bbc 16bc e9bc e226 d0bd
000002f0: d70a ac3c 9b30 50bd 11e9 b1bd f865 fabd
00000300: d284 233c 485a 363e b903 203e 0264 2a3e
00000310: 9e45 ccbd 9fda 86bd 1068 bbbd 079a c73d
00000320: 5be3 b5bc ddf7 3dbd 3625 71bd 4f69 2a3e
00000330: eb62 f5bc 7c05 03bd 0d4b b33d 430e e63d
00000340: 767b 353e 2ce9 fdbd d7a0 243d f078 453d
00000350: 30ac 30bd 704e c33d a8b5 ffbd 2096 c4bd
00000360: d84e 753c 69b5 b53d c0c7 6bbd af3f 13bb
00000370: f11e d03d cf0a 6c3d 3710 0d3e 932b 053e
00000380: 86d3 46bd 3021 b23d 1d3f 903d 1d49 753d
00000390: fe72 c23d f6ca 6ebd c383 f9bd 6487 bbbd
000003a0: ad51 25be 2a4b 7c3c e304 943d f0cb 7c3d
000003b0: e381 d0bb d6ad c13d e5ba 0f3e a464 06bd
000003c0: 07b2 84bd 6a44 203e 6901 753d a707 a03d
000003d0: 13ad 48bd 962e 6f3d 6c95 313d e7f5 a2bd
000003e0: c1d5 d8bc 3291 e33c 6b96 3d3d 8be6 07be
000003f0: b4d1 193c 7922 ae3d 2e05 ecbd f90b 81bd
0.05055631 0.015928902 -0.120565675 0.020783126 0.03398452 0.0649151 0.091129765 -0.009973458
-0.013676151 0.11521886 0.01905098 -0.011182751 -0.07289692 0.13512218 -0.0053138295 0.14758374
-0.06520188 -0.15849376 -0.04080121 0.0372681 0.057044674 -0.014267169 0.09306319 0.02977152
0.06497797 0.080668576 -0.02218182 -0.083568916 0.038280793 -0.03707698 0.26530898 -0.030782524
-0.046306763 -0.10744081 -0.09696307 -0.04541678 -0.01152677 -0.15897134 0.078672476 -0.10968755
0.12814295 -0.081457086 -0.12808636 0.02433972 0.09655095 0.024851514 -0.07885043 -0.03136688
0.11815358 -0.111775614 -0.027453795 -0.0027497185 -0.053840533 -0.022026831 0.074937366 -0.054546066
-0.049351145 0.19738941 -0.008774069 -0.003712189 0.054464523 0.08005891 0.050340053 -0.001668399
0.043942064 -0.0012891552 0.021209767 0.093424104 -0.13392185 0.038535196 0.04935395 -0.061036218
-0.0012076218 0.03626648 -0.004949504 0.050445862 0.045775432 0.06390795 0.04149501 -0.17978504
0.17205597 -0.019370457 -0.1441973 -0.14819865 0.06998194 0.029362587 0.15899886 0.009063089
-0.0769026 0.120126694 -0.042763487 -0.06113375 0.008035323 0.09325125 -0.022477264 -0.03685663
0.023996389 -0.027649876 -0.0016263742 -0.00139063 0.08504603 0.1414241 0.16194391 0.037748262
0.04269772 -0.122052215 0.16094519 -0.11866485 0.18857946 0.00040402796 0.10927506 -0.14738111
0.045897204 -0.1215458 0.20876081 -0.11628546 0.051381648 0.00029221724 0.02933801 -0.038286965
-0.05401609 0.10526159 -0.049779825 0.07176511 0.12122092 0.10977925 0.20520495 0.19717312
-0.055053107 0.036179613 0.0973281 0.048476003 -0.17168918 -0.07630802 0.101585135 0.06366205
0.012940009 -0.042181626 -0.045234848 0.09853248 -0.034132518 0.15783733 -0.061946474 -0.18288967
-0.08606367 -0.02017442 0.08182778 -0.16791005 -0.030281276 -0.19969091 -0.028797518 -0.009889483
-0.1504284 0.03627744 0.017305216 0.08424045 0.06634556 -0.021153228 0.029271731 -0.031805646
0.008666139 0.14771107 0.11081863 0.05652115 0.018230291 -0.10571107 -0.092083246 -0.024855869
0.05786627 -0.17424172 -0.13271739 0.03960215 0.032159545 0.11007208 -0.017884798 0.080074646
-0.050970916 -0.05151518 0.022668406 -0.122787 -0.05990605 -0.16988584 0.116996616 -0.047079984
0.07676476 -0.012401491 -0.02853207 -0.10163666 0.021001263 -0.050827604 -0.08687032 -0.1222648
0.009980397 0.17807877 0.1562642 0.16639712 -0.09974216 -0.065846674 -0.09150708 0.09746175
-0.022203138 -0.04637896 -0.058873378 0.16641735 -0.029954394 -0.031987652 0.08754549 0.11233189
0.17722878 -0.1239799 0.04019245 0.048211038 -0.04313296 0.09536445 -0.1248582 -0.095989466
0.014972411 0.08872492 -0.057563543 -0.0022468378 0.101621516 0.057627495 0.13775717 0.13004903
-0.04854157 0.08697736 0.07043288 0.05988418 0.09494589 -0.058299027 -0.12183335 -0.09156683
-0.16144438 0.01539878 0.072274946 0.061717927 -0.00636314 0.09456985 0.14036138 -0.032810822
-0.064792685 0.15651098 0.059815798 0.078139596 -0.04899318 0.058394037 0.04335539 -0.079570584
-0.026469113 0.027779195 0.046286028 -0.13271539 0.009388376 0.08502669 -0.115244254 -0.06301112

network_body._body_endoder.seq_layers.2.bias f4 [128]
00000000: 0000 0000 0000 0000 0000 0000 0000 0000
00000010: 0000 0000 0000 0000 0000 0000 0000 0000
00000020: 0000 0000 0000 0000 0000 0000 0000 0000
00000030: 0000 0000 0000 0000 0000 0000 0000 0000
00000040: 0000 0000 0000 0000 0000 0000 0000 0000
00000050: 0000 0000 0000 0000 0000 0000 0000 0000
00000060: 0000 0000 0000 0000 0000 0000 0000 0000
00000070: 0000 0000 0000 0000 0000 0000 0000 0000
00000080: 0000 0000 0000 0000 0000 0000 0000 0000
00000090: 0000 0000 0000 0000 0000 0000 0000 0000
000000a0: 0000 0000 0000 0000 0000 0000 0000 0000
000000b0: 0000 0000 0000 0000 0000 0000 0000 0000
000000c0: 0000 0000 0000 0000 0000 0000 0000 0000
000000d0: 0000 0000 0000 0000 0000 0000 0000 0000
000000e0: 0000 0000 0000 0000 0000 0000 0000 0000
000000f0: 0000 0000 0000 0000 0000 0000 0000 0000
00000100: 0000 0000 0000 0000 0000 0000 0000 0000
00000110: 0000 0000 0000 0000 0000 0000 0000 0000
00000120: 0000 0000 0000 0000 0000 0000 0000 0000
00000130: 0000 0000 0000 0000 0000 0000 0000 0000
00000140: 0000 0000 0000 0000 0000 0000 0000 0000
00000150: 0000 0000 0000 0000 0000 0000 0000 0000
00000160: 0000 0000 0000 0000 0000 0000 0000 0000
00000170: 0000 0000 0000 0000 0000 0000 0000 0000
00000180: 0000 0000 0000 0000 0000 0000 0000 0000
00000190: 0000 0000 0000 0000 0000 0000 0000 0000
000001a0: 0000 0000 0000 0000 0000 0000 0000 0000
000001b0: 0000 0000 0000 0000 0000 0000 0000 0000
000001c0: 0000 0000 0000 0000 0000 0000 0000 0000
000001d0: 0000 0000 0000 0000 0000 0000 0000 0000
000001e0: 0000 0000 0000 0000 0000 0000 0000 0000
000001f0: 0000 0000 0000 0000 0000 0000 0000 0000
0.0 0.0 0.0 0.0 0.0 0.0 0.0 0.0
0.0 0.0 0.0 0.0 0.0 0.0 0.0 0.0
0.0 0.0 0.0 0.0 0.0 0.0 0.0 0.0
0.0 0.0 0.0 0.0 0.0 0.0 0.0 0.0
0.0 0.0 0.0 0.0 0.0 0.0 0.0 0.0
0.0 0.0 0.0 0.0 0.0 0.0 0.0 0.0
0.0 0.0 0.0 0.0 0.0 0.0 0.0 0.0
0.0 0.0 0.0 0.0 0.0 0.0 0.0 0.0
0.0 0.0 0.0 0.0 0.0 0.0 0.0 0.0
0.0 0.0 0.0 0.0 0.0 0.0 0.0 0.0
0.0 0.0 0.0 0.0 0.0 0.0 0.0 0.0
0.0 0.0 0.0 0.0 0.0 0.0 0.0 0.0
0.0 0.0 0.0 0.0 0.0 0.0 0.0 0.0
0.0 0.0 0.0 0.0 0.0 0.0 0.0 0.0
0.0 0.0 0.0 0.0 0.0 0.0 0.0 0.0
0.0 0.0 0.0 0.0 0.0 0.0 0.0 0.0

action_model._continuous_distribution.log_sigma f4 [1, 5]
00000000: 0000 0000 0000 0000 0000 0000 0000 0000
00000010: 0000 0000
0.0 0.0 0.0 0.0 0.0

action_model._continuous_distribution.mu.weight f4 [5, 128]
00000000: 6fc8 bb39 15c1 703c 3a85 eebb 17d6 0d3c
00000010: e92f 81bb 7042 543c d13c c439 91b5 18bd
00000020: 13a3 ecbc 7d05 6c3b 653e 4ebc c0d5 a83c
00000030: 8aef 2e3c e2dc b03c 99f4 87bb b826 573c
00000040: 0702 1e3c f87d c33b 7256 fd3b 070a 093c
00000050: f1f2 03bc 9f9e 9f3c 42d6 b8bc 5d91 a53c
00000060: 8748 093a 7f40 f9bc a071 4d3d 9f6e 2ebc
00000070: 3b73 41bc 0baf 733c b087 26bc ee1f 3d3c
00000080: fab6 98bc e05d 5f3c f7b6 37bc 4787 b33c
00000090: d6f1 ae3c f514 9abc b2fe cfbc 9e55 c6bc
000000a0: b5b2 adbc 1f4b 7c3c 3a00 343c fee5 0bbb
000000b0: 09c1 b53b fe24 883c b7a0 f93c ea7a f9bc
000000c0: a14b 9fbb 6722 993b cbc8 0d3c af47 a3bb
000000d0: bfd5 d93c 63ab 1fbd e56b 7bbb 9d88 ab3b
000000e0: 87b9 6f3a 2577 10bb a4f0 063d 3704 053d
000000f0: 43ee 9f3c 98df f33b cd4b ef3c 09eb bc3b
00000100: 4305 f4bc a0a4 41bc d26f e63c 3cc9 49bd
00000110: c5f8 a9bc e814 9c3a 8bbf df3b 3854 67bc
00000120: b5cf 04bd ff0e 5f3b 336d 083c 8786 a73c
00000130: bed7 04bd ff95 14bc 88e0 a33b c272 d03c
00000140: d72d abbc 32ab 3c3c 8d6d e53b 622d 913c
00000150: 5a90 b5bb 51b7 c7bc 8010 86bc 0fc0 0f3c
00000160: 1e31 3b3b b352 85bc aea2 833c 03cf aebc
00000170: b515 9b3c ebe6 97bc b99e 85bc 7676 42bc
00000180: 8513 a1bc 9d65 a93b c3ac 34bc caf5 c2b9
00000190: 7eb4 bdbb 934a 853b 22a2 c2bc e689 19bd
000001a0: 0f73 ca3c 131b 203d c56e aa3b 6e17 c23c
000001b0: 2347 783a cf2b 553a 4d6a 9c3c 7762 47bc
000001c0: 9e68 1cba 4cc8 143c ced0 263c 934b 40bc
000001d0: 43d5 08ba 0d71 763c 15f8 c6bb 19c8 123d
000001e0: da35 94bc feb3 06bd 9f80 9c39 2444 a3bc
000001f0: 3da6 fdbc 371e 4fbc afc5 19bb c372 c3bc
00000200: 8fb0 b43a a407 843c 1376 0bbc 17cd 003c
00000210: c216 93bc 1787 033c ba8e 713c 12f9 613a
00000220: d533 67bc 4f21 f0bb 3395 703c 24cb 26bc
00000230: f708 cdbc 2d28 e43c 56a4 803c 123e 54bc
00000240: dee4 11bd 8e90 20bc ecc3 99b9 0d70 1e3b
00000250: e391 513a 1c9a 01bd d424 1ebb faa3 f4bc
00000260: d01f 7abc 400d d6bc db94 703c 6b95 3e3a
00000270: 9505 443c 2819 803c cfab 643c b2e3 63bd
00000280: 5621 043d c3d7 053d 04fe 04bc 9ad3 2abc
00000290: 0421 15bc 2aa3 6e3c b299 7cbc f23b 113d
000002a0: 5fa8 84bc d75e 19bd 0f83 b1bc ab3f c63c
000002b0: b4dd a2b9 cd9a 4dbc 9bc9 80bc 9f20 09bd
000002c0: c90e 17bc 9f85 2d3c 3a22 24ba dab2 e93c
000002d0: e231 b7ba ec1d bb3c d81e b2ba 6930 c0bc
000002e0: 97ad 063c ea01 583c 3972 413b 2caa 9d3c
000002f0: 8ad6 e1bb f72d aa3b ba47 7e3b 3f0b 2e3c
00000300: b4c6 11bc dcc7 87bb d764 963b 5b1f b13b
00000310: 671f 723d 75a2 2b3c cb25 263c 0df6 0fbc
00000320: f66a 2ebc 4420 0cbd cfbb 3f3b 4387 37bc
00000330: c3ef 05bd 4bbf eebc 482a 9a3c 7397 11bc
00000340: a3be 3a3c e3e7 1dbc 416d 123c 104e 013b
00000350: ce19 a2bb ba2f 023c 129d 833c ef74 213c
00000360: e8a9 efbb 4bd9 f63c 77b7 823c 022a 4d3c
00000370: 9a3f 4bbc 0035 083c 63c8 5bbb 2a32 2bbc
00000380: 8e71 45bd 338d 1a3c 3bb3 323c c8c0 ed3c
00000390: 6b9e f3bc 7329 0c3d ce6f 28bb 6263 4d3c
000003a0: 1c89 1f3c cfb4 90bb 6b9e 4f3c 9ad3 fcbb
000003b0: ac84 0d3b 4a49 15bc 0a89 253a 16d3 80bc
000003c0: 11ab b1bc 6769 69bb fa17 21bc d773 45bd
000003d0: c74f ca3b ef7d 2c3c e67b 15bc 5a01 daba
000003e0: 8a26 57bc 272c 5abc 7249 393c aff9 a13c
000003f0: 9943 1cbc e86b 4fbc 9c95 a4bc d76c 013c
0.00035816754 0.014694472 -0.0072790654 0.008657 -0.003942479 0.012955293 0.00037429345 -0.03728253
-0.028886354 0.0036014013 -0.012588118 0.020609736 0.010677228 0.0215897 -0.0041490314 0.01313179
0.009644038 0.0059659444 0.0077312523 0.008364207 -0.008053527 0.019484816 -0.022563104 0.020210916
0.00052369427 -0.030426262 0.05015719 -0.010646491 -0.011807258 0.014873276 -0.010164186 0.011543257
-0.018641938 0.013633221 -0.011213056 0.021915091 0.02135555 -0.018808821 -0.025390003 -0.024210747
-0.021203378 0.01539877 0.010986382 -0.0021346803 0.005546693 0.016619202 0.030472143 -0.030454118
-0.0048613106 0.0046732905 0.00865383 -0.0049829106 0.02659118 -0.038981806 -0.003836387 0.0052347914
0.0009144772 -0.0022043672 0.032944337 0.032474723 0.019522792 0.007442426 0.02921095 0.005765323
-0.029787665 -0.011819035 0.028129492 -0.049264178 -0.020748505 0.0011908086 0.0068282536 -0.0141192
-0.032424647 0.0034036038 0.008326816 0.02044989 -0.03243231 -0.009068965 0.0050011314 0.025445346
-0.020895882 0.0115154255 0.007001585 0.017721836 -0.0055408897 -0.024379404 -0.01636529 0.008773818
0.0028563212 -0.016274786 0.016068783 -0.021338945 0.01893125 -0.018542727 -0.016311036 -0.011869064
-0.019662628 0.005169584 -0.011027518 -0.0003718569 -0.0057893386 0.004067728 -0.023758952 -0.037485026
0.024713067 0.03908832 0.005201193 0.023692813 0.00094710494 0.0008131833 0.019093657 -0.012169472
-0.0005966517 0.009080958 0.010181619 -0.011736768 -0.0005219767 0.015041602 -0.006072054 0.03583536
-0.018092085 -0.032886498 0.0002985047 -0.019929953 -0.030963058 -0.012641481 -0.0023463776 -0.023858434
0.0013785529 0.016116925 -0.008512038 0.007861397 -0.017955188 0.008027813 0.014743501 0.0008620183
-0.014111479 -0.0073281894 0.014684009 -0.010180268 -0.025028689 0.027851189 0.015703361 -0.012954252
-0.035618655 -0.0098000895 -0.00029328407 0.0024175674 0.0007994456 -0.03164111 -0.0024130838 -0.029863346
-0.015266374 -0.026129365 0.014683927 0.000727019 0.0119642215 0.015636995 0.013956978 -0.05563707
0.032258354 0.03267647 -0.008117203 -0.010426426 -0.00910211 0.0145652685 -0.015417503 0.03545756
-0.016193567 -0.037443962 -0.021668939 0.024200281 -0.0003106423 -0.012549114 -0.015721133 -0.033478376
-0.009219834 0.01059094 -0.00062612037 0.028527666 -0.0013976658 0.022841416 -0.0013589514 -0.023460584
0.008220098 0.01318405 0.0029517545 0.019246183 -0.00689203 0.0051934677 0.0038800077 0.010622798
-0.008897472 -0.004143698 0.0045896578 0.005405349 0.05911198 0.0104757445 0.0101408465 -0.00878669
-0.010645619 -0.03421046 0.002925623 -0.0112016825 -0.032699358 -0.02914395 0.01881899 -0.008886206
0.01139799 -0.009637806 0.008937181 0.0019730367 -0.004946924 0.007945949 0.016066108 0.009854539
-0.0073139556 0.03013291 0.015956623 0.0125222225 -0.0124053005 0.008313417 -0.0033536188 -0.010448972
-0.048203997 0.009433079 0.01090699 0.02902259 -0.029738626 0.034219217 -0.0025701406 0.012535902
0.009737279 -0.0044160853 0.012672047 -0.0077156546 0.0021593971 -0.009111712 0.0006314671 -0.015725654
-0.021688016 -0.0035615803 -0.009832377 -0.048206177 0.006174061 0.010528072 -0.009123778 -0.0016632483
-0.013131747 -0.013316191 0.011309015 0.019772379 -0.009537601 -0.012660004 -0.02009087 0.007899485

action_model._continuous_distribution.mu.bias f4 [5]
00000000: 0000 0000 0000 0000 0000 0000 0000 0000
00000010: 0000 0000
0.0 0.0 0.0 0.0 0.0

network_body._body_endoder.seq_layers.0.weight f4 [128, 120]
00000000: 0235 e83d b650 87bc 3073 b33d 1a86 223c
00000010: 974c 4c3d 5e9a a03c 31c7 ed3d 7a93 413d
00000020: 77e0 febc 86d9 4fbd d6be 193e 8364 9e3d
00000030: 5efb 443d 5ddf 3abd 26f7 bd3d 3256 90bc
00000040: 46de 79bd 10df ff3d ecad 0abe 84ab b9bc
00000050: 3e13 8abd ee57 2b3e 7a4e c53c 571b 8f3c
00000060: f22e 313e e4e4 733d 4cf8 2f3d 49e2 39bc
00000070: dec6 e1bc 51a7 94ba 52f3 a63e ecee d4bc
00000080: 8e9c 27be 637f 60bd dd72 d7bd ed92 9d3e
00000090: 91de 54bd 1476 1f3e af71 05bd 304e 98bd
000000a0: 6ba5 5a3d a6bd 10be 2ed5 31bd 557b e83d
000000b0: 49db 84bd ddf1 343d 0c0b 23bd ba9a 733e
000000c0: 9456 053e 3a36 eebd 0253 b53c 9a05 9c3d
000000d0: fad7 0abd 31d1 0d3e 4850 86bd 6c50 9a3d
000000e0: 62c4 fbbb 1e7d 783d ade7 d43d 1af3 aa3d
000000f0: d39e fdbd 36b2 14bd db84 b13d 074d adbd
00000100: f196 e6bd c3b0 063d dafd 06bd 11be 25bd
00000110: fe46 20be 73f8 ce3c b1d3 9d3d dba4 983d
00000120: ac5d 023e 09be 2f3e 0def ccbb 2dfa a9bd
00000130: 90bd 60bd ab45 96bd 24ee 25bc d465 4dbb
00000140: ac07 753b c461 00bd b8db 223d a2da 4d3e
00000150: e8d1 33bd db87 1abd 4b86 973d 3a47 633c
00000160: 014d c13c a166 353b 9b80 9b3d c339 713d
00000170: 7537 babd 5a47 35be 456b 23be b8bc fabd
00000180: 4acf 233d ca5f d03c bc64 953d 0578 dcbd
00000190: a5da ec3d 852a f73c 81bb 0cbe 3948 713c
000001a0: 7c42 eebd 43e7 9a3d 43b3 d63c a581 333e
000001b0: 1936 5a3d b094 303d c6e9 b03c 3798 0fbd
000001c0: c569 31ba a8cf b8bd e4aa cf3c 3ce4 acbd
000001d0: 0083 36be 5420 abbb 5303 a1bd c959 bc3d
000001e0: 44fd 193c 0f04 efbc 569b 1abd c59a cdbd
000001f0: e3ce b33d bf15 4b3c a859 2ebd d45d f63d
00000200: d227 263d 998e 70bd d325 66be e5dc bfbb
00000210: 7f40 523d 2a30 d83c 8586 2c3e 8247 003e
00000220: b855 cc3c 6a68 2c3d 7a90 3ebd 0305 9e3d
00000230: 5931 e7bd 82c7 d4bc d5a5 babb 36f1 aa3c
00000240: 220f cfbc 87b6 8ebd 4279 403e e231 fcbd
00000250: 3e07 1e3c 234c 6abd 90b1 78bb b078 463e
00000260: cee2 073d d1b7 d83c 23b9 f03c 4dec b3bd
00000270: 4d20 883c 2b11 963b c179 afbd ae14 143e
00000280: 0d12 343e ee6b 033e 9e50 b03d 49de 163e
00000290: e45a 35be c7db 6fbc 9360 a0bc 6bbe 863b
000002a0: 7239 1f3d 9088 d8bd 28c1 d7bd 91d9 0dbe
000002b0: 251c f73c 0169 b0bd 203c 4fbd dbd7 b9bd
000002c0: 0092 4d3c 6b01 00bc 0234 ca3c 6210 83bd
000002d0: 8691 d93c 994d 74bd b244 423d 6014 5ebe
000002e0: c7e2 36bc c9ae bb3d 7d81 cd3d a812 4e3d
000002f0: 2163 323d 8f69 19be b21b c93c 82c0 21bc
00000300: 617e ddbd fc32 4b3d 4031 30be 62f9 893d
00000310: f8ad 2abe 14e0 903c 1ef1 ae3c 8dc1 16bd
00000320: 1994 ed3d 5139 02bd 381e d4bd 177e e33b
00000330: ecd6 b9bd 7a17 1539 9eda 62bd 4c1e 67bd
00000340: 1532 ba3d ca69 823c 4957 3ebd 6291 823b
00000350: 658f cc3d 17d5 a73c dc81 58bc 4f37 79bd
00000360: ed2b 2bbe a51d 6f3c 47a8 e9bc e129 67bd
00000370: bd55 dabc f3b6 a83c 1759 f83c 8f5f 14be
00000380: 7c38 22bd 5890 fd3c 0624 ce3c 1072 043e
00000390: 4a02 d4bc e091 ef3d 56ca d13c 5535 213d
000003a0: 20d6 cc3d 4b75 723d 0dea bd3d 0844 73bc
000003b0: 47a0 28be bf3a 96bd 0d92 d4bc bfc7 b2bd
000003c0: ecb4 00bd 54e4 eb3c ef33 e6bc b394 88bd
000003d0: 928a abbc 7864 02be e0c1 9abd da47 41bb
000003e0: f88a 183e ffef acbd ed4d 07be 57e8 3c3d
000003f0: 5312 2e3d 5d0c a6bd 432c 35bc ab8f 9dbd
0.113382354 -0.016517978 0.08762205 0.009919668 0.04987773 0.019604858 0.11610258 0.047259785
-0.031112893 -0.050744556 0.15014204 0.07734015 0.048091285 -0.045623172 0.092756554 -0.017619226
-0.061002992 0.12493718 -0.13542908 -0.022664793 -0.067419514 0.16732761 0.024085272 0.017469091
0.17303064 0.05954446 0.042961404 -0.0113454545 -0.027560648 -0.0011341368 0.32607514 -0.025992833
-0.16368315 -0.054808985 -0.10519955 0.30776158 -0.05197007 0.15572387 -0.03257912 -0.07436788
0.05338041 -0.14134845 -0.043416195 0.11351649 -0.06487138 0.04417597 -0.039805457 0.23789492
0.13021308 -0.11631437 0.022134308 0.07618256 -0.033897378 0.13849331 -0.06558281 0.075348705
-0.0076833228 0.060666196 0.10395751 0.08347149 -0.12383809 -0.036302768 0.08667918 -0.084619574
-0.112592585 0.032883417 -0.032956935 -0.040464465 -0.15652081 0.025264954 0.077063926 0.07453319
0.12731045 0.17162336 -0.006254083 -0.0829967 -0.05486828 -0.07337507 -0.010127578 -0.0031341212
0.0037388606 -0.031343237 0.03976032 0.20102933 -0.043901354 -0.037727218 0.07398661 0.013871962
0.023596289 0.002767958 0.07592889 0.058892976 -0.09092609 -0.17703 -0.15958889 -0.122430265
0.039992608 0.0254363 0.07294604 -0.107650794 0.11565141 0.030171642 -0.13743402 0.014726692
-0.11633775 0.07563641 0.026208526 0.17529924 0.053274248 0.04311055 0.021595847 -0.035057273
-0.0006767775 -0.09023982 0.025350042 -0.0844197 -0.1782341 -0.0052223597 -0.07861962 0.09196813
0.009398762 -0.02917674 -0.037745796 -0.100392856 0.08779695 0.012395321 -0.04256597 0.12029615
0.04056532 -0.05872974 -0.22475366 -0.00585519 0.05133104 0.026390154 0.1684819 0.12527278
0.024943218 0.042091765 -0.046524502 0.077158 -0.11288709 -0.025974039 -0.0056960382 0.020866971
-0.02527577 -0.06968408 0.18796256 -0.12314202 0.009645281 -0.057201516 -0.0037947632 0.19381976
0.033175282 0.026454838 0.029385155 -0.08785305 0.016616965 0.0045796833 -0.085681446 0.14461014
0.17585011 0.1283414 0.086091265 0.14733233 -0.17710453 -0.014639801 -0.0195773 0.004112055
0.038873143 -0.10572922 -0.105348885 -0.13852526 0.030164788 -0.08613778 -0.05059445 -0.09074374
0.012547016 -0.007812838 0.024683002 -0.06399609 0.026558649 -0.059644315 0.047428794 -0.2168746
-0.011162466 0.09164197 0.100344636 0.05031076 0.043551568 -0.14981674 0.024549339 -0.009872558
-0.108151205 0.04960917 -0.17206287 0.06737019 -0.16667926 0.017684974 0.021355208 -0.03680568
0.11600513 -0.031792942 -0.10357326 0.0069425213 -0.09074196 0.00014218493 -0.05538427 -0.056425378
0.09091584 0.015919585 -0.04646996 0.003984616 0.09988288 0.020487351 -0.013214555 -0.060843762
-0.16715975 0.01459447 -0.028522624 -0.056436423 -0.026652211 0.02059505 0.030315919 -0.14489578
-0.03960465 0.030952618 0.025163662 0.12934136 -0.025879998 0.11697745 0.025609177 0.039357502
0.100017786 0.05919389 0.09273157 -0.014847763 -0.16467391 -0.07335424 -0.025948549 -0.08729505
-0.03142254 0.028795399 -0.028100936 -0.06668987 -0.020940099 -0.12733638 -0.0755651 -0.002949229
0.14896762 -0.08444213 -0.1321332 0.046120014 0.042497944 -0.08107827 -0.011057916 -0.07693418

network_body._body_endoder.seq_layers.0.bias f4 [128]
00000000: 0000 0000 0000 0000 0000 0000 0000 0000
00000010: 0000 0000 0000 0000 0000 0000 0000 0000
00000020: 0000 0000 0000 0000 0000 0000 0000 0000
00000030: 0000 0000 0000 0000 0000 0000 0000 0000
00000040: 0000 0000 0000 0000 0000 0000 0000 0000
00000050: 0000 0000 0000 0000 0000 0000 0000 0000
00000060: 0000 0000 0000 0000 0000 0000 0000 0000
00000070: 0000 0000 0000 0000 0000 0000 0000 0000
00000080: 0000 0000 0000 0000 0000 0000 0000 0000
00000090: 0000 0000 0000 0000 0000 0000 0000 0000
000000a0: 0000 0000 0000 0000 0000 0000 0000 0000
000000b0: 0000 0000 0000 0000 0000 0000 0000 0000
000000c0: 0000 0000 0000 0000 0000 0000 0000 0000
000000d0: 0000 0000 0000 0000 0000 0000 0000 0000
000000e0: 0000 0000 0000 0000 0000 0000 0000 0000
000000f0: 0000 0000 0000 0000 0000 0000 0000 0000
00000100: 0000 0000 0000 0000 0000 0000 0000 0000
00000110: 0000 0000 0000 0000 0000 0000 0000 0000
00000120: 0000 0000 0000 0000 0000 0000 0000 0000
00000130: 0000 0000 0000 0000 0000 0000 0000 0000
00000140: 0000 0000 0000 0000 0000 0000 0000 0000
00000150: 0000 0000 0000 0000 0000 0000 0000 0000
00000160: 0000 0000 0000 0000 0000 0000 0000 0000
00000170: 0000 0000 0000 0000 0000 0000 0000 0000
00000180: 0000 0000 0000 0000 0000 0000 0000 0000
00000190: 0000 0000 0000 0000 0000 0000 0000 0000
000001a0: 0000 0000 0000 0000 0000 0000 0000 0000
000001b0: 0000 0000 0000 0000 0000 0000 0000 0000
000001c0: 0000 0000 0000 0000 0000 0000 0000 0000
000001d0: 0000 0000 0000 0000 0000 0000 0000 0000
000001e0: 0000 0000 0000 0000 0000 0000 0000 0000
000001f0: 0000 0000 0000 0000 0000 0000 0000 0000
0.0 0.0 0.0 0.0 0.0 0.0 0.0 0.0
0.0 0.0 0.0 0.0 0.0 0.0 0.0 0.0
0.0 0.0 0.0 0.0 0.0 0.0 0.0 0.0
0.0 0.0 0.0 0.0 0.0 0.0 0.0 0.0
0.0 0.0 0.0 0.0 0.0 0.0 0.0 0.0
0.0 0.0 0.0 0.0 0.0 0.0 0.0 0.0
0.0 0.0 0.0 0.0 0.0 0.0 0.0 0.0
0.0 0.0 0.0 0.0 0.0 0.0 0.0 0.0
0.0 0.0 0.0 0.0 0.0 0.0 0.0 0.0
0.0 0.0 0.0 0.0 0.0 0.0 0.0 0.0
0.0 0.0 0.0 0.0 0.0 0.0 0.0 0.0
0.0 0.0 0.0 0.0 0.0 0.0 0.0 0.0
0.0 0.0 0.0 0.0 0.0 0.0 0.0 0.0
0.0 0.0 0.0 0.0 0.0 0.0 0.0 0.0
0.0 0.0 0.0 0.0 0.0 0.0 0.0 0.0
0.0 0.0 0.0 0.0 0.0 0.0 0.0 0.0

network_body._body_endoder.seq_layers.2.weight f4 [128, 128]
00000000: b128 123e bb81 80bd 5f85 a8bd 1d94 18bc
00000010: b9ec 1dbd eeb5 d8bd e5af 68bb 17af 483d
00000020: 69a0 9bbd 91e6 df3d 8d37 07be bb1d 123e
00000030: 7161 1bbd b518 84bb 501a 5e3d c72f 843d
00000040: 5a55 c03d ca86 3cbe 09fe 67bd 54f7 38bd
00000050: a0da c23d 627f 5e3d e81a 53bd 93ce 1cbe
00000060: 32d1 793d 52c2 c1bd 65f3 e83c 4ca3 893d
00000070: 87ef dcbd 6537 ba3d c836 89bb 9e2c a53b
00000080: c5a8 503d 2d49 413d ba4b 2d3d 4944 4d3d
00000090: 9722 90bd 7cc6 993c 1720 dbbd 6443 b1bd
000000a0: df7a 663c 197a 79bd 45f7 083e fd5b 0ebd
000000b0: e951 3f3e a37d b73d ff32 d33d f00e e23b
000000c0: bd93 96bd c818 033d 4252 cd39 e343 a4bd
000000d0: fd99 4c3e ad80 e13d a478 863b 3d7f 523d
000000e0: f8d3 4ebc 3ce2 13bd 9f05 2abd 10aa a8bd
000000f0: 8f9c 4abd 9031 1a3e 8167 f83c 6a04 e4bd
00000100: 577d 64bd e428 bebd a65a 943d eae9 cfbd
00000110: a147 4a3d cd99 753c 9cf3 5f3d 9c05 63bd
00000120: f839 ed39 4813 b03c c4ea ad3c dcf0 513d
00000130: dfc3 663d d57d 74bc 032c b53d e09d 93be
00000140: d70e 58bd 3ed0 86bd c4ed a1bc 831c b83d
00000150: f36f f7bd 360f 10bd 359c a8bd da47 25bd
00000160: 4c50 a0bd bed4 7bbd 6374 a1bc 8b86 2cbc
00000170: cf84 f83c d676 97be 0880 67bc 0491 d5bc
00000180: 8878 edbb b461 06bd 1875 983c 1994 07bd
00000190: dc05 6cbd b225 1c3c 3564 2ebe 60a8 733c
000001a0: 8c43 253d 5f61 253c 394a 5ebd c20e f83c
000001b0: b663 e73d 8745 293e b216 ae3c 9d9e 80bc
000001c0: f1f0 3ebc c662 f53d 3c13 863d eaba e53d
000001d0: 323c aa3d 258d 213d 7b81 0abe 3afd 243e
000001e0: ad82 393d dfa6 113d 75af 3f3c 40d5 ec3c
000001f0: 1525 223c 363d 083e f366 863d a3c4 16bd
00000200: 582b 81bc 466e cabd 8d90 88bc f297 253d
00000210: c8da c53b 7f13 aa3d 035a b03c 3639 cb3d
00000220: fd74 193d 404e 093e a14d c13d f278 7b3e
00000230: a942 833d 2b13 863d 24c3 30bc 82ae a0bd
00000240: f5d8 e13d f1c6 423e 8962 e0bb 2022 c13d
00000250: e442 1bbd 1266 b7bc 55e4 8bbd ec4a 78bd
00000260: 31cf 29be c64b c3bd 8866 873d 6957 883c
00000270: bae7 37bd 2109 fdbd d974 7bbd 7b1f fd3d
00000280: fac2 bf3c cc6d c1bc 5afc 9e3c 3fe1 313b
00000290: 87f7 aa3c d50e d73d 8fca e2bd c820 ce3c
000002a0: c9c6 83bc f889 9ebd 747d 00bd 624a fcbd
000002b0: 59fe 60bd 8734 d0bd 9d52 673c f6ab 17be
000002c0: 0ee1 973d 330c 89bd fca8 d13c 973e 0cbd
000002d0: b000 0abd 3b8b c53d dbee c53c 2261 e23c
000002e0: c814 c43d c7e7 c838 d207 033e d158 e5bc
000002f0: 4d0b ac3d 5669 583c 18b9 15bd bdc8 d9bc
00000300: 4842 63bc c60e 503d acfc 1b3e e397 43bd
00000310: 21b4 103d 0908 2a3d 1886 203e 795a a2bc
00000320: 21f8 0a3c ead5 24bd 0618 963d ad39 6a3d
00000330: 2b91 623d f7ec ebbd bdce 8bbd 89da b2bd
00000340: bd59 793b 4b5a 553e 9c7a a2bd 9c2d 76bb
00000350: 54a9 1d3d afbc d43c 5b82 1c3d 023a 333d
00000360: ee8e 22be 11d2 2dbb 42f9 c63c e324 b93c
00000370: 573a 5a3c af1e 953d 7646 f0bd 6838 1abd
00000380: d6a8 a93d cec9 813c e9b1 dfbd 2b97 f4bc
00000390: f31f 293e af6a 9a3d c1c0 6a3c a1ae ebbd
000003a0: abe3 94bb 2319 29be f9b6 a9bd 0f25 543d
000003b0: 691b dcbc bbfc 0e3c 03d5 6a3c eb5c 80bd
000003c0: b84e d6bd 0e57 813a e64b 5bbd 735b a9bc
000003d0: 136b 50bc 4f1a 9c3d f322 d83c db10 2dbd
000003e0: aef6 023e 5a9b 1abd 6d09 df3c 6ced e4bd
000003f0: b6e4 053e 2447 c5bc 6b5f 9eba 6c55 113e
0.14273335 -0.06274744 -0.082285635 -0.009312657 -0.038555834 -0.10581575 -0.0035505232 0.048995104
-0.07598955 0.10932649 -0.13204785 0.14269154 -0.037934724 -0.0040312656 0.054224312 0.06454425
0.093912795 -0.18410793 -0.05663875 -0.045157745 0.09514356 0.0543207 -0.05153933 -0.15313177
0.06099052 -0.09460892 0.028436372 0.067205995 -0.10787874 0.09092597 -0.0041874386 0.005040719
0.0509422 0.047188926 0.042308547 0.05011395 -0.070378475 0.018771403 -0.1069948 -0.08655432
0.014067381 -0.060907457 0.13375576 -0.034755696 0.1868359 0.0895951 0.10312461 0.0068987533
-0.073523976 0.032006055 0.00039161934 -0.08020761 0.19980617 0.11010871 0.004103737 0.051390875
-0.0126237795 -0.036104426 -0.041509267 -0.08235562 -0.049465712 0.15057969 0.030322792 -0.111336544
-0.055783596 -0.09285143 0.07243852 -0.101520374 0.049384717 0.014990282 0.054675683 -0.05542527
0.00045247353 0.021493569 0.021230109 0.051255092 0.05633914 -0.014922579 0.08846285 -0.28831387
-0.052748527 -0.06582688 -0.019766696 0.08989813 -0.120818995 -0.035170756 -0.08232919 -0.040351726
-0.078278154 -0.061482184 -0.019708818 -0.010530124 0.030336766 -0.29582852 -0.014129646 -0.026070125
-0.0072470345 -0.03280802 0.018610522 -0.03310022 -0.057622775 0.009530472 -0.17030413 0.014871687
0.04034762 0.010094016 -0.054270003 0.030280475 0.11298315 0.16530429 0.021251056 -0.015700633
-0.011654125 0.1198173 0.065466374 0.11217292 0.083122626 0.039441247 -0.13525955 0.16112223
0.045290638 0.03555953 0.011699547 0.02891028 0.009896536 0.133046 0.06562605 -0.03680862
-0.015767738 -0.09884314 -0.01667049 0.04042811 0.0060380436 0.083045 0.021527296 0.099230215
0.037465084 0.13408756 0.09438635 0.24557856 0.06409199 0.06546625 -0.010788713 -0.07845785
0.110277094 0.19021203 -0.006847684 0.09430337 -0.03790559 -0.022387538 -0.0683066 -0.060618326
-0.16582943 -0.09535937 0.06611353 0.016643243 -0.044898726 -0.12355257 -0.06139073 0.1235952
0.023408402 -0.023611926 0.01940744 0.0027142314 0.020869983 0.10500876 -0.11073791 0.025162116
-0.016086 -0.07741159 -0.03136964 -0.12318875 -0.054930065 -0.10166269 0.014118818 -0.14811692
0.07415973 -0.0669178 0.025593273 -0.034239378 -0.033692062 0.09645697 0.024161747 0.027634207
0.09574276 9.579915e-05 0.12795952 -0.027996453 0.08400593 0.013208708 -0.036553472 -0.026584977
-0.013870783 0.05079534 0.15233105 -0.047752272 0.035328034 0.04151157 0.15676153 -0.019818531
0.00848201 -0.040243067 0.07328801 0.05718391 0.055314224 -0.11519807 -0.068265416 -0.087330885
0.0038047873 0.20835225 -0.07933542 -0.0037563806 0.038491562 0.025968878 0.038210254 0.043756492
-0.15874836 -0.0026522914 0.024288777 0.022600597 0.013319573 0.07281243 -0.11732189 -0.03765145
0.08284156 0.015843298 -0.109226055 -0.029857239 0.16516094 0.075398795 0.014328183 -0.11507917
-0.0045437417 -0.16513495 -0.082868524 0.051793154 -0.026868539 0.008727248 0.0143330125 -0.06267723
-0.10464233 0.0009867863 -0.05353918 -0.02067349 -0.012720841 0.076222055 0.026383853 -0.042252403
0.12789413 -0.03774581 0.027226174 -0.11178097 0.13075528 -0.024081774 -0.001208288 0.14192742

network_body._body_endoder.seq_layers.2.bias f4 [128]
00000000: 0000 0000 0000 0000 0000 0000 0000 0000
00000010: 0000 0000 0000 0000 0000 0000 0000 0000
00000020: 0000 0000 0000 0000 0000 0000 0000 0000
00000030: 0000 0000 0000 0000 0000 0000 0000 0000
00000040: 0000 0000 0000 0000 0000 0000 0000 0000
00000050: 0000 0000 0000 0000 0000 0000 0000 0000
00000060: 0000 0000 0000 0000 0000 0000 0000 0000
00000070: 0000 0000 0000 0000 0000 0000 0000 0000
00000080: 0000 0000 0000 0000 0000 0000 0000 0000
00000090: 0000 0000 0000 0000 0000 0000 0000 0000
000000a0: 0000 0000 0000 0000 0000 0000 0000 0000
000000b0: 0000 0000 0000 0000 0000 0000 0000 0000
000000c0: 0000 0000 0000 0000 0000 0000 0000 0000
000000d0: 0000 0000 0000 0000 0000 0000 0000 0000
000000e0: 0000 0000 0000 0000 0000 0000 0000 0000
000000f0: 0000 0000 0000 0000 0000 0000 0000 0000
00000100: 0000 0000 0000 0000 0000 0000 0000 0000
00000110: 0000 0000 0000 0000 0000 0000 0000 0000
00000120: 0000 0000 0000 0000 0000 0000 0000 0000
00000130: 0000 0000 0000 0000 0000 0000 0000 0000
00000140: 0000 0000 0000 0000 0000 0000 0000 0000
00000150: 0000 0000 0000 0000 0000 0000 0000 0000
00000160: 0000 0000 0000 0000 0000 0000 0000 0000
00000170: 0000 0000 0000 0000 0000 0000 0000 0000
00000180: 0000 0000 0000 0000 0000 0000 0000 0000
00000190: 0000 0000 0000 0000 0000 0000 0000 0000
000001a0: 0000 0000 0000 0000 0000 0000 0000 0000
000001b0: 0000 0000 0000 0000 0000 0000 0000 0000
000001c0: 0000 0000 0000 0000 0000 0000 0000 0000
000001d0: 0000 0000 0000 0000 0000 0000 0000 0000
000001e0: 0000 0000 0000 0000 0000 0000 0000 0000
000001f0: 0000 0000 0000 0000 0000 0000 0000 0000
0.0 0.0 0.0 0.0 0.0 0.0 0.0 0.0
0.0 0.0 0.0 0.0 0.0 0.0 0.0 0.0
0.0 0.0 0.0 0.0 0.0 0.0 0.0 0.0
0.0 0.0 0.0 0.0 0.0 0.0 0.0 0.0
0.0 0.0 0.0 0.0 0.0 0.0 0.0 0.0
0.0 0.0 0.0 0.0 0.0 0.0 0.0 0.0
0.0 0.0 0.0 0.0 0.0 0.0 0.0 0.0
0.0 0.0 0.0 0.0 0.0 0.0 0.0 0.0
0.0 0.0 0.0 0.0 0.0 0.0 0.0 0.0
0.0 0.0 0.0 0.0 0.0 0.0 0.0 0.0
0.0 0.0 0.0 0.0 0.0 0.0 0.0 0.0
0.0 0.0 0.0 0.0 0.0 0.0 0.0 0.0
0.0 0.0 0.0 0.0 0.0 0.0 0.0 0.0
0.0 0.0 0.0 0.0 0.0 0.0 0.0 0.0
0.0 0.0 0.0 0.0 0.0 0.0 0.0 0.0
0.0 0.0 0.0 0.0 0.0 0.0 0.0 0.0

value_heads.value_heads.extrinsic.weight f4 [1, 128]
00000000: 078c c93d 79e6 7cbc 5d79 43bc 258e 08be
00000010: 02a7 013d a41f 2ebe b71d 54be cceb c5bd
00000020: 353e eb3d 60cf b03d dabf 01be 0178 453c
00000030: 7235 dd3d a348 353e aa66 3e3e 2733 2dbd
00000040: 657a 21bd ebd0 41be ae57 c0bb 4be1 82bd
00000050: a35e 16be 6baa 513e 6112 8b3d 7014 21be
00000060: deea 073e 34d5 5bbe 657b e13d 9763 213c
00000070: ce80 9d3d 8c95 343e a871 873d 15dd 3abe
00000080: 9d0b 3dbe b43a 513e dbd3 3abe e84d f93b
00000090: 4e5f fc3d ec25 073e 2c5f 4cbe 2c16 51be
000000a0: 1810 363e d369 41be d3d7 383d b0b4 aebd
000000b0: e81e 8dbd 5981 273e f8bb c6bd 3ea0 9f3d
000000c0: 50fc ffbd d35a 18be 5146 46bd 6454 dfbd
000000d0: 3080 53be 51b7 05be b918 51be 5d7e 71bd
000000e0: 0ba1 3dbe 2a1e 5b3e b99a 513d 307e 37be
000000f0: 120a c53d 6cc1 c3bd ae23 453d 7a97 413e
00000100: 20b6 153e 3f4f 183e ef2a 013e ddc8 6ebd
00000110: b376 c73b a0c7 50bd 182f 5e3c 5544 2a3e
00000120: 64ff a73d b719 26be 22d2 51bd 87f1 85ba
00000130: b2e4 e4bd 7c58 26be 272b 40be 919f 003e
00000140: 2d07 2cbd a6aa 2cbc 61c2 bbbd 71ed aebd
00000150: 64d5 42bd be2e a03d 85e9 f7bc 1948 953d
00000160: 977b 2a3c a056 29be f9e9 da3d d90d 243d
00000170: 8fef fbbd 595c 24bc 9cea 26be 538e b5bc
00000180: 56ab ddbd 7c44 1dbe 9a42 02be 74df 02be
00000190: c5a6 0bbc 5971 0fbd fe36 433e 4390 e43d
000001a0: 6db2 1c3e fb8a 3f3e c378 9f3d 5b45 29be
000001b0: 9995 dcbc 9dd8 0a3e 5ed3 14bc ef6f 09be
000001c0: edb1 8f3d dadc 04be 33ef 2d3d 1d5d 0cbe
000001d0: 7937 1ebe f510 bd3d 1849 40be 358c 13be
000001e0: 8ff8 43be b7d1 a93d 3835 ed3d cb74 103d
000001f0: 0b47 42be 187b 423e 2a60 47bd ebfd c5bd
0.09841161 -0.015435808 -0.011930791 -0.13335474 0.03165341 -0.17004257 -0.2071446 -0.09664115
0.114864744 0.08633304 -0.12670842 0.012052537 0.108012095 0.1770349 0.1859385 -0.04228511
-0.039423365 -0.18927352 -0.0058698272 -0.063906275 -0.14684539 0.20475166 0.06790615 -0.15730453
0.13273188 -0.2146805 0.11009864 0.009850404 0.07690583 0.17635173 0.06613475 -0.18248399
-0.18461461 0.2043255 -0.18244879 0.007608164 0.123228654 0.1319806 -0.1995818 -0.20418614
0.17779577 -0.18888025 0.0451277 -0.08530557 -0.068906605 0.16357936 -0.09703821 0.07794236
-0.12499297 -0.14878397 -0.048406903 -0.10904768 -0.20654368 -0.13058211 -0.20419587 -0.0589584
-0.18518464 0.21398225 0.051172946 -0.1791923 0.096210614 -0.09558377 0.04812973 0.1890544
0.14620256 0.1487398 0.12614034 -0.058297027 0.006087148 -0.050971627 0.013561033 0.16627629
0.08203009 -0.16220747 -0.05122579 -0.0010219075 -0.11176433 -0.16244692 -0.18766461 0.1256087
-0.04199903 -0.010538733 -0.09167934 -0.08541382 -0.047566786 0.07821415 -0.030262718 0.07289142
0.010405443 -0.16536951 0.10689158 0.04005227 -0.123015516 -0.010031783 -0.16300434 -0.022162592
-0.10823695 -0.15358156 -0.12720719 -0.12780553 -0.008523648 -0.035020206 0.19063947 0.11160328
0.15302439 0.1870536 0.07786705 -0.16530363 -0.026926802 0.13559194 -0.009083597 -0.13421606
0.070163585 -0.12974873 0.042464446 -0.13707395 -0.15450849 0.0923175 -0.18777883 -0.14408953
-0.19137786 0.08291953 0.11582416 0.035267632 -0.18972413 0.18992269 -0.048675694 -0.09667572
