results/FoodTarget_imitation_5/AgentPlayer/AgentPlayer-54587.pt (torch, 794207 bytes, 36 tensors)

network_body._body_endoder.seq_layers.0.weight f4 [128, 120]
0.017582616 -0.12713209 -0.11060393 0.08835885 -0.031734124 -0.16906151 -0.030936567 -0.07046798
0.0720272 0.009112232 0.01607998 0.017339895 -0.08996597 0.16279593 0.010069343 -0.06548141
0.004913821 0.09805328 0.13084425 -0.023701392 -0.01750815 -0.021437645 -0.004285637 -0.037507553
0.09688608 -0.0035915528 -0.19519062 -0.060014166 -0.013339161 -0.21125709 -0.15665728 -0.057725046
0.12028159 0.021528354 0.11949988 0.2130709 -0.08140253 -0.09784039 0.037146334 -0.017514648
0.05685071 -0.08019858 -0.043620873 -0.13935609 -0.012662923 -0.09422305 -0.024339316 0.014290565
0.0882816 0.030428618 -0.022982817 -0.05997902 0.022890337 -0.056904376 0.17626809 -0.020253902
0.001723651 0.07688021 -0.08304961 -0.013709315 0.05143829 -0.060959402 -0.0866378 0.08712769
-0.027475579 -0.0067781513 0.04924547 0.0031815823 -0.032850623 -0.19860277 -0.043406237 -0.15006042
-0.038749132 -0.0031236326 0.0941738 0.1217455 -0.029797217 0.19385047 0.05310967 0.02509659
0.03299519 -0.042230308 -0.05527949 0.029081956 -0.11764623 -0.121663205 0.12732962 -0.052258465
0.03816328 -0.04602001 -0.033306256 -0.020959137 -0.0544949 0.03238498 0.12458178 -0.18803103
-0.024702283 0.25594732 0.04415435 0.025609933 -0.025802974 -0.0448212 -0.152892 -0.09726693
-0.06528443 -0.016931029 -0.13370402 -0.09739641 -0.1144644 0.24199653 -0.05433758 -0.03138126
-0.009597874 -0.057113927 0.035638146 -0.07842076 0.12785767 -0.04238884 -0.19946533 0.008064758
-0.039316054 -0.040541746 0.09124925 -0.064972855 -0.09417207 0.15823795 0.0061949394 -0.04412826
0.0617107 0.041912254 0.025151037 0.021274395 0.07053461 0.0146197425 -0.06340748 0.19779205
-0.054044478 0.0018877371 -0.11177247 0.09168391 -0.03515461 0.045173723 -0.025969015 -0.19445316
0.11062553 -0.003449768 0.0077969832 0.055253416 0.06409191 0.013144387 -0.059776127 -0.0045876405
0.055980787 -0.18710038 0.05685274 -0.020895643 -0.014331312 -0.027800433 0.09368425 0.015100727
-0.036292627 -0.14989428 -0.006538539 0.03189089 0.11140313 0.05742937 0.006799961 0.013164885
-0.08357818 0.04677449 -0.0939539 -0.052803546 -1.671393e-05 0.11062662 0.12250578 -0.017638884
0.011672994 -0.08693849 0.04462296 0.092690915 0.0515598 -0.11684238 0.17518361 -0.07487915
-0.1588077 -0.16871108 -0.066432595 0.059277754 -0.008462858 0.012253333 0.060896378 -0.005603188
-0.026078058 -0.03876652 0.05037031 -0.021026004 0.1553767 0.0032660193 0.10970367 -0.043301273
0.0020328157 0.021592017 -0.06774743 0.042135183 0.02581051 0.03326295 0.060001556 -0.06194919
0.14910354 -0.023856431 0.034537926 0.034311675 0.0807932 -0.122914545 -0.027227487 0.019987565
0.04069062 -0.1050797 0.03958804 0.14729847 -0.00016536232 0.003913578 -0.07245877 0.07653715
-0.04826139 0.0373946 -0.091184385 0.03266121 -0.0063023474 -0.12952122 0.18038702 0.10111456
-0.15002254 0.113240555 -0.09150876 -0.04521019 0.15715128 -0.12848362 0.0678018 -0.038272604
-0.093511365 0.030176068 -0.022964261 0.010633722 -0.08641792 -0.010592144 0.056138564 0.08460101
-0.04236959 0.11096094 -0.13682164 0.10032054 -0.08933003 -0.16384116 -0.18826759 0.03299007
00000000: 6b09 903c ea2e 02be 5084 e2bd 7cf5 b43d
00000010: a4fb 01bd 761e 2dbe af6e fdbc 8451 90bd
00000020: ff82 933d 794b 153c 2aba 833c 650c 8e3c
00000030: 1440 b8bd fab3 263e e3f9 243c 1e1b 86bd
00000040: 1e04 a13b 28d0 c83d 09fc 053e 6c29 c2bc
00000050: 406d 8fbc 009e afbc 876e 8cbb 85a1 19bd
00000060: 366c c63d 4260 6bbb 0de0 47be 6ad1 75bd
00000070: 7f8c 5abc c753 58be c46a 20be 1971 6cbd
00000080: 3256 f63d 3b5c b03c 5abc f43d 422f 5a3e
00000090: 5fb6 a6bd 8b60 c8bd c126 183d e17a 8fbc
000000a0: 4adc 683d 273f a4bd cdab 32bd 5db3 0ebe
000000b0: 2678 4fbc 04f8 c0bd 3f63 c7bc f922 6a3c
000000c0: fccc b43d 7045 f93c 7646 bcbc 90ac 75bd
000000d0: 8484 bb3c 9014 69bd 9f7f 343e 83eb a5bc
000000e0: 21ec e13a 5f73 9d3d ea15 aabd 099d 60bc
000000f0: f5b0 523d 91b0 79bd 296f b1bd 0170 b23d
00000100: 7714 e1bc 411b debb 9eb5 493d 1882 503b
00000110: 608e 06bd 865e 4bbe bdca 31bd 70a9 19be
00000120: 69b7 1ebd dcb5 4cbb 31de c03d b455 f93d
00000130: 4b19 f4bc bd80 463e 8689 593d 5d97 cd3c
00000140: f725 073d b0f9 2cbd bf6c 62bd 483d ee3c
00000150: 82f0 f0bd 8f2a f9bd b262 023e f90c 56bd
00000160: 1951 1c3d 7a7f 3cbd 246c 08bd 7fb2 abbc
00000170: 0b36 5fbd 1da6 043d bb24 ff3d 358b 40be
00000180: 715c cabc 870b 833e 31db 343d eccb d13c
00000190: c260 d3bc 6f96 37bd b88f 1cbe e233 c7bd
000001a0: d8b3 85bd f1b2 8abc b5e9 08be c577 c7bd
000001b0: 506c eabd f0cd 773e 1591 5ebd a389 00bd
000001c0: 6740 1dbc 4bf0 69bd 4ef9 113d 109b a0bd
000001d0: 1fed 023e ec9f 2dbd a440 4cbe 0c22 043c
000001e0: df09 21bd 1a0f 26bd e3e0 ba3d 7d10 85bd
000001f0: 49dd c0bd 2109 223e ebfe ca3b d6bf 34bd
00000200: 5cc4 7c3d 2fac 2b3d 8c09 ce3c a447 ae3c
00000210: 7374 903d a587 6f3c c8db 81bd 008a 4a3e
00000220: be5d 5dbd f26d f73a f7e8 e4bd c6c4 bb3d
00000230: 48fe 0fbd 1508 393d f9bc d4bc bb1e 47be
00000240: a38f e23d 8115 62bb d67d ff3b 6851 623d
00000250: 9f42 833d 8e5b 573c d0d7 74bd eb53 96bb
00000260: 1c4c 653d 3e97 3fbe 6bde 683d 572d abbc
00000270: e1cd 6abc bcbd e3bc 87dd bf3d 0a69 773c
00000280: 94a7 14bd e37d 19be 3e41 d6bb 06a0 023d
00000290: 5327 e43d 0f3b 6b3d 35d2 de3b 88b1 573c
000002a0: 092b abbd 9c96 3f3d e76a c0bd 8848 58bd
000002b0: e434 8cb7 3690 e23d 4fe4 fa3d 6c7f 90bc
000002c0: 1640 3f3c cf0c b2bd 91c6 363d bcd4 bd3d
000002d0: 5e30 533d 0f4b efbd 5563 333e 3d5a 99bd
000002e0: 7c9e 22be 99c2 2cbe d00d 88bd 3bcd 723d
000002f0: cda7 0abc 34c2 483c 7b6e 793d f39a b7bb
00000300: a7a1 d5bc a4c9 1ebd 1951 4e3d ba3e acbc
00000310: 121b 1f3e b60a 563b 51ac e03d ad5c 31bd
00000320: fd38 053b bee1 b03c 2abf 8abd f195 2c3d
00000330: 9070 d33c bb3e 083d 31c4 753d 6fbe 7dbd
00000340: 99ae 183e 906e c3bc a477 0d3d 668a 0c3d
00000350: e876 a53d 9fba fbbd 2e0c dfbc f6bc a33c
00000360: 35ab 263d 0734 d7bd 1227 223d 69d5 163e
00000370: 1c65 2db9 793d 803b 4365 94bd 82bf 9c3d
00000380: bcad 45bd 152b 193d e1be babd c3c7 053d
00000390: ec83 cebb 36a1 04be 60b7 383e 2715 cf3d
000003a0: 829f 19be aaea e73d f268 bbbd 522e 39bd
000003b0: 44ec 203e 3691 03be acdb 8a3d bcc3 1cbd
000003c0: e382 bfbd cd33 f73c 8c1f bcbc 1039 2e3c
000003d0: e1fb b0bd ac8a 2dbc 8df1 653d 4b43 ad3d
000003e0: bc8b 2dbd 7d3f e33d f91a 0cbe db74 cd3d
000003f0: aaf2 b6bd fac5 27be 38c9 40be 9820 073d

network_body._body_endoder.seq_layers.0.bias f4 [128]
0.00081647234 -0.0052245813 0.0020490217 -0.00028910497 0.0070563965 -0.00019135298 -0.0028120824 0.010305756
-0.0022619378 0.0053245015 0.014824703 0.0049324627 0.012319484 0.014953067 0.0092897145 0.017061362
0.0049379715 0.00572638 0.0048920796 0.0012339556 -0.0047588116 0.01528021 -0.0017788019 0.0072101005
-0.0011864266 0.0008255724 0.0034084925 -0.004807189 -0.0038047775 0.0073782075 -0.0011531907 0.001748576
0.005695422 -0.002011734 0.0014725404 0.007795118 -0.006161862 0.0031889104 0.0021110964 -0.0045726267
-0.0042553563 -0.0067804465 0.0008180544 0.00023417606 0.01774225 0.013881045 0.010124736 0.0017356654
-0.0076127704 0.0059615443 0.010761135 0.0032897538 -0.0049474104 0.0009964544 0.0113035105 0.0008410606
0.005074886 0.0030702658 0.020722872 0.0041890647 0.017675659 0.008683647 0.0026549667 0.007796921
0.0010048813 0.0069218846 -0.00024096825 0.0022117135 0.00253521 0.016418895 0.0057149134 -0.0026685232
0.015463456 0.015014308 -0.001317707 0.013112993 0.014959996 0.002060978 0.014957558 0.004865078
0.0125336815 0.0031813849 -0.008772985 0.012979784 0.008072255 0.016212827 0.0015259973 0.008770844
0.0029893927 -0.0009869479 0.00560059 0.00088854285 -0.0064597456 0.00874053 -0.0016972992 0.007965366
0.0071616466 0.00934795 0.0023293726 -0.0030936424 -0.0029873175 -0.005224324 0.011087411 0.0050879414
0.015433539 0.0043616844 0.007971639 0.0012735821 -0.0008340199 0.008678673 -0.0011928368 0.0099927895
0.003960671 -0.0007862017 0.007214425 0.002735773 0.005955234 0.0046606734 0.0070386846 0.010929478
0.012562739 0.0034493655 0.0028915254 -0.0073996293 0.006353479 0.006348152 0.009873443 -0.0005815671
00000000: 8808 563a f732 abbb e148 063b 0393 97b9
00000010: 5839 e73b eda5 48b9 ea4a 38bb 79d9 283c
00000020: 053d 14bb 2879 ae3b 50e3 723c 7fa0 a13b
00000030: a9d7 493c b5fd 743c e333 183c 45c4 8b3c
00000040: b5ce a13b 5ba4 bb3b bd4d a03b aebc a13a
00000050: ceef 9bbb d959 7a3c b026 e9ba b542 ec3b
00000060: df81 9bba 3a6b 583a 0461 5f3b a085 9dbb
00000070: 9359 79bb e4c4 f13b a926 97ba 7930 e53a
00000080: aaa0 ba3b 4cd7 03bb 4202 c13a 306e ff3b
00000090: 72e9 c9bb 0afd 503b 525a 0a3b f9d5 95bb
000000a0: 8470 8bbb 822e debb b472 563a 288d 7539
000000b0: 3258 913c 536d 633c 39e2 253c 447f e33a
000000c0: 8c74 f9bb 0f59 c33b 794f 303c e998 573b
000000d0: e31d a2bb 769b 823a 5c32 393c 9f7a 5c3a
000000e0: 3b4b a63b 8336 493b 03c3 a93c 6c44 893b
000000f0: 8bcc 903c db45 0e3c f3fe 2d3b 507d ff3b
00000100: 39b6 833a fad0 e23b 6cac 7cb9 65f2 103b
00000110: c425 263b eb80 863c 2b44 bb3b 64e2 2ebb
00000120: 6f5a 7d3c 92fe 753c e9b6 acba e1d7 563c
00000130: c51a 753c 7911 073b 8c10 753c 3b6b 9f3b
00000140: 125a 4d3c c87e 503b 91bc 0fbc 29a9 543c
00000150: 7e41 043c c3d0 843c f903 c83a 96b3 0f3c
00000160: b0e9 433b 7a5c 81ba 2785 b73b 1aed 683a
00000170: 46ac d3bb 7134 0f3c e977 deba 2b81 023c
00000180: 3fac ea3b 2528 193c 63a8 183b b5be 4abb
00000190: dfc6 43bb ce30 abbb f9a7 353c bfb8 a63b
000001a0: f4dc 7c3c 76ec 8e3b 7a9b 023c 53ee a63a
000001b0: 21a2 5aba fe30 0e3c f658 9cba ccb8 233c
000001c0: 84c8 813b 1a19 4eba fc66 ec3b a84a 333b
000001d0: 2024 c33b 90b8 983b c4a4 e63b 8e11 333c
000001e0: f2d3 4d3c c00e 623b bf7f 3d3b 9778 f2bb
000001f0: d830 d03b 2904 d03b 39c4 213c 4f74 18ba

network_body._body_endoder.seq_layers.2.weight f4 [128, 128]
0.07073977 -0.06761348 -0.114901766 -0.059634272 0.14596134 0.106170624 0.063842356 -0.037664678
-0.03561614 -0.082511514 0.10047748 -0.0017876748 -0.029394198 0.15754855 -0.14238107 0.0030082478
0.12262039 -0.08729698 0.08744101 -0.05057385 -0.032025803 -0.044490814 0.11268517 -0.103362
-0.025035618 0.10357208 -0.17373599 0.0021820387 0.09408526 -0.08676279 0.08931224 0.018109052
-0.039367415 -0.1393632 0.014139597 0.19938229 -0.08363473 -0.11331879 0.07313089 0.19542709
0.038697556 -0.1883641 0.025883438 -0.040210117 0.014016041 -0.050248496 -0.07010999 0.10461553
0.09738008 -0.23301776 -0.10694183 0.06240315 -0.070182964 0.060685635 0.004575649 0.02457771
-0.17539771 0.014571283 -0.010814186 -0.14703082 0.018554348 0.07458766 -0.04531611 -0.043748695
0.0059799673 -0.021531831 0.039611373 -0.06501209 0.07599299 0.06122831 -0.04339769 -0.00916894
0.084040284 -0.017969465 0.04715547 -0.034063403 0.05664203 0.14515048 -0.052928586 -0.062661
0.017183278 -0.0006420975 0.030919708 -0.018848704 -0.07475843 0.17794357 -0.009073387 0.006185929
0.04137657 0.07500944 0.007857641 -0.1320283 0.10834353 0.029228847 -0.07369071 -0.07954994
-0.01146698 -0.016220959 0.03225107 0.07874196 -0.08115316 -0.055567235 0.0047051194 0.022925133
0.068990976 0.12662892 0.1392544 0.08291814 -0.036161114 -0.014804685 0.0012450805 -0.031078927
-0.27840328 -0.028953142 -0.2008379 0.06829161 0.08380357 -0.0477625 -0.019685598 0.026086489
0.0019084928 -0.0006545641 0.018234672 -0.08765641 0.18315062 -0.039000183 -0.14410123 -0.11450071
0.17902724 -0.100217246 -0.0033889178 -0.08419445 -0.018313413 0.015076139 -0.1489126 0.15465304
0.019636387 -0.17984821 -0.09320126 -0.07350649 -0.08107616 -0.0012131777 0.13528657 0.013104756
0.19631799 -0.07441498 0.12888628 -0.066769116 0.006445596 -0.06887369 -0.10657723 0.1218166
-0.15582614 -0.06214774 -0.04550149 -0.01062196 0.09017405 0.03778401 0.10758863 0.04982245
-0.01285706 0.06043497 0.022347467 0.0048614684 -0.0048322724 0.10371328 -0.09950612 0.066733226
-0.011609999 -0.032353282 0.03056976 0.07543246 -0.07540494 0.16504866 -0.07540422 -0.077571385
0.11072391 0.008435545 -0.11601658 0.13250093 -0.2417333 0.0810053 -0.023116544 -0.1452441
-0.07979025 0.012902962 0.07294969 0.026261887 0.056876637 -0.15437491 0.090858914 0.09915382
-0.03977441 -0.02605366 0.097117916 0.00402501 0.07707427 0.09394638 -0.0927214 -0.052816223
-0.08138616 -0.10916931 0.103285134 0.07305663 -0.04016262 -0.048653945 -0.015724413 0.12890658
0.041551292 0.08980271 -0.18305077 -0.07021165 -0.009704712 0.08602054 -0.054892126 -0.11510777
0.043644637 -0.20393741 0.06051918 -0.14973736 0.020806469 0.08103468 -0.0013689263 -0.076954976
-0.16848288 0.09393675 0.10058824 0.035716884 0.054223128 -0.11132782 -0.02854521 0.094470456
-0.023070868 0.16516548 0.03060892 -0.034517944 -0.040259827 -0.021096932 0.07001566 -0.0697813
0.05907879 -0.026910743 0.13245884 -0.16210215 0.07900468 0.0054632793 -0.15255308 0.020017955
0.2052843 -0.0128391255 0.07407591 0.072093256 -0.14745466 -0.23055986 0.17224486 -0.086643994
00000000: 03e0 903d f078 8abd 9e51 ebbd 1143 74bd
00000010: e476 153e fc6f d93d c8bf 823d 4746 1abd
00000020: 3be2 11bd ccfb a8bd 23c7 cd3d 6a50 eaba
00000030: 1acc f0bc 6854 213e 58cc 11be 0626 453b
00000040: 6620 fb3d c2c8 b2bd 4614 b33d 8626 4fbd
00000050: 7d2d 03bd 003c 36bd 7bc7 e63d 75af d3bd
00000060: 7f17 cdbc 991d d43d d9e7 31be 8900 0f3b
00000070: c6af c03d b1b0 b1bd 56e9 b63d 6f59 943c
00000080: ba3f 21bd 3ab5 0ebe c5a9 673c df2a 4c3e
00000090: af48 abbd af13 e8bd a6c5 953d 0a1e 483e
000000a0: 5481 1e3d 85e2 40be 8109 d43c 5db3 24bd
000000b0: 89a3 653c 5ed1 4dbd d495 8fbd ab40 d63d
000000c0: 356f c73d 359c 6ebe 5104 dbbd 729a 7f3d
000000d0: 16bc 8fbd 8091 783d 53ef 953b 3257 c93c
000000e0: 759b 33be 64bc 6e3c fc2d 31bc 3f8f 16be
000000f0: 4aff 973c 6ac1 983d 639d 39bd d531 33bd
00000100: 9af3 c33b 8663 b0bc 893f 223d 0f25 85bd
00000110: 36a2 9b3d 89ca 7a3d c7c1 31bd 5239 16bc
00000120: 501d ac3d b334 93bc 1826 413d 1186 0bbd
00000130: 7901 683d 54a2 143e a5cb 58bd 6954 80bd
00000140: f2c3 8c3c 6f52 28ba 544b fd3c 9968 9abc
00000150: f31a 99bd d736 363e 8ba8 14bc 55b3 ca3b
00000160: 7a7a 293d 8d9e 993d 56bd 003c 6d32 07be
00000170: 36e3 dd3d 5671 ef3c 28eb 96bd 14eb a2bd
00000180: 00e0 3bbc d1e1 84bc b319 043d 7743 a13d
00000190: a133 a6bd 789a 63bd 672d 9a3b 7dcd bb3c
000001a0: 244b 8d3d 03ab 013e b598 0e3e fcd0 a93d
000001b0: ad1d 14bd 598f 72bc f831 a33a 3c99 febc
000001c0: e08a 8ebe 242f edbc 73a8 4dbe 79dc 8b3d
000001d0: 35a1 ab3d 9ca2 43bd b143 a1bc 55b3 d53c
000001e0: 6426 fa3a 0e97 2bba e160 953c 3485 b3bd
000001f0: d68b 3b3e a8be 1fbd 468f 13be 597f eabd
00000200: eb52 373e b33e cdbd 9b18 5ebb 246e acbd
00000210: 0306 96bc e901 773c 8b7c 18be 5e5d 1e3e
00000220: 7ddc a03c 212a 38be 4de0 bebd 928a 96bd
00000230: 420b a6bd 7d03 9fba 9088 0a3e 55b5 563c
00000240: 9507 493e e266 98bd c4fa 033e 3fbe 88bd
00000250: 9435 d33b a60d 8dbd 2a45 dabd fb7a f93d
00000260: e390 1fbe a18e 7ebd c55f 3abd bb07 2ebc
00000270: 2cad b83d 68c3 1a3d 6d57 dc3d a012 4c3d
00000280: 6ba6 52bc a98a 773d 0912 b73c f44c 9f3b
00000290: 0a58 9ebb a167 d43d ddc9 cbbd 6eab 883d
000002a0: de37 3ebc e084 04bd 6f6d fa3c 557c 9a3d
000002b0: e86d 9abd 8402 293e 876d 9abd bfdd 9ebd
000002c0: 38c3 e23d 3d35 0a3c 1a9a edbd 53ae 073e
000002d0: ef88 77be 1be6 a53d e85e bdbc dfba 14be
000002e0: 1269 a3bd f266 533c a666 953d 2b23 d73c
000002f0: 7af7 683d 7514 1ebe 3d14 ba3d 2811 cb3d
00000300: 7eea 22bd 7c6e d5bc c2e5 c63d 3be4 833b
00000310: 1dd9 9d3d f666 c03d b8e4 bdbd d355 58bd
00000320: c9ad a6bd 2994 dfbd 2887 d33d b79e 953d
00000330: 8f81 24bd 5c49 47bd 7cd0 80bc 1600 043e
00000340: b031 2a3d 7cea b73d a971 3bbe 20cb 8fbd
00000350: 8300 1fbc 892b b03d 91d6 60bd 9fbd ebbd
00000360: b8c4 323d f8d4 50be f6e2 773d c054 19be
00000370: 5472 aa3c 83f5 a53d 8b6d b3ba 929a 9dbd
00000380: c786 2cbe e961 c03d 3501 ce3d de4b 123d
00000390: 1219 5e3d d7ff e3bd a5d7 e9bc ba79 c13d
000003a0: 1eff bcbc 2421 293e 8fbf fa3c b062 0dbd
000003b0: 7de7 24bd 79d3 acbc 5f64 8f3d 80e9 8ebd
000003c0: 9afc 713d eb73 dcbc 4aa3 073e 1bfe 25be
000003d0: 35cd a13d 4f05 b33b e036 1cbe b2fc a33c
000003e0: 0c36 523e 325b 52bc 1cb5 973d a1a5 933d
000003f0: 5bfe 16be e217 6cbe f560 303e 6872 b1bd

network_body._body_endoder.seq_layers.2.bias f4 [128]
0.0056241388 0.005463483 0.0010055301 0.012064405 -0.00019065748 0.0023674523 0.0055343052 0.0058057583
-0.00026738225 0.0070309695 0.00041772105 0.011380818 0.008143216 0.004451669 0.0010588521 0.0024591251
-0.00017118834 0.0008854874 0.008362259 0.0017068598 0.009400992 0.0022427356 0.0037486218 0.0072808294
0.0056551625 0.0015677362 0.0049421415 0.0073105567 0.0047043874 0.009293287 -0.0020578236 -0.00070453965
0.00060150045 0.004963836 0.0036303017 -0.0029694063 -0.0015821975 0.00018765518 0.0032537028 0.0066152196
-0.0036829095 0.011676273 0.0058845454 -0.0050830673 -0.00039059008 0.0066816523 0.004323621 -0.001012075
0.011636827 0.0047542215 0.005805909 0.0018725673 0.0045322683 0.010241072 0.007552642 0.003120807
0.0033300496 0.00071707595 0.0025950314 0.0027100458 -0.005274533 0.0069893603 0.002162104 -0.0054537603
-0.0031848752 -0.0019385561 0.006075419 0.013764395 0.015709177 -0.0019734844 0.0085772835 0.007051084
0.014427597 -0.0010480417 0.0026713437 0.002819613 0.004102183 0.00036734765 0.0018899591 0.011916356
-0.0006914471 -0.00063226034 -0.0047612633 -0.0039470643 0.005082114 0.005021963 -0.0021920383 0.005562904
-0.0034327526 -0.0039787884 0.003251083 0.0067848125 -0.001777073 -0.002514142 -0.004874504 -0.009889321
0.008134553 -0.0017697106 -0.001348651 -0.0024595782 0.001242261 0.004417133 0.004400513 0.0012605572
0.0037503175 0.005258101 -0.0025506727 0.001139029 0.004994448 0.006389779 0.005514509 -0.0005361808
0.0019841888 0.009091713 -0.003433725 0.003471931 0.009006029 -0.0042436137 0.0031084756 0.0013859129
0.0030221504 0.0036709527 -0.00047282383 0.006257636 -0.001998411 -0.0018134478 0.00763026 0.010333741
00000000: b24a b83b 0407 b33b fecb 833a c8a9 453c
00000010: 3aeb 47b9 4227 1b3b 1e59 b53b 3b3e be3b
00000020: 702f 8cb9 0c64 e63b 9201 db39 9c76 3a3c
00000030: 206b 053c 4edf 913b 2ec9 8a3a 4629 213b
00000040: 0581 33b9 0e20 683a db01 093c b6b8 df3a
00000050: 9e06 1a3c dcfa 123b 70ab 753b 0694 ee3b
00000060: f14e b93b 7f7c cd3a b0f1 a13b 658d ef3b
00000070: 4327 9a3b df42 183c 8ddc 06bb dbb0 38ba
00000080: 03ae 1d3a ada7 a23b 5bea 6d3b 5f9a 42bb
00000090: bd61 cfba 4ec5 4439 133c 553b 7cc4 d83b
000000a0: f85c 71bb d74d 3f3c 25d3 c03b dc8f a6bb
000000b0: 1dc8 ccb9 c3f1 da3b 29ad 8d3b 9aa7 84ba
000000c0: 64a8 3e3c 4dc9 9b3b 7f3f be3b ef70 f53a
000000d0: 6c83 943b 2bca 273c 277c f73b 7486 4c3b
000000e0: f63c 5a3b 27fa 3b3a 6711 2a3b 069b 313b
000000f0: fdd5 acbb 0107 e53b 16b2 0d3b 75b5 b2bb
00000100: 57b9 50bb 2617 feba 4f14 c73b 0f84 613c
00000110: 88b0 803c 9355 01bb bc87 0c3c c80c e73b
00000120: ba61 6c3c 725e 89ba b611 2f3b 42c9 383b
00000130: 9b6b 863b 9198 c039 81b8 f73a d23c 433c
00000140: 3b42 35ba 46be 25ba 5f04 9cbb 6056 81bb
00000150: dd87 a63b 478f a43b 4da8 0fbb 0549 b63b
00000160: 08f8 60bb 7f60 82bb 1f10 553b 2253 de3b
00000170: adec e8ba 4ec4 24bb 4eba 9fbb d206 22bc
00000180: ca46 053c a2f5 e7ba 38c5 b0ba e030 21bb
00000190: 5dd3 a23a 99bd 903b 2e32 903b 4839 a53a
000001a0: e3c7 753b 264c ac3b 3029 27bb 794b 953a
000001b0: 77a8 a33b 5a61 d13b 0eb3 b43b 7c8e 0cba
000001c0: 2a09 023b 68f5 143c 5908 61bb 5689 633b
000001d0: 068e 133c 030e 8bbb 91b7 4b3b 85a7 b53a
000001e0: 450f 463b 5e94 703b 57e5 f7b9 db0c cd3b
000001f0: c6f7 02bb 36b1 edba 4307 fa3b da4e 293c

action_model._continuous_distribution.log_sigma f4 [1, 5]
0.004428228 0.002898745 0.0043703928 0.0013921193 0.007470754
00000000: ab1a 913b dff8 3d3b 8335 8f3b c677 b63a
00000010: 3acd f43b

action_model._continuous_distribution.mu.weight f4 [5, 128]
0.012987258 0.059518572 -0.008771517 0.0041918526 -0.021570273 0.0170526 -0.015847292 0.017836964
-0.035578363 0.00898134 -0.042374145 -0.023977788 0.04167327 -0.035310443 -0.015157792 0.028685613
-0.0017277492 0.04477814 -0.046171512 -0.020712797 -0.05542943 0.015124451 0.02398624 0.036483243
-0.019466698 -0.031249668 0.026082298 -0.04296655 -0.022047853 0.04398689 -0.019506501 0.01155694
-0.042571444 0.030595433 0.008905535 -0.017771916 0.001834808 -0.006107906 -0.04120879 0.02895964
-0.032158256 0.030980032 0.028436981 0.018811299 0.0022594961 -0.010091742 -0.047031756 -0.01800964
0.02956164 -0.046232153 -0.03603692 0.020989196 -0.010291147 -0.00774828 -0.0034633228 -0.007000955
-0.05041867 0.005046716 0.028121453 -0.024444442 -0.005915977 -0.009980295 0.0077419435 -0.020770809
-0.0101685375 -0.00047136802 0.014207601 0.04414969 0.039607584 -0.0054472527 -0.020565804 -0.029585393
0.04508949 0.00049156765 -0.023801763 -0.011384258 0.012833597 -0.001041127 0.024012666 0.035119157
-0.0056328047 -0.005897423 -0.023082929 0.015679369 0.030328551 -0.01928652 0.025372213 0.041370306
-0.024369074 0.01190299 -0.02908453 0.02386127 -0.008251031 0.0013803039 -0.015339912 0.0028737006
0.03726147 -1.0606624e-05 0.004603829 -0.03275374 -0.030313311 -0.018054146 -0.013004872 0.008035811
0.049865425 0.001062128 -0.01628169 -0.009369854 0.0025859466 0.005614352 0.006483427 -0.030783629
-0.017223231 0.034390472 0.0021691183 0.005018488 0.020963524 -0.011703031 0.030422516 0.025094124
0.0040173074 -0.041968167 0.0023816184 0.011706092 0.024635023 -0.00017639897 -7.141194e-06 -0.056872547
-0.022447016 0.0035507933 -0.0068991715 -0.034353957 -0.025972357 0.0343603 0.01971174 -0.017499713
0.015733877 -0.02512762 0.045880906 -0.030162415 0.034800228 -0.0041627856 -0.029523514 -0.028691836
-0.01731441 0.0004217571 -0.01803422 0.012029678 -0.0067037595 0.02422561 -0.009790606 -0.009923061
-0.021571854 -0.014507869 -0.0065812757 -0.028880207 -0.021605564 -0.050420534 -0.0027107303 0.013339007
0.027803086 0.01174658 -0.018490009 -0.016812233 0.008308066 0.020375451 0.044987734 0.013150829
0.019087741 -0.01488248 0.011912856 0.019697962 -0.021914558 0.035065453 0.007198596 -0.007333242
-0.0066869585 0.029775338 0.0047283256 0.028969452 -0.008503032 -0.02873456 -0.03996759 0.03375204
-0.019434674 0.0427695 -0.0024918597 -0.027130662 0.015199519 -0.054060612 0.0034306026 0.005059791
0.04488719 -0.00025534397 -0.05750406 0.0053671454 -0.014112652 0.018299548 -0.04358868 0.022800092
-0.01272995 -0.021400133 0.0006919665 0.025427697 0.03287656 0.048170216 0.0010542739 0.011874262
0.006274224 0.035556555 0.010648828 0.0020390057 0.01291632 -0.017182294 -0.0109966425 0.010864901
0.026473792 0.023692694 -0.026453076 -0.024760123 -0.011296964 -0.023360014 0.036630746 0.025349531
0.00873062 0.035735436 0.030291244 -0.020529397 -0.017519094 -0.013704235 -0.05615805 -0.017120179
-0.025522798 -0.03467707 0.053237263 0.026464596 -0.041832715 -0.04106078 0.04867179 0.011505126
-0.015192452 -0.0068626637 0.010835706 0.027164312 0.046745718 0.0054733953 -0.006541335 0.02798868
-0.0008617082 0.025267575 0.00073695515 -0.06600086 0.008019652 0.038712792 -0.03995955 0.008652824
00000000: 82c8 543c bfc9 733d 69b6 0fbc cf5b 893b
00000010: 24b4 b0bc e5b1 8b3c 2ed2 81bc d31e 923c
00000020: 9eba 11bd 7826 133c 8390 2dbd 116d c4bc
00000030: 97b1 2a3d afa1 10bd 6358 78bc 17fe ea3c
00000040: a575 e2ba 4869 373d 571e 3dbd e2ad a9bc
00000050: f809 63bd 8ccc 773c cb7e c43c 746f 153d
00000060: a078 9fbc 4eff ffbc 8baa d53c b1fd 2fbd
00000070: b39d b4bc 992b 343d 19cc 9fbc 5259 3d3c
00000080: 655f 2ebd 46a3 fa3c 85e8 113c 6996 91bc
00000090: f17d f03a d424 c8bb 8cca 28bd c43c ed3c
000000a0: 60b8 03bd d6c9 fd3c acf4 e83c 271a 9a3c
000000b0: 0e14 143b d557 25bc 5fa4 40bd f488 93bc
000000c0: 412b f23c ed5d 3dbd 739b 13bd 89f1 ab3c
000000d0: 339c 28bc 49e5 fdbb eaf8 62bb 4468 e5bb
000000e0: cf83 4ebd ec5e a53b f65e e63c b63f c8bc
000000f0: d0da c1bb 6484 23bc 21b0 fd3b 8b27 aabc
00000100: f099 26bc f221 f7b9 ffc6 683c 4ed6 343d
00000110: 903b 223d de7e b2bb 9e79 a8bc 115d f2bc
00000120: c2af 383d 8cdc 003a eafb c2bc 0a85 3abc
00000130: 0244 523c 6d76 88ba 36b6 c43c 1bd9 0f3d
00000140: 6493 b8bb 2b3f c1bb 6918 bdbc 0572 803c
00000150: 9573 f83c c4fe 9dbc 63d9 cf3c e973 293d
00000160: a7a1 c7bc c204 433c ae42 eebc b678 c33c
00000170: 552f 07bc 50eb b43a 4154 7bbc b254 3c3b
00000180: 7c9f 183d 1af3 31b7 b7db 963b c928 06bd
00000190: 9f53 f8bc 4ae6 93bc 6312 55bc a2a8 033c
000001a0: b03f 4c3d 1a37 8b3a 2e61 85bc 0484 19bc
000001b0: fc78 293b 99f8 b73b ed72 d43b f32d fcbc
000001c0: bc17 8dbc 06dd 0c3d c427 0e3b 2172 a43b
000001d0: b2bb ab3c 12be 3fbc a438 f93c 3192 cd3c
000001e0: 9ea3 833b d0e6 2bbd ed14 1c3b e9ca 3f3c
000001f0: 63cf c93c bdf7 38b9 649e efb6 30f3 68bd
00000200: cee2 b7bc 6db4 683b 7212 e2bb bcb6 0cbd
00000210: fbc3 d4bc 63bd 0c3d 847a a13c 8f5b 8fbc
00000220: 55e4 803c 70d8 cdbc 9eed 3b3d 2b17 f7bc
00000230: af8a 0e3d fa67 88bb 4cdb f1bc 240b ebbc
00000240: f3d6 8dbc 481f dd39 80bc 93bc 2018 453c
00000250: 36ab dbbb c974 c63c c768 20bc 5694 22bc
00000260: 75b7 b0bc 6ab2 6dbc bea7 d7bb 2f96 ecbc
00000270: 27fe b0bc c385 4ebd 82a6 31bb da8b 5a3c
00000280: 4cc3 e33c ba74 403c 5c78 97bc cfb9 89bc
00000290: 8e1e 083c 6bea a63c 0f45 383d 9376 573c
000002a0: e55d 9c3c a5d5 73bc 242e 433c 9f5d a13c
000002b0: 2986 b3bc cba0 0f3d 33e2 eb3b b14b f0bb
000002c0: 461e dbbb 69eb f33c 12f0 9a3b 5851 ed3c
000002d0: 4d50 0bbc bd64 ebbc 0eb5 23bd 943f 0a3d
000002e0: 7735 9fbc 122f 2f3d 784e 23bb 1f41 debc
000002f0: 6707 793c a96e 5dbd f6d3 603b 9acc a53b
00000300: a1db 373d b0df 85b9 6189 6bbd e1de af3b
00000310: c138 67bc efe8 953c 0b8a 32bd 42c7 ba3c
00000320: 4891 50bc 554f afbc 1665 353a bf4d d03c
00000330: 92a9 063d 224e 453d 902f 8a3a 448c 423c
00000340: 0198 cd3b c0a3 113d 6c78 2e3c d7a0 053b
00000350: f99e 533c e2c1 8cbc 432b 34bc b302 323c
00000360: 91df d83c 2e17 c23c 1fb4 d8bc bed5 cabc
00000370: e716 39bc 805d bfbc 1f0a 163d d2a9 cf3c
00000380: e00a 0f3c 525f 123d 5825 f83c 442d a8bc
00000390: 3484 8fbc ba87 60bc fc05 66bd 9e3f 8cbc
000003a0: 3015 d1bc 8b09 0ebd 510f 5a3d 48cc d83c
000003b0: c858 2bbd 592f 28bd 125c 473d ff7f 3c3c
000003c0: c3e9 78bc 32e0 e0bb 3f88 313c b187 de3c
000003d0: 7078 3f3d 2b5a b33b b258 d6bb 8448 e53c
000003e0: 42e4 61ba f2fd ce3c 3930 413a 752b 87bd
000003f0: dc64 033c 4e91 1e3d a0ac 23bd 93c4 0d3c

action_model._continuous_distribution.mu.bias f4 [5]
0.0023113538 -0.0018502093 0.0016292008 0.0045117973 0.0015813267
00000000: 157a 173b b982 f2ba e88a d53a b3d7 933b
00000010: 8544 cf3a

exp_avg f4 [128, 120]
0.0 0.0 7.6931195e-07 3.37307e-06 0.0 0.0 1.680723e-06 1.115494e-06
0.0 0.0 8.685564e-06 6.171965e-06 0.0 0.0 2.4250483e-06 2.3832297e-06
0.0 0.0 2.4250483e-06 2.3832297e-06 3.392541e-05 2.4828094e-05 0.0 -1.732135e-05
-1.4375228e-05 0.0 0.0 0.0 0.0 0.0 0.0 0.0
0.0 0.0 0.0 0.0 0.0 0.0 0.0 0.0
0.0 0.0 0.0 0.0 0.0 0.0 0.0 0.0
0.0 0.0 0.0 0.0 0.0 0.0 0.0 0.0
0.0 0.0 0.0 0.0 0.0 0.0 0.0 0.0
0.0 0.0 0.0 0.0 0.0 0.0 0.0 0.0
0.0 0.0 0.0 0.0 0.0 0.0 0.0 0.0
0.0 0.0 0.0 0.0 0.0 0.0 0.0 0.0
0.0 0.0 0.0 0.0 0.0 0.0 0.0 0.0
0.0 0.0 0.0 0.0 0.0 0.0 0.0 0.0
0.0 0.0 0.0 0.0 0.0 0.0 0.0 0.0
0.0 0.0 0.0 0.0 0.0 0.0 0.0 0.0
0.0 0.0 1.8833866e-06 -2.774642e-06 0.0 0.0 7.706659e-06 5.646864e-06
0.0 0.0 -1.03880975e-05 -1.2394811e-05 0.0 0.0 -1.0158002e-05 -9.090182e-06
0.0 0.0 -1.0158002e-05 -9.090182e-06 -7.983523e-05 -8.494845e-05 0.0 4.8105634e-05
0.00011255652 0.0 0.0 0.0 0.0 0.0 0.0 0.0
0.0 0.0 0.0 0.0 0.0 0.0 0.0 0.0
0.0 0.0 0.0 0.0 0.0 0.0 0.0 0.0
0.0 0.0 0.0 0.0 0.0 0.0 0.0 0.0
0.0 0.0 0.0 0.0 0.0 0.0 0.0 0.0
0.0 0.0 0.0 0.0 0.0 0.0 0.0 0.0
0.0 0.0 0.0 0.0 0.0 0.0 0.0 0.0
0.0 0.0 0.0 0.0 0.0 0.0 0.0 0.0
0.0 0.0 0.0 0.0 0.0 0.0 0.0 0.0
0.0 0.0 0.0 0.0 0.0 0.0 0.0 0.0
0.0 0.0 0.0 0.0 0.0 0.0 0.0 0.0
0.0 0.0 0.0 0.0 0.0 0.0 0.0 0.0
0.0 0.0 -8.426987e-06 -3.7993098e-06 0.0 0.0 -7.4721506e-06 -6.9798857e-06
0.0 0.0 3.6404213e-06 2.6854561e-06 0.0 0.0 8.2545455e-07 1.7637708e-08
00000000: 0000 0000 0000 0000 b782 4e35 e75c 6236
00000010: 0000 0000 0000 0000 3495 e135 15b8 9535
00000020: 0000 0000 0000 0000 37b8 1137 c718 cf36
00000030: 0000 0000 0000 0000 03be 2236 93ef 1f36
00000040: 0000 0000 0000 0000 03be 2236 93ef 1f36
00000050: 224b 0e38 ed45 d037 0000 0000 514d 91b7
00000060: 222d 71b7 0000 0000 0000 0000 0000 0000
00000070: 0000 0000 0000 0000 0000 0000 0000 0000
00000080: 0000 0000 0000 0000 0000 0000 0000 0000
00000090: 0000 0000 0000 0000 0000 0000 0000 0000
000000a0: 0000 0000 0000 0000 0000 0000 0000 0000
000000b0: 0000 0000 0000 0000 0000 0000 0000 0000
000000c0: 0000 0000 0000 0000 0000 0000 0000 0000
000000d0: 0000 0000 0000 0000 0000 0000 0000 0000
000000e0: 0000 0000 0000 0000 0000 0000 0000 0000
000000f0: 0000 0000 0000 0000 0000 0000 0000 0000
00000100: 0000 0000 0000 0000 0000 0000 0000 0000
00000110: 0000 0000 0000 0000 0000 0000 0000 0000
00000120: 0000 0000 0000 0000 0000 0000 0000 0000
00000130: 0000 0000 0000 0000 0000 0000 0000 0000
00000140: 0000 0000 0000 0000 0000 0000 0000 0000
00000150: 0000 0000 0000 0000 0000 0000 0000 0000
00000160: 0000 0000 0000 0000 0000 0000 0000 0000
00000170: 0000 0000 0000 0000 0000 0000 0000 0000
00000180: 0000 0000 0000 0000 0000 0000 0000 0000
00000190: 0000 0000 0000 0000 0000 0000 0000 0000
000001a0: 0000 0000 0000 0000 0000 0000 0000 0000
000001b0: 0000 0000 0000 0000 0000 0000 0000 0000
000001c0: 0000 0000 0000 0000 0000 0000 0000 0000
000001d0: 0000 0000 0000 0000 0000 0000 0000 0000
000001e0: 0000 0000 0000 0000 acc8 fc35 fd33 3ab6
000001f0: 0000 0000 0000 0000 d94b 0137 317a bd36
00000200: 0000 0000 0000 0000 8a48 2eb7 4ff3 4fb7
00000210: 0000 0000 0000 0000 496c 2ab7 0982 18b7
00000220: 0000 0000 0000 0000 496c 2ab7 0982 18b7
00000230: 366d a7b8 5a26 b2b8 0000 0000 08c5 4938
00000240: 520c ec38 0000 0000 0000 0000 0000 0000
00000250: 0000 0000 0000 0000 0000 0000 0000 0000
00000260: 0000 0000 0000 0000 0000 0000 0000 0000
00000270: 0000 0000 0000 0000 0000 0000 0000 0000
00000280: 0000 0000 0000 0000 0000 0000 0000 0000
00000290: 0000 0000 0000 0000 0000 0000 0000 0000
000002a0: 0000 0000 0000 0000 0000 0000 0000 0000
000002b0: 0000 0000 0000 0000 0000 0000 0000 0000
000002c0: 0000 0000 0000 0000 0000 0000 0000 0000
000002d0: 0000 0000 0000 0000 0000 0000 0000 0000
000002e0: 0000 0000 0000 0000 0000 0000 0000 0000
000002f0: 0000 0000 0000 0000 0000 0000 0000 0000
00000300: 0000 0000 0000 0000 0000 0000 0000 0000
00000310: 0000 0000 0000 0000 0000 0000 0000 0000
00000320: 0000 0000 0000 0000 0000 0000 0000 0000
00000330: 0000 0000 0000 0000 0000 0000 0000 0000
00000340: 0000 0000 0000 0000 0000 0000 0000 0000
00000350: 0000 0000 0000 0000 0000 0000 0000 0000
00000360: 0000 0000 0000 0000 0000 0000 0000 0000
00000370: 0000 0000 0000 0000 0000 0000 0000 0000
00000380: 0000 0000 0000 0000 0000 0000 0000 0000
00000390: 0000 0000 0000 0000 0000 0000 0000 0000
000003a0: 0000 0000 0000 0000 0000 0000 0000 0000
000003b0: 0000 0000 0000 0000 0000 0000 0000 0000
000003c0: 0000 0000 0000 0000 a261 0db7 a5f7 7eb6
000003d0: 0000 0000 0000 0000 49b9 fab6 c334 eab6
000003e0: 0000 0000 0000 0000 f64d 7436 c937 3436
000003f0: 0000 0000 0000 0000 ce94 5d35 bb81 9732

exp_avg_sq f4 [128, 120]
0.0 0.0 3.3856357e-10 3.6576608e-10 0.0 0.0 2.629716e-10 3.2140451e-10
0.0 0.0 3.5829553e-10 3.6176034e-10 0.0 0.0 3.6581546e-10 3.768689e-10
0.0 0.0 3.6581546e-10 3.768689e-10 9.333913e-10 9.265462e-10 0.0 7.0540623e-10
2.2255888e-09 0.0 0.0 0.0 0.0 0.0 0.0 0.0
0.0 0.0 0.0 0.0 0.0 0.0 0.0 0.0
0.0 0.0 0.0 0.0 0.0 0.0 0.0 0.0
0.0 0.0 0.0 0.0 0.0 0.0 0.0 0.0
0.0 0.0 0.0 0.0 0.0 0.0 0.0 0.0
0.0 0.0 0.0 0.0 0.0 0.0 0.0 0.0
0.0 0.0 0.0 0.0 0.0 0.0 0.0 0.0
0.0 0.0 0.0 0.0 0.0 0.0 0.0 0.0
0.0 0.0 0.0 0.0 0.0 0.0 0.0 0.0
0.0 0.0 0.0 0.0 0.0 0.0 0.0 0.0
0.0 0.0 0.0 0.0 0.0 0.0 0.0 0.0
0.0 0.0 0.0 0.0 0.0 0.0 0.0 0.0
0.0 0.0 1.4527484e-09 1.6496949e-09 0.0 0.0 1.8216958e-09 1.7481676e-09
0.0 0.0 1.5433372e-09 1.5807478e-09 0.0 0.0 1.7620804e-09 1.7388916e-09
0.0 0.0 1.7620804e-09 1.7388916e-09 1.3667433e-08 4.140021e-09 0.0 5.5803016e-09
9.879721e-09 0.0 0.0 0.0 0.0 0.0 0.0 0.0
0.0 0.0 0.0 0.0 0.0 0.0 0.0 0.0
0.0 0.0 0.0 0.0 0.0 0.0 0.0 0.0
0.0 0.0 0.0 0.0 0.0 0.0 0.0 0.0
0.0 0.0 0.0 0.0 0.0 0.0 0.0 0.0
0.0 0.0 0.0 0.0 0.0 0.0 0.0 0.0
0.0 0.0 0.0 0.0 0.0 0.0 0.0 0.0
0.0 0.0 0.0 0.0 0.0 0.0 0.0 0.0
0.0 0.0 0.0 0.0 0.0 0.0 0.0 0.0
0.0 0.0 0.0 0.0 0.0 0.0 0.0 0.0
0.0 0.0 0.0 0.0 0.0 0.0 0.0 0.0
0.0 0.0 0.0 0.0 0.0 0.0 0.0 0.0
0.0 0.0 4.6081544e-10 5.157245e-10 0.0 0.0 4.4118387e-10 4.9440235e-10
0.0 0.0 5.340675e-10 5.528024e-10 0.0 0.0 5.413851e-10 5.353065e-10
00000000: 0000 0000 0000 0000 9620 ba2f 0015 c92f
00000010: 0000 0000 0000 0000 f691 902f aab1 b02f
00000020: 0000 0000 0000 0000 9df9 c42f 3ee1 c62f
00000030: 0000 0000 0000 0000 f31b c92f 952f cf2f
00000040: 0000 0000 0000 0000 f31b c92f 952f cf2f
00000050: c948 8030 e4af 7e30 0000 0000 8de6 4130
00000060: f9f0 1831 0000 0000 0000 0000 0000 0000
00000070: 0000 0000 0000 0000 0000 0000 0000 0000
00000080: 0000 0000 0000 0000 0000 0000 0000 0000
00000090: 0000 0000 0000 0000 0000 0000 0000 0000
000000a0: 0000 0000 0000 0000 0000 0000 0000 0000
000000b0: 0000 0000 0000 0000 0000 0000 0000 0000
000000c0: 0000 0000 0000 0000 0000 0000 0000 0000
000000d0: 0000 0000 0000 0000 0000 0000 0000 0000
000000e0: 0000 0000 0000 0000 0000 0000 0000 0000
000000f0: 0000 0000 0000 0000 0000 0000 0000 0000
00000100: 0000 0000 0000 0000 0000 0000 0000 0000
00000110: 0000 0000 0000 0000 0000 0000 0000 0000
00000120: 0000 0000 0000 0000 0000 0000 0000 0000
00000130: 0000 0000 0000 0000 0000 0000 0000 0000
00000140: 0000 0000 0000 0000 0000 0000 0000 0000
00000150: 0000 0000 0000 0000 0000 0000 0000 0000
00000160: 0000 0000 0000 0000 0000 0000 0000 0000
00000170: 0000 0000 0000 0000 0000 0000 0000 0000
00000180: 0000 0000 0000 0000 0000 0000 0000 0000
00000190: 0000 0000 0000 0000 0000 0000 0000 0000
000001a0: 0000 0000 0000 0000 0000 0000 0000 0000
000001b0: 0000 0000 0000 0000 0000 0000 0000 0000
000001c0: 0000 0000 0000 0000 0000 0000 0000 0000
000001d0: 0000 0000 0000 0000 0000 0000 0000 0000
000001e0: 0000 0000 0000 0000 0aaa c730 7bbb e230
000001f0: 0000 0000 0000 0000 395f fa30 2e44 f030
00000200: 0000 0000 0000 0000 5a1d d430 9e41 d930
00000210: 0000 0000 0000 0000 b12d f230 cffd ee30
00000220: 0000 0000 0000 0000 b12d f230 cffd ee30
00000230: 02ce 6a32 0340 8e31 0000 0000 dabc bf31
00000240: 79bb 2932 0000 0000 0000 0000 0000 0000
00000250: 0000 0000 0000 0000 0000 0000 0000 0000
00000260: 0000 0000 0000 0000 0000 0000 0000 0000
00000270: 0000 0000 0000 0000 0000 0000 0000 0000
00000280: 0000 0000 0000 0000 0000 0000 0000 0000
00000290: 0000 0000 0000 0000 0000 0000 0000 0000
000002a0: 0000 0000 0000 0000 0000 0000 0000 0000
000002b0: 0000 0000 0000 0000 0000 0000 0000 0000
000002c0: 0000 0000 0000 0000 0000 0000 0000 0000
000002d0: 0000 0000 0000 0000 0000 0000 0000 0000
000002e0: 0000 0000 0000 0000 0000 0000 0000 0000
000002f0: 0000 0000 0000 0000 0000 0000 0000 0000
00000300: 0000 0000 0000 0000 0000 0000 0000 0000
00000310: 0000 0000 0000 0000 0000 0000 0000 0000
00000320: 0000 0000 0000 0000 0000 0000 0000 0000
00000330: 0000 0000 0000 0000 0000 0000 0000 0000
00000340: 0000 0000 0000 0000 0000 0000 0000 0000
00000350: 0000 0000 0000 0000 0000 0000 0000 0000
00000360: 0000 0000 0000 0000 0000 0000 0000 0000
00000370: 0000 0000 0000 0000 0000 0000 0000 0000
00000380: 0000 0000 0000 0000 0000 0000 0000 0000
00000390: 0000 0000 0000 0000 0000 0000 0000 0000
000003a0: 0000 0000 0000 0000 0000 0000 0000 0000
000003b0: 0000 0000 0000 0000 0000 0000 0000 0000
000003c0: 0000 0000 0000 0000 0256 fd2f e3c2 0d30
000003d0: 0000 0000 0000 0000 1c8b f22f 79e6 0730
000003e0: 0000 0000 0000 0000 a9cd 1230 03f4 1730
000003f0: 0000 0000 0000 0000 97d0 1430 d924 1330

exp_avg f4 [128]
2.1638577e-06 -7.203905e-06 -1.4490414e-06 9.774223e-08 -2.9120565e-05 -1.4140095e-05 3.373885e-05 -2.733484e-05
-1.0273787e-05 9.984459e-06 -1.5795005e-05 1.4498362e-05 -3.6531314e-05 -3.766484e-05 2.9205114e-05 -2.5691184e-05
-8.443899e-06 3.449055e-05 -1.6412256e-05 -1.3408646e-05 4.322832e-06 -2.1127738e-05 1.3199374e-05 -7.6579745e-06
-1.0719366e-06 -1.6155638e-05 3.405088e-05 4.0986265e-06 9.5052135e-09 -9.02303e-06 -2.8653683e-05 -7.613788e-06
1.3648638e-06 -1.979039e-07 -8.76322e-07 4.1993662e-06 9.888027e-06 8.099994e-06 2.6995182e-05 1.5696976e-05
-1.0002025e-06 2.055376e-05 2.2311231e-05 -7.3185724e-06 -9.642293e-06 -1.7321807e-05 2.1021347e-05 9.6167405e-06
7.765252e-06 -8.599544e-06 3.4202712e-06 6.869222e-06 1.278599e-06 1.250267e-05 -2.9365076e-05 -3.7465692e-05
-2.0195563e-05 -1.1262673e-05 -1.2080485e-05 -9.078662e-06 -3.32317e-05 -3.9633804e-05 -7.869744e-07 -1.2403817e-05
-8.929496e-06 -1.2547061e-05 3.4219843e-06 2.5015333e-07 -2.3307703e-05 -2.1743821e-05 1.5599708e-05 4.3143036e-06
-1.9801368e-05 -1.0239693e-05 -2.4912075e-05 -9.587389e-06 -2.419718e-05 2.2354156e-05 -4.525811e-05 1.0298247e-05
3.5949636e-06 1.9872983e-05 1.0520376e-05 -6.2305726e-06 -1.9757974e-05 -2.085924e-05 1.7721843e-05 -3.557808e-05
-1.3755466e-05 1.8033797e-05 -1.210783e-05 -1.9400783e-05 -1.0012369e-06 -1.5116136e-05 -8.0075756e-07 -3.5817076e-05
-1.0571919e-05 1.8194954e-05 5.4849493e-06 9.906769e-06 3.8160624e-06 3.9707138e-05 -2.3986202e-05 -1.3262789e-05
-1.3318718e-05 -1.5900901e-05 -4.9490677e-06 -8.796636e-06 -8.272025e-06 -6.104636e-07 1.1997664e-06 -5.0217004e-05
4.445524e-06 -1.8849763e-05 -1.0285654e-05 2.5151572e-05 -6.7628416e-06 -2.594078e-06 -1.317609e-05 -1.727341e-05
-8.735275e-06 9.642504e-06 1.3766139e-06 2.7322088e-05 -6.3499283e-07 -1.0770451e-06 -1.0408217e-05 -6.4930477e-06
00000000: cb36 1136 13b9 f1b6 af7c c2b5 5ce6 d133
00000010: f047 f4b7 3f3b 6db7 d082 0d38 1f4d e5b7
00000020: 945d 2cb7 ed82 2737 847f 84b7 fe3d 7337
00000030: 3339 19b8 50fa 1db8 81fd f437 6683 d7b7
00000040: 45aa 0db7 f2a9 1038 0dad 89b7 b2f5 60b7
00000050: d80c 9136 793b b1b7 e172 5d37 c07a 00b7
00000060: 76df 8fb5 f885 87b7 dbd1 0e38 ef86 8936
00000070: 5f4c 2332 9e61 17b7 515d f0b7 f179 ffb6
00000080: 5d30 b735 697f 54b4 643c 6bb5 48e8 8c36
00000090: c1e4 2537 36e5 0737 b673 e237 00ad 8337
000000a0: b23e 86b5 dd6a ac37 0129 bb37 0f92 f5b6
000000b0: 55c5 21b7 4c4e 91b7 0057 b037 9657 2137
000000c0: 8147 0237 c346 10b7 d087 6536 2b7e e636
000000d0: 549c ab35 8fc2 5137 0555 f6b7 7b24 1db8
000000e0: a469 a9b7 d0f4 3cb7 4aad 4ab7 8e50 18b7
000000f0: 4462 0bb8 793c 26b8 7840 53b5 fd19 50b7
00000100: e5cf 15b7 3781 52b7 3ea5 6536 d04c 8634
00000110: e984 c3b7 8066 b6b7 1edc 8237 96c3 9036
00000120: 1d1b a6b7 26cb 2bb7 46fa d0b7 86d9 20b7
00000130: 0cfb cab7 2f85 bb37 87d3 3db8 a2c6 2c37
00000140: 0141 7136 e8b4 a637 ac80 3037 3610 d1b6
00000150: edbd a5b7 e0fa aeb7 5ea9 9437 ac39 15b8
00000160: 47c7 66b7 4947 9737 bc22 4bb7 ddbe a2b7
00000170: 3d62 86b5 4f9b 7db7 a4f3 56b5 4b3a 16b8
00000180: 0c5e 31b7 5ea1 9837 5b0b b836 4035 2637
00000190: ba0b 8036 378b 2638 fa35 c9b7 3f83 5eb7
000001a0: 7573 5fb7 ed62 85b7 2b10 a6b6 4495 13b7
000001b0: 14c8 0ab7 bdde 23b5 a907 a135 19a0 52b8
000001c0: c32a 9536 8f1f 9eb7 8c90 2cb7 97fc d237
000001d0: 5eec e2b6 ec15 2eb6 e00e 5db7 5ee6 90b7
000001e0: b88d 12b7 3dc6 2137 18c4 b835 bd31 e537
000001f0: 6074 2ab5 fd8e 90b5 f49e 2eb7 dbde d9b6

exp_avg_sq f4 [128]
3.9150763e-10 1.7785757e-09 5.5551913e-10 2.5828656e-10 2.4732434e-09 1.0652909e-09 2.4336497e-09 2.3992324e-09
8.118839e-10 6.341757e-09 3.3956602e-09 2.1837814e-09 7.669849e-10 5.512971e-09 6.6424786e-09 4.6379978e-10
1.592559e-09 1.7038003e-09 2.264601e-09 9.742085e-10 1.8350714e-10 4.3781534e-09 6.6326344e-10 2.162593e-09
3.981829e-09 2.3306268e-10 1.9197066e-09 1.0881098e-09 7.757668e-10 1.8292041e-09 2.4791726e-09 5.1176946e-10
1.0166684e-09 8.353929e-10 3.1331364e-09 7.6183837e-10 1.4178778e-09 4.7497783e-10 1.7644386e-09 1.4038152e-09
1.5420765e-10 1.5018352e-09 1.6206176e-09 1.2723936e-10 5.9386746e-10 2.5430054e-09 3.0361482e-09 8.562624e-10
9.397721e-10 4.283305e-10 1.0589535e-09 3.702938e-10 5.2911977e-11 6.6941036e-10 5.673603e-09 1.8509163e-09
1.0545749e-09 5.5241794e-10 3.227112e-10 3.7013224e-09 3.48462e-09 1.8455331e-09 6.830603e-09 3.3538068e-09
1.2035902e-09 1.0981078e-09 4.5647605e-10 2.1799489e-09 8.503309e-10 2.9172367e-09 2.1168196e-09 7.0876705e-10
4.1565826e-09 1.3588635e-09 8.2598733e-10 1.77787e-09 2.4372813e-09 7.502689e-10 3.1096858e-09 2.8422323e-10
1.8690822e-09 8.585597e-10 8.197804e-10 1.7107981e-09 5.639104e-09 1.6302985e-09 1.226618e-09 1.1225478e-09
2.9538683e-09 9.375194e-10 1.9730806e-09 2.0146471e-09 3.9412096e-10 8.451026e-10 1.6703207e-09 2.2318525e-09
3.187794e-10 3.1111713e-09 4.973421e-10 1.0950051e-09 4.3694892e-10 2.3781515e-09 2.6227682e-09 9.481996e-10
3.6495862e-09 1.0185383e-09 4.1769868e-10 2.304263e-10 1.6735036e-09 1.1172295e-09 3.526476e-10 5.888758e-09
8.9034374e-10 6.7516515e-10 2.1367934e-09 1.6160254e-09 3.2633812e-10 3.5055283e-09 8.406709e-10 2.7058145e-10
6.6001125e-09 1.703768e-09 5.445285e-09 1.4830593e-09 5.0317256e-10 2.9340352e-10 5.034651e-10 3.38891e-10
00000000: cd3b d72f 1272 f430 2fb3 1830 9afe 8d2f
00000010: c2f5 2931 9769 9230 383d 2731 bedf 2431
00000020: 402b 5f30 afe6 d931 1659 6931 7d11 1631
00000030: c4d3 5230 9b6c bd31 dc3b e431 04fa fe2f
00000040: 30e1 da30 252b ea30 489f 1b31 eae4 8530
00000050: abc4 492f a56e 9631 0451 3630 bd9c 1431
00000060: 8ad0 8831 a820 802f d6eb 0331 768c 9530
00000070: bc3d 5530 6667 fb30 115e 2a31 93ac 0c30
00000080: d7ba 8b30 8da1 6530 b84e 5731 9c69 5130
00000090: 24df c230 988f 0230 aa80 f230 5bf0 c030
000000a0: 988d 292f 2169 ce30 6abc de30 b2e6 0b2f
000000b0: b53d 2330 06c1 2e31 7ca4 5031 1c5e 6b30
000000c0: 4b29 8130 297a eb2f 9d8a 9130 3892 cb2f
000000d0: 97b5 682e 9101 3830 8af1 c231 5463 fe30
000000e0: 8ef0 9030 f5d8 1730 9069 b12f 5a5a 7e31
000000f0: 1576 6f31 eca5 fd30 9fb2 ea31 cb78 6631
00000100: 916b a530 3cec 9630 4bf3 fa2f 11ce 1531
00000110: b8bc 6930 9278 4831 7c77 1131 0cd3 4230
00000120: b0d1 8e31 c2c2 ba30 b10b 6330 3d59 f430
00000130: 1b7d 2731 7b3b 4e30 2cb2 5531 dd40 9c2f
00000140: 3e71 0031 c5ff 6b30 eb56 6130 5b21 eb30
00000150: 15c2 c131 0711 e030 c995 a830 2448 9a30
00000160: 00fd 4a31 08da 8030 cd96 0731 0c72 0a31
00000170: 98ab d82f cf4c 6830 2f91 e530 2a5f 1931
00000180: 3640 af2f 4ecc 5531 57b5 0830 117f 9630
00000190: 1837 f02f e26c 2331 3a3c 3431 cf51 8230
000001a0: 33cc 7a31 a1fc 8b30 dda1 e52f 3d5b 7d2f
000001b0: 2c01 e630 058d 9930 bdde c12f 1056 ca31
000001c0: 5fbc 7430 8696 3930 ded6 1231 d71a de30
000001d0: 0268 b32f e8e5 7031 f514 6730 f4c0 942f
000001e0: 34c7 e231 022a ea30 3c19 bb31 83d4 cb30
000001f0: 9f4f 0a30 e04c a12f 3564 0a30 ab4e ba2f

exp_avg f4 [128, 128]
-5.198997e-07 1.4345018e-07 -1.9270485e-06 -1.9292608e-07 -8.9475805e-07 -3.553276e-06 2.3220904e-08 6.643752e-06
3.8967987e-06 2.401775e-06 2.387616e-06 -3.5826647e-06 1.4844198e-06 -1.0211435e-05 -1.582994e-05 -4.8187717e-06
-1.8129099e-06 -2.4598583e-06 -3.7037512e-06 -7.2999333e-06 -1.0673896e-06 -2.689347e-07 4.9793916e-06 1.0271408e-06
-6.197737e-06 1.0017709e-06 -3.4135219e-06 -5.9769827e-06 1.2768255e-06 -3.3234423e-06 -1.3918642e-05 1.1340352e-06
-5.642574e-06 3.372432e-06 -1.0460791e-05 -2.567407e-06 -5.9225326e-06 -9.055483e-06 -5.124544e-06 -7.5805583e-06
-2.2847976e-06 -3.078964e-06 -6.980006e-06 -3.765251e-07 1.4034442e-06 -5.8905057e-06 -4.0282466e-06 8.7909604e-07
3.6260246e-07 -1.2431972e-06 -2.6460712e-06 3.9441675e-06 5.8314066e-07 6.6920115e-06 6.306844e-06 -3.3722438e-07
2.9362147e-06 1.894885e-06 -9.764698e-07 4.1028834e-06 -5.232108e-06 1.16249396e-07 -9.3671015e-06 -1.1022819e-05
-3.8047388e-06 -6.032975e-06 -1.678071e-06 2.1148905e-06 -6.9995176e-06 -4.739971e-06 5.1487217e-07 6.230244e-06
1.5548438e-05 -3.2440475e-06 1.411045e-06 5.58059e-06 1.7696935e-06 -1.1669946e-05 5.0839976e-06 -5.685399e-06
-4.922546e-06 -1.5961007e-06 -6.3004695e-06 8.2915534e-07 1.4291235e-05 1.1075788e-06 -2.0518702e-07 -9.854238e-07
-1.157594e-05 -1.0620716e-06 6.126288e-06 -1.7123715e-06 2.5053653e-06 -1.9305182e-06 3.3063063e-06 6.6438406e-07
3.3119645e-06 -9.2654477e-07 -1.0622311e-05 4.437425e-06 2.0412158e-06 5.4194356e-06 6.4464152e-06 -3.9503215e-07
6.3084167e-06 6.6267207e-06 -1.5326223e-06 1.3985133e-06 -1.3754366e-06 -9.125889e-06 -3.4502023e-06 1.13329315e-05
-3.0881888e-06 5.5533707e-07 -3.7013476e-06 -3.4755392e-06 2.4609865e-06 6.568115e-06 -1.279272e-06 8.944096e-07
-5.635492e-06 -9.793134e-07 -5.0097315e-06 -2.4045814e-06 8.976997e-06 -1.8247816e-06 -2.1791436e-06 9.589281e-07
-6.838475e-06 -3.5313517e-06 -1.2620093e-05 1.9263882e-06 -4.47086e-06 -1.0090843e-05 4.773822e-07 -3.0689187e-06
1.0040697e-05 1.7504217e-06 -1.3784752e-06 -2.8233915e-05 1.6958073e-05 -3.8426733e-05 -1.8400531e-05 8.097322e-06
7.244141e-06 -9.938673e-07 -2.6605188e-05 -2.5480953e-05 6.030468e-07 9.778489e-07 -9.292044e-06 1.1160114e-06
-1.46146085e-05 1.0096573e-05 -6.3113057e-06 -2.5173604e-05 -3.162324e-06 -1.1169519e-05 -5.251496e-05 -8.162943e-06
-3.6812098e-06 -4.2366264e-06 -2.8642688e-05 -6.8772606e-06 -2.4740375e-05 -2.3573697e-05 5.243074e-06 -8.159728e-06
-4.6212236e-07 -1.9550076e-05 -1.21894955e-05 1.2204515e-05 3.942245e-06 -1.5072492e-05 -1.6209018e-05 6.1145383e-06
2.0811959e-07 -8.430095e-06 3.0302642e-06 2.108046e-05 9.522728e-06 -6.0809175e-06 2.48087e-05 9.593717e-06
1.2076528e-05 5.9778868e-06 1.5886606e-05 -3.3608371e-06 -1.9218962e-05 1.6765463e-05 -3.223522e-05 -4.4881563e-05
-9.300293e-06 -2.2851307e-05 -1.0360015e-06 3.5214537e-06 -1.2750174e-05 -1.427967e-05 1.3410929e-06 -7.859029e-07
2.3116509e-05 2.4902363e-06 -3.3455674e-06 1.5898453e-05 1.162708e-05 -2.0185767e-05 2.4055455e-05 1.2774356e-06
-5.02986e-06 1.3150252e-05 -1.2174318e-05 -3.891735e-06 1.3620456e-05 1.3838296e-06 2.552193e-06 8.8735815e-06
-3.109387e-05 4.0512384e-07 2.1039821e-05 2.2635927e-06 1.6018526e-05 1.43157995e-05 9.59851e-06 1.2284766e-05
9.704718e-06 -2.1160737e-05 -2.759119e-06 8.763355e-06 4.990803e-06 -4.255708e-05 7.061848e-06 -3.4689315e-06
1.5661488e-05 1.4510848e-05 1.0784431e-05 1.7304068e-05 -2.2781029e-05 -2.3827772e-05 1.09747205e-07 3.7201386e-05
-9.879983e-06 7.1253203e-06 -2.0409649e-05 -1.559609e-05 -4.8870356e-06 2.136939e-05 9.020261e-06 6.8362347e-06
-3.701241e-05 -2.486394e-05 -2.9813495e-05 -1.0251529e-05 1.0585689e-07 -1.824869e-05 -3.5606664e-07 1.0487673e-05
00000000: 3c8f 0bb5 4907 1a34 7152 01b6 1e27 4fb4
00000010: 4e2f 70b5 d174 6eb6 4f77 c732 65ed de36
00000020: 3fc1 8236 2e2e 2136 ee3a 2036 b66d 70b6
00000030: 473c c735 c851 2bb7 8aca 84b7 efb0 a1b6
00000040: 1c53 f3b5 0b14 25b6 f68d 78b6 f3f1 f4b6
00000050: 3a43 8fb5 1b62 90b4 a614 a736 4adc 8935
00000060: 28f6 cfb6 9674 8635 dc13 65b6 e48d c8b6
00000070: 645f ab35 4e08 5fb6 1d84 69b7 2735 9835
00000080: 5755 bdb6 f151 6236 c180 2fb7 b74b 2cb6
00000090: 2bba c6b6 01ed 17b7 7ff3 abb6 805c feb6
000000a0: 8654 19b6 33a0 4eb6 cc35 eab6 3725 cab4
000000b0: fa5d bc35 0fa7 c5b6 602a 87b6 05fb 6b35
000000c0: b4ab c234 eedb a6b5 2893 31b6 2458 8436
000000d0: 1f89 1c35 f18b e036 619f d336 c40b b5b4
000000e0: c90b 4536 c153 fe35 3f0f 83b5 80ab 8936
000000f0: 778f afb6 c8a4 f933 6527 1db7 a6ee 38b7
00000100: ea54 7fb6 dc6e cab6 153a e1b5 8bed 0d36
00000110: 66dd eab6 0a0c 9fb6 bf35 0a35 630d d136
00000120: 046e 8237 50b4 59b6 2363 bd35 e740 bb36
00000130: 3586 ed35 09ca 43b7 3597 aa36 35c5 beb6
00000140: 592c a5b6 9a39 d6b5 9f68 d3b6 1f93 5e35
00000150: 63c4 6f37 1ea8 9435 6151 5cb4 e742 84b5
00000160: 4936 42b7 818c 8eb5 6a90 cd36 a3d4 e5b5
00000170: d921 2836 0d8e 01b6 e9e1 5d36 2058 3235
00000180: 1e43 5e36 acb7 78b5 7a36 32b7 31e5 9436
00000190: d2fb 0836 99d8 b536 494e d836 ce14 d4b4
000001a0: e3ac d336 195b de36 80b4 cdb5 8db4 bb35
000001b0: a49b b8b5 651b 19b7 068a 67b6 9222 3e37
000001c0: ae3e 4fb6 7912 1535 ab64 78b6 4f3d 69b6
000001d0: 6d27 2536 ae63 dc36 74b3 abb5 5c17 7035
000001e0: 8218 bdb6 f470 83b5 4419 a8b6 655e 21b6
000001f0: e99b 1637 05eb f4b5 673d 12b6 85b4 8035
00000200: 0e76 e5b6 29fc 6cb6 e3ba 53b7 1947 0136
00000210: 6504 96b6 d74b 29b7 7425 0035 9ff3 4db6
00000220: 7774 2837 08f0 ea35 0c04 b9b5 dfd7 ecb7
00000230: 2f41 8e37 642c 21b8 d75a 9ab7 bcd9 0737
00000240: b312 f336 0565 85b5 352e dfb7 eebf d5b7
00000250: 0fe1 2135 a23e 8335 06e5 1bb7 dcc9 9535
00000260: 4431 75b7 7364 2937 b4c5 d3b6 e72b d3b7
00000270: 5038 54b6 b864 3bb7 8243 5cb8 93f3 08b7
00000280: b40a 77b6 5828 8eb6 b445 f0b7 38c3 e6b6
00000290: 8d89 cfb7 21c0 c5b7 aaed af36 c4e5 08b7
000002a0: 9d19 f8b4 78ff a3b7 7c81 4cb7 fec1 4c37
000002b0: a047 8436 dcdf 7cb7 9af8 87b7 7c2b cd36
000002c0: 7a77 5f34 fb6e 0db7 8b5b 4b36 f1d5 b037
000002d0: cec3 1f37 af0a ccb6 471c d037 b3f4 2037
000002e0: 4b9c 4a37 a895 c836 3a44 8537 be8a 61b6
000002f0: 6838 a1b7 8fa3 8c37 4e34 07b8 363f 3cb8
00000300: 7408 1cb7 cfb0 bfb7 be0c 8bb5 1d52 6c36
00000310: 95e9 55b7 b792 6fb7 9aff b335 d6f6 52b5
00000320: 53ea c137 ef1d 2736 6984 60b6 ab5d 8537
00000330: ee11 4337 9b54 a9b7 b2ca c937 5a74 ab35
00000340: 2bc6 a8b6 e79f 5c37 4c40 4cb7 c095 82b6
00000350: 6a83 6437 06bc b935 5846 2b36 bedf 1437
00000360: ca6a 02b8 cc7f d934 ac7e b037 3ae8 1736
00000370: 865f 8637 e42d 7037 4909 2137 ab1a 4e37
00000380: 72d1 2237 5682 b1b7 4e29 39b6 5306 1337
00000390: ac76 a736 517f 32b8 d0f4 ec36 cacb 68b6
000003a0: ca60 8337 9e73 7337 c7ee 3437 3428 9137
000003b0: e319 bfb7 c0e1 c7b7 2aae eb33 af08 1c38
000003c0: 34c2 25b7 0916 ef36 6335 abb7 59d4 82b7
000003d0: 51fb a3b6 6a42 b337 ba55 1737 cf62 e536
000003e0: c63d 1bb8 e892 d0b7 fe17 fab7 fbfd 2bb7
000003f0: 7153 e333 c314 99b7 6d29 bfb4 36f4 2f37
