results/FoodTarget_imitation_5/AgentPlayer/AgentPlayer-9864.onnx (onnx, 132428 bytes, 7 tensors)

action_model._continuous_distribution.log_sigma f4 [1, 5]
0.0 0.0 0.0 0.0 0.0
00000000: 0000 0000 0000 0000 0000 0000 0000 0000
00000010: 0000 0000

action_model._continuous_distribution.mu.bias f4 [5]
0.0 0.0 0.0 0.0 0.0
00000000: 0000 0000 0000 0000 0000 0000 0000 0000
00000010: 0000 0000

action_model._continuous_distribution.mu.weight f4 [5, 128]
0.00035816754 0.014694472 -0.0072790654 0.008657 -0.003942479 0.012955293 0.00037429345 -0.03728253
-0.028886354 0.0036014013 -0.012588118 0.020609736 0.010677228 0.0215897 -0.0041490314 0.01313179
0.009644038 0.0059659444 0.0077312523 0.008364207 -0.008053527 0.019484816 -0.022563104 0.020210916
0.00052369427 -0.030426262 0.05015719 -0.010646491 -0.011807258 0.014873276 -0.010164186 0.011543257
-0.018641938 0.013633221 -0.011213056 0.021915091 0.02135555 -0.018808821 -0.025390003 -0.024210747
-0.021203378 0.01539877 0.010986382 -0.0021346803 0.005546693 0.016619202 0.030472143 -0.030454118
-0.0048613106 0.0046732905 0.00865383 -0.0049829106 0.02659118 -0.038981806 -0.003836387 0.0052347914
0.0009144772 -0.0022043672 0.032944337 0.032474723 0.019522792 0.007442426 0.02921095 0.005765323
-0.029787665 -0.011819035 0.028129492 -0.049264178 -0.020748505 0.0011908086 0.0068282536 -0.0141192
-0.032424647 0.0034036038 0.008326816 0.02044989 -0.03243231 -0.009068965 0.0050011314 0.025445346
-0.020895882 0.0115154255 0.007001585 0.017721836 -0.0055408897 -0.024379404 -0.01636529 0.008773818
0.0028563212 -0.016274786 0.016068783 -0.021338945 0.01893125 -0.018542727 -0.016311036 -0.011869064
-0.019662628 0.005169584 -0.011027518 -0.0003718569 -0.0057893386 0.004067728 -0.023758952 -0.037485026
0.024713067 0.03908832 0.005201193 0.023692813 0.00094710494 0.0008131833 0.019093657 -0.012169472
-0.0005966517 0.009080958 0.010181619 -0.011736768 -0.0005219767 0.015041602 -0.006072054 0.03583536
-0.018092085 -0.032886498 0.0002985047 -0.019929953 -0.030963058 -0.012641481 -0.0023463776 -0.023858434
0.0013785529 0.016116925 -0.008512038 0.007861397 -0.017955188 0.008027813 0.014743501 0.0008620183
-0.014111479 -0.0073281894 0.014684009 -0.010180268 -0.025028689 0.027851189 0.015703361 -0.012954252
-0.035618655 -0.0098000895 -0.00029328407 0.0024175674 0.0007994456 -0.03164111 -0.0024130838 -0.029863346
-0.015266374 -0.026129365 0.014683927 0.000727019 0.0119642215 0.015636995 0.013956978 -0.05563707
0.032258354 0.03267647 -0.008117203 -0.010426426 -0.00910211 0.0145652685 -0.015417503 0.03545756
-0.016193567 -0.037443962 -0.021668939 0.024200281 -0.0003106423 -0.012549114 -0.015721133 -0.033478376
-0.009219834 0.01059094 -0.00062612037 0.028527666 -0.0013976658 0.022841416 -0.0013589514 -0.023460584
0.008220098 0.01318405 0.0029517545 0.019246183 -0.00689203 0.0051934677 0.0038800077 0.010622798
-0.008897472 -0.004143698 0.0045896578 0.005405349 0.05911198 0.0104757445 0.0101408465 -0.00878669
-0.010645619 -0.03421046 0.002925623 -0.0112016825 -0.032699358 -0.02914395 0.01881899 -0.008886206
0.01139799 -0.009637806 0.008937181 0.0019730367 -0.004946924 0.007945949 0.016066108 0.009854539
-0.0073139556 0.03013291 0.015956623 0.0125222225 -0.0124053005 0.008313417 -0.0033536188 -0.010448972
-0.048203997 0.009433079 0.01090699 0.02902259 -0.029738626 0.034219217 -0.0025701406 0.012535902
0.009737279 -0.0044160853 0.012672047 -0.0077156546 0.0021593971 -0.009111712 0.0006314671 -0.015725654
-0.021688016 -0.0035615803 -0.009832377 -0.048206177 0.006174061 0.010528072 -0.009123778 -0.0016632483
-0.013131747 -0.013316191 0.011309015 0.019772379 -0.009537601 -0.012660004 -0.02009087 0.007899485
00000000: 6fc8 bb39 15c1 703c 3a85 eebb 17d6 0d3c
00000010: e92f 81bb 7042 543c d13c c439 91b5 18bd
00000020: 13a3 ecbc 7d05 6c3b 653e 4ebc c0d5 a83c
00000030: 8aef 2e3c e2dc b03c 99f4 87bb b826 573c
00000040: 0702 1e3c f87d c33b 7256 fd3b 070a 093c
00000050: f1f2 03bc 9f9e 9f3c 42d6 b8bc 5d91 a53c
00000060: 8748 093a 7f40 f9bc a071 4d3d 9f6e 2ebc
00000070: 3b73 41bc 0baf 733c b087 26bc ee1f 3d3c
00000080: fab6 98bc e05d 5f3c f7b6 37bc 4787 b33c
00000090: d6f1 ae3c f514 9abc b2fe cfbc 9e55 c6bc
000000a0: b5b2 adbc 1f4b 7c3c 3a00 343c fee5 0bbb
000000b0: 09c1 b53b fe24 883c b7a0 f93c ea7a f9bc
000000c0: a14b 9fbb 6722 993b cbc8 0d3c af47 a3bb
000000d0: bfd5 d93c 63ab 1fbd e56b 7bbb 9d88 ab3b
000000e0: 87b9 6f3a 2577 10bb a4f0 063d 3704 053d
000000f0: 43ee 9f3c 98df f33b cd4b ef3c 09eb bc3b
00000100: 4305 f4bc a0a4 41bc d26f e63c 3cc9 49bd
00000110: c5f8 a9bc e814 9c3a 8bbf df3b 3854 67bc
00000120: b5cf 04bd ff0e 5f3b 336d 083c 8786 a73c
00000130: bed7 04bd ff95 14bc 88e0 a33b c272 d03c
00000140: d72d abbc 32ab 3c3c 8d6d e53b 622d 913c
00000150: 5a90 b5bb 51b7 c7bc 8010 86bc 0fc0 0f3c
00000160: 1e31 3b3b b352 85bc aea2 833c 03cf aebc
00000170: b515 9b3c ebe6 97bc b99e 85bc 7676 42bc
00000180: 8513 a1bc 9d65 a93b c3ac 34bc caf5 c2b9
00000190: 7eb4 bdbb 934a 853b 22a2 c2bc e689 19bd
000001a0: 0f73 ca3c 131b 203d c56e aa3b 6e17 c23c
000001b0: 2347 783a cf2b 553a 4d6a 9c3c 7762 47bc
000001c0: 9e68 1cba 4cc8 143c ced0 263c 934b 40bc
000001d0: 43d5 08ba 0d71 763c 15f8 c6bb 19c8 123d
000001e0: da35 94bc feb3 06bd 9f80 9c39 2444 a3bc
000001f0: 3da6 fdbc 371e 4fbc afc5 19bb c372 c3bc
00000200: 8fb0 b43a a407 843c 1376 0bbc 17cd 003c
00000210: c216 93bc 1787 033c ba8e 713c 12f9 613a
00000220: d533 67bc 4f21 f0bb 3395 703c 24cb 26bc
00000230: f708 cdbc 2d28 e43c 56a4 803c 123e 54bc
00000240: dee4 11bd 8e90 20bc ecc3 99b9 0d70 1e3b
00000250: e391 513a 1c9a 01bd d424 1ebb faa3 f4bc
00000260: d01f 7abc 400d d6bc db94 703c 6b95 3e3a
00000270: 9505 443c 2819 803c cfab 643c b2e3 63bd
00000280: 5621 043d c3d7 053d 04fe 04bc 9ad3 2abc
00000290: 0421 15bc 2aa3 6e3c b299 7cbc f23b 113d
000002a0: 5fa8 84bc d75e 19bd 0f83 b1bc ab3f c63c
000002b0: b4dd a2b9 cd9a 4dbc 9bc9 80bc 9f20 09bd
000002c0: c90e 17bc 9f85 2d3c 3a22 24ba dab2 e93c
000002d0: e231 b7ba ec1d bb3c d81e b2ba 6930 c0bc
000002e0: 97ad 063c ea01 583c 3972 413b 2caa 9d3c
000002f0: 8ad6 e1bb f72d aa3b ba47 7e3b 3f0b 2e3c
00000300: b4c6 11bc dcc7 87bb d764 963b 5b1f b13b
00000310: 671f 723d 75a2 2b3c cb25 263c 0df6 0fbc
00000320: f66a 2ebc 4420 0cbd cfbb 3f3b 4387 37bc
00000330: c3ef 05bd 4bbf eebc 482a 9a3c 7397 11bc
00000340: a3be 3a3c e3e7 1dbc 416d 123c 104e 013b
00000350: ce19 a2bb ba2f 023c 129d 833c ef74 213c
00000360: e8a9 efbb 4bd9 f63c 77b7 823c 022a 4d3c
00000370: 9a3f 4bbc 0035 083c 63c8 5bbb 2a32 2bbc
00000380: 8e71 45bd 338d 1a3c 3bb3 323c c8c0 ed3c
00000390: 6b9e f3bc 7329 0c3d ce6f 28bb 6263 4d3c
000003a0: 1c89 1f3c cfb4 90bb 6b9e 4f3c 9ad3 fcbb
000003b0: ac84 0d3b 4a49 15bc 0a89 253a 16d3 80bc
000003c0: 11ab b1bc 6769 69bb fa17 21bc d773 45bd
000003d0: c74f ca3b ef7d 2c3c e67b 15bc 5a01 daba
000003e0: 8a26 57bc 272c 5abc 7249 393c aff9 a13c
000003f0: 9943 1cbc e86b 4fbc 9c95 a4bc d76c 013c

network_body._body_endoder.seq_layers.0.bias f4 [128]
0.0 0.0 0.0 0.0 0.0 0.0 0.0 0.0
0.0 0.0 0.0 0.0 0.0 0.0 0.0 0.0
0.0 0.0 0.0 0.0 0.0 0.0 0.0 0.0
0.0 0.0 0.0 0.0 0.0 0.0 0.0 0.0
0.0 0.0 0.0 0.0 0.0 0.0 0.0 0.0
0.0 0.0 0.0 0.0 0.0 0.0 0.0 0.0
0.0 0.0 0.0 0.0 0.0 0.0 0.0 0.0
0.0 0.0 0.0 0.0 0.0 0.0 0.0 0.0
0.0 0.0 0.0 0.0 0.0 0.0 0.0 0.0
0.0 0.0 0.0 0.0 0.0 0.0 0.0 0.0
0.0 0.0 0.0 0.0 0.0 0.0 0.0 0.0
0.0 0.0 0.0 0.0 0.0 0.0 0.0 0.0
0.0 0.0 0.0 0.0 0.0 0.0 0.0 0.0
0.0 0.0 0.0 0.0 0.0 0.0 0.0 0.0
0.0 0.0 0.0 0.0 0.0 0.0 0.0 0.0
0.0 0.0 0.0 0.0 0.0 0.0 0.0 0.0
00000000: 0000 0000 0000 0000 0000 0000 0000 0000
00000010: 0000 0000 0000 0000 0000 0000 0000 0000
00000020: 0000 0000 0000 0000 0000 0000 0000 0000
00000030: 0000 0000 0000 0000 0000 0000 0000 0000
00000040: 0000 0000 0000 0000 0000 0000 0000 0000
00000050: 0000 0000 0000 0000 0000 0000 0000 0000
00000060: 0000 0000 0000 0000 0000 0000 0000 0000
00000070: 0000 0000 0000 0000 0000 0000 0000 0000
00000080: 0000 0000 0000 0000 0000 0000 0000 0000
00000090: 0000 0000 0000 0000 0000 0000 0000 0000
000000a0: 0000 0000 0000 0000 0000 0000 0000 0000
000000b0: 0000 0000 0000 0000 0000 0000 0000 0000
000000c0: 0000 0000 0000 0000 0000 0000 0000 0000
000000d0: 0000 0000 0000 0000 0000 0000 0000 0000
000000e0: 0000 0000 0000 0000 0000 0000 0000 0000
000000f0: 0000 0000 0000 0000 0000 0000 0000 0000
00000100: 0000 0000 0000 0000 0000 0000 0000 0000
00000110: 0000 0000 0000 0000 0000 0000 0000 0000
00000120: 0000 0000 0000 0000 0000 0000 0000 0000
00000130: 0000 0000 0000 0000 0000 0000 0000 0000
00000140: 0000 0000 0000 0000 0000 0000 0000 0000
00000150: 0000 0000 0000 0000 0000 0000 0000 0000
00000160: 0000 0000 0000 0000 0000 0000 0000 0000
00000170: 0000 0000 0000 0000 0000 0000 0000 0000
00000180: 0000 0000 0000 0000 0000 0000 0000 0000
00000190: 0000 0000 0000 0000 0000 0000 0000 0000
000001a0: 0000 0000 0000 0000 0000 0000 0000 0000
000001b0: 0000 0000 0000 0000 0000 0000 0000 0000
000001c0: 0000 0000 0000 0000 0000 0000 0000 0000
000001d0: 0000 0000 0000 0000 0000 0000 0000 0000
000001e0: 0000 0000 0000 0000 0000 0000 0000 0000
000001f0: 0000 0000 0000 0000 0000 0000 0000 0000

network_body._body_endoder.seq_layers.0.weight f4 [128, 120]
0.084629975 -0.13280426 -0.2302107 0.058162704 0.015684433 0.0056327246 0.03210424 -0.025851917
0.05514793 -0.11975025 0.045832697 0.001335811 -0.028287338 -0.055646807 0.05504286 -0.015781619
0.014838186 -0.014723094 -0.11087787 0.00789918 -0.07059807 -0.031611625 0.0016324433 0.08905577
-0.08273449 0.006193144 -0.021974066 -0.023311103 -0.14510836 0.054670356 0.12039802 -0.069329455
-0.0018889675 0.1191801 -0.01034756 -0.031328477 0.0076083834 0.004831111 0.017615546 -0.071537875
-0.03553234 -0.048151787 0.06267524 0.10020924 -0.20774527 0.02300264 -0.05668227 -0.040810525
-0.045761727 0.0991752 0.15814905 -0.096425764 -0.083259135 0.10843827 -0.0106252255 -0.03435984
-0.04146942 -0.080392696 0.027145103 0.026568033 -0.0027127438 -0.010574026 0.046360083 -0.061187442
0.079888955 -0.0084505 -0.013374637 0.21057446 0.008319118 -0.07607089 0.11984719 0.015163018
-0.111079276 0.1360986 0.014957229 -0.07259852 -0.046525918 0.13871333 0.021371959 -0.06864784
0.0039187367 -0.018254088 0.13481641 0.039038412 0.069451205 0.033470232 0.03686318 0.06231638
0.021035176 -0.047211584 0.08741489 -0.056197487 0.04939828 0.090033635 -0.08489908 0.05882954
0.26623562 0.0004137902 -0.08649503 0.03130101 -0.029663796 -0.06987489 0.07540849 0.05275518
0.057542533 0.089141056 -0.034943298 -0.15881702 0.13771807 0.26511633 0.042778216 -0.21615933
-0.020707048 0.004126395 -0.088479675 -0.08744456 0.014313506 -0.11177927 -0.013134083 0.0012732637
0.09935041 0.1258807 0.08578583 0.028729692 -0.05465599 0.08544347 -0.07337947 -0.14790095
-0.02072902 0.051360235 -0.031358108 0.054459948 -0.0768323 -0.11722518 0.04178684 -0.15085754
-0.011382987 -0.020653361 0.040678613 -0.06103804 -0.23241393 -0.08904468 0.11594051 -0.16645351
0.12651224 0.069237776 -0.10863608 -0.08626364 0.050814483 0.030958775 0.085266836 0.05593723
-0.08848136 -0.07418115 -0.06646815 0.03736214 -0.0051531536 0.07232908 -0.121302634 -0.056474075
0.00145859 0.07882885 -0.02466452 -0.020942276 0.129983 0.017040342 0.123397395 0.14330107
-0.14334367 0.062801 -0.037002295 0.05587442 -0.07099103 0.024409773 0.09397269 -0.07408754
0.059936818 -0.13627726 -0.05884783 0.286488 -0.003537502 0.18611869 -0.011918504 0.029421251
0.00019243997 -0.05269973 -0.021565529 0.08061163 -0.11777088 0.040952012 -0.111709066 -0.10080007
-0.029197847 0.012271162 0.057405047 -0.08629911 -0.053103685 0.14865752 -0.060985055 -0.117838174
0.018097604 -0.055268668 -0.10312354 -0.061920304 -0.118082315 -0.06450503 0.10267482 0.025932796
-0.025252538 -0.0746667 -0.034374475 -0.10080782 -0.040347025 0.06440512 0.12289052 0.05277816
-0.1678794 0.15914166 0.049026705 0.08343123 -0.06342215 -0.00092003576 0.081390984 0.23948586
-0.118726894 0.09485897 0.11435348 -0.071621604 -0.043254238 0.056467716 -0.0671038 -0.0952626
-0.05125103 0.04701846 0.012505561 0.030200904 0.058828488 0.014852696 0.024188986 0.1965522
-0.043069858 0.11006607 0.008820749 -0.27417567 -0.0065950053 -0.07616987 -0.07880933 -0.008023739
-0.08548832 -0.025906028 -0.052146364 0.06042953 -0.020941328 -0.023724541 0.06708303 0.042945348
00000000: 7b52 ad3d d7fd 07be 5bbc 6bbe 043c 6e3d
00000010: a47c 803c b892 b83b bc7f 033d 66c7 d3bc
00000020: cce2 613d 9e3f f5bd 11bb 3b3d 6116 af3a
00000030: d9ba e7bc e8ed 63bd 9f74 613d 7448 81bc
00000040: dd1b 733c 2239 71bc f013 e3bd 906b 013c
00000050: b995 90bd 317b 01bd b5f7 d53a df62 b63d
00000060: b370 a9bd dbef ca3b f502 b4bc edf6 bebc
00000070: 4997 14be 06ee 5f3d 3d93 f63d 9afc 8dbd
00000080: 3b97 f7ba b214 f43d d088 29bc 4a52 00bd
00000090: bf4f f93b 4c4e 9e3b 7a4e 903c 7382 92bd
000000a0: 5c8a 11bd cf3a 45bd e05b 803d 813a cd3d
000000b0: 2dbb 54be 0870 bc3c ab2b 68bd f028 27bd
000000c0: a670 3bbd 5e1c cb3d d3f1 213e df7a c5bd
000000d0: c483 aabd e214 de3d 6d15 2ebc e7bc 0cbd
000000e0: d7db 29bd eda4 a4bd 685f de3c 34a5 d93c
000000f0: 4ac8 31bb ae3e 2dbc 12e4 3d3d af9f 7abd
00000100: d29c a33d f773 0abc 4b21 5bbc d5a0 573e
00000110: e94c 083c 0ecb 9bbd 7272 f53d 4f6e 783c
00000120: 887d e3bd 6e5d 0b3e 2a0f 753c 88ae 94bd
00000130: f691 3ebd de0a 0e3e 3f14 af3c 3d97 8cbd
00000140: bf68 803b 9989 95bc 500d 0a3e bee6 1f3d
00000150: 6f3c 8e3d 1518 093d d9fd 163d 763f 7f3d
00000160: f651 ac3c ef60 41bd 9406 b33d 562f 66bd
00000170: da55 4a3d 8e63 b83d 92df adbd 3ef7 703d
00000180: 0950 883e fbf1 d839 4e24 b1bd 7d35 003d
00000190: 7d01 f3bc 911a 8fbd c46f 9a3d d115 583d
000001a0: b8b1 6b3d 968f b63d b420 0fbd eea0 22be
000001b0: f705 0d3e 54bd 873e 3638 2f3d df58 5dbe
000001c0: d4a1 a9bc b636 873b d534 b5bd 2216 b3bd
000001d0: 3283 6a3c 88ec e4bd 5630 57bc a4e3 a63a
000001e0: 3a78 cb3d dfe6 003e 7bb0 af3d 885a eb3c
000001f0: f6de 5fbd fcfc ae3d fa47 96bd 5973 17be
00000200: e8cf a9bc 1c5f 523d 5c71 00bd 6511 5f3d
00000210: 415a 9dbd c113 f0bd ad28 2b3d 667a 1abe
00000220: b57f 3abc 3d31 a9bc 9e9e 263d 0603 7abd
00000230: ebfd 6dbe 0f5d b6bd 3872 ed3d ca72 2abe
00000240: 6d8c 013e 89cc 8d3d 987c debd feaa b0bd
00000250: d922 503d 429d fd3c 61a0 ae3d 701e 653d
00000260: b735 b5bd 49ec 97bd 7420 88bd 0b09 193d
00000270: c9db a8bb 4521 943d 846d f8bd 5c51 67bd
00000280: 292e bf3a 0571 a13d 3f0d cabc 238f abbc
00000290: 431a 053e 3098 8b3c c6b7 fc3d 84bd 123e
000002a0: afc8 12be d09d 803d b88f 17bd 93dc 643d
000002b0: bf63 91bd 01f7 c73c c174 c03d 35bb 97bd
000002c0: 4f80 753d 448c 0bbe 6c0a 71bd 8eae 923e
000002d0: 6fd5 67bb e695 3e3e d445 43bc d604 f13c
000002e0: b6c9 4939 acdb 57bd 31aa b0bc b617 a53d
000002f0: dc31 f1bd 4cbd 273d b9c7 e4bd 4470 cebd
00000300: 5330 efbc fc0c 493c 8e21 6b3d 96bd b0bd
00000310: 4083 59bd ad39 183e 77cb 79bd 2455 f1bd
00000320: 6d41 943c 6661 62bd 6f32 d3bd 25a0 7dbd
00000330: 24d5 f1bd 371b 84bd 2d47 d23d 0471 d43c
00000340: 69de cebc dbea 98bd 40cc 0cbd 5574 cebd
00000350: ec42 25bd d5e6 833d 06ae fb3d e92d 583d
00000360: 94e8 2bbe 08f6 223e 3ad0 483d fedd aa3d
00000370: 79e3 81bd 8e2e 71ba 51b0 a63d c83b 753e
00000380: 1627 f3bd 6b45 c23d 2832 ea3d 59ae 92bd
00000390: 5b2b 31bd b14a 673d b86d 89bd 0a19 c3bd
000003a0: 9aec 51bd 6e96 403d 20e4 4c3c e367 f73c
000003b0: 24f6 703d b958 733c fb27 c63c fb44 493e
000003c0: 056a 30bd 526a e13d e784 103c c160 8cbe
000003d0: ea1a d8bb f3fe 9bbd c966 a1bd 0076 03bc
000003e0: 8014 afbd e138 d4bc 6d97 55bd f484 773d
000003f0: 268d abbc f859 c2bc d462 893d 76e7 2f3d

network_body._body_endoder.seq_layers.2.bias f4 [128]
0.0 0.0 0.0 0.0 0.0 0.0 0.0 0.0
0.0 0.0 0.0 0.0 0.0 0.0 0.0 0.0
0.0 0.0 0.0 0.0 0.0 0.0 0.0 0.0
0.0 0.0 0.0 0.0 0.0 0.0 0.0 0.0
0.0 0.0 0.0 0.0 0.0 0.0 0.0 0.0
0.0 0.0 0.0 0.0 0.0 0.0 0.0 0.0
0.0 0.0 0.0 0.0 0.0 0.0 0.0 0.0
0.0 0.0 0.0 0.0 0.0 0.0 0.0 0.0
0.0 0.0 0.0 0.0 0.0 0.0 0.0 0.0
0.0 0.0 0.0 0.0 0.0 0.0 0.0 0.0
0.0 0.0 0.0 0.0 0.0 0.0 0.0 0.0
0.0 0.0 0.0 0.0 0.0 0.0 0.0 0.0
0.0 0.0 0.0 0.0 0.0 0.0 0.0 0.0
0.0 0.0 0.0 0.0 0.0 0.0 0.0 0.0
0.0 0.0 0.0 0.0 0.0 0.0 0.0 0.0
0.0 0.0 0.0 0.0 0.0 0.0 0.0 0.0
00000000: 0000 0000 0000 0000 0000 0000 0000 0000
00000010: 0000 0000 0000 0000 0000 0000 0000 0000
00000020: 0000 0000 0000 0000 0000 0000 0000 0000
00000030: 0000 0000 0000 0000 0000 0000 0000 0000
00000040: 0000 0000 0000 0000 0000 0000 0000 0000
00000050: 0000 0000 0000 0000 0000 0000 0000 0000
00000060: 0000 0000 0000 0000 0000 0000 0000 0000
00000070: 0000 0000 0000 0000 0000 0000 0000 0000
00000080: 0000 0000 0000 0000 0000 0000 0000 0000
00000090: 0000 0000 0000 0000 0000 0000 0000 0000
000000a0: 0000 0000 0000 0000 0000 0000 0000 0000
000000b0: 0000 0000 0000 0000 0000 0000 0000 0000
000000c0: 0000 0000 0000 0000 0000 0000 0000 0000
000000d0: 0000 0000 0000 0000 0000 0000 0000 0000
000000e0: 0000 0000 0000 0000 0000 0000 0000 0000
000000f0: 0000 0000 0000 0000 0000 0000 0000 0000
00000100: 0000 0000 0000 0000 0000 0000 0000 0000
00000110: 0000 0000 0000 0000 0000 0000 0000 0000
00000120: 0000 0000 0000 0000 0000 0000 0000 0000
00000130: 0000 0000 0000 0000 0000 0000 0000 0000
00000140: 0000 0000 0000 0000 0000 0000 0000 0000
00000150: 0000 0000 0000 0000 0000 0000 0000 0000
00000160: 0000 0000 0000 0000 0000 0000 0000 0000
00000170: 0000 0000 0000 0000 0000 0000 0000 0000
00000180: 0000 0000 0000 0000 0000 0000 0000 0000
00000190: 0000 0000 0000 0000 0000 0000 0000 0000
000001a0: 0000 0000 0000 0000 0000 0000 0000 0000
000001b0: 0000 0000 0000 0000 0000 0000 0000 0000
000001c0: 0000 0000 0000 0000 0000 0000 0000 0000
000001d0: 0000 0000 0000 0000 0000 0000 0000 0000
000001e0: 0000 0000 0000 0000 0000 0000 0000 0000
000001f0: 0000 0000 0000 0000 0000 0000 0000 0000

network_body._body_endoder.seq_layers.2.weight f4 [128, 128]
0.05055631 0.015928902 -0.120565675 0.020783126 0.03398452 0.0649151 0.091129765 -0.009973458
-0.013676151 0.11521886 0.01905098 -0.011182751 -0.07289692 0.13512218 -0.0053138295 0.14758374
-0.06520188 -0.15849376 -0.04080121 0.0372681 0.057044674 -0.014267169 0.09306319 0.02977152
0.06497797 0.080668576 -0.02218182 -0.083568916 0.038280793 -0.03707698 0.26530898 -0.030782524
-0.046306763 -0.10744081 -0.09696307 -0.04541678 -0.01152677 -0.15897134 0.078672476 -0.10968755
0.12814295 -0.081457086 -0.12808636 0.02433972 0.09655095 0.024851514 -0.07885043 -0.03136688
0.11815358 -0.111775614 -0.027453795 -0.0027497185 -0.053840533 -0.022026831 0.074937366 -0.054546066
-0.049351145 0.19738941 -0.008774069 -0.003712189 0.054464523 0.08005891 0.050340053 -0.001668399
0.043942064 -0.0012891552 0.021209767 0.093424104 -0.13392185 0.038535196 0.04935395 -0.061036218
-0.0012076218 0.03626648 -0.004949504 0.050445862 0.045775432 0.06390795 0.04149501 -0.17978504
0.17205597 -0.019370457 -0.1441973 -0.14819865 0.06998194 0.029362587 0.15899886 0.009063089
-0.0769026 0.120126694 -0.042763487 -0.06113375 0.008035323 0.09325125 -0.022477264 -0.03685663
0.023996389 -0.027649876 -0.0016263742 -0.00139063 0.08504603 0.1414241 0.16194391 0.037748262
0.04269772 -0.122052215 0.16094519 -0.11866485 0.18857946 0.00040402796 0.10927506 -0.14738111
0.045897204 -0.1215458 0.20876081 -0.11628546 0.051381648 0.00029221724 0.02933801 -0.038286965
-0.05401609 0.10526159 -0.049779825 0.07176511 0.12122092 0.10977925 0.20520495 0.19717312
-0.055053107 0.036179613 0.0973281 0.048476003 -0.17168918 -0.07630802 0.101585135 0.06366205
0.012940009 -0.042181626 -0.045234848 0.09853248 -0.034132518 0.15783733 -0.061946474 -0.18288967
-0.08606367 -0.02017442 0.08182778 -0.16791005 -0.030281276 -0.19969091 -0.028797518 -0.009889483
-0.1504284 0.03627744 0.017305216 0.08424045 0.06634556 -0.021153228 0.029271731 -0.031805646
0.008666139 0.14771107 0.11081863 0.05652115 0.018230291 -0.10571107 -0.092083246 -0.024855869
0.05786627 -0.17424172 -0.13271739 0.03960215 0.032159545 0.11007208 -0.017884798 0.080074646
-0.050970916 -0.05151518 0.022668406 -0.122787 -0.05990605 -0.16988584 0.116996616 -0.047079984
0.07676476 -0.012401491 -0.02853207 -0.10163666 0.021001263 -0.050827604 -0.08687032 -0.1222648
0.009980397 0.17807877 0.1562642 0.16639712 -0.09974216 -0.065846674 -0.09150708 0.09746175
-0.022203138 -0.04637896 -0.058873378 0.16641735 -0.029954394 -0.031987652 0.08754549 0.11233189
0.17722878 -0.1239799 0.04019245 0.048211038 -0.04313296 0.09536445 -0.1248582 -0.095989466
0.014972411 0.08872492 -0.057563543 -0.0022468378 0.101621516 0.057627495 0.13775717 0.13004903
-0.04854157 0.08697736 0.07043288 0.05988418 0.09494589 -0.058299027 -0.12183335 -0.09156683
-0.16144438 0.01539878 0.072274946 0.061717927 -0.00636314 0.09456985 0.14036138 -0.032810822
-0.064792685 0.15651098 0.059815798 0.078139596 -0.04899318 0.058394037 0.04335539 -0.079570584
-0.026469113 0.027779195 0.046286028 -0.13271539 0.009388376 0.08502669 -0.115244254 -0.06301112
00000000: 2214 4f3d 547d 823c 23eb f6bd 6041 aa3c
00000010: 5a33 0b3d 35f2 843d 3ea2 ba3d b767 23bc
00000020: ef11 60bc def7 eb3d cd10 9c3c db37 37bc
00000030: fb4a 95bd 785d 0a3e a21f aebb 3120 173e
00000040: 9088 85bd 304c 22be 2b1f 27bd 6fa6 183d
00000050: ada7 693d d8c0 69bc ea97 be3d 67e3 f33c
00000060: 2c13 853d 9135 a53d a6b6 b5bc 2e26 abbd
00000070: 52cc 1c3d 08de 17bd 94d6 873e a22b fcbc
00000080: 29ac 3dbd ed09 dcbd 9394 c6bd f206 3abd
00000090: c7da 3cbc 62c9 22be 091f a13d dea3 e0bd
000000a0: e837 033e f9d2 a6bd 1229 03be 1864 c73c
000000b0: 81bc c53d 6795 cb3c 567c a1bd 8f7a 00bd
000000c0: 81fa f13d 9dea e4bd c8e6 e0bc 9f34 34bb
000000d0: e487 5cbd 9d71 b4bc c378 993d b26b 5fbd
000000e0: 6d24 4abd 7320 4a3e 1dc1 0fbc 3248 73bb
000000f0: 3116 5f3d edf5 a33d 5f31 4e3d 2eae daba
00000100: 98fc 333d dff8 a8ba 1bc0 ad3c 2355 bf3d
00000110: cf22 09be 15d7 1d3d 5e27 4a3d 1d01 7abd
00000120: 1049 9eba 298c 143d 732f a2bb 52a0 4e3d
00000130: 057f 3b3d 2ce2 823d acf6 293d 9219 38be
00000140: 712f 303e cbae 9ebc 75a8 13be 63c1 17be
00000150: b152 8f3d cf89 f03c 99d0 223e 5a7d 143c
00000160: 1c7f 9dbd fc04 f63d c428 2fbd 6267 7abd
00000170: 96a6 033c 83fa be3d 3d22 b8bc faf6 16bd
00000180: 1394 c43c fe81 e2bc 102c d5ba cd45 b6ba
00000190: 9d2c ae3d 7bd1 103e a0d4 253e ec9d 1a3d
000001a0: cee3 2e3d 83f6 f9bd d1ce 243e 8f06 f3bd
000001b0: f91a 413e b7d3 d339 9acb df3d 13eb 16be
000001c0: b5fe 3b3d 01ed f8bd 65c5 553e 1227 eebd
000001d0: 9075 523d bc34 9939 4456 f03c cbd2 1cbd
000001e0: fa3f 5dbd 6393 d73d eee5 4bbd 96f9 923d
000001f0: ac42 f83d f2d3 e03d 3f21 523e c0e7 493e
00000200: 5e7f 61bd 1331 143d f453 c73d c68e 463d
00000210: 4acf 2fbe 6147 9cbd de0b d03d 4061 823d
00000220: 5502 543c a4c6 2cbd 2d48 39bd 66cb c93d
00000230: 8ace 0bbd 1ca0 213e 96bb 7dbd 6e47 3bbe
00000240: 2642 b0bd d344 a5bc 5395 a73d 9df0 2bbe
00000250: 7010 f8bc c67b 4cbe c6e8 ebbc 8007 22bc
00000260: e709 1abe a797 143d abc3 8d3c 4286 ac3d
00000270: 2ee0 873d 8949 adbc 45cb ef3c a346 02bd
00000280: 6cfc 0d3c 9241 173e e1f4 e23d b982 673d
00000290: b157 953c 0c7f d8bd 2496 bcbd 899e cbbc
000002a0: 2f05 6d3d 6c6c 32be 11e7 07be dd35 223d
000002b0: bab9 033d 786d e13d 2483 92bc 2dfe a33d
000002c0: e1c6 50bd 9501 53bd 18b3 b93c c077 fbbd
000002d0: 0c60 75bd 8ef6 2dbe ec9b ef3d f1d6 40bd
000002e0: d836 9d3d a02f 4bbc 16bc e9bc e226 d0bd
000002f0: d70a ac3c 9b30 50bd 11e9 b1bd f865 fabd
00000300: d284 233c 485a 363e b903 203e 0264 2a3e
00000310: 9e45 ccbd 9fda 86bd 1068 bbbd 079a c73d
00000320: 5be3 b5bc ddf7 3dbd 3625 71bd 4f69 2a3e
00000330: eb62 f5bc 7c05 03bd 0d4b b33d 430e e63d
00000340: 767b 353e 2ce9 fdbd d7a0 243d f078 453d
00000350: 30ac 30bd 704e c33d a8b5 ffbd 2096 c4bd
00000360: d84e 753c 69b5 b53d c0c7 6bbd af3f 13bb
00000370: f11e d03d cf0a 6c3d 3710 0d3e 932b 053e
00000380: 86d3 46bd 3021 b23d 1d3f 903d 1d49 753d
00000390: fe72 c23d f6ca 6ebd c383 f9bd 6487 bbbd
000003a0: ad51 25be 2a4b 7c3c e304 943d f0cb 7c3d
000003b0: e381 d0bb d6ad c13d e5ba 0f3e a464 06bd
000003c0: 07b2 84bd 6a44 203e 6901 753d a707 a03d
000003d0: 13ad 48bd 962e 6f3d 6c95 313d e7f5 a2bd
000003e0: c1d5 d8bc 3291 e33c 6b96 3d3d 8be6 07be
000003f0: b4d1 193c 7922 ae3d 2e05 ecbd f90b 81bd
