results/FoodTarget_imitation_5/AgentPlayer/AgentPlayer-222.onnx (onnx, 132428 bytes, 7 tensors)

action_model._continuous_distribution.log_sigma f4 [1, 5]
0.0 0.0 0.0 0.0 0.0
00000000: 0000 0000 0000 0000 0000 0000 0000 0000
00000010: 0000 0000

action_model._continuous_distribution.mu.bias f4 [5]
0.0 0.0 0.0 0.0 0.0
00000000: 0000 0000 0000 0000 0000 0000 0000 0000
00000010: 0000 0000

action_model._continuous_distribution.mu.weight f4 [5, 128]
-0.008137372 -0.017689092 0.027366256 -0.010952114 0.039559063 0.03485469 -0.013013737 -0.039076027
0.00027094115 0.013124096 0.0012097672 -0.035494212 -0.04808973 -0.012851446 0.02104029 0.011413945
0.016342277 -0.013096556 -0.00024254997 -0.0011636977 0.0042490005 -0.003177691 -0.01694893 -0.03206823
0.02412655 -0.012678561 0.032554016 0.014898348 -0.0127999475 -0.004542897 0.009749071 0.031061707
-0.018785788 -0.014978367 -0.016120832 -0.014888476 -0.010796207 0.0048855776 0.0052547245 -0.016756102
0.018584257 -0.032869916 -0.0039337063 -0.005802234 -0.005306597 -0.02821746 0.023362963 -0.019629203
0.00031783458 -0.015230852 -0.002757121 0.016134158 0.020822508 0.013122544 -0.012392484 -0.0027626378
-0.014952334 -0.0344623 0.014230936 0.0045727235 0.005638058 0.0051731747 0.006031978 -0.007762422
0.015188992 0.023793248 -0.03414197 -0.015033588 -0.00046800822 -0.022498759 0.00034339828 0.0016225296
0.020706378 -0.012906553 -0.00013654596 0.022899447 -0.019029949 -0.023039652 -0.018318987 -0.016660152
0.017707396 0.03176154 0.0004210948 0.018855954 0.024097372 -0.011785648 0.016168896 -0.038681425
0.02659651 0.0077355034 0.0010309458 0.030968577 0.0020744177 0.027098402 0.0056228517 0.0007377834
-0.0011179834 0.01642523 -0.01829549 -0.0033688743 0.013033151 -0.00092717644 0.017547822 -0.00038661572
0.006122571 -0.003417677 -0.006942754 0.010776999 0.0131799895 0.011930452 0.007536601 -0.015323162
-0.014248337 -0.037032858 0.00368294 -0.012868171 0.04666335 -0.018035183 0.00043191898 0.003403514
0.027136324 0.0058740047 -0.021819185 -0.02085744 0.01700945 -0.003206767 -0.0035895053 -0.006351609
0.020324452 0.013508561 0.011656563 -0.01715055 0.0055329814 -0.0077510015 -0.00523884 -0.005296695
-0.0011863465 -0.021172747 -0.017664485 0.019766932 -0.008598317 0.021449821 0.0017588079 0.0005105759
0.009491007 0.0016637532 0.00078180153 -0.009004697 0.0009587953 -0.005577277 -0.014692627 0.01095286
-0.008400525 0.021047054 -0.0077960105 0.0074080313 -0.023953434 -0.005252602 -0.018546062 0.005794538
0.00053087744 0.016390795 -0.0101256985 0.0031654437 -0.023821302 -0.04681476 0.030522792 -0.029398272
-0.0031827458 -0.013312875 -0.012112982 -0.0072311456 -0.0159896 -0.0044855266 -0.007670039 -0.016577423
-0.0065786378 -0.005599424 -0.010593534 0.02225264 -0.016178826 -0.018321563 -0.010282158 -0.015507683
-0.018805495 0.040092602 0.016859908 -0.016008215 -0.0072296187 0.014374891 -0.0062041716 -0.0038818081
0.014886411 0.0026863192 0.023743808 -0.0158732 0.0009860476 0.007992565 -0.00504039 -0.0063078995
-0.042341184 0.0018773469 -0.01408689 -0.004133591 0.01951452 -0.021440027 -0.027586425 0.020104615
0.00052529114 0.045895737 -0.029013729 0.0074452846 -0.010436659 0.0075049438 -0.007602346 -0.011367197
0.016437126 -0.030811522 -0.0018310562 0.0057588867 -0.0014648088 -0.019114552 0.0029876835 0.027943825
0.009286534 -0.007060114 -0.0074352073 -0.001217825 -0.007269858 -0.010177367 0.015041835 0.005800988
-0.019232586 -0.026195643 0.02924867 0.022695525 -0.018793065 0.0028573042 -0.0024139378 -0.0010406327
-0.022429163 0.04866145 -0.014902155 -0.0014667433 0.014874662 -0.016821533 -0.005491592 -0.029429276
0.010917318 -0.00402312 0.025626678 -0.010887428 -0.01168647 0.012992782 -0.0018238084 -0.034131914
00000000: 9d52 05bc b7e8 90bc 332f e03c 7f70 33bc
00000010: af08 223d cbc3 0e3d 9237 55bc 2f0e 20bd
00000020: 1b0d 8e39 7306 573c 0d91 9e3a 6162 11bd
00000030: bdf9 44bd df8e 52bc b05c ac3c 8e01 3b3c
00000040: 3de0 853c f092 56bc 0355 7eb9 3787 98ba
00000050: 333b 8b3b cf40 50bb 7cd8 8abc fa59 03bd
00000060: 0ba5 c53c bdb9 4fbc 5c57 053d 3318 743c
00000070: dfb6 51bc 95dc 94bb 91ba 1f3c 1f75 fe3c
00000080: a7e4 99bc d367 75bc d60f 84bc cbee 73bc
00000090: 93e2 30bc 3217 a03b d32f ac3b 1844 89bc
000000a0: 033e 983c 9ba2 06bd 52e6 80bb ab20 bebb
000000b0: f6e2 adbb 4d28 e7bc af63 bf3c 6ccd a0bc
000000c0: 09a3 a639 d38a 79bc d1b0 34bb c82b 843c
000000d0: f793 aa3c f0ff 563c d809 4bbc 5f0d 35bb
000000e0: a2fa 74bc 5728 0dbd df28 693c c9d6 953b
000000f0: 75bf b83b bc83 a93b e6a7 c53b ea5b febb
00000100: 40db 783c 0fea c23c 73d8 0bbd 704f 76bc
00000110: 005f f5b9 514f b8bc 230a b439 0fab d43a
00000120: 6ca0 a93c 0276 53bc c72d 0fb9 9f97 bb3c
00000130: b2e4 9bbc a7bd bcbc b311 96bc df7a 88bc
00000140: 1a0f 913c 6318 023d 63c6 dc39 cd77 9a3c
00000150: da67 c53c 9718 41bc a274 843c 6a70 1ebd
00000160: ede0 d93c 1b7a fd3b cd20 873a d0b1 fd3c
00000170: f4f2 073b 78fd dd3c e63f b83b ce67 413a
00000180: 4c89 92ba 348e 863c 6ce0 95bc 55c8 5cbb
00000190: ff88 553c c20d 73ba 73c0 8f3c afb2 cab9
000001a0: d99f c83b 1bfb 5fbb 0b80 e3bb 0392 303c
000001b0: e2f0 573c f177 433c 97f5 f63b 000e 7bbc
000001c0: db71 69bc c4af 17bd 7b5d 713b 05d5 52bc
000001d0: 1222 3f3d 85be 93bc 2f73 e239 7d0d 5f3b
000001e0: ff4c de3c b97a c03b 26be b2bc 39dd aabc
000001f0: 6757 8b3c 9f28 52bb e83d 6bbb 2821 d0bb
00000200: 777f a63c 0353 5d3c 2bfb 3e3c 4f7f 8cbc
00000210: 034e b53b 1dfc fdbb 93aa abbb e68f adbb
00000220: 2f7f 9bba 7872 adbc 1cb5 90bc 43ee a13c
00000230: f5df 0cbc 89b7 af3c cd87 e63a 2bd8 053a
00000240: 2b80 1b3c 4b12 da3a d0f1 4c3a 7088 13bc
00000250: aa57 7b3a 97c1 b6bb 58b9 70bc a073 333c
00000260: 5ba2 09bc df6a ac3c ad75 ffbb 12bf f23b
00000270: fe39 c4bc 051e acbb e9ed 97bc 1ce0 bd3b
00000280: 952a 0b3a fd45 863c 42e6 25bc 5573 4f3b
00000290: e424 c3bc d5c0 3fbd ef0a fa3c a5d4 f0bc
000002a0: 9d95 50bb 3f1e 5abc 8775 46bc 3ff3 ecbb
000002b0: 9ffc 82bc 53fb 92bb f354 fbbb 60cd 87bc
000002c0: 9d91 d7bb 5f7b b7bb 8190 2dbc 2b4b b63c
000002d0: 7589 84bc 1a17 96bc 7f76 28bc f013 7ebc
000002e0: fb0d 9abc 2438 243d ca1d 8a3c a923 83bc
000002f0: 70e6 ecbb aa84 6b3c 5d4c cbbb ef65 7ebb
00000300: 22e6 733c f50c 303b 6082 c23c 8308 82bc
00000310: 443e 813a 3ff3 023c db29 a5bb 7fb2 cebb
00000320: f36d 2dbd 4f11 f63a b3cc 66bc 1373 87bb
00000330: eadc 9f3c ffa2 afbc edfc e1bc 6fb2 a43c
00000340: b1b3 093a 2bfd 3b3d 33ae edbc 93f7 f33b
00000350: 85fe 2abc 08ec f53b 1a1d f9bb 7b3d 3abc
00000360: 27a7 863c 7268 fcbc 0d00 f0ba 0bb5 bc3b
00000370: d4fe bfba 1f96 9cbc 03cd 433b 73ea e43c
00000380: 8c26 183c 8758 e7bb 0aa3 f3bb 6d9f 9fba
00000390: fd37 eebb f9be 26bc 0772 763c 3716 be3b
000003a0: a88d 9dbc 3f98 d6bc e89a ef3c f7eb b93c
000003b0: eaf3 99bc 9c41 3b3b 2833 1ebb d765 88ba
000003c0: 5dbd b7bc 3b51 473d 2b28 74bc bd3f c0ba
000003d0: dbb4 733c 50cd 89bc d0f2 b3bb aa15 f1bc
000003e0: 8dde 323c 60d4 83bb 0aef d13c 2f61 32bc
000003f0: 9c78 3fbc addf 543c db0c efba e8cd 0bbd

network_body._body_endoder.seq_layers.0.bias f4 [128]
0.0 0.0 0.0 0.0 0.0 0.0 0.0 0.0
0.0 0.0 0.0 0.0 0.0 0.0 0.0 0.0
0.0 0.0 0.0 0.0 0.0 0.0 0.0 0.0
0.0 0.0 0.0 0.0 0.0 0.0 0.0 0.0
0.0 0.0 0.0 0.0 0.0 0.0 0.0 0.0
0.0 0.0 0.0 0.0 0.0 0.0 0.0 0.0
0.0 0.0 0.0 0.0 0.0 0.0 0.0 0.0
0.0 0.0 0.0 0.0 0.0 0.0 0.0 0.0
0.0 0.0 0.0 0.0 0.0 0.0 0.0 0.0
0.0 0.0 0.0 0.0 0.0 0.0 0.0 0.0
0.0 0.0 0.0 0.0 0.0 0.0 0.0 0.0
0.0 0.0 0.0 0.0 0.0 0.0 0.0 0.0
0.0 0.0 0.0 0.0 0.0 0.0 0.0 0.0
0.0 0.0 0.0 0.0 0.0 0.0 0.0 0.0
0.0 0.0 0.0 0.0 0.0 0.0 0.0 0.0
0.0 0.0 0.0 0.0 0.0 0.0 0.0 0.0
00000000: 0000 0000 0000 0000 0000 0000 0000 0000
00000010: 0000 0000 0000 0000 0000 0000 0000 0000
00000020: 0000 0000 0000 0000 0000 0000 0000 0000
00000030: 0000 0000 0000 0000 0000 0000 0000 0000
00000040: 0000 0000 0000 0000 0000 0000 0000 0000
00000050: 0000 0000 0000 0000 0000 0000 0000 0000
00000060: 0000 0000 0000 0000 0000 0000 0000 0000
00000070: 0000 0000 0000 0000 0000 0000 0000 0000
00000080: 0000 0000 0000 0000 0000 0000 0000 0000
00000090: 0000 0000 0000 0000 0000 0000 0000 0000
000000a0: 0000 0000 0000 0000 0000 0000 0000 0000
000000b0: 0000 0000 0000 0000 0000 0000 0000 0000
000000c0: 0000 0000 0000 0000 0000 0000 0000 0000
000000d0: 0000 0000 0000 0000 0000 0000 0000 0000
000000e0: 0000 0000 0000 0000 0000 0000 0000 0000
000000f0: 0000 0000 0000 0000 0000 0000 0000 0000
00000100: 0000 0000 0000 0000 0000 0000 0000 0000
00000110: 0000 0000 0000 0000 0000 0000 0000 0000
00000120: 0000 0000 0000 0000 0000 0000 0000 0000
00000130: 0000 0000 0000 0000 0000 0000 0000 0000
00000140: 0000 0000 0000 0000 0000 0000 0000 0000
00000150: 0000 0000 0000 0000 0000 0000 0000 0000
00000160: 0000 0000 0000 0000 0000 0000 0000 0000
00000170: 0000 0000 0000 0000 0000 0000 0000 0000
00000180: 0000 0000 0000 0000 0000 0000 0000 0000
00000190: 0000 0000 0000 0000 0000 0000 0000 0000
000001a0: 0000 0000 0000 0000 0000 0000 0000 0000
000001b0: 0000 0000 0000 0000 0000 0000 0000 0000
000001c0: 0000 0000 0000 0000 0000 0000 0000 0000
000001d0: 0000 0000 0000 0000 0000 0000 0000 0000
000001e0: 0000 0000 0000 0000 0000 0000 0000 0000
000001f0: 0000 0000 0000 0000 0000 0000 0000 0000

network_body._body_endoder.seq_layers.0.weight f4 [128, 120]
0.010466997 0.062228516 -0.018008985 0.093118265 -0.07040761 0.05022357 0.030707644 0.04623794
0.011987409 -0.054871183 0.189192 0.15093863 -0.036217965 0.0781423 0.08607765 0.034671947
-0.07854278 0.023490317 -0.12291313 0.03851441 -0.004082679 0.08887555 -0.078502364 0.04113034
-0.06696762 -0.06281992 0.08329741 0.0047077555 -0.039473347 -0.062477317 -0.006502727 0.033714104
-0.13051265 0.013042432 0.14730082 -0.05567559 0.08514463 0.16400817 -0.021399878 0.0069256607
0.08828115 -0.03290864 0.061648943 -0.04715818 -0.009532185 -0.05504014 -0.09988303 -0.14278117
-0.038921326 0.014137041 -0.027842484 -0.14892104 0.04269197 -0.07530298 0.118002854 0.11419322
-0.036895137 -0.13009967 -0.0688741 -0.12722504 -0.045747917 -0.025102464 -0.08595637 -0.088488765
0.009451642 0.036516864 -0.014406453 -0.041220594 -0.04919817 0.062430225 -0.06272643 -0.0469376
0.071079694 -0.010153066 0.0791403 0.122189164 -0.1310182 0.008173624 -0.09257042 -0.023581441
0.13151583 0.086055174 0.059863996 -0.1093608 -0.05298869 0.045017775 0.14042331 0.120555915
0.049398925 0.15661228 0.027179237 0.12408713 0.010048666 0.03854593 0.08302069 0.06716974
0.037156776 0.013084313 0.16828504 0.089345306 0.042534325 0.0045996737 -0.05510632 0.09495981
-0.16370146 0.090334564 -0.021335248 0.026930537 0.031618893 -0.11455831 -0.017642854 -0.17692174
-0.18421255 -0.0798586 -0.044558626 -0.02910404 -0.069905736 -0.12125601 -0.06839362 -0.04315648
-0.08422971 -0.05853004 0.099195726 0.19760643 0.073725335 0.053853706 -0.03264779 -0.06816205
-0.17243162 0.06903366 -0.010670034 -0.08382451 -0.0612222 0.00613085 0.09455205 0.025330372
0.083007626 -0.051613804 0.082861476 0.08169766 0.023657572 -0.0019888813 0.007599885 -0.10458312
-0.046847004 0.0112617025 0.073529616 -0.114777654 0.041152034 -0.03848543 0.05890439 -0.06433003
-0.060509764 0.058041286 -0.192145 -0.051703494 -0.002384094 -0.15384991 0.021547677 -0.033229854
-0.05394318 0.15421209 -0.04869834 -0.10611415 -0.14940214 0.17182682 0.07386867 0.12796992
-0.060334206 0.10222651 0.046668183 0.12080368 0.05496306 -0.15783653 -0.16843295 0.048508957
-0.13294913 -0.07683713 -0.07209824 -0.07173549 0.014263979 0.05286823 0.2085982 0.10137192
-0.04442728 -0.011906166 0.040077332 0.26825815 -0.016338503 0.024024911 -0.17033598 0.075450264
0.1448489 0.07482885 -0.19815123 0.050112117 0.11963406 -0.14950897 -0.019331876 -0.10243564
0.1362453 -0.033803616 -0.0519252 -0.08281551 -0.17499943 -0.03292298 -0.07054259 0.0401537
0.013212918 0.0999407 -0.13975492 -0.0418541 0.11380848 -0.111916825 0.04044474 0.122966856
-0.05457153 0.09116204 -0.058050927 0.1716565 -0.12158975 -0.022030352 0.14862661 -0.05599758
-0.13867372 0.027249048 0.16443744 0.25396645 0.03871198 -0.053074382 -0.06790692 0.05630293
0.28670713 -0.13236183 -0.001647121 0.041616842 -0.24599822 -0.065420985 -0.14876631 0.044840097
-0.0027267819 -0.09488094 0.093019225 -0.041459013 0.065612845 -0.015180319 0.02012363 0.12890872
-0.07370194 -0.069918804 0.016366404 0.004014878 0.08185686 -0.02398835 -0.0016375717 0.07315661
00000000: c47d 2b3c 54e3 7e3d 9487 93bc cab4 be3d
00000010: dd31 90bd 3bb7 4d3d 998e fb3c ff63 3d3d
00000020: d666 443c 9bc0 60bd 8cbb 413e a88f 1a3e
00000030: 4a59 14bd 1209 a03d 7b49 b03d 2c04 0e3d
00000040: 09db a0bd c46e c03c e1b9 fbbd 49c1 1d3d
00000050: fec7 85bb 6204 b63d d9c5 a0bd 4a78 283d
00000060: 5226 89bd bba7 80bd d597 aa3d 8443 9a3b
00000070: ceae 21bd 37e8 7fbd d414 d5bb cd17 0a3d
00000080: 1ca5 05be edaf 553c 07d6 163e 160c 64bd
00000090: 4f60 ae3d c2f1 273e cc4e afbc a7f0 e23b
000000a0: bfcc b43d 36cb 06bd 9a83 7c3d f028 41bd
000000b0: e22c 1cbc c571 61bd 798f ccbd 3a35 12be
000000c0: f86b 1fbd 0c9f 673c ec15 e4bc c27e 18be
000000d0: c6dd 2e3d 7338 9abd 7bab f13d 23de e93d
000000e0: 5b1f 17bd d938 05be dd0d 8dbd 4847 02be
000000f0: 2b62 3bbd afa3 cdbc e509 b0bd 9939 b5bd
00000100: 0fdb 1a3c b592 153d 0b09 6cbc edd6 28bd
00000110: 0584 49bd d6b6 7f3d b776 80bd a441 40bd
00000120: 3b92 913d 0c59 26bc 4f14 a23d 503e fa3d
00000130: a329 06be aaea 053c 8f95 bdbd de2d c1bc
00000140: 16ac 063e b23d b03d f333 753d 8ef8 dfbd
00000150: ab0a 59bd 8f64 383d 21cb 0f3e 05e6 f63d
00000160: 8756 4a3d f85e 203e fea6 de3c 6521 fe3d
00000170: 29a3 243c 56e2 1d3d c006 aa3d 4a90 893d
00000180: b431 183d 965f 563c ea52 2c3e acfa b63d
00000190: 7938 2e3d dcb8 963b 2ab7 61bd 4a7a c23d
000001a0: 5ba1 27be 5401 b93d 42c7 aebc 6e9d dc3c
000001b0: d082 013d 8c9d eabd bf87 90bc f92a 35be
000001c0: 37a2 3cbe e88c a3bd 1b83 36bd 986b eebc
000001d0: bd2a 8fbd 1255 f8bd f411 8cbd d9c4 30bd
000001e0: a080 acbd 32bd 6fbd 2127 cb3d 5759 4a3e
000001f0: 4ffd 963d b495 5c3d b0b9 05bd 8b98 8bbd
00000200: ea91 30be 8561 8d3d 5ed1 2ebc 2fac abbd
00000210: 21c4 7abd 4ce5 c83b 81a4 c13d a481 cf3c
00000220: e7ff a93d ff68 53bd 47b3 a93d 1a51 a73d
00000230: 86cd c13c e457 02bb 7508 f93b ad2f d6bd
00000240: a5e2 3fbd 0183 383c b296 963d 8c10 ebbd
00000250: 098f 283d e6a2 1dbd bb45 713d 76bf 83bd
00000260: 16d9 77bd b3bc 6d3d a9c1 44be 0bc7 53bd
00000270: 763e 1cbb d58a 1dbe c184 b03c 071c 08bd
00000280: 86f3 5cbd c6e9 1d3e e977 47bd 6052 d9bd
00000290: e0fc 18be 5ff3 2f3e 7548 973d 8c0a 033e
000002a0: 0021 77bd 225c d13d 2327 3f3d eb67 f73d
000002b0: f220 613d e69f 21be b079 2cbe 54b1 463d
000002c0: d123 08be c95c 9dbd 3ea8 93bd 0eea 92bd
000002d0: 77b3 693c 5b8c 583d c49a 553e 159c cf3d
000002e0: 61f9 35bd 1412 43bc 2128 243d 2259 893e
000002f0: 53d8 85bc e4cf c43c 8e6c 2ebe ab85 9a3d
00000300: 4553 143e de3f 993d 28e8 4abe 5d42 4d3d
00000310: b402 f53d e118 19be e25d 9ebc c7c9 d1bd
00000320: e383 0b3e a975 0abd 85af 54bd 2e9b a9bd
00000330: 0d33 33be 3fda 06bd a278 90bd 3578 243d
00000340: ff7a 583c b6ad cc3d ea1b 0fbe 346f 2bbd
00000350: 6c14 e93d a634 e5bd 62a9 253d 0cd6 fb3d
00000360: 6686 5fbd 2ab3 ba3d cfc6 6dbd b9c6 2f3e
00000370: 0c04 f9bd ff78 b4bc 9331 183e b85d 65bd
00000380: 7c00 0ebe 6539 df3c 4a62 283e e407 823e
00000390: 7490 1e3d 8664 59bd c912 8bbd e79d 663d
000003a0: 47cb 923e dc89 07be 36e4 d7ba 6c76 2a3d
000003b0: f5e6 7bbe 70fb 85bd 3256 18be 40aa 373d
000003c0: cfb3 32bb f050 c2bd dd80 be3d edd0 29bd
000003d0: 0760 863d dfb6 78bc 50da a43c a600 043e
000003e0: 0bf1 96bd 9731 8fbd d612 863c 3d8f 833b
000003f0: 92a4 a73d 3783 c4bc caa3 d6ba 22d3 953d

network_body._body_endoder.seq_layers.2.bias f4 [128]
0.0 0.0 0.0 0.0 0.0 0.0 0.0 0.0
0.0 0.0 0.0 0.0 0.0 0.0 0.0 0.0
0.0 0.0 0.0 0.0 0.0 0.0 0.0 0.0
0.0 0.0 0.0 0.0 0.0 0.0 0.0 0.0
0.0 0.0 0.0 0.0 0.0 0.0 0.0 0.0
0.0 0.0 0.0 0.0 0.0 0.0 0.0 0.0
0.0 0.0 0.0 0.0 0.0 0.0 0.0 0.0
0.0 0.0 0.0 0.0 0.0 0.0 0.0 0.0
0.0 0.0 0.0 0.0 0.0 0.0 0.0 0.0
0.0 0.0 0.0 0.0 0.0 0.0 0.0 0.0
0.0 0.0 0.0 0.0 0.0 0.0 0.0 0.0
0.0 0.0 0.0 0.0 0.0 0.0 0.0 0.0
0.0 0.0 0.0 0.0 0.0 0.0 0.0 0.0
0.0 0.0 0.0 0.0 0.0 0.0 0.0 0.0
0.0 0.0 0.0 0.0 0.0 0.0 0.0 0.0
0.0 0.0 0.0 0.0 0.0 0.0 0.0 0.0
00000000: 0000 0000 0000 0000 0000 0000 0000 0000
00000010: 0000 0000 0000 0000 0000 0000 0000 0000
00000020: 0000 0000 0000 0000 0000 0000 0000 0000
00000030: 0000 0000 0000 0000 0000 0000 0000 0000
00000040: 0000 0000 0000 0000 0000 0000 0000 0000
00000050: 0000 0000 0000 0000 0000 0000 0000 0000
00000060: 0000 0000 0000 0000 0000 0000 0000 0000
00000070: 0000 0000 0000 0000 0000 0000 0000 0000
00000080: 0000 0000 0000 0000 0000 0000 0000 0000
00000090: 0000 0000 0000 0000 0000 0000 0000 0000
000000a0: 0000 0000 0000 0000 0000 0000 0000 0000
000000b0: 0000 0000 0000 0000 0000 0000 0000 0000
000000c0: 0000 0000 0000 0000 0000 0000 0000 0000
000000d0: 0000 0000 0000 0000 0000 0000 0000 0000
000000e0: 0000 0000 0000 0000 0000 0000 0000 0000
000000f0: 0000 0000 0000 0000 0000 0000 0000 0000
00000100: 0000 0000 0000 0000 0000 0000 0000 0000
00000110: 0000 0000 0000 0000 0000 0000 0000 0000
00000120: 0000 0000 0000 0000 0000 0000 0000 0000
00000130: 0000 0000 0000 0000 0000 0000 0000 0000
00000140: 0000 0000 0000 0000 0000 0000 0000 0000
00000150: 0000 0000 0000 0000 0000 0000 0000 0000
00000160: 0000 0000 0000 0000 0000 0000 0000 0000
00000170: 0000 0000 0000 0000 0000 0000 0000 0000
00000180: 0000 0000 0000 0000 0000 0000 0000 0000
00000190: 0000 0000 0000 0000 0000 0000 0000 0000
000001a0: 0000 0000 0000 0000 0000 0000 0000 0000
000001b0: 0000 0000 0000 0000 0000 0000 0000 0000
000001c0: 0000 0000 0000 0000 0000 0000 0000 0000
000001d0: 0000 0000 0000 0000 0000 0000 0000 0000
000001e0: 0000 0000 0000 0000 0000 0000 0000 0000
000001f0: 0000 0000 0000 0000 0000 0000 0000 0000

network_body._body_endoder.seq_layers.2.weight f4 [128, 128]
0.06375031 0.12940186 0.27007654 0.064670414 0.08246082 -0.00759616 0.026369417 0.14440307
0.05508761 0.042515572 0.02605499 0.080988094 -0.17664774 0.14102957 0.020140758 -0.13964863
0.14383322 -0.08715666 -0.108285375 0.053838182 0.014999325 -0.09457899 -0.047095288 0.09095225
0.024003355 -0.009863937 0.018320045 0.19671205 -0.048840087 -0.010626715 -0.045962617 0.025383634
-0.25944167 0.04928134 0.056943595 0.02350471 0.054385614 -0.029544057 0.026946513 0.008590507
0.038548272 -0.13249321 0.15608068 -0.12558077 -0.12346071 0.03239241 -0.096386455 0.0013081215
0.026412321 0.022155866 -0.062344212 -0.21673098 -0.12156566 0.025989057 -0.04573689 -0.08620535
-0.041720692 -0.12995358 -0.031818613 0.025142172 0.10327318 -0.11318646 -0.18464844 0.036036994
-0.013256124 -0.07947083 0.010876716 -0.019124351 0.0695057 -0.034353856 0.021000713 0.06655405
0.043662943 0.06958728 0.016339548 0.08120085 -0.026877403 -0.16554698 -0.036590748 0.15058544
-0.061733346 -0.04538634 0.10684764 -0.043996856 -0.007237342 -0.084583744 -0.103519514 0.027517365
-0.03567217 0.008424815 -0.005690581 -0.016933985 -0.15112929 0.05453181 0.15525128 -0.0084880935
-0.07235119 -0.012408977 -0.22020976 -0.042684127 0.057510737 0.0311071 -0.04352655 0.10398818
0.14497769 0.02570716 -0.03929024 0.09672846 -0.099976905 0.028591108 0.075765215 -0.10871621
0.012434279 -0.08843724 -0.009529189 -0.04599816 -0.031149846 -0.052082136 -0.00018004508 0.16166271
0.022638673 0.05993467 0.012915483 -0.12695345 -0.052718 0.11583387 -0.060948446 0.02743493
0.016965529 0.019489255 0.06824013 0.01815688 0.08233193 0.07107241 -0.029495146 0.04277613
0.002342544 -0.13046314 -0.14571548 0.11139085 0.23562023 0.0044864393 -0.045733575 0.057602104
0.0063620326 -0.01646651 0.23333013 -0.021571118 -0.077703275 -0.2253692 -0.018313413 0.084712796
-0.0076657627 0.036118146 -0.023031935 -0.08924133 -0.017528538 0.15892191 -0.0025609713 0.011469482
-0.016567355 -0.0073206783 -0.058210153 0.008512974 0.16338402 -0.096254654 0.017545613 -0.046958122
0.093958475 0.023585932 0.03941529 0.02371028 -0.08189404 -0.05103205 0.15191555 0.16587314
-0.055415723 -0.032362897 0.06256811 -0.12097572 0.0028226597 -0.031043312 0.030894173 0.026684258
0.18832941 -0.20638222 0.06186463 0.042507205 -0.020279856 -0.0020745264 0.17220272 0.01892061
0.11349075 0.0754419 0.08817835 0.08580548 0.015552776 -0.010926572 -0.122412525 0.0038232408
-0.031210521 -0.004826687 -0.008073957 0.088980064 -0.021133795 0.061988577 0.018583314 0.054617867
-0.1239683 -0.09239581 -0.12527037 -0.020115739 0.035036884 0.0311038 0.03325241 0.06444295
-0.09283983 0.021148978 -0.053438347 0.10180329 0.16478541 0.11420132 -0.022008654 0.05139324
0.0343268 0.11287392 -0.08924133 0.084664606 -0.10685159 -0.002465255 0.028926337 -0.16093913
0.18115908 0.0025511493 -0.07428407 -0.03318813 0.050870594 0.030924296 0.106795326 0.02105845
0.0038305733 0.02342615 -0.048080623 -0.008616649 0.1293202 0.061750833 -0.0059547727 -0.13288711
-0.014908257 -0.043123376 -0.07612597 -0.017350215 -0.019692408 0.0011287814 -0.15257931 0.0016987813
00000000: 868f 823d ec81 043e 7947 8a3e ec71 843d
00000010: 38e1 a83d 35e9 f8bb ad04 d83c 66de 133e
00000020: 8ca3 613d cf24 2e3d 4671 d53c 16dd a53d
00000030: 25e3 34be 0e6a 103e 3bfe a43c 0d00 0fbe
00000040: 0449 133e 317f b2bd b9c4 ddbd 6d85 5c3d
00000050: bbbf 753c a1b2 c1bd fde6 40bd 2c45 ba3d
00000060: afa2 c43c 5a9c 21bc eb13 963c e26e 493e
00000070: 8b0c 48bd ac1b 2ebc 4c43 3cbd 57f1 cf3c
00000080: 8ad5 84be 3bdb 493d b03d 693d f38c c03c
00000090: 73c3 5e3d 6106 f2bc efbe dc3c 33bf 0c3c
000000a0: cbe4 1d3d 4dac 07be 9dd3 1f3e 3f98 00be
000000b0: f8d8 fcbd e7ad 043d 4366 c5bd 4675 ab3a
000000c0: a75e d83c 3880 b53c a55c 7fbd baee 5dbe
000000d0: 6bf7 f8bd 01e7 d43c 9b56 3bbd 6e8c b0bd
000000e0: 51e3 2abd 8d12 05be 3c54 02bd f5f6 cd3c
000000f0: e480 d33d 4ece e7bd 7b14 3dbe 879b 133d
00000100: 3730 59bc 9ac1 a2bd 4134 323c acaa 9cbc
00000110: 0159 8e3d a1b6 0cbd b009 ac3c 7d4d 883d
00000120: ead7 323d c783 8e3d 84da 853c a24c a63d
00000130: 002e dcbc 2685 29be 2ee0 15bd 1233 1a3e
00000140: 1bdc 7cbd 07e7 39bd efd2 da3d 0c36 34bd
00000150: 3a27 edbb 3e3a adbd 0a02 d4bd 196c e13c
00000160: fb1c 12bd 3c08 0a3c 0e78 babb 24b9 8abc
00000170: a3c1 1abe bf5c 5f3d 31fa 1e3e a511 0bbc
00000180: dc2c 94bd 064f 4bbc ab7e 61be 8dd5 2ebd
00000190: 6190 6b3d 51d4 fe3c e548 32bd c1f7 d43d
000001a0: 0875 143e d297 d23c cdee 20bd 9219 c63d
000001b0: b1c0 ccbd e637 ea3c cb2a 9b3d 9ba6 debd
000001c0: 25b9 4b3c 951e b5bd 5120 1cbc 9168 3cbd
000001d0: f62d ffbc 1454 55bd 7cca 3cb9 e98a 253e
000001e0: bd74 b93c 0e7e 753d 769b 533c 1600 02be
000001f0: d4ee 57bd 4f3a ed3d 14a5 79bd 38bf e03c
00000200: 4bfb 8a3c eea7 9f3c 7bc1 8b3d bdbd 943c
00000210: a59d a83d 698e 913d ce9f f1bc 0636 2f3d
00000220: 5e85 193b 2198 05be 7036 15be e320 e43d
00000230: 6e46 713e fb02 933b 2153 3bbd 2ff0 6b3d
00000240: 9978 d03b c6e4 86bc 18ee 6e3e eab5 b0bc
00000250: e522 9fbd 2fc7 66be 0306 96bc e77d ad3d
00000260: 1431 fbbb 9ff0 133d 78ad bcbc 29c4 b6bd
00000270: 0298 8fbc 6dbc 223e f8d5 27bb 7fea 3b3c
00000280: 43b8 87bc 4de2 efbb c56d 6ebd 007a 0b3c
00000290: 244e 273e 2921 c5bd d1bb 8f3c 2957 40bd
000002a0: 4d6d c03d 4937 c13c ed71 213d 103c c23c
000002b0: 10b8 a7bd fc06 51bd c08f 1b3e a6da 293e
000002c0: 99fb 62bd f58e 04bd b623 803d 1ec2 f7bd
000002d0: 5ffc 383b 8b4e febc c715 fd3c f298 da3c
000002e0: 6dd9 403e dc55 53be c465 7d3d 091c 2e3d
000002f0: f121 a6bc c7f4 07bb e955 303e 65ff 9a3c
00000300: d76d e83d 4881 9a3d da96 b43d c9ba af3d
00000310: 12d1 7e3c 5d05 33bc 6bb3 fabd 568f 7a3b
00000320: 35ad ffbc 2f29 9ebb a148 04bc 2e3b b63d
00000330: c820 adbc bce7 7d3d 093c 983c fcb6 5f3d
00000340: 18e3 fdbd 043a bdbd e046 00be c3c9 a4bc
00000350: d682 0f3d 65cd fe3c ae33 083d aafa 833d
00000360: cf22 bebd 9f40 ad3c 2be2 5abd 3e7e d03d
00000370: 82bd 283e 62e2 e93d 7e4b b4bc b881 523d
00000380: 429a 0c3d 712a e73d 29c4 b6bd a364 ad3d
00000390: 02d5 dabd 1e90 21bb edf6 ec3c 3acd 24be
000003a0: c481 393e 2f31 273b 3f22 98bd 47f0 07bd
000003b0: af5d 503d f354 fd3c 82b7 da3d c582 ac3c
000003c0: 5b0a 7b3b 33e8 bf3c 30f0 44bd d82c 0dbc
000003d0: 846c 043e 71ee 7c3d 4120 c3bb 8f13 08be
000003e0: c341 74bc 23a2 30bd efe7 9bbd 0a22 8ebc
000003f0: f951 a1bc 9ef3 933a c03d 1cbe a4a9 de3a
