results/FoodTarget_imitation_6/AgentPlayer.onnx (onnx, 142754 bytes, 13 tensors)

action_model._discrete_distribution.branches.0.bias f4 [3]
000000 3d 4f e1 ba a3 81 87 b8 0e 51 77 3a
       -0.0017189753 -6.461448e-05 0.00094343803

action_model._discrete_distribution.branches.0.weight f4 [3, 128]
000000 50 a0 2a 3c a0 93 9f 3a 75 d2 77 b9 80 2a 7c bc
       0.010414198 0.0012174733 -0.00023634157 -0.015390992
000010 e0 27 7a 3c 89 32 e3 bb 04 4c 37 3c e2 7e fd 3b
       0.015268296 -0.0069335145 0.011187557 0.007736073
000020 9d c3 8c 3c ab a4 b7 3c ef 55 34 bc 97 ad 03 3c
       0.01718312 0.022417387 -0.011006816 0.0080369925
000030 35 40 9e bb 4c d7 e5 3b 46 3a a4 3a e9 61 a5 bb
       -0.0048294314 0.007014191 0.0012529574 -0.005047072
000040 d6 a9 1c bc 85 af b6 bc 79 d6 5d bb bb 1b 19 bb
       -0.009561976 -0.022300491 -0.003384976 -0.0023362476
000050 36 e8 bb 39 70 69 1c 3c c3 5d fc bb 7d ec ad 3b
       0.0003584043 0.009546623 -0.007701607 0.0053077326
000060 d4 09 99 3a c6 12 da 3b 78 f9 0f 3c 68 f4 f1 bb
       0.0011675903 0.00665507 0.008787505 -0.007383872
000070 45 ef 87 3b 4c 6d 9b bb 20 85 8c 3c 5e 94 c2 3b
       0.004148396 -0.004743254 0.017153323 0.005938097
000080 1d 4f 68 bc d6 e2 57 3c f1 d3 d5 3b 0f a9 67 3c
       -0.014179018 0.0131766405 0.0065255095 0.014139428
000090 0d 26 93 3b 5e 8a 0f bb a8 4c 05 3c c6 13 b1 3c
       0.00449062 -0.0021902542 0.008135952 0.021615874
0000a0 c8 e5 cd ba 10 7a 18 3b 80 69 03 bc 4f db 7d bc
       -0.0015708739 0.0023266114 -0.008020759 -0.015494182
0000b0 2d de 87 3b 56 33 9e bc 15 ac 13 3c 90 ac b8 3a
       0.0041463585 -0.019311588 0.0090131955 0.0014089514
0000c0 1a fc 45 bc 05 ce de 3b 96 79 64 bc 5d a8 72 bc
       -0.0120840315 0.006799462 -0.013945004 -0.014810649
0000d0 dc ab 5d bc 4a b5 1e 3b 83 64 c7 3b c6 6f a5 bc
       -0.013529744 0.0024216943 0.00608498 -0.0201949
0000e0 c5 94 d5 bb cb 93 9a ba 7a 1a 75 3b a9 81 b9 3b
       -0.006517979 -0.0011793313 0.0037399814 0.0056612086
0000f0 af a4 c3 ba 0a 95 ac bc b0 59 be bb 5a 63 45 bb
       -0.0014926399 -0.021067161 -0.0058090314 -0.0030119033
000100 f1 ce 05 3c 13 9e 39 bc 68 15 45 3c d0 40 73 3c
       0.008167014 -0.011329192 0.012029029 0.0148469955
000110 3c 34 6e 3c 1b 89 69 bc c8 77 dc bb ae 0e e3 3b
       0.014538821 -0.01425388 -0.006728146 0.00692924
000120 ae 1c cb bb aa 03 38 3c 22 b1 bd 3b 24 dd 52 3a
       -0.0061984872 0.011231342 0.005788938 0.0008043817
000130 21 a4 dc bb c3 5b 57 3b ec 18 24 bc b0 04 5e 3c
       -0.006733433 0.003286109 -0.010015707 0.013550922
000140 49 f1 6c 3c 42 b0 10 3c c4 5e 0e bc 34 f4 bb 3b
       0.014461824 0.008831086 -0.008689586 0.0057358984
000150 de 33 3b 3b f9 e1 a6 bb 56 6e 3d bb 66 90 13 bb
       0.002856485 -0.005092856 -0.0028904877 -0.0022516488
000160 b8 0b f8 bb cc 6a 14 bc d1 34 5d bb d2 b4 f4 bb
       -0.0075697564 -0.0090586655 -0.0033753405 -0.0074678445
000170 b3 ff e5 3b 58 12 64 3c 0a 28 a2 3b f3 aa 17 bb
       0.007019007 0.013920389 0.0049486207 -0.0023142665
000180 93 30 9d 3c 6c ae 43 bb fb d2 c2 3a 16 f2 bb 3b
       0.019188201 -0.0029858602 0.0014863902 0.005735646
000190 95 7d 31 bc bf 23 dc 3c 4c 68 61 ba 90 0e a4 3a
       -0.010833164 0.026872514 -0.00085986103 0.0012516547
0001a0 c9 89 40 bc 73 10 34 b9 ad 63 e8 bb 93 91 9b 3c
       -0.011751601 -0.00017172266 -0.0070919604 0.018990314
0001b0 94 cb 20 3c 9c 59 b0 3b 37 7a fd 3b 59 0d 5d 3c
       0.009814162 0.005381776 0.0077355164 0.013491952
0001c0 57 3b 33 bc f1 63 44 bb f2 c2 9b bb 43 7d bd bb
       -0.010939441 -0.0029966796 -0.004753464 -0.0057827546
0001d0 24 26 fe bb dc a8 da ba 0d c5 dc 3b 81 17 8a bb
       -0.0077560116 -0.0016682404 0.0067373575 -0.0042142277
0001e0 05 e6 6a bb a7 f6 72 3b 3c ce 04 bc cb 36 cc 3b
       -0.0035842669 0.0037073286 -0.008105811 0.006232118
0001f0 db b6 89 3b 89 5a e6 3b 4d 81 14 3c 67 d7 92 3c
       0.0042027063 0.0070298356 0.009064031 0.017924977
000200 c1 b2 d7 3b ee 42 c5 bb 1c 33 87 3b 8d a6 6c bc
       0.0065825884 -0.0060199415 0.0041259658 -0.014444006
000210 b8 21 35 bc 5d 4f 1d 3b aa 27 bd 3c 48 53 a8 bb
       -0.011055402 0.0024003603 0.023090202 -0.005136881
000220 13 f0 f5 ba 0c ff 49 bc 10 02 4a 3c b1 c4 7e 3c
       -0.0018763564 -0.012328874 0.012329593 0.015549825
000230 8f 9c 1b bc f3 c2 e7 bb 13 28 a0 3a b6 17 19 bc
       -0.009497776 -0.0070728003 0.0012218974 -0.009344032
000240 75 1a 1a bc 02 58 40 3a 24 62 93 3c 26 ac 64 bc
       -0.009405722 0.0007337333 0.017991133 -0.013957059
000250 ae d4 5d bc b5 f9 1f 3c 0e de 14 bc 1c 1a 41 bc
       -0.013539476 0.009764125 -0.009086145 -0.01178601
000260 5e 13 8a 3b 51 d7 6e 3b c2 b1 96 3b 71 4c e7 bb
       0.0042137345 0.0036444257 0.004598827 -0.007058673
000270 37 1c 7a 3c 13 c0 03 3b a7 40 b9 3b da 5f 6b 3c
       0.015265516 0.0020103499 0.005653459 0.0143661145
000280 8a 2c 8c bc 5b dc f7 bb a0 3d 8d 3b 3b ba bf ba
       -0.017111082 -0.00756411 0.004310325 -0.0014627645
000290 97 de ad bb 48 82 45 3b 18 e6 70 bc 4f 2f 98 bb
       -0.005306076 0.0030137468 -0.014703296 -0.0046443115
0002a0 6e ec 39 3b c5 36 7a 3b 7e 94 35 3c 32 bd 5b 3c
       0.0028369683 0.0038179618 0.011082767 0.013411807
0002b0 89 f8 00 3c 22 e0 cd 3b b4 55 ca bb 93 4b 80 3b
       0.007871755 0.006282822 -0.0061747674 0.003915259
0002c0 42 2e 19 3b a9 8d 40 bc 5a 60 4e ba 3e b6 95 bc
       0.002337352 -0.011752524 -0.0007872634 -0.018275376
0002d0 be 32 2f bc 4f 3e 03 bc e6 ba 9b 3b db 54 8b ba
       -0.01069325 -0.008010461 0.0047525046 -0.0010630147
0002e0 65 65 d6 3a 67 40 56 bb 00 fb d3 3a f1 fa 89 bc
       0.0016357122 -0.0032692195 0.0016172826 -0.016843291
0002f0 3b 36 65 3c a7 fd 17 3c 9c 9e eb 3c 84 50 1f 3c
       0.01398998 0.009276784 0.028762154 0.009723786
000300 f3 8a ca 3a 0f 4e 33 3b 65 1b 01 3c d2 d8 94 bc
       0.0015452787 0.002735976 0.0078800665 -0.018169794
000310 ea 4a 03 3c 61 0b b4 3b ad 7d a7 3b 6b e9 73 3b
       0.008013466 0.0054945205 0.0051114173 0.0037217985
000320 ca 48 3f 3c a0 f5 ce 3b 55 2e ab bb 2d a0 d4 3b
       0.011675069 0.006315902 -0.005224029 0.006488821
000330 32 06 25 3c b4 02 c1 3a 30 05 3f bb 67 12 c1 3b
       0.010072278 0.0014725537 -0.002914738 0.0058920863
000340 81 e0 b4 bb ba d4 96 bc 2e 41 85 bc e6 0e 34 3c
       -0.005519927 -0.018411983 -0.016266432 0.01098988
000350 8c 33 3e 3b 10 24 bf bc 4c 5c 98 3c 32 52 d5 3b
       0.0029022424 -0.023332626 0.018598698 0.0065100426
000360 80 46 76 3b 4a f1 2e 3b 46 79 84 3b db ab a4 bb
       0.0037578642 0.0026694112 0.004042777 -0.0050253696
000370 da e1 a6 3a 28 3c 69 bc 77 0f 9e 3c 22 5b 03 ba
       0.0012732104 -0.014235534 0.019294484 -0.0005010833
000380 57 fb 59 bc 7f ad 49 3c 09 0e cc 3a 9a b3 1b 3c
       -0.013304553 0.012309431 0.0015568148 0.00950327
000390 8a cb 35 3c 61 46 8b 3b 9c 35 d7 ba 01 15 0f 3b
       0.011095891 0.004250333 -0.0016419175 0.0021832588
0003a0 c2 8a 2e bc f2 40 f2 3a 73 6e f5 ba 4b 7b e2 bb
       -0.0106532 0.001848249 -0.0018724933 -0.0069116703
0003b0 bf f5 87 bc bf 9a bb ba 6b 1c 3f bc 12 c6 cb 3b
       -0.016596673 -0.0014313086 -0.01166449 0.00621868
0003c0 fa 1c 2a bb 0f 24 fc 3a a8 ac ec bc ff 87 79 bc
       -0.0025957213 0.001923682 -0.028890923 -0.015230178
0003d0 b0 a4 b3 bb 3e e3 6e bb d5 ac 99 3b 9b aa f3 3b
       -0.0054822788 -0.0036451365 0.0046897926 0.0074361092
0003e0 0c 35 98 3c 44 56 62 3a b7 e6 8a 3b 27 08 7c 3a
       0.018579982 0.00086340704 0.004238929 0.0009614252
0003f0 6d 69 ed 3b c8 07 0a 3c f6 ff f4 bb 65 9b 9e bb
       0.0072452337 0.008424707 -0.007476802 -0.004840302

action_model._discrete_distribution.branches.1.bias f4 [3]
000000 fd 51 f8 ba 21 b5 81 3b 49 63 76 ba
       -0.0018945333 0.00395836 -0.000939895

action_model._discrete_distribution.branches.1.weight f4 [3, 128]
000000 9c b9 83 3a a8 4d 4c bc a0 92 73 bb 68 f9 3f 3b
       0.0010049823 -0.012469687 -0.0037166253 0.0029292945
000010 89 86 aa ba 74 4c 88 3c c2 7e 3a bb 81 d6 2c 3c
       -0.0013010065 0.016638018 -0.0028456901 0.010549189
000020 e0 c1 8b 3b 3c b0 d5 bb 9a ab 18 bc 40 65 bf ba
       0.004265055 -0.006521253 -0.009318257 -0.0014602318
000030 1a 21 56 bc 1e db 56 bb c7 08 56 bc 91 82 01 bb
       -0.013069415 -0.0032784413 -0.013063616 -0.0019761662
000040 b5 f7 7c bb 91 3c ba 3b fd a6 46 3b 91 51 de 3a
       -0.0038599793 0.0056834896 0.0030311935 0.0016961565
000050 da e8 dc 3b ac 14 38 3c b8 cd 18 bb f1 4a 71 3c
       0.0067416253 0.011235397 -0.0023315977 0.01472734
000060 65 62 84 3b 52 46 d4 bb 86 df 17 bc 9c 6d 19 3c
       0.00404005 -0.0064781094 -0.009269601 0.009364512
000070 ca 49 77 3a 04 3f a6 3c 7e 52 6b 3b c7 26 3a bc
       0.00094332977 0.02029372 0.0035907323 -0.011361784
000080 12 a9 e8 bb 2d 3f 73 3b 1e 67 7f bc 57 d0 b4 3b
       -0.007100233 0.0037116513 -0.01558855 0.005518
000090 a9 ca 36 3c 4a 35 c6 bb c0 4d db 3b 86 2c d1 3b
       0.011156716 -0.006048833 0.006692618 0.0063834814
0000a0 ea 68 c6 bb 53 17 9d 3b c9 89 22 3b c8 ed ca bb
       -0.006054987 0.00479404 0.0024801365 -0.0061928965
0000b0 17 dd ed 3b c0 b2 22 bb 8c 31 35 bc 0f cf 86 3c
       0.007259022 -0.0024825782 -0.011059176 0.016456155
0000c0 f8 51 2f bc 5f da 40 3c a8 35 54 39 50 31 a6 ba
       -0.010700695 0.011770814 0.00020237884 -0.0012679491
0000d0 c4 20 62 bc 57 63 12 bc c6 c8 99 3b 9a e6 3a ba
       -0.013801757 -0.008934817 0.0046931235 -0.0007129699
0000e0 f5 4a 05 bb 42 c6 20 3c ee d7 fe bb e1 e2 04 bc
       -0.0020338867 0.009812893 -0.0077772057 -0.008110733
0000f0 ee 5c 35 ba b9 1c c3 bc 1e 1e c4 3b c8 ad 03 3c
       -0.00069184497 -0.023817407 0.0059850356 0.008037038
000100 56 36 8b bc 9f a6 8e 39 69 62 4c bb bc 2c 26 bc
       -0.016993683 0.00027208493 -0.0031186587 -0.010142501
000110 31 c1 0a ba e4 97 d6 bb f1 b6 d0 bb 38 df 01 3c
       -0.000529307 -0.0065488685 -0.0063694646 0.007926755
000120 5d 16 02 bc e9 70 ce 3b 9d ef fc bb fb 9b cb 3b
       -0.007939902 0.006300081 -0.007718994 0.0062136627
000130 58 61 dd ba 6f 58 21 3c b1 d5 8d bb 91 2a 87 bb
       -0.0016889973 0.009847744 -0.0043284525 -0.0041249474
000140 ef 61 28 bc 5f e0 1b 3c b0 6b a2 3b 8b f1 2b ba
       -0.010277255 0.009513943 0.004956685 -0.0006559125
000150 e5 a2 17 bb f1 f1 3e bc e3 b7 97 bc 7c 8d 6b bc
       -0.0023137864 -0.011654363 -0.018520301 -0.014376994
000160 d0 e2 0e 3c 85 d5 fd b9 51 80 68 3b f2 61 9c bb
       0.0087210685 -0.00048415005 0.0035476873 -0.004772418
000170 d1 4c 83 3b c4 da 44 3b da 89 a0 bc ad 0a 01 3b
       0.00400696 0.003003762 -0.019596983 0.00196902
000180 b2 89 29 3c 9e 9d 0f ba e0 93 6a bb d6 d4 46 3c
       0.0103477705 -0.0005478504 -0.0035793707 0.012135705
000190 d1 f7 ab 3a ea 96 3a bb 1f 6e 9c 3c 53 45 90 bc
       0.001312012 -0.00284713 0.019095479 -0.017611181
0001a0 0b 02 93 3c 74 fe 58 bc 77 62 5d 3c 58 25 35 3c
       0.01794531 -0.01324426 0.013512245 0.011056267
0001b0 36 c0 a6 3b d4 47 6c ba bb 3c 4b 3c fe dc 38 bc
       0.0050888313 -0.0009013389 0.012404616 -0.011283157
0001c0 62 6e 82 3c 2d f4 44 3a c9 7f 6f ba 60 f9 07 bc
       0.015921775 0.00075131917 -0.0009136168 -0.008299202
0001d0 39 8b a7 bb 0c 8e 00 3c 9b 2b e4 bb e9 30 dc bb
       -0.005113032 0.007846367 -0.006963206 -0.0067196977
0001e0 44 79 c2 bb e6 b0 1b bc 25 03 dc b9 d2 3a cc 3b
       -0.005934866 -0.009502625 -0.00041964013 0.006232598
0001f0 4d 36 25 3c 20 37 3e 3c f2 a8 61 bb 71 b1 c5 ba
       0.010083747 0.0116098225 -0.0034432975 -0.0015082789
000200 29 4b 95 ba 1d a5 da 3b e7 8d 4d 3b c3 cc 07 bc
       -0.0011390197 0.006672515 0.0031365098 -0.008288565
000210 20 d3 c7 3b 75 77 1f bb 89 65 15 bc ec af 0e 3c
       0.006098166 -0.0024332677 -0.009118446 0.008708935
000220 99 6f 90 3b 9c 70 1f bc ed d0 e5 3c fa e8 7f 3b
       0.0044078347 -0.009731438 0.028053725 0.0039048777
000230 ce d1 b5 3b 94 fc cd bb c4 81 65 bc 47 15 97 3a
       0.0055486923 -0.006286213 -0.014007989 0.0011526727
000240 34 90 0e 3c 5d 35 d9 bb 3f 61 b5 3c b8 38 d5 bb
       0.008701373 -0.006628676 0.022141097 -0.0065070055
000250 66 ca 31 bc 25 de 87 3c fd 41 44 3c 0e 3d 5c bc
       -0.010851478 0.016585419 0.011978623 -0.013442291
000260 23 25 94 b9 58 80 bf 3a d6 95 29 3c aa c8 73 bc
       -0.0002825643 0.0014610393 0.010350665 -0.014879385
000270 5d 59 8b bb 15 b6 81 bc 11 c7 7a bc 8b 71 16 3c
       -0.0042525963 -0.015833894 -0.01530625 0.009182344
000280 b2 58 06 ba fb f9 a2 3c 81 a2 7e 3c 29 fc 69 bc
       -0.0005124911 0.01989459 0.015541674 -0.014281311
000290 e7 30 98 3a bf f9 13 3b 80 65 07 bc 7c 45 a4 bb
       0.0011611254 0.002257928 -0.008263946 -0.005013166
0002a0 0c 68 f7 bb 41 46 b2 bb ee b4 03 3c ff 06 e9 3b
       -0.007550245 -0.005440504 0.0080387425 0.0071114297
0002b0 d7 d2 f8 bb a2 00 3f bc 80 4b 0f bb c2 02 94 b9
       -0.0075934934 -0.011657866 -0.002186507 -0.00028230814
0002c0 22 bc 0d 3c 49 67 5c bc 57 af 14 3a af 4b 05 bc
       0.008650811 -0.0134523595 0.00056718796 -0.00813572
0002d0 ab 52 c2 bb 07 d4 fa 3b 6c 8a 84 3c 2d 49 8d bb
       -0.005930265 0.00765467 0.016179286 -0.0043117017
0002e0 c7 54 62 39 9d 17 59 bb 8b 59 1a bc b6 21 3d 3c
       0.00021584622 -0.0033125647 -0.009420763 0.011543682
0002f0 16 ab 0c 3b c1 c6 8c 3b 2d e2 30 bb d7 91 f3 3a
       0.002146428 0.0042961542 -0.002699028 0.0018582892
000300 91 f9 fd ba c2 16 ae 3a 46 13 25 bc f7 d5 84 bc
       -0.0019376745 0.0013281929 -0.010075396 -0.016215308
000310 9f c2 ba ba 38 6c 64 3c 2d 66 88 ba 77 93 19 3c
       -0.0014248675 0.013941817 -0.0010406427 0.009373537
000320 55 e0 85 3b c2 61 d6 bb e4 43 b2 bb 9c f5 30 bb
       0.0040855804 -0.0065424154 -0.005440222 -0.0027001863
000330 b8 fa 70 bc d9 be 38 3c b4 d4 34 3a d8 69 8e 3c
       -0.0147082135 0.01127597 0.00068981503 0.017384455
000340 e4 50 78 3b 28 6e fd bb 9a 63 bf b9 98 62 9e 39
       0.0037890011 -0.007734079 -0.00036504568 0.00030209566
000350 37 62 95 bb 95 d9 05 3c a2 5f fa 3b 1c be 87 ba
       -0.0045588273 0.008169551 0.007640795 -0.001035634
000360 58 59 79 bc 8a 76 1d 3c 7e f1 69 bc 1e 8e c9 3b
       -0.015219055 0.009610781 -0.014278768 0.006150975
000370 32 a3 9f bc 78 b2 ca ba fd 23 0c 3c 11 5e 17 bc
       -0.019486997 -0.0015464565 0.008553502 -0.009238736
000380 ab bc af 3c fa 25 13 bb f0 8d 22 3a 4a 34 8f 3b
       0.021452269 -0.0022453056 0.000620096 0.004370247
000390 38 15 f0 ba 8d 87 dc bb 64 9b 97 3a fd d9 57 ba
       -0.001831687 -0.006730026 0.0011566696 -0.0008234082
0003a0 7f 01 63 bc 60 70 29 3c 0b 1d 42 ba 70 33 2d bb
       -0.013855337 0.010341734 -0.00074048404 -0.0026428364
0003b0 37 d0 5b bc 23 5a 92 ba b9 55 a8 bb b6 d4 a2 3b
       -0.0134163415 -0.0011165779 -0.005137172 0.004969205
0003c0 7c 3d 2f bc b1 0e 1a 3a 1c 05 98 bc 80 c2 3f 3c
       -0.010695811 0.0005876823 -0.018557124 0.011704087
0003d0 cd 52 ad bb fd 28 dd 3b a6 fa 60 bc a2 95 97 3c
       -0.0052894116 0.006749271 -0.013731634 0.018503968
0003e0 7c d9 8d 3b 25 05 9e 3c 64 80 9b 3a 29 c4 95 bc
       0.0043289047 0.019289562 0.0011863825 -0.018282013
0003f0 4d 63 02 bb f3 70 9a bc 88 2d 4a 3c e0 61 76 bc
       -0.0019895614 -0.018852687 0.012339957 -0.015037984

action_model._discrete_distribution.branches.2.bias f4 [3]
000000 38 5b 04 bb e4 60 86 3b 75 21 f7 ba
       -0.0020195972 0.0041009057 -0.0018854575

action_model._discrete_distribution.branches.2.weight f4 [3, 128]
000000 10 ad 16 3c 48 6f 93 bb 45 17 52 bb b0 40 12 bb
       0.009196535 -0.0044993497 -0.0032057327 -0.0022316389
000010 49 4e fd ba a3 a9 3e bb 89 a0 b2 3b c3 af 04 bc
       -0.0019325699 -0.002909281 0.005451266 -0.0080985455
000020 da 2f eb 3a 77 89 86 3b 6e 07 9c b8 42 69 3d bb
       0.0017943338 0.0041057426 -7.4400436e-05 -0.002890185
000030 b1 91 95 3b 4a 42 79 bc 42 ca 17 bc 5a 7c 7a b9
       0.004564487 -0.015213558 -0.009264531 -0.00023888182
000040 1c 80 c7 bb 82 05 17 bc 36 4b 6f bb c4 c9 35 ba
       -0.00608827 -0.009217622 -0.0036513335 -0.00069346675
000050 69 c6 69 3c 72 fb 0a 3c 8b 23 0a bc 3a 64 ac bc
       0.014268496 0.008482801 -0.008431326 -0.021043885
000060 c7 ac a2 3c 38 71 3d 3c ad 8d 51 3c 9e a2 10 bc
       0.019857777 0.011562638 0.012790126 -0.008827833
000070 f9 90 af bb df 43 ef 3a 14 46 42 bc 38 b4 81 bb
       -0.0053578583 0.001825448 -0.011857528 -0.0039582513
000080 2e 14 e6 ba 1d 5f 96 ba 2e a0 bb ba 6b 56 07 ba
       -0.0017553621 -0.0011472438 -0.0014314705 -0.00051627186
000090 27 d3 2a bc 6b 2b 44 bb 44 31 ad 3c e1 dd 02 3c
       -0.010426319 -0.0029933106 0.021141656 0.00798747
0000a0 fc 78 d8 bb 8d 01 a6 bb dd cd 1b 3c 23 4f 0b bc
       -0.0066062193 -0.005066103 0.009509531 -0.008502754
0000b0 98 d7 80 ba 3f 0f 03 bc 5b bf e6 3b f9 2e f7 3b
       -0.0009829877 -0.00799924 0.0070418543 0.0075434414
0000c0 44 b9 44 3b 65 0b 90 bb 41 f7 c0 3b ab b9 a8 bb
       0.0030017653 -0.0043958896 0.00588885 -0.0051490865
0000d0 cc 6f f1 3c 19 87 49 bc 72 5e ca 3a 1e a7 65 bb
       0.029472254 -0.012300276 0.0015439524 -0.0035042237
0000e0 d7 92 75 bc a2 c7 0d 3b ee 14 d3 3b 7b 9f 04 3c
       -0.014988623 0.0021633883 0.006441704 0.008094664
0000f0 f7 90 44 3b 5a b2 39 3c de 9b 77 3c 33 6f 0a 3c
       0.0029993632 0.011334026 0.015112845 0.0084493635
000100 cd 08 ea bb 9b 9e d7 bb e4 d2 2d 3c 37 4b d5 ba
       -0.0071421624 -0.0065801865 0.010609362 -0.0016273026
000110 2a c6 d1 bb 4b b3 94 3b 99 b8 a7 bc 91 bd 04 3b
       -0.006401797 0.004537975 -0.020473765 0.0020254592
000120 91 7b 13 3c 62 77 0a 3d 7a c3 de 3b 20 ae c8 bb
       0.0090016285 0.03380526 0.006798205 -0.006124273
000130 1a 0e 1b bc 6a af 77 3b 86 de 2e 3c 7c f8 1c 3b
       -0.009463811 0.0037793764 0.010673171 0.002395182
000140 4a 10 bf bb 93 39 11 bc f0 07 6d bb 45 8c 3d ba
       -0.005830799 -0.008863824 -0.0036168061 -0.00072306796
000150 df 78 13 3c e3 be 96 3b d0 95 60 bc 0c b5 d8 3a
       0.009000986 0.004600392 -0.013707593 0.0016533448
000160 b9 1f 75 3c 6f c9 bb 3b 97 17 fc ba 1b 04 da bb
       0.014961177 0.0057308 -0.0019233105 -0.0066533214
000170 82 f5 76 ba 23 ab 70 bc e5 d4 99 3a 3a 6a e3 bc
       -0.0009420739 -0.01468924 0.0011736421 -0.027760614
000180 5c e2 91 3b 57 b0 f9 3a b8 64 cc bb 15 43 70 3c
       0.004452033 0.0019049746 -0.0062375925 0.014664431
000190 98 19 7f ba 61 38 9b 3a dc da 3b 3c fe 30 f3 bb
       -0.0009731292 0.0011842364 0.011465754 -0.007421612
0001a0 71 bc 66 3c fe de c3 bb ec 93 12 3c 0a 88 f6 3a
       0.014083014 -0.0059775105 0.0089464 0.0018808853
0001b0 2b 83 98 3c 33 de 1c bc a8 89 69 3c fa b4 e7 3b
       0.018617233 -0.009574461 0.014254011 0.0070711346
0001c0 78 91 a6 ba bb 3e 1f bb 38 f1 62 3b fd 99 94 bb
       -0.0012708148 -0.0024298865 0.003462864 -0.0045349584
0001d0 e6 92 e8 bb 36 70 af bc bc 23 28 bc 5c 16 94 ba
       -0.00709759 -0.021415811 -0.010262426 -0.0011298168
0001e0 ff 83 09 bb a4 06 5f 3b 71 57 29 3b 93 8d 55 bc
       -0.0020983217 0.0034031058 0.0025839473 -0.013034242
0001f0 99 5f 34 3b f9 0f 41 bb dd a3 5e 3b 09 75 c0 3a
       0.00275228 -0.0029458983 0.0033972182 0.0014683317
000200 44 0d 23 3c ba 25 3c bc 65 99 b4 b9 b3 1f cd 3a
       0.009951893 -0.011483604 -0.00034446563 0.0015649706
000210 4a 5b bb 3b 5e 02 9f 3a 08 dd a2 3b cc ba af 3b
       0.0057176696 0.0012131443 0.0049701966 0.005362844
000220 bb b2 5a 3b 1e 01 dd 3c f6 aa 4d 3b bf 98 c2 bb
       0.0033370692 0.026978072 0.0031382418 -0.005938619
000230 05 44 53 bc 7a 54 f8 3b ce d9 d9 bb 85 16 2f 3c
       -0.012894635 0.0075784298 -0.006648279 0.010686521
000240 64 a1 02 bd 1f 9e ae bb ad 1c 38 bc 7a 9f 46 3c
       -0.031892195 -0.005328908 -0.011237306 0.012122983
000250 0d c6 6b bb 4a 63 a4 bb e3 2e b3 3b 16 53 41 bb
       -0.0035976202 -0.005016719 0.005468236 -0.0029498986
000260 62 e3 db 3a 27 34 a7 3b d9 f1 83 bb 9b aa b0 3b
       0.0016776139 0.0051026526 -0.004026633 0.0053914315
000270 06 db 7f bb 3e 2d 4d 3c 77 2b 48 bc 8b 08 40 3b
       -0.003904046 0.012522994 -0.012217394 0.0029301967
000280 a6 b0 36 ba 99 8d cd 3b 15 fd 92 3a 85 fa 20 3a
       -0.00069690717 0.0062729833 0.001121434 0.0006140846
000290 13 fa 13 3c a8 04 5f bc aa a4 97 bb 3e 64 83 3b
       0.00903179 -0.01361195 -0.004627784 0.0040097525
0002a0 a6 5f 72 bc 32 a1 09 bc c2 40 27 bb 91 81 43 ba
       -0.014793312 -0.008400248 -0.0025520776 -0.00074579666
0002b0 9c 9f d6 bb 6d 0e 26 bc 62 dc 6b 3c d4 bd 47 bc
       -0.0065497886 -0.010135275 0.014395805 -0.012191255
0002c0 26 bc 6e bb 15 71 18 3b 96 95 d3 3a 37 fd 33 3c
       -0.0036428063 0.0023260762 0.0016142603 0.010985664
0002d0 7b d6 4d bc cf 40 79 3c d2 47 a5 bb 13 a5 dc ba
       -0.012563343 0.0152132055 -0.005043962 -0.0016833864
0002e0 01 1b 3b bb 43 83 05 ba 80 02 27 3c 7b 73 40 3b
       -0.002855003 -0.0005093107 0.010193467 0.0029365707
0002f0 96 fe f9 3b aa 7c fd ba 6d 43 03 bb 86 ca 6f bc
       0.007629226 -0.0019339521 -0.0020029203 -0.014635688
000300 5d a8 cc 3b 2e a1 86 ba a6 75 11 3b dc d1 fc 3a
       0.0062456564 -0.0010271424 0.0022195368 0.0019288617
000310 a0 07 71 bc 07 12 20 bc 2e 2b 02 bc f0 cc 9d 3b
       -0.014711291 -0.009769923 -0.007944865 0.00481569
000320 03 cc ad bb 9c ae a4 bc 01 12 9c 3b af 1b 92 bb
       -0.005303861 -0.020102791 0.0047628884 -0.0044588665
000330 41 4b 78 b9 b3 ac ab 3b b2 e9 bd 3a c1 e8 0b bb
       -0.00023679157 0.005239093 0.0014489202 -0.002134845
000340 1f 75 d4 bb a1 60 c8 bb 1e ee b2 bb 6e 21 09 3c
       -0.0064836885 -0.0061150347 -0.0054605147 0.008369787
000350 dc d1 4c bc ce 0c 0f 3c 0c 71 95 3b aa 67 7c 3b
       -0.012501206 0.00873108 0.0045605954 0.0038513937
000360 ce 24 e7 ba 26 40 9b bb 44 77 07 3b 5a 87 2b 3a
       -0.001763487 -0.0047378717 0.0020670453 0.0006543301
000370 82 3e 54 3c e3 42 7b bb 10 84 86 bb 5b 2d 37 3b
       0.012954356 -0.0038339428 -0.0041050985 0.0027950618
000380 97 7e cd bb 31 72 7a 3a ba c6 39 bc 07 cc e2 ba
       -0.006271194 0.0009553759 -0.011338884 -0.0017303237
000390 81 69 47 bc 45 32 8b bb 2f e0 a2 bb 3c b4 0c bc
       -0.01217115 -0.004247936 -0.0049705724 -0.008587893
0003a0 be 8a 63 bc 18 13 34 3c e9 fb 28 3c a9 eb 90 bb
       -0.013888059 0.01099088 0.010313966 -0.004422624
0003b0 5f 5c b4 bb a3 0c ae 39 4b 54 92 3b 7e ff a8 bb
       -0.0055041756 0.0003319728 0.004465615 -0.00515741
0003c0 7e ed 8d bb b8 8d 2c bc 7f 31 08 ba 6a 1c df bb
       -0.00433129 -0.010531835 -0.0005195364 -0.006808807
0003d0 ba e8 73 bb b8 fd bc 3a 15 35 3c bc 10 9d bc 3b
       -0.0037217573 0.0014418876 -0.011487265 0.005756028
0003e0 7d 3c cf 3b 64 3a 13 bb 42 8d b7 3c 83 5d c8 3b
       0.0063243494 -0.0022465223 0.022406224 0.006114663
0003f0 a4 d0 97 3b 04 bf 1a 3c ae 6b d5 bb e5 72 c8 bb
       0.004633026 0.009444956 -0.0065130806 -0.006117212

action_model._discrete_distribution.branches.3.bias f4 [3]
000000 2c 4a f4 3a 54 25 70 ba 94 78 23 ba
       0.0018637828 -0.0009160836 -0.0006235924

action_model._discrete_distribution.branches.3.weight f4 [3, 128]
000000 f0 9c 98 3b 8c 62 79 3c 70 5b 65 bb 57 60 15 3c
       0.0046573803 0.015221249 -0.0034997128 0.0091172075
000010 29 b7 82 3c a0 ac 5d bc 46 20 91 3c a6 e6 4a bc
       0.015956478 -0.013529927 0.017715584 -0.012384092
000020 b3 7c 22 bb 84 be ad 3c 9c 0b 5d 3b 6a 33 bd ba
       -0.0024793565 0.021209009 0.0033728844 -0.0014434878
000030 cd fc 62 3c 22 6b f5 ba 8b ef aa bb 58 f2 83 3c
       0.013854218 -0.0018723945 -0.005216544 0.01610677
000040 e4 04 af bb bb 00 1e 3c 6c 7b a0 3a 03 7b cc 3b
       -0.005341159 0.009643729 0.0012243814 0.00624025
000050 cd ec e2 3b 50 4b ea bc be 53 22 3c 89 07 7c 3c
       0.0069252015 -0.028600365 0.009907661 0.015382656
000060 df aa 1f bc 8a ba 64 bb 5e 75 b9 bb 5b 6e 49 3c
       -0.009745329 -0.0034901225 -0.005659743 0.012294377
000070 e6 97 38 bc 49 cb 67 3c 31 00 cc ba 7c ac 02 3c
       -0.011266684 0.014147588 -0.0015564022 0.007975694
000080 a1 10 00 3c 51 7f 69 bc 68 ce ba 3c 86 47 b6 3b
       0.007816465 -0.014251546 0.0228035 0.0055627255
000090 60 54 0f bc 4c b7 c6 3b 11 b7 e8 3a c2 54 be b9
       -0.008748144 0.006064331 0.0017754753 -0.00036302774
0000a0 13 e5 ac 3c b1 0f 9b ba 2a 27 06 bc b6 f4 0c bc
       0.021105325 -0.0011830238 -0.008188048 -0.0086032655
0000b0 69 a1 21 bc 43 6d 37 3b 9e 2b 79 3b c4 28 8b 3a
       -0.009865143 0.002798871 0.0038020383 0.0010617008
0000c0 a7 aa 7d 3c bb 87 bb bc b6 aa ee bb 18 b3 3b 3b
       0.015482581 -0.02289187 -0.007283534 0.0028640684
0000d0 9b 6c 80 3b 2a e5 93 bc 58 12 90 3b f8 34 27 bc
       0.003919197 -0.01805361 0.004396718 -0.0102055
0000e0 e7 f3 be 39 6a f8 24 3b 01 ce 09 bc de 78 16 bc
       0.00036421345 0.002517248 -0.008410932 -0.00918409
0000f0 b8 a9 7d bc 23 62 e5 bb e0 d4 4b bc 22 cc ef 3b
       -0.015482359 -0.007000224 -0.01244089 0.0073180357
000100 7e f7 b0 bb c4 a3 2e bb a3 31 73 bb 6b 03 ea bb
       -0.005400597 -0.0026647905 -0.0037108443 -0.0071415207
000110 eb 96 ab 3a e1 c4 d3 bb 2d 66 a0 3b 47 89 20 3c
       0.0013091242 -0.006462679 0.004894993 0.0097983545
000120 65 40 49 bb 4c 44 29 3a dc 8d 4f bb e6 62 18 bc
       -0.0030708548 0.00064570154 -0.0031670248 -0.009300923
000130 98 93 36 bc 1f e2 85 bc a3 09 ec 3b cc 8f a5 3c
       -0.0111435875 -0.016343175 0.007203297 0.02021017
000140 9e b9 0b bc 78 51 5f bb 6a 06 80 3c 6a f1 80 3b
       -0.008528141 -0.0034075659 0.015628058 0.003935029
000150 c6 cb 73 bb ec 92 72 39 e7 54 bd bb 5f d1 5d bc
       -0.0037200316 0.00023133651 -0.0057779434 -0.0135386875
000160 75 98 49 bb 12 c5 f6 bb c4 3a 4f 3c 27 4e c2 3b
       -0.0030761037 -0.007530817 0.012648288 0.0059297266
000170 1e c1 97 3c 1b 35 16 3c 2f 60 32 bc 97 97 de bb
       0.018524703 0.009167935 -0.01088719 -0.0067929733
000180 54 4e d6 3c db 4c 56 3b 32 89 19 bb f2 31 39 3c
       0.026160397 0.0032699618 -0.0023427722 0.011303412
000190 56 f4 5c 3c 6c c5 6d bc 6a 08 51 bc f4 da b4 bb
       0.013485989 -0.014512401 -0.012758354 -0.0055192653
0001a0 44 74 b3 bb 59 54 16 bc ab 2f 78 3a 1d cf 19 bc
       -0.0054765064 -0.0091753835 0.00094675523 -0.009387759
0001b0 d8 7f 23 3c 73 a8 7d 3c b4 89 65 3b cf 45 36 3b
       0.009979211 0.015482056 0.0035024704 0.0027812605
0001c0 50 39 dd bb f3 6a 3d bc 7d 34 f5 3b 48 3a 86 3c
       -0.006751217 -0.011561143 0.0074830637 0.016385213
0001d0 a9 dd 79 3b f8 9e 21 3a e2 4c 90 bb 9f 21 4a 3c
       0.0038126505 0.0006165351 -0.0044036964 0.012337117
0001e0 33 63 3c bc f6 16 6f 3c fa 3c 60 3b 7b fd 3f bb
       -0.01149826 0.014592877 0.0034216032 -0.0029295373
0001f0 7b eb 35 3c 78 b9 42 bb c6 92 12 3c d9 63 26 39
       0.011103506 -0.0029712599 0.008946126 0.0001586819
000200 f3 25 5a 3b 73 5f 36 3b b0 c0 97 bb 8d 65 bb ba
       0.003328678 0.0027827888 -0.0046311244 -0.0014297232
000210 76 75 c6 3b 2e 3c a9 3b e4 eb c9 3b f3 91 27 3c
       0.006056483 0.0051646447 0.0061621536 0.010227668
000220 43 dd 34 3b f5 e4 b6 bb 3d 74 3e ba 84 63 a4 3b
       0.0027597703 -0.005581493 -0.00072652457 0.005016746
000230 3a 19 d8 ba fc 5e 42 3c 6e 2f 78 ba 17 61 46 bc
       -0.001648701 0.011863466 -0.0009467517 -0.012108109
000240 21 49 b0 bb b0 d7 1d bc 11 0a 7f 3b c7 d5 05 bd
       -0.0053798114 -0.009633943 0.0038915912 -0.032674577
000250 42 fe f7 3b 06 d9 49 bc 7b 6c cb b9 fd 61 38 bc
       0.0075681517 -0.012319809 -0.00038800001 -0.011253831
000260 0d 58 9e bb a8 60 1e 3b bf a1 aa bb 9a 8c 81 bb
       -0.004832274 0.0024166498 -0.00520727 -0.0039535286
000270 83 b6 1d 3c 6e d3 e3 3a 2c 19 c6 bc aa 7f 7d 3b
       0.009626034 0.0017381737 -0.024181925 0.003868083
000280 4a d4 21 bc ed 5d 39 bc 68 3f bc bb 9b 11 54 b6
       -0.009877274 -0.011313898 -0.0057448633 -3.160071e-06
000290 66 b4 05 3c 80 ed c8 bb 86 29 be 3b 74 dc 58 3b
       0.008160686 -0.006131828 0.00580329 0.0033090385
0002a0 ad 7d 1e bc bb 2a 77 bb 89 1d 09 3b f6 c1 e7 ba
       -0.009673518 -0.0037714678 0.0020922145 -0.0017681706
0002b0 39 35 8f 3b 88 b3 ba 3c 10 22 f7 bb 35 5d a2 bb
       0.0043703583 0.022790685 -0.0075419024 -0.004954959
0002c0 37 10 2a bb 81 97 ac bb a3 43 6f bb 69 a1 30 bc
       -0.0025949606 -0.005267084 -0.003650882 -0.010780671
0002d0 32 14 be bb 36 25 6d 3a 4e 38 40 3c 0a db 12 bc
       -0.0058007473 0.00090463774 0.011732174 -0.008963356
0002e0 2c e1 3b 3c db a8 1a ba a2 c6 d9 bb 1c 69 eb 3a
       0.011467259 -0.0005899795 -0.0066459933 0.0017960402
0002f0 58 6b f0 3a 32 fd 14 3c 67 43 97 bb 2b ae 5f bb
       0.0018342538 0.00909357 -0.0046161893 -0.0034130912
000300 ad f0 14 bb 45 92 6f bb e9 27 9e bb a1 7a df ba
       -0.0022726462 -0.003655569 -0.004826535 -0.0017050096
000310 67 7b 23 3b 5b d5 8f ba 7e 0b 0b bc ae 31 c5 bb
       0.002494538 -0.0010973619 -0.008486627 -0.006017885
000320 dd 35 46 bb 54 08 dc bb 01 56 0b bb f9 24 bd 3b
       -0.0030244507 -0.00671486 -0.002126098 0.0057722297
000330 5b 9b 41 3c 0c 46 52 bc 6d 98 5b bb 48 b7 f4 bb
       0.011816825 -0.012834083 -0.00335076 -0.007468138
000340 5b 05 2e bb 25 4f a5 3b 89 eb 41 bc 5d 88 d5 3a
       -0.0026553485 0.005044835 -0.011835941 0.001629125
000350 51 c9 41 3a c6 93 6d 3c c9 c2 12 3c 2a d5 0b ba
       0.0007392364 0.014500564 0.008957573 -0.0005334193
000360 44 2e 75 bb 6f 46 90 bc 5a da 52 3c fe bd 8e bc
       -0.003741161 -0.01761171 0.012869442 -0.01742458
000370 ec f1 67 bc 36 58 19 3b 8b e9 9e 3b 3f 27 82 3b
       -0.0141568 0.0023398525 0.004849618 0.0039719637
000380 ea fe 1e bb a7 ce 8b bb 11 b4 17 bc 75 a5 b8 bb
       -0.0024260827 -0.0042665782 -0.00925924 -0.0056349584
000390 ba 70 b4 bb 1c 07 5e ba 7b 29 e6 3a 3d 36 51 bc
       -0.005506602 -0.00084696873 0.001755997 -0.012769279
0003a0 34 20 d3 3a 8f bf b0 3b 4e b5 d2 bb a8 0d 25 bb
       0.001610762 0.0053939293 -0.0064303046 -0.0025185142
0003b0 19 d5 0a 3c f2 21 92 bb 2a 07 69 3c 61 72 7e 3c
       0.008473658 -0.004459613 0.014222899 0.0155302
0003c0 11 46 13 3c 9b 0e f8 3b 80 74 96 bb 39 26 b8 3b
       0.008988873 0.0075701005 -0.0045915246 0.005619791
0003d0 41 99 38 3c 5e 36 3d 3c c5 5a 03 3c 8f 49 e3 3b
       0.011267007 0.011548607 0.008017247 0.006936259
0003e0 af 33 a7 3b 6c ed 94 ba ea cc 6a bb f0 2d 60 3b
       0.0051025967 -0.0011362261 -0.0035827705 0.0034207068
0003f0 4b 88 3b 3b ce 36 70 bc ad 4a 3f 3c c4 62 87 3b
       0.0028615172 -0.014661504 0.011675519 0.004131647

discrete_action_output_shape f4 [1, 4]
000000 00 00 40 40 00 00 40 40 00 00 40 40 00 00 40 40
       3.0 3.0 3.0 3.0

network_body._body_endoder.seq_layers.0.bias f4 [128]
000000 77 75 ea b8 cb f0 b9 ba f9 e9 28 3b 74 7d db 3a
       -0.00011179869 -0.0014186142 0.0025774224 0.0016745762
000010 84 e4 0a bb 0f 66 d2 ba d1 b8 91 bb 12 f2 ac 3a
       -0.0021193335 -0.0016052144 -0.0044470807 0.0013194701
000020 e9 bc bb ba b4 b5 10 3a 06 9f 4d ba 02 61 0f bb
       -0.0014323267 0.000552024 -0.0007843826 -0.002187789
000030 eb d1 60 3a c0 b3 04 ba 3b fe 39 b7 25 48 52 ba
       0.0008576202 -0.0005062185 -1.1086052e-05 -0.00080216146
000040 83 10 e9 b9 96 e9 46 3b 06 14 fd b8 a5 5c 68 3a
       -0.00044453525 0.003035163 -0.0001206771 0.0008863903
000050 89 c2 8d b8 8b 35 2b 3b 46 e4 eb 3a 48 6f 94 ba
       -6.759639e-05 0.0026124443 0.0017997108 -0.0011324668
000060 d3 69 14 ba 58 b5 0a 38 df e6 37 3b b3 56 60 3b
       -0.0005661521 3.3070653e-05 0.0028061194 0.0034231364
000070 c7 a7 df 3a 75 cb c8 3b 7d f6 08 ba 09 94 b4 3a
       0.0017063551 0.0061277696 -0.0005224718 0.0013777028
000080 d9 ab ac 37 19 83 5d 3b 1a e2 06 3b 88 38 10 3b
       2.058402e-05 0.0033800064 0.0020581544 0.0022006352
000090 55 5a e7 3a f5 63 a9 3a 64 d1 43 bb f2 4d 07 3b
       0.0017650822 0.0012923466 -0.0029879445 0.0020645824
0000a0 e4 58 be 3b b3 c7 55 3b 60 ba 73 3b 7c 93 92 3b
       0.0058089364 0.003262025 0.0037189946 0.004473148
0000b0 82 42 95 3b 45 13 23 3b e8 b1 9c bb 2d ad 8d b9
       0.0045550475 0.0024883312 -0.0047819503 -0.00027022642
0000c0 5f da 95 3b 02 55 3f b9 99 64 10 3a 1d f6 21 3b
       0.004573151 -0.00018246847 0.0005508154 0.0024713345
0000d0 34 4e 4f 3b 3a fd 9b ba 77 8f 13 3b b7 d6 80 bb
       0.0031632306 -0.0011901029 0.0022515932 -0.003931846
0000e0 bf 34 09 b8 82 e5 1a ba fe 26 b3 3b 06 9c f6 3a
       -3.271247e-05 -0.0005908833 0.0054672947 0.0018814809
0000f0 66 b8 d3 3a ff 15 f3 39 8d 82 f9 39 9d 6b a2 ba
       0.0016152977 0.0004636496 0.0004759025 -0.001239169
000100 e6 f1 54 37 1f 1b 96 3b f2 1c 3a 3a 6a b5 d8 39
       1.2692506e-05 0.00458087 0.000709965 0.00041333894
000110 88 ba 89 b9 0c 33 fc ba 98 2b 1b bb 43 35 77 bb
       -0.00026269653 -0.0019241287 -0.0023677107 -0.0037720955
000120 95 a9 a8 ba 47 78 fd ba 2c 01 86 3b 3b 9d 94 3a
       -0.0012867922 -0.0019338214 0.004089495 0.0011338362
000130 6b cb 55 3a cc 92 b9 3b 53 d8 3e 3b 1c 25 b0 ba
       0.0008155617 0.0056632515 0.0029120639 -0.0013438794
000140 ef 0c 3b bb 49 1d 36 3b 62 a4 1b 3a e8 a4 22 ba
       -0.0028541645 0.0027788451 0.0005937276 -0.00062043825
000150 3e 11 55 ba 1c 10 d3 b9 69 bc 0f 3a c8 ea 2f 3b
       -0.00081278745 -0.0004025706 0.00054830924 0.0026842821
000160 92 51 67 3a e9 79 0e 3b 7d 4d 9c 38 f5 76 ba 3b
       0.00088241056 0.0021740145 7.453093e-05 0.0056904503
000170 4e f5 31 bb 5c 9c 1d bb 1a db 43 bb b3 35 1e 3a
       -0.002715427 -0.0024049496 -0.0029885233 0.00060352235
000180 26 55 50 3a a4 fe 00 3b e5 ff 35 ba 3f b6 aa 3a
       0.00079472584 0.0019683028 -0.00069427333 0.0013024284
000190 09 25 9c b9 15 8d 35 bb c4 81 31 ba e1 07 c9 b9
       -0.00029782232 -0.00277025 -0.0006771351 -0.00038343578
0001a0 e0 0e 00 3a 10 19 c7 39 fc 1c 5b 3b 96 8d f7 b8
       0.0004885029 0.0003797491 0.0033434024 -0.0001180425
0001b0 c3 08 7f 3a 38 71 75 3a 0b c1 5a 3b cb ba 3b 3a
       0.00097287836 0.0009362879 0.0033379223 0.0007161318
0001c0 f5 fb 94 39 26 f3 3d 3b 56 ef 45 3b f8 cd 24 bb
       0.00028416482 0.002898404 0.003020247 -0.002514718
0001d0 1f 32 d5 3a 97 a3 c0 3a eb ce 7e 3b 8e c6 00 3b
       0.0016265548 0.0014697191 0.0038880657 0.0019649598
0001e0 f8 5d 94 3b 1f 71 b0 39 0a d6 01 3a 39 01 88 3a
       0.0045278035 0.00033653618 0.0004952854 0.0010376341
0001f0 33 49 89 bb 87 cc ad ba 48 ab a4 3b 61 a5 ba 3a
       -0.004189634 -0.0013259806 0.005025301 0.0014239961

network_body._body_endoder.seq_layers.0.weight f4 [128, 128]
000000 6f eb 9b 3c 15 6b 05 be 48 b1 5c bd 40 da d5 3d
       0.019033162 -0.1302913 -0.053880006 0.104420185
000010 20 d5 c5 bd 46 80 fb 3d 27 ed aa 3d 5f 24 01 3e
       -0.09659791 0.122803256 0.083460145 0.1261153
000020 94 52 0a 3d e0 a6 89 3c 76 6e c7 bd eb bb 91 3c
       0.03377016 0.016803205 -0.097378656 0.017789802
000030 e9 90 30 3d 05 ef 82 bb 6e 50 86 bd 62 47 97 bb
       0.043106947 -0.0039957785 -0.065583095 -0.004616664
000040 e3 86 5c 3c 94 fc c6 3d 6a a8 9a bd fb 51 1c be
       0.013459894 0.09716144 -0.07551654 -0.15265648
000050 96 93 3c 3d d6 10 3f bd ef 3b 7f 3d 98 73 bc bc
       0.046039186 -0.046646915 0.062313017 -0.023004338
000060 fa 8c 3d 3d b7 ae 17 3d 74 66 c0 bc bb 7c 19 3e
       0.046277024 0.037031855 -0.023486353 0.14988987
000070 04 d9 0d be eb 45 dc bd de 92 3e 3d 60 d3 3b 3c
       -0.13852316 -0.10755523 0.046526782 0.01146397
000080 7f 49 80 3d 28 90 6f 3d ef 8a 44 bc 34 74 4b bc
       0.06264018 0.058487087 -0.011996015 -0.012417842
000090 3d 7a d1 bd 33 ff 1a 3e a1 07 ab 3d a0 f8 4b 3b
       -0.10228393 0.15136413 0.083510645 0.0031123534
0000a0 5a e0 29 3d 4a 48 9f 3d 2b 9b df bb 47 f9 8a bd
       0.041473724 0.0777746 -0.0068239174 -0.06785827
0000b0 d6 fb 22 be 9e 1e 87 3b 25 98 03 3d a5 29 5a 3c
       -0.1591638 0.004123523 0.03212752 0.013315593
0000c0 35 0c c3 bb 8e 75 c6 bd 4e 07 65 3d a7 f8 5a 3d
       -0.005952383 -0.096903905 0.05591517 0.05345979
0000d0 f3 ff 48 bd ba 8a 8c bd ac 91 d3 bb e0 fd b5 bd
       -0.049072217 -0.068623975 -0.0064565744 -0.088863134
0000e0 40 0d 42 bd fe 83 18 3d 5d 1c 09 bd 17 ee b1 3d
       -0.047375917 0.037235253 -0.033474315 0.0868799
0000f0 aa 18 12 bd 59 d7 56 3e 46 62 89 bd ed 0b 0e be
       -0.035668053 0.20980586 -0.06708197 -0.13871737
000100 2f dd 66 bd ee fe a8 3d bc f9 04 be 49 c8 38 3e
       -0.05636328 0.08251749 -0.12985891 0.18045153
000110 56 e3 3a bd de b4 9e bd 18 dc 38 3d c7 94 ec 3d
       -0.04562696 -0.077493414 0.045131773 0.115518145
000120 ae ce 2c 3d b1 c6 ae 3d 15 78 1e bc 8c 09 09 3d
       0.042189293 0.08533991 -0.0096721845 0.03345637
000130 b7 99 b9 3c 51 ea d9 bd 8e 1c 82 3e 98 e2 da 3d
       0.022656305 -0.106403954 0.2541241 0.106877506
000140 2d 28 02 bc 5c ed 3a be ec 74 30 bc dc b2 cf bd
       -0.007944149 -0.18254608 -0.010770064 -0.101415366
000150 ab 96 e0 3d c5 4b ec 3c 54 6d 58 3d 09 bf 1b 3d
       0.10966238 0.028844723 0.05283864 0.038023982
000160 e0 66 53 b9 ab 07 01 be d5 82 2f 3c 37 5e 19 3e
       -0.00020160852 -0.12600581 0.010712345 0.14977346
000170 3c 94 e0 bc 27 21 90 bd 8b 48 c6 3d bd e8 8c bd
       -0.027414434 -0.07037573 0.09681805 -0.06880329
000180 c3 ea 23 be d2 da c2 ba 81 22 d6 bd c6 6b 9a 3d
       -0.16007523 -0.0014866239 -0.104558 0.075400874
000190 4e 4d 8a 3d 1e ef ff bb 2a c5 bb 3c cc a5 ea 3d
       0.06753026 -0.0078104874 0.022921164 0.114574045
0001a0 8f cc b2 3d 7c 28 a8 3c 45 d4 99 bd 79 54 0a 3c
       0.08730423 0.020527117 -0.0751119 0.008442991
0001b0 c6 9c 4f bc 34 bf e9 bc 38 9a 18 be 01 9d 87 bd
       -0.012671655 -0.028533556 -0.1490258 -0.06621743
0001c0 70 95 e8 3d f5 7b d8 bd c6 1d 52 bd 83 c4 1f be
       0.11356628 -0.10570518 -0.051297925 -0.15602307
0001d0 95 79 c5 bc e1 4c ef bd 7e a1 79 3d 4d ac b9 bd
       -0.024105826 -0.11684585 0.060945027 -0.09066067
0001e0 a9 1f 37 bd cb b4 4f bd 06 46 bc bc fc b8 54 3c
       -0.044707928 -0.050709527 -0.022982609 0.012983557
0001f0 bf e7 f9 3d 47 9f d8 3d 33 59 5d be 37 47 05 3e
       0.12202405 0.10577255 -0.21616058 0.13015448
000200 04 49 87 bd b8 ad b0 bd 39 06 cf 3c 70 5e 03 be
       -0.066057235 -0.08626884 0.025271522 -0.12828994
000210 5b 7c 7b 3d 43 70 a9 3c a3 79 32 bd e0 22 5a 3d
       0.06139789 0.020683413 -0.043573033 0.053255916
000220 59 aa d4 3c 50 54 b9 3d 65 2d 9a 3d 8d 5a 8c 3d
       0.025960134 0.090492845 0.075281896 0.06853209
000230 44 6d 47 bc 8b 14 f2 bc af 18 52 bd 88 11 1d 3e
       -0.012172047 -0.029550811 -0.05129307 0.15338719
000240 14 42 67 bd dd ed 10 3d a5 e3 da bd 96 11 01 be
       -0.0564595 0.035383094 -0.10687951 -0.12604365
000250 1e 9c 57 bd 19 2d 00 be c2 63 5d 3d 66 d2 1d 3e
       -0.05263912 -0.12517203 0.054050215 0.15412292
000260 7d 61 cc bd 2f 8f 37 3d 5e ad cd bd c3 57 da 3d
       -0.09979532 0.044814285 -0.10042833 0.106612705
000270 6c c2 11 3d 0d ec 7f bc 94 ba 92 3d 47 87 cc bc
       0.035585806 -0.015620244 0.07164493 -0.024966849
000280 50 1a 74 3d bb c8 cf 3d 01 24 ae 3d 89 35 89 3d
       0.059595406 0.10145708 0.08502961 0.06699664
000290 87 2d 10 3d c2 11 7f bd 37 53 b8 bc ad 7c de bc
       0.03519967 -0.062272795 -0.022500617 -0.02715906
0002a0 e1 a1 2a 3e 2d 6e 6d 3e e9 65 d2 b8 bd 53 86 3b
       0.16663314 0.2318656 -0.000100325626 0.004099338
0002b0 8c 5e aa 3d 0f c4 6b 3d e4 e3 3d be 7b 55 96 bd
       0.08318815 0.057560023 -0.18543965 -0.07340523
0002c0 88 23 c6 bc ed 91 1d 3e 56 ce d2 bd 6d 49 8a 3c
       -0.024186864 0.15387698 -0.10293262 0.016880715
0002d0 b6 44 28 be 1d f9 2b 3e c8 39 61 3c 9d 01 0a 3e
       -0.16432461 0.16794248 0.013746686 0.13477178
0002e0 04 02 7f bd 1e 25 ad bd 54 a7 7e be 55 9e 00 3e
       -0.06225778 -0.08454345 -0.24868518 0.12560399
0002f0 27 bd cf bd 9d cd b1 3d c8 54 ce 3c 64 cc f4 3d
       -0.101435 0.08681796 0.025186911 0.11953047
000300 da 03 80 bd c4 fd 3b be 5d 2e 79 bd a8 60 4f bd
       -0.062507346 -0.18358523 -0.06083523 -0.050629288
000310 5d c0 ef 3d 10 b7 44 3e b4 9b d7 3d 54 94 f2 3d
       0.11706612 0.19210458 0.10527745 0.118446976
000320 7b b2 2d bd 50 9d 61 3d 8d 39 a7 bd 1f 57 bd 3d
       -0.04240654 0.055081666 -0.08165274 0.09245133
000330 ce 56 e5 bd 7e c2 bb bd a9 d1 ad 3b da 0f 9a 3c
       -0.11198197 -0.09167956 0.0053045345 0.018806387
000340 70 bf 0e bc 29 21 bb 3d 96 64 23 be 52 af 16 3e
       -0.008712634 0.09137184 -0.15956339 0.14715317
000350 00 12 3c bd 62 ad 8e b9 35 f3 36 3d 22 86 da bd
       -0.045915604 -0.0002721353 0.044665534 -0.10670115
000360 7c b7 0c 3d 23 db ee bd d2 ac 81 3b ac 55 83 3c
       0.03435467 -0.11662891 0.0039573694 0.016032062
000370 98 f7 36 ba 6d e4 55 bb 7f c2 ab 3d a4 39 0b be
       -0.00069796434 -0.0032637373 0.083867066 -0.13596207
000380 06 4e 9e bd 90 93 85 3d 42 15 70 bc 77 cf 60 3d
       -0.077297255 0.06522286 -0.014653506 0.054885354
000390 10 c2 22 bd a8 6d 9c 3c ce 5c ec 3c 9e 64 2d 3e
       -0.039735854 0.019095257 0.028852846 0.16932914
0003a0 46 00 08 3d 12 79 00 be 7d 0d ee 3d c8 69 0a 3d
       0.033203386 -0.12546185 0.116236664 0.033792287
0003b0 f7 fd dc bd 05 6d ad 3b cd 03 fb bd c7 d0 91 bd
       -0.107906274 0.005292537 -0.12256584 -0.07119899
0003c0 07 7c ea 3d e9 d9 c5 bc d1 d7 16 bd 07 07 9a 3d
       0.114494376 -0.02415176 -0.036826912 0.075208716
0003d0 cd 9d 33 3d cf e7 2d 3d 33 57 d5 3d 7f 7c 8a bd
       0.043851662 0.042457398 0.104170226 -0.06762027
0003e0 81 2a 4e bc 81 d5 87 bc f4 a4 b4 bd 36 a2 b9 bd
       -0.012583376 -0.016581299 -0.08820525 -0.090641424
0003f0 31 a3 d6 bd bf 5c f0 bd 45 8d a0 bd 63 cb 5d b9
       -0.10480345 -0.1173644 -0.07839445 -0.0002115197

network_body._body_endoder.seq_layers.2.bias f4 [128]
000000 97 a7 d2 3a 79 4b 0f 3b 5d 0d 27 3b b3 f1 05 3b
       0.0016071674 0.0021865054 0.0025490143 0.0020438253
000010 2c 5e 8a 39 b1 6a 9c 3a b5 18 32 3b e6 e1 18 39
       0.00026391575 0.0011933652 0.002717537 0.00014580003
000020 f5 6f df b9 8d b1 00 3b 82 70 61 3b 9b ae 93 ba
       -0.0004261729 0.0019637079 0.0034399335 -0.0011267246
000030 56 7a 78 3a 1c b4 19 3a 5e ed 43 ba 2a dd 88 3b
       0.00094786787 0.0005863325 -0.000747403 0.0041767554
000040 e1 f0 1d b9 0f fd c0 3a bf c6 46 3b 59 43 12 3b
       -0.00015062421 0.0014723855 0.0030330864 0.0022317974
000050 3b f4 25 bb 99 0d 15 bb 61 20 59 3b 74 e2 36 ba
       -0.0025322575 -0.00227437 0.0033130872 -0.0006976493
000060 8e 74 c8 ba fb ae 03 bb a0 ee 27 b9 e3 47 92 3b
       -0.0015293525 -0.002009331 -0.00016015256 0.004464136
000070 4c 74 2c b9 2e 30 e7 b9 75 5c c2 ba 35 ba 53 3b
       -0.00016446522 -0.0004409565 -0.001482858 0.0032307033
000080 dd 09 07 3b 68 92 61 3b 10 d3 d5 3a 0f c3 09 bb
       0.0020605244 0.003441954 0.0016313512 -0.0021020805
000090 3e b4 0f b9 5d c0 b0 ba df b2 0b bb 8d fd 1e 3a
       -0.00013704688 -0.0013485063 -0.0021316332 0.00060650037
0000a0 cb 86 92 b8 b8 ae 64 bb 5d 8a ed 39 44 59 3a 3b
       -6.98693e-05 -0.003489418 0.0004530725 0.0028434554
0000b0 82 50 25 ba 14 5b 11 bb 6c 69 5e b9 16 b9 70 ba
       -0.0006306247 -0.002217953 -0.00021210843 -0.00091828534
0000c0 75 6d 4a 3b 17 cc 83 ba 4a 03 ab b9 e9 04 60 3b
       0.0030887995 -0.001005533 -0.00032618112 0.0034182614
0000d0 81 d9 36 ba 6f dd 0c 3b 8c c7 97 3a 76 be 0a ba
       -0.00069751596 0.002149429 0.0011579855 -0.0005292663
0000e0 66 fe 23 3b 18 a7 cd 3a 7c c4 d5 b9 82 6a e0 39
       0.002502346 0.0015690057 -0.00040772918 0.00042803964
0000f0 a5 c9 1f 3b b0 0b 99 3a b4 72 f4 39 04 bd 4c bb
       0.0024381664 0.0011676457 0.00046624767 -0.0031240592
000100 5c d7 9f 3a ef 59 43 ba ce b0 84 39 2a f7 49 3a
       0.0012194919 -0.0007452061 0.00025308732 0.0007704372
000110 3b 85 56 bb 60 63 01 3b 29 cb 8f 3a 46 ea bc 3b
       -0.003273322 0.001974307 0.0010970581 0.0057652323
000120 b0 f5 95 3a 81 6b 7f bb 3d eb 18 bb 3f 4d 53 3a
       0.0011441018 -0.003897399 -0.0023333572 0.0008060522
000130 3f c3 ec b9 2b 59 a8 b9 92 44 ef ba 5e 50 83 3b
       -0.00045158897 -0.00032109892 -0.0018254688 0.0040073832
000140 a3 a9 8e ba 0a 1c d8 37 13 86 fa 3a 87 f4 89 39
       -0.0010884296 2.5762263e-05 0.0019113444 0.00026312863
000150 29 64 f4 ba bb e5 e9 3a 8a a1 c5 3a 49 5d 63 3a
       -0.0018645573 0.0017844954 0.001507805 0.00086732634
000160 d0 16 dd ba 4c ae 14 bb 75 76 1e 3b df 61 ac 3a
       -0.001686776 -0.0022686897 0.0024179493 0.0013151726
000170 50 95 32 3a b8 8b 82 3a 24 2c 0d b9 07 55 e6 ba
       0.00068124104 0.0009959852 -0.00013463252 -0.0017572948
000180 0c f7 93 3a 08 52 e2 39 f2 99 ae b9 5d 98 73 ba
       0.0011288836 0.00043167197 -0.00033302564 -0.0009292418
000190 be 6d 87 ba 34 68 5a bb d5 18 2b ba 83 a9 64 ba
       -0.0010332388 -0.003332627 -0.00065268326 -0.0008722769
0001a0 d2 64 13 b9 80 31 af 3b da a2 39 bb a9 83 22 bb
       -0.00014056571 0.005346477 -0.0028325827 -0.0024797714
0001b0 14 e9 b0 b9 e0 61 3c 3b a5 19 ef 39 49 ec 83 37
       -0.00033742993 0.0028744861 0.0004560474 1.5726446e-05
0001c0 fe ee 7c ba 78 fa 59 bb d6 72 11 ba ad 2d 0c 3b
       -0.000964865 -0.0033260863 -0.0005548423 0.002138953
0001d0 55 59 2a 3b 57 68 1d 3a b9 92 04 bb 71 0c b0 3b
       0.0025993187 0.00060046226 -0.0020229055 0.005372577
0001e0 f2 63 6c ba ba 24 ea 3a d9 85 91 3b 42 04 4f b9
       -0.00090175786 0.0017863729 0.0044410047 -0.00019742645
0001f0 e9 b3 35 b7 a9 87 3b bb 76 6f 57 3a 7b 62 0b 39
       -1.0830329e-05 -0.0028614795 0.0008218208 0.0001329276
