results/FoodTarget_imitation_8/AgentPlayer/AgentPlayer-9306.pt (torch, 418679 bytes, 24 tensors)

discrete_act_size_vector f4 [1, 4]
3.0 3.0 3.0 3.0
00000000: 0000 4040 0000 4040 0000 4040 0000 4040

network_body._body_endoder.seq_layers.0.weight f4 [128, 128]
0.07702723 -0.13573664 0.095182985 -0.2987701 0.048258062 0.06931463 0.0030033092 -0.13758805
0.11484962 0.035045095 0.0006812578 -0.055134796 -0.013552062 -0.20567107 -0.030521633 -0.026932554
0.07592674 0.009959266 0.093785375 0.035289843 -0.0029380608 0.062997684 0.016520338 -0.041848507
-0.02057206 0.122959964 -0.09740994 0.039365683 0.051727906 0.13728215 -0.02001053 -0.1524611
-0.15111098 -0.08893173 -0.0004932393 -0.10197428 -0.09407847 -0.07231457 0.089229144 -0.05459437
-0.12970355 0.0098653445 0.040028047 0.12948334 -0.015932882 -0.13518324 -0.05183488 -0.003201882
0.08089247 -0.10901551 0.060346477 0.0011195616 0.041553315 -0.03662454 -0.11880092 0.13829981
0.09711788 -0.070081174 0.106828064 -0.015871074 -0.1606953 -0.072837666 -0.041169476 -0.08040566
0.11564714 0.045268707 -0.09905837 0.025954982 0.107936926 -0.22070654 0.14154245 0.088497505
0.065366164 0.021274645 -0.029318376 -0.054259174 -0.01168863 -0.005943798 0.016345864 -0.16253653
-0.086684294 -0.041817382 0.015006601 0.017910955 0.002120135 -0.06310562 -0.02064829 0.098626226
-0.14926358 0.04467609 0.067587614 -0.0138071 -0.025599334 -0.03965433 -0.0077422685 -0.024078913
-0.036652695 -0.0595145 -0.028028874 0.00421291 0.08517687 0.066117965 0.002082475 -0.115534276
0.25907028 -0.18564948 -0.025164189 0.22278196 0.024243554 -0.07138585 -0.08984139 -0.0057189097
-0.110267304 0.08692058 -0.08441619 -0.019250525 0.07463831 0.02708889 -0.12528917 0.053261373
-0.17665742 -0.0006989819 0.04221374 -0.057001114 0.00097354717 0.006327393 -0.008214295 -0.10776524
0.010039794 0.035853975 0.0486814 -0.06303854 -0.011944275 -0.11915283 -0.044821054 -0.0045391233
0.023220595 -0.024282923 0.02889785 -0.00027740488 -0.050679293 -0.016310327 -0.15336055 -0.099490255
0.0766659 -0.14852843 -0.036708638 -0.039782792 -0.03002189 -0.0075581344 -0.008424925 -0.110811725
0.01465201 -0.12161537 0.074323416 -0.047638275 0.14370261 -0.044877354 0.03826757 0.020960202
-0.028202007 0.0770384 -0.14968647 0.111186475 0.15969287 0.10156201 0.18107492 -0.034046076
0.04429295 -0.15700811 0.020819163 -0.13889526 0.0109805465 -0.052989267 0.051767923 -0.055719644
-0.03246662 -0.14672066 0.09049393 0.015019786 -0.0990275 0.045037765 -0.07087704 -0.038405057
0.017950298 0.023824573 0.016382778 0.010358731 -0.03284357 0.06702129 0.08528842 0.04182059
0.015568403 -0.112714104 -0.04267802 -0.16675174 0.050107233 -0.12812422 -0.029180689 0.0948529
-0.10395147 -0.01681153 -0.073119685 0.009207728 0.093139276 0.10297346 -0.03935362 -0.122289985
0.0063101607 0.040657565 0.017221745 -0.13885479 0.21562578 0.004257344 -0.002558501 0.030039432
0.14375573 0.02783722 0.12093758 -0.13822822 0.11762316 0.23353611 0.035977986 -0.15183726
-0.08852472 -0.042459924 -0.00612969 0.014435584 0.039067585 -0.04175225 0.09053164 0.05122756
0.060030416 -0.03836758 -0.14833121 0.009522765 0.033261903 -0.005158412 -0.03245771 -0.19856118
-0.027165044 0.16248742 0.016486952 -0.09234816 -0.077239074 0.021990193 -0.011533816 -0.1558545
-0.0459873 0.028658316 0.014257439 0.0210295 0.04453124 0.12932011 0.05335685 -0.08858024
00000000: 74c0 9d3d 8cfe 0abe 4cef c23d 65f8 98be
00000010: 3faa 453d d4f4 8d3d 2bd3 443b e2e3 0cbe
00000020: 4736 eb3d 728b 0f3d 7096 323a 06d5 61bd
00000030: 7809 5ebc 709b 52be 8108 fabc a9a1 dcbc
00000040: 7b7f 9b3d 302c 233c 8c12 c03d 158c 103d
00000050: 7b8c 40bb ee04 813d a955 873c 5769 2bbd
00000060: bd86 a8bc 6fd2 fb3d dd7e c7bd e93d 213d
00000070: a4e0 533d b193 0c3e 1fed a3bc c31e 1cbe
00000080: d6bc 1abe d721 b6bd bb4c 01ba e4d7 d0bd
00000090: 36ac c0bd a919 94bd c5bd b63d 599e 5fbd
000000a0: 02d1 04be 41a2 213c 73f4 233d 4897 043e
000000b0: ad85 82bc 7a6d 0abe d050 54bd aad6 51bb
000000c0: f4aa a53d 8643 dfbd de2d 773d 41be 923a
000000d0: cf33 2a3d 9d03 16bd e64d f3bd 779e 0d3e
000000e0: bde5 c63d b886 8fbd acc8 da3d 0e04 82bc
000000f0: 4f8d 24be ea2b 95bd 53a1 28bd b9ab a4bd
00000100: 68d8 ec3d ae6b 393d 1ddf cabd 8b9f d43c
00000110: 090e dd3d e500 62be 81f0 103e 2e3e b53d
00000120: b2de 853d 2a48 ae3c 172d f0bc de3e 5ebd
00000130: ab81 3fbc 31c4 c2bb c3e7 853c fa6f 26be
00000140: 8987 b1bd b448 2bbd 3fde 753c ffb9 923c
00000150: f6f1 0a3b 853d 81bd 9a26 a9bc 8cfc c93d
00000160: 8dd8 18be 47fe 363d 606b 8a3d 2d37 62bc
00000170: b2b5 d1bc 946c 22bd dbb2 fdbb 2441 c5bc
00000180: 2321 16bd 7ac5 73bd cf9c e5bc 730c 8a3b
00000190: 3671 ae3d db68 873d 227a 083b 3c9d ecbd
000001a0: dca4 843e e61a 3ebe 2125 cebc f420 643e
000001b0: 6b9a c63c bf32 92bd c3fe b7bd b165 bbbb
000001c0: d3d3 e1bd 6b03 b23d 65e2 acbd 47b3 9dbc
000001d0: f8db 983d 85e9 dd3c ce4b 00be 9928 5a3d
000001e0: afe5 34be e23b 37ba 51e8 2c3d 007a 69bd
000001f0: a535 7f3a 0556 cf3b 4095 06bc 06b4 dcbd
00000200: f37d 243c 9edb 123d 2666 473d 5a1a 81bd
00000210: ecb1 43bc 6606 f4bd 4896 37bd edbc 94bb
00000220: 1e39 be3c fbec c6bc 2fbb ec3c a770 91b9
00000230: 1795 4fbd 3c9d 85bc 8c0a 1dbe 8cc1 cbbd
00000240: 0303 9d3d d617 18be cc5b 16bd 48f3 22bd
00000250: 77f0 f5bc 3aaa f7bb b208 0abc 42f1 e2bd
00000260: fc0e 703c 7b11 f9bd e036 983d 5a20 43bd
00000270: c726 133e 51d1 37bd 75be 1c3d bbb4 ab3c
00000280: e507 e7bc 4fc6 9d3d 6947 19be bcb5 e33d
00000290: 8786 233e beff cf3d b46b 393e e673 0bbd
000002a0: 866c 353d bcc6 20be f38c aa3c 8f3a 0ebe
000002b0: c0e7 333c 460b 59bd 9a0a 543d 483a 64bd
000002c0: b8fb 04bd f13d 16be e254 b93d 8c15 763c
000002d0: eece cabd 8579 383d fb27 91bd 9f4e 1dbd
000002e0: 810c 933c c02b c33c 2d35 863c abb7 293c
000002f0: fb86 06bd 7542 893d b2ab ae3d 114c 2b3d
00000300: 9d12 7f3c a7d6 e6bd 26cf 2ebd f8c0 2abe
00000310: 3e3d 4d3d ff32 03be 570c efbc 3d42 c23d
00000320: 82e4 d4bd 55b8 89bc c6bf 95bd 03dc 163c
00000330: cebf be3d c0e3 d23d 4331 21bd 2c73 fabd
00000340: 77c5 ce3b 8c88 263d 9e14 8d3c f32f 0ebe
00000350: 01cd 5c3e 3181 8b3b 86ac 27bb 4115 f63c
00000360: b434 133e e20a e43c 1fae f73d b38b 0dbe
00000370: 69e4 f03d 1724 6f3e a75d 133d 3a7b 1bbe
00000380: 734c b5bd 75ea 2dbd 91db c8bb 3a83 6c3c
00000390: 5505 203d 6804 2bbd a768 b93d fdd3 513d
000003a0: 74e2 753d 5327 1dbd 23e4 17be 5f05 1c3c
000003b0: a23d 083d e507 a9bb 60f2 04bd 9f53 4bbe
000003c0: 3a89 debc 1a63 263e a50f 873c 0821 bdbd
000003d0: 852f 9ebd c724 b43c 55f8 3cbc 5298 1fbe
000003e0: 2e5d 3cbd d8c4 ea3c 0998 693c 0f46 ac3c
000003f0: 6466 363d 7e6c 043e b68c 5a3d 8f69 b5bd

network_body._body_endoder.seq_layers.0.bias f4 [128]
0.0 0.0 0.0 0.0 0.0 0.0 0.0 0.0
0.0 0.0 0.0 0.0 0.0 0.0 0.0 0.0
0.0 0.0 0.0 0.0 0.0 0.0 0.0 0.0
0.0 0.0 0.0 0.0 0.0 0.0 0.0 0.0
0.0 0.0 0.0 0.0 0.0 0.0 0.0 0.0
0.0 0.0 0.0 0.0 0.0 0.0 0.0 0.0
0.0 0.0 0.0 0.0 0.0 0.0 0.0 0.0
0.0 0.0 0.0 0.0 0.0 0.0 0.0 0.0
0.0 0.0 0.0 0.0 0.0 0.0 0.0 0.0
0.0 0.0 0.0 0.0 0.0 0.0 0.0 0.0
0.0 0.0 0.0 0.0 0.0 0.0 0.0 0.0
0.0 0.0 0.0 0.0 0.0 0.0 0.0 0.0
0.0 0.0 0.0 0.0 0.0 0.0 0.0 0.0
0.0 0.0 0.0 0.0 0.0 0.0 0.0 0.0
0.0 0.0 0.0 0.0 0.0 0.0 0.0 0.0
0.0 0.0 0.0 0.0 0.0 0.0 0.0 0.0
00000000: 0000 0000 0000 0000 0000 0000 0000 0000
00000010: 0000 0000 0000 0000 0000 0000 0000 0000
00000020: 0000 0000 0000 0000 0000 0000 0000 0000
00000030: 0000 0000 0000 0000 0000 0000 0000 0000
00000040: 0000 0000 0000 0000 0000 0000 0000 0000
00000050: 0000 0000 0000 0000 0000 0000 0000 0000
00000060: 0000 0000 0000 0000 0000 0000 0000 0000
00000070: 0000 0000 0000 0000 0000 0000 0000 0000
00000080: 0000 0000 0000 0000 0000 0000 0000 0000
00000090: 0000 0000 0000 0000 0000 0000 0000 0000
000000a0: 0000 0000 0000 0000 0000 0000 0000 0000
000000b0: 0000 0000 0000 0000 0000 0000 0000 0000
000000c0: 0000 0000 0000 0000 0000 0000 0000 0000
000000d0: 0000 0000 0000 0000 0000 0000 0000 0000
000000e0: 0000 0000 0000 0000 0000 0000 0000 0000
000000f0: 0000 0000 0000 0000 0000 0000 0000 0000
00000100: 0000 0000 0000 0000 0000 0000 0000 0000
00000110: 0000 0000 0000 0000 0000 0000 0000 0000
00000120: 0000 0000 0000 0000 0000 0000 0000 0000
00000130: 0000 0000 0000 0000 0000 0000 0000 0000
00000140: 0000 0000 0000 0000 0000 0000 0000 0000
00000150: 0000 0000 0000 0000 0000 0000 0000 0000
00000160: 0000 0000 0000 0000 0000 0000 0000 0000
00000170: 0000 0000 0000 0000 0000 0000 0000 0000
00000180: 0000 0000 0000 0000 0000 0000 0000 0000
00000190: 0000 0000 0000 0000 0000 0000 0000 0000
000001a0: 0000 0000 0000 0000 0000 0000 0000 0000
000001b0: 0000 0000 0000 0000 0000 0000 0000 0000
000001c0: 0000 0000 0000 0000 0000 0000 0000 0000
000001d0: 0000 0000 0000 0000 0000 0000 0000 0000
000001e0: 0000 0000 0000 0000 0000 0000 0000 0000
000001f0: 0000 0000 0000 0000 0000 0000 0000 0000

network_body._body_endoder.seq_layers.2.weight f4 [128, 128]
-0.066882536 0.0011461605 -0.0024595726 -0.19442059 0.0757715 0.08968697 -0.026678056 -0.0316393
-0.053093616 -0.016903859 0.07932949 0.048067827 0.1404921 -0.003423632 -0.06922727 0.0005092336
-0.008187219 -0.10155164 0.06008978 0.059258316 -0.018180216 0.044656623 0.08260663 -0.02150475
0.17032771 0.11215305 -0.0035218713 -0.116029106 -0.16049714 0.017219504 -0.089594156 0.0100414725
-0.0023387861 0.044914372 -0.07114636 -0.09207523 0.106559366 -0.076490715 -0.04628461 0.00865128
0.06948645 -0.03608332 -0.15811467 -0.14898624 0.03654865 -0.032655124 -0.21755885 -0.009590874
-0.00032769336 0.16729106 0.024844376 -0.14556599 -0.19599357 0.055064462 0.010749833 -0.15470195
-0.14902037 -0.029978206 -0.038047947 0.05184016 0.101740636 0.043467734 -0.03148901 0.08100648
0.0767206 0.0024932977 0.07495511 0.04219951 -0.06817524 0.15492503 -0.1171803 -0.15243733
0.034884766 0.011863006 -0.065947026 0.014840137 0.031584177 0.027338134 0.12911999 -0.124500215
-0.022501731 -0.020592581 -0.15801026 -0.063760355 0.08861459 0.021954704 -0.017949736 0.005175704
0.08376465 0.033620592 0.00422909 0.010725153 0.012884335 0.111301646 -0.05822394 0.06854277
-0.08482131 -0.08767544 0.014069238 0.00660886 0.19843006 -0.0038675205 0.18161662 0.015270003
0.081532195 0.021710388 0.013852246 0.030712182 0.10772353 0.015346917 -0.028339121 -0.06919016
-0.042785794 -0.0431841 0.027472636 -0.11459927 0.05010454 0.0977897 -0.050769076 0.08141733
0.07640351 -0.043736685 -0.06523392 -0.16994382 -0.036029343 0.016613 0.053839844 0.11330688
0.005546751 -0.112474814 -0.16556363 0.01578615 0.1383804 0.07578059 0.009349871 0.036932845
0.0996711 -0.056481414 0.040099893 -0.11752412 -0.07120787 -0.05030439 -0.09445062 -0.14139728
-0.028098784 0.07617831 0.05042647 -0.077781156 0.13765043 -0.05187094 -0.10939136 0.035716485
0.12521823 0.079790436 0.14837459 -0.10833022 -0.1436962 0.013790737 0.11006012 -0.046096966
0.085965574 0.19042666 0.03743038 -0.007289961 0.10469353 -0.03202563 -0.056443695 -0.0691728
0.103576794 0.10960722 0.19390148 0.015354743 -0.032827623 0.08495555 -0.034361012 0.15270354
-0.14429732 -0.072046764 -0.02480736 0.10340542 -0.096027695 0.012724886 -0.14924672 0.035831854
0.08902973 0.004406365 0.002489879 -0.04250086 -0.083731465 -0.051314667 0.116048425 0.013751946
0.09336002 0.22709097 -0.07896508 -0.01583841 -0.054440532 0.008821363 -0.016942158 -0.097483024
0.05501178 0.009019251 -0.03239545 -0.07855316 -0.037131466 0.060943805 -0.04366176 0.07904233
0.016325768 0.040526096 -0.09687753 0.0036910658 -0.04041392 -0.11068143 0.07545182 -0.07630086
-0.09411367 0.050664783 -0.18892623 0.13045762 0.011322083 0.048577867 -0.031163098 -0.031214595
-0.022112167 0.27890295 -0.07598976 -0.10099869 0.044312 0.042760547 0.04583212 -0.023742707
0.04817657 -0.047652427 -0.03489443 0.05461845 0.08575302 -0.11389342 -0.16970074 0.18348892
0.12866469 0.065873414 -0.09471979 0.03038533 -0.0113054905 -0.04173019 0.035731368 -0.2788089
0.029434705 0.14042975 -0.14107177 0.0054173376 0.07833159 0.050995488 -0.0047182967 0.007879548
00000000: b6f9 88bd c43a 963a c830 21bb 3116 47be
00000010: 172e 9b3d cdad b73d f08b dabc 3698 01bd
00000020: b178 59bd f679 8abc 8077 a23d c5e2 443d
00000030: 29dd 0f3e 035f 60bb 07c7 8dbd 177e 053a
00000040: af23 06bc 4efa cfbd b320 763d d9b8 723d
00000050: adee 94bc dde9 363d aa2d a93d bb2a b0bc
00000060: 636a 2e3e 80b0 e53d 32cf 66bb aba0 edbd
00000070: 5d59 24be eb0f 8d3c 247d b7bd fd84 243c
00000080: 5246 19bb 22f8 373d 2fb5 91bd f091 bcbd
00000090: cc3b da3d 2aa7 9cbd ee94 3dbd 19be 0d3c
000000a0: e94e 8e3d 1acc 13bd d0e8 21be d98f 18be
000000b0: 0ab4 153d 61c1 05bd bfc7 5ebe 0b23 1dbc
000000c0: 42ce abb9 594e 2b3e 6f86 cb3c 400f 15be
000000d0: 8ab2 48be 468b 613d 1120 303c 306a 1ebe
000000e0: cc98 18be db94 f5bc 2ad8 1bbd 5956 543d
000000f0: 655d d03d 390b 323d 9ffa 00bd bae6 a53d
00000100: b11f 9d3d 9866 233b 1182 993d 65d9 2c3d
00000110: 769f 8bbd aba4 1e3e 3afc efbd 8818 1cbe
00000120: 54e3 0e3d 0e5d 423c 3c0f 87bd 0c24 733c
00000130: 695e 013d 39f4 df3c 0838 043e f8f9 febd
00000140: 8d55 b8bc c6b1 a8bc 71cd 21be ca94 82bd
00000150: 917b b53d 5ada b33c 530b 93bc f498 a93b
00000160: cd8c ab3d bfb5 093d 2e94 8a3b 8db8 2f3c
00000170: d118 533c 1ef2 e33d 3a7c 6ebd 2760 8c3d
00000180: ccb6 adbd 2e8f b3bd a982 663c 238f d83b
00000190: 4031 4b3e 3a76 7dbb b5f9 393e 092f 7a3c
000001a0: 5afa a63d fcd9 b13c 88f4 623c 1d98 fb3c
000001b0: 279e dc3d a371 7b3c 7227 e8bc 92b3 8dbd
000001c0: 2840 2fbd d0e1 30bd 4b0e e13c 06b3 eabd
000001d0: 6b3a 4d3d f745 c83d 3cf3 4fbd 21be a63d
000001e0: 7279 9c3d 3d25 33bd 5d99 85bd c105 2ebe
000001f0: 8193 13bd fc17 883c 2b87 5c3d 700d e83d
00000200: 85c1 b53b 3259 e6bd 8389 29be f551 813c
00000210: 97b3 0d3e db32 9b3d 3430 193c e546 173d
00000220: 5d20 cc3d 0e59 67bd c93f 243d 7cb0 f0bd
00000230: 6fd5 91bd fa0b 4ebd 546f c1bd 73ca 10be
00000240: 6c2f e6bc 6003 9c3d fc8b 4e3d ba4b 9fbd
00000250: 3cf4 0c3e 9f76 54bd 9408 e0bd 734b 123d
00000260: 3539 003e 2b69 a33d 82ef 173e 3cdc ddbd
00000270: 1925 13be 8bf2 613c 3367 e13d 2cd0 3cbd
00000280: b80e b03d 35ff 423e 9950 193d a0e0 eebb
00000290: 9069 d63d 4f2d 03bd 8131 67bd 78aa 8dbd
000002a0: 1220 d43d c079 e03d 1c8e 463e 7692 7b3c
000002b0: 4276 06bd 2dfd ad3d 22be 0cbd 515e 1c3e
000002c0: adc2 13be 418d 93bd ce38 cbbc 39c6 d33d
000002d0: 2baa c4bd 0a7c 503c 22d4 18be 6cc4 123d
000002e0: 3855 b63d 4563 903b 3d2d 233b 6215 2ebd
000002f0: 677b abbd 542f 52bd ccaa ed3d d84f 613c
00000300: 8a33 bf3d 898a 683e 72b8 a1bd 8ebf 81bc
00000310: 09fd 5ebd 7a87 103c 48ca 8abc 2ea5 c7bd
00000320: 0854 613d 7bc5 133c 17b1 04bd 7be0 a0bd
00000330: 2a17 18bd 36a0 793d acd6 32bd f2e0 a13d
00000340: 9ebd 853c b1fe 253d ba67 c6bd cfe5 713b
00000350: 1189 25bd f2ac e2bd 7c86 9a3d a043 9cbd
00000360: abbe c0bd e085 4f3d e175 41be af96 053e
00000370: 4280 393c 96f9 463d c149 ffbc c0b5 ffbc
00000380: 9324 b5bc 5ecc 8e3e 85a0 9bbd 67d8 cebd
00000390: 8080 353d af25 2f3d 76ba 3b3d 1180 c2bc
000003a0: cc54 453d 312f 43bd 76ed 0ebd 99b7 5f3d
000003b0: 489f af3d f440 e9bd 08c6 2dbe 85e4 3b3e
000003c0: adc0 033e a4e8 863d 73fc c1bd a8ea f83c
000003d0: aa3a 39bc 47ed 2abd 0e5b 123d 0ac0 8ebe
000003e0: 0d21 f13c d1cc 0f3e 1e75 10be ec83 b13b
000003f0: 506c a03d a5e0 503d f19b 9abb 3819 013c

network_body._body_endoder.seq_layers.2.bias f4 [128]
0.0 0.0 0.0 0.0 0.0 0.0 0.0 0.0
0.0 0.0 0.0 0.0 0.0 0.0 0.0 0.0
0.0 0.0 0.0 0.0 0.0 0.0 0.0 0.0
0.0 0.0 0.0 0.0 0.0 0.0 0.0 0.0
0.0 0.0 0.0 0.0 0.0 0.0 0.0 0.0
0.0 0.0 0.0 0.0 0.0 0.0 0.0 0.0
0.0 0.0 0.0 0.0 0.0 0.0 0.0 0.0
0.0 0.0 0.0 0.0 0.0 0.0 0.0 0.0
0.0 0.0 0.0 0.0 0.0 0.0 0.0 0.0
0.0 0.0 0.0 0.0 0.0 0.0 0.0 0.0
0.0 0.0 0.0 0.0 0.0 0.0 0.0 0.0
0.0 0.0 0.0 0.0 0.0 0.0 0.0 0.0
0.0 0.0 0.0 0.0 0.0 0.0 0.0 0.0
0.0 0.0 0.0 0.0 0.0 0.0 0.0 0.0
0.0 0.0 0.0 0.0 0.0 0.0 0.0 0.0
0.0 0.0 0.0 0.0 0.0 0.0 0.0 0.0
00000000: 0000 0000 0000 0000 0000 0000 0000 0000
00000010: 0000 0000 0000 0000 0000 0000 0000 0000
00000020: 0000 0000 0000 0000 0000 0000 0000 0000
00000030: 0000 0000 0000 0000 0000 0000 0000 0000
00000040: 0000 0000 0000 0000 0000 0000 0000 0000
00000050: 0000 0000 0000 0000 0000 0000 0000 0000
00000060: 0000 0000 0000 0000 0000 0000 0000 0000
00000070: 0000 0000 0000 0000 0000 0000 0000 0000
00000080: 0000 0000 0000 0000 0000 0000 0000 0000
00000090: 0000 0000 0000 0000 0000 0000 0000 0000
000000a0: 0000 0000 0000 0000 0000 0000 0000 0000
000000b0: 0000 0000 0000 0000 0000 0000 0000 0000
000000c0: 0000 0000 0000 0000 0000 0000 0000 0000
000000d0: 0000 0000 0000 0000 0000 0000 0000 0000
000000e0: 0000 0000 0000 0000 0000 0000 0000 0000
000000f0: 0000 0000 0000 0000 0000 0000 0000 0000
00000100: 0000 0000 0000 0000 0000 0000 0000 0000
00000110: 0000 0000 0000 0000 0000 0000 0000 0000
00000120: 0000 0000 0000 0000 0000 0000 0000 0000
00000130: 0000 0000 0000 0000 0000 0000 0000 0000
00000140: 0000 0000 0000 0000 0000 0000 0000 0000
00000150: 0000 0000 0000 0000 0000 0000 0000 0000
00000160: 0000 0000 0000 0000 0000 0000 0000 0000
00000170: 0000 0000 0000 0000 0000 0000 0000 0000
00000180: 0000 0000 0000 0000 0000 0000 0000 0000
00000190: 0000 0000 0000 0000 0000 0000 0000 0000
000001a0: 0000 0000 0000 0000 0000 0000 0000 0000
000001b0: 0000 0000 0000 0000 0000 0000 0000 0000
000001c0: 0000 0000 0000 0000 0000 0000 0000 0000
000001d0: 0000 0000 0000 0000 0000 0000 0000 0000
000001e0: 0000 0000 0000 0000 0000 0000 0000 0000
000001f0: 0000 0000 0000 0000 0000 0000 0000 0000

action_model._discrete_distribution.branches.0.weight f4 [3, 128]
-0.0060629076 0.0058137006 -0.003815018 0.0024601272 -0.0053001437 -0.006064839 -0.0060886354 -0.0014254095
0.02115438 0.022826342 -0.004193978 -7.7034725e-05 -0.011045127 0.00920705 -0.0055333558 -0.009694191
-0.002672923 -0.01065262 -0.01607995 -0.00082076807 -0.0064010657 0.003980206 -0.0041495385 -0.015666774
0.000943416 0.00612284 0.00492493 0.016376285 -0.007971008 0.005180253 0.002799814 0.008968554
0.008972747 -0.0004143389 0.011647762 0.0033572488 -0.010750095 -0.0008364074 -0.016533157 -0.01355645
-0.006815494 0.0008457672 0.0034763326 0.018357389 -0.006271349 0.0008682964 0.01747882 -0.010049265
-0.020199893 -0.00034852495 0.004727903 -0.0070180446 -0.013456494 0.007568856 0.0028528392 0.009758751
-0.0019029388 -0.00047510295 0.0009708606 0.00071116554 -0.012018486 0.008687795 0.0006208365 -0.010825972
0.0024245228 0.007296481 -0.01374499 0.008680746 0.009014669 -0.0049071666 -0.005583435 0.0068725
0.004229966 -0.009131036 0.00074041827 0.017721934 0.002909885 0.0016806469 -0.009875833 0.0011033741
-0.009399918 -0.0031205863 0.008087711 -0.0029925813 -3.225654e-05 0.0075814757 0.003806925 -0.0023453538
0.0084227165 0.00086092 0.002655571 0.0011815671 -0.00042628087 0.0045794114 0.0011927082 -0.015374078
0.019832915 0.0103015555 -0.0032488063 -0.0047666067 0.013206529 -0.0069986777 0.014133452 -0.004499662
-0.0009785742 0.010710766 0.0063389847 -0.011420829 0.0020175541 0.011737483 -0.017035909 0.008633892
0.0013015767 -0.0075427964 0.0042036325 0.0061584013 0.0017910658 -0.0033607245 -0.0066871666 0.00537054
0.0132410405 -0.0026939323 -0.00067197805 0.0064017302 0.008737106 0.016063787 0.006867441 0.0039523826
-0.0021277827 -0.0020172205 -0.0041585336 -0.000455433 -0.0048841876 0.0024670418 -0.005400128 0.0110626845
0.0008403755 0.0012811044 -0.011930209 -0.008612931 0.014123559 -0.004166889 -0.0061689834 0.006193256
-0.0003991456 -0.00066683843 0.0075293104 -0.0034173043 -0.005148093 0.0008221673 0.004119245 0.013456284
-0.018961815 0.0033525627 0.005472394 -0.0008210015 -0.011722039 0.00972285 0.008468605 0.0003170044
-0.0050211083 -0.0011325106 0.010157317 -0.0090645505 0.011415259 -0.0049605216 0.0037542803 0.006223698
0.03194109 -0.0045507117 0.0022557646 -0.00095943484 -0.0082138125 -0.0022768672 0.0036828306 0.010436712
0.012532658 -0.0058970666 -0.007357096 0.016126553 -0.0038135739 -0.0047339606 0.01592402 -0.009867422
0.0076526203 -0.0071323114 -0.015382885 -0.0016414769 0.013891803 -0.01201979 0.0042746565 -0.0064792335
-0.006132935 -0.0130393 -0.0041132434 0.0053568995 -0.007974753 -0.0015937163 0.010635787 -0.006327783
0.006077186 0.008889413 0.0035559766 0.0031574578 -0.00865443 0.003930786 0.0051605017 0.011717792
-0.007787984 0.0075729243 -0.00035805453 -0.00028954886 0.0064223255 -0.006713673 0.0011574007 0.011510483
0.0018179324 0.0062630833 0.007731966 -0.01225625 -0.0046088854 0.0036945138 0.0035804098 -0.009924206
-0.00010637225 0.009056351 -0.008016176 0.011384653 -0.008885272 -0.007743145 -0.0073290514 -0.020207508
0.008182112 0.0013503835 0.00080092513 -0.017703447 0.011421426 0.004183509 0.0062923953 -0.0110082105
0.0018414259 -0.023377543 -0.00027931822 0.0008022831 -0.00021706094 0.0035445068 0.01165862 0.007955917
0.0018842986 -0.01295347 0.0011723823 -0.0054327277 -0.0135434 -0.011915489 0.0076614753 0.004169355
00000000: 5bab c6bb db80 be3b 6205 7abb 163a 213b
00000010: d4ac adbb 8fbb c6bb 2d83 c7bb ced4 baba
00000020: f34b ad3c 4ffe ba3c a36d 89bb b48d a1b8
00000030: 9ff6 34bc 2bd9 163c 2751 b5bb 62d4 1ebc
00000040: 352c 2fbb 5488 2ebc 19ba 83bc d028 57ba
00000050: 08c0 d1bb 636c 823b daf8 87bb 9b57 80bc
00000060: 934f 773a 1ba2 c83b 4f61 a13b 8f27 863c
00000070: d598 02bc 1dbf a93b 167d 373b d8f0 123c
00000080: 6e02 133c a03b d9b9 41d6 3e3c 4a05 5c3b
00000090: 2b21 30bc 5a42 5bba 8b70 87bc df1b 5ebc
000000a0: 8254 dfbb 7ab6 5d3a 2fd3 633b 3c62 963c
000000b0: e37f cdbb 639e 633a be2f 8f3c aca5 24bc
000000c0: 3f7a a5bc 3aba b6b9 86ec 9a3b a0f7 e5bb
000000d0: a078 5cbc 2a04 f83b b3f6 3a3b 2be3 1f3c
000000e0: 086c f9ba 3d17 f9b9 5a81 7e3a 836d 3a3a
000000f0: 2fe9 44bc 4157 0e3c a2bf 223a 6b5f 31bc
00000100: bee4 1e3b 5217 ef3b ab32 61bc b039 0e3c
00000110: 43b2 133c 4ccc a0bb 3ff5 b6bb b532 e13b
00000120: 879b 8a3b 579a 15bc a118 423a 972d 913c
00000130: c5b3 3e3b 2749 dc3a 3fce 21bc 179f 903a
00000140: 1d02 1abc c082 4cbb 5282 043c 2f1f 44bb
00000150: 324b 07b8 076e f83b 9a7d 793b 82b4 19bb
00000160: 6fff 093c 5daf 613a 1709 2e3b d0de 9a3a
00000170: 737e dfb9 e30e 963b a554 9c3a 8fe3 7bbc
00000180: a378 a23c dbc7 283c ede9 54bb 3231 9cbb
00000190: 3360 583c 2a55 e5bb ff8f 673c e771 93bb
000001a0: 8043 80ba 357c 2f3c 42b7 cf3b 6e1e 3bbc
000001b0: f138 043b 924e 403c e48e 8bbc 2b75 0d3c
000001c0: ab99 aa3a 9029 f7bb a0be 893b 6acc c93b
000001d0: 32c2 ea3a 9a3f 5cbb 0520 dbbb 5bfb af3b
000001e0: f3f0 583c af8c 30bb af27 30ba 9bc5 d13b
000001f0: 1426 0f3c 3498 833c 4508 e13b fd82 813b
00000200: 4572 0bbb 5833 04bb 4f44 88bb 2fc7 eeb9
00000210: 890b a0bb 18ae 213b 8ff3 b0bb 4340 353c
00000220: a54c 5c3a bbea a73a ec76 43bc 401d 0dbc
00000230: 8066 673c 668a 88bb 2f25 cabb ccf0 ca3b
00000240: 6a44 d1b9 c5ce 2eba 6fb8 f63b daf4 5fbb
00000250: 56b1 a8bb b786 573a bbfa 863b bf77 5c3c
00000260: cf55 9bbc abb6 5b3b c551 b33b 7a38 57ba
00000270: cc0d 40bc 974c 1f3c e7bf 0a3c 9c33 a639
00000280: 1c88 a4bb c070 94ba e06a 263c 7b83 14bc
00000290: 1107 3b3c df8b a2bb 5f0a 763b 2af0 cb3b
000002a0: a9d4 023d 231e 95bb 73d5 133b 9582 7bba
000002b0: 3a93 06bc 7e37 15bb a55b 713b befe 2a3c
000002c0: c755 4d3c 2e3c c1bb cb13 f1bb d51b 843c
000002d0: 27ed 79bb 571f 9bbb 1773 823c f8aa 21bc
000002e0: d5c2 fa3b 2ab6 e9bb 7f08 7cbc d326 d7ba
000002f0: 729a 633c a7ee 44bc 6b12 8c3b c04f d4bb
00000300: caf6 c8bb caa2 55bc 63c8 86bb ee88 af3b
00000310: 8aa8 02bc 3fe4 d0ba b941 2e3c 4b59 cfbb
00000320: 2223 c73b e7a4 113c 630b 693b 5aed 4e3b
00000330: 4fcb 0dbc d3cd 803b 6d19 a93b fbfb 3f3c
00000340: 5832 ffbb 4b26 f83b 44b9 bbb9 97ce 97b9
00000350: 5f72 d23b 5ffe dbbb ecb3 973a 7796 3c3c
00000360: b047 ee3a 8d3a cd3b 6f5c fd3b 70ce 48bc
00000370: 2206 97bb a81f 723b 4fa5 6a3b 2399 22bc
00000380: 2b14 dfb8 1761 143c 4756 03bc b286 3a3c
00000390: 8893 11bc 35ba fdbb 8a28 f0bb 378a a5bc
000003a0: 440e 063c 5aff b03a 2df5 513a d206 91bc
000003b0: ef20 3b3c d115 893b 7030 ce3b c85b 34bc
000003c0: 005c f13a 4382 bfbc 7571 92b9 4f50 523a
000003d0: da9a 63b9 f54a 683b cc03 3f3c 8959 023c
000003e0: 92fa f63a cb3a 54bc 9faa 993a 0605 b2bb
000003f0: 23e5 5dbc 2f39 43bc 1d0d fb3b 169f 883b

action_model._discrete_distribution.branches.0.bias f4 [3]
0.0 0.0 0.0
00000000: 0000 0000 0000 0000 0000 0000

action_model._discrete_distribution.branches.1.weight f4 [3, 128]
-0.01381664 -0.0025739167 0.0103483265 -0.0023788007 -0.010954435 0.014280031 -0.008528763 0.0031511844
0.00245276 -0.006535937 -0.008002488 0.0034360432 0.003962317 0.00035093256 0.012619278 -0.006961852
0.009383339 0.009080208 0.013146929 -0.008209436 0.0011761542 0.0035377932 -0.01448512 -0.0028227137
-0.0015542884 0.0071925125 -0.0052137887 0.010662198 -0.020944651 0.02233683 0.0014051595 -0.008934834
0.004792015 0.006391643 -0.0113557745 -0.0049669566 -0.008671681 0.0065841833 -0.006089575 0.0047306386
0.0016877492 0.003932572 -0.005257213 -0.0027705801 0.00069843896 0.0022541708 0.0032484692 -0.002120204
0.0037236647 0.0060092285 0.002045213 0.007144368 -0.00041549417 -0.0057133203 -0.004068772 -0.010945467
0.014764184 -0.012121215 0.009995472 -0.0031706148 -0.005387491 0.0002231715 0.02024111 -0.00085978815
0.00274319 -0.0021721825 -0.005585543 0.00062132854 -0.005884119 -0.018533649 0.02545677 -0.007622874
0.002190696 0.0018641856 0.00059901725 -0.0047398587 -0.013006496 -0.009777057 0.013689712 0.0018283594
0.0037514293 -0.0034432698 0.00041329765 0.007457291 -0.0033507221 0.002991358 0.00089428574 -0.016803553
-0.0089689335 -0.009132957 -0.009595601 0.0060457173 -0.0048634796 -0.0017914398 -0.00086613494 -0.003669298
0.0010498408 -0.010326029 -0.01057678 0.004695203 0.008126419 -0.015561064 0.01010138 0.007587413
-0.012143788 -0.02796789 0.008494294 -0.0074924813 0.007409319 -0.011017993 -0.004515701 0.0031419694
-0.011600467 0.0100913355 -0.0067624906 -0.010374593 -0.011074801 0.0052029113 0.002388502 0.001914064
0.008257155 -0.009046781 -0.01387526 0.005852954 -0.015665116 0.00024897335 -0.004714887 -0.002912972
0.010839276 -0.0073924395 9.685285e-05 -0.003232343 -0.0054002902 0.0072192587 0.0026998452 0.0032449868
-0.0020513204 0.001978279 0.0024333103 -0.013556977 0.002188961 0.0013348513 0.002461905 -0.00012967261
-0.0048984215 -0.006684507 0.004964776 0.003021329 -0.000227825 -0.015434019 -0.008664499 -0.019015994
0.005285858 0.0053786426 -0.001586693 0.00905871 -0.003987025 -0.010019627 0.011231097 0.008798267
0.0054611056 0.0075743273 -0.013213745 0.0012678782 -0.002868471 -0.0023945002 -0.011765854 -0.008274135
0.0021106228 -0.0035296574 0.0056937663 -0.006922894 0.015652152 6.7746245e-05 -0.005974689 0.0038329947
-0.0033098713 -0.011416411 0.00068463216 0.006516464 -0.010297766 0.011269118 0.0016359946 0.0020407622
0.0059733624 0.0035522429 0.005814865 -0.011294619 -0.006028502 -0.0008195281 -0.012267667 -0.004374483
0.0059587355 -0.015396177 -0.012975546 0.004323486 0.009664797 -0.006754135 0.007910979 0.0081623
-0.0049034464 0.00631035 -0.003993098 0.006376192 0.00021691986 0.015049152 -0.011016866 0.012316047
-0.002299995 -0.007383222 -0.0032374412 -0.013261502 -0.013673547 0.007164441 -0.006051149 0.011498622
0.008277196 0.0026296547 -0.005142167 0.00461111 -0.008517432 -0.0015052243 -0.010683003 0.0046964423
-0.013672024 0.010984837 0.011697803 0.015392959 -0.00091605133 -0.0022892868 0.008424888 -0.0065990775
0.0015196293 0.010021734 0.026586076 0.01337418 -0.004799663 -0.017075539 0.00365857 0.0013320249
0.004804226 0.015341853 -0.01908085 -0.0025728215 -0.0068266406 -0.0048964145 -0.0057147476 -0.0017121903
-0.0029012559 -0.013394139 -0.0062413784 -0.007915745 -0.00384572 -0.003993017 0.0058545177 -0.0057275677
00000000: 305f 62bc 28af 28bb 078c 293c a7e5 1bbb
00000010: 3b7a 33bc cbf6 693c 3abc 0bbc 1a84 4e3b
00000020: 7cbe 203b 6a2b d6bb de1c 03bc 3d2f 613b
00000030: 53d6 813b 5ffd b739 17c1 4e3c 3f20 e4bb
00000040: 94bc 193c 27c5 143c 3866 573c df80 06bc
00000050: 3029 9a3a 52da 673b ff52 6dbc 47fd 38bb
00000060: 44b9 cbba 2baf eb3b 6ed8 aabb 80b0 2e3c
00000070: 1e94 abbc bafb b63c 542d b83a 6963 12bc
00000080: 5606 9d3b fd70 d13b 920d 3abc dac1 a2bb
00000090: ab13 0ebc 22c0 d73b 0f8b c7bb 7903 9b3b
000000a0: 7737 dd3a cedc 803b b344 acbb 9f92 35bb
000000b0: 7217 373a b6ba 133b 45e4 543b 1ff3 0abb
000000c0: ba08 743b 10e9 c43b fb08 063b 4d1b ea3b
000000d0: afd6 d9b9 ce36 bbbb 5553 85bb 9e54 33bc
000000e0: 7ae5 713c 1098 46bc 0cc4 233c 17ca 4fbb
000000f0: 8d89 b0bb 2503 6a39 afd0 a53c 6863 61ba
00000100: 17c7 333b 2d5b 0ebb ee06 b7bb a7e0 223a
00000110: 91cf c0bb e1d3 97bc b78a d03c 4dc9 f9bb
00000120: c891 0f3b b057 f43a 5e07 1d3a d150 9bbb
00000130: 3319 55bc f32f 20bc d04a 603c 90a5 ef3a
00000140: 8ada 753b 7ba8 61bb dfaf d839 4a5c f43b
00000150: ca97 5bbb a90a 443b 806e 6a3a 9ba7 89bc
00000160: 6ff2 12bc 66a2 15bc de36 1dbc 271b c63b
00000170: d35d 9fbb bfce eaba 550d 63ba 9b78 70bb
00000180: d09a 893a 812e 29bc 3b4a 2dbc 38da 993b
00000190: ac24 053c d5f3 7ebc 4280 253c d59f f83b
000001a0: bdf6 46bc eb1c e5bc a72b 0b3c 7d83 f5bb
000001b0: dfc9 f23b d084 34bc 72f8 93bb 80e9 4d3b
000001c0: e30f 3ebc 2156 253c e297 ddbb 32fa 29bc
000001d0: 1573 35bc 2f7d aa3b 6a88 1c3b 55e1 fa3a
000001e0: 0549 073c f338 14bc 0f55 63bc 23ca bf3b
000001f0: 2154 80bc a388 8239 577f 9abb 8fe7 3ebb
00000200: 3897 313c 473c f2bb 7a1d cb38 b7d5 53bb
00000210: ebf4 b0bb 888f ec3b e3ef 303b d8a9 543b
00000220: 726f 06bb 04a6 013b 2c78 1f3b 151e 5ebc
00000230: ac74 0f3b 2df6 ae3a e957 213b baf8 07b9
00000240: f082 a0bb b509 dbbb 8faf a23b 7d01 463b
00000250: 4fe4 6eb9 f8de 7cbc 8bf5 0dbc 6ec7 9bbc
00000260: fe34 ad3b 533f b03b 95f8 cfba fc6a 143c
00000270: 97a5 82bb 5d29 24bc a302 383c 9b26 103c
00000280: 13f3 b23b 1032 f83b 777e 58bc ef2e a63a
00000290: f5fc 3bbb 0ced 1cbb 92c5 40bc 3d90 07bc
000002a0: 6052 0a3b d351 67bb c692 ba3b 72d9 e2bb
000002b0: f138 803c fd12 8e38 53c7 c3bb fb32 7b3b
000002c0: 6dea 58bb e60b 3bbc e378 333a 1088 d53b
000002d0: f6b7 28bc 1ba2 383c df6e d63a 4fbe 053b
000002e0: 32bc c33b bfcc 683b a08a be3b 110d 39bc
000002f0: bd8a c5bb 9ad5 56ba 53fe 48bc d357 8fbb
00000300: 7f41 c33b 3f40 7cbc 6297 54bc 07ac 8d3b
00000310: 1959 1e3c ca51 ddbb 0d9d 013c 2bbb 053c
00000320: 17ad a0bb 0dc7 ce3b 89d8 82bb 60ef d03b
00000330: fb74 6339 b890 763c 1680 34bc 3fc9 493c
00000340: 83bb 16bb f5ee f1bb 402b 54bb c546 59bc
00000350: 0307 60bc b0c3 ea3b b848 c6bb b764 3c3c
00000360: 149d 073c 4956 2c3b a07f a8bb cb18 973b
00000370: b38c 0bbc f24a c5ba c307 2fbc 9de4 993b
00000380: a000 60bc bff9 333c 24a8 3f3c c032 7c3c
00000390: 2a23 70ba dc07 16bb 8b08 0a3c 133d d8bb
000003a0: 4c2e c73a 3332 243c 0bcb d93c 601f 5b3c
000003b0: 7e46 9dbb 00e2 8bbc 9fc4 6f3b 5797 ae3a
000003c0: c56c 9d3b 655c 7b3c 714f 9cbc c89c 28bb
000003d0: 03b2 dfbb 1a72 a0bb c742 bbbb 936b e0ba
000003e0: ff22 3ebb 1773 5bbc 7a84 ccbb 0ab1 01bc
000003f0: 7a08 7cbb dbd7 82bb 41d7 bf3b 52ae bbbb

action_model._discrete_distribution.branches.1.bias f4 [3]
0.0 0.0 0.0
00000000: 0000 0000 0000 0000 0000 0000

action_model._discrete_distribution.branches.2.weight f4 [3, 128]
0.008899492 -0.01637421 -0.0055435956 0.0071557537 0.005840737 0.006286885 -0.001054887 0.0070760967
0.006450767 -0.00085661 0.0002954606 0.008628147 0.0023800952 -0.012783243 -0.014202738 0.00021576523
-0.0011620629 -0.006152511 0.005547333 -0.014491062 -0.003125788 -0.010350319 0.009795024 0.0006548232
-0.0037348443 0.025509266 -0.005567099 -0.01292372 0.013172417 0.0034336213 0.006261717 0.0019415434
-0.0017397121 0.004372956 -0.0017107694 -0.0015487005 -0.0016826453 0.0041939337 0.008908148 0.023589289
-0.0077157654 -0.011358256 0.008969966 0.005060389 0.010235679 0.0023024797 0.008342612 0.010327562
0.0019080781 0.0034232002 0.008638903 -0.008353229 0.0010617927 0.0056089894 -0.0032444303 -0.008652316
-0.01095444 0.0075153164 0.016707657 0.0020478067 -0.0015522443 -0.008023082 -0.0068914094 0.004411258
0.013672228 -0.013251771 0.0015387493 -0.0029244206 -0.013223903 0.004898448 -0.004049747 -0.0032121127
-0.0001928377 0.00644168 0.0021382833 -0.0024765963 -0.021530954 0.004593338 0.011319204 -0.0048898095
-0.0009312746 0.0020244687 -0.004150503 0.0130158905 0.0034396767 -0.008296961 0.008025504 0.011417676
-0.010812601 0.016356705 0.007956633 0.010315138 0.009710092 0.017880283 0.007344858 0.004475295
0.008500553 -0.023031866 -0.0023972532 0.019074617 -0.0029767384 -0.007537993 -0.009003366 -0.009882561
0.00741936 -0.017914811 -0.008650381 0.00022478821 0.007237084 -0.002569329 0.012299542 -0.0013873102
-0.0015785125 0.013002457 -0.015599514 -0.0034279542 -0.007926304 -0.009773585 -0.0044294833 -0.0056682047
-0.017819146 -0.02205305 0.003441146 0.00061297347 -0.010634151 0.0033167645 0.0065600835 -0.0084831305
-0.006231322 -0.0038266473 -0.0038406427 0.008926196 -0.015651539 -0.0004154277 -0.005900986 -0.0037603688
0.0045878394 -0.0030932403 -0.0023573546 -0.008076384 -0.0065399134 0.005868688 -0.00017812318 0.010695997
-0.0021984924 -0.0034584035 0.014842651 0.01864096 -0.00037271998 -0.00018960911 -0.0015166252 -0.021208178
-0.010503115 -0.021491615 0.022444306 0.003601749 -0.00035626045 -0.007166399 -0.009918703 0.010993003
-0.00048051626 0.00097319856 -0.010664847 -0.0035958819 0.0062047862 0.0025204187 0.0028201356 -0.0012143187
0.008933056 0.004564417 -0.0028825412 0.001163689 -0.0056402455 -0.0023744586 -0.0068949345 -0.010598498
0.014648536 0.003037847 0.0022981726 0.0061991476 -0.0008718275 0.017886296 -0.011782973 0.008470009
-0.0037409437 0.0041858885 -0.016086137 0.0036765565 -0.008939048 0.0067890445 -0.013279818 0.001755598
-0.004395378 -0.0034657144 0.010931035 0.00675147 0.004510462 -0.011472151 -0.0070860744 0.011536563
-0.009533383 -0.0073454464 0.0013600932 0.008738502 -0.012192269 0.00121064 -0.015994193 0.0031523723
-0.0045860773 0.01284447 -0.013822235 -0.0116754 -0.007926167 -0.014676096 0.003940445 0.006866451
0.0076529393 -0.018995127 0.0041357195 0.0060634124 0.003378693 0.012556295 0.0050405553 0.006604159
0.0021238287 -0.010228877 0.002467457 0.0030018564 -0.0020402255 -0.0014224275 0.0009905905 -0.0046436214
-0.00094691705 0.002752361 0.003531649 -0.0027972644 -0.004323522 0.014699178 -0.016432736 -0.0064921505
-0.011984671 -0.01120497 -0.0023335682 0.0012053906 0.0017860063 -0.015963957 -0.0025095476 -0.007079889
-0.004296463 -0.0013802676 -0.0019539834 0.012297911 0.008765473 0.017530479 -0.018329708 0.01338731
00000000: 2dcf 113c 3523 86bc 0da7 b5bb d07a ea3b
00000010: a763 bf3b 3702 ce3b 2244 8aba 9ade e73b
00000020: f560 d33b 208e 60ba 0de8 9a39 125d 0d3c
00000030: 5ffb 1b3b cf70 51bc 9ab2 68bc 0a3f 6239
00000040: 5c50 98ba 019b c9bb 67c6 b53b eb6b 6dbc
00000050: 05da 4cbb 6294 29bc 4f7b 203c 71a8 2b3a
00000060: 4ac4 74bb cff8 d03c 366c b6bb 03be 53bc
00000070: 1fd1 573c 9b06 613b 172f cd3b 637b fe3a
00000080: 0d07 e4ba 044b 8f3b e53b e0ba c4fd caba
00000090: 358c dcba 446d 893b 7bf3 113c 533e c13c
000000a0: 88d4 fcbb fb17 3abc c4f6 123c 9fd1 a53b
000000b0: 8db3 273c 33e5 163b 73af 083c ef34 293c
000000c0: 7a18 fa3a c557 603b 2f8a 0d3c fbdb 08bc
000000d0: da2b 8b3a 9dcb b73b 82a0 54bb 72c2 0dbc
000000e0: 407a 33bc 0b43 f63b 7fde 883c 7f34 063b
000000f0: ad74 cbba 3f73 03bc 55d1 e1bb 508c 903b
00000100: 7b01 603c f51d 59bc dcaf c93a a3a7 3fbb
00000110: 12a9 58bc 2983 a03b bdb3 84bb 4f82 52bb
00000120: 7a34 4ab9 ba14 d33b 7122 0c3b 644e 22bb
00000130: af61 b0bc b683 963b 2f74 393c b23a a0bb
00000140: c820 74ba f3ac 043b f100 88bb 9a40 553c
00000150: 336c 613b faef 07bc 677d 033c 3411 3b3c
00000160: 5627 31bc 7ffe 853c 8a5c 023c d300 293c
00000170: 1417 1f3c ac79 923c 22ad f03b 7fa5 923b
00000180: e745 0b3c 53ad bcbc 3c1b 1dbb 5f42 9c3c
00000190: 6215 43bb 4501 f7bb db82 13bc 77ea 21bc
000001a0: 1a1e f33b 15c2 92bc 54ba 0dbc 20b5 6b39
000001b0: 1025 ed3b 3062 28bb 0584 493c 68d6 b5ba
000001c0: 17e6 ceba 4208 553c 1b95 7fbc 87a7 60bb
000001d0: 54dd 01bc 6321 20bc 3325 91bb 59bc b9bb
000001e0: 75f9 91bc 99a8 b4bc da84 613b f4af 203a
000001f0: dd3a 2ebc 135e 593b f8f5 d63b d4fc 0abc
00000200: 1e30 ccbb 7dc8 7abb 4bb3 7bbb 2e3f 123c
00000210: a837 80bc c3cd d9b9 0f5d c1bb 8570 76bb
00000220: 9655 963b f6b7 4abb d97d 1abb cf52 04bc
00000230: c54c d6bb 204e c03b 94c6 3ab9 433e 2f3c
00000240: 9514 10bb 62a6 62bb 972e 733c edb4 983c
00000250: a169 c3b9 cfd1 46b9 7fc9 c6ba c6bc adbc
00000260: 4215 2cbc 2f0f b0bc 1fdd b73c 520b 6c3b
00000270: 78c8 bab9 1dd4 eabb 0e82 22bc ff1b 343c
00000280: cded fbb9 401e 7f3a 9cbb 2ebc e3a8 6bbb
00000290: 8551 cb3b 9c2d 253b 06d2 383b c629 9fba
000002a0: f45b 123c 1b91 953b 04e9 3cbb ec86 983a
000002b0: cfd1 b8bb ce9c 1bbb e7ee e1bb 53a5 2dbc
000002c0: 6a00 703c 9e16 473b f09c 163b 3822 cb3b
000002d0: 5a8b 64ba 4886 923c 5f0d 41bc cbc5 0a3c
000002e0: 9f2a 75bb c729 893b 13c7 83bc 62f2 703b
000002f0: 1675 12bc a276 de3b 9893 59bc 181c e63a
00000300: 1a07 90bb 0a21 63bb 1518 333c 6f3b dd3b
00000310: 7fcc 933b b0f5 3bbc 4d32 e8bb da03 3d3c
00000320: e831 1cbc 12b2 f0bb 2845 b23a ef2b 0f3c
00000330: 15c2 47bc 56ae 9e3a 4106 83bc 0898 4e3b
00000340: ce46 96bb 9d71 523c a876 62bc 2d4a 3fbc
00000350: c1dc 01bc 0274 70bc d91e 813b f7ff e03b
00000360: 82c5 fa3b ab9b 9bbc ee84 873b 97af c63b
00000370: 106d 5d3b ebb8 4d3c 3e2b a53b b367 d83b
00000380: ef2f 0b3b 0597 27bc 0fb5 213b cbba 443b
00000390: 4eb5 05bb bf70 baba b4d6 813a 8529 98bb
000003a0: 873a 78ba f460 343b 3d73 673b 4f52 37bb
000003b0: 55ac 8dbb d2d4 703c f29d 86bc 1bbc d4bb
000003c0: 5a5b 44bc 0d95 37bc c7ee 18bb 32fe 9d3a
000003d0: 6d18 ea3a d8c6 82bc 3977 24bb 6afe e7bb
000003e0: 58c9 8cbb 18ea b4ba 670e 00bb 2d7d 493c
000003f0: 0f9d 0f3c 149c 8f3c 2f28 96bc 7356 5b3c

action_model._discrete_distribution.branches.2.bias f4 [3]
0.0 0.0 0.0
00000000: 0000 0000 0000 0000 0000 0000

action_model._discrete_distribution.branches.3.weight f4 [3, 128]
0.018610192 0.0012048546 -0.0006098754 0.0017263076 -0.012891911 0.0046535986 0.012466398 0.0054712784
-0.002174924 -0.0034463406 0.004658821 0.0053675333 0.0069359243 -0.021516865 0.0077690445 0.009466671
-0.0031460493 -0.000984786 -0.015090468 -0.013711958 0.0074055935 -0.0053854967 0.0012989928 -0.004334586
0.00817185 -0.0023968613 0.0072579454 0.004082361 0.00078121165 -0.018449552 -0.0045054466 0.004723308
0.004254523 -0.001813164 0.0011924068 -0.0103407325 0.0058287205 -0.01174077 -0.009325478 0.00590111
-0.0019449918 -0.0035479448 -0.009931731 -0.010495636 -0.010970961 -0.00520672 0.013125189 0.013017646
0.006220022 0.013195047 -0.010724387 -0.0026608072 -0.0074481377 0.008597921 0.0078061097 -0.012577871
-0.0036157786 0.0039859843 -0.0021832513 -0.009909234 0.009045465 0.0018429371 0.0055382326 -0.0042906096
0.002633489 -0.001735713 0.0034416046 -0.008086688 0.0072153728 -0.0057241083 -0.009496334 -0.012322007
0.002032331 -0.0033218123 -0.0046719676 0.0006786067 0.0015845074 0.005223792 -0.00045920743 0.008663738
0.01717887 0.0149651235 -0.004249963 -0.003280781 0.020786284 0.008489114 -0.021516291 0.002337085
-0.011769792 -0.0052466174 -0.003228277 -0.0020628667 -0.003969657 0.0052473773 0.01651052 9.6669195e-05
0.005883334 0.0055719805 0.019234315 0.012338823 0.009974033 0.0017719966 0.01040227 0.0005686932
-0.011694183 -0.0027939836 -0.018912194 -0.002079797 0.00057562493 -0.0067117265 0.0014755175 0.011781542
0.019791797 -0.008168129 0.0051403474 0.01604714 -0.0009704693 -0.0040885536 -0.00946076 -0.003923044
-0.01226422 -0.018501114 0.017089536 0.0011013079 -0.004601124 0.014615595 0.0038723722 0.0033869992
0.0014926853 0.004483244 -0.020003965 0.0061588353 -0.00906622 -0.0017013549 -0.016721237 0.0041946964
-0.0072390917 -0.009089152 0.0012111153 -0.0038178444 -0.0077652247 -0.015573663 -0.00316253 0.0012595955
0.0045522135 -0.0141127845 -5.071186e-05 -0.0006187148 -0.015225726 0.0058839167 0.0057386006 -0.0018299153
-0.012202208 -0.01921971 -0.0015207231 -0.012294522 -0.015134475 -0.001224165 -0.0021036675 0.012536083
0.010346802 -0.0097882515 0.003620711 -0.011330083 -0.008941296 0.010612168 -0.0115646245 -0.007450124
-0.0028527204 -0.0020096286 -0.01266162 -0.0021047504 0.003101424 0.015408488 -0.012404866 0.011852658
-0.012684201 -0.0034915588 -0.009519362 0.011529006 0.000785849 0.008902771 0.0005314617 0.009073676
-0.0024159458 0.0053126924 0.005710901 -0.0006197069 0.0060478803 0.008212894 -0.015656637 -0.00075073476
-0.005485604 -0.0107637225 -0.011437819 0.001856214 0.0039695143 0.0061161295 0.0014156811 0.0061614006
0.0008162125 0.0032570504 0.016860384 0.0020854778 0.024790822 0.0134945065 -0.0047745886 0.0058786697
-0.015633075 0.010127832 0.0016459281 -0.008174626 -0.021654708 -0.008207514 -0.0041727326 0.004785685
0.020788664 0.0013900549 -0.00041322672 0.010053214 -0.013353809 -0.0119449 -0.00071813964 -0.01681827
0.0015656902 -0.012364528 0.0008253171 -0.001428586 0.006554553 0.011905719 -0.0066120178 -3.6650425e-05
-0.0041450146 -0.009542469 0.009942156 -0.007421999 -0.0009214733 -0.0013852603 0.017221108 -0.0072081587
-0.017698357 -0.009216911 0.0008883576 -0.008183226 -0.007973314 0.009263302 -0.0051727397 -0.0036297236
-0.00064918614 0.006302444 -0.009557526 0.0025057876 -0.00022466139 0.0064669508 -0.022099188 0.0045766565
00000000: 6774 983c 36ec 9d3a 0ce0 1fba 4545 e23a
00000010: 9838 53bc 377d 983b dd3f 4c3c 6948 b33b
00000020: 2b89 0ebb 00dc 61bb 06a9 983b 22e2 af3b
00000030: c046 e33b 2344 b0bc 7893 fe3b 191a 1b3c
00000040: f32d 4ebb ef13 81ba 033e 77bc 1fa8 60bc
00000050: 9faa f23b d278 b0bb f742 aa3a 2509 8ebb
00000060: 39e3 053c a914 1dbb 0fd4 ed3b 53c5 853b
00000070: 3aca 4c3a 8423 97bc 6da2 93bb fbc5 9a3b
00000080: 8769 8b3b b0a7 edba 884a 9c3a 2d6c 29bc
00000090: dafe be3b 5c5c 40bc e4c9 18bc 195e c13b
000000a0: 18ef feba a384 68bb b3b8 22bc e3f5 2bbc
000000b0: 8cbf 33bc 229d aabb 080b 573c f747 553c
000000c0: 54d1 cb3b 0a30 583c 57b5 2fbc f060 2ebb
000000d0: 820f f4bb 4bde 0c3c 65ca ff3b 6a13 4ebc
000000e0: b3f6 6cbb dc9c 823b e114 0fbb 575a 22bc
000000f0: 6e33 143c b58e f13a 107a b53b 3e98 8cbb
00000100: 9d96 2c3b dd80 e3ba 8b8c 613b 077e 04bc
00000110: ef6e ec3b 4d91 bbbb 8396 1bbc 3ee2 49bc
00000120: db30 053b c3b2 59bb 4e17 99bb 86e4 313a
00000130: 3faf cf3a 582c ab3b c7c1 f0b9 5af2 0d3c
00000140: b4ba 8c3c 4730 753c 4643 8bbb 5f02 57bb
00000150: ff47 aa3c ed15 0b3c ef42 b0bc c829 193b
00000160: 16d6 40bc d1eb abbb 8091 53bb 2931 07bb
00000170: e513 82bb 31f2 ab3b 1241 873c e1ba ca38
00000180: fcc8 c03b 2995 b63b 4891 9d3c c628 4a3c
00000190: 206a 233c 5742 e83a 486e 2a3c 5b14 153a
000001a0: f598 3fbc 441b 37bb bfed 9abc 344d 08bb
000001b0: 89e5 163a 0bee dbbb 2766 c13a 5e07 413c
000001c0: 6822 a23c 9ed3 05bc 5c70 a83b 4b75 833c
000001d0: 1867 7eba 46f9 85bb 4e01 1bbc e18c 80bb
000001e0: deef 48bc a68f 97bc 5bff 8b3c c359 903a
000001f0: 07c5 96bb 4076 6f3c a0c7 7d3b 6bf8 5d3b
00000200: 35a6 c33a 2de8 923b 5bdf a3bc 0ed0 c93b
00000210: 7c8a 14bc ffff deba fafa 88bc aa73 893b
00000220: e735 edbb abea 14bc 49be 9e3a cd34 7abb
00000230: 6d73 febb ad28 7fbc 7342 4fbb 0319 a53a
00000240: bc2a 953b 4f39 67bc 72b3 54b8 3f31 22ba
00000250: 5375 79bc dfcd c03b df0a bc3b c5d9 efba
00000260: c5eb 47bc a772 9dbc 0053 c7ba f66e 49bc
00000270: 97f6 77bc 2974 a0ba afdd 09bb 2564 4d3c
00000280: a285 293c e75e 20bc 7349 6d3b d0a1 39bc
00000290: 837e 12bc a9de 2d3c 8d79 3dbc 2b20 f4bb
000002a0: b5f4 3abb f9b3 03bb af72 4fbc daef 09bb
000002b0: 4341 4b3b e273 7c3c c73d 4bbc a731 423c
000002c0: 65d1 4fbc a3d2 64bb 19f7 1bbc 28e4 3c3c
000002d0: 6f01 4e3a eedc 113c ca51 0b3a c1a9 143c
000002e0: d854 1ebb 1816 ae3b 8322 bb3b d373 22ba
000002f0: 4c2d c63b 608f 063c 5942 80bc f5cc 44ba
00000300: 95c0 b3bb 535a 30bc b165 3bbc 354c f33a
00000310: b312 823b d069 c83b 608e b93a 93e5 c93b
00000320: 18f7 553a 3d74 553b ca1e 8a3c 83ac 083b
00000330: 1f16 cb3c 1018 5d3c 2774 9cbb dba1 c03b
00000340: ef10 80bc 35ef 253c 2fbc d73a deee 05bc
00000350: 3765 b1bc cf78 06bc 6bbb 88bb 3cd1 9c3b
00000360: fd4c aa3c 8132 b63a 5aa6 d8b9 3cb6 243c
00000370: efc9 5abc 8bb4 43bc 8941 3cba 78c6 89bc
00000380: d837 cd3a 9794 4abc 185a 583a 643f bbba
00000390: 93c7 d63b 3410 433c a0a9 d8bb 18b9 19b8
000003a0: e7d2 87bb 0458 1cbc 6de4 223c 3d34 f3bb
000003b0: 078f 71ba 9f91 b5ba 4813 8d3c 6b32 ecbb
000003c0: 25fc 90bc 8702 17bc abe0 683a f012 06bc
000003d0: 81a2 02bc 1bc5 173c 1680 a9bb a8e0 6dbb
000003e0: 252e 2aba bb84 ce3b 2b97 1cbc 2438 243b
000003f0: 1593 6bb9 b7e8 d33b 5b09 b5bc c7f7 953b

action_model._discrete_distribution.branches.3.bias f4 [3]
0.0 0.0 0.0
00000000: 0000 0000 0000 0000 0000 0000

network_body._body_endoder.seq_layers.0.weight f4 [128, 128]
-0.055643782 -0.005380048 -0.08657446 -0.013832269 -0.035360526 0.029523084 -0.16759181 -0.043643933
0.055312112 0.07534617 -0.01317046 -0.070853375 -0.093308456 -0.096876025 0.111476 -0.15468411
-0.10966203 -0.055119235 -0.03787167 -0.078001656 -0.008305618 -0.0054813647 -0.10451802 -0.0422708
-0.060479056 -0.029048776 0.021320403 -0.12797764 -0.16023569 0.041979473 -0.12543374 -0.02357141
-0.0073308935 -0.032089125 -0.21382695 0.034109704 0.05581788 0.122494176 0.10966084 -0.11860445
-0.11947385 -0.020153474 -0.13764045 0.0014907065 0.15742505 0.0036167316 0.036504943 -0.055291843
0.09563031 -0.06845381 0.016958503 0.119171515 -0.14750661 -0.077781156 -0.016662572 -0.012039993
0.034784876 -0.1151529 -0.018292515 -0.15057728 -0.05585451 -0.04611452 -0.022818588 0.027793866
-0.024719775 -0.010746861 -0.015310102 -0.053344592 -0.07656974 -0.053969443 0.013908742 0.0974464
-0.011542023 -0.009564828 -0.16115798 -0.05053492 0.046258762 -0.025846802 0.058331095 -0.019565761
0.022739353 -0.038103208 0.024665179 0.060071692 -0.14113218 0.0123161 0.08754673 0.04346978
-0.017782047 -0.006080162 0.012279297 0.12534085 -0.066305086 0.0407969 -0.023458723 -0.049108125
0.04580326 -0.023153914 0.051075436 -0.013635836 -0.062000886 0.08567787 -0.05246788 0.06599256
-0.02312135 -0.14502238 0.05182105 -0.07332492 -0.12685467 0.02842949 0.030091256 0.042690273
-0.11310684 0.090107955 -0.02854022 -0.10543218 0.04398193 -0.015196515 -0.11202984 -0.10799805
-0.08106279 -0.14711955 -0.015717646 -0.021640405 -0.05791707 0.055611454 0.12194634 0.17755358
0.049885698 0.18126 -0.14412549 -0.07587785 0.014222438 0.23591298 0.11321556 -0.051476933
0.04627755 -0.02137312 -0.19236757 -0.043416776 -0.040681683 -0.07983602 0.01065137 0.109881826
-0.13681123 -0.20300692 -0.008426318 -0.02527498 -0.08822935 -0.18264455 -0.05138717 -0.028152304
-0.13240027 0.039082292 0.030773664 -0.0063039996 0.05111633 -0.047773227 0.096162446 -0.10870196
-0.1226769 0.04981072 0.12004537 -0.06666545 -0.08366567 -0.08679911 -0.1755582 0.10167388
-0.11234599 -0.022234408 0.12367269 0.030998366 0.15463623 -0.13414139 0.01797678 0.08938534
-0.024769394 0.07615518 -0.010888767 -0.0287456 0.06640251 0.1263173 0.14746879 -0.06840176
0.16571988 0.061480675 -0.05111087 -0.18713488 -0.03346565 -0.08785889 -0.042012054 0.05154391
-0.11349405 -0.054173376 -0.047190517 -0.18428713 -0.11226686 0.09607396 -0.1551343 0.040957734
0.0013229228 -0.022665318 0.114747964 -0.012306398 -0.11496109 -0.022791717 -0.105577275 0.09033413
-0.0477153 -0.011260069 0.066151604 0.07259287 0.06897268 -0.016434385 -0.007465166 0.009864656
-0.018440505 -0.06924838 -0.037128028 0.12346926 -0.05797353 0.18336587 -0.07313699 -0.004998302
-0.039377254 0.17258495 0.023848461 -0.016975868 0.14026779 -0.11739253 0.16883646 0.24937451
-0.008395096 0.13171084 -0.0754718 -0.0754686 0.079433784 0.012582565 0.06760389 0.06610485
-0.008206208 -0.041016113 -0.058006942 -0.01621543 0.13522506 -0.0040560206 -0.10705506 -0.059710763
-0.07363089 0.11870576 0.14242719 -0.14279105 0.039536826 -0.037384026 -0.059054125 -0.15256502
00000000: bcea 63bd 1d4b b0bb f34d b1bd bea0 62bc
00000010: 33d6 10bd 65da f13c 309d 2bbe fbc3 32bd
00000020: f48e 623d 184f 9a3d eac8 57bc 931b 91bd
00000030: 8118 bfbd f066 c6bd 874d e43d 8365 1ebe
00000040: 7d96 e0bd b5c4 61bd 531f 1bbd 55bf 9fbd
00000050: 4914 08bc 059d b3bb 8b0d d6bd 2524 2dbd
00000060: e3b8 77bd b3f7 edbc 20a8 ae3c 920c 03be
00000070: d314 24be abf2 2b3d b471 00be d418 c1bc
00000080: fe37 f0bb e36f 03bd 74f5 5abe 9eb6 0b3d
00000090: 4aa1 643d 3ade fa3d dd95 e03d e4e6 f2bd
000000a0: b5ae f4bd e618 a5bc 9ef1 0cbe cf63 c33a
000000b0: 0834 213e b006 6d3b 3586 153d b379 62bd
000000c0: d3d9 c33d 8331 8cbd 8fec 8a3c 3210 f43d
000000d0: f90b 17be ba4b 9fbd f27f 88bc 6443 45bc
000000e0: 967a 0e3d 49d5 ebbd 2fda 95bc ee30 1abe
000000f0: b3c7 64bd 94e2 3cbd 0cee babc f6af e33c
00000100: 2081 cabc 9a13 30bc 39d7 7abc dc7f 5abd
00000110: 99d0 9cbd 100f 5dbd 7ee1 633c fa91 c73d
00000120: c11a 3dbc ccb5 1cbc 9906 25be b4fd 4ebd
00000130: d479 3d3d acbc d3bc 96ec 6e3d 6048 a0bc
00000140: e147 ba3c 1c12 1cbd a10e ca3c bc0d 763d
00000150: f484 10be 78c9 493c b34b b33d 5e0d 323d
00000160: a8ab 91bc 183c c7bb 1b2f 493c 5a59 003e
00000170: f6ca 87bd a61a 273d 822c c0bc 9a25 49bd
00000180: 339c 3b3d 47ad bdbc 7a34 513d d768 5fbc
00000190: a4f4 7dbd e177 af3d 8fe8 56bd 1b27 873d
000001a0: fc68 bdbc bf80 14be 4f42 543d 602b 96bd
000001b0: 31e6 01be f6e4 e83c f081 f63c ffdb 2e3d
000001c0: 8fa4 e7bd 858a b83d 2ecd e9bc d4ec d7bd
000001d0: 6526 343d cefa 78bc e76f e5bd 152e ddbd
000001e0: 3f04 a6bd 82a6 16be 4bc2 80bc 3847 b1bc
000001f0: 733a 6dbd d6c8 633d 01bf f93d 9bd0 353e
00000200: f254 4c3d 399c 393e a295 13be d965 9bbd
00000210: 3b05 693c 2c93 713e 8fdd e73d 7ad9 52bd
00000220: 878d 3d3d ae16 afbc 01fc 44be cad5 31bd
00000230: d6a1 26bd 1181 a3bd 1583 2e3c b909 e13d
00000240: 3e18 0cbe 0ce1 4fbe 8a0e 0abc 7a0d cfbc
00000250: 97b1 b4bd 2c07 3bbe 5a7b 52bd a99f e6bc
00000260: f093 07be c114 203d 0d19 fc3c c891 cebb
00000270: 5b5f 513d dcad 43bd d1f0 c43d 229f debd
00000280: 073e fbbd 5306 4c3d 59da f53d e587 88bd
00000290: e858 abbd bbc3 b1bd 87c5 33be 653a d03d
000002a0: a815 e6bd ef24 b6bc 1b48 fd3d 49f0 fd3c
000002b0: f658 1e3e 5c5c 09be 0a44 933c a90f b73d
000002c0: 2fe9 cabc 3ff7 9b3d cd66 32bc e47b ebbc
000002d0: 0afe 873d 5359 013e 0f02 173e 3916 8cbd
000002e0: 79b2 293e 29d3 7b3d a259 51bd 49a0 3fbe
000002f0: 4713 09bd 5def b3bd d514 2cbd b51f 533d
00000300: 926f e8bd e7e4 5dbd d84a 41bd c4b5 3cbe
00000310: 2bec e5bd 6dc2 c43d 87db 1ebe 4cc3 273d
00000320: ec65 ad3a 9eac b9bc fb00 eb3d c6a0 49bc
00000330: b870 ebbd b2b5 babc e638 d8bd 1a01 b93d
00000340: 1e71 43bd 277c 38bc 7e7a 873d 92ab 943d
00000350: 8c41 8d3d 67a1 86bc 5a9e f4bb 5e9f 213c
00000360: 8b10 97bc 18d2 8dbd 8f13 18bd 74dd fc3d
00000370: a775 6dbd 43c4 3b3e d9c8 95bd ccc8 a3bb
00000380: 0b4a 21bd 1cba 303e d95d c33c fa10 8bbc
00000390: 5ca2 0f3e 7f6b f0bd 77e3 2c3e 085c 7f3e
000003a0: 968b 09bc 35df 063e f690 9abd 488f 9abd
000003b0: 2eae a23d 1a27 4e3c e973 8a3d fb61 873d
000003c0: 5573 06bc 8300 28bd b098 6dbd 39d6 84bc
000003d0: 7078 0a3e 5ee8 84bb af3f dbbd 4693 74bd
000003e0: cbcb 96bd 011c f33d 6fd8 113e d137 12be
000003f0: 5ef1 213d fe1f 19bd bde2 71bd 013a 1cbe
