results/FoodTarget_imitation_6/PlayerAgent/PlayerAgent-601.onnx (onnx, 143281 bytes, 13 tensors)

action_model._discrete_distribution.branches.0.bias f4 [4]
0	0x00000000	0.0
1	0x00000000	0.0
2	0x00000000	0.0
3	0x00000000	0.0

action_model._discrete_distribution.branches.0.weight f4 [4, 128]
0	0x3ba88351	0.0051426073
1	0x3c5beaf2	0.013422715
2	0xbb09dddf	-0.0021036786
3	0xbbe8a6e0	-0.007099971
4	0xbc5661b5	-0.013084819
5	0x3c760155	0.015014966
6	0x3c1b4fd5	0.009479483
7	0xbbb11103	-0.0054036393
8	0x397d0653	0.00024130316
9	0x3b707d05	0.0036695611
10	0xbb2afb85	-0.0026089859
11	0x3b582103	0.003297866
12	0x3c0416b7	0.008062056
13	0xbc4ea5ad	-0.012612742
14	0x3cacb312	0.021081481
15	0xbb8f90f5	-0.004381294
16	0x37fc66d5	3.0088626e-05
17	0xbbc35a3d	-0.005961685
18	0xbc81138f	-0.015756397
19	0xba716e3b	-0.0009209846
20	0xbc869b41	-0.016431453
21	0xbc449751	-0.011998967
22	0x3b9bf3e7	0.0047593
23	0xbbd01078	-0.0063496195
24	0x378233d9	1.5521351e-05
25	0xbaa99d6e	-0.0012940594
26	0xbc51b35d	-0.012799111
27	0x3c340fe6	0.010990119
28	0x3b24f437	0.0025169977
29	0xba3455ce	-0.0006879241
30	0xbc624f78	-0.013812892
31	0x3c52fd1d	0.01287773
32	0x3c654b95	0.013995071
33	0xbc0cfcce	-0.008605195
34	0xbb237bdb	-0.002494565
35	0xba734643	-0.0009280184
36	0x3b27a5f6	0.0025581098
37	0xb9bac650	-0.0003562444
38	0xb9ae33b6	-0.00033226394
39	0x3c9f57c9	0.019451039
40	0xbbe78b7a	-0.0070661874
41	0xbc50787f	-0.012724041
42	0xbc4ae85b	-0.012384499
43	0xbc0e196d	-0.008673054
44	0x3b8d3322	0.004309074
45	0xbc09e6e3	-0.008416864
46	0x3b6c2150	0.0036030598
47	0x3b090e57	0.0020913088
48	0x3b1f21aa	0.002428154
49	0xbc4b8d77	-0.012423865
50	0xba975632	-0.0011546074
51	0x3b4c719f	0.0031195653
52	0xbb8a2970	-0.0042163655
53	0xbc410b84	-0.011782531
54	0x3b4e305f	0.0031461937
55	0xbc89d95d	-0.01682728
56	0x3b47b821	0.003047474
57	0xbbebf6cd	-0.007201052
58	0xbc47c093	-0.012191909
59	0x3a9ffcf0	0.0012206119
60	0xbc4db6ef	-0.012555822
61	0x3c581828	0.013189353
62	0xbc2c5bf4	-0.01051997
63	0x3a88f6bc	0.0010449509
64	0x3b6574a0	0.003501214
65	0xbc21d71b	-0.009877945
66	0xbbc50e67	-0.00601368
67	0x3bcedbdb	0.00631283
68	0x3c2020a4	0.009773407
69	0x3ae7af25	0.0017676099
70	0xbb1295e7	-0.002236718
71	0x3c6f8c5d	0.014620868
72	0xbbf631dd	-0.0075132684
73	0x3ad6ff7f	0.0016403048
74	0xbb822857	-0.003972094
75	0x3b5d6a55	0.0033785303
76	0x3b180e1f	0.0023201776
77	0x3c490ba6	0.012270844
78	0x3c972060	0.018448055
79	0x3c2aed91	0.010432617
80	0xba44f9bd	-0.00075140205
81	0x3cb83431	0.022485824
82	0x3c24191b	0.010015751
83	0xba9c35cc	-0.0011917888
84	0x3b3397f6	0.0027403808
85	0x3c3a6efc	0.011379
86	0xbbe484eb	-0.006973853
87	0x3bca4ab7	0.0061734575
88	0x3ba84253	0.0051348596
89	0xbc8bd497	-0.017069144
90	0x3a95cce1	0.0011428857
91	0x3bdfa488	0.0068250336
92	0xbb68c823	-0.0035519681
93	0x3c4e27dd	0.012582746
94	0xbb07bf60	-0.0020713434
95	0xbb273560	-0.0025513992
96	0xbb67a10a	-0.003534379
97	0xbb9bccb2	-0.004754626
98	0x39b06a0f	0.00033648356
99	0x3b7e96ff	0.0038847325
100	0x3c2b0ddb	0.010440315
101	0x3b8d86a4	0.004319029
102	0xbb87dd71	-0.004146271
103	0x3b97bd1f	0.0046306993
104	0xbbb194ed	-0.0054193647
105	0x3bad4539	0.005287793
106	0xbb6c2bd2	-0.003603686
107	0xbc206ddf	-0.00979182
108	0xb8a789c3	-7.988841e-05
109	0xbb645673	-0.0034841567
110	0x3cb45a73	0.022015786
111	0x3afb1378	0.0019155582
112	0xbb28b66c	-0.0025743498
113	0xbbf3b868	-0.0074377544
114	0x3c08922d	0.008335632
115	0xbb9e546c	-0.004831841
116	0xbc1893d4	-0.009312589
117	0xbaa3f38a	-0.0012508493
118	0xbb42556d	-0.0029652969
119	0x3c5d028f	0.01348938
120	0x3ca02c8a	0.019552488
121	0x3c515dea	0.0127787385
122	0x3b9ff90a	0.0048819827
123	0xbb1eec88	-0.002424987
124	0x39f678b7	0.00047010716
125	0x3b33f255	0.0027457674
126	0x3bc44f6b	0.0059909127
127	0x3a7e5232	0.0009701579
128	0x3beb4882	0.0071802745
129	0xbbf62f37	-0.0075129527
130	0xbc2f5acb	-0.010702799
131	0x3c437ac3	0.011931124
132	0xbc84eb72	-0.01622555
133	0xbb0dd2f3	-0.0021640628
134	0x3c141487	0.009038097
135	0xbc8ea0b4	-0.017410614
136	0xb9a0c9ce	-0.00030667934
137	0xb9a1283a	-0.00030738284
138	0xbc2611e9	-0.010136106
139	0xbb9fcc87	-0.0048766765
140	0x3c752f28	0.014964856
141	0xbc70f96b	-0.014707903
142	0x3b05e8a4	0.0020432854
143	0x3c97ee12	0.018546138
144	0xbb92db26	-0.004481691
145	0xb9f2ae10	-0.00046287524
146	0xbc1cd562	-0.009572359
147	0x3c2e08bb	0.010622199
148	0x3a215443	0.00061542186
149	0xbc8da7ff	-0.01729202
150	0xbb99f54c	-0.004698431
151	0x3b5bd518	0.0033543762
152	0x3a86114f	0.0010228547
153	0xbc1b95f7	-0.009496204
154	0xbaf35690	-0.0018565226
155	0xba6dc4d5	-0.0009070163
156	0xbc109bfb	-0.008826251
157	0x3c031563	0.008000704
158	0xbce3e7cd	-0.027820492
159	0xbbc4936e	-0.0059990203
160	0xbad2c1e0	-0.0016079508
161	0x3baafa13	0.0052177995
162	0xbbe126d5	-0.006871084
163	0x3c238c0e	0.009982122
164	0xbc8978ef	-0.016781298
165	0xbc8516c9	-0.016246216
166	0xbc6504a2	-0.013978155
167	0xbc843c98	-0.016142175
168	0x3b9a7714	0.0047139022
169	0xbaa220c8	-0.0012369389
170	0xbc42ebbc	-0.011897024
171	0xbc870b36	-0.016484838
172	0x3ca96789	0.020679252
173	0xbad70d5f	-0.0016407183
174	0xbb8257e0	-0.0039777607
175	0xbb25656b	-0.0025237452
176	0x3cb940d2	0.022613917
177	0x394052b2	0.00018341353
178	0xbbf8eb8d	-0.007596439
179	0x3b61fcef	0.0034483036
180	0x3b5c4222	0.0033608754
181	0xbc34baeb	-0.011030893
182	0xbb895b70	-0.0041918084
183	0xbc088449	-0.0083323205
184	0xbbe0293f	-0.0068408544
185	0xbbd4ed43	-0.0064980104
186	0xbc8a9367	-0.01691599
187	0x3adc982b	0.0016830018
188	0xbc1637a0	-0.0091685355
189	0x3a8a08bf	0.0010531171
190	0xba529260	-0.0008032676
191	0xbc12d699	-0.008962297
192	0x3bd9de52	0.006648817
193	0xbc412ba5	-0.011790191
194	0x3b0f2370	0.002184119
195	0xbc44f8db	-0.012022222
196	0x3c37831f	0.011200695
197	0x3c81ce87	0.01584555
198	0x3abb27e7	0.001427886
199	0x3a98f836	0.0011670652
200	0x3bdaae1f	0.006673589
201	0xba86b66b	-0.0010277753
202	0xbbdfe1fb	-0.006832359
203	0xba86b580	-0.001027748
204	0x3b9279d5	0.00447009
205	0x3c15e8a8	0.009149708
206	0xbb2253df	-0.002476923
207	0x3b57f3f0	0.0032951795
208	0xbb91fe76	-0.004455383
209	0xbb1423cb	-0.0022604342
210	0x3c8e069b	0.017337134
211	0x3c2fc457	0.010727963
212	0xbb523d90	-0.003208015
213	0x392626c3	0.00015845434
214	0x3b096198	0.0020962711
215	0xbb9a7232	-0.00471332
216	0xbbb88c1e	-0.0056319376
217	0x3bf92ead	0.007604441
218	0xbbd670dd	-0.006544216
219	0x3bdf896a	0.006821801
220	0x3a954e9d	0.0011391226
221	0x3b2f3ff4	0.0026741
222	0x3b9955f0	0.004679434
223	0x3bbc3071	0.0057430794
224	0xbb37bc5b	-0.0028035853
225	0xbc75eef0	-0.01501058
226	0xbc26b741	-0.010175527
227	0xbaf73c0d	-0.0018862501
228	0x39aba5b6	0.00032739126
229	0xbba7e306	-0.005123499
230	0x3a82cffb	0.0009980196
231	0xba97a862	-0.0011570568
232	0xbb5f9628	-0.00341166
233	0x3ac1d57f	0.0014788358
234	0x3bbb17ad	0.0057096095
235	0xbc1122b1	-0.008858369
236	0x3bb906c8	0.0056465603
237	0x3b498d1b	0.0030754271
238	0x3bb9dce8	0.005672086
239	0xbc054e3f	-0.008136331
240	0xbb49f562	-0.0030816426
241	0x3b9cae03	0.004781486
242	0xbb31e392	-0.00271437
243	0x3a91f606	0.0011135943
244	0x3c8a456a	0.016878802
245	0xbb3c91d6	-0.0028773448
246	0xbc5aecc0	-0.01336211
247	0xbc4aa62e	-0.012368722
248	0xbc4801af	-0.012207433
249	0x3b98fcc2	0.004668803
250	0x3bac30dd	0.0052548484
251	0x3bc4a906	0.0060015945
252	0xbacf7500	-0.0015827715
253	0xb9bfd54b	-0.00036589275
254	0x3abda8df	0.0014469883
255	0x39c475ce	0.00037471805

action_model._discrete_distribution.branches.1.bias f4 [4]
0	0x00000000	0.0
1	0x00000000	0.0
2	0x00000000	0.0
3	0x00000000	0.0

action_model._discrete_distribution.branches.1.weight f4 [4, 128]
0	0x3ba948b4	0.0051661376
1	0xbbf9a125	-0.007618087
2	0x3b688ba2	0.0035483618
3	0x3ac81111	0.0015263875
4	0x3adaf56b	0.001670522
5	0x3a41dc39	0.00073951815
6	0xbc85786a	-0.01629277
7	0x3b08b3f3	0.0020859211
8	0xbbf5a847	-0.007496867
9	0x3b182b6b	0.0023219239
10	0x3c475b0a	0.0121677015
11	0x3c7656f3	0.015035379
12	0x3bef3e42	0.007301123
13	0x3cb763a1	0.022386374
14	0xbc8e72e3	-0.017388767
15	0x3c02f1ab	0.007992188
16	0x3c815862	0.015789215
17	0x3c66bb4d	0.014082742
18	0xbba3daf2	-0.0050004655
19	0xbb78c0ba	-0.003795667
20	0xbbcbc8ac	-0.0062189903
21	0x3c3bf83e	0.01147276
22	0x3bfd6765	0.007733273
23	0x3c09ac5f	0.008402913
24	0xbc2fe2d5	-0.010735233
25	0xbc1d3790	-0.009595767
26	0xbb231013	-0.0024881407
27	0xba726b25	-0.0009247533
28	0x3ba4d199	0.005029869
29	0xbc8ab8eb	-0.016933879
30	0x3be8a76a	0.0071000354
31	0xbb734bf5	-0.0037124131
32	0x3c831cb2	0.016004894
33	0x3ba580a3	0.005050735
34	0xbc4f360a	-0.012647161
35	0x3ba648c7	0.0050745937
36	0xbb82c1e2	-0.003990398
37	0x3b2d94cb	0.0026486393
38	0x3ba33182	0.004980267
39	0xbb948aa8	-0.0045331307
40	0x3bccfbcd	0.006255603
41	0x3b17ad70	0.0023144148
42	0x3ba57d1c	0.0050503146
43	0x3b86e465	0.004116582
44	0xbabfe12b	-0.0014639249
45	0xbc848794	-0.01617793
46	0xba39c58e	-0.0007086628
47	0xbbb914e4	-0.0056482423
48	0xbcdd2050	-0.026992947
49	0x3c084acf	0.008318617
50	0xbb49cec9	-0.003079342
51	0x3bcbf9db	0.0062248535
52	0xbb641cbf	-0.0034807173
53	0x3b37ac77	0.002802638
54	0x3c185ce0	0.009299487
55	0xbb716a60	-0.0036837086
56	0xbbe4a537	-0.006977703
57	0xbc10f18d	-0.008846653
58	0xbb57205d	-0.0032825687
59	0x3ba923db	0.005161745
60	0xbb9bfb45	-0.0047601783
61	0x3b19d2d4	0.002347161
62	0xbb2b0f4e	-0.0026101652
63	0x3c09c210	0.0084080845
64	0x3b839a1c	0.004016174
65	0xbc127955	-0.008940061
66	0x3c0918fa	0.008367771
67	0xbbbca660	-0.005757138
68	0x3c7f134f	0.015568568
69	0x3c09019b	0.008362199
70	0x3b57b058	0.0032911506
71	0xbb2da5a8	-0.0026496444
72	0xbc34ee11	-0.011043088
73	0xbbcb8a4d	-0.006211555
74	0xbb367517	-0.0027840787
75	0xbc9a8b22	-0.018865172
76	0x3bc62c94	0.0060477946
77	0xbbba629c	-0.0056880247
78	0x3bc5d6dd	0.0060375766
79	0xbbd66e1d	-0.0065438882
80	0x3b10cbc8	0.002209412
81	0xbb4a1321	-0.0030834156
82	0x3c91f3a3	0.01781637
83	0x3bffe34f	0.0078090797
84	0x3ac2f454	0.0014873841
85	0x3aaf2cee	0.001336483
86	0x3ba8e233	0.005153918
87	0x3c07bc8c	0.008284699
88	0xbb15ca18	-0.0022856053
89	0x3bd0198d	0.006350702
90	0xbc1ea86a	-0.009683708
91	0x3b6d3b80	0.0036198795
92	0x3c249bf3	0.010046947
93	0xbc2a9d89	-0.010413536
94	0x395ab98f	0.00020859226
95	0x3bd2a6b3	0.0064285635
96	0x3b126942	0.002234057
97	0xbab24a30	-0.0013602432
98	0x3a44d97a	0.0007509213
99	0x3c9d6719	0.0192142
100	0xbaa6a3c4	-0.0012713601
101	0x3c3cf6dc	0.011533465
102	0xbb93c397	-0.0045094
103	0xba8a8bb6	-0.0010570202
104	0xba9f8603	-0.0012170676
105	0xbc300a3c	-0.010744628
106	0x3b08cdcb	0.0020874615
107	0x3c331336	0.010929873
108	0x3b7e12a5	0.0038768437
109	0x3b83d738	0.004023459
110	0xbc9d2040	-0.019180417
111	0x3b140ff0	0.0022592507
112	0xbbccaa2f	-0.0062458734
113	0xbbb61093	-0.005556175
114	0xbc202e17	-0.009776614
115	0x3bb25862	0.005442665
116	0xbbb0ac61	-0.005391643
117	0xbc40e752	-0.011773901
118	0x3b3946d3	0.0028270974
119	0x3b647fd0	0.0034866221
120	0x3be7fabb	0.00707945
121	0x3c15ccc4	0.009143058
122	0xba38ff80	-0.00070571154
123	0xbbc16c2a	-0.0059027867
124	0xbc495733	-0.012288856
125	0xbc40d9e4	-0.011770699
126	0x3b79745b	0.0038063738
127	0x3a8311b2	0.000999978
128	0xba7a5a7b	-0.0009550226
129	0xbc140585	-0.009034519
130	0xba3a6852	-0.0007110882
131	0xbbf50acf	-0.007478095
132	0xbbdfd227	-0.006830472
133	0xbc13d883	-0.009023788
134	0x3c3fbaf7	0.011702291
135	0x38de4c8f	0.00010600045
136	0xbc2f77ef	-0.010709747
137	0x3c6709d3	0.014101463
138	0xbb5cc10d	-0.0033684403
139	0xbc51460f	-0.012773051
140	0xbbb0b65f	-0.005392834
141	0xbc759ef0	-0.014991507
142	0x3ba84848	0.0051355697
143	0x3b75af50	0.0037488528
144	0xbbba9d73	-0.005695039
145	0x3bf35c00	0.0074267387
146	0xbc64c1c0	-0.013962209
147	0xbc178f42	-0.009250464
148	0xbc72a67d	-0.014810202
149	0x3b08f61f	0.0020898653
150	0xb9cb1f1f	-0.00038742364
151	0x3c400d25	0.011721884
152	0x3c951a23	0.01820094
153	0x3a758407	0.0009365682
154	0x3a9f2b02	0.0012143555
155	0xbab7f830	-0.0014035758
156	0xba692728	-0.00088940794
157	0xbb9848aa	-0.004647334
158	0xbc29ea60	-0.010370821
159	0x3b170833	0.0023045659
160	0x3c5c5813	0.013448733
161	0x3bd964cd	0.006634331
162	0xbb3c2758	-0.0028709974
163	0xbcad9f2f	-0.021194069
164	0xbb7221f0	-0.0036946498
165	0xbb64f925	-0.003493854
166	0xbc4becd3	-0.0124466
167	0xbc524b43	-0.012835327
168	0x3c90cf15	0.01767687
169	0xbc771b2f	-0.015082165
170	0x3b40d0bb	0.0029421288
171	0xbb9ea0cd	-0.0048409463
172	0x3b4f320d	0.0031615526
173	0x3c4cbd1f	0.012496262
174	0x3be0e887	0.006863657
175	0xbae29ea8	-0.0017289715
176	0x3c965f5b	0.018356016
177	0x3a7dfe0d	0.00096890406
178	0x3bf97d98	0.007613849
179	0xbc3160cc	-0.010826301
180	0xbaf8f957	-0.0018995208
181	0xbc454187	-0.012039549
182	0x3b823efb	0.003974793
183	0xbc2c65d7	-0.010522327
184	0xbc1044cd	-0.008805466
185	0x3ca7549e	0.02042609
186	0x3bf501e3	0.0074770316
187	0xbbb02c37	-0.0053763646
188	0xbc27e9d0	-0.010248616
189	0xbae48f30	-0.0017437693
190	0xbc5407e2	-0.0129413325
191	0xbab3b41f	-0.0013710296
192	0x3b1c3a2c	0.0023838384
193	0x3bb45afb	0.00550401
194	0xba824979	-0.000994011
195	0x3c1145f9	0.00886678
196	0xbbe2b7cb	-0.0069188825
197	0x3a368ae3	0.0006963445
198	0x3bdb1668	0.0066860206
199	0xbc2e55e1	-0.010640592
200	0x3b1104d6	0.0022128127
201	0xbb642fb8	-0.0034818482
202	0xbc45ad5f	-0.012065261
203	0xbc58295b	-0.013193454
204	0x3ca1d0ad	0.019752825
205	0xbb9e0abc	-0.004823057
206	0x3b35fc89	0.002776893
207	0xbb304602	-0.0026897197
208	0x3be17558	0.0068804435
209	0x39e17edd	0.00043009865
210	0xbc8dd075	-0.017311314
211	0x3b273392	0.0025512916
212	0xbb0bc570	-0.0021327399
213	0x3bb1ab03	0.0054219975
214	0x3ac64963	0.0015128072
215	0x3c6e11c8	0.014530607
216	0xbc530770	-0.012880191
217	0xbb804469	-0.003914405
218	0x3bdfca15	0.00682951
219	0xbbed25b2	-0.0072371596
220	0xbc270d84	-0.0101960935
221	0xbb2dbbef	-0.0026509722
222	0x3c4c91ef	0.012485965
223	0xba832184	-0.0010004495
224	0x3ba475aa	0.0050189095
225	0x3c6bddea	0.01439617
226	0xbbe0e6a8	-0.006863434
227	0x3b06630f	0.002050582
228	0xbbd52d9f	-0.0065056826
229	0xbbe9b510	-0.00713218
230	0xbca28eff	-0.019843576
231	0x3ca24b3a	0.019811261
232	0xbc926dda	-0.017874647
233	0x3c51c487	0.012803203
234	0xbbf7c587	-0.007561389
235	0xbc4ef9c5	-0.012632792
236	0x3c1c6faa	0.009548107
237	0x3b46a69e	0.0030311714
238	0xbc335ebc	-0.010947879
239	0x3bd2f57f	0.006437957
240	0xbb8bc503	-0.004265429
241	0xbb8015cc	-0.0039088484
242	0x3bf95458	0.0076089315
243	0x3b215f45	0.0024623435
244	0x3860380b	5.3457956e-05
245	0x3ba9460b	0.0051658205
246	0xba028185	-0.00049784064
247	0xba2ee88c	-0.00066722254
248	0xbb240663	-0.002502822
249	0xbbffbec5	-0.007804724
250	0x3c534fe0	0.012897462
251	0x3b4839bd	0.0030551993
252	0x3c3867b9	0.011255198
253	0x3c12923b	0.008945997
254	0x3c145325	0.009053026
255	0xba94993a	-0.0011337169

action_model._discrete_distribution.branches.2.bias f4 [4]
0	0x00000000	0.0
1	0x00000000	0.0
2	0x00000000	0.0
3	0x00000000	0.0

action_model._discrete_distribution.branches.2.weight f4 [4, 128]
0	0xbb91b008	-0.0044460334
1	0xbac22f17	-0.0014815059
2	0xbc3de46f	-0.011590107
3	0x3c4a80a3	0.012359771
4	0x3b3f6853	0.002920647
5	0xbc1baf5b	-0.009502257
6	0x3b9cf75d	0.00479023
7	0xb9200b46	-0.00015262989
8	0xbbd6a3df	-0.0065502967
9	0xbb2b11e5	-0.0026103195
10	0xbb125f4b	-0.002233463
11	0x3b9bc28c	0.0047534164
12	0xbaa879bf	-0.0012853666
13	0xbbe646b0	-0.0070274696
14	0x3c916209	0.017746942
15	0xbc88aa5e	-0.0166828
16	0xbc42a2e6	-0.011879658
17	0xbb4ffc9d	-0.0031736263
18	0xbab70a19	-0.0013964801
19	0xbc186ea1	-0.00930372
20	0x3c1637d7	0.009168587
21	0x3c3163e3	0.0108270375
22	0xbb9db279	-0.0048125354
23	0xbbfe2463	-0.0077558025
24	0x3b17ce86	0.002316387
25	0xbc3afbcc	-0.011412572
26	0xbb86b39c	-0.0041107666
27	0xbc8519bd	-0.016247625
28	0x3c57c322	0.013169082
29	0xbb4a3a73	-0.0030857592
30	0x3c363c72	0.01112281
31	0xba16656d	-0.00057371595
32	0xbb1c1af5	-0.0023819779
33	0xbb5ab9e8	-0.003337497
34	0x38d96f62	0.00010368113
35	0x3a3d4464	0.0007219969
36	0x3c033306	0.00800777
37	0xbbd3b9b8	-0.0064613484
38	0xbcad2d73	-0.021139836
39	0x3c6dfa6b	0.014525036
40	0xbc515535	-0.012776663
41	0xbbc1b330	-0.0059112534
42	0xbbde328b	-0.0067809275
43	0xba2827bf	-0.0006414614
44	0xbc0c9dd3	-0.00858255
45	0x3abdc34a	0.0014477756
46	0x3af5322a	0.0018706967
47	0x3c5f9b1d	0.013647822
48	0x3b3139a9	0.0027042425
49	0x3c453017	0.012035391
50	0x3937cd34	0.00017528684
51	0xb8c7bef0	-9.524624e-05
52	0x3c2f1aeb	0.01068757
53	0x3bb509eb	0.005524864
54	0x3b6ccc8a	0.0036132657
55	0x3b171377	0.0023052373
56	0x3be5ae5b	0.00700931
57	0x3c0b60e5	0.008506988
58	0xbc9929b8	-0.01869665
59	0xbb0a7f46	-0.002113299
60	0xbc59cac3	-0.013292971
61	0x3b777fca	0.0037765377
62	0x3c4fd35f	0.012684672
63	0x3b8153c2	0.0039467523
64	0x3b275020	0.0025529936
65	0x3c08bc59	0.008345687
66	0xbc481664	-0.01221237
67	0xbbeeb9cf	-0.0072853337
68	0xb8970c5c	-7.202543e-05
69	0x3bb3fb36	0.005492593
70	0x3aa4f4b7	0.0012585138
71	0x3be471f2	0.006971591
72	0xbc517e80	-0.012786508
73	0x3b43540b	0.0029804732
74	0x3bd90327	0.0066226902
75	0xbca9b34c	-0.020715378
76	0x3b35d81a	0.0027747215
77	0x3bb482eb	0.0055087707
78	0x3af6a79a	0.001881826
79	0x3c33a27b	0.010964031
80	0xbc9652f3	-0.0183501
81	0x3ccdca8b	0.025120994
82	0x3b2475fe	0.0025094743
83	0x36ec8ef3	7.0499896e-06
84	0x3c35ed6b	0.011103968
85	0xbb71d7d3	-0.0036902323
86	0x3b308893	0.0026936873
87	0x3c3a3311	0.011364714
88	0xbbcea928	-0.006306786
89	0xbc7f2d58	-0.015574776
90	0x3a9112ac	0.0011068187
91	0xbc1added	-0.009452325
92	0x3b1feee6	0.002440387
93	0x3c800827	0.015628887
94	0x3ba6d0de	0.005090817
95	0xba801f03	-0.0009774867
96	0xbb8f4466	-0.0043721674
97	0x3b1839ff	0.0023227928
98	0x3b48f9aa	0.003066639
99	0xbb4b1b74	-0.0030991705
100	0x3bd86b9a	0.006604624
101	0x3b136133	0.0022488355
102	0xba7516c0	-0.00093493983
103	0x3b472843	0.0030388988
104	0xbb127aa3	-0.002235093
105	0xbbf68fa2	-0.0075244466
106	0xbc6d16eb	-0.014470796
107	0xbaafc3e5	-0.0013409822
108	0xbbd84228	-0.0065996833
109	0xbb8570f3	-0.0040723025
110	0xbb13d0c3	-0.0022554852
111	0xbc0c2b07	-0.00855518
112	0xbc329731	-0.010900305
113	0xbba2b27b	-0.004965124
114	0x3bd91970	0.006625347
115	0x3c5c64df	0.013451784
116	0xbb9adfaa	-0.00472637
117	0x3ba96324	0.005169289
118	0xba115f1f	-0.0005545485
119	0xbbd57a92	-0.0065148557
120	0xbbca027f	-0.0061648483
121	0x3c0f4e57	0.008746705
122	0xbab2e790	-0.0013649333
123	0xbbdbe3d7	-0.0067105102
124	0xbadaf202	-0.0016704204
125	0x3b98ba29	0.004660864
126	0x3bb703a0	0.005585149
127	0xbb6488bb	-0.0034871537
128	0x3c4aa61b	0.012368704
129	0x3b9bea77	0.004758175
130	0xbab6b1d2	-0.0013938493
131	0x3b83f2db	0.0040267534
132	0xb93540df	-0.00017285671
133	0x3ba99fab	0.0051765046
134	0x3c25892b	0.010103504
135	0x3c10378b	0.008802305
136	0xbbb661e7	-0.00556587
137	0xbb14d058	-0.002270719
138	0x38a5cadf	7.905601e-05
139	0x3c6bc247	0.014389581
140	0xbba74a41	-0.0051052873
141	0xba4ceea2	-0.00078175415
142	0x39420593	0.00018503358
143	0xba69e5d5	-0.0008922492
144	0x3bb6cdc7	0.00557873
145	0x3b1167a8	0.0022187028
146	0xbbc34c9d	-0.0059600607
147	0xbc1f2dfd	-0.009715554
148	0x3a2f7f60	0.00066947006
149	0xbc387fdd	-0.011260954
150	0xba4c549a	-0.0007794589
151	0x3bd61d75	0.0065342733
152	0x3b78c58a	0.003795954
153	0xbc10348b	-0.00880159
154	0x3c280265	0.010254477
155	0x3b64f8cd	0.0034938336
156	0x3b7c2313	0.0038473054
157	0xbc7a8732	-0.015291022
158	0x3c88bcbe	0.016691562
159	0x3b8d651f	0.004315033
160	0x3c12d609	0.008962163
161	0xbb80042e	-0.0039067483
162	0x3c56b77b	0.013105269
163	0xbbd0f92f	-0.0063773612
164	0xbc1fed21	-0.009761126
165	0x3aa636eb	0.0012681162
166	0x3a852491	0.0010157992
167	0xbba92aea	-0.0051625865
168	0xba8c51dc	-0.0010705548
169	0x3c909dfd	0.01765346
170	0xbca6892b	-0.020329079
171	0x3c37e00e	0.011222852
172	0xbb9a1d63	-0.00470321
173	0x3c08bc09	0.008345612
174	0xbc58d943	-0.013235393
175	0x3c6927e3	0.014230701
176	0x3c2e050b	0.0106213195
177	0x3b053810	0.0020327605
178	0x3b4a7db7	0.0030897686
179	0x3b203bab	0.0024449627
180	0xbc4852c5	-0.012226765
181	0xbac3b93e	-0.0014932526
182	0xbc777b08	-0.0151050165
183	0xba9cda8b	-0.0011966986
184	0x3c22745f	0.00991544
185	0x3baa0cbd	0.005189507
186	0xba1f0ec3	-0.00060675683
187	0xbb8a1854	-0.004214326
188	0x3c712142	0.014717402
189	0x3c841fed	0.016128505
190	0xbb7d68b0	-0.0038667135
191	0x3c0089dd	0.007845369
192	0x3aa5d4ac	0.0012651882
193	0x3b388336	0.002815438
194	0x3c73191a	0.014837528
195	0xbc74cb30	-0.014941022
196	0xb9ac7173	-0.00032890923
197	0x3c3bae2b	0.011455099
198	0xbbaa505d	-0.0051975683
199	0x3c8adc1b	0.016950658
200	0x3bbd047e	0.005768358
201	0x3bcc30dc	0.0062314104
202	0xbc01bf5b	-0.007919158
203	0x3ac65442	0.0015131312
204	0xbc0d75b0	-0.008634016
205	0x3c3baafe	0.011454342
206	0x3ba06920	0.0048953444
207	0x3c36702f	0.011135145
208	0x3b756065	0.0037441489
209	0xbbeb5a58	-0.0071824007
210	0xbb6ae572	-0.0035842326
211	0xbb700dfb	-0.0036629427
212	0xbbfa13b0	-0.0076317415
213	0xbc0aea21	-0.008478672
214	0x3b48795f	0.003058992
215	0xbb49da1b	-0.0030800167
216	0x396f0bc0	0.00022797193
217	0xbb775ba8	-0.003774384
218	0x3c47767b	0.012174244
219	0x3a59b3c2	0.0008304679
220	0x3bb29f1c	0.005451096
221	0x3b3403b1	0.002746802
222	0xbb7945ad	-0.0038035915
223	0x3bd380c0	0.006454557
224	0xbbbdf130	-0.005796574
225	0xbbfb4817	-0.007668506
226	0x3beaac50	0.0071616545
227	0x3bea4daf	0.007150374
228	0xbbb63a13	-0.005561122
229	0x3cdf2ccb	0.027243039
230	0x3ab99a35	0.0014160337
231	0xbc2540b3	-0.010086226
232	0xbc1b6195	-0.009483715
233	0x3c043a33	0.008070516
234	0x3a0ce181	0.0005374179
235	0xba351c43	-0.00069088134
236	0x3a2384b4	0.0006237731
237	0x3beeefef	0.007291786
238	0x3c0e0305	0.008667712
239	0xbb8f63e7	-0.004375923
240	0xbc117f83	-0.008880499
241	0x3bbf5ab7	0.0058396715
242	0xbbc07ef3	-0.0058745085
243	0x3af89363	0.0018964823
244	0xbb95508f	-0.0045567225
245	0x3c2f8cad	0.010714692
246	0x3c7a80d7	0.015289507
247	0xbb87d932	-0.0041457647
248	0xbb88321c	-0.004156364
249	0xbbf93017	-0.0076046097
250	0x3bdb4118	0.0066911094
251	0x3bf43137	0.007452156
252	0xbc797fa2	-0.015228184
253	0x3ada00c5	0.0016632309
254	0x3bc68736	0.006058599
255	0x3c1e406e	0.009658916

action_model._discrete_distribution.branches.3.bias f4 [4]
0	0x00000000	0.0
1	0x00000000	0.0
2	0x00000000	0.0
3	0x00000000	0.0

action_model._discrete_distribution.branches.3.weight f4 [4, 128]
0	0xba99e19e	-0.0011740213
1	0x399b22e2	0.00029589894
2	0x3b6c0afb	0.0036017287
3	0xbaa73436	-0.0012756649
4	0x3c04ef22	0.008113654
5	0x3ad6b33f	0.0016380324
6	0xbc350e8c	-0.0110508315
7	0xbc6b2d82	-0.014354112
8	0x3b9ce63b	0.004788188
9	0xbbaa5577	-0.0051981765
10	0x3bb1cc92	0.005425998
11	0x3b8274b2	0.0039811963
12	0x3cb4863c	0.022036664
13	0xbc1a9634	-0.009435225
14	0xbc96c157	-0.018402738
15	0xbc344e23	-0.011004957
16	0xb8c53233	-9.403042e-05
17	0x3bd1b4b7	0.0063997167
18	0x3c499094	0.0123025365
19	0xba61a4e0	-0.0008607637
20	0xbbfa11c0	-0.0076315105
21	0xbc3dd62c	-0.011586707
22	0xbb90f966	-0.004424262
23	0x3c0da02b	0.008644144
24	0xbc51d90f	-0.012808098
25	0x3c2db110	0.010601297
26	0x3b750322	0.00373859
27	0x3c662120	0.014045984
28	0xbc10e896	-0.008844515
29	0x3a4372df	0.0007455777
30	0x3c183cb0	0.009291813
31	0x3bbd0a8f	0.005769081
32	0xbbd639e0	-0.006537661
33	0x3b2ea73e	0.0026649977
34	0x3c738388	0.014862902
35	0xbaa2c9ed	-0.0012419798
36	0xbc17eaa9	-0.009272256
37	0x3c3b6880	0.011438489
38	0x3c01dbbe	0.007925926
39	0x3b6a313a	0.0035734908
40	0xbaac6103	-0.001315147
41	0xbb3fa96c	-0.002924527
42	0xbca3249f	-0.019914923
43	0x3b3f4743	0.0029186762
44	0xbb874e7c	-0.004129229
45	0xbc4caaf4	-0.01249193
46	0x3b83df19	0.004024398
47	0x3a8da4d8	0.0010806574
48	0x3c0bbd5f	0.008529036
49	0x3bd7348d	0.006567544
50	0x3c383488	0.011242993
51	0xba3c72be	-0.0007188729
52	0xbb8ab11f	-0.0042325403
53	0xbbacaf48	-0.0052699186
54	0x395486da	0.00020268132
55	0xbc6727f5	-0.014108648
56	0x3a05f6db	0.00051103317
57	0xb949961b	-0.00019224772
58	0x3a636540	0.000867445
59	0xbb15861d	-0.0022815533
60	0xbb97c2bc	-0.0046313684
61	0x3a171a85	0.00057641446
62	0xbc4cf732	-0.012510108
63	0x3cbb855c	0.02289074
64	0x3c11c537	0.008897117
65	0xbb8a7642	-0.004225523
66	0x3b847453	0.0040421872
67	0x3bdb71cb	0.006696915
68	0xbc13f37a	-0.009030217
69	0xba098d63	-0.00052472035
70	0x3c92aaab	0.017903646
71	0xbb63469a	-0.0034679533
72	0x3a8457c2	0.0010096955
73	0x3c2743c5	0.010209029
74	0xbb8b9c36	-0.004260565
75	0x3beec172	0.007286244
76	0x3badf7fd	0.0053091035
77	0xbc2e5702	-0.0106408615
78	0xbbb20f0f	-0.005433924
79	0xbc891055	-0.01673142
80	0x3aaf75db	0.0013386564
81	0x3ab7ddf0	0.0014027935
82	0x3c266d33	0.010157871
83	0x3b853de0	0.004066214
84	0xbba55b13	-0.0050462573
85	0x3a7af403	0.0009573104
86	0x3c51c442	0.012803139
87	0xbc0711db	-0.008244003
88	0xbccac24a	-0.024750847
89	0xbb903b29	-0.0044015837
90	0x3bf8241d	0.0075726644
91	0x3c42ef37	0.011897854
92	0x3cb622b1	0.022233339
93	0xba9e5f11	-0.0012082775
94	0x3c02497b	0.007952089
95	0x3ab218fe	0.001358777
96	0xbc27b388	-0.010235675
97	0x3b846f9c	0.004041625
98	0xbc7167c2	-0.01473421
99	0x3bd229ef	0.0064136903
100	0xbc4a1e4e	-0.012336327
101	0x3bb0665a	0.005383295
102	0xbcf3ec73	-0.029775834
103	0x3b2846ba	0.0025676922
104	0xbbc7ff0a	-0.006103401
105	0x3b1cc893	0.0023923262
106	0x3b05cf17	0.0020417625
107	0xbb6e2995	-0.0036340703
108	0xb79b0d93	-1.848376e-05
109	0xbc34c817	-0.011034033
110	0x3c1c3bd3	0.009535748
111	0x3c2bb334	0.010479737
112	0xbbeb158a	-0.0071741985
113	0xb8b4fcbb	-8.6301436e-05
114	0xbc6675f0	-0.014066204
115	0xbc3cbf3f	-0.011520206
116	0xbc4790ba	-0.012180502
117	0x3c336f0f	0.010951771
118	0x3b9382b8	0.004501667
119	0x3c281fad	0.010261458
120	0xbb3dd6c7	-0.0028967129
121	0xbbe2573b	-0.0069073713
122	0xbc42ead9	-0.011896812
123	0xbb2a8350	-0.002601821
124	0xbb8817ef	-0.0041532437
125	0xbbaec6a7	-0.00533374
126	0x3a29eddd	0.0006482283
127	0xbb40e859	-0.0029435365
128	0x3bd13a40	0.006385118
129	0x3b70dd40	0.003675297
130	0x3c3c5bd6	0.011496505
131	0x3a052b1e	0.00050799723
132	0x3c2fbc8f	0.010726108
133	0x3b7ea793	0.0038857206
134	0xba5e4b65	-0.00084798626
135	0x3c598883	0.013277176
136	0xbb9a929f	-0.0047171856
137	0x3c69f3aa	0.014279285
138	0x3b9c759b	0.004774762
139	0xbc8694d5	-0.01642839
140	0x39bdf79c	0.00036233373
141	0xbbf90b6d	-0.007600239
142	0xbb102387	-0.0021993832
143	0x3b8e63a5	0.0043453746
144	0xba4c5665	-0.0007794856
145	0x3a2c28aa	0.0006567339
146	0x3bf177f5	0.0073690363
147	0xbc771b97	-0.0150822615
148	0xbbf18145	-0.0073701465
149	0xbb47e791	-0.0030503015
150	0xbbac9b52	-0.005267539
151	0xbc0807ea	-0.008302668
152	0xbb642215	-0.0034810354
153	0xbbc07cd6	-0.0058742566
154	0xbc28f92f	-0.010313316
155	0x3c142b75	0.009043564
156	0x3b37e10c	0.0028057722
157	0x3c5adf75	0.01335894
158	0x3c00168e	0.007817877
159	0xbbb022db	-0.005375249
160	0xbbe51668	-0.0069911964
161	0xbc3bcd0f	-0.011462464
162	0xbbd62a00	-0.0065357685
163	0x3b5151bd	0.003193959
164	0x3b987fcb	0.004653906
165	0x3bf2a928	0.007405419
166	0xbbf493b3	-0.007463896
167	0x3c1f652f	0.009728714
168	0xbbd0c527	-0.0063711586
169	0xbc6bf387	-0.014401323
170	0xbbf13805	-0.0073614144
171	0xbc9ae5ea	-0.01890846
172	0x3c22a0b7	0.009926013
173	0x3c1b8cf0	0.009494051
174	0x3c64257b	0.013924952
175	0xbb041314	-0.0020152973
176	0xbbc30025	-0.005950945
177	0xbcb6a61b	-0.022296002
178	0xbbad5d9d	-0.0052907006
179	0xb9fc66c0	-0.0004814174
180	0xbba8d4a8	-0.0051523037
181	0xbc0b390a	-0.008497486
182	0xbb3b3773	-0.0028566986
183	0x3bcc6443	0.006237538
184	0x3b99bcab	0.0046916804
185	0x3a0dfb93	0.00054162106
186	0xbc76fa3d	-0.01507431
187	0xbb15f76f	-0.0022883078
188	0xbbcebab5	-0.0063088783
189	0xbba68589	-0.0050818366
190	0x3c308c12	0.010775583
191	0x3b940dab	0.004518231
192	0x39f90dc2	0.0004750323
193	0xbb6b005d	-0.003585837
194	0xbc74f7a3	-0.014951619
195	0xbc3cdf8e	-0.011527909
196	0xbc06df41	-0.008231939
197	0xbc3cfa1f	-0.011534243
198	0x3b8827cf	0.004155136
199	0xbbde53df	-0.0067849006
200	0x3c65c9b5	0.0140251415
201	0xbb3f0396	-0.0029146424
202	0x39a57a4c	0.0003156237
203	0x3c1593df	0.0091294935
204	0x3bd5f27b	0.00652915
205	0xbc88e1f6	-0.01670931
206	0xbc8b531d	-0.017007405
207	0xbbbb01ad	-0.005706987
208	0x3c68f54f	0.014218642
209	0xbc1fcf44	-0.009754006
210	0xbc286568	-0.010278083
211	0xba7863cd	-0.00094753207
212	0x3bf4d913	0.0074721663
213	0xbbc29b75	-0.005938942
214	0x3b1fa525	0.0024359908
215	0x3c231e85	0.009956007
216	0x3c958da9	0.018256025
217	0xbb41dffa	-0.0029582963
218	0x3bf638e5	0.0075141066
219	0xbc4358c5	-0.01192302
220	0xbc17b5f3	-0.009259689
221	0x3a8732bb	0.0010314801
222	0x3c90dfea	0.017684896
223	0xba5a5612	-0.00083288655
224	0xbbdb1213	-0.006685504
225	0xbc1ab82b	-0.009443323
226	0xbc9b8b15	-0.018987218
227	0x3c289675	0.010289778
228	0xbb1d8960	-0.002403818
229	0x3bce263b	0.0062911785
230	0x3c291014	0.010318775
231	0xbb5c5707	-0.0033621208
232	0xbb8727be	-0.0041246107
233	0xbabd5c5a	-0.0014447079
234	0x3bcc5f28	0.0062369294
235	0xba73368f	-0.0009277844
236	0xbc2f998b	-0.01071776
237	0xbad7c3ca	-0.0016461548
238	0xbc640a90	-0.013918534
239	0x3c43f3af	0.011959954
240	0x3c02f095	0.00799193
241	0xbbe0bceb	-0.0068584583
242	0xb98480b7	-0.00025272902
243	0x3baa6f5e	0.0052012643
244	0x3bd01a33	0.0063507794
245	0x3ae43503	0.0017410818
246	0x3c2101cf	0.009827091
247	0xbc00a288	-0.0078512505
248	0xbc07e372	-0.008293973
249	0xbc477d57	-0.012175879
250	0xbacacce3	-0.0015472438
251	0x39ae6e37	0.00033269983
252	0x3b2fc8e6	0.0026822626
253	0x3bfcfc70	0.0077205226
254	0xbc2bfa13	-0.010496634
255	0x3c1f0382	0.009705426

discrete_action_output_shape f4 [1, 4]
0	0x40800000	4.0
1	0x40800000	4.0
2	0x40800000	4.0
3	0x40800000	4.0

network_body._body_endoder.seq_layers.0.bias f4 [128]
0	0x00000000	0.0
1	0x00000000	0.0
2	0x00000000	0.0
3	0x00000000	0.0
4	0x00000000	0.0
5	0x00000000	0.0
6	0x00000000	0.0
7	0x00000000	0.0
8	0x00000000	0.0
9	0x00000000	0.0
10	0x00000000	0.0
11	0x00000000	0.0
12	0x00000000	0.0
13	0x00000000	0.0
14	0x00000000	0.0
15	0x00000000	0.0
16	0x00000000	0.0
17	0x00000000	0.0
18	0x00000000	0.0
19	0x00000000	0.0
20	0x00000000	0.0
21	0x00000000	0.0
22	0x00000000	0.0
23	0x00000000	0.0
24	0x00000000	0.0
25	0x00000000	0.0
26	0x00000000	0.0
27	0x00000000	0.0
28	0x00000000	0.0
29	0x00000000	0.0
30	0x00000000	0.0
31	0x00000000	0.0
32	0x00000000	0.0
33	0x00000000	0.0
34	0x00000000	0.0
35	0x00000000	0.0
36	0x00000000	0.0
37	0x00000000	0.0
38	0x00000000	0.0
39	0x00000000	0.0
40	0x00000000	0.0
41	0x00000000	0.0
42	0x00000000	0.0
43	0x00000000	0.0
44	0x00000000	0.0
45	0x00000000	0.0
46	0x00000000	0.0
47	0x00000000	0.0
48	0x00000000	0.0
49	0x00000000	0.0
50	0x00000000	0.0
51	0x00000000	0.0
52	0x00000000	0.0
53	0x00000000	0.0
54	0x00000000	0.0
55	0x00000000	0.0
56	0x00000000	0.0
57	0x00000000	0.0
58	0x00000000	0.0
59	0x00000000	0.0
60	0x00000000	0.0
61	0x00000000	0.0
62	0x00000000	0.0
63	0x00000000	0.0
64	0x00000000	0.0
65	0x00000000	0.0
66	0x00000000	0.0
67	0x00000000	0.0
68	0x00000000	0.0
69	0x00000000	0.0
70	0x00000000	0.0
71	0x00000000	0.0
72	0x00000000	0.0
73	0x00000000	0.0
74	0x00000000	0.0
75	0x00000000	0.0
76	0x00000000	0.0
77	0x00000000	0.0
78	0x00000000	0.0
79	0x00000000	0.0
80	0x00000000	0.0
81	0x00000000	0.0
82	0x00000000	0.0
83	0x00000000	0.0
84	0x00000000	0.0
85	0x00000000	0.0
86	0x00000000	0.0
87	0x00000000	0.0
88	0x00000000	0.0
89	0x00000000	0.0
90	0x00000000	0.0
91	0x00000000	0.0
92	0x00000000	0.0
93	0x00000000	0.0
94	0x00000000	0.0
95	0x00000000	0.0
96	0x00000000	0.0
97	0x00000000	0.0
98	0x00000000	0.0
99	0x00000000	0.0
100	0x00000000	0.0
101	0x00000000	0.0
102	0x00000000	0.0
103	0x00000000	0.0
104	0x00000000	0.0
105	0x00000000	0.0
106	0x00000000	0.0
107	0x00000000	0.0
108	0x00000000	0.0
109	0x00000000	0.0
110	0x00000000	0.0
111	0x00000000	0.0
112	0x00000000	0.0
113	0x00000000	0.0
114	0x00000000	0.0
115	0x00000000	0.0
116	0x00000000	0.0
117	0x00000000	0.0
118	0x00000000	0.0
119	0x00000000	0.0
120	0x00000000	0.0
121	0x00000000	0.0
122	0x00000000	0.0
123	0x00000000	0.0
124	0x00000000	0.0
125	0x00000000	0.0
126	0x00000000	0.0
127	0x00000000	0.0

network_body._body_endoder.seq_layers.0.weight f4 [128, 125]
0	0x3e26f626	0.16304836
1	0xbdc28d46	-0.09499602
2	0xbd19a336	-0.037509166
3	0xba69ae17	-0.0008914186
4	0xbd3e5fdf	-0.04647815
5	0x3caa554e	0.02079263
6	0x3dca9bea	0.098930195
7	0xbcf1e75e	-0.02952927
8	0xbdbd8715	-0.092542805
9	0xbd60cd97	-0.054883566
10	0xbd8c6525	-0.06855229
11	0x3d35dc01	0.044399265
12	0x3dd0038f	0.10156929
13	0xbd31b207	-0.04338267
14	0xbd59e870	-0.053200185
15	0x3dbe3fcf	0.09289514
16	0x3e0394b5	0.12849696
17	0x3e1c3d63	0.15257792
18	0xbd8d873c	-0.069105595
19	0xbde820b3	-0.11334362
20	0xbd219dd2	-0.03945715
21	0xbd1fa987	-0.038980033
22	0x3d230822	0.039802678
23	0x3c0a2481	0.008431555
24	0xbc7c95d7	-0.015416584
25	0x3d8f0f22	0.06985308
26	0xbccb3c54	-0.02480904
27	0xbc3336ac	-0.010938328
28	0xbdc282e0	-0.09497619
29	0xbc0b586d	-0.008504969
30	0xbe16bfd9	-0.14721622
31	0x3e21b89d	0.1579308
32	0xbe4b1235	-0.19831164
33	0xbb242fec	-0.0025052978
34	0x3cefda1f	0.029278813
35	0x3e5b04e9	0.21388592
36	0x3d8046c2	0.06263496
37	0x3cd66010	0.026168853
38	0xbd0e14ad	-0.034687687
39	0x3dcab9c2	0.09898712
40	0x3ddf07a4	0.10890129
41	0x3d2c000e	0.04199224
42	0x3ce7ddb1	0.028303953
43	0xbdf69105	-0.12039379
44	0xbd8c11a5	-0.06839303
45	0x3d987340	0.07443857
46	0x3e0b82b0	0.13624072
47	0xbd6edf1d	-0.058318246
48	0x3d97d16e	0.074129924
49	0x3dcb0dab	0.09914716
50	0x3d60c1d5	0.054872353
51	0xbe0b712d	-0.13617392
52	0x3d6071b1	0.054795925
53	0xbe1bdbad	-0.15220518
54	0x3bd86443	0.006603749
55	0x3dbece16	0.093166515
56	0xbdc7a83a	-0.097488835
57	0x3e1a0092	0.1503928
58	0x3e0350e9	0.12823834
59	0x3c56e9a1	0.013117225
60	0x3e4a60c9	0.19763483
61	0xbd6b99f8	-0.057519883
62	0xbd00e6b4	-0.031470016
63	0xbd88429d	-0.066533305
64	0xbb073af1	-0.0020634497
65	0xbddfa7f3	-0.10920706
66	0x3c3dc115	0.011581679
67	0x3bcac445	0.006187948
68	0x3d994f80	0.074858665
69	0xbd992905	-0.07478527
70	0xbd06bd7f	-0.03289556
71	0xbe230a76	-0.1592196
72	0xbe7bbd51	-0.24583937
73	0xbdd26414	-0.10272995
74	0x3d952d84	0.07284072
75	0xbcdbafb5	-0.026817182
76	0x3c49db97	0.012320421
77	0x3d878457	0.06617039
78	0xbbcdcd6e	-0.0062805926
79	0xbd45436b	-0.048159998
80	0x3e61558f	0.22005294
81	0xbdca8113	-0.098879
82	0x3d9ee580	0.077586174
83	0x3e6b38f6	0.22970948
84	0xbd93e35c	-0.072211
85	0x3e259a95	0.1617225
86	0xbcce7c04	-0.02520562
87	0xbe102bba	-0.1407918
88	0xbde4b721	-0.111677416
89	0xbcedc413	-0.02902416
90	0x3c9491f2	0.018135998
91	0x3becdc6d	0.0072284252
92	0x3d177a4d	0.03698187
93	0x3daa871a	0.0832655
94	0x3c58f2c8	0.013241477
95	0xbe03135b	-0.12800352
96	0xbd50c5bf	-0.050969835
97	0xbdaa10ea	-0.08304007
98	0xbd8dfcad	-0.0693296
99	0x3de07211	0.109592564
100	0x3d1b4849	0.037910733
101	0xbd91f53b	-0.07126852
102	0xbb36085b	-0.0027775976
103	0x3da6801e	0.08129905
104	0xbd22319a	-0.039598085
105	0xbaf34716	-0.0018560614
106	0xba534e94	-0.000806072
107	0x3bd3470f	0.00644768
108	0xba4f4460	-0.0007906612
109	0xbdb23253	-0.08701005
110	0x3dfff6ad	0.124982215
111	0xbcce9713	-0.025218522
112	0xbcbf127a	-0.02332424
113	0x3e0bbec3	0.13646989
114	0xbcd31b78	-0.025769934
115	0xbcd26129	-0.025681095
116	0xbdad2da1	-0.08455969
117	0xbde2acb6	-0.11068098
118	0x3e15d700	0.14632797
119	0xbdf7bc9c	-0.12096521
120	0x3e0abb35	0.13547976
121	0xbd85bfdb	-0.06530734
122	0x3d41f840	0.04735589
123	0xbdcaa43d	-0.09894607
124	0xbd20d92e	-0.03926962
125	0xbd122f74	-0.035689786
126	0x3d423be6	0.047420405
127	0xbdf038aa	-0.11729558
128	0x3daecc61	0.08535076
129	0xbd493fbe	-0.049133055
130	0xbda28045	-0.07934622
131	0x3d8f0b98	0.06984633
132	0xbd8f186f	-0.06987082
133	0xbcdc7bd8	-0.026914522
134	0x3d80f598	0.06296843
135	0x3c8e7e31	0.017394157
136	0x3d976462	0.073921934
137	0x3dd79f31	0.1052841
138	0xbdf5ee0d	-0.12008295
139	0x3d8990e2	0.06717087
140	0x3c6eb03a	0.014568383
141	0xbca2b838	-0.019863233
142	0x3c34cf66	0.011035776
143	0x3bb221e6	0.00543617
144	0x3c32c909	0.010912188
145	0xbdc4029a	-0.09570809
146	0x3e0538c5	0.13009937
147	0xbe211af5	-0.1573294
148	0xbe2fef25	-0.1718107
149	0xbdbb349e	-0.09140895
150	0xbcf4a164	-0.029862113
151	0xbe4b5ad8	-0.19858873
152	0xbd9757d1	-0.073897965
153	0x3df2be69	0.11852724
154	0x3e23e4af	0.16005205
155	0xbd866db7	-0.06563895
156	0xbc66b153	-0.014080363
157	0x3d40419a	0.046937563
158	0x3d209399	0.03920326
159	0xbd82f19f	-0.06393742
160	0xbd433676	-0.04765936
161	0xbcbe4376	-0.023225527
162	0xbe0e04bb	-0.13868992
163	0x3d916ecf	0.07101213
164	0xbd9beac5	-0.07613138
165	0xbbe1c9cd	-0.0068905116
166	0xbd04cb37	-0.032420363
167	0xbe365c90	-0.17808747
168	0x3e409b14	0.18809158
169	0xbd8553ce	-0.06510125
170	0x3dc11463	0.094277166
171	0xbdae2c33	-0.08504524
172	0xbd2c202b	-0.042022865
173	0x3e01863a	0.1264886
174	0xbe00b84b	-0.12570302
175	0x3e4c4fac	0.19952267
176	0x3c85f771	0.01635334
177	0x3da0a836	0.07844584
178	0xbdd874f7	-0.10569184
179	0x3d9f7346	0.077856585
180	0x3c61c811	0.01378061
181	0xbcb0c432	-0.021577928
182	0xbdb9bf25	-0.09069661
183	0x3d4982ec	0.049197122
184	0x3e0aa8b8	0.13540924
185	0xbd8f8d79	-0.07009406
186	0x3c08ea29	0.008356609
187	0x3df647ab	0.12025388
188	0xbdef3168	-0.11679345
189	0xbd529a9f	-0.05141699
190	0x3d1b0838	0.037849635
191	0x3da58f21	0.0808394
192	0xbdb12ca7	-0.08651095
193	0xbc98589e	-0.018596943
194	0x3d7c91f9	0.061662648
195	0x3e3a5268	0.18195498
196	0xbdb15049	-0.08657891
197	0x3cff2186	0.031143915
198	0xbde47629	-0.1115535
199	0x3dcd5e91	0.10027803
200	0x3deb87f0	0.115005374
201	0x3ca98318	0.020692393
202	0xbbba2ca1	-0.0056815897
203	0x3c6a4ece	0.014301015
204	0x3db327c3	0.08747818
205	0x3d7d64c1	0.061863665
206	0xbd2ee742	-0.042701013
207	0xbc9f976c	-0.019481383
208	0x3dd3c2db	0.103399
209	0xbe6896e9	-0.22713818
210	0x3dc91437	0.09818309
211	0x3cc36f0a	0.023856658
212	0xbc545678	-0.012960069
213	0x3e4139aa	0.18869653
214	0xbe49ba80	-0.1970005
215	0x3acb220f	0.0015497821
216	0x3e0eec54	0.1395734
217	0xbca0e64c	-0.019641064
218	0xbd9c5685	-0.0763369
219	0xbe34965d	-0.17635484
220	0x3dcae12a	0.09906228
221	0x3e1f050c	0.15529269
222	0xbd36d645	-0.044637937
223	0xbd571740	-0.052512407
224	0xbdb7db0f	-0.08977329
225	0x3d95e673	0.07319345
226	0x3dae2a55	0.08504168
227	0x3d222f7e	0.039596073
228	0xbce09a3e	-0.027417298
229	0xbe052aab	-0.13004558
230	0xbc2a4bf0	-0.0103940815
231	0xbdda21ae	-0.10650955
232	0x3e0914a4	0.1338678
233	0xbceb8102	-0.02874804
234	0xbd91017a	-0.0708036
235	0xbd66bac6	-0.056330465
236	0xbe2ba2b0	-0.16761279
237	0xbd583ebd	-0.052794207
238	0xbe34e122	-0.17664006
239	0x3d23ab43	0.03995825
240	0xbea67117	-0.32508156
241	0x3df8c3a5	0.12146691
242	0x3d02dd0c	0.031949088
243	0xbb900c86	-0.004396024
244	0xbc1fd320	-0.009754926
245	0xbc55d7dc	-0.013051953
246	0xbd135070	-0.035965383
247	0x3caf90ef	0.021431414
248	0x3c737633	0.014859724
249	0xbe643221	-0.22284748
250	0xbc9c139d	-0.019052321
251	0x3da4f169	0.08053858
252	0xbd165fa4	-0.036712304
253	0xbd2c8953	-0.04212315
254	0x3ce40848	0.02783598
255	0x3e091fd8	0.13391054

network_body._body_endoder.seq_layers.2.bias f4 [128]
0	0x00000000	0.0
1	0x00000000	0.0
2	0x00000000	0.0
3	0x00000000	0.0
4	0x00000000	0.0
5	0x00000000	0.0
6	0x00000000	0.0
7	0x00000000	0.0
8	0x00000000	0.0
9	0x00000000	0.0
10	0x00000000	0.0
11	0x00000000	0.0
12	0x00000000	0.0
13	0x00000000	0.0
14	0x00000000	0.0
15	0x00000000	0.0
16	0x00000000	0.0
17	0x00000000	0.0
18	0x00000000	0.0
19	0x00000000	0.0
20	0x00000000	0.0
21	0x00000000	0.0
22	0x00000000	0.0
23	0x00000000	0.0
24	0x00000000	0.0
25	0x00000000	0.0
26	0x00000000	0.0
27	0x00000000	0.0
28	0x00000000	0.0
29	0x00000000	0.0
30	0x00000000	0.0
31	0x00000000	0.0
32	0x00000000	0.0
33	0x00000000	0.0
34	0x00000000	0.0
35	0x00000000	0.0
36	0x00000000	0.0
37	0x00000000	0.0
38	0x00000000	0.0
39	0x00000000	0.0
40	0x00000000	0.0
41	0x00000000	0.0
42	0x00000000	0.0
43	0x00000000	0.0
44	0x00000000	0.0
45	0x00000000	0.0
46	0x00000000	0.0
47	0x00000000	0.0
48	0x00000000	0.0
49	0x00000000	0.0
50	0x00000000	0.0
51	0x00000000	0.0
52	0x00000000	0.0
53	0x00000000	0.0
54	0x00000000	0.0
55	0x00000000	0.0
56	0x00000000	0.0
57	0x00000000	0.0
58	0x00000000	0.0
59	0x00000000	0.0
60	0x00000000	0.0
61	0x00000000	0.0
62	0x00000000	0.0
63	0x00000000	0.0
64	0x00000000	0.0
65	0x00000000	0.0
66	0x00000000	0.0
67	0x00000000	0.0
68	0x00000000	0.0
69	0x00000000	0.0
70	0x00000000	0.0
71	0x00000000	0.0
72	0x00000000	0.0
73	0x00000000	0.0
74	0x00000000	0.0
75	0x00000000	0.0
76	0x00000000	0.0
77	0x00000000	0.0
78	0x00000000	0.0
79	0x00000000	0.0
80	0x00000000	0.0
81	0x00000000	0.0
82	0x00000000	0.0
83	0x00000000	0.0
84	0x00000000	0.0
85	0x00000000	0.0
86	0x00000000	0.0
87	0x00000000	0.0
88	0x00000000	0.0
89	0x00000000	0.0
90	0x00000000	0.0
91	0x00000000	0.0
92	0x00000000	0.0
93	0x00000000	0.0
94	0x00000000	0.0
95	0x00000000	0.0
96	0x00000000	0.0
97	0x00000000	0.0
98	0x00000000	0.0
99	0x00000000	0.0
100	0x00000000	0.0
101	0x00000000	0.0
102	0x00000000	0.0
103	0x00000000	0.0
104	0x00000000	0.0
105	0x00000000	0.0
106	0x00000000	0.0
107	0x00000000	0.0
108	0x00000000	0.0
109	0x00000000	0.0
110	0x00000000	0.0
111	0x00000000	0.0
112	0x00000000	0.0
113	0x00000000	0.0
114	0x00000000	0.0
115	0x00000000	0.0
116	0x00000000	0.0
117	0x00000000	0.0
118	0x00000000	0.0
119	0x00000000	0.0
120	0x00000000	0.0
121	0x00000000	0.0
122	0x00000000	0.0
123	0x00000000	0.0
124	0x00000000	0.0
125	0x00000000	0.0
126	0x00000000	0.0
127	0x00000000	0.0

network_body._body_endoder.seq_layers.2.weight f4 [128, 128]
0	0xbceb3919	-0.02871375
1	0x3d3eafe1	0.04655445
2	0xbe2fc5bc	-0.17165273
3	0xbde81a63	-0.11333158
4	0x3e22f7df	0.15914868
5	0x3b2d2ffc	0.0026426306
6	0xbd29d489	-0.041462455
7	0xbdcb6c34	-0.099327475
8	0x3e2d2ce5	0.16911657
9	0x3d49e2ff	0.049288746
10	0x3d3c5223	0.04597677
11	0x3e0408f0	0.12894034
12	0x3e7208b5	0.23636134
13	0xbd705c4a	-0.058681764
14	0x3a8febf3	0.0010980353
15	0x3d5bf7fd	0.053703297
16	0x3d3b2e3d	0.045698393
17	0xbe1986fd	-0.149929
18	0x3d965579	0.07340521
19	0x3d8a451c	0.06751463
20	0x3e05dbd5	0.1307214
21	0xbe09255b	-0.13393156
22	0x3c2ac3bb	0.010422642
23	0x3cd22eb0	0.025657028
24	0x3c331ece	0.010932637
25	0xbd63a0b1	-0.05557317
26	0x3d80b6de	0.06284879
27	0xbd3f7715	-0.046744425
28	0x3db9b93e	0.09068535
29	0xbbd7777e	-0.006575524
30	0x3e4e799d	0.2016358
31	0x3d45ff52	0.048339196
32	0x3c21dca1	0.009879262
33	0x3e05b823	0.13058524
34	0x3dc4a1f8	0.096012056
35	0x3d2a55f7	0.04158589
36	0x3e3599f6	0.17734513
37	0xbc6f1547	-0.014592475
38	0x3d58c216	0.05291947
39	0x3d1aa436	0.03775426
40	0xbd39fbb4	-0.04540606
41	0xbc985837	-0.018596752
42	0xbb49c829	-0.003078947
43	0xbe167102	-0.14691547
44	0x3d29541f	0.04133999
45	0xbcd57e81	-0.026061298
46	0xbd075769	-0.033042345
47	0x3d7d720c	0.06187634
48	0x3dc8ae10	0.09798825
49	0xbc9cfe72	-0.019164298
50	0xbc4cb3ff	-0.012494086
51	0x3d59bb36	0.053157054
52	0x3dfdd8eb	0.123948894
53	0x3ac9e55d	0.0015403439
54	0xbd6081f1	-0.05481142
55	0xbc0dd533	-0.008656788
56	0xbdc7634b	-0.097357355
57	0xbd452f52	-0.04814083
58	0x3d2c8b9f	0.04212534
59	0x3da7ee00	0.08199692
60	0x3d23af1b	0.039961915
61	0x3e0fe751	0.14053084
62	0xbcbdfd31	-0.02319202
63	0xbd303f1a	-0.04302893
64	0x3d6cd07d	0.057816017
65	0x3e2e86c9	0.17043604
66	0xbc9384ac	-0.018007599
67	0xbd10d8cf	-0.035363015
68	0xbcc69d54	-0.024244942
69	0xbd43629d	-0.047701467
70	0xbd65eccb	-0.056134026
71	0xbd43bdb2	-0.04778833
72	0xbd23482b	-0.039863747
73	0xbda435da	-0.08018084
74	0x3d102700	0.035193443
75	0x3db2da45	0.08733038
76	0x3d494b06	0.049143814
77	0xbd962b0e	-0.07332431
78	0x3c96ea38	0.018422231
79	0xbd692486	-0.056919597
80	0xbd737afa	-0.05944345
81	0xbe111e73	-0.14171772
82	0x3d4291fa	0.047502495
83	0xbcbb36ae	-0.022853222
84	0x3d1391ed	0.036027838
85	0x3db3f4eb	0.08786949
86	0xbdef59b4	-0.116870314
87	0x3dd1b686	0.10239892
88	0xbcf94f7b	-0.030433407
89	0x3e47d290	0.19513917
90	0x3da3b499	0.07993431
91	0xbdab7fd2	-0.08373989
92	0x3de92480	0.11383915
93	0xbe0a2f46	-0.13494596
94	0xbc0c123f	-0.008549272
95	0xbdf01e41	-0.117245205
96	0x3c196eaf	0.009364768
97	0xbcb6eff1	-0.02233121
98	0xbd2a402d	-0.04156511
99	0xbd7065a0	-0.058690667
100	0xbd31670e	-0.04331117
101	0x3daba0bd	0.08380268
102	0xbe1145cd	-0.14186783
103	0xbd882651	-0.06647933
104	0xbda01d28	-0.07818061
105	0x3daaa20c	0.08331689
106	0x3dc0655e	0.09394334
107	0x3cedb655	0.029017607
108	0x3e24deec	0.16100663
109	0xbe36a9b0	-0.17838168
110	0xbe60a65d	-0.21938463
111	0xbcde443e	-0.02713215
112	0x3dc62b7f	0.09676265
113	0xbdd74d06	-0.10512738
114	0x3cebb84e	0.028774407
115	0x3c6bda19	0.01439526
116	0xbcb67c6c	-0.022276126
117	0x3cc7532b	0.02433165
118	0x3c9f8ea2	0.019477192
119	0xbbc90c61	-0.006135509
120	0x3dd95c14	0.10613266
121	0xbcdf8575	-0.027285317
122	0xbd2e7363	-0.04259051
123	0xbd9b9a89	-0.075978346
124	0x3e75e404	0.24012762
125	0xbcd5e64a	-0.026110787
126	0x3d6df0c6	0.058090948
127	0x3daf0ba6	0.08547144
128	0xbe07233f	-0.13197039
129	0xbc85f83f	-0.016353725
130	0xbe2ff1d0	-0.17182088
131	0x3d8961e3	0.067081235
132	0xbc4a13d4	-0.012333829
133	0x3d4203d1	0.04736692
134	0xbd8f6a5d	-0.07002709
135	0x3dd5956e	0.10428892
136	0x3dd72d71	0.10506714
137	0xbd38c607	-0.04511073
138	0x3d67c18d	0.05658107
139	0x3e006394	0.12537986
140	0x3c383307	0.011242635
141	0xbda575fc	-0.08079144
142	0xbe4f8e98	-0.20269239
143	0xbd757d79	-0.059934113
144	0xbd373dc3	-0.044736635
145	0xbc09a24e	-0.008400513
146	0xbdb9cbdd	-0.09072087
147	0x3e175d52	0.14781693
148	0x3d20b86a	0.03923837
149	0x3d460ef5	0.048354108
150	0xbe5406a2	-0.20705655
151	0xbe84413f	-0.2583103
152	0x3d5ed06b	0.05439798
153	0xbcf037f0	-0.029323548
154	0xbdb21e4c	-0.08697185
155	0x3ba545be	0.0050437143
156	0x3dc2a4f4	0.095041186
157	0x3e0d82f0	0.1381948
158	0x3d461b30	0.04836577
159	0xbcb176a2	-0.021663014
160	0x3dc7b1f1	0.097507365
161	0x3dc3cc35	0.09560434
162	0xbc6ef44c	-0.014584612
163	0x3d4ae504	0.049534813
164	0x3dfcd255	0.12344805
165	0x3db5ee38	0.08883327
166	0x3d3fe7cc	0.046851918
167	0xbc2f82d8	-0.010712348
168	0x3becd4f3	0.007227534
169	0xbdd8bcd6	-0.105828926
170	0x3d02f061	0.031967524
171	0xbdb1a387	-0.086737685
172	0xbdb5a893	-0.088700436
173	0x3dbbd387	0.09171205
174	0x3cab8ce8	0.020941213
175	0x3d867565	0.0656536
176	0xbe379bdf	-0.17930554
177	0xbdf27a61	-0.11839748
178	0xbc5f83d2	-0.013642268
179	0x3c943047	0.018089427
180	0x3c27497e	0.010210393
181	0xbd0d548a	-0.03450445
182	0x3d7bf132	0.06150932
183	0x3dbbc883	0.09169104
184	0x3d834dc5	0.06411318
185	0xbcb928ed	-0.022602523
186	0xbd25079c	-0.04029046
187	0xbd3b8a19	-0.045785997
188	0xbd26e9fe	-0.040750496
189	0xbd9beb43	-0.07613232
190	0x3deb5f79	0.11492819
191	0x3e23e169	0.16003956
192	0x3d5fc4d4	0.05463107
193	0xbd231013	-0.03981025
194	0x3cd81581	0.026377441
195	0x3dd0aa33	0.10188713
196	0x3cbaf6ce	0.022822764
197	0x3d82eccc	0.06392822
198	0x3dbf297a	0.09334083
199	0xbe046eef	-0.12932943
200	0x3e0ca642	0.13735297
201	0x3d1105d1	0.035405938
202	0xbdb593e5	-0.08866099
203	0xbd12307f	-0.03569078
204	0x3cc3e9eb	0.023915252
205	0xbd27fcb1	-0.04101247
206	0xbd83b792	-0.06431498
207	0x3e2afcf0	0.1669805
208	0x3e9c62d5	0.30544153
209	0xbd8023f6	-0.06256859
210	0xbd6a0008	-0.057128936
211	0xbdeecbd7	-0.11659973
212	0x3d327bb1	0.043574993
213	0x3ca8ca27	0.020604206
214	0xbd3d133e	-0.04616093
215	0xbda44c2b	-0.080223404
216	0xbd7493e7	-0.059711363
217	0x3c96954c	0.018381737
218	0xbe1db90c	-0.15402621
219	0xbdcc9515	-0.09989373
220	0x3daac99e	0.08339237
221	0xbdaaf19a	-0.08346863
222	0xbbfeffc1	-0.007781953
223	0xbda37e14	-0.07983032
224	0x3d3d9331	0.04628295
225	0xbddd80a7	-0.10815554
226	0xbe2f20b7	-0.17102323
227	0xbdcfd48e	-0.101479635
228	0xbdb06e6e	-0.08614813
229	0x3c84f70c	0.016231082
230	0xbd926c30	-0.071495414
231	0xbe4e51f3	-0.20148449
232	0x3dbd51cd	0.09244118
233	0x3c207da0	0.009795576
234	0x3d0505d1	0.03247625
235	0xbcc1a7fb	-0.02363967
236	0xbdec8311	-0.115484364
237	0xbe098bda	-0.13432255
238	0xbd721562	-0.059102423
239	0xbd71522f	-0.058916267
240	0xbd241500	-0.04005909
241	0x3d78a393	0.06070287
242	0x3e14b60f	0.14522575
243	0x3d046819	0.032325838
244	0x3def0f38	0.116728246
245	0xbdc1f545	-0.094706096
246	0xbe178913	-0.14798383
247	0x3ce44090	0.027862817
248	0x3da92109	0.08258254
249	0xbd4bd667	-0.049765017
250	0x3d877b04	0.0661526
251	0xbd88e3a6	-0.066840455
252	0xbe21ef33	-0.15813904
253	0xbdf8e185	-0.121523894
254	0x3da17660	0.07883906
255	0x3e3c38b4	0.18381006
