results/FoodTarget_imitation_6/PlayerAgent/PlayerAgent-13876.onnx (onnx, 143281 bytes, 13 tensors)

action_model._discrete_distribution.branches.0.bias f4 [4]
0.004984783 -0.0009157684 -0.0013083157 -0.0041999733
00000000: 6457 a33b 2d10 70ba ca7b abba ee9f 89bb

action_model._discrete_distribution.branches.0.weight f4 [4, 128]
0.0004781338 0.00684496 -0.005919797 0.0013255903 0.002807213 0.005864381 0.0050273114 -0.007378131
0.02189747 -0.004698314 -0.009521116 0.00934152 -0.0025405735 0.017470242 -0.01821937 -0.01620159
-0.0053193835 0.010068774 -0.011144795 0.0027319698 -0.0037896002 0.0029109267 -0.0042115343 0.00087135937
-0.0038231388 -0.02251497 -0.004200627 -0.002071797 0.0050168736 -0.0012692644 -0.01097361 0.006184312
-0.012284106 -0.00097197917 -0.010705682 -0.024210589 0.0027064693 0.007518163 0.012783144 0.009620774
0.008349435 -0.0010341706 -0.0050994833 0.007224967 -0.0027868126 -0.010954788 -0.011170782 -1.201247e-05
0.020564739 0.0025959935 -0.011858382 0.0131853875 -0.0027379426 -0.009967771 -0.010577913 0.009842915
0.0056795347 0.007941241 0.00658101 -0.01655139 0.014292893 0.0012120006 -0.010064193 -0.01739354
-0.006885 0.008225273 -0.0012962065 -0.001701295 -0.02253878 0.0076798936 -0.023336422 0.010507039
-0.0012400574 0.03412708 -0.011015981 0.005448136 -0.011534774 -0.0028602153 0.0020735397 0.004115187
-0.0031194475 -0.0022570505 -0.00905957 -0.01751308 0.0052234847 0.0036325215 0.0042475834 0.002618847
0.0016815471 0.001396322 -0.0030460835 -0.019241592 -0.0011108986 0.008990141 0.009664381 0.0028986635
-0.005672448 0.0052073123 -0.006982925 -0.0007447888 -0.013441556 0.0055164695 -0.009290116 -0.00076126767
0.001853604 0.010812602 -0.006405947 -0.006249797 0.008656795 -0.0062412294 0.00028555235 -0.0024883805
-0.0023122462 -0.0032805298 -0.004745084 -0.0020033529 -0.0060257167 -0.008888166 0.0046964176 0.0038701203
-0.0067242393 -0.005631078 -0.012113216 -0.006769271 0.0003810678 0.00575248 -0.011703896 0.0022789822
-0.010235849 -0.013028519 0.013157717 0.005160625 0.006328583 0.0014624324 -0.0043940693 0.005156456
0.022900928 -0.0014174825 0.0008060347 0.008999655 -0.0048152106 -0.00491837 -0.007029784 -0.008567624
-0.003753358 -0.007102944 0.0045399237 -0.012635845 -0.00040467083 -0.00046508806 -0.0025138347 -0.0028027704
0.005424309 -0.009993133 -0.003790231 -0.0030908554 0.0021092286 0.013573339 0.0028227363 -0.012464497
0.001541641 0.006688015 0.0127620585 -0.013906897 -0.008773908 0.0077363704 0.0071007046 0.0029069611
0.009235598 -0.005814817 -0.032452602 0.007426595 -0.014008179 0.0019253006 -0.005138078 0.0029471023
-0.0006360299 -0.00705674 0.002212392 0.0046362714 0.0046749474 0.0053711548 -0.0037534095 0.012633072
-0.008157042 -0.010957962 0.0057988255 -0.011819239 0.005044091 -0.0060772873 0.0057672644 -0.0030897164
-0.0014221714 0.008277987 -0.009166692 -0.0034726132 0.0064330567 -0.0064129396 0.00080693734 -0.008515059
-0.007811911 0.0028583473 -0.00081192306 -0.0002075889 -0.0017305281 0.0013473344 -0.0038489138 -0.007936078
-0.0030580426 0.020685786 0.012137171 0.009663212 -0.0045286105 -0.0062665106 -0.0038618022 -0.009799718
0.0031508203 -0.004278628 0.009703721 0.019846968 0.014641174 -0.013191423 0.011992202 -0.010964904
0.008420414 -0.007420529 0.02648408 -0.0060250987 -0.010365951 0.0047519975 0.0073823156 0.008709868
-0.0060134158 0.026064334 0.00088674354 -0.00020673107 -0.004652423 -0.0024733315 0.007358237 -0.0074603357
0.009105624 0.018914465 -0.011123704 -0.0006954372 -0.014513458 0.005308693 -0.0029226851 -0.006900067
0.00025063124 -0.01703215 0.0064086234 -0.004901995 -0.00746155 0.009219894 -0.0021852301 -0.0005142234
00000000: 08ae fa39 b04b e03b dbfa c1bb 6ebf ad3a
00000010: 38f9 373b fe29 c03b 25bc a43b 40c4 f1bb
00000020: 5362 b33c 50f4 99bb 74fe 1bbc 2d0d 193c
00000030: c07f 26bb c11d 8f3c ca40 95bc 32b9 84bc
00000040: 394e aebb 80f7 243c a998 36bc d90a 333b
00000050: f15a 78bb 3fc5 3e3b e900 8abb f06b 643a
00000060: a08d 7abb 5071 b8bc 6aa5 89bb fcc6 07bb
00000070: 9664 a43b 725d a6ba a8ca 33bc c5a5 ca3b
00000080: 4643 49bc 6bcc 7eba e366 2fbc 4955 c6bc
00000090: 055f 313b ec5a f63b 6470 513c 73a0 1d3c
000000a0: 12cc 083c 028d 87ba 9119 a7bb 6abf ec3b
000000b0: f5a2 36bb b67b 33bc a805 37bc 2a89 49b7
000000c0: 6277 a83c 8b21 2a3b a949 42bc 8607 583c
000000d0: 0e6f 33bb dd4f 23bc fc4e 2dbc 2e44 213c
000000e0: 641b ba3b fb1b 023c 83a5 d73b c896 87bc
000000f0: bd2c 6a3c fedb 9e3a 49e4 24bc e67c 8ebc
00000100: 919b e1bb 4cc3 063c 79e5 a9ba fdfd deba
00000110: 3fa3 b8bc 9ea7 fb3b 062c bfbc b725 2c3c
00000120: 6c89 a2ba d6c8 0b3d 607c 34bc 4786 b23b
00000130: 59fc 3cbc 7372 3bbb 39e4 073b b1d8 863b
00000140: a56f 4cbb 06eb 13bb 976e 14bc 9777 8fbc
00000150: c429 ab3b 990f 6e3b 502f 8b3b f6a0 2b3b
00000160: 5c67 dc3a cb04 b73a cda0 47bb 8ba0 9dbc
00000170: 929b 91ba 624b 133c 5a57 1e3c 81f7 3d3b
00000180: f1df b9bb 1aa2 aa3b 05d1 e4bb ee3d 43ba
00000190: f939 5cbc 80c3 b43b 9235 18bc cf8f 47ba
000001a0: a1f4 f23a 5727 313c fae8 d1bb 19cb ccbb
000001b0: 3bd5 0d3c 3a83 ccbb 30b6 9539 1914 23bb
000001c0: 0e89 17bb 28fe 56bb a67c 9bbb af4a 03bb
000001d0: 6073 c5bb ac9f 11bc 68e4 993b d8a1 7d3b
000001e0: 0257 dcbb e884 b8bb 8376 46bc c3d0 ddbb
000001f0: 0eca c739 4d7f bc3b b3c1 3fbc fa5a 153b
00000200: 43b4 27bc 9275 55bc 7793 573c 761a a93b
00000210: 0160 cf3b 17af bf3a 20fc 8fbb 7df7 a83b
00000220: ba9a bb3c d2ca b9ba 134c 533a 4a73 133c
00000230: eac8 9dbb 472a a1bb 1a5a e6bb 385f 0cbc
00000240: e6fa 75bb d0bf e8bb a4c3 943b 9306 4fbc
00000250: 002a d4b9 10d7 f3b9 26bf 24bb afae 37bb
00000260: 67be b13b 3dba 23bc 8665 78bb f38f 4abb
00000270: fc3a 0a3b b662 5e3c a8fd 383b e437 4cbc
00000280: e310 ca3a 2327 db3b f417 513c c1d9 63bc
00000290: 70c0 0fbc 6181 fd3b 07ad e83b b782 3e3b
000002a0: e850 173c 388a bebb 05ed 04bd cb5a f33b
000002b0: 9082 65bc 5e5a fc3a 525d a8bb 2c24 413b
000002c0: 3ebb 26ba 3a3c e7bb c7fd 103b ddeb 973b
000002d0: 4d30 993b 8300 b03b c3fb 75bb f2fa 4e3c
000002e0: 1da5 05bc 0689 33bc 1304 be3b 7ba5 41bc
000002f0: e748 a53b fb23 c7bb 52fb bc3b d77c 4abb
00000300: 2768 baba 65a0 073c e52f 16bc c894 63bb
00000310: 64cc d23b a323 d2bb a688 533a bf82 0bbc
00000320: 0ffb ffbb 1c53 3b3b 3cd7 54ba 39ac 59b9
00000330: e3d2 e2ba 0a99 b03a 0f3e 7cbb 5306 02bc
00000340: 7169 48bb 3d75 a93c fcda 463c 7352 1e3c
00000350: bd64 94bb 4d57 cdbb 4a16 7dbb ff8e 20bc
00000360: fe7d 4e3b bc33 8cbb 5bfc 1e3c 1c96 a23c
00000370: 89e1 6f3c d720 58bc f17a 443c 24a6 33bc
00000380: c7f5 093c e927 f3bb 24f5 d83c 316e c5bb
00000390: f3d5 29bc a5b6 9b3b 5ae7 f13b d6b3 0e3c
000003a0: 300c c5bb df84 d53c 5a74 683a f3c5 58b9
000003b0: 5a73 98bb 9e17 22bb 5e1d f13b d575 f4bb
000003c0: c12f 153c 82f2 9a3c 3240 36bc 004e 36ba
000003d0: dbc9 6dbc 8bf4 ad3b 858a 3fbb f519 e2bb
000003e0: 2867 8339 0287 8bbc 6eff d13b eaa0 a0bb
000003f0: 0580 f4bb 0a0f 173c 1436 0fbb f3cc 06ba

action_model._discrete_distribution.branches.1.bias f4 [4]
-0.0021230949 0.0047371164 -0.00096145924 -0.0014012834
00000000: 9f23 0bbb d039 9b3b 700a 7cba 45ab b7ba

action_model._discrete_distribution.branches.1.weight f4 [4, 128]
-0.011128976 0.005908291 -0.00853528 -0.003732509 -0.0059404424 0.009547949 -0.014466317 -0.008937929
-0.01156967 -4.9907944e-06 -0.03164824 -0.01569431 0.0018801098 0.01658732 -0.013928041 0.006282741
-0.0065530646 -0.011286374 -0.005822839 -0.008414074 0.010959485 -0.0032995993 0.0049480335 0.0044868556
0.008028761 0.018084474 0.0015176528 -0.00094789086 0.010989392 0.010242237 -0.009514345 -0.010880885
-0.0034291637 -0.021148104 -0.004828898 0.0153175695 0.011255132 -0.012092294 0.016342208 -0.006844547
0.015843133 -0.016700909 0.0062874784 -0.0021506203 0.02320921 -0.013369521 -0.0042601796 0.0076222126
-0.007699513 0.012116729 -0.007692444 0.004377684 0.003934155 -0.0030680343 0.0023895237 0.005021045
-0.0034338941 0.010448436 0.018435713 -0.009588144 0.0043722074 -0.009865803 -0.00977407 -0.01331753
-0.00427831 0.0008789486 0.0053745825 -0.0013904938 0.0034329162 -0.011811727 0.013546932 -0.010956191
0.012326246 0.0044476977 -0.013488809 0.013007135 0.0049299817 0.0072196284 0.012604581 0.0023790204
-0.00015722949 -0.018904002 -0.0125867445 -0.008920675 -0.0131027475 -0.0046176915 0.0028744375 0.008980512
0.0010817514 0.0017775348 -0.016805075 0.000113549206 -0.0020076737 -0.020333298 -0.0016812418 -0.007424836
-0.009219289 -0.00630555 -0.012642552 -0.0069440734 -0.015200095 0.005516364 -0.009721711 -0.008100995
0.015080552 -0.010450628 0.0060171126 0.0018574845 0.0032199314 0.019810682 0.0075483136 0.002252059
-0.0016568308 -0.007876608 -0.0048711295 -0.014731117 0.006663856 -0.002887741 -0.018198641 -0.0071370075
0.019206315 0.010901303 -0.009061784 0.0046052025 0.008218905 -0.019151406 -0.0037651611 -0.015850289
0.004230554 -0.008681444 0.007847324 -0.005791741 0.011547185 0.0042818896 -0.005058027 0.0133697875
-0.010575469 -0.011395707 0.008631496 0.00032027587 0.009297673 0.00726604 0.012996512 -0.0059597823
0.016918043 -0.0015169139 -0.0030213299 0.004555604 0.0020480545 0.007951308 -0.009525891 0.0050292504
-0.01021559 -0.013853216 -0.0014561765 -0.0010169059 -0.014982836 0.0007485273 0.02224601 -0.007879262
-0.010649553 0.0017390805 0.0025732561 -0.015814815 -0.00453724 -0.0028398552 0.0016018547 -0.0014283602
0.0033529024 0.008620998 -0.0017717561 0.0013020596 0.007888424 0.011080537 -2.7801461e-06 0.0015105613
0.0042484784 0.0052972217 -0.02052364 0.0064845667 0.010178732 0.012668251 -0.00066907995 0.0062583582
0.0027756307 -0.0035129527 0.007431844 0.0067484914 0.007944644 0.0028535747 -0.009402649 0.02093066
0.0025013268 0.002031524 0.00309193 -0.010781648 0.008395134 0.0014788681 -0.015231582 -0.009199135
0.008465724 -0.007082231 0.0031707862 -0.0069745695 -0.010496898 0.014516706 -0.0006117361 0.01675236
-0.017859733 0.009637105 0.009091293 0.012593911 0.0059720594 0.002908027 0.0024634968 0.0070919986
-0.0055023604 0.009826476 -0.019800203 0.010084714 -0.005207742 0.012103443 0.0013635957 -0.003704986
-0.0015903285 -0.009079807 0.005055849 0.0030600654 0.023488287 0.00496364 -0.0149277095 -0.0020425278
-0.009337663 -0.0050245784 -6.932022e-05 0.024981607 -0.012655447 -0.0002933974 -0.017137242 -0.007780702
0.006802334 -0.011518284 -0.0026809443 0.0005559215 0.00085378543 -0.006687476 0.00272916 -0.0035438703
-0.008859673 0.018910516 0.017132571 0.004054829 -0.0029964072 0.005429836 0.0023833273 -0.011803042
00000000: 4f56 36bc 569a c13b 8fd7 0bbc 1c9d 74bb
00000010: 0ba8 c2bb 006f 1c3c 2204 6dbc 6470 12bc
00000020: b78e 3dbc 9976 a7b6 96a1 01bd 5b91 80bc
00000030: 046e f63a 22e2 873c 7032 64bc 74df cd3b
00000040: 17bb d6bb 7cea 38bc 84cd bebb 2fdb 09bc
00000050: 698f 333c 173e 58bb 1d23 a23b 7906 933b
00000060: 108b 033c e425 943c faeb c63a e17b 78ba
00000070: da0c 343c 0ecf 273c 0ee2 1bbc bd45 32bc
00000080: d2bb 60bb ca3e adbc bb3b 9ebb 8bf6 7a3c
00000090: 7267 383c c21e 46bc 18e0 853c 3948 e0bb
000000a0: 75c9 813c 58d0 88bc 3107 ce3b 6cf1 0cbb
000000b0: 3e21 be3c d60b 5bbc fa98 8bbb c1c3 f93b
000000c0: 324c fcbb 3f85 463c e610 fcbb ad72 8f3b
000000d0: 16ea 803b 1311 49bb 8e99 1c3b 9487 a43b
000000e0: 2f0b 61bb eb2f 2b3c 7e06 973c 9717 1dbc
000000f0: bc44 8f3b 2da4 21bc 6c23 20bc c531 5abc
00000100: 1131 8cbb 3e69 663a 441d b03b 3b41 b6ba
00000110: c7fa 603b f985 41bc f3f3 5d3c 9981 33bc
00000120: 06f4 493c febd 913b 2a00 5dbc e11b 553c
00000130: af8b a13b a292 ec3b 7283 4e3c 57e9 1b3b
00000140: f8dd 24b9 91dc 9abc a238 4ebc 0628 12bc
00000150: e8ac 56bc 0150 97bb 0f61 3c3b ff22 133c
00000160: 8ec9 8d3a 2cfc e83a ccaa 89bc 4421 ee38
00000170: 2d93 03bb 0492 a6bc 1d5d dcba 0a4c f3bb
00000180: 800c 17bc ca9e cebb b522 4fbc 1c8b e3bb
00000190: d209 79bc 9dc2 b43b d047 1fbc 09ba 04bc
000001a0: 6b14 773c 1c39 2bbc 332b c53b d676 f33a
000001b0: 7c05 533b 034a a23c d857 f73b 4897 133b
000001c0: 042a d9ba e30c 01bc ff9d 9fbb c85a 71bc
000001d0: 7a5c da3b 4140 3dbb 5115 95bc 8fdd e9bb
000001e0: 9056 9d3c 619b 323c e077 14bc 3de7 963b
000001f0: 96a8 063c 69e3 9cbc ecc0 76bb 77d8 81bc
00000200: 76a0 8a3b 9e3c 0ebc 1092 003c a5c8 bdbb
00000210: 6730 3d3c 184f 8c3b cebd a5bb f40c 5b3c
00000220: bb44 2dbc 0fb5 3abc 1e6b 0d3c b3ea a739
00000230: 4455 183c f617 ee3b 53ef 543c 474a c3bb
00000240: b597 8a3c 2fd3 c6ba 8101 46bb 2d47 953b
00000250: a738 063b 3446 023c 7c12 1cbc 69cc a43b
00000260: 4a5f 27bc 99f8 62bc 2ddd beba b349 85ba
00000270: 927a 75bc d138 443a 443d b63c 0518 01bc
00000280: 767b 2ebc dcf1 e33a 13a4 283b 128e 81bc
00000290: 21ad 94bb dd1c 3abb 53f5 d13a d137 bbba
000002a0: 5ebc 5b3b 163f 0d3c 453a e8ba dfa9 aa3a
000002b0: 733e 013c 248b 353c 8c92 3ab6 07fe c53a
000002c0: d236 8b3b 5194 ad3b 3121 a8bc 7d7c d43b
000002d0: b2c4 263c 7f8e 4f3c 3265 2fba ea12 cd3b
000002e0: 5be7 353b 9139 66bb d386 f33b 7322 dd3b
000002f0: 412a 023c 0a03 3b3b 910d 1abc c776 ab3c
00000300: 4ded 233b 5123 053b faa1 4a3b 82a5 30bc
00000310: be8b 093c 94d6 c13a e38d 79bc f8b7 16bc
00000320: d2b3 0a3c 0f12 e8bb f7cc 4f3b ee8a e4bb
00000330: 2efb 2bbc 7ad7 6d3c ea5c 20ba 3f3c 893c
00000340: 934e 92bc f3e4 1d3c a6f3 143c b156 4e3c
00000350: 44b1 c33b 9994 3e3b 9e72 213b ff63 e83b
00000360: 254d b4bb 3aff 203c 0934 a2bc 5b3a 253c
00000370: b5a5 aabb 854d 463c aeba b23a 5acf 72bb
00000380: 9272 d0ba 79c3 14bc 89ab a53b 618b 483b
00000390: 826a c03c 08a6 a23b 5a93 74bc eedb 05bb
000003a0: fffc 18bc 38a5 a4bb 0260 91b8 3aa6 cc3c
000003b0: cb58 4fbc 22d3 99b9 6763 8cbc 42f5 febb
000003c0: 1de6 de3b 2fb7 3cbc c8b2 2fbb 43bb 113a
000003d0: 92d0 5f3a 9d22 dbbb b5db 323b 4740 68bb
000003e0: 2928 11bc 3aea 9a3c 9b59 8c3c 5fde 843b
000003f0: 5f5f 44bb c4ec b13b 9931 1c3b 8c61 41bc

action_model._discrete_distribution.branches.2.bias f4 [4]
-0.0022063802 0.0012143423 0.00047015943 -0.00026581195
00000000: eb98 10bb 912a 9f3a bb7f f639 ad5c 8bb9

action_model._discrete_distribution.branches.2.weight f4 [4, 128]
-0.00753727 -0.0014453637 0.017802395 -0.0013402249 0.008535925 0.015726548 -0.0014752585 -0.015328116
-0.012638206 0.00600172 -0.0057606525 -0.008329627 0.0051991916 -0.009615078 0.01564851 -0.009594673
0.007466677 -0.0021608418 -0.01660018 0.007927043 0.006703959 0.004807417 -0.0114526395 0.0020113706
-0.002901039 -0.006926691 0.008101185 -0.0125464015 -0.0022732217 0.019679734 -0.0056974883 -0.01256629
-0.0083166445 0.013629159 0.0016300981 -0.0047410843 0.004258403 -0.009111663 0.0074881166 -0.0014086158
-0.00089257886 -0.0076761805 0.0040902724 -0.007067965 0.014240079 0.0116615575 0.0043552807 -0.014647378
-0.0055566924 -0.003575675 -0.0044815796 -0.005298703 0.005213563 0.0028464159 -0.00012405383 0.010398021
0.006592091 0.0043879934 0.0009890663 0.015781306 -0.009773569 -0.007613944 -0.010462179 0.007429045
0.0092414385 0.00537199 -0.0082891015 -0.011351907 0.01102467 0.00075832865 0.0060896343 0.007179733
0.006314798 0.02064799 0.002398348 0.006288963 0.01129139 -0.003638977 -0.0021654181 -0.021567406
-0.0033397893 0.0030446395 -0.0030290678 -0.004773907 0.0074779317 -0.013868158 -0.007924782 0.00042237202
0.0068048667 0.006546179 0.0202879 -0.0138343675 0.0017825967 0.0071128574 1.9367551e-05 -0.0069742952
0.0029802897 -0.013908908 0.013256466 0.021583715 0.0014698418 0.016107013 -0.007766993 0.0129248435
-0.0037634515 0.010406277 0.025515344 -0.005518474 -0.02038301 -0.0007755836 -0.0034749035 -0.0014188268
0.007512169 0.0026474567 0.0033649935 0.0013498012 0.0015034494 -0.0008655069 -0.0053790878 0.007334164
-0.0034886114 -0.0146348 0.012473257 0.02020335 -0.0013678123 0.00095020264 -0.012578506 0.010373357
0.010566281 -0.009396943 -0.027008 -0.00464783 -0.010805655 0.01270192 -0.010551583 0.0064666374
0.0054702363 -0.00013093969 -0.0038438186 0.0065919696 -0.009712023 -0.016310636 -0.004767017 -0.0024752046
0.017624436 -0.017362963 -0.0035984528 0.0059467433 -0.009323187 -0.0030017174 -0.01100935 0.013882628
0.0030460085 -0.0055347304 0.0013342835 0.008842891 -0.008515283 -0.02154013 0.0071330587 0.0046622683
-0.005041864 0.011278041 -0.008446565 0.010405501 0.0021310856 -0.017162146 0.0028666488 -0.005650164
-0.0011455322 -0.011709338 -0.00540524 0.0047843796 -0.000740051 0.0080102915 -0.0033168772 0.005170677
-0.0038257483 -0.0073434534 -0.002753412 0.00019374359 0.0061937477 -0.012778054 0.015553092 0.0093765175
0.009344037 -0.0016362165 -0.012674926 0.018044915 0.005427141 0.011774606 0.005504027 0.01589268
-0.008323905 0.0037034848 0.0034022215 0.007782533 -0.0020373734 -0.0017663958 0.0007815295 -0.004282649
-0.004211726 -0.015898079 0.007947666 -0.004657361 0.0041551944 0.014111002 -0.0043162154 0.016389832
-0.0021107157 0.004535645 0.00041731566 0.0063110376 0.0073636887 0.010749304 -0.012957994 -0.02008867
-0.0036879072 0.0024836531 0.0045638448 0.009299784 -0.008906927 0.014855518 -0.0008470094 0.009086584
-0.013146648 -0.0010904556 0.013428407 0.0010205895 -0.002103365 -0.0070828088 0.018899683 0.015051162
0.010456037 -0.0027142086 0.02131196 0.02259426 -0.0005308636 -0.0030376406 -0.0033206556 0.001645357
0.010535596 0.006136138 0.013854922 0.0016900805 0.008996302 -0.00795744 -0.011213911 -0.008689478
0.001970416 -0.007599916 0.0061782263 0.0011338883 -0.004638724 -0.0054937443 -0.0005336508 -0.0011897999
00000000: 34fb f6bb 5c72 bdba 54d6 913c 7caa afba
00000010: 44da 0b3c f6d4 803c 765d c1ba c722 7bbc
00000020: 7a10 4fbc 14aa c43b dbc3 bcbb fd78 08bc
00000030: fb5d aa3b 8f88 1dbc 4e31 803c fa32 1dbc
00000040: 07ab f43b e99c 0dbb 1afd 87bc 6ee0 013c
00000050: e2ac db3b 8987 9d3b daa3 3bbc 33d1 033b
00000060: 5c1f 3ebb 4cf9 e2bb d5ba 043c 6c8f 4dbc
00000070: 55fa 14bb 6537 a13c ffb1 babb d7e2 4dbc
00000080: 8942 08bc d64c 5f3c 04a9 d53a 195b 9bbb
00000090: 138a 8b3b 1649 15bc e05e f53b 4ea1 b8ba
000000a0: f4fb 69ba 7888 fbbb b107 863b 639a e7bb
000000b0: 384f 693c 1e10 3f3c beb6 8e3b 8efb 6fbc
000000c0: ea14 b6bb df55 6abb 37da 92bb bea0 adbb
000000d0: 89d6 aa3b ef8a 3a3b 7214 02b9 765c 2a3c
000000e0: 7802 d83b 28c9 8f3b 8fa3 813a cc47 813c
000000f0: 5221 20bc 647e f9bb 8f69 2bbc 596f f33b
00000100: 6769 173c 8507 b03b 03cf 07bc 59fd 39bc
00000110: d1a0 343c 93ca 463a 8e8b c73b f743 eb3b
00000120: 5dec ce3b f925 a93c 9a2d 1d3b a513 ce3b
00000130: 86ff 383c e77b 6ebb b0e9 0dbb 21ae b0bc
00000140: 5ee0 5abb 9388 473b 5383 46bb 6f6e 9cbb
00000150: 7009 f53b 4537 63bc f2d6 01bc d071 dd39
00000160: 5cfb de3b 5481 d63b cf32 a63c 8ba9 62bc
00000170: 05a6 e93a f912 e93b 8077 a237 a188 e4bb
00000180: f750 433b 30e2 63bc a631 593c 55d0 b03c
00000190: b5a7 c03a dbf2 833c 4282 febb b9c2 533c
000001a0: 3da4 76bb 177f 2a3c 8e05 d13c 51d4 b4bb
000001b0: 45fa a6bc 8950 4bba 35bb 63bb edf7 b9ba
000001c0: a428 f63b f480 2d3b 3987 5c3b d0eb b03a
000001d0: 640f c53a 2fe3 62ba 0f43 b0bb 6d53 f03b
000001e0: 30a1 64bb cdc6 6fbc a25c 4c3c 7f81 a53c
000001f0: 2a48 b3ba 0517 793a 1416 4ebc 03f5 293c
00000200: 321e 2d3c a3f5 19bc e23f ddbc d34c 98bb
00000210: 340a 31bc b71b 503c 8ce0 2cbc 16e6 d33b
00000220: ab3f b33b db4c 09b9 93e8 7bbb 7301 d83b
00000230: 2d1f 1fbc e29d 85bc a334 9cbb 0b37 22bb
00000240: 1f61 903c c63c 8ebc 05d4 6bbb e6dc c23b
00000250: 48c0 18bc 76b8 44bb 9060 34bc f673 633c
00000260: 8b9f 473b af5c b5bb 20e3 ae3a c6e1 103c
00000270: b083 0bbc ed74 b0bc 6fbc e93b f1c5 983b
00000280: 3836 a5bb 88c7 383c 7663 0abc d67b 2a3c
00000290: afa9 0b3b a197 8cbc 63de 3b3b 0325 b9bb
000002a0: af25 96ba 86d8 3fbc 711e b1bb 49c6 9c3b
000002b0: fbff 41ba 993d 033c f75f 59bb c86e a93b
000002c0: 68b9 7abb 5aa1 f0bb 9672 34bb a627 4b39
000002d0: ecf4 ca3b 0b5b 51bc 65d2 7e3c f79f 193c
000002e0: bb17 193c 5176 d6ba 7eaa 4fbc eed2 933c
000002f0: 29d6 b13b 47ea 403c 205b b43b 5e31 823c
00000300: fd60 08bc 2ab6 723b cef7 5e3b 9e04 ff3b
00000310: 7485 05bb 6886 e7ba 8fdf 4c3a 7755 8cbb
00000320: 8502 8abb b03c 82bc ed36 023c c79c 98bb
00000330: 4c28 883b d531 673c 0a6f 8dbb f843 863c
00000340: ef53 0abb bf9f 943b 29cb da39 d2cc ce3b
00000350: 194b f13b d91d 303c c44d 54bc ff90 a4bc
00000360: d1b0 71bb c9c4 223b 4e8c 953b 1f5e 183c
00000370: 5cee 11bc 8f64 733c d709 5eba e5df 143c
00000380: 0a65 57bc 9eed 8eba d202 5c3c 4dc5 853a
00000390: 9cd8 09bb e816 e8bb 82d3 9a3c 2699 763c
000003a0: cc4f 2b3c dde0 31bb 6b96 ae3c 9917 b93c
000003b0: a729 0bba 2713 47bb 5b9f 59bb 05a9 d73a
000003c0: 7e9d 2c3c a811 c93b c1ff 623c b185 dd3a
000003d0: 3a65 133c ec5f 02bc 8dba 37bc 505e 0ebc
000003e0: 1822 013b b708 f9bb b872 ca3b fa9e 943a
000003f0: 7000 98bb de04 b4bb b3e4 0bba 0ff3 9bba

action_model._discrete_distribution.branches.3.bias f4 [4]
0.0010786817 -0.002644299 0.00058970513 0.001270424
00000000: 8d62 8d3a fa4b 2dbb 7196 1a3a 5b84 a63a

action_model._discrete_distribution.branches.3.weight f4 [4, 128]
-0.0038603328 0.00762884 0.006345346 0.0042382353 0.007489708 0.0014979081 0.0030360315 0.008280868
0.00095816015 0.0011724816 -0.009309779 -0.010252177 -0.0008689815 -0.0077514537 -0.0028065946 -0.016687078
-0.012943461 0.00021753956 -0.009834137 0.0023965766 -0.009999038 -0.0050768573 -0.0078825755 0.002807268
0.006684076 -0.003633003 -0.0124186985 0.006608643 0.0030976855 -0.010283977 -0.0064477883 0.0032774135
-0.019234488 -0.0007969311 -0.00052421656 -0.007815385 -0.008775242 0.00081566774 0.01841111 -0.0051877084
-0.014931498 0.0007259133 0.009850254 -0.0060848356 -0.012516902 -0.009369933 0.011404885 0.0189654
-0.0049593556 0.004359929 0.00067928754 0.0043331874 0.001211298 0.00096710963 0.01925284 -0.007566622
-0.0014935447 -0.0054057967 0.010517063 0.009152468 0.001742822 -0.007351814 -0.010047914 0.010440899
0.0027505155 -0.0023701538 0.0038984297 -0.015101968 0.0056563076 -0.0063814637 -0.005545897 0.0005473504
0.003065571 -0.0064089135 0.0018705495 -0.0032309087 0.0033168115 0.019057024 0.0014905367 0.013022787
-0.0037769116 0.0061864643 -0.0045651523 -0.0030047174 0.008703012 -0.026374016 -0.009625818 0.020666208
-0.017319594 0.017276166 -0.012024037 0.0014002647 0.010996227 -0.0052182544 0.013839037 -0.017103218
-0.020044334 0.014586156 -0.0036191067 -0.0067100786 0.0036450638 0.013993829 0.009501787 -0.003698794
0.009295415 -0.0015493945 0.0137490695 -0.015572127 0.01746627 0.0011486101 -0.0021817645 -0.0021789435
0.012684672 -0.011969402 -0.009187856 0.0007685287 0.015047828 -0.007409883 0.0009347925 0.0031459876
-0.016264683 0.014306193 0.0029050747 0.014284633 -0.0013943837 -0.004672416 -0.0013694341 -0.008881013
0.0019056817 0.0012254852 0.00843483 0.007421524 0.0040402287 -0.0006943805 0.01192971 -0.006570753
0.016969183 0.0052028922 -0.02196966 -0.027310712 0.0042182608 0.0095004365 -0.012284059 0.008879236
0.00756828 0.0036720126 -0.01713081 -0.009122569 0.0044842195 0.0017393319 -0.00058450596 0.009930535
0.0025383306 0.003234789 0.007925658 0.0007792531 0.0004079541 0.012404327 -0.008233432 0.0112431785
0.0061178077 -0.006862034 0.001830264 0.0012756648 -0.0052949535 0.021120587 -0.0030640052 -1.908803e-06
0.0058970856 0.01960857 -0.005756439 -0.010764853 -0.018224075 0.009490421 0.0041033113 0.008261774
-0.009388448 -0.013708885 -0.0058076573 0.0007319436 0.013759247 -0.008612554 0.007237804 -0.005647009
0.00027117625 -0.0178757 0.010255727 -0.012985998 0.011301235 0.00055526785 0.00095006573 0.018823557
0.00978015 -0.019845292 -0.0028696815 0.010285971 -0.010458721 0.0021242118 0.006265579 -0.02060916
0.0065514664 0.012217042 -0.0077217016 -0.01159963 0.0060080043 -0.011140042 0.0010682105 -0.0070283203
0.0020437033 -0.00014408442 -0.0062324256 0.026466629 0.0049173264 -0.008652073 -0.011455513 0.0045377063
-0.0068056467 -0.00024484211 0.0022307914 0.008806319 0.006024358 0.0101023195 0.013112754 -0.00019234102
0.01376375 -0.0018445558 0.0033891655 0.008676376 0.019332578 0.0056335945 0.021420168 -0.008905382
0.00029579963 -0.00047494637 0.011408164 -0.0033594642 -0.020631807 -0.0063420734 0.008220598 -0.008151939
0.008806815 0.00027659285 -0.011582275 0.005292703 0.013866625 0.0024725473 -0.0005946887 0.008747934
-0.007868069 -0.0066360123 -0.0026521555 0.00716082 -0.0031339098 0.0004067677 -0.01021858 -0.007351215
00000000: a3fd 7cbb 59fb f93b 9fec cf3b e5e0 8a3b
00000010: 396c f53b 7555 c43a 28f8 463b 7aac 073c
00000020: 0a2d 7b3a f4ad 993a 0b88 18bc bff8 27bc
00000030: 5ccc 63ba e8ff fdbb d8ee 37bb 57b3 88bc
00000040: cf10 54bc 551b 6439 5c1f 21bc e20f 1d3b
00000050: 01d3 23bc c45b a6bb eb25 01bc 24fa 373b
00000060: 1806 db3b ad17 6ebb cc77 4bbc 518d d83b
00000070: 8a02 4b3b 207e 28bc f847 d3bb e0c9 563b
00000080: a591 9dbc 24e9 50ba 946b 09ba 1a0c 00bc
00000090: 08c6 0fbc 89d2 553a e5d2 963c a7fd a9bb
000000a0: 3ea3 74bc 384b 3e3a f662 213c 4d63 c7bb
000000b0: b113 4dbc 5984 19bc 8edb 3a3c 545d 9b3c
000000c0: 1782 a2bb bcdd 8e3b 3712 323a 69fd 8d3b
000000d0: 6bc4 9e3a a185 7d3a 22b8 9d3c 6df1 f7bb
000000e0: 0bc3 c3ba 1c23 b1bb c24f 2c3c 3cf4 153c
000000f0: 676f e43a 7ce7 f0bb 02a0 24bc 4e10 2b3c
00000100: fe41 343b 9554 1bbb cc7c 7f3b 3f6e 77bc
00000110: 8c58 b93b 991b d1bb 5bba b5bb 107c 0f3a
00000120: bfe7 483b dd01 d2bb 3a2d f53a a7bd 53bb
00000130: dd5e 593b 7a1d 9c3c 1d5e c33a 875d 553c
00000140: 1086 77bb d3b7 ca3b 4697 95bb cbea 44bb
00000150: 1497 0e3c 520e d8bc 9bb5 1dbc 2e4c a93c
00000160: d2e1 8dbc bf86 8d3c 7700 45bc 1689 b73a
00000170: 8529 343c e4fd aabb 21bd 623c 0c1c 8cbc
00000180: 0434 a4bc c6fa 6e3c 892e 6dbb 38e0 dbbb
00000190: 06e2 6e3b 5f46 653c 62ad 1b3c 7767 72bb
000001a0: cc4b 183c 0d15 cbba c743 613c 3c22 7fbc
000001b0: 6c15 8f3c f68c 963a effb 0ebb 9bcc 0ebb
000001c0: 5fd3 4f3c 501b 44bc a988 16bc 1777 493a
000001d0: 2a8b 763c 9bce f2bb dd0c 753a ea2c 4e3b
000001e0: 833d 85bc 8664 6a3c 1163 3e3b 180a 6a3c
000001f0: c1c3 b6ba 111b 99bb 957e b3ba ab81 11bc
00000200: 11c8 f93a 76a0 a03a 3e32 0a3c 4130 f33b
00000210: e563 843b 1607 36ba d574 433c 794f d7bb
00000220: f502 8b3c 067d aa3b b7f9 b3bc b7ba dfbc
00000230: 5639 8a3b b8a7 1b3c 1443 49bc 377a 113c
00000240: 56ff f73b 26a6 703b ea55 8cbc d476 15bc
00000250: 5cf0 923b 4bfa e33a 8839 19ba afb3 223c
00000260: 1f5a 263b c1fe 533b 9eda 013c ca46 4c3a
00000270: ace2 d539 853b 4b3c 84e5 06bc 4f35 383c
00000280: e477 c83b eada e0bb 78e5 ef3a 3534 a73a
00000290: 4a81 adbb 1505 ad3c 7acd 48bb fc18 00b6
000002a0: 573c c13b 27a2 a03c 83a0 bcbb 115f 30bc
000002b0: a84a 95bc b67d 1b3c 1275 863b 645c 073c
000002c0: 01d2 19bc 3b9b 60bc 294e bebb e7df 3f3a
000002d0: 776e 613c ab1b 0dbc 1a2b ed3b 8b0a b9bb
000002e0: a92c 8e39 0f70 92bc a307 283c 39c3 54bc
000002f0: d128 393c 658f 113a d50d 793a dc33 9a3c
00000300: ec3c 203c 9892 a2bc 4411 3cbb 7d86 283c
00000310: 0e5b 2bbc 5c36 0b3b 7c4f cd3b 8bd4 a8bc
00000320: afad d63b fd29 483c 5406 fdbb 600c 3ebc
00000330: cbde c43b b984 36bc 3203 8c3a d34d e6bb
00000340: a7ef 053b 5e15 17b9 6039 ccbb 8bd0 d83c
00000350: 8621 a13b 6dc1 0dbc e7af 3bbc 0ab1 943b
00000360: e701 dfbb 275e 80b9 7832 123b 6148 103c
00000370: fa67 c53b 3384 253c e0d6 563c 26af 49b9
00000380: 5a81 613c 06c5 f1ba c31c 5e3b 5c27 0e3c
00000390: 5b5f 9e3c 049a b83b 5979 af3c e1e7 11bc
000003a0: 8e15 9b39 3902 f9b9 4fe9 3a3c 752a 5cbb
000003b0: 0904 a9bc 2bd1 cfbb b0af 063c b68f 05bc
000003c0: 764a 103c aa03 9139 95c3 3dbc 696e ad3b
000003d0: d730 633c 760a 223b e2e4 1bba 7f53 0f3c
000003e0: 13e9 00bc e872 d9bb c9cf 2dbb 50a5 ea3b
000003f0: 4862 4dbb 7043 d539 d56b 27bc 76e2 f0bb

discrete_action_output_shape f4 [1, 4]
4.0 4.0 4.0 4.0
00000000: 0000 8040 0000 8040 0000 8040 0000 8040

network_body._body_endoder.seq_layers.0.bias f4 [128]
-0.0013889294 0.002503364 0.0013766144 -0.0015116287 0.0010478467 0.0024572192 0.0006327611 -0.004788328
-0.0011639359 0.0023261453 0.0021842981 0.005279654 -0.0014471115 -0.00018876442 0.0007963678 0.00033347402
0.004838204 -0.00017489342 -0.0006140749 0.0020458447 -6.8126756e-05 -0.0011897492 0.0025155144 -0.0027222983
0.002765197 -0.0019483475 -0.0012488042 0.002394158 -0.0014673625 -0.002230467 0.0025951872 -0.00015051622
-0.001923908 -0.0011392088 0.0006105233 0.0021196627 -0.002553772 -0.0031913808 -0.0012507079 -0.0013890319
0.0017171068 0.0021646572 0.00038277614 -0.00076728896 -0.0011029949 0.0029807067 -0.001429904 -0.00095347036
0.0015491215 -0.001785098 0.0037389668 0.0031632367 -0.0022709167 0.0032424435 0.0024593505 0.0020325354
-0.001221661 0.00015268421 -0.0015054127 -0.0011267549 -0.0009226347 -0.0003202407 -0.00045344702 0.0036839868
-0.0006841349 -0.0035149711 0.0025936188 0.0019991521 -0.0008518488 0.00016801016 0.004471164 0.0012502429
0.00014441532 0.00090014184 -0.0016059236 0.004199622 -0.00024272193 -0.0009915497 0.0013641863 0.00034042107
0.0016729903 -0.00045767275 0.0029404908 -0.002616131 -0.0006081001 0.0037071917 -0.0016697915 0.0022647362
0.0036021664 -0.0001851656 -0.0010855077 -0.0024393457 -0.0002970081 0.00019770773 0.0019964192 0.0029873957
0.0021298723 -5.7635334e-05 0.0007008431 -0.0011726058 -0.0016812444 -0.001048876 -0.0024643512 -0.0017105765
0.0037440858 -0.0012225125 0.0018082404 -0.0017915221 -0.002100447 -0.004294409 -0.0019198547 -0.0048241373
-0.0001735154 0.0019081602 -0.0041538924 -0.00020621096 0.0012556756 -0.0008690453 0.0031021081 0.0025611012
-0.0025069157 -0.0013369896 0.0021818038 -0.00031863662 -0.002352771 -0.0043174047 -0.00093342917 0.002477291
00000000: bd0c b6ba 7b0f 243b 846f b43a d821 c6ba
00000010: e757 893a 4c09 213b e1df 253a 68e7 9cbb
00000020: 358f 98ba 3e72 183b 7126 0f3b f300 ad3b
00000030: 01ad bdba 10ef 45b9 57c3 503a 20d6 ae39
00000040: cc89 9e3b 9863 37b9 def9 20ba 9413 063b
00000050: 46df 8eb8 5cf1 9bba 54db 243b 9668 32bb
00000060: 4f38 353b b25f ffba eaae a3ba 4ee7 1c3b
00000070: 8454 c0ba 072d 12bb 0414 2a3b e4d3 1db9
00000080: a42b fcba 8151 95ba 860b 203a 0aea 0a3b
00000090: 2f5d 27bb 7c26 51bb cbee a3ba 2d10 b6ba
000000a0: 8b10 e13a ecdc 0d3b 58af c839 e423 49ba
000000b0: 5e92 90ba f657 433b 9e6b bbba 50f2 79ba
000000c0: e40b cb3a f3f9 e9ba 7409 753b 4e4e 4f3b
000000d0: a9d3 14bb 2d7f 543b 0e2d 213b 4934 053b
000000e0: 2420 a0ba db19 2039 4551 c5ba 9faf 93ba
000000f0: f7dc 71ba fbe5 a7b9 a1bc edb9 0b6f 713b
00000100: 8457 33ba 6e5b 66bb b4f9 293b 3504 033b
00000110: 9b4e 5fba e22b 3039 d882 923b 31df a33a
00000120: 316e 1739 7ff7 6b3a db7d d2ba fc9c 893b
00000130: 2c83 7eb9 e3f6 81ba 7fce b23a 8b7a b239
00000140: 3d48 db3a ccf3 efb9 40b5 403b 6573 2bbb
00000150: e868 1fba 5bf4 723b e8dc daba f86b 143b
00000160: 5312 6c3b 0329 42b9 9847 8eba 6edd 1fbb
00000170: c1b7 9bb9 c44f 4f39 5bd6 023b 2fc8 433b
00000180: 5495 0b3b 78bd 71b8 c9b8 373a 1fb2 99ba
00000190: 335d dcba 707a 89ba f480 21bb 6c35 e0ba
000001a0: 565f 753b b63c a0ba 7b02 ed3a 82d1 eaba
000001b0: a7a7 09bb 1db8 8cbb a2a3 fbba cc13 9ebb
000001c0: aff1 35b9 3b1b fa3a 601d 88bb 553a 58b9
000001d0: 7b95 a43a a5d0 63ba bd4c 4b3b 26d8 273b
000001e0: 114b 24bb ed3d afba 98fc 0e3b af0e a7b9
000001f0: f230 1abb 0479 8dbb 5fb1 74ba 0c5a 223b

network_body._body_endoder.seq_layers.0.weight f4 [128, 125]
-0.06532464 -0.012222064 -0.034444712 -0.11341609 0.0015647124 -0.08202704 -0.07498934 -0.05824225
0.06920552 -0.09545998 -0.09533724 -0.019475086 -0.0442319 0.068030804 0.0490798 -0.053745568
0.10071043 -0.040685546 0.0822479 0.16327748 0.13272369 0.015548596 0.002796511 -0.02286253
-0.023756595 -0.048466716 -0.010281567 0.11052313 -0.05562793 0.021952648 -0.106902204 0.133546
0.11790016 0.009092374 -0.12353357 -0.042044036 -0.0059331898 -0.09875579 -0.025604539 0.039948
-0.07069508 -0.118714556 0.048645355 0.019185577 0.04565258 -0.009307976 -0.07735101 -0.15430318
-0.026603661 0.010666593 0.067497745 0.12448767 0.103382416 0.09917961 -0.064953916 0.2361139
-0.015058406 0.17020765 0.076935805 -0.11079298 -0.054682568 0.0069428207 -0.013398695 0.09454755
-0.02125094 0.020782758 0.007079479 0.0032012304 -0.043924272 0.13719836 0.04258518 -0.17201686
-0.023936646 -0.109842844 0.041525986 -0.19876161 0.059567366 -0.16776644 -0.0047186525 -0.037907626
-0.17670974 -0.02432212 -0.12659831 0.042945508 -0.049582627 0.024299117 -0.09549374 0.021923456
0.002590597 -0.0067185005 0.1554404 -0.07898122 0.032116145 0.079473615 0.1216215 -0.07761676
-0.18735465 0.0067468635 -0.09013379 -0.13056915 0.1565409 0.015508796 0.121368915 -0.015235871
0.074999556 -0.038324594 0.07815838 0.11861128 -0.030286133 0.06214117 0.031468756 0.110781595
0.0114368675 0.093098104 0.046834443 0.017796645 -0.0938338 -0.040323548 0.12098809 -0.152915
-0.08573167 0.06380201 -0.0060492777 -0.1259266 0.14837247 0.06474206 -0.013129847 0.15042304
-0.11832626 0.15159272 -0.09515761 -0.034465097 0.16886708 -0.004921904 -0.013205908 0.0421479
0.092463456 0.052917622 0.04679575 -0.0058909464 -0.026928049 0.054844547 0.15470912 0.04349624
-0.06699278 0.018387483 0.04113157 0.030022198 0.03116857 0.0957239 -0.08896582 -0.06994903
0.093047895 -0.004831806 0.06584146 0.047629233 -0.13759795 -0.020761982 -0.023012806 -0.15462668
-0.046788316 0.1782536 0.08375393 -0.014642772 0.07437287 0.003024978 0.03900747 0.00090991973
0.048739333 0.04426811 0.0020185679 -0.12984487 -0.003665388 0.059632342 0.06510774 0.16221882
-0.03145694 -0.01121077 -0.0043894295 0.052253764 0.02971066 0.1613287 -0.230005 -0.02653343
-0.0758328 -0.09142198 -0.08844376 -0.015262728 -0.004660786 -0.126381 0.017795863 -0.060539283
0.045929823 -0.14412998 -0.05633075 -0.061963852 0.0916339 0.030185973 -0.031196063 -0.08799903
0.03571446 0.111737214 -0.08342275 0.02320152 -0.1015965 -0.025242012 -0.15112008 0.005943049
-0.06915844 -0.081420206 0.14775534 -0.16922645 0.095034726 0.019307328 -0.121788606 0.056775127
-0.10501938 0.022006378 0.06011224 -0.017840162 0.15347661 0.06378009 -0.029972693 -0.16264021
-0.012346748 -0.047606245 -0.084168136 0.006582673 -0.05877564 -0.062305268 0.045166947 0.093776636
-0.03239102 0.20411122 -0.1868486 -0.02861465 0.042632826 0.01895101 -0.009689686 0.1473515
7.044788e-05 0.05015523 0.03867171 -0.062162116 -0.10208574 -0.13189438 -0.08546747 -0.0069727446
0.031653654 0.008739293 0.06760946 0.25643906 0.04938653 -0.101450466 0.0844716 0.2256194
00000000: edc8 85bd 0d3f 48bc e615 0dbd b246 e8bd
00000010: 0917 cd3a cbfd a7bd 0394 99bd 6d8f 6ebd
00000020: a0bb 8d3d 8680 c3bd 2c40 c3bd 378a 9fbc
00000030: 822c 35bd bc53 8b3d e607 493d 5024 5cbd
00000040: 4541 ce3d e3a5 26bd 9671 a83d 3632 273e
00000050: b8e8 073e 8abf 7e3c ab45 373b 334a bbbc
00000060: 319d c2bc 0985 46bd 0574 28bc f359 e23d
00000070: 1dda 63bd 0ad6 b33c 8bef dabd 48c0 083e
00000080: a475 f13d 2ef8 143c 2bff fcbd 5e36 2cbd
00000090: 346b c2bb 7a40 cabd 9cc0 d1bc 84a0 233d
000000a0: 95c8 90bd 9e20 f3bd 5a40 473d 122b 9d3c
000000b0: 33fe 3a3d 7b80 18bc 356a 9ebd a701 1ebe
000000c0: ecef d9bc efc2 2e3c 423c 8a3d 64f3 fe3d
000000d0: 29ba d33d ae1e cb3d 8f06 85bd d8c7 713e
000000e0: 88b7 76bc ea4a 2e3e 8590 9d3d 6ee7 e2bd
000000f0: d4fa 5fbd 9a80 e33b 3386 5bbc 25a2 c13d
00000100: 7416 aebc 9a40 aa3c f9fa e73b bccb 513b
00000110: f0e9 33bd ba7d 0c3e cc6d 2e3d 3025 30be
00000120: c916 c4bc 49f5 e0bd 2717 2a3d 2a88 4bbe
00000130: e9fc 733d f7ca 2bbe ed9e 9abb 0745 1bbd
00000140: 66f3 34be 2f3f c7bc fda2 01be a1e7 2f3d
00000150: 2717 4bbd f10e c73c 3992 c3bd d298 b33c
00000160: 01c7 293b de26 dcbb c52b 1f3e e8c0 a1bd
00000170: 388c 033d 10c3 a23d b114 f93d 89f5 9ebd
00000180: e6d9 3fbe cb14 dd3b 1198 b8bd ebb3 05be
00000190: 424c 203e 9b18 7e3c 4490 f83d e09f 79bc
000001a0: 5e99 993d 40fa 1cbd 8011 a03d 79ea f23d
000001b0: a01a f8bc bd87 7e3d 62e5 003d 76e1 e23d
000001c0: b361 3b3c 38aa be3d 79d5 3f3d 45ca 913c
000001d0: ef2b c0bd 4e2a 25bd 9bc8 f73d c095 1cbe
000001e0: 1694 afbd a1aa 823d 0539 c6bb e7f2 00be
000001f0: f4ee 173e 7c97 843d 921e 57bc 7f08 1a3e
00000200: 0a55 f2bd 1f3b 1b3e fee1 c2bd 462b 0dbd
00000210: 7eeb 2c3e ec47 a1bb 985d 58bc 47a3 2c3d
00000220: 7b5d bd3d 26c0 583d e6ac 3f3d d708 c1bb
00000230: 3698 dcbc ada4 603d 116c 1e3e 1d29 323d
00000240: 8333 89bd 59a1 963c 9479 283d 1df1 f53c
00000250: 3b55 ff3c e40a c43d b633 b6bd 7041 8fbd
00000260: e58f be3d 2054 9ebb e3d7 863d df16 433d
00000270: 7ae6 0cbe 0815 aabc 5a85 bcbc 7556 1ebe
00000280: 1ba5 3fbd 1d88 363e 2e87 ab3d 3de8 6fbc
00000290: ce50 983d b63e 463b 4cc6 1f3d ae87 6e3a
000002a0: e5a2 473d 7a52 353d f349 043b 0ef6 04be
000002b0: 0237 70bb 0b41 743d 3557 853d b11c 263e
000002c0: fed8 00bd 61ad 37bc 34d5 8fbb 0b08 563d
000002d0: c563 f33c 5a33 253e 6e86 6bbe a35c d9bc
000002e0: 3a4e 9bbd 723b bbbd 0122 b5bd 8510 7abc
000002f0: 82b9 98bb 056a 01be a1c8 913c 0af8 77bd
00000300: e920 3c3d cf96 13be 13bb 66bd cfcd 7dbd
00000310: 8eaa bb3d 9348 f73c e38e ffbc d638 b4bd
00000320: 5349 123d 7bd6 e43d 8cd9 aabd 1d11 be3c
00000330: d311 d0bd 56c8 cebc 39bf 1abe e9bd c23b
00000340: f1a2 8dbd a3bf a6bd 2d4d 173e b349 2dbe
00000350: 91a1 c23d 672a 9e3c 4e6c f9bd 098d 683d
00000360: 6714 d7bd b846 b43c 4138 763d 8825 92bc
00000370: f928 1d3e 239f 823d 4b89 f5bc 288b 26be
00000380: 044a 4abc c4fe 42bd 5860 acbd 77b3 d73b
00000390: babe 70bd cf33 7fbd fa00 393d f70d c03d
000003a0: 72ac 04bd 8802 513e 3d55 3fbe 4569 eabc
000003b0: c29f 2e3d 263f 9b3c 7dc1 1ebc 50e3 163e
000003c0: 6bbd 9338 926f 4d3d 3a66 1e3d b49d 7ebd
000003d0: 5412 d1bd 520f 07be 9209 afbd 9f7b e4bb
000003e0: 43a7 013d 402f 0f3c d476 8a3d fb4b 833e
000003f0: 8849 4a3d 43c5 cfbd 72ff ac3d c608 673e

network_body._body_endoder.seq_layers.2.bias f4 [128]
0.002764013 -0.00095796457 -0.0006040251 8.771637e-06 0.00077947055 0.00185887 0.0010350646 0.0040387586
0.0016968319 -0.0020884462 0.0023797199 0.0051824898 -0.0015976499 0.0006303858 0.0022970233 -0.0017301914
0.002025369 0.0029826476 -0.0033946855 0.00045034767 -0.0014012785 -0.0010531751 -0.003274425 0.0019408732
-0.004357761 -0.0044454187 -0.0020061282 -0.0014443113 -0.0018010669 -0.0010747467 0.0023465906 0.0032657143
-0.0018646445 0.0037284538 9.958134e-05 -0.004427966 -0.0024777744 -0.0013323573 0.0003625773 -0.0009245834
-0.000747296 -0.00015085116 -0.0009250447 0.00032718113 0.001177299 0.0010861685 -0.0012102674 -0.00018874237
0.0039928746 -0.00061103783 -0.0026643896 0.0027526089 -0.0013959524 -0.00013005808 0.001421784 0.0016603532
-0.0016723915 0.0023251406 -0.0029629124 0.0012139144 0.0031600462 0.0011148232 -0.0014901715 0.00092936156
-0.0016764848 0.0010861934 0.0020926874 -0.0016026217 -0.0026049183 -0.0005735299 -0.005254976 0.0021388158
-0.0007899566 0.0020126097 -4.3148382e-05 0.0014256425 -0.0030449121 0.0022910195 0.0010430708 0.003964977
-0.0024643054 0.0025569254 -0.00083401776 -0.0010446361 0.0021121395 0.0020497208 0.0033384142 0.0008413368
0.0004706566 0.00042327645 -0.0014818046 -0.0005028743 -0.001559154 0.004109409 0.0005700718 0.0008895031
-0.00064589345 0.0027090325 0.0007548297 -0.0012199898 0.0016196982 -0.0020860957 -0.0022379477 -0.0006518559
-0.0026401368 0.0022608999 -0.002395006 0.0033365341 0.0017070792 -0.0018670156 -0.0031652767 -0.00065132696
0.0012708711 -0.0005858589 -0.0009232795 0.004255333 -0.004032297 -0.0031421846 -0.0010148187 0.0017303844
-0.0010271032 0.0027981573 0.00032559977 -0.00014973251 -0.0034654662 0.0013778511 -0.0035508005 0.0019320468
00000000: 7124 353b ea1f 7bba 7057 1eba e529 1337
00000010: 6255 4c3a 54a5 f33a 01ab 873a 9057 843b
00000020: 3b68 de3a 50de 08bb 13f5 1b3b e0d1 a93b
00000030: 3c68 d1ba 7a40 253a a889 163b 97c7 e2ba
00000040: 0ebc 043b 8678 433b 5f79 5ebb a41c ec39
00000050: 1bab b7ba b10a 8aba bc97 56bb e664 fe3a
00000060: 8ccb 8ebb e0aa 91bb 3f79 03bb 0c4f bdba
00000070: c711 ecba 84de 8cba 42c9 193b 9805 563b
00000080: 1667 f4ba 1359 743b 53d6 d038 7918 91bb
00000090: 2862 22bb 7ea2 aeba 4d18 be39 be5f 72ba
000000a0: 30e6 43ba cd2d 1eb9 b37e 72ba 8289 ab39
000000b0: 994f 9a3a c45d 8e3a d6a1 9eba 25e9 45b9
000000c0: a9d6 823b 0e2e 20ba 0a9d 2ebb 1d65 343b
000000d0: 64f8 b6ba 3360 08b9 285b ba3a 35a0 d93a
000000e0: 2634 dbba 6361 183b 6c2d 42bb 351c 9f3a
000000f0: c718 4f3b 421f 923a dc51 c3ba 66a0 733a
00000100: 7fbd dbba 9a5e 8e3a 7825 093b 100f d2ba
00000110: 47b7 2abb f158 16ba ef31 acbb 602b 0c3b
00000120: 1715 4fba fde5 033b 39fa 34b8 a0dc ba3a
00000130: 268d 47bb ee24 163b a6b7 883a a3ec 813b
00000140: 2f80 21bb 1792 273b fca1 5aba 2cec 88ba
00000150: d26b 0a3b 9c54 063b 4cc9 5a3b 288d 5c3a
00000160: 76c2 f639 34eb dd39 1d39 c2ba 53d3 03ba
00000170: 875c ccba 39a8 863b df70 153a 8b2d 693a
00000180: 2d51 29ba 068a 313b c4df 453a 11e8 9fba
00000190: 0e4c d43a e1b6 08bb 88aa 12bb 4fe1 2aba
000001a0: 2506 2dbb 9b2b 143b 88f5 1cbb c1a9 5a3b
000001b0: 13c0 df3a a6b6 f4ba 8870 4fbb d0bd 2aba
000001c0: 5c93 a63a 5394 19ba 3d08 72ba 5270 8b3b
000001d0: 5c21 84bb 1ced 4dbb aa03 85ba 11ce e23a
000001e0: dd9f 86ba 4a61 373b 43b5 aa39 8401 1db9
000001f0: e01c 63bb 0399 b43a 8cb4 68bb bc3c fd3a

network_body._body_endoder.seq_layers.2.weight f4 [128, 128]
0.003999309 0.008728666 0.0074765077 -0.101458624 -0.027445868 0.18626255 -0.007612795 -0.051437378
0.05851503 -0.08196766 0.122981995 0.08021203 0.04223696 0.009075369 -0.12446843 -0.0988116
0.11169743 -0.06452361 0.11761029 -0.007862732 -0.028199552 -0.06121646 -0.087621614 0.11421221
0.07270514 -0.112625085 -0.20741151 -0.1029325 -0.08371449 0.11734418 0.021909602 -0.11079129
-0.032768756 -0.08294774 0.06614542 0.13283178 -0.016354306 0.0092362035 -0.01124061 0.04758269
0.031149294 0.0145586645 -0.16302261 -0.008457437 0.11175108 0.13109535 0.024777472 0.066724725
-0.0015410086 -0.100037426 0.04591579 0.051496 0.074255034 0.12961225 -0.012187399 0.030720722
0.009468209 -0.05721457 -0.085433185 -0.21334638 -0.03197755 -0.04681926 -0.059032034 -0.063649856
0.066951215 -0.14714076 -0.050636277 0.009453054 0.100584246 0.07892662 0.09238365 -0.03916414
-0.04599359 0.0408602 -0.14172572 -0.016750759 -0.06314319 -0.009046954 0.14750835 -0.19239926
0.030992834 0.08379329 0.037572313 0.10658604 -0.0013283589 0.14274949 -0.051015906 -0.029607864
0.07977291 -0.12798528 -0.053323016 0.04645495 -0.15647575 -0.2636605 0.010992219 0.09648839
0.076547876 0.06027566 -0.1250246 0.07874953 -0.043446783 -0.012597018 0.02219414 -0.12970623
0.034134075 0.11079665 0.15491094 -0.17664674 -0.009390672 -0.10030249 0.100671604 -0.14337476
0.05508301 0.030963054 -0.06537106 0.08077541 -0.0027702616 -0.032964513 -0.009732526 0.052163668
-0.07493284 -0.0040523973 -0.045309555 -0.02352018 0.020617712 0.18960342 0.08410545 0.07504132
0.11983363 -0.09181708 0.13640082 0.08307825 0.02886346 -0.04070821 -0.14618404 -0.1327933
-0.014223179 -0.1485137 0.05218259 -0.13385218 -0.014279209 0.010252769 0.093523964 -0.23117913
0.02130654 0.11064592 0.052022137 0.0380431 0.06660005 0.06080804 -0.051580943 0.21445115
-0.059663527 -0.1160094 -0.15727782 0.013793506 0.12058385 0.09030727 -0.003894068 -0.15851994
-0.029474413 -0.0068752603 0.0674257 -0.067134626 0.15177257 0.054683775 0.09149344 -0.16150737
0.1582753 0.26375213 0.021772515 -0.007268397 -0.10493857 -0.003118647 0.022583596 0.12020528
-0.013562318 0.12370225 -0.08044095 -0.02770419 -0.033591993 -0.02610137 0.20186366 0.008602416
0.07902365 0.09796146 0.15051343 -0.11285693 -0.03555972 0.097114995 0.122039415 0.12889272
-0.11526419 -0.03684211 0.1377532 -0.1442438 0.048594605 0.061338548 -0.054350525 0.046175703
0.054012064 0.08645382 0.049166523 0.06382476 -0.0014946015 0.025462085 0.041168954 0.092850074
-0.003912312 -0.041111857 0.025073072 0.016647333 0.0693719 0.061329238 -0.0054425276 -0.050449133
-0.11416294 -0.0953151 0.10428082 -0.062244963 -0.15119882 0.12101918 -0.062715024 0.13605201
-0.034759734 -0.070650086 -0.16050367 0.070584476 -0.014003708 -0.023435866 0.051818438 -0.09833417
-0.06191237 -0.005738786 -0.062661886 0.10436087 -0.034903947 -0.009765389 -0.13124323 0.21020374
-0.013771 -0.05164372 0.113211304 0.011150722 0.096426725 -0.006488782 -0.12255786 0.07561184
0.006360753 0.015365927 -0.07106765 -0.016759444 -0.0333403 -0.03709769 -0.0741119 -0.004351115
00000000: a30c 833b ae02 0f3c 7efd f43b 8ac9 cfbd
00000010: 28d6 e0bc 9cbb 3e3e c174 f9bb 00b0 52bd
00000020: 75ad 6f3d a9de a7bd fcdd fb3d 3446 a43d
00000030: aa00 2d3d dbb0 143c 4ee9 febd bc5d cabd
00000040: 9fc1 e43d f424 84bd aadd f03d b0d2 00bc
00000050: bf02 e7bc 1cbe 7abd f672 b3bd 17e8 e93d
00000060: 6fe6 943d fba7 e6bd af63 54be 46ce d2bd
00000070: 8172 abbd 2552 f03d c47b b33c 8be6 e2bd
00000080: 8838 06bd 81e0 a9bd 4077 873d 0e05 083e
00000090: 77f9 85bc 7253 173c 892a 38bc 11e6 423d
000000a0: ce2c ff3c 7787 6e3c 66ef 26be 1091 0abc
000000b0: c0dd e43d dc3d 063e 20fa ca3c f9a6 883d
000000c0: abfb c9ba 6ce0 ccbd 3212 3c3d 78ed 523d
000000d0: 0613 983d 13b9 043e a8ad 47bc 06aa fb3c
000000e0: 8c20 1b3c d359 6abd 98f7 aebd 7977 5abe
000000f0: e4fa 02bd 8dc5 3fbd 93cb 71bd db5a 82bd
00000100: b81d 893d 11ac 16be fc67 4fbd fbe0 1a3c
00000110: 1dff cd3d 48a4 a13d a433 bd3d 946a 20bd
00000120: c663 3cbd 065d 273d 8c20 11be e338 89bc
00000130: 3851 81bd ad39 14bc 6e0c 173e 5004 45be
00000140: afe4 fd3c d19b ab3d 6de5 193d c849 da3d
00000150: 541c aeba ec2c 123e 0ef6 50bd 318c f2bc
00000160: fb5f a33d 930e 03be 3c69 5abd 8c47 3e3d
00000170: 2e3b 20be 82fe 86be b518 343c b49b c53d
00000180: 22c5 9c3d 9ce3 763d 7306 00be 6f47 a13d
00000190: 41f5 31bd b963 4ebc 7cd0 b53c b6d1 04be
000001a0: 2cd0 0b3d 5be9 e23d f9a0 1e3e e2e2 34be
000001b0: 55db 19bc 646b cdbd ea2c ce3d d5d0 12be
000001c0: b99e 613d 3ba6 fd3c 43e1 85bd 946d a53d
000001d0: 478d 35bb cc05 07bd 2c75 1fbc 92a9 553d
000001e0: 6476 99bd f9c9 84bb 8396 39bd 64ad c0bc
000001f0: 7ae6 a83c 6627 423e 7a3f ac3d 43af 993d
00000200: 566b f53d 980a bcbd a8ac 0b3e ee24 aa3d
00000210: 1073 ec3c a7bd 26bd 45b1 15be f8fa 07be
00000220: 5608 69bc fa13 18be 69bd 553d 8c10 09be
00000230: 58f3 69bc 3bfb 273c 7e89 bf3d 39ba 6cbe
00000240: 0e8b ae3c 549a e23d 2a15 553d 15d3 1b3d
00000250: 9b65 883d da11 793d 8a46 53bd 1599 5b3e
00000260: be61 74bd 5696 edbd 700d 21be 28fe 613c
00000270: aaf4 f63d 05f3 b83d 9f33 7fbb 0d53 22be
00000280: 5374 f1bc dd49 e1bb 7c16 8a3d e17d 89bd
00000290: 456a 1b3e 18fc 5f3d ea60 bb3d 3062 25be
000002a0: ec12 223e 850a 873e 465c b23c bc2b eebb
000002b0: 08ea d6bd 3762 4cbb 3c01 b93c 302e f63d
000002c0: 7c34 5ebc 9b57 fd3d 3abe a4bd e6f3 e2bc
000002d0: c297 09bd 8ad2 d5bc 59b5 4e3e 26f1 0c3c
000002e0: 27d7 a13d 05a0 c83d 3120 1a3e 8921 e7bd
000002f0: 12a7 11bd 3ae4 c63d cdef f93d 74fc 033e
00000300: a20f ecbd c1e7 16bd 2d0f 0d3e a6b4 13be
00000310: 230b 473d 213e 7b3d a89e 5ebd bc22 3d3d
00000320: c13b 5d3d b30e b13d d662 493d 8eb6 823d
00000330: 81e6 c3ba dd95 d03c c7a0 283d 2e28 be3d
00000340: da32 80bb e864 28bd 0b66 cd3c fd5f 883c
00000350: db12 8e3d 5e34 7b3d 3b57 b2bb c0a3 4ebd
00000360: 42ce e9bd 9034 c3bd 2f91 d53d 93f4 7ebd
00000370: ddd3 1abe e7d8 f73d bc70 80bd 3851 0b3e
00000380: 3960 0ebd feb0 90bd 135b 24be 988e 903d
00000390: cf6f 65bc 93fc bfbc 923f 543d 6d63 c9bd
000003a0: d397 7dbd 6d0c bcbb e054 80bd 27bb d53d
000003b0: 71f7 0ebd 03ff 1fbc a064 06be a63f 573e
000003c0: c39f 61bc 5e88 53bd 54db e73d 85b1 363c
000003d0: 607b c53d d99f d4bb 9eff fabd 61da 9a3d
000003e0: dd6d d03b 5ec1 7b3c eb8b 91bd 1a4b 89bc
000003f0: d78f 08bd bff3 17bd fbc7 97bd cc93 8ebb
